decoder_add_numbers_weights.pth (torch, 8496 bytes, 3 tensors)

fc.0.weight f4 [128, 10]
000000 c2 ff e6 3d 74 7d 26 be e2 07 02 be df 42 42 3e
       0.11279251 -0.16258794 -0.1269832 0.18970822
000010 ea 36 62 3e 63 c3 69 bc 8b c6 87 3e f8 92 20 3e
       0.2209126 -0.014267775 0.26518664 0.15681064
000020 31 c3 5c be 55 9e 79 3d d0 51 3e 3e b2 ee da bd
       -0.21558835 0.060942013 0.18585896 -0.10690059
000030 bb 07 d0 bd da 0e 6e 3e a9 35 42 3e 3b e0 72 be
       -0.101577245 0.23247853 0.18965782 -0.2371835
000040 f7 a2 89 3e 62 f6 22 be 6f a2 51 be b9 f4 d8 bd
       0.26882145 -0.159143 -0.2047212 -0.10593552
000050 44 dc 98 3e c7 39 2b be ac 9b 02 be 80 8e 88 3e
       0.2985555 -0.16721259 -0.12754697 0.2667122
000060 02 f2 4a 3e 75 f6 69 be 80 f8 ef 3d 16 5c 1f 3e
       0.19818881 -0.22847922 0.117173195 0.15562472
000070 be 82 c7 3b c3 66 b3 3e 68 47 fc bd 6f 81 95 be
       0.0060885837 0.35039338 -0.12318307 -0.29200312
000080 ea ae 80 3e 63 fe 59 bc c2 f9 4d bd 7a 60 ec 3d
       0.2513345 -0.013305279 -0.050287016 0.11541839
000090 5e 3f 8a be aa 38 4b be 74 20 a8 bd b9 7b 95 3e
       -0.2700147 -0.19845834 -0.08209315 0.29195955
0000a0 06 e4 ce bd 39 64 55 3e 12 c0 1a be 39 89 4a be
       -0.10102086 0.20839013 -0.15112332 -0.19778909
0000b0 69 f2 83 be 90 a3 8f be aa c3 83 3d cf 1a ee 3c
       -0.25770882 -0.28054476 0.06433804 0.029065518
0000c0 2f cd 0a be d3 42 a7 bc 27 53 5f be 10 90 83 3e
       -0.13554834 -0.020417606 -0.21809064 0.25695848
0000d0 a8 55 8a be a4 2c b5 3d 7b 93 fc bc 04 33 84 3e
       -0.27018476 0.08846405 -0.030832043 0.25820172
0000e0 d9 15 96 3e d2 ab 10 3e 7d e0 aa 3d 76 17 d5 3d
       0.29313543 0.14128044 0.08343599 0.104048654
0000f0 eb 5d 51 3e 61 5b 94 3d 83 6b 9f 3e 0d 51 a4 bd
       0.20445983 0.07243992 0.31136712 -0.08023272
000100 fe c5 51 be bc 49 a0 be 9e e2 8c 3e 3b 3c a4 3e
       -0.20485684 -0.31306255 0.27516645 0.32077202
000110 24 e1 1f be 9a d8 9d be e3 cb 88 be e5 1b 94 bd
       -0.15613228 -0.30829316 -0.26718053 -0.07231883
000120 58 91 4b be 05 f8 35 be a0 49 82 3d 98 1b a7 bd
       -0.19879663 -0.17770393 0.06361699 -0.0815956
000130 5c db 43 3e 08 a3 3a be dc 36 2d be d5 b8 39 be
       0.19126648 -0.18226254 -0.16915458 -0.18136914
000140 2d e2 ba be d3 0d 24 3e a1 3a b7 bd a9 ce 09 be
       -0.36500683 0.16020899 -0.089467295 -0.13457741
000150 2b b4 02 3e f3 e2 8a be b9 c7 7d be 77 7a 27 3a
       0.12764041 -0.27126274 -0.2478322 0.0006388793
000160 62 49 8f bd f3 2d 7b bc 9f 51 1c be 1b 85 0e 3d
       -0.069964185 -0.015330779 -0.15265511 0.034794908
000170 9e ed 8a 3c eb 19 7d be 18 97 9f 3e 88 22 2a 3d
       0.016959008 -0.24716918 0.31169963 0.041536838
000180 30 03 89 be df af 24 3e 7c 41 98 3e bc df 38 be
       -0.26760244 0.16082714 0.2973746 -0.18054098
000190 b6 b4 d5 bd 88 f0 2a 3e d2 29 6c be fa a8 89 3e
       -0.104348585 0.16693318 -0.23062828 0.2688673
0001a0 32 89 91 bc dd d1 f1 3d 4a df 8f be dd b2 24 3e
       -0.017765615 0.11807606 -0.28100044 0.16083856
0001b0 c6 46 20 3e 20 63 fe 3d c3 c2 10 be b6 60 9c 3e
       0.15651998 0.1242125 -0.14136796 0.30542535
0001c0 21 11 fc bd e4 85 84 be 83 e7 97 3d c2 81 02 be
       -0.123079546 -0.258834 0.07417204 -0.12744811
0001d0 74 69 96 be 78 bb fc bb 09 d3 9a 3e 5e a7 4e be
       -0.2937733 -0.0077127777 0.30239132 -0.20181033
0001e0 94 6e 97 3e 95 92 a0 be 7a e8 1c 3e cf 97 28 be
       0.29576552 -0.31361833 0.15323058 -0.1646416
0001f0 af 2e 37 be f2 93 02 be ef 43 ef 3c 02 44 94 3e
       -0.17888902 -0.12751749 0.029207198 0.28958136
000200 45 bd 45 3e a1 8b 89 be 12 da 5c 3e e6 ee 15 3c
       0.19310482 -0.2686434 0.21567562 0.009151196
000210 0a 19 2c be 9e b4 79 be d7 61 ab be 85 2c 4c 3c
       -0.16806427 -0.24385306 -0.33473083 0.012461786
000220 0f 15 04 3e 8d 37 c5 be 7e 88 15 be 2f c1 16 be
       0.12898658 -0.38518944 -0.14602849 -0.14722131
000230 28 dd dd 3c 2f 0e 90 3e b0 32 51 3d 09 78 3a be
       0.027082995 0.2813582 0.05107373 -0.18209852
000240 9e 97 9f be d8 5a 85 3d 9a f7 9c be da d5 b2 3d
       -0.31170362 0.06511468 -0.30657655 0.08732195
000250 48 e8 a0 3e ae dc 84 bd 94 d4 82 3e 6d 09 7d be
       0.31427217 -0.06487404 0.2555281 -0.24710627
000260 d7 18 42 3e ff 62 96 3e 2a 3b 81 3e c9 5b 65 be
       0.18954788 0.29372403 0.2524045 -0.22398295
000270 cd 44 25 3e 63 15 94 3d 24 4e 65 bd 1d 17 2b be
       0.16139527 0.07230642 -0.055982724 -0.16708036
000280 cd 3a 0d bd a9 a3 14 3e df 0c 58 be 0e 47 55 be
       -0.034479905 0.14515556 -0.2109866 -0.20827886
000290 57 49 68 be dc c0 86 be 7a b3 03 3e 30 5f a2 be
       -0.22684227 -0.26319015 0.12861434 -0.31713247
0002a0 7d 90 66 3e c6 6e 8a 3e de e0 5a 3e 1e 39 1c be
       0.22516055 0.27037638 0.21374843 -0.15256163
0002b0 1e d5 85 bd 36 00 c9 3d 77 11 5a 3e 6e 71 28 be
       -0.065347895 0.09814493 0.21295725 -0.1644952
0002c0 31 b5 d7 bd f9 c7 8c be cb 2b b4 bd 41 0d 18 3e
       -0.105326064 -0.27496317 -0.08797415 0.14848806
0002d0 29 83 2b 3e e0 5c 81 be 9f 7b 7f 3e 35 39 83 be
       0.16749252 -0.2526617 0.24949501 -0.25629583
0002e0 de b2 13 be 03 26 8c be 9e 5e 6a 3d 76 71 97 be
       -0.14423701 -0.2737275 0.05721914 -0.2957875
0002f0 3e a5 24 bd cc fb d3 3d 3f c5 30 3e 43 e9 90 be
       -0.04019665 0.10350761 0.17262743 -0.28302965
000300 c8 02 82 3e 6a d6 b4 bd 2e 99 69 3e 06 65 29 3e
       0.25392747 -0.08829959 0.2281234 0.16542444
000310 06 ed 6a 3e ba da 38 be 08 03 5b 3e 32 a2 8a be
       0.2294198 -0.18052188 0.21387875 -0.2707687
000320 1d de 0f be 64 a9 b8 3c e6 c9 74 be f4 43 a0 be
       -0.14049573 0.02254171 -0.23905143 -0.31301844
000330 29 7c 79 be db 42 8e bd 62 21 33 be 7b 46 94 bc
       -0.2436377 -0.069463454 -0.17493203 -0.018100014
000340 e9 89 33 be 5f c4 ce bd 53 60 08 be f8 ac ab 3d
       -0.17533077 -0.100960486 -0.13317995 0.083826005
000350 bd 91 96 3e ad 74 fa 3d bd ea 58 be bd 39 4e be
       0.29408064 0.122292854 -0.21183296 -0.20139213
000360 6a c5 b5 3d af 34 df 3c 10 7e 1c be 46 55 6a bd
       0.08875544 0.027246801 -0.15282464 -0.05721023
000370 a5 7a 3f be 6a f7 80 3d 42 58 11 be b6 49 42 be
       -0.18699129 0.062971905 -0.14193824 -0.18973431
000380 d2 c7 8d 3e 64 38 b1 bb 02 41 96 3e a5 64 91 be
       0.27691513 -0.0054083336 0.29346472 -0.28397098
000390 44 0d bc 3a a7 55 59 3e ff c6 95 be f4 97 6d 3e
       0.0014347215 0.2122408 -0.29253384 0.23202497
0003a0 67 a1 61 bd 17 f2 33 be 2f 83 5d 3e 75 5f 87 be
       -0.055085566 -0.17572819 0.21632074 -0.26440015
0003b0 b6 c2 1c be 6e e5 ee 39 53 b6 8b be 1b 25 58 be
       -0.15308651 0.00045565836 -0.2728754 -0.21107905
0003c0 e2 61 e4 3d 1a de 29 3e d3 43 90 be 6b 6a e7 3d
       0.11151482 0.16588631 -0.28176746 0.112995945
0003d0 90 9f 46 3e 8e a0 2b 3e ee 36 81 be 0a 16 59 be
       0.19396806 0.16760466 -0.2523722 -0.21199813
0003e0 04 12 77 be 85 ac 5f 3e 0c 95 d3 3d 8a ec 04 be
       -0.24127966 0.21843155 0.10331163 -0.12980857
0003f0 b8 d4 d0 bd dc 8a 22 3e c7 c1 53 3e 45 fd 8a be
       -0.10196823 0.15873283 0.20679389 -0.27146354

fc.0.bias f4 [128]
000000 03 a1 a1 be db 4e 75 be e2 9a f1 3d 20 cf c1 3d
       -0.31568155 -0.23955862 0.1179712 0.09463334
000010 e2 f7 38 3e fb a8 91 bd 9c 2b 86 3e 0f a9 1c be
       0.1806331 -0.071123086 0.26205146 -0.15298866
000020 77 31 80 3e 11 11 51 be 88 c0 33 3e c4 e2 6c be
       0.2503774 -0.20416667 0.17553914 -0.23133379
000030 b3 8b 1b be df 5f fa 3d 61 68 ab bd 63 cb f3 3c
       -0.1519001 0.12225317 -0.08369518 0.029760068
000040 b9 99 f1 3c 42 bc 63 be cd e2 51 3e c2 20 b5 3d
       0.029492246 -0.22239783 0.20496674 0.08844139
000050 42 68 a1 3d 6c 2c 55 bd 78 35 9a 3d d6 f2 3b be
       0.07881214 -0.052044317 0.075297296 -0.18354353
000060 66 42 6a 3e 2d 19 5a 3e 4c 7e 82 bd 6b 81 85 3e
       0.22876891 0.21298666 -0.063717455 0.260753
000070 01 5b 2d 3e e1 6d 5d be 43 59 9f 3e 41 4e a6 be
       0.16929246 -0.21623947 0.3112279 -0.32481578
000080 af 79 83 be ad 27 31 3e 25 e8 93 bd 29 3a 2b bd
       -0.25678775 0.17300291 -0.072220124 -0.041803513
000090 3f 47 b1 3e 8e b1 c3 3d e2 82 5b 3e c7 94 54 be
       0.3462467 0.0955535 0.21436647 -0.20759879
0000a0 0c dd 50 3e 23 f9 82 3e 73 32 5e bc 0c 3f 41 3e
       0.20396823 0.255807 -0.013561833 0.18871707
0000b0 4f 26 8f 3e 46 69 2f be 6d 85 8e be f6 7e 95 be
       0.27958915 -0.17130002 -0.2783617 -0.29198426
0000c0 7e 4a 8c 3a 43 d4 6a 3e 50 27 7c 3d 1b 0e 02 3e
       0.0010703353 0.22932534 0.06156093 0.12700693
0000d0 9a ff 8a be 0c 2c 62 be 82 ab 1d be 98 8a 19 be
       -0.27148134 -0.22087115 -0.15397456 -0.14994276
0000e0 83 2b db 3b d9 d4 10 bc 46 0a 78 be 57 e1 87 bd
       0.0066885366 -0.008839809 -0.24222669 -0.06634777
0000f0 f7 97 06 3c b7 57 c1 3d 38 72 79 3c 21 5e 34 3e
       0.008214942 0.094405584 0.015224986 0.17614032
000100 0b 95 c5 3d cf 1e 86 bd aa c6 83 3e bf 53 df bc
       0.09647568 -0.06548845 0.25737506 -0.027261613
000110 6d d6 2d 3e 3f 94 05 3e 9e 26 1c be 1b 17 71 be
       0.16976328 0.13044833 -0.15249106 -0.2354397
000120 1f 82 af bd 06 2e 7d 3e 73 10 1f 3e 49 34 8b bb
       -0.085697405 0.24724588 0.15533619 -0.0042481762
000130 c9 28 4e 3d b9 58 4b be 3a 4b ff bd c5 5e 8d be
       0.050331865 -0.19858064 -0.1246552 -0.27611366
000140 a5 5d 85 3d 01 fa 23 3e 46 53 f9 bd 85 40 b8 3c
       0.06512002 0.16013338 -0.12174086 0.022491703
000150 be 58 3a 3b 60 64 83 3c 83 b8 79 3d fb 1a 4d 3d
       0.0028434242 0.016039073 0.06096698 0.05007456
000160 5a a2 53 3d d0 59 6f bd a4 f0 7b bd bb 2b 2a be
       0.051668502 -0.05843526 -0.06150879 -0.16618244
000170 87 63 12 be ed 2b b1 3d c2 e0 ac be 4c 24 81 3e
       -0.14295779 0.08650956 -0.33765227 0.25223005
000180 d9 e3 37 bb ff f7 88 3e 2d 0e 5d be 1f 27 97 be
       -0.0028059392 0.26751706 -0.21587439 -0.29522035
000190 ba 7c c5 bc dc 41 81 be 21 51 ba be 90 17 31 3d
       -0.024107326 -0.2524556 -0.3639002 0.04323536
0001a0 da 96 fc bd 96 6e 22 be e1 44 4b bd 78 80 a9 3e
       -0.1233346 -0.15862498 -0.049626235 0.33105826
0001b0 63 bf 16 3e b8 99 8a be c4 37 ae 3e fc f0 39 3e
       0.14721446 -0.27070403 0.3402692 0.18158334
0001c0 ea 48 97 3c aa 08 37 be ca b5 ad 3e 23 fa 82 bd
       0.018467385 -0.17874399 0.33927757 -0.06395366
0001d0 ba f8 f2 3d 8a 63 89 3c 6f 1e 58 3e d6 e0 1e 3e
       0.11863847 0.016771097 0.2110536 0.15515456
0001e0 62 78 5d be a4 6b 0e bd e2 75 68 bd 00 59 c8 3d
       -0.21627954 -0.034770623 -0.056753047 0.097826004
0001f0 4c 4b 98 bc 3e ef 35 3e 20 44 27 bd 14 52 53 be
       -0.018590592 0.17767045 -0.040836453 -0.20636779

fc.2.weight f4 [1, 128]
000000 a6 ff 3b bc af 18 24 bd b3 e2 2b bd 88 dd 0f bd
       -0.011474526 -0.040062603 -0.041964244 -0.035123378
000010 f0 1d 7e 3d 13 b4 02 bc 3b 34 2c 3d 15 a6 2e bd
       0.06204027 -0.007977503 0.042042 -0.042638857
000020 e2 4f f9 3b 10 91 56 bd 36 25 0e bd f6 a9 15 3d
       0.0076083997 -0.052384436 -0.034703456 0.03653904
000030 12 3d 2c 3c b1 4e 93 bb 68 2d 28 3d d8 94 99 bd
       0.010512607 -0.0044954647 0.041058928 -0.07499093
000040 1e 32 23 bc 97 80 9c bc 28 4e 65 bd c9 5e b0 3c
       -0.009960679 -0.019104285 -0.05598274 0.021529572
000050 d2 24 87 bc c9 d5 b9 bc b3 0b 55 bc e3 c1 db bc
       -0.01649705 -0.022684949 -0.013003278 -0.02682585
000060 72 30 70 3c 6c 17 64 3d c5 29 f7 3c 24 79 96 bd
       0.014659988 0.0556864 0.030171284 -0.073473245
000070 c2 a9 c1 3c 1d a5 55 3d 3c de 9d 3c 9f b4 1b 3d
       0.023640517 0.052159417 0.019271009 0.03801405
000080 d7 44 9a bb 9a 96 84 bc 2c 53 9c 3d ac d5 84 3c
       -0.0047079134 -0.016185094 0.07633051 0.016215168
000090 11 20 90 3d 97 d7 ee 3b 13 21 02 3c bf 21 41 bc
       0.07037366 0.007288884 0.007942456 -0.011787831
0000a0 7f a2 fa bc 82 b6 25 3c 49 c8 d9 bc f9 ee 59 bd
       -0.030595062 0.010114314 -0.026584761 -0.053206418
0000b0 25 bf 6e bd 34 2b 2e ba 16 10 8a bc 81 01 57 3d
       -0.05828776 -0.0006644011 -0.016853373 0.05249167
0000c0 6c ce 2e bc 7f 3f c0 3c 6c 64 04 3d d9 e7 5c bd
       -0.010669332 0.023467777 0.032322332 -0.053932045
0000d0 0f 66 ce ba 32 78 26 3d 7f f8 7e 3d d8 9f 52 3c
       -0.0015746969 0.04064197 0.062248703 0.0128554925
0000e0 a0 ed 03 bd 79 e5 84 3d cb 57 98 3d 25 5c 04 bc
       -0.03220904 0.06489081 0.0743862 -0.00807861
0000f0 28 fb 9c bc d5 7d fd bc 0a 03 43 bd 6c 88 e7 3c
       -0.01916273 -0.03094379 -0.04761032 0.028263293
000100 ec 3a bd bb 41 57 7a 3c f3 1e 86 3d 65 3f c4 3d
       -0.0057748463 0.015279592 0.06548872 0.09582404
000110 57 54 77 3b 95 16 8d 3c 5c 66 69 bb f5 09 29 bc
       0.003773948 0.017222682 -0.003561399 -0.010317315
000120 de 35 5c bc df 6d 84 3d 85 aa 82 3a 11 77 dd 3b
       -0.013440577 0.06466269 0.0009969032 0.0067585786
000130 f7 dd bb bc 19 96 22 bc d9 97 ad 3c 08 43 88 3d
       -0.02293299 -0.009923481 0.02119057 0.0665341
000140 ba aa 96 3d 6d 3b 8b bc 9f 75 2b bd e7 02 51 bc
       0.07356782 -0.01699611 -0.04186022 -0.01275704
000150 e2 07 4f 3d 0e 5d a5 3b 0f 9c 7e 3b c3 7a 8b 3d
       0.050544627 0.0050464934 0.0038850342 0.06810524
000160 d0 e1 c4 3d 28 f7 32 3d 23 90 22 bd e4 a4 25 3d
       0.09613383 0.043692738 -0.03968824 0.040440455
000170 b8 03 ce 3c 07 3b db 3c 0b 8d 92 3b 6c 4b a6 b9
       0.025148258 0.026761545 0.00447238 -0.0003171818
000180 bc 44 01 3c 88 fa 85 3c 1e a7 48 bd 7e 83 31 bd
       0.007889923 0.016354814 -0.0489875 -0.04333829
000190 55 f9 12 bd 0a ae 8e bd 88 40 69 bd 29 a8 39 3d
       -0.035882313 -0.06966789 -0.056946307 0.045326386
0001a0 32 59 af 3c 3c 45 28 bd e3 4f 89 3d 3c 69 e0 3c
       0.021404836 -0.041081652 0.0670469 0.02739393
0001b0 7f 4a a0 3d 98 43 19 bd c0 a3 f3 bd 24 79 0e 3d
       0.07826709 -0.037417978 -0.11896467 0.034783497
0001c0 56 f4 6f 3d fb fb 2a 3d cd b1 22 3d 96 3f 75 3c
       0.058582626 0.041744214 0.039720345 0.014968773
0001d0 13 82 3c 3d 92 e0 b1 bc ca 7f 5d bc 58 24 69 bd
       0.046022486 -0.021713529 -0.013519237 -0.056919426
0001e0 90 11 25 3a f4 71 8e 3c 21 b7 ad 3c ec 56 eb 3c
       0.00062968675 0.017388321 0.021205487 0.028727971
0001f0 01 95 60 3c d5 e9 80 3c ba de 92 bd cd d3 a9 ba
       0.0137074 0.0157365 -0.07171388 -0.0012956798
