decoder_final.pth (torch, 29376 bytes, 4 tensors)

fc1.weight f4 [128, 32]
000000 4d 38 06 3f 1b d4 46 3f a3 b5 32 3f 3f a0 f7 3e
       0.5242966 0.776674 0.69808406 0.48364446
000010 fa a9 16 3f ca ab c4 be 8f 45 ac be 56 64 2e 3f
       0.58853114 -0.38412315 -0.3364682 0.6812185
000020 8f 0d 46 bf 25 61 44 3f 24 e9 20 bf 04 9f bd be
       -0.7736444 0.7671073 -0.62855744 -0.37035382
000030 e1 62 67 bf 95 b6 1a 3f 45 17 01 bf 5d 87 cb be
       -0.9038525 0.6043485 -0.5042613 -0.3975171
000040 b8 6b 15 bf ca 22 33 bf 49 db b0 be a0 fd 16 3f
       -0.5836749 -0.6997496 -0.345423 0.5898075
000050 ec 42 e6 3e 0e d7 11 bf 38 d0 0f bf 3b 1b ec 3e
       0.44972932 -0.5696877 -0.5617709 0.46114525
000060 26 e4 02 3f 76 94 13 3f 78 e7 1e bf 4c 54 21 bf
       0.51129377 0.5764841 -0.62071943 -0.6301925
000070 35 bc 0e 3f c5 5a 19 bf 78 9e 22 be bd ff c5 be
       0.5575593 -0.5990413 -0.15880764 -0.38671675
000080 2c 6a 05 bf f7 d1 f0 be 53 90 02 bf 7d 31 42 bf
       -0.5211513 -0.4703519 -0.5100147 -0.75856763
000090 70 fb eb be ce d4 e2 be d9 ca 0a bf 55 1a 11 bf
       -0.4609027 -0.44302982 -0.5421577 -0.56680804
0000a0 df 50 3b 3f 7e e5 0f bf 2d 8f 00 bf 44 b8 27 bf
       0.73170274 -0.5620955 -0.5021847 -0.6551554
0000b0 40 b9 4f be 6a 1b 28 bf db ce 21 bf 1c 75 4e bf
       -0.20285511 -0.6566683 -0.6320626 -0.80647445
0000c0 4e 6c 16 bf 81 67 2e 3f a8 ea f9 3d 66 a8 28 bf
       -0.5875901 0.68126684 0.1220296 -0.65881956
0000d0 ce 96 04 bf 44 81 4e bf 31 5b 25 3f d9 c1 df be
       -0.5179261 -0.80665994 0.6459227 -0.43702582
0000e0 b3 5f 3f bf 48 c6 16 bf e0 df f4 3e 6c eb 28 3f
       -0.747554 -0.58896303 0.47827053 0.65984225
0000f0 d2 94 da be 8a 05 4a bf da 46 cc be e0 31 86 be
       -0.42691666 -0.789147 -0.39897805 -0.26209927
000100 d1 3a 1c 3f f1 b4 fb 3e f4 ab 11 3f fc 18 44 3f
       0.61027247 0.49161485 0.56903005 0.76600623
000110 09 8e 2b 3f df 16 08 bf c6 a6 ae be 22 6c 07 3f
       0.67013603 -0.531599 -0.34111613 0.5289937
000120 5c bd 3e 3f cf 7e 42 3f dd ae 3b bf b0 cd 03 bf
       0.7450769 0.75974745 -0.73313695 -0.5148573
000130 48 33 30 bf ad 7c 08 bf 51 87 11 3f a3 fa b7 be
       -0.6882825 -0.5331524 0.568471 -0.35933408
000140 3e 00 a9 be 40 5e 36 3f 03 f9 e6 be 3b d2 e0 3e
       -0.33007997 0.71237564 -0.45111856 0.43910393
000150 e7 30 fc 3e a4 d5 df be a7 03 35 3f 2e d1 13 3f
       0.4925606 -0.43717682 0.707087 0.5774106
000160 63 5c 29 3f 4e 4f 1e 3f 96 4e 46 3f 2f 83 1b 3f
       0.66156596 0.6183976 0.7746366 0.60747045
000170 3c 70 19 3f 9e ab 15 bf 9b c8 11 3e b2 26 ff be
       0.5993688 -0.5846499 0.14236681 -0.4983421
000180 5d ec 08 bf 18 99 00 bf a4 0e 44 bf ab b9 f9 be
       -0.5348566 -0.502336 -0.7658484 -0.48774466
000190 35 c6 26 bf 2e 30 19 bf 2d 28 0a bf 3b 1f 29 bf
       -0.6514619 -0.5983914 -0.53967553 -0.6606328
0001a0 4e 0a 17 bf df de 44 bf 2d 55 3b bf 11 74 d8 be
       -0.590001 -0.76902574 -0.7317684 -0.42276052
0001b0 fd 00 ee be b8 24 d9 be 71 37 34 bf 89 c2 ef be
       -0.4648513 -0.42410827 -0.70397097 -0.46828106
0001c0 84 a3 15 bf e6 14 05 bf 94 17 22 3e 61 fa 06 bf
       -0.5845263 -0.51985013 0.15829307 -0.527258
0001d0 83 2d 23 bf 47 04 31 bf c6 b4 e6 be 61 de 1f bf
       -0.6374132 -0.6914715 -0.45059794 -0.624487
0001e0 b5 42 e7 be 05 ff ef be 75 2f 3d bf f5 25 06 bf
       -0.4516808 -0.46874252 -0.7390054 -0.5240167
0001f0 44 84 17 bf a4 05 1a bf 04 0f cc 3d 11 ec 21 bf
       -0.59186196 -0.60164857 0.099638015 -0.63250834
000200 c9 4a 2c bf 23 84 42 bf 94 6d d9 be 4a a0 09 bf
       -0.67301613 -0.75982875 -0.42466414 -0.53760207
000210 97 82 14 bf 80 6c 3f bf 51 29 36 bf 99 b5 04 bf
       -0.58011764 -0.7477493 -0.71156794 -0.51839596
000220 90 66 f9 be ce ca 39 bf 92 9a 08 bf a9 0f 24 bf
       -0.4871106 -0.7257508 -0.53360856 -0.64086396
000230 88 98 d1 bd b4 04 26 bf 63 7b e3 be 7a 59 f8 be
       -0.10234171 -0.64850926 -0.44430074 -0.48505765
000240 8d 79 22 bf 05 f2 2e bf 04 04 33 3e b2 25 04 bf
       -0.6346672 -0.6833804 0.17482 -0.5162002
000250 b7 4a 26 bf 65 0e df be 5d d4 33 bf 03 7b 2b bf
       -0.64957756 -0.4356567 -0.70245916 -0.66984576
000260 f6 aa 04 bf f2 a4 37 bf b8 86 2d bf 01 d1 eb be
       -0.51823366 -0.7173606 -0.6778369 -0.46057895
000270 30 bc 2b bf 56 d4 17 bf 1f 71 9f bd 72 b1 e5 be
       -0.67084026 -0.59308374 -0.07785248 -0.44861943
000280 fb af 3b 3f c7 e9 07 3f be da 27 3f be 99 09 3f
       0.733154 0.5309109 0.6556815 0.53750217
000290 ef 9e 20 3f e1 20 be be f5 0f 05 bf c0 c7 31 3f
       0.62742513 -0.3713446 -0.51977473 0.6944542
0002a0 55 24 40 3f e4 1d e1 3e b4 e6 03 bf 6b 41 0f bf
       0.7505544 0.43968117 -0.515239 -0.55959195
0002b0 5b ae 1b bf 44 c6 10 3f db 4e f2 3e 88 c3 11 bf
       -0.6081292 0.5655253 0.47325787 -0.5693898
0002c0 f1 64 f4 be 4a 67 ee 3e 49 11 c0 be 37 7f 36 3f
       -0.47733262 0.46563178 -0.37513188 0.71287864
0002d0 d0 cf 3e 3f 8d 10 fe be 14 39 35 3f 7b c7 df 3e
       0.74535847 -0.49622002 0.7079022 0.4370688
0002e0 06 a8 23 3f 55 2c 3a 3f bd 76 38 3f 53 b3 39 3f
       0.6392826 0.72723895 0.7205618 0.7253925
0002f0 11 1b 0b 3f 7b e1 91 be b4 60 a3 bd b1 1b 8f be
       0.54338175 -0.2849234 -0.07977429 -0.27950814
000300 c3 62 e1 3c 51 58 cb bb b2 e0 4c bd 76 eb b6 3d
       0.027512914 -0.0062055965 -0.050018974 0.08931629
000310 74 8f d7 3c 93 68 27 be ad f8 14 bd 95 71 c5 3b
       0.026313521 -0.16348486 -0.03636997 0.006025503
000320 d6 2e 4c bc 43 3d 17 be f0 38 25 be 79 f2 fe bd
       -0.012462338 -0.14769463 -0.16135001 -0.12448592
000330 e7 e5 f2 be 30 a6 fb bd b5 47 2e be 55 a3 ce bd
       -0.47441027 -0.12287557 -0.17019542 -0.10089747
000340 f1 8a dc 3c 91 c4 28 3e f9 38 4d bd 96 a8 e6 3c
       0.026921721 0.16481234 -0.05010316 0.02815656
000350 dc 66 46 3d 7f 3e 25 be 81 43 34 be 68 6c 98 3c
       0.048437938 -0.16137122 -0.17603876 0.01860638
000360 46 e4 87 bd f4 c5 16 bd 30 c5 71 3d 17 ae c2 bd
       -0.066353366 -0.036809877 0.059025943 -0.09505861
000370 f3 97 ff 3b a2 5a 03 be 8c 86 2b 3e f9 fe a1 3c
       0.007800096 -0.12827542 0.16750544 0.0197749
000380 b4 44 1e bf ed ad 13 3f 93 a6 1e bf 0b 69 0b bf
       -0.6182358 0.57687265 -0.6197292 -0.5445716
000390 3f dd 13 3f 24 40 bd be 19 43 cb be 8f 6b 3d 3f
       0.5775947 -0.36962998 -0.3969963 0.73992246
0003a0 6d 11 44 3f 44 f6 34 3f ee 88 fc be de 48 d8 be
       0.7658909 0.7068827 -0.4932322 -0.42243093
0003b0 54 a4 09 bf 3e 9c 2c 3f 8e 90 27 3f 18 3a e8 be
       -0.5376637 0.67425907 0.6545495 -0.45356822
0003c0 bb df 21 bf e9 9c 12 3f ec a9 c8 be 94 70 1c 3f
       -0.6323201 0.57270676 -0.3919214 0.6110928
0003d0 77 2e 0b 3f 91 b6 fd be dc b5 13 3f 7f 05 24 3f
       0.54367775 -0.4955335 0.5769937 0.64070886
0003e0 a5 48 45 3f aa ce 26 3f e0 74 36 3f 47 2b db 3e
       0.7706397 0.65159094 0.7127209 0.42806455
0003f0 f4 fd e4 be b9 10 b1 be 1c 85 00 3e e4 2e 1a bf
       -0.44725 -0.3458307 0.12550777 -0.602278

fc1.bias f4 [128]
000000 a2 ec d7 be f2 77 43 bf dd 9b a0 be 86 fb 40 bf
       -0.42172724 -0.763549 -0.31368914 -0.75383794
000010 27 81 e0 be 6e 1c 07 bf be 81 34 bf e2 5d 95 be
       -0.43848535 -0.52777755 -0.7051047 -0.2917319
000020 a0 62 00 bf 79 49 e3 be 7e af 92 3e a7 26 10 bf
       -0.5015049 -0.44391993 0.28649515 -0.5630898
000030 bf 18 0e bf 21 e7 03 bf f8 86 43 bf 1c de 09 be
       -0.5550651 -0.5152455 -0.7637782 -0.13463634
000040 bd d4 ea be 21 d8 2d bf 33 65 c0 be cf 5c 93 be
       -0.4586543 -0.6790791 -0.3757721 -0.28781745
000050 f8 26 09 bf a1 fc 1f bf d6 a3 32 bf e9 9b d3 be
       -0.53575087 -0.62494856 -0.69781244 -0.41329888
000060 87 cf ec be 60 52 1f bf c7 93 e6 be 33 89 31 bf
       -0.4625208 -0.6223507 -0.4503462 -0.69349974
000070 71 95 41 bf 7d d8 00 bf 81 c9 a7 be c5 d5 08 bf
       -0.75618654 -0.50330335 -0.32770923 -0.53451186
000080 36 cc da be d1 be 37 bf a2 a0 55 be 3b 03 f9 be
       -0.42733926 -0.7177554 -0.20862058 -0.48635277
000090 e6 87 ef be 12 9d 58 bf 43 ed c1 be a8 c3 58 bf
       -0.4678337 -0.8461467 -0.3787633 -0.8467355
0000a0 6f 12 fa be 66 c9 2b bf f0 d1 21 bd f6 54 c4 be
       -0.4884219 -0.67104185 -0.039506853 -0.3834607
0000b0 85 5c 18 bf e0 8c 3e bf 9f a8 44 bf 2d 9e 0e bf
       -0.59516174 -0.7443371 -0.76819795 -0.5571011
0000c0 6a 68 29 bf 9e af 5b bf 9d 99 ae be b4 2c a2 be
       -0.6617495 -0.85814846 -0.34101573 -0.3167473
0000d0 a7 78 be be cc 03 c9 be e9 3e 0f bf 88 b0 ed be
       -0.37201425 -0.3926071 -0.5595537 -0.46423745
0000e0 20 d7 f3 3e 70 a2 95 be f2 70 3b bf f2 0b ee be
       0.47625065 -0.29225492 -0.73219216 -0.4649349
0000f0 90 1a c4 be 48 43 27 bf d3 00 be 3e c6 a2 64 3e
       -0.38301516 -0.6533704 0.37110004 0.22327718
000100 c3 f4 c2 be db 26 08 bf 52 07 f8 be 0f dc f6 be
       -0.38077363 -0.5318429 -0.48443085 -0.48214766
000110 44 67 cf bd 57 60 c5 be 09 15 13 bf 0a 87 b5 be
       -0.10127118 -0.38550064 -0.5745397 -0.3545459
000120 bb f8 9c be 64 86 e1 be 2c 6d 20 bf e7 11 3d bf
       -0.30658516 -0.44047844 -0.62666583 -0.7385544
000130 a4 02 5d bf b1 d3 9d 3e 13 c2 22 bf 78 98 05 bf
       -0.86332154 0.3082557 -0.63577384 -0.52185774
000140 ea 98 1a bf 94 42 1c bf 49 db 68 bf 80 a1 22 3f
       -0.6038958 -0.6103909 -0.909596 0.6352768
000150 f9 b6 3a bf 0b fb 0b bf 03 d1 20 bf e5 cd 09 bf
       -0.72935444 -0.54679936 -0.62818927 -0.53829795
000160 da 6f 07 bf c1 b6 29 bf 0e b1 2f bf 7c b6 fd be
       -0.52905047 -0.66294485 -0.6862954 -0.49553287
000170 83 80 cc be 6f 64 18 bf d7 37 72 bf c2 30 5c bf
       -0.39941797 -0.5952825 -0.94616455 -0.860119
000180 55 61 12 bf b4 e0 2f bf ad a7 0d bf cc 32 2e 3e
       -0.57179767 -0.68702245 -0.5533398 0.17011565
000190 0f 4b 1b bf 96 0f f1 be 24 8d a4 be 54 76 9e be
       -0.60661405 -0.47082204 -0.32138932 -0.30949652
0001a0 9c a2 d1 be 4d 47 42 bf 58 0f 20 bf 70 d7 b8 be
       -0.40944374 -0.75890046 -0.6252341 -0.36101866
0001b0 84 ad 38 bf 08 ac 21 bf a4 0f 43 bf b1 76 4c 3f
       -0.72139764 -0.63153124 -0.7619574 0.7986861
0001c0 46 0e 36 bf c8 03 2d be ab a1 9f be 2e eb 1c bf
       -0.7111553 -0.16895974 -0.3117803 -0.61296356
0001d0 c2 5a ee be 94 cb 3d bf 8c 14 e8 be b9 0f d7 be
       -0.46553618 -0.7413876 -0.45328176 -0.42004183
0001e0 1f 62 31 bf 41 42 07 bf a2 e9 d3 be 60 8c a9 be
       -0.69290346 -0.5283547 -0.41389185 -0.3311491
0001f0 66 a4 3d bf de 7e 96 bd d5 b5 f2 3e b0 22 18 bf
       -0.7407898 -0.07348417 0.47404352 -0.5942793

fc2.weight f4 [20, 128]
000000 0d 5a d2 3e 10 3c f7 3e d3 62 05 3f 6a b5 0a 3e
       0.41084328 0.48288012 0.5210392 0.13545766
000010 b7 2e 24 bf 54 ea c6 3e 79 63 15 3f b3 de e4 3e
       -0.6413378 0.38850653 0.5835491 0.44701156
000020 be a5 22 bf 43 fa 1e bf 51 60 02 3f dd bb ed 3e
       -0.6353415 -0.6210062 0.5092822 0.4643239
000030 94 ab df be 55 03 05 3f f6 e0 2d bf a3 13 ab 3d
       -0.4368559 0.5195821 -0.6792139 0.08353355
000040 34 dd cd 3e 7e 44 03 bf 0e 1e c6 3e d1 5e 07 3f
       0.40207827 -0.51276386 0.38694805 0.52879053
000050 e0 93 2c bf 71 f1 0d 3f 0a b9 da 3e 36 1e 08 3f
       -0.6741314 0.55446535 0.427193 0.531711
000060 05 c1 01 3f 3e 91 2d be 43 73 1f bf 50 29 3d 3e
       0.5068515 -0.16949937 -0.6228525 0.1847279
000070 4b 48 e6 3e c3 c6 ce 3e d9 43 67 3e dd 5e 15 3f
       0.4497703 0.40386018 0.22584476 0.58347875
000080 ed 0c 27 bf c4 68 29 bf 95 bd 06 3e 83 c5 c1 be
       -0.652541 -0.66175485 0.13158257 -0.37846002
000090 5f 87 e1 3e 5b 87 8b 3e f7 58 c8 3e 5b 0a 12 3f
       0.44048592 0.27251706 0.39130375 0.5704705
0000a0 4e 10 e1 3e f2 50 10 bf bb c6 ee 3e f2 ee 39 3f
       0.43957752 -0.5637351 0.46635994 0.72630227
0000b0 34 20 4a be 98 43 93 3e 13 3e 03 3f a6 a1 e2 3e
       -0.19738847 0.28762507 0.5126659 0.44263953
0000c0 4b ae 20 3f 38 fe b2 3d 2c 85 03 3f b5 c1 e4 3e
       0.6276595 0.08739895 0.5137508 0.44679037
0000d0 38 1f dc 3e 2e 79 08 3f cb 64 10 bf 43 40 04 bf
       0.42992568 0.53309906 -0.564038 -0.51660556
0000e0 c1 76 18 3f 1d 8b 01 3f 8d dc 15 3f 5b 4b be 3e
       0.59556204 0.50602895 0.5853966 0.37166867
0000f0 46 69 c4 3e 23 95 0f bf 3f bb ee 3e 06 10 0e 3f
       0.38361567 -0.5608694 0.46627232 0.554932
000100 6d 17 0b 3f 48 ec 10 3f 55 f8 15 bf e8 34 02 3f
       0.5433262 0.56610537 -0.5858205 0.5086198
000110 f3 a4 c7 bc 30 30 04 3f b9 4a 27 bf 76 d0 f2 3e
       -0.024370646 0.5163603 -0.6534839 0.47424668
000120 c8 11 fc 3e 8c a8 fb 3e 46 c6 28 bf 9d ae 96 3d
       0.49232316 0.4915203 -0.6592754 0.073575236
000130 bc 37 0e bf 16 c5 0d 3f 76 26 e6 3e 7e 8e 07 bf
       -0.55553794 0.55378854 0.44951218 -0.529518
000140 2a d6 03 3f ea 91 03 3f df 86 0a 3f 7e cf 7e bf
       0.51498663 0.5139452 0.54112047 -0.9953536
000150 21 51 24 3f 4c fd 0f bf fe 22 0c bf dc 32 16 bf
       0.6418629 -0.56245875 -0.54740894 -0.58671355
000160 62 24 f7 3e 67 e8 15 3f 9a fb 0b bf 44 8a fe 3e
       0.48269945 0.5855774 -0.5468079 0.49714863
000170 29 82 c7 3e 5d 68 f1 3e 84 d9 8c be f3 a1 57 3e
       0.38966492 0.47149935 -0.275097 0.21057872
000180 5d c3 f1 3e 3c a3 0f bf 26 4d 17 3e f5 28 02 3f
       0.47219363 -0.5610845 0.14775524 0.50843745
000190 8b 6b f3 bb 64 76 1c bf ab e3 e2 3e b4 e7 e2 3e
       -0.0074285916 -0.6111815 0.44314322 0.443174
0001a0 39 2c 04 3f 85 2b 14 bf 41 b4 e0 3e 71 e1 e9 3e
       0.5162998 -0.57878906 0.43887523 0.4567981
0001b0 4d fc 5a be 59 b4 0d bf 13 c7 ce be 28 9f ef be
       -0.21385308 -0.55353314 -0.40386257 -0.46801114
0001c0 ef d5 0e bf 4f 9d ef 3e b8 71 fb 3e e1 16 fb 3e
       -0.55795187 0.46799704 0.49110198 0.49040893
0001d0 74 65 28 bf 95 34 0e bf 0f 46 2c bf cd 3f 12 3f
       -0.65779805 -0.55548984 -0.672944 0.571286
0001e0 29 1f e3 3e 39 ee f1 3e cb 94 c9 3e ff da da 3e
       0.4435971 0.47252062 0.39371333 0.42745206
0001f0 d4 36 f4 3e 99 0d 2f bb 42 f0 30 bf b0 f1 2b bf
       0.4769808 -0.0026710986 -0.69116604 -0.6716566
000200 96 a8 bd 3e 5f 06 e5 3e e1 70 ca 3e 69 e3 2a 3e
       0.37042683 0.44731423 0.39539245 0.16688313
000210 a7 2e 2b bf 20 2c d9 3e c6 ef fe 3e 00 b5 d8 3e
       -0.6686806 0.42416477 0.49792308 0.42325592
000220 5b ba 04 bf 78 56 04 bf b5 81 ff 3e 1f f9 f2 3e
       -0.51846856 -0.5169444 0.49903646 0.4745569
000230 8f 06 c8 be 0a 2d cf 3e 90 f8 17 bf 47 d2 43 3d
       -0.39067504 0.4046405 -0.5936365 0.047807958
000240 61 58 d3 3e ec 25 1d bf 1b 55 cd 3e b5 5d 08 3f
       0.41278365 -0.6138599 0.40103993 0.53267986
000250 b2 4a 0a bf bb 17 f9 3e 42 20 05 3f f3 68 cf 3e
       -0.54020226 0.48650917 0.52002347 0.40509757
000260 0e 47 d9 3e 80 3a 99 3d fe b0 1d bf 84 50 03 3e
       0.42437023 0.07481861 -0.61598194 0.12823683
000270 2c 98 00 3f b0 d0 be 3e 1e 0f d6 3e 26 3a 0a 3f
       0.50232196 0.3726859 0.41808408 0.5399498
000280 58 9a 28 bf 23 da 0c bf cd 92 40 3e 9c d9 29 be
       -0.6586051 -0.5502035 0.18806 -0.16586918
000290 5a 7e ed 3e fd d2 8f 3e 53 b5 f9 3e 4f 06 11 3f
       0.4638546 0.2809066 0.48771152 0.5665025
0002a0 09 77 f3 3e 9d bd 21 bf 4e 86 0d 3f fb 55 bc 3e
       0.47551754 -0.6317995 0.5528306 0.36784348
0002b0 f4 83 8b 3c eb ab 7b 3e 25 4f 09 3f 70 15 f8 3e
       0.017030694 0.245773 0.5363639 0.48453856
0002c0 d9 97 1f 3f 22 48 01 3e a3 e5 c5 3e 3b 0a 0b 3f
       0.62341076 0.12625173 0.3865176 0.54312485
0002d0 bd 4a 05 3f 7f 9f bf 3e a5 6f 0a bf 70 99 1b bf
       0.52067167 0.37426373 -0.54076606 -0.60781
0002e0 82 64 06 3f 98 1f db 3e eb 8b fb 3e 4d 72 d0 3e
       0.5249711 0.42797542 0.49130186 0.40712205
0002f0 ae 2f e2 3e 62 78 24 bf 5a b1 14 3f 43 07 02 3f
       0.44177002 -0.6424619 0.58083117 0.5079233
000300 cc 8a fe 3e 74 39 07 3f 53 b5 0f bf a0 cd cc 3e
       0.4971527 0.5282204 -0.56136054 0.4000063
000310 37 69 a8 3d b0 c3 12 3f 2b f2 0b bf 06 7e e7 3e
       0.08223193 0.57329845 -0.54666394 0.45213336
000320 c2 f3 ea 3e 67 18 df 3e 14 e1 13 bf 1c 09 b4 3b
       0.45889097 0.43573305 -0.57765317 0.00549425
000330 8d 8f 21 bf 16 45 1a 3f 0e bb fb 3e f5 f2 0f bf
       -0.63109666 0.60261667 0.4916615 -0.562301
000340 c2 dd e2 3e bd 4f d3 3e 79 9d 05 3f 60 e6 56 bf
       0.44309813 0.41271773 0.5219341 -0.83945274
000350 d2 3d 02 3f f0 0e 0a bf f1 fb 23 bf 5d a8 0e bf
       0.5087558 -0.5392904 -0.6405631 -0.5572565
000360 7c 97 cc 3e 51 1c 10 3f 94 50 05 bf fd e7 0a 3f
       0.39959323 0.5629321 -0.5207608 0.54260236
000370 e8 88 f7 3e 15 ae c7 3e e0 bb 8c bd a1 9e 82 3e
       0.4834664 0.39000002 -0.06871772 0.2551165
000380 84 1b d1 3e ad 7f 15 bf 15 ba 70 3e 47 7d 1c 3f
       0.40841305 -0.5839794 0.23508485 0.6112866
000390 0a cc 9b 3d 97 56 07 bf 7e b6 e7 3e 1d 0f 01 3f
       0.07607277 -0.528665 0.45256418 0.50413686
0003a0 83 9c d1 3e 80 db 1e bf c3 f7 be 3e 3b be fe 3e
       0.4093972 -0.6205368 0.37298402 0.4975451
0003b0 6f 5e 2f 3d 27 2b 0e bf 39 04 73 be 9b a8 56 bf
       0.04281467 -0.55534595 -0.2373208 -0.8385102
0003c0 fa 1c 14 bf 91 12 14 3f 7f a3 06 3f a7 a3 ef 3e
       -0.57856715 0.5784083 0.52593225 0.46804544
0003d0 32 38 13 bf a7 53 1d bf e7 85 20 bf 4b 59 11 3f
       -0.5750762 -0.6145577 -0.6270432 0.56776875
0003e0 62 20 f7 3e cf 93 f7 3e 49 ae c4 3e b1 92 f5 3e
       0.48266894 0.48354957 0.3841422 0.4796348
0003f0 ee 53 01 3f 6d 54 60 3c 27 a5 26 bf 4c cb 0f bf
       0.5051869 0.013692004 -0.6509575 -0.5616958

fc2.bias f4 [20]
000000 32 26 ca 3e 70 99 03 3f 0b 8b b8 be b1 86 b1 be
       0.39482266 0.51406 -0.3604358 -0.34673074
000010 65 ec be be bf f7 b6 3e 56 cd 4d be 4e 51 80 be
       -0.3728973 0.3573589 -0.2009786 -0.2506203
000020 99 39 cc 3e a2 e6 ec 3e 30 03 06 3e d9 62 dc be
       0.39887694 0.4626971 0.13087153 -0.43044165
000030 1a 7a d5 3e b9 38 ff 3e 03 e2 c6 3e 66 73 dd 3e
       0.4169472 0.49847963 0.38844308 0.43252105
000040 3d 61 00 bf 62 e4 96 be 4f 99 c5 3e c8 e3 fe 3e
       -0.50148374 -0.29471117 0.38593528 0.49783158
