decoder_classify_boundary_weights.pth (torch, 8608 bytes, 3 tensors)

fc.0.weight f4 [128, 10]
000000 98 2a 8a 3e 9c a8 1e 3e 5d 7b 07 be 33 ff 6c bd
       0.2698562 0.15494007 -0.13230653 -0.057860564
000010 ea 06 48 be 6d 64 ce 3e 26 f3 7d 3e ed 49 4b 3e
       -0.19533888 0.40310994 0.24799785 0.19852419
000020 5c 26 1a 3e 7f bf 08 3d 9e 99 47 be 4d 24 b5 3c
       0.15053695 0.03338575 -0.19492194 0.022112036
000030 2e 3f 84 bc 09 38 3c be 6a cb 87 bd b6 a2 ae 3e
       -0.016143408 -0.1838075 -0.06630595 0.34108514
000040 46 f1 a3 3d e7 b6 98 3e b9 1c 4c be 74 83 62 3e
       0.08005004 0.29827043 -0.19932832 0.22120458
000050 51 20 80 be ff ea 67 3c 0d 5f 10 3d 91 ca 82 3e
       -0.25024655 0.0141551485 0.035246897 0.2554517
000060 d0 9a d8 bd 0d 65 86 3e b4 3a 3e 3e e5 d8 3f 3e
       -0.10576403 0.2624897 0.18577081 0.18735082
000070 ca 78 63 bd 1a 8f 9f bc ad e3 e5 3d 5e f9 29 3d
       -0.055535115 -0.019477416 0.11225066 0.04149758
000080 08 0b 49 3d ff 8b e9 3d d3 23 41 be 05 0c 7b 3e
       0.049082786 0.11403655 -0.18861322 0.24516304
000090 ec 39 35 3e 54 d1 1c 3e 7d 8f 9d be f5 a9 20 be
       0.17697877 0.15314227 -0.30773535 -0.15689833
0000a0 6c fe 10 3e 7a 33 7c be 16 07 db bd 61 a5 49 be
       0.14159554 -0.24629012 -0.10694711 -0.19691993
0000b0 ca 23 87 bd 34 54 c0 3d 55 74 ab 3e 70 21 89 be
       -0.06598623 0.093910605 0.33487192 -0.26783323
0000c0 0c 8d f3 3d dd 54 16 3e 95 90 99 be d0 7d 6a bd
       0.11892137 0.1468081 -0.2999312 -0.05724889
0000d0 12 59 2b 3d e7 96 91 be d0 b6 01 3e 98 a1 65 3e
       0.04183299 -0.28435442 0.12667394 0.22424924
0000e0 f5 7c ed bd ab fc 0e 3e 90 39 7f 3d be 36 7a 3e
       -0.11596099 0.13963573 0.062310755 0.24434945
0000f0 95 6d 80 be 95 1d 13 bc 2c 5c 8e be 9b a4 da 3e
       -0.25083604 -0.008979221 -0.27804697 0.4270371
000100 52 c9 1e 3e a1 64 ca 3d 1b 7d 58 be 93 12 9d 3d
       0.15506485 0.09882475 -0.21141474 0.076695584
000110 e6 3c 9c 3e 93 8f b5 3a ed 8a 50 be 1f 8c 80 be
       0.30515212 0.0013851993 -0.20365496 -0.25106904
000120 d8 20 07 be c6 bf 03 bd ba 4d 05 be 32 89 c6 bd
       -0.13196123 -0.03216531 -0.13017932 -0.09694137
000130 f1 4f 7b bd 35 78 d5 bd 22 d0 ed 39 22 19 71 3e
       -0.061355535 -0.10423318 0.00045359234 0.23544744
000140 93 cd 1c 3f 35 ab 72 bf b1 58 b8 3e 16 1e 50 bf
       0.6125118 -0.9479249 0.36005166 -0.8129591
000150 c1 6b 61 3f 97 f1 30 bf 8e 6e 49 3f 87 6a 2f 3e
       0.88055044 -0.69118637 0.7868432 0.1713048
000160 1f 5d 07 bf fe 2d da ba 42 81 87 bd 40 3d 47 be
       -0.52876467 -0.0016645787 -0.06616451 -0.19456959
000170 85 f0 3c 3e 12 df 67 be 04 44 06 be ba 9d 78 be
       0.18451126 -0.22643688 -0.13111883 -0.24278918
000180 be 7a 88 be 94 65 84 3d cc 73 91 3d eb 48 da bc
       -0.26656145 0.06464687 0.071021646 -0.026646098
000190 30 ec 84 3e 37 c5 18 3e 6b cc 7f 3e b6 5b 8d 3e
       0.25961447 0.14918981 0.24980323 0.27609032
0001a0 8d 5c a9 be fb 71 e8 bd e3 a4 6e 3e aa 7e a4 3e
       -0.33078423 -0.11349865 0.23305087 0.32127887
0001b0 57 24 51 3d 43 13 41 3b d1 4b 14 3c 98 fe a6 3e
       0.051060047 0.0029460944 0.009051279 0.32616115
0001c0 2f d3 92 be 69 f3 21 bd f3 b3 ac bd 36 5e 88 bd
       -0.28676745 -0.039538775 -0.0843276 -0.06658594
0001d0 98 19 f6 bd 2a a1 93 3e 47 cc 2a 3d 95 c0 31 3d
       -0.120166 0.28833896 0.04169872 0.04339655
0001e0 dc 01 25 be 06 28 55 3e 1a 80 c1 bb 4d c1 20 be
       -0.1611399 0.20816049 -0.0059051635 -0.15698738
0001f0 a6 91 67 bd 21 03 9d 3e 00 cf 07 3e 44 b6 9f 3e
       -0.056535386 0.3066645 0.13262558 0.31193745
000200 6d 1b 82 be 8d ee ce bc 62 d5 61 be cb 7d 01 bd
       -0.2541155 -0.025260234 -0.22054055 -0.031614106
000210 38 cf 8c be 83 a2 06 be d1 e3 cf 3d 86 b7 6f 3e
       -0.27501845 -0.13147931 0.101508744 0.23409852
000220 3d 89 09 3e 3e 71 11 3d 62 88 c9 bc 76 40 10 be
       0.13431258 0.035508387 -0.024601165 -0.1408709
000230 e3 c9 85 3e d1 7f 8e 3d 9d a6 92 be 45 7e 69 bc
       0.2613059 0.06957973 -0.2864274 -0.014251296
000240 02 68 05 be 73 de 81 3e 3b bb 26 3e 45 c6 0e 3e
       -0.13027957 0.25365028 0.1628236 0.13942821
000250 fb 3b 7b 3e 06 d3 88 be bb 34 89 be ab 4a b5 bb
       0.245346 -0.26723498 -0.26798043 -0.0055325828
000260 4a 1a 2a 3e 35 d8 33 3e 94 8d 70 bd 61 83 b4 3e
       0.16611591 0.17562945 -0.05872877 0.35256484
000270 19 b2 5f bd 10 00 9f 3d 36 96 42 3e f0 1d 7a 3d
       -0.054613207 0.07763684 0.19002613 0.061063707
000280 ed bd 9d 3e f6 17 68 be 5a bc d8 bb ff 37 b2 bd
       0.30808964 -0.2266539 -0.00661425 -0.08702087
000290 e6 a0 5d 3e 4d 41 ed 3d 45 94 f4 bc cf 85 49 be
       0.21643409 0.11584721 -0.029855857 -0.1967995
0002a0 e9 a6 03 3d d8 02 a1 3d ea 85 f4 3d eb 38 72 3e
       0.0321416 0.078618705 0.119396046 0.23654525
0002b0 cc e0 8c 3e 6b cd 3c be bc 91 a3 3e bd 6f 96 3d
       0.27515256 -0.18437736 0.31947124 0.07345531
0002c0 2f f5 54 be b5 19 eb bc b0 ab b3 bd 37 e1 94 3e
       -0.20796655 -0.028698782 -0.08772981 0.29078075
0002d0 a8 c2 41 3e fe b8 f9 bd 95 42 da bd 82 0a 30 3e
       0.18921912 -0.121934876 -0.10657231 0.17191508
0002e0 97 70 41 be 49 fe 38 be 58 7b 16 bd bf 01 7c be
       -0.18890606 -0.18065752 -0.036738724 -0.24610041
0002f0 bf b3 77 be ee ba 18 bd ff 78 38 be f5 aa d5 3d
       -0.24189661 -0.037287645 -0.18014906 0.10432998
000300 a9 90 ff 3d 51 8c a9 3d fc cb d2 3d 45 ec 63 3e
       0.124787636 0.08278716 0.10292813 0.22258098
000310 b8 21 b1 3c 50 da 51 be c7 33 9e 3e c7 b9 69 3d
       0.021622524 -0.20493436 0.30898878 0.057061937
000320 e8 e0 b2 3d 8d 7b 8f be 8a 83 e5 3d 19 7a 20 3e
       0.08734304 -0.2802395 0.1120673 0.15671577
000330 f1 d4 bb 3e e1 f9 87 be 50 d7 8d 3d cb f0 27 be
       0.366859 -0.2655783 0.06925833 -0.16400449
000340 9a 46 98 3e 40 a6 b1 bd db 60 86 3e 18 c3 e3 bd
       0.29741365 -0.08674288 0.2624577 -0.111211956
000350 98 9a 2b be 94 93 0a 3e af 6a 3b bc 6c 4f 74 be
       -0.16758192 0.13532859 -0.01143901 -0.23858422
000360 fc c7 93 be 87 6d fe bd 09 c3 74 3e 64 f8 35 3b
       -0.28863513 -0.124232344 0.23902525 0.002776646
000370 87 87 67 be 25 09 8c be ae 4e 50 be e4 9b 7a bc
       -0.22610293 -0.27350727 -0.20342514 -0.015295956
000380 b8 5e 8d be 02 6d ab be 3d b2 c6 bd 0a f2 f6 3d
       -0.27611327 -0.33481604 -0.09701965 0.12057884
000390 e9 90 2f 3c fc b1 33 3e 1a 4b e4 bd 3a fb 17 3e
       0.010715702 0.17548364 -0.11147137 0.14841929
0003a0 93 54 17 be d7 a6 28 be 51 cd d7 3d 76 3f 8c be
       -0.14778356 -0.16469894 0.10537208 -0.27392167
0003b0 5c 2e bf 39 50 1b c4 3d c9 91 f8 bd 41 9c a5 bd
       0.000364649 0.09575522 -0.12137181 -0.08086444
0003c0 24 da 8e 3e dc d4 41 3e 2b 90 91 3c 05 52 9b 3e
       0.27900803 0.18928856 0.01776894 0.30336013
0003d0 c3 b4 88 be f5 0a 3c 3e 1e ef 8c 3d 67 ad 06 be
       -0.2670041 0.18363555 0.068815455 -0.13152085
0003e0 33 8c e8 bb 45 f9 3f be c1 6c 91 3e 67 2f 91 be
       -0.007096791 -0.18747433 0.28403285 -0.28356478
0003f0 b1 c6 4c bd 66 83 67 3c c3 35 92 3d a4 a4 1c be
       -0.049994174 0.014130449 0.071391605 -0.1529718

fc.0.bias f4 [128]
000000 8b 4f a8 3d c7 01 d2 bd e6 d3 8c 3e 8c 8e 88 be
       0.082182966 -0.10254245 0.27505416 -0.26671255
000010 b1 e9 78 3e e6 6b 97 be 91 28 a6 3e 82 58 e3 bd
       0.24307896 -0.29574507 0.32452825 -0.11100866
000020 a2 5e fd 3e 28 e4 a4 3d 82 b3 22 be 25 29 61 3e
       0.49486262 0.0805133 -0.1588879 0.21988352
000030 9f 1f 63 3e 64 4a 43 3e 8a 8a 1d be 1b fc 80 be
       0.22180031 0.19071347 -0.1538488 -0.2519234
000040 2d 64 45 be 96 d7 81 bd 0f 43 04 be fa a0 e8 3c
       -0.19276495 -0.06339948 -0.12916206 0.028397072
000050 09 a9 a3 3d c5 99 6e 3e 91 15 2c bc 41 de 28 3e
       0.07991225 0.23300846 -0.010503189 0.16491033
000060 39 2a 0a be 49 56 f9 3d e7 55 77 3e 94 a0 4f 3e
       -0.13492669 0.12174661 0.24153863 0.202761
000070 9f 05 2c 3e a5 75 1c 3e c0 bc d3 3d 49 60 38 3e
       0.1679902 0.15279253 0.103387356 0.1800548
000080 2e 1b ac 3d f4 a5 ef 3d 48 0e a8 bd 1b b3 dd bc
       0.084036216 0.11701575 -0.08205849 -0.027062943
000090 7a 4e 92 bc b9 b4 76 bd 23 6d f1 bd 04 0b 66 bd
       -0.017859686 -0.060230944 -0.11788394 -0.05616285
0000a0 ac dd fb 3b 1c 78 ab 3e aa 47 1a 3d 37 60 08 3e
       0.0076863375 0.33490074 0.037666 0.13317953
0000b0 ef dc 90 3e 8c e0 8d bd 92 ed 8a 3e fc 00 1e 3e
       0.2829356 -0.069275945 0.27134377 0.15430063
0000c0 fe cc c9 bc 1a 4c 92 3d 1c ee 40 be 2e 2c fe bd
       -0.02463388 0.071434215 -0.18840832 -0.1241077
0000d0 8b 18 8d 3d 05 b7 aa bd b8 0f c5 bd f5 a9 10 bc
       0.06889447 -0.083356895 -0.09622139 -0.008829583
0000e0 5c dd 74 3e 58 f0 8d be 4f f7 9e bd 57 37 a4 bd
       0.23912567 -0.2772243 -0.07762014 -0.08018368
0000f0 6a be c4 3d 47 11 e1 3d 3f e2 87 3e ed 34 c7 bd
       0.09606631 0.109896235 0.265398 -0.09726892
000100 06 41 fd 3d a2 3d 3e be 33 4a 60 be 34 00 ac be
       0.12365918 -0.18578199 -0.21903305 -0.33593905
000110 96 a6 b9 bd c0 5d 05 3d bc f2 a6 3c 0a ed 85 bd
       -0.09064977 0.03256011 0.020379417 -0.06539352
000120 ae f7 db 3d d3 65 1c be f5 44 59 3e 3b 29 04 3e
       0.107406005 -0.15273218 0.21217711 0.12906353
000130 9a 35 2d 3d f4 13 84 be be 3f 95 3e 89 d6 56 be
       0.042287447 -0.25796473 0.29150194 -0.20980276
000140 e2 05 0d be d7 b6 38 3e 6f bd a5 3d 16 2f 65 bd
       -0.13771775 0.18038498 0.08092772 -0.055953108
000150 e0 ce 5a be 4e 32 43 3e 93 46 23 3e bb f7 95 3e
       -0.21367979 0.19062158 0.1594489 0.29290566
000160 b7 e3 52 3e 04 ab 96 3e c8 eb 9d 3e 80 9b 93 3e
       0.20594679 0.2942735 0.3084395 0.28829575
000170 04 93 81 bd 8b d6 9b 3e fc 92 7d be 88 2a 39 be
       -0.06326869 0.3043712 -0.24763101 -0.1808263
000180 74 24 d7 bc fc e7 11 3e d8 2e 3b bd f8 97 84 3e
       -0.0262625 0.14248651 -0.04569897 0.25897193
000190 38 df 08 3f 59 7c 23 be 3e fd 9b 3e 9c 24 9c 3e
       0.53465605 -0.15965404 0.30466646 0.3049668
0001a0 97 f1 fb 3d b6 b8 c9 bd 41 90 86 be 7e f0 84 3e
       0.12301939 -0.09849684 -0.26281932 0.2596473
0001b0 5d 8d a6 3e 22 8a d1 bd 9a 8e 85 3d 03 5c 4d be
       0.32529727 -0.10231425 0.0652134 -0.20054631
0001c0 a8 65 2f 3d 24 55 b3 bd 33 ff 25 be 19 0a a2 3e
       0.042821556 -0.08756474 -0.16210632 0.3164833
0001d0 68 f7 1f be 3c 23 29 be 44 85 45 3e 65 e3 95 3e
       -0.15621722 -0.16517347 0.19289118 0.2927505
0001e0 5b 8b a9 3d e2 e6 75 be ef 8d db bd 4f 9e 68 be
       0.08278533 -0.24013856 -0.10720431 -0.2271664
0001f0 c5 cf 47 3c 7b cb d1 bd 10 f1 82 be a5 01 ed 3d
       0.012195532 -0.10243889 -0.2557454 0.11572579

fc.2.weight f4 [1, 128]
000000 13 01 14 3e 8a d8 0f 3e 30 29 25 3d c8 b8 d5 3c
       0.14453535 0.14047447 0.040322483 0.026089087
000010 b7 e0 89 bc e8 cc cc bc fa d2 71 3d 8e 07 42 bd
       -0.016830785 -0.02500005 0.059039094 -0.047370486
000020 c1 47 6d bf dd 33 56 3d 83 e8 90 3d 04 f7 61 3d
       -0.9268761 0.052295554 0.07075598 0.055167213
000030 34 f5 1e 3d 2f 81 42 3c 48 0b 60 3d 9c 40 ec 3d
       0.038808063 0.01187162 0.05469826 0.11535761
000040 fa 1f 97 3d 91 34 1e be b8 8c ef 3c d9 c2 1d 3d
       0.07379146 -0.1544974 0.029241905 0.0385159
000050 4b cd a2 bd 4f e2 2f bb 88 46 4c bd 57 a7 99 bd
       -0.07949313 -0.0026837771 -0.04987195 -0.07502621
000060 dc 17 34 3e 39 01 46 3d 35 9e b9 bd 94 12 d6 bd
       0.17587227 0.04834101 -0.09063379 -0.10452762
000070 2b f3 aa 3d 69 33 18 3e e2 b2 48 bc 16 f5 5e 3d
       0.08347162 0.14863361 -0.01224968 0.05443295
000080 db ec 1f bb 9b a3 9c bd a4 95 da 3c 48 5b a0 bd
       -0.0024402651 -0.07648393 0.026682682 -0.078299105
000090 df db dd 3d 9b 04 b0 bd 81 b0 be 3c 22 9e e0 bd
       0.10832953 -0.085946284 0.023277523 -0.109676614
0000a0 08 d0 1a 3d 5a 80 7a 3e 9f 4f 86 3c 71 80 01 bc
       0.03779605 0.24463025 0.016395388 -0.007904158
0000b0 aa e1 c9 3d 44 64 22 bc 8c 6d e1 bd 14 c8 df bd
       0.09857495 -0.0099116005 -0.110072225 -0.10926834
0000c0 15 0a 98 3d 9a 3e 10 be 83 ed 8b 3d e8 8e e3 3d
       0.07423798 -0.1408638 0.06832411 0.111112416
0000d0 f3 7c 35 3d 47 06 af 3c f3 72 e2 3b 71 6b 5a bd
       0.044308614 0.021365298 0.0069106757 -0.05332512
0000e0 39 df 9b bd b1 29 b0 bc d3 1a 45 3c be 4a 8a bd
       -0.07610936 -0.021504255 0.012030321 -0.06752537
0000f0 f7 21 b3 bc 22 b4 0f be 83 a1 19 3f 7d 3a 5b bb
       -0.021866782 -0.14033559 0.6001207 -0.003345161
000100 7c 60 4b bd e8 6c c6 bc 68 56 6d bd d2 d7 8c ba
       -0.04965256 -0.024221852 -0.05794373 -0.0010745472
000110 91 a5 70 3d 3c 44 90 3d 8a ce 74 bd 32 81 b7 3d
       0.058751646 0.07044265 -0.059767283 0.08960189
000120 ce c0 f4 be d9 cf fd bd 36 25 f7 bd e7 2d 06 3e
       -0.47803348 -0.123931594 -0.12067644 0.13103448
000130 c1 22 cc 3d ea d4 c5 3d 2d 9e 26 bd d1 53 21 3d
       0.09967566 0.09659751 -0.040678192 0.039386574
000140 2e 86 94 bd f6 9f 59 3d c6 3e 37 bd b8 81 ed bd
       -0.07252155 0.053131066 -0.0447376 -0.115970075
000150 26 05 4b 3e 60 b4 d7 3d 46 e2 c8 3d f7 54 aa bd
       0.19826183 0.10532451 0.09808783 -0.08316987
000160 21 a5 dc 3d 4b ef 30 bd 79 4e 14 3e 76 69 be bd
       0.10773683 -0.043196958 0.1448306 -0.09297459
000170 94 c0 5e 3d d6 82 e3 bd 4a 09 da 3d 58 69 1e bd
       0.054382876 -0.11108939 0.10646303 -0.038674682
000180 96 e4 d8 bd a7 2e da 3d 1d 5a 92 3c 5e 5a ad bd
       -0.10590474 0.106534295 0.017865235 -0.08464502
000190 d4 ae 1d bf 6c 7a 93 3d b8 d3 21 bf 4b c6 d1 3d
       -0.6159489 0.072010845 -0.6321368 0.102428995
0001a0 2c c8 9b 3d 86 31 62 3d ac 32 85 3d be 8d 68 bd
       0.07606539 0.05522301 0.065038055 -0.0567758
0001b0 0b bd 92 bd ee d9 a3 bd cd cd f1 bd 8a 1e fa 3c
       -0.07164963 -0.08000551 -0.118068315 0.03053214
0001c0 79 53 3e 3d 05 32 1d 3e 6b 41 b0 bc a7 7b e7 bd
       0.046466324 0.15351112 -0.021515569 -0.11302882
0001d0 cd 56 6c bd 56 4f ef bc 56 b2 22 3f 5e 2d 35 3c
       -0.057699967 -0.029212635 0.6355337 0.01105818
0001e0 f9 d2 5a bf e6 b8 c6 3d 97 18 04 3b ee a1 68 3d
       -0.8547817 0.09703235 0.0020156258 0.056795053
0001f0 f1 49 68 3c 8c c8 68 3a 24 f5 dd 3d 5a b9 20 be
       0.014177785 0.00088799815 0.108377725 -0.15695706
