decoder_subtract_numbers_weights.pth (torch, 8536 bytes, 3 tensors)

fc.0.weight f4 [128, 10]
00000000: f7b6 3abe 4516 1cbe 45ae 883e d5f7 85be
00000010: 5f62 663e 39af 31be 5e00 48be 0de6 6fbe
00000020: 1d24 f7bd d23b 8b3e 3011 05bd 1762 17be
00000030: 04ca aa3d 3871 ab3d 4ffb 053d 67d4 1f3d
00000040: f5a6 82be 4344 2c3c 7fd0 68be 5fca 01be
00000050: ec82 9ebd 62bd 8cbe abcf 043e a981 88be
00000060: 9b91 16be ebea 5dbe 1b27 513e 3f66 383e
00000070: d08f 6d3e cad0 9cbd 65c0 13be 652c 79be
00000080: b4c6 adbd c793 233d f0e6 81be 8d29 85be
00000090: 6efb e6bd b36f 98bc 3f1e 25be e364 aabd
000000a0: cea5 143e 5632 c7bd 6151 98be cebe 8bbe
000000b0: 21f3 b03e 3228 463e 7f91 263d 3f05 313e
000000c0: bd46 96bd 68b9 8cbc c4a8 0a3d 1db0 9d3e
000000d0: 2dc1 02be bec4 5a3e 6f58 cfbd 62f0 bdbc
000000e0: ff5d b6bd 0846 65bd ad33 433d 7745 1bbe
000000f0: ac57 463e 4707 033e 0237 573e 4b92 45be
00000100: 4063 5abc 9265 8fbe 6890 9abe d306 95be
00000110: 649b b73b b14c 8bbe 88af 153e ebb1 833e
00000120: e3b9 98be b47c 3d3e 0f03 603d c100 12be
00000130: 0abf 55be a487 ed3d d7bc 39be 2c91 863e
00000140: 2c11 543e 6959 32be e7bd 173e a5a3 633e
00000150: 2a5c 83be 5247 653e 3868 9ebd 7c9b 10be
00000160: 8310 56be fc58 a5be 1884 92bc 8770 8cbe
00000170: 02ff 8d3e 6950 2dbe d7ad dc3d 2f09 ffbd
00000180: 4fa5 623e d2fc ab3d c53f 383d 2423 23bd
00000190: 8147 bf3e ca37 d73a 9666 88be 5149 a5be
000001a0: e196 503e 26e2 3d3c 5433 96be 4029 46bc
000001b0: b800 0bbd b74b 1ebc 719b 97be 06f6 483e
000001c0: 29c9 6a3e d570 9b3e 07ec 41be 7e31 6cbd
000001d0: 9d2e 4bbe 7a57 51be 87b4 843e 9d01 b33d
000001e0: ef59 003d f4f7 873e 344e 583c 44c9 96be
000001f0: adff e83d 8c1f 03be fa39 0fbe 099c a4be
00000200: c00e fcbd ccb7 8cbd 70b7 823d b601 933e
00000210: 17e2 4c3e 57b7 133b e2b7 703e 3e0d 52bd
00000220: f408 013e 5820 4cbe 0f9a 993e 3003 9e3d
00000230: 814e 513e a014 863b cc0c 9e3d d023 c5bd
00000240: 9430 833e c3d1 1bbe f369 8fbe d10f 4dbe
00000250: 5bf3 f0ba d05d 623e 57e7 59be 4b47 1c3e
00000260: 9efb c63d 7dbd a9bd 63f8 f13b 35e5 603b
00000270: 7cc1 8a3e 11c4 4d3e c2b2 9fbe c454 d4bd
00000280: 1a11 1cbe e62e 5e3e b14f 38be d740 9ebe
00000290: 3bbb dc3d 4cb6 973e a452 c73d 8f3f ca3d
000002a0: cbbe 383e 6808 923e abd4 98bd 4137 d1bd
000002b0: b6d8 4cbe 293e 28be df06 95be 6eea 91be
000002c0: fb49 20be dc77 8fbd 4a89 d3bd 3774 09bd
000002d0: 5376 8bbe 8b27 303e d9c9 8abe 83c5 dc3d
000002e0: 6860 8bbe 8dc6 2f3e bcd8 24be 75ad 00be
000002f0: ad57 5d3e ac46 86be 4237 09be e9ae 393d
00000300: 71ae 56be 6622 453e ac4d 663d 367b 84be
00000310: 58d0 553e 4c7f 9fbe 5375 84be f8c9 8fbe
00000320: 3168 173c 6fb8 5cbe 1ea5 62be 6544 07be
00000330: 9698 21be 838b a03e fa9d 5ebe ec4c 7c3e
00000340: 492d 723e bb30 f73d 1b53 8cbe cc4b 8e3b
00000350: 3f0e 9a3e 7cd4 e03d 0b07 303e d124 8cbd
00000360: bc54 88be 1c7a e4bd 0b59 a3bd 133d 623e
00000370: 7116 9bbd 0d99 2d3e b842 013e 38a2 27be
00000380: f08f d93d 6e38 263e 445d f13d 6e6c 133e
00000390: dc44 8f3e f408 1abe 5377 073e 8840 f4bd
000003a0: 95b4 9e3e 7328 06be 6c91 80be e255 7bbe
000003b0: 5ea3 39bd 68ef a63e 05a6 71bc 1d38 babd
000003c0: c0d2 1ebe 39a1 adbd 9e55 1fbd b95b 4c3e
000003d0: 5f5f 7d3e 27ee 80be 0900 3cbe e76b 70be
000003e0: d8f5 0fbe 4df7 553d 646d 3fbe d7d0 573d
000003f0: 3df4 8c3d 69b6 98be fa07 1c3e 2e37 513c
-0.18233858 -0.1524287 0.26695457 -0.26165643 0.22498463 -0.17351998 -0.1953139 -0.23427601
-0.12067435 0.27194077 -0.032487094 -0.14783512 0.08339313 0.08371204 0.03271037 0.039020922
-0.25518003 0.010514322 -0.22735785 -0.12674855 -0.07739815 -0.27488238 0.12969844 -0.26661423
-0.14703982 -0.21671645 0.20425074 0.18007754 0.23199391 -0.07657011 -0.14428861 -0.24333341
-0.08485165 0.039935853 -0.25371504 -0.26008263 -0.11278425 -0.01860795 -0.16124819 -0.08320024
0.14516374 -0.09726398 -0.29749587 -0.2729401 0.34560493 0.19351271 0.0406661 0.17287157
-0.07337711 -0.017178252 0.033852354 0.30798426 -0.12769003 0.21364114 -0.10124289 -0.023185913
-0.08904647 -0.05597499 0.047656704 -0.15163217 0.19369382 0.12795745 0.21017078 -0.19294088
-0.013329327 -0.2800718 -0.30188298 -0.2910677 0.005603241 -0.27206948 0.14617741 0.25721678
-0.2982932 0.18504602 0.054690417 -0.142581 -0.20873657 0.11598137 -0.18138443 0.26282632
0.20709676 -0.1741692 0.14818536 0.22230394 -0.25656253 0.22390488 -0.07734722 -0.14121813
-0.20904736 -0.32294452 -0.017885253 -0.27429602 0.27733618 -0.16925205 0.10775345 -0.124529235
0.22133373 0.08397831 0.04498269 -0.039828435 0.3735924 0.0016419825 -0.26640767 -0.32282498
0.20370056 0.0115895625 -0.29336035 -0.012094796 -0.033936232 -0.0096616065 -0.2961078 0.196251
0.22928299 0.30359522 -0.18937694 -0.057664387 -0.19842 -0.20443526 0.2591898 0.08740542
0.031335767 0.2655636 0.013202239 -0.29450428 0.11376891 -0.12805003 -0.1398696 -0.32150295
-0.12307501 -0.06870994 0.06382644 0.28712243 0.20008121 0.00225397 0.23507646 -0.05128216
0.12601072 -0.19934213 0.3000035 0.07715452 0.20440103 0.004091814 0.077172846 -0.09625971
0.25623 -0.15216736 -0.2801052 -0.20025565 -0.0018383072 0.22106099 -0.21279655 0.15261571
0.09715961 -0.08288095 0.0073843463 0.0034316306 0.27100742 0.20094325 -0.3119107 -0.1036773
-0.15240899 0.21697578 -0.1799915 -0.30908844 0.10777899 0.2963127 0.09732559 0.09875404
0.18041532 0.28522038 -0.07462438 -0.10215617 -0.20004544 -0.16429962 -0.29106805 -0.28499168
-0.15653221 -0.07005283 -0.1032892 -0.033558097 -0.27238712 0.17202584 -0.27107123 0.1077986
-0.2722199 0.17165585 -0.16098303 -0.12566169 0.21615477 -0.26225793 -0.13399985 0.045332823
-0.20964982 0.19251403 0.056226417 -0.25875252 0.20880258 -0.31151807 -0.2587076 -0.28083777
0.00924115 -0.21554731 -0.221333 -0.13209684 -0.15780863 0.3135644 -0.21739951 0.24638718
0.23650087 0.120698415 -0.27407154 0.004342532 0.30088994 0.10978028 0.17190187 -0.0684296
-0.26627147 -0.11156103 -0.07975968 0.2209361 -0.0757264 0.16952915 0.12623107 -0.16370475
0.10623157 0.16232464 0.11785367 0.14396831 0.27982223 -0.15042478 0.13229112 -0.11926371
0.30997148 -0.13101368 -0.25110948 -0.2454448 -0.045321815 0.32604527 -0.014749055 -0.09092734
-0.15510082 -0.084780164 -0.03890001 0.19956864 0.24743412 -0.25181696 -0.18359388 -0.23478661
-0.14058626 0.052237798 -0.18694073 0.0526894 0.06882522 -0.29826668 0.15237418 0.0127695035

fc.0.bias f4 [128]
00000000: 531a d1be 4c13 553d 8dd3 053e f7ae 9cbe
00000010: 78a9 21be cb34 413c 2193 a2be 27ec 9ebd
00000020: cc43 63bd e5ed 883e 6ab8 2b3e 4538 90be
00000030: 8842 733e 1b34 a53e aaae 98be 6e3f eebd
00000040: d5b5 da3c 1e2f 7a3e 9ddf a2bb 653f 883e
00000050: ee6d c63e 8acd 813a b2f9 acbe f771 013e
00000060: 3a95 8abd 24ac 4bbe cf83 723e e9c7 87be
00000070: b265 a6be d6a2 c1bb 1613 72be 33f3 1dbe
00000080: e9b2 f73d c2b6 89be 9039 56be 7616 cdbd
00000090: 764e ad3e 13cc 293e f3e3 6dbe 5e98 22bc
000000a0: 11f1 3fbb 5f11 6cbe ae4c 563e f3e3 563e
000000b0: 7f3d 023c efc8 f73d 85df 46be 4dbf 433e
000000c0: d729 933e 2a8b dc3c d85d 283d 8391 d43c
000000d0: 8703 22bd 63c9 4f3e c227 683e 3049 033d
000000e0: 4f7d a2be 6b1f 1fbd 318e 263e 6bce ea3d
000000f0: f472 483e 9548 09be 416d 693e b1a5 08be
00000100: ebad e3bd bc02 133e bd79 ddbc ba74 27be
00000110: 9593 1bbe 2911 c23d 57cb e53d 33c5 d33c
00000120: c233 843e c899 9c3e d89c 4bbd 6bfd 79bd
00000130: 7b7f 13be ea21 153e eb04 2b3d 0af4 19be
00000140: c999 4dbe 1ca1 7d3b 009a 993e 0e67 1c3e
00000150: 83e0 80be 2a00 cebd 4441 913e a7e9 89bd
00000160: 0b4b 423e 34c3 153e 8b94 9cbe 1559 883e
00000170: 8b09 40bd b820 d2bc df4b eebd d9c7 34be
00000180: 5803 92be 289c 393e beee 78be d0f1 3d3e
00000190: 3bf0 fabd 24a3 4f3e 4fbc ea3d 9c42 63bd
000001a0: ea72 05be b655 b7be 69db 8d3e d852 aa3e
000001b0: 7187 25bd bb98 8abe 977e 5a3e 1dcd 99be
000001c0: 3cb3 b3bd cf7f 0c3e 7e7d 68bc cfcf e9bd
000001d0: 0df6 8c3e 57ff 2d3e 6fc8 803e f2dc 00be
000001e0: 03b6 813e 16f4 66be ab1d bc3e 54fc 163e
000001f0: 03cf bfbd 30e7 cb3d 27f2 173d 4e7f 28be
-0.40840396 0.052020356 0.13068981 -0.30602238 -0.15787303 0.011792372 -0.31752875 -0.07759886
-0.055484578 0.26744 0.16769567 -0.2816793 0.23755848 0.32266316 -0.29820758 -0.11633192
0.026698032 0.24432036 -0.0049705044 0.26610866 0.38755745 0.0009903174 -0.33784252 0.1264113
-0.06766744 -0.19889885 0.23683093 -0.26519707 -0.32499462 -0.005909304 -0.23640093 -0.15424804
0.12094671 -0.26897246 -0.20920396 -0.1001405 0.33848923 0.16581754 -0.23231487 -0.0099240225
-0.0029287974 -0.23053502 0.20927688 0.20985393 0.007949232 0.12098872 -0.19421203 0.19115944
0.2874286 0.026921827 0.04110512 0.025948292 -0.039554145 0.20291667 0.22671416 0.03205222
-0.31736228 -0.038848322 0.16265179 0.11465152 0.19575101 -0.13406594 0.22795583 -0.13344456
-0.111171566 0.14356512 -0.027035588 -0.16353121 -0.15193017 0.09475929 0.112204246 0.025850868
0.25820738 0.30586076 -0.049710125 -0.061032694 -0.14404099 0.14563718 0.041752737 -0.150345
-0.20078196 0.0038700765 0.30000305 0.15273687 -0.2517129 -0.10058625 0.28370106 -0.06734019
0.18973939 0.14625245 -0.3058208 0.26630464 -0.0468841 -0.025650367 -0.11635565 -0.17654361
-0.28518176 0.18125975 -0.24309823 0.18549275 -0.122528516 0.20277077 0.11461698 -0.055483446
-0.13032117 -0.3580758 0.2770646 0.3326633 -0.04041237 -0.2706965 0.21337353 -0.30039302
-0.087744206 0.1372063 -0.014190076 -0.114165895 0.27531472 0.16991936 0.2515292 -0.12584284
0.25334176 -0.22554049 0.36741385 0.14744693 -0.09365656 0.09956205 0.03709617 -0.16454813

fc.2.weight f4 [1, 128]
00000000: 230e 653d 2736 133c e497 6d3d f70f 06bd
00000010: 2def 0b3c 1cbf 4e3d c1be 3d3d 8b77 1ebd
00000020: 9e5b 923d 8ea0 29bd b9b6 fdbd 1053 303c
00000030: c425 47bd f4ef 8abd b0d1 9a3d bdf5 57bd
00000040: 4210 873c b239 6c3c 3807 4bbb 436f 393a
00000050: fae7 933d c5e1 90bd 6e41 58bd 5148 9fbd
00000060: bf74 89bd b04c 1b3c 3478 79bd 7afe 3abc
00000070: de8b 66b9 b536 0dbd b026 99bd abae d7bc
00000080: bc86 d7bc a98b a3bc 207e 41bd 77d3 a03b
00000090: 53b9 70bd defb 713d 28cc b9bd 8c13 0f3d
000000a0: bd43 36bc e2ae 12bd 604b 973d 2294 f9bc
000000b0: e64b 133d 613b df3d 2368 23bd 27ad 46bd
000000c0: aae8 753d 945f 3fbb 58d4 2c3d 35c9 24ba
000000d0: dca2 68bd 4338 12ba f405 04bd b750 13bd
000000e0: 5414 b7bc ee15 a7ba effe 183d c2a8 8e3c
000000f0: e4d5 2dbc 8657 93bd fda4 2e3d ac0d 4b3b
00000100: e7e3 8abd e77a a2bb eff1 0fbd 7148 943d
00000110: e1ba 86bd 3436 1abd ee8e bdbc 72a7 8bbc
00000120: 7a6e 8c3d ab9c 6ebd 530e 7bbc 5084 2ebd
00000130: 6575 aa3d ed80 083c a7db 66bd d901 8bbc
00000140: 3d7d f9bc c7b6 8e3d d2f5 10bb e206 f4ba
00000150: b6cb ab3d cc37 5fbd c280 833c 9f32 823d
00000160: 8454 a53b be0e 3f3d 81cb 753c d74e 253d
00000170: 2708 bf3c b2a5 bc3b 016b 9c3d 7820 1e3d
00000180: 0bfe aaba bf87 61bd a606 683c caaa 87bd
00000190: aa73 173c 1fb1 6c3d 32aa 803a 4c7c 6c3a
000001a0: 8f09 88bc ac1c 683d 53c2 453e a485 cabc
000001b0: b7e2 153c 7e50 6c3d 47c7 4c3d c81f 5abd
000001c0: 49b6 acbc fb8d 70b9 d89a 48bd 0684 393d
000001d0: e641 f8bc 2892 ad3d 972d 8d3d 238e 993d
000001e0: f209 89bd 6911 143c 7466 fbbc e48a c63d
000001f0: ac8c 103d 2124 4439 3422 2d3d e5b3 54bc
0.055921685 0.008985079 0.058006182 -0.03273007 0.008540911 0.050475225 0.046324495 -0.038688224
0.07146381 -0.041412883 -0.12388367 0.010761991 -0.04862 -0.06784049 0.07559526 -0.05272459
0.016487245 0.0144180525 -0.0030979645 0.0007073769 0.072219804 -0.07074312 -0.052796774 -0.07777465
-0.06711721 0.009478733 -0.06090565 -0.011413211 -0.00021986614 -0.034476 -0.07478082 -0.026328405
-0.026309364 -0.019964056 -0.047239423 0.004908021 -0.05877049 0.05907809 -0.09072143 0.03493075
-0.0111245485 -0.035811312 0.073874235 -0.030466143 0.035961054 0.108999975 -0.039894234 -0.048504975
0.06003634 -0.0029201256 0.042194694 -0.00062860857 -0.05679594 -0.00055778417 -0.03223224 -0.035965648
-0.02234856 -0.0012747624 0.0373525 0.017414454 -0.0106100775 -0.07194428 0.042637814 0.003098349
-0.0678175 -0.0049584988 -0.035142835 0.072403796 -0.06578613 -0.03764935 -0.023139443 -0.017047618
0.06857009 -0.05825488 -0.015323239 -0.04260665 0.083231725 0.00833152 -0.05636182 -0.016968654
-0.030455226 0.06968456 -0.0022119177 -0.0018617774 0.08388464 -0.05449657 0.016052607 0.063573115
0.0050454754 0.04664492 0.015002132 0.04035839 0.023319317 0.005757057 0.07637597 0.038605183
-0.0013045681 -0.0550611 0.014161741 -0.06624372 0.009243885 0.057786103 0.0009816347 0.0009021207
-0.01660612 0.05666797 0.1931241 -0.024721928 0.009148291 0.05769395 0.049994733 -0.053252965
-0.021083014 -0.00022941075 -0.048975796 0.045291923 -0.03030486 0.08475143 0.06893461 0.074978136
-0.0669135 0.009037354 -0.030688502 0.0969446 0.035290405 0.00018705476 0.042268947 -0.012982343
