decoder_final.pth (torch, 20480 bytes, 4 tensors)

decoder.0.weight f4 [64, 50]
4.9745e-41 4.21547e-40 5.0609e-41 4.9705e-41 6.1151e-41 4.959e-41 -3.0250004e-35 -5.1304e-41
4.9501e-41 -4.9114e-41 -6.2526e-41 -5.0766e-41 -4.9735e-41 4.9909e-41 -6.0186e-41 4.9509e-41
-4.9179e-41 4.9508e-41 -5.1565e-41 5.2072e-41 -5.1628e-41 -4.9959e-41 -5.2495e-41 1.7309e-41
-5.294534e-37 1.6502815e-36 -4.9497e-41 5.9565e-41 -4.9145e-41 5.004e-41 -5.0751e-41 5.175e-41
-5.0117e-41 -4.9836e-41 -4.9446e-41 -4.9739e-41 4.9083e-41 -5.0821e-41 -5.4541e-41 4.9972e-41
-1.3296e-40 5.638e-41 -4.9762e-41 4.9404e-41 -5.0422e-41 2.21562e-40 -4.939e-41 -3.412723e-24
-4.9806e-41 5.0202e-41 5.0625e-41 -5.0005e-41 5.3511e-41 -4.9903e-41 -5.1055e-41 -4.9879e-41
4.9285e-41 -5.1395e-41 -5.3109e-41 -5.9171e-41 -4.9142e-41 -5.134e-41 -5.0571e-41 5.137e-41
5.2292e-41 5.7331e-41 -4.9983e-41 -5.0003e-41 4.9733e-41 -4.9247e-41 5.0755e-41 -5.0043e-41
-5.009e-41 -4.9624e-41 -4.9669e-41 -4.9572e-41 -5.4205e-41 5.452e-41 1.09062e-40 -4.9383e-41
5.0553e-41 4.967e-41 5.0712e-41 -5.0609e-41 4.9857e-41 -4.9614e-41 -1.6167182e-36 5.1463e-41
6.2131e-41 4.9473e-41 4.9364e-41 -4.968e-41 -6.3032e-41 4.987e-41 4.9379e-41 -5.4425e-41
-5.0017e-41 -1.841966e-39 -3.1004e-41 4.9529e-41 5.1579e-41 4.9124e-41 5.2425e-41 -4.9481e-41
-5.0789e-41 5.006e-41 1.4073358e-16 5.0728e-41 -5.0166e-41 -5.4956e-41 -5.1443e-41 5.2102e-41
3.9567367e-35 5.0493e-41 -4.976e-41 4.9092e-41 4.9197e-41 -5.0913e-41 -5.0566e-41 5.2668e-41
-5.0234e-41 1.34459e-40 -5.1866e-41 4.9628e-41 -2.0579137e-37 4.9613e-41 -5.1763e-41 -5.2533e-41
5.0148e-41 4.992e-41 -4.924e-41 -5.0807e-41 -4.9101e-41 -4.9585e-41 1.0368065e-34 -4.9693e-41
-4.992e-41 -5.1062e-41 -4.9504e-41 -4.518923e-39 -4.5986e-41 5.0836e-41 5.2047e-41 -4.995e-41
-4.9896e-41 5.0151e-41 4.9628e-41 -2.7034704e-33 -4.9223e-41 4.9204e-41 5.724e-41 4.972e-41
-4.9861e-41 -4.947e-41 -5.7382e-41 -5.0705e-41 -5.0134e-41 5.4972e-41 -4.9691e-41 -5.0039e-41
-5.1395e-41 5.9076e-41 5.1416e-41 5.0082e-41 -5.06e-41 4.9316e-41 4.958e-41 -5.37e-41
4.9268e-41 -5.089e-41 4.91e-41 4.9959e-41 5.0836e-41 -4.995e-41 4.9485e-41 9.289739e-37
-4.9924e-41 -4.952e-41 4.9494e-41 5.1397e-41 -2.24886e-40 4.9329e-41 -4.9701e-41 -4.9274e-41
5.1101e-41 -5.0782e-41 -4.9718e-41 5.1465e-41 -5.0396e-41 4.9659e-41 -4.9558e-41 4.9784e-41
-5.0663e-41 5.2739e-41 -4.963e-41 5.0218e-41 5.1572e-41 2.0598e-41 -4.9857e-41 -4.9609e-41
5.4579e-41 -5.8087e-41 5.0003e-41 -6.2426e-41 -5.943e-41 5.1936e-41 9.3053057e-29 4.9904e-41
5.2308e-41 -1.6009782e-34 4.921e-41 4.9155e-41 4.917e-41 -5.0081e-41 -5.1397e-41 -6.2078e-41
-5.5113e-41 -4.9488e-41 4.3498e-41 -5.5092e-41 5.1792e-41 -5.2395e-41 -1.1766104e-32 -4.9442e-41
-4.9229e-41 -5.0671e-41 4.9897e-41 -4.9141e-41 -5.0863e-41 5.1143e-41 5.0751e-41 -5.155e-41
5.0367e-41 -6.1112e-41 -5.0223e-41 -4.9298e-41 -8.1387454e-38 5.1594e-41 -4.9452e-41 5.2008e-41
4.919e-41 -5.1662e-41 5.0288e-41 4.99e-41 4.9435e-41 4.2801e-41 -4.917e-41 1.3898057e-37
5.1115e-41 5.08e-41 5.0719e-41 -4.9556e-41 -4.9788e-41 5.1132e-41 -5.1282e-41 -5.0756e-41
00000000: ab8a 0000 1a97 0400 148d 0000 8f8a 0000
00000010: 77aa 0000 3d8a 0000 2cd6 2086 048f 0080
00000020: fd89 0000 e988 0080 4cae 0080 848d 0080
00000030: a48a 0080 208b 0000 c6a7 0080 038a 0000
00000040: 1789 0080 028a 0000 be8f 0080 2891 0000
00000050: eb8f 0080 448b 0080 5692 0080 4030 0000
00000060: e529 3483 f363 0c04 fa89 0080 0ba6 0000
00000070: ff88 0080 7e8b 0000 798d 0080 4290 0000
00000080: b58b 0080 ec8a 0080 d689 0080 a78a 0080
00000090: d388 0000 ab8d 0080 0a98 0080 4d8b 0000
000000a0: a372 0180 2a9d 0000 b78a 0080 b889 0000
000000b0: 8e8c 0080 a069 0200 ae89 0080 f905 8498
000000c0: d78a 0080 f18b 0000 1f8d 0000 658b 0080
000000d0: 2b95 0000 1c8b 0080 528e 0080 0b8b 0080
000000e0: 6389 0000 458f 0080 0c94 0080 f2a4 0080
000000f0: fd88 0080 1d8f 0080 f98c 0080 338f 0000
00000100: c591 0000 d19f 0000 558b 0080 638b 0080
00000110: a38a 0000 4889 0080 7c8d 0000 808b 0080
00000120: a18b 0080 558a 0080 758a 0080 308a 0080
00000130: 1a97 0080 fb97 0000 0530 0100 a989 0080
00000140: ec8c 0000 768a 0000 5d8d 0000 148d 0080
00000150: fb8a 0000 4e8a 0080 0189 0984 758f 0000
00000160: 32ad 0000 e989 0000 9b89 0000 7d8a 0080
00000170: b5af 0080 048b 0000 a689 0000 b797 0080
00000180: 6d8b 0080 a70e 1480 6d56 0080 118a 0000
00000190: c88f 0000 f088 0000 2492 0000 ef89 0080
000001a0: 948d 0080 8c8b 0000 3941 2225 698d 0000
000001b0: d88b 0080 3299 0080 678f 0080 3d91 0000
000001c0: 4f60 5206 c18c 0000 b68a 0080 d988 0000
000001d0: 2489 0000 ed8d 0080 f58c 0080 d192 0000
000001e0: 088c 0080 d176 0100 9590 0080 588a 0000
000001f0: ea0d 8c82 4d8a 0000 4b90 0080 7192 0080
00000200: cb8b 0000 288b 0000 4389 0080 a18d 0080
00000210: e088 0080 398a 0080 b2d0 0907 868a 0080
00000220: 288b 0080 578e 0080 ff89 0080 eb34 3180
00000230: 3180 0080 b68d 0000 1691 0000 3e8b 0080
00000240: 178b 0080 cd8b 0000 588a 0000 7598 6089
00000250: 3789 0080 2989 0000 909f 0000 998a 0000
00000260: fe8a 0080 e789 0080 f59f 0080 588d 0080
00000270: c18b 0080 3d99 0000 858a 0080 7d8b 0080
00000280: 458f 0080 aea4 0000 548f 0000 9c8b 0000
00000290: 0d8d 0080 7989 0000 358a 0000 b295 0080
000002a0: 5789 0000 dc8d 0080 df88 0000 448b 0000
000002b0: b68d 0000 3e8b 0080 f289 0000 850e 9e03
000002c0: 2b8b 0080 0b8a 0080 f889 0000 468f 0000
000002d0: e472 0280 8289 0000 8c8a 0080 5b89 0080
000002e0: 738e 0000 8f8d 0080 988a 0080 778f 0000
000002f0: 7c8c 0080 6e8a 0000 268a 0080 c78a 0000
00000300: 3a8d 0080 0493 0000 598a 0080 fd8b 0000
00000310: c38f 0000 6b39 0000 fb8a 0080 4a8a 0080
00000320: 2598 0000 eca1 0080 638b 0000 05ae 0080
00000330: aba5 0080 c790 0000 e3ea eb10 1d8b 0000
00000340: d091 0000 77ce 5487 2d89 0000 0689 0000
00000350: 1189 0000 9b8b 0080 468f 0080 0cad 0080
00000360: a299 0080 f489 0080 4179 0000 9399 0080
00000370: 6090 0000 0e92 0080 575f 748a d389 0080
00000380: 3b89 0080 408d 0080 188b 0000 fc88 0080
00000390: c98d 0080 918e 0000 798d 0000 b38f 0080
000003a0: 678c 0000 5baa 0080 008c 0080 6c89 0080
000003b0: c78e dd81 d38f 0000 da89 0080 fa90 0000
000003c0: 1f89 0000 0390 0080 2f8c 0000 1a8b 0000
000003d0: ce89 0000 5077 0000 1189 0080 a92b 3d02
000003e0: 7d8e 0000 9c8d 0000 628d 0000 248a 0080
000003f0: ca8a 0080 898e 0000 f48e 0080 7d8d 0080

decoder.0.bias f4 [64]
-3.8272106e-14 -1.0901694e-13 -9.481449e-08 -2.3380572e-20 -1.9402721e-14 -2.5581148e-10 -1.5245402e-07 0.010309383
-1.3474544e-10 -0.1550585 -0.00019397226 -4.6155283e-06 -0.017793886 -1.0243886e-05 -2.594818e-12 -1.2026473e-09
-3.834586e-12 -1.8523974e-13 -7.990283e-09 -1.4296198e-16 0.04331369 0.046130817 -1.3124075e-09 -7.9049425e-07
-1.4355647e-08 -0.010439863 -6.7403917e-13 -2.064002e-17 -1.3682526e-05 -4.977287e-06 -5.068548e-08 -8.0239005e-07
0.04981435 -2.4944527e-05 -2.6931343e-12 0.022964107 -9.977928e-10 -0.0025937296 -2.9566228e-13 -7.0182615e-09
-3.1262224e-12 -1.7261466e-06 0.013064481 -0.112052664 0.033500172 -3.2454893e-15 3.9035012e-06 -8.961281e-08
-9.242213e-09 -1.5601913e-10 -2.9357507e-06 -1.1255804e-07 -0.017681846 -2.48778e-16 -9.533835e-10 -4.4331573e-11
-9.413313e-09 -0.13305129 -5.754563e-19 -0.002190324 -2.0590455e-13 0.06482149 -1.4778927e-20 -5.6918838e-05
00000000: bc5c 2ca9 fd7b f5a9 d19c cbb3 c1d2 dc9e
00000010: a1c3 aea8 44a2 8caf 3eb2 23b4 b0e8 283c
00000020: 7827 14af a8c7 1ebe 0865 4bb9 16df 9ab6
00000030: 7cc4 91bc 28dd 2bb7 1698 36ac 644a a5b0
00000040: e1ea 86ac b88f 50aa a345 09b2 eed2 24a5
00000050: b269 313d abf3 3c3d 3c60 b4b0 5a32 54b5
00000060: cea0 76b2 f60b 2bbc a4b9 3dab df5e bea3
00000070: 008e 65b7 9202 a7b6 46b1 59b3 d363 57b5
00000080: 220a 4c3d f73f d1b7 3283 3dac 391f bc3c
00000090: b722 89b0 90fb 29bb 6d71 a6aa 4825 f1b1
000000a0: 04fd 5bac f2ad e7b5 680c 563c de7b e5bd
000000b0: 7a37 093d b6dc 69a7 d2fa 8236 2a71 c0b3
000000c0: afc7 1eb2 7b8b 2baf d003 45b6 70b7 f1b3
000000d0: 85d9 90bc 2769 8fa5 3308 83b0 eaf8 42ae
000000e0: 30b8 21b2 993e 08be 40d8 29a1 8a8b 0fbb
000000f0: f2d3 67aa 21c1 843d 4195 8b9e 23bc 6eb8

decoder.3.weight f4 [20, 64]
4.9316e-41 1.0029e-41 -1.0891085e-24 -4.943e-41 9.3462556e-36 -4.9306e-41 4.9155e-41 0.020024905
4.02265e-28 0.00027879764 -1.8601917e-15 3.5723e-41 -6.208988e-11 -4.256179e-14 2.9831228e-31 2.7172711e-21
-4.9417e-41 -1.2629829e-18 -2.2907427e-31 -4.9934e-41 0.047910847 0.07425877 -4.9798e-41 4.8980105e-32
3.5793464e-30 -0.011916743 -4.9198e-41 5.0081e-41 4.7631744e-13 -1.5358894e-19 -4.9357e-41 -4.2699452e-16
0.07661594 -1.8481888e-11 4.9474e-41 0.071120426 1.0660325e-20 1.0392696e-12 -4.9613e-41 2.6593078e-20
-1.0828355e-37 6.324047e-20 0.023286046 0.004057156 0.028385188 4.9785e-41 7.7792596e-05 1.208981e-27
4.9656e-41 -4.9076e-41 3.143143e-13 -4.985e-41 -7.782883e-05 6.419241e-38 -9.03832e-17 5.448296e-35
-2.8385298e-17 0.0021870243 -4.9397e-41 3.4267865e-05 4.9421e-41 0.12323989 4.9759e-41 2.3080964e-09
-1.742164e-33 -4.9264e-41 1.5101786e-16 -1.43015e-40 1.2841956e-34 5.2696397e-18 9.462113e-15 0.1295674
9.2143067e-29 0.0033319206 2.3738548e-11 -1.1972781e-14 -1.2217615e-15 4.9186227e-18 1.8611208e-38 4.3083655e-13
-2.2276406e-19 -4.279765e-37 -4.834057e-33 6.2268067e-37 0.03169906 0.063546315 2.19464e-39 -7.6890716e-20
1.6239574e-10 0.013203201 -2.4024595e-24 2.128971e-31 -1.2799775e-13 -9.682692e-25 7.471964e-21 -3.3949294e-14
0.05026334 3.942449e-12 -4.9165e-41 0.053453628 4.803842e-17 1.8778286e-09 -4.455377e-27 -6.200916e-24
5.2437963e-14 -2.0754726e-12 0.033044428 -0.003938904 0.061261486 2.6591423e-37 9.212932e-07 -1.0149457e-14
2.0620818e-19 -4.0730117e-19 1.6853578e-11 -9.779006e-34 0.0006583328 9.559297e-29 1.5979688e-20 8.552396e-32
-1.3038731e-24 0.0073584905 4.9295e-41 -2.0375994e-06 4.9762e-41 -0.0062926393 -3.408174e-15 2.4204272e-07
4.9186e-41 -4.9739e-41 -5.6715845e-25 -4.9624e-41 8.55744e-40 7.796335e-29 1.2440319e-34 0.1717944
1.5837089e-27 0.00017522607 -1.7725083e-16 -1.9683529e-16 -8.219792e-07 -1.013819e-11 -5.823754e-32 3.100816e-21
-4.9242e-41 -5.0266e-41 1.7274306e-34 -4.9345e-41 0.040127102 0.11013644 4.927e-41 -9.559018e-31
3.47379e-15 0.0038923444 1.157104e-31 4.9549e-41 -9.569746e-15 1.4507367e-23 -5.802109e-38 -6.8505358e-12
0.027484166 -6.08179e-12 -4.9158e-41 0.10889339 -6.551344e-20 -1.0159958e-07 -4.9295e-41 2.3141205e-32
-2.882899e-35 2.2210414e-28 0.07892026 -0.0025532776 0.11438804 -4.9767e-41 6.0828348e-05 -3.228534e-26
-4.9752e-41 -4.9481e-41 1.7978156e-24 2.3022497e-36 0.0002714151 -4.9738e-41 3.3922276e-34 -4.9345e-41
2.3949543e-24 -0.004190129 1.1796e-41 -2.0839679e-14 -1.2849046e-37 0.12048392 -4.962e-41 -4.0325634e-08
5.0165e-41 -4.9684e-41 -9.405484e-20 -4.9665e-41 1.275844e-39 -4.9106e-41 4.9307e-41 0.10633714
-1.5374494e-30 -0.0015024499 2.6696312e-15 -4.9878e-41 1.434421e-08 4.2818483e-13 -1.4798122e-29 -2.076433e-21
-4.984e-41 -4.9512e-41 -2.2101e-41 -4.9776e-41 0.17016898 0.03928362 4.946e-41 3.92821e-25
4.9089e-41 0.00014275583 -4.9124e-41 -4.992e-41 -1.00808935e-13 2.3945557e-23 1.6962402e-37 -7.528106e-12
0.08978855 2.5336195e-14 4.9935e-41 -0.0014160088 4.264112e-16 -7.5278415e-11 4.9575e-41 -1.3590316e-30
-2.808498e-23 5.3370438e-17 0.10775661 0.0002117329 0.014168351 -2.5827704e-37 -8.638948e-05 -5.0712936e-32
-4.9585e-41 4.9806e-41 -1.0708082e-17 2.639e-42 -0.00021891408 -4.944e-41 8.6845706e-33 8.023736e-39
-5.638893e-30 -0.015149411 -4.966e-41 1.6993297e-06 6.941008e-24 0.04652602 4.9586e-41 1.3478788e-11
00000000: 7989 0000 f51b 0000 0888 a897 ca89 0080
00000010: dbc5 4605 7289 0080 0689 0000 450b a43c
00000020: 3af7 fe11 962b 9239 7b0a 06a7 9563 0000
00000030: 7f89 88ae 67ae 3fa9 a19d c10c ab4f 4d1d
00000040: c189 0080 2562 baa1 7ead 948c 328b 0080
00000050: 2a3e 443d fb14 983d d18a 0080 ba51 7e0b
00000060: 0f32 910e 713e 43bc 2589 0080 9b8b 0000
00000070: 4a12 062b 6953 35a0 9689 0080 4525 f6a5
00000080: d1e8 9c3d 8391 a2ad ea89 0000 96a7 913d
00000090: 2b5e 491e a243 922b 4d8a 0080 1e2a fb1e
000000a0: 4f63 1382 8552 951f 61c2 be3c e4f1 843b
000000b0: 0e88 e83c c88a 0000 9524 a338 1892 bf12
000000c0: 6c8a 0000 ce88 0080 77f1 b02a f68a 0080
000000d0: 0938 a3b8 95bf ae01 d368 d0a4 2ed7 9006
000000e0: 72e7 02a4 2e54 0f3b b389 0080 d7ba 0f38
000000f0: c489 0000 3265 fc3d b58a 0000 769c 1e31
00000100: bbbb 1089 5489 0080 9b1c 2e25 ab8e 0180
00000110: e9b2 2a07 576a c222 4b74 2a28 51ad 043e
00000120: 459c e910 5a5c 5a3b 75ce d02d b5ae 57a8
00000130: 0b13 b0a6 1477 b522 7aa8 ca00 178a f22a
00000140: 277f 83a0 03a2 1183 83cc c889 23e3 5303
00000150: e0d6 013d 9224 823d c3e5 1700 968d b59f
00000160: 568e 322f 3d52 583c 9de1 3998 992d 8a0c
00000170: d71c 10aa 18d5 9597 3324 0d1e dfe4 18a9
00000180: efe0 4d3d 6cb6 8a2c 0d89 0080 31f2 5a3d
00000190: c289 5d24 1c0b 0131 e47e b093 e6e2 ef98
000001a0: db28 6c29 640c 12ac 9859 073d ec11 81bb
000001b0: 53ed 7a3d cbf8 b402 c94e 7735 1cd6 36a8
000001c0: 9972 7320 9d6d f0a0 e23e 942d 4b7b a288
000001d0: f793 2c3a 625b f210 84ec 961e 6c08 de0b
000001e0: bcc3 c997 7e1f f13b 6a89 0000 b1bd 08b6
000001f0: b78a 0000 7c32 cebb b795 75a7 19f2 8134
00000200: 1c89 0000 a78a 0080 ec86 2f97 558a 0080
00000210: 7751 0900 1ba9 c510 365c 2507 dfea 2f3e
00000220: ddf2 fa12 e4bc 3739 365b 4ca5 86ef 62a5
00000230: fba5 5cb5 595a 32ad 7c31 978b 814a 6a1d
00000240: 4489 0080 1f8c 0080 6b9d 6507 8e89 0080
00000250: 515c 243d 378f e13d 5889 0000 9b1a 9b8d
00000260: 1d50 7a27 b416 7f3b 6033 160c 1f8a 0000
00000270: aa64 2ca8 804e 8c19 ccf2 9d81 2408 f1ac
00000280: 7926 e13c e5fb d5ac 0889 0080 7f03 df3d
00000290: 72b0 9a9f f62e dab3 6a89 0080 e04f f00a
000002a0: fd47 1986 75c6 8c11 f2a0 a13d e454 27bb
000002b0: 4744 ea3d bb8a 0080 f121 7f38 88de 1f95
000002c0: b08a 0080 ef89 0080 6819 0b18 8fda 4304
000002d0: b84c 8e39 a68a 0080 c373 e107 8e89 0080
000002e0: f54c 3918 5a4d 89bb e220 0000 07b5 bba8
000002f0: 64e4 2e82 46c0 f63d 528a 0080 8132 2db3
00000300: d78b 0000 808a 0080 aa14 de9f 728a 0080
00000310: 89e4 0d00 e388 0080 7389 0000 49c7 d93d
00000320: 2677 f98d daed c4ba 015e 4027 0a8b 0080
00000330: 816e 7632 f00b f12a 1f12 968f 0ee4 1c9d
00000340: ef8a 0080 058a 0080 9c3d 0080 c18a 0080
00000350: c740 2e3e dce7 203d e089 0000 f924 f316
00000360: d788 0000 bab0 1539 f088 0080 288b 0080
00000370: 6500 e3a9 5496 e719 58e1 6602 936f 04ad
00000380: 0fe3 b73d 4a35 e428 338b 0000 5f99 b9ba
00000390: 30cf f525 fb89 a5ae 328a 0000 f783 dc8d
000003a0: 85cf 079a b120 7624 7faf dc3d 9e04 5e39
000003b0: 5f22 683c 35c6 af82 002c b5b8 87a8 838b
000003c0: 398a 0080 d78a 0000 7d87 45a3 5b07 0000
000003d0: 4d8c 65b9 d289 0080 195f 340a e95e 5700
000003e0: 9dbd e48e 3c35 78bc 6f8a 0080 8614 e435
000003f0: 3542 0619 1192 3e3d 3a8a 0000 111f 6d2d

decoder.3.bias f4 [20]
-0.024506146 -0.0023761792 -0.06082748 -0.01855249 -0.025673889 -0.02019127 -0.032278918 -0.03758661
-0.0037624708 -0.008195428 0.041833058 0.023512594 0.06189381 0.053927436 0.047133148 0.04435946
0.04120567 0.041114084 0.038459316 0.043957558
00000000: 1dc1 c8bc acb9 1bbb 3c26 79bd 64fb 97bc
00000010: 0c52 d2bc 2a68 a5bc e636 04bd 6bf4 19bd
00000020: c993 76bb 1e46 06bc 2459 2b3d 7c9d c03c
00000030: 5d84 7d3d 04e3 5c3d b00e 413d 44b2 353d
00000040: 47c7 283d 3e67 283d 8487 1d3d d70c 343d
