encoder_weights.pth (torch, 673632 bytes, 8 tensors)

fc.0.weight f4 [512, 3]
0	0xbf1a3fa1	-0.6025334
1	0xbd687dd1	-0.056760613
2	0xbbb57565	-0.005537676
3	0x3e3229f7	0.17398821
4	0x3e45db37	0.19321905
5	0x3e6ac998	0.22928464
6	0xbdeb3f45	-0.11486677
7	0xbf1540cf	-0.58302015
8	0xbf267d2d	-0.65034753
9	0x3d4dbcec	0.050228998
10	0xbcc66ae2	-0.024220888
11	0x3eeb8675	0.4600102
12	0x3ea12773	0.3147541
13	0xbf142e76	-0.57883394
14	0x3e87c929	0.2652066
15	0xbe945eab	-0.28978476
16	0xbf2b774b	-0.669789
17	0xbf164943	-0.5870554
18	0xbed9c30d	-0.42531624
19	0x3ddc18c2	0.1074691
20	0x3ebe9cf4	0.3722912
21	0x3e70e04b	0.23523061
22	0xbe87c97a	-0.26520902
23	0xbea1b365	-0.3158218
24	0xbf8159f1	-1.0105573
25	0xbee48dfc	-0.44639575
26	0xbedc60c9	-0.4304259
27	0xbeba5a7b	-0.36397156
28	0x3e67ca0d	0.2263567
29	0x3e967c85	0.29391876
30	0xbdf20cd6	-0.118188545
31	0xbf2289f4	-0.6349175
32	0xbf21b69f	-0.6316928
33	0xbecdc708	-0.4019091
34	0x3e6e58f7	0.23276125
35	0xbe208272	-0.15674761
36	0xbe1ec18a	-0.15503517
37	0x3e36d76f	0.17855619
38	0x3e49f000	0.19720459
39	0xbe914a64	-0.28377068
40	0xbea1bd6e	-0.31589836
41	0x3e22e6f7	0.15908419
42	0x3e319e24	0.17345482
43	0xbde96b50	-0.11397421
44	0xbead7dde	-0.33885092
45	0x3cbdef21	0.023185315
46	0x3e443bc5	0.19163425
47	0x3eeb2690	0.45927858
48	0xbe6544ce	-0.22389528
49	0xbe8c376a	-0.27386028
50	0x3e1aa4ed	0.15101977
51	0x3de24d65	0.11049918
52	0x3da91d6b	0.08257564
53	0xbe923f03	-0.285637
54	0x3ea21907	0.3165972
55	0xbd47fdf9	-0.04882619
56	0xbeb8d6ff	-0.3610153
57	0xbe867f34	-0.26268923
58	0x3e417dd4	0.18895656
59	0x3cdc5250	0.026894718
60	0x3dd160cc	0.10223541
61	0x3dc49fa6	0.09600763
62	0x3e63d314	0.22248489
63	0x3e7c6764	0.24648815
64	0xbed0fd1c	-0.40818107
65	0xbea95612	-0.3307348
66	0xbf05fa87	-0.523354
67	0x3c308d70	0.010775909
68	0x3c265122	0.0101511795
69	0xbf1a5411	-0.60284525
70	0xbf2671f9	-0.6501766
71	0xbe88f3d7	-0.26748535
72	0x3ea53d70	0.32273436
73	0xbf234379	-0.6377483
74	0x3e3644b5	0.17799647
75	0xbe1a80b2	-0.15088156
76	0x3d75ae84	0.059980884
77	0x3edc6d88	0.43052316
78	0x3e8f1560	0.27945995
79	0x3e6417b2	0.22274664
80	0x3deb3f6e	0.11486708
81	0xbdeeebcd	-0.11666069
82	0xbe8780a1	-0.26465324
83	0xbe9f3106	-0.3109209
84	0xbeb9bcfe	-0.36277002
85	0x3d981695	0.07426182
86	0xbd827cef	-0.063714854
87	0xbef1f6df	-0.4725866
88	0x3ecbb7be	0.39788622
89	0xbee76403	-0.4519349
90	0xbec9610e	-0.3933186
91	0xbd7715d4	-0.06032355
92	0x3ec330a2	0.3812304
93	0xbbebeb11	-0.007199653
94	0xbee0a0c6	-0.4387266
95	0x3eb3473d	0.35015288
96	0x3d719229	0.05897728
97	0xbe2bf8ca	-0.16794124
98	0xbe0ae507	-0.1356393
99	0x3e47e21e	0.1951985
100	0x3eb089d0	0.34480143
101	0x3e790926	0.24319896
102	0xbeaab36f	-0.33340022
103	0x3e965271	0.29359773
104	0xbf023704	-0.508652
105	0xbfb72f52	-1.4311316
106	0xbd7983cf	-0.060916718
107	0xbd02477d	-0.031806458
108	0x3d829301	0.06375695
109	0x3e96c282	0.29445273
110	0x3dfbf799	0.12303085
111	0xbe99a4a5	-0.30008426
112	0x3e94d97f	0.29072186
113	0xbd48ee66	-0.04905548
114	0xbe7d3651	-0.24727751
115	0xbf4c79d4	-0.79873395
116	0x3e57610d	0.21033116
117	0xbe492674	-0.19643575
118	0xbe1e86c9	-0.15481104
119	0xbcdce8db	-0.026966503
120	0x3e6cd7e9	0.23129238
121	0x3e4f5fbf	0.20251368
122	0xbecfa18c	-0.40552938
123	0x3e9518f3	0.29120597
124	0xbdf46de4	-0.119350225
125	0xbe16fd89	-0.14745153
126	0xbec1b804	-0.37835705
127	0x3e49a2ae	0.19690964
128	0xbdaf6566	-0.08564262
129	0xbf305d04	-0.6889193
130	0xbf37a195	-0.7173093
131	0xbf1623ea	-0.5864855
132	0x3e3cabf6	0.18424973
133	0x3d465c85	0.048428077
134	0xbea48b57	-0.32137558
135	0xbec152e7	-0.37758562
136	0x3eb22983	0.34797296
137	0x3e905120	0.28186893
138	0xbfdaed17	-1.7103604
139	0xbd0f10c1	-0.034928087
140	0xbaa6cfa6	-0.0012726679
141	0xbe44c6d9	-0.1921648
142	0xbed6ac55	-0.41928354
143	0xbed1e575	-0.40995374
144	0xbf6384f1	-0.8887473
145	0xbd9c05c4	-0.07618287
146	0xbd96db9a	-0.073661044
147	0xbe7684ae	-0.24074051
148	0x3e85a55c	0.26102722
149	0x3d322239	0.04348967
150	0x3e658203	0.22412877
151	0xbf9b95db	-1.2155107
152	0xbea3b0a7	-0.31970713
153	0xbd20aa64	-0.039224997
154	0x3dbfccb1	0.09365214
155	0x3e9a4ab8	0.3013513
156	0x3e3613fd	0.17781062
157	0x3ca3a5c0	0.019976497
158	0xbf31a60b	-0.69393986
159	0xbd2a3787	-0.04155686
160	0xbea94a22	-0.3306437
161	0x3e1932fa	0.14960852
162	0x3defb74c	0.11704883
163	0xbf12ae00	-0.5729675
164	0xbe87a04a	-0.26489478
165	0x3c267fbb	0.010162289
166	0xbea5c59e	-0.32377332
167	0xbe81b11b	-0.25330433
168	0xbf49edef	-0.7887868
169	0xbf2af720	-0.6678333
170	0xbe83e91f	-0.25763795
171	0x3e62d8c8	0.22153008
172	0x3c92f82d	0.017940605
173	0x3e7c168d	0.24617977
174	0xbe42b144	-0.19012934
175	0xbdc8a102	-0.09796335
176	0xbe14d93d	-0.14535995
177	0xbe22742a	-0.15864626
178	0x3e9a98f0	0.30194807
179	0xbf0374a3	-0.5134985
180	0x3ddb1df3	0.10699072
181	0xbea7b0f0	-0.3275218
182	0xbe472f43	-0.19451623
183	0x3e53cf48	0.2068454
184	0x3d2a779a	0.041617967
185	0x3e91d763	0.2848464
186	0xbe00d292	-0.12580326
187	0xbe06f850	-0.13180661
188	0x3cb2472f	0.021762459
189	0xbef6482d	-0.4810194
190	0xbef6ae93	-0.48180065
191	0xbeb86674	-0.36015666
192	0x3e12f648	0.14351761
193	0xbbae5b54	-0.0053209458
194	0x3e9720f8	0.2951734
195	0xbe8f2022	-0.27954203
196	0x3e0c7acb	0.13718717
197	0x3ee7572b	0.4518369
198	0xbe31446a	-0.17311254
199	0xbeac8456	-0.33694714
200	0xbe31d393	-0.17365865
201	0xbee4adc9	-0.44663838
202	0xbeceb588	-0.40372872
203	0x3eee9aaf	0.4660239
204	0x3e069a5e	0.13144824
205	0xbf362038	-0.7114291
206	0xbe39da8a	-0.18149772
207	0x3d36b4b8	0.04460594
208	0xbf0270e5	-0.50953513
209	0xbd0b8d0d	-0.034070063
210	0x3e430995	0.19046624
211	0x3afb56da	0.0019175664
212	0xbee5ca7f	-0.44881055
213	0xbe2ba9da	-0.16764012
214	0x3e9d7722	0.30754954
215	0xbe3844dc	-0.17995018
216	0x3eb67d71	0.3564258
217	0xbddc9e7a	-0.107724145
218	0xbf03ef1e	-0.5153674
219	0x3ea2a845	0.31769004
220	0xbf8b7406	-1.0894783
221	0xbeb2897a	-0.3487051
222	0x3ea8ff6f	0.3300738
223	0xbf09426b	-0.5361697
224	0x3da0d235	0.07852594
225	0xbf166845	-0.5875285
226	0xbd72e744	-0.059302583
227	0xbe999abc	-0.30000865
228	0xbf11a719	-0.56895596
229	0xbf74020f	-0.9531564
230	0xbf28c20a	-0.6592108
231	0xbefc212d	-0.4924406
232	0xbeffc5bf	-0.49955556
233	0x3ea06c83	0.31332788
234	0x3e9a21d7	0.30103943
235	0xbdbf0c7f	-0.09328555
236	0xbf1047d5	-0.56359607
237	0xbde9d408	-0.11417395
238	0x3ead8cd1	0.33896497
239	0xbe98fc28	-0.2987988
240	0xbf2f7294	-0.6853421
241	0xbf600655	-0.8750966
242	0xbeca6dac	-0.39536798
243	0xbbea0132	-0.007141256
244	0xbf19993e	-0.59999454
245	0xbf1746ea	-0.5909258
246	0xbf110cbd	-0.5666006
247	0xba365258	-0.0006955019
248	0x3c82fd3c	0.015989892
249	0xbddf6ab4	-0.10909024
250	0x3ceec7a1	0.029147925
251	0xbd4654d2	-0.048420735
252	0xbd883791	-0.066512235
253	0x3e082df4	0.1329878
254	0x3edff085	0.4373819
255	0xbe070406	-0.13185129

fc.0.bias f4 [512]
0	0xbc5696a7	-0.013097442
1	0x3d33baa8	0.04387918
2	0xbec7b439	-0.39004686
3	0xbe5936d2	-0.21212319
4	0xbd1f38f3	-0.03887267
5	0xbcf2cd3f	-0.029638885
6	0xbeeead46	-0.46616572
7	0x3d742cd7	0.059613075
8	0xbd579153	-0.052628826
9	0x3daf2b47	0.085531764
10	0xbcb9c7bd	-0.02267825
11	0xbecf6a69	-0.40510872
12	0xbf012e92	-0.50461686
13	0xbdec95e5	-0.115520276
14	0x3c5b32ef	0.013378843
15	0xbf1f4e50	-0.6222887
16	0x3e263b44	0.16233546
17	0xbf0966fa	-0.53672755
18	0xbf16cb58	-0.5890403
19	0xbf357461	-0.70880705
20	0xbed6d7c0	-0.4196148
21	0x3d0ea6af	0.03482693
22	0xbf2d5619	-0.677095
23	0x3e583e5b	0.21117537
24	0x3dacee2f	0.084438674
25	0x3e0e5448	0.13899338
26	0xbec53e79	-0.38524225
27	0xbd63dce5	-0.055630583
28	0x3cff95b1	0.031199308
29	0xbf0d87e4	-0.5528548
30	0x3e874b5f	0.2642469
31	0xbde36ae2	-0.11104371
32	0x3dff85a2	0.1247666
33	0xbe1a9ca4	-0.15098816
34	0xbf11e9f6	-0.5699762
35	0x3c66dfe3	0.014091465
36	0xbf25bedf	-0.6474437
37	0xbe84f826	-0.25970572
38	0xbf2af524	-0.66780305
39	0xbe6cd164	-0.23126751
40	0x3e85b411	0.26113942
41	0x3de00db4	0.10940114
42	0xbf0339ca	-0.51260054
43	0x3ed71368	0.42006993
44	0x3e4e2ecf	0.20135044
45	0xbe9588b7	-0.29205868
46	0x3c4cb39d	0.012493995
47	0xbf15c1a4	-0.584986
48	0x3becade4	0.007222878
49	0xbe19b045	-0.15008648
50	0xbcc3b5d2	-0.02389041
51	0xbeecd2c8	-0.46254563
52	0xbef5a88c	-0.47980154
53	0xbe44e03f	-0.19226168
54	0x3e84c032	0.25927883
55	0xbe8e9824	-0.2785045
56	0x3dd487ac	0.1037744
57	0xbe1d9ba4	-0.15391403
58	0x3e4b1d32	0.19835356
59	0xbdb7560c	-0.08951959
60	0x3d82fb13	0.06395545
61	0xbf03cd6f	-0.5148534
62	0xbd4b63f6	-0.049655877
63	0x3ec7575e	0.38933843
64	0xbf254dd4	-0.6457188
65	0x3e138c08	0.14408886
66	0xbf12788f	-0.5721521
67	0xbdd2f2a5	-0.10300187
68	0xbb20fb41	-0.0024563821
69	0xbf0779ba	-0.52920115
70	0xbebd876c	-0.3701738
71	0xbf35a022	-0.7094747
72	0xbee92a5a	-0.45540124
73	0xbeb3313a	-0.34998494
74	0xbee4c90c	-0.44684637
75	0xbe7316de	-0.23739192
76	0xbcbd778d	-0.023128295
77	0x3d6488d0	0.055794537
78	0xbe7de145	-0.24792965
79	0xbf152fd4	-0.58276105
80	0x3dac28e6	0.08406238
81	0xbbcb3979	-0.0062019196
82	0xbeebb1c1	-0.46034053
83	0x3e3cab30	0.18424678
84	0x3eac8a32	0.33699185
85	0x3eec9270	0.46205473
86	0xbe729dd0	-0.23693013
87	0xbf325478	-0.6966014
88	0xbeaa8ea6	-0.33311957
89	0x3f1acc7d	0.60468274
90	0xbe26490d	-0.16238804
91	0x3c8559fa	0.016278256
92	0x3e3d69f7	0.18497454
93	0xbbf8b752	-0.007590213
94	0x3d0a6469	0.033787165
95	0xbd609374	-0.054828122
96	0x3d9643b9	0.07337136
97	0xbcc7c5f4	-0.024386384
98	0xbee9c80c	-0.45660436
99	0x3cab8add	0.020940239
100	0xbee7f7dd	-0.45306292
101	0xbf4cbb30	-0.79973125
102	0xbed4cdc9	-0.41563252
103	0xbee5c175	-0.44874159
104	0x3d735582	0.05940772
105	0xbeb22699	-0.34795073
106	0x3e727c8a	0.2368032
107	0xbe9f8d62	-0.31162554
108	0x3dbd44e5	0.09241656
109	0xbe4e3e56	-0.20140967
110	0xbf1feed9	-0.6247383
111	0xbf1c6770	-0.61095333
112	0xbf122f1e	-0.57103145
113	0x3ecef40f	0.40420577
114	0xbe756049	-0.23962511
115	0xbdc8b9af	-0.09801041
116	0xbec831d9	-0.3910053
117	0x3e4e4184	0.2014218
118	0xbf407eb5	-0.7519334
119	0xbd7e5764	-0.06209506
120	0xbef59cde	-0.47971243
121	0xbf024010	-0.50879
122	0xbed3c46f	-0.41360804
123	0xbdb3e1cb	-0.08783301
124	0xbed1eb58	-0.40999866
125	0xbc32d3f7	-0.010914794
126	0x3e5a9f8c	0.21349925
127	0xbf4d77bc	-0.80260825
128	0xbdfaaf78	-0.12240499
129	0xbea5ef86	-0.32409304
130	0xbe7d0d98	-0.24712217
131	0x3e25499c	0.16141361
132	0xbeb60bff	-0.35556027
133	0x3d57fb27	0.052729752
134	0xbf2ee258	-0.68314123
135	0xbf1cc4d6	-0.6123785
136	0x3e50b7a8	0.2038256
137	0xbf113689	-0.5672384
138	0x3ead00cd	0.33789673
139	0xbc19ba99	-0.009382867
140	0xbd978fa6	-0.07400446
141	0xbf4336e1	-0.76255614
142	0x3df43f4e	0.11926137
143	0xbbedd7c1	-0.007258386
144	0x3d60de81	0.054899696
145	0xbe95364f	-0.29142997
146	0x3c99fe2d	0.018797958
147	0x3e726b03	0.23673634
148	0xbcf4a32e	-0.029862966
149	0x3e9b59c4	0.30341923
150	0xbe84a90f	-0.2591023
151	0xbaf08dd4	-0.0018352815
152	0xbf313c67	-0.6923279
153	0xbbef97c5	-0.0073117935
154	0xbe70d08a	-0.23517051
155	0x3de590fb	0.112092935
156	0xbf57d2e3	-0.8430616
157	0x3e1a8d99	0.15093078
158	0x3e933ca5	0.28757206
159	0xbefba789	-0.49151257
160	0xbee53971	-0.44770387
161	0xbe46e7f8	-0.19424427
162	0x3dd00316	0.101568386
163	0xbf165b52	-0.58733094
164	0xbf184fe3	-0.594969
165	0xbd6705af	-0.056401905
166	0x3e581b42	0.21104148
167	0xbe2dbacb	-0.16965787
168	0xbecba4b9	-0.3977411
169	0xbc86859c	-0.016421132
170	0xbd8f91a9	-0.07010204
171	0x3ead518a	0.33851272
172	0xbed59292	-0.41713387
173	0x3e642a6a	0.22281805
174	0x3c216a6c	0.009852033
175	0xbf1ab262	-0.6042844
176	0xbde84585	-0.11341385
177	0x3e4166d0	0.18886876
178	0xbf06c993	-0.5265133
179	0xbf213d10	-0.629838
180	0xbf38841c	-0.7207658
181	0xbf25c43d	-0.6475256
182	0xbebd6b13	-0.36995754
183	0xbf01a454	-0.5064137
184	0xbd7a7715	-0.06114872
185	0xbf42d92d	-0.76112634
186	0x3e6aefac	0.2294299
187	0x3c70cb80	0.014696956
188	0x3e207c00	0.15672302
189	0xbf086e38	-0.5329318
190	0xbefe6235	-0.496843
191	0xbea2a769	-0.3176835
192	0xbea85a1b	-0.32881245
193	0x3e9ea60c	0.3098606
194	0x3dfea4fa	0.124338105
195	0xbe6a7800	-0.22897339
196	0xbe6c6922	-0.2308698
197	0xbebf55a0	-0.37370014
198	0xbdc54508	-0.09632307
199	0x3d4c788a	0.049919643
200	0x3da8c97a	0.082415536
201	0x3e819a2c	0.25312936
202	0x3eb7c4b8	0.35892272
203	0xbf04c44c	-0.51862025
204	0x3e3144c0	0.17311382
205	0xbe933474	-0.28750956
206	0xbf017178	-0.50563765
207	0x3e2e9574	0.170492
208	0x3e77e3ae	0.24207947
209	0x3dc11393	0.094275616
210	0x3d70e8b3	0.05881567
211	0x3d96aacc	0.07356796
212	0xbf09ab47	-0.53776973
213	0xbea99ec0	-0.3312893
214	0x3cba1a42	0.022717599
215	0xbf4a93b2	-0.79131615
216	0xbdc3fed9	-0.09570093
217	0xbeedfd18	-0.46482158
218	0xbd939633	-0.072063826
219	0x3dfaef82	0.12252714
220	0xbe338c42	-0.17533973
221	0xbeb2b8b8	-0.34906554
222	0xbec63d8f	-0.3871884
223	0x3e8377bd	0.2567729
224	0x3df49a10	0.119434476
225	0x3ec513d5	0.38491693
226	0xbeab0ac2	-0.33406645
227	0xbe358390	-0.17725968
228	0x3da3c487	0.07996469
229	0xbc890b38	-0.016728982
230	0x3dea0081	0.11425877
231	0x3d2bc295	0.041933615
232	0xbe9aba04	-0.30220044
233	0x3d507636	0.050893985
234	0xbe23f741	-0.16012289
235	0xbc8ac394	-0.016938962
236	0xbe89d794	-0.26922286
237	0xbcdc593c	-0.026898019
238	0xbf1c0ff2	-0.6096183
239	0xbd10dced	-0.03536694
240	0xbe3814ac	-0.17976636
241	0xbcaf258d	-0.02138021
242	0xbecdc520	-0.40189457
243	0x3d6deeb3	0.05808897
244	0xbf018d00	-0.50605774
245	0x3d8017b4	0.06254521
246	0x3d7f2cf0	0.062298715
247	0xbee5abfc	-0.44857776
248	0x3e82fe6a	0.25584728
249	0xbe392de1	-0.18083908
250	0xbca4ce38	-0.020117864
251	0x3e01194a	0.12607303
252	0x3e62fd5c	0.22166961
253	0x3cbfc9a9	0.023411589
254	0x3e9c5471	0.30533174
255	0xbdf8fa83	-0.12157156

fc.2.weight f4 [256, 512]
0	0x3caec20f	0.021332769
1	0x3c94619d	0.018112952
2	0xbdbe2e80	-0.09286213
3	0x3af7e74b	0.0018913535
4	0xbc8faf9d	-0.017539794
5	0xbe15b51f	-0.14619873
6	0xbc83d8bd	-0.01609456
7	0xbcdf19b6	-0.02723394
8	0xbe3a5716	-0.18197283
9	0x3b892f1d	0.0041865245
10	0xbd7f4c7c	-0.0623288
11	0xbd6e5453	-0.058185887
12	0x3cd61d63	0.02613706
13	0x3ccd0148	0.025025025
14	0xbdb1b42f	-0.086769454
15	0xbcc2947e	-0.023752447
16	0xbd886b59	-0.066611
17	0xbe63e1b0	-0.22254062
18	0x3c85125d	0.016244108
19	0xbbf4a74e	-0.0074662333
20	0xbbf0cf51	-0.007348933
21	0xbd99c46f	-0.0750817
22	0xbb0702fc	-0.0020601144
23	0xbdc9354e	-0.0982462
24	0x3c98e4c5	0.018663773
25	0x3c484df9	0.012225621
26	0xbb1f6518	-0.0024321731
27	0x3cbfbaec	0.023404561
28	0xbdb85702	-0.090009704
29	0xbbc394f9	-0.0059686867
30	0xbb5b412c	-0.0033455594
31	0xbcfb535c	-0.030679397
32	0x3caf1f64	0.021377273
33	0xbc1a8e9c	-0.009433415
34	0xbdadb029	-0.084808655
35	0xbba16f6f	-0.004926614
36	0xbd13c420	-0.03607571
37	0xbd4d8199	-0.050172422
38	0x3b9a824b	0.004715239
39	0x3db74420	0.08948541
40	0xbd5e0a3d	-0.054208983
41	0xbd53968b	-0.05165724
42	0xbd9b0c06	-0.07570653
43	0xbe4b618d	-0.19861431
44	0xbd2ba02d	-0.041900802
45	0x3d0856d5	0.033285934
46	0x3d1fcbab	0.039012592
47	0x3d1ea79c	0.038734064
48	0x3e809b1e	0.25118345
49	0xbca11138	-0.01966153
50	0x3d5c644c	0.053806588
51	0x3bc6f2ff	0.006071448
52	0xbe0ec1c3	-0.13941102
53	0xbca7885a	-0.02045076
54	0xbc00de54	-0.007865507
55	0xbd8c6757	-0.06855648
56	0xbde52d98	-0.11190337
57	0xbd2e62c0	-0.042574644
58	0xbd0b49bf	-0.034005877
59	0xbd53f6c2	-0.051749
60	0xbd5be38f	-0.053683814
61	0x3cd6a88a	0.026203413
62	0xbdf554e8	-0.11979085
63	0xbdf14607	-0.11780935
64	0x3ca7e2cc	0.020493887
65	0xbcf36795	-0.029712478
66	0x3cf048be	0.029331561
67	0xbbb2d030	-0.005456947
68	0x3df11b6d	0.11772809
69	0xbc8e103d	-0.017341727
70	0xbe13bfa8	-0.1442858
71	0xbd04a9a1	-0.032388333
72	0xbdedd42b	-0.116127335
73	0x3d7829da	0.060586788
74	0xbd6c6653	-0.05771477
75	0xbbfe98f7	-0.0077696997
76	0xbe0326c3	-0.12807755
77	0x3ccd999e	0.025097664
78	0xbddbc72c	-0.107313484
79	0xbda9fdd9	-0.08300371
80	0xbe13ed7f	-0.14446066
81	0xbd69c8c4	-0.05707623
82	0xbb735727	-0.0037130804
83	0xbbe0b0a4	-0.0068569947
84	0xbcd1d86b	-0.025615891
85	0xbd98b09d	-0.07455561
86	0xbe23363c	-0.15938658
87	0x3cc5ba26	0.024136614
88	0x3c454d07	0.0120422905
89	0x3c2f2baf	0.010691567
90	0xbd173998	-0.03692016
91	0xbd2fcee0	-0.0429219
92	0xbd1358c9	-0.035973344
93	0xbe120ac4	-0.1426192
94	0x3d8f79d8	0.07005662
95	0x3df7cd2e	0.12099682
96	0xbdcd9c83	-0.10039618
97	0xbd447cdc	-0.047970638
98	0xbd0eb122	-0.034836896
99	0xbd0f656b	-0.03500883
100	0xbe01192a	-0.12607256
101	0xbd56dafb	-0.05245493
102	0xbd2776f1	-0.040884916
103	0x3c8b3b8b	0.016996166
104	0xbdfa48c8	-0.12220913
105	0xbe02e91e	-0.1278424
106	0xbd24787e	-0.040153973
107	0xbd73e795	-0.059547026
108	0xbd31157b	-0.043233376
109	0xbcc1c72f	-0.023654548
110	0xbc8344f2	-0.016024087
111	0x3d08d2a5	0.03340401
112	0xbcdd0bd2	-0.026983175
113	0x3a9440e8	0.0011310847
114	0xbd132697	-0.035925474
115	0x3d8db39b	0.06919023
116	0xbdadb0c0	-0.08480978
117	0xbccd6f9f	-0.02507764
118	0x3cbf8c54	0.023382343
119	0xbdf78f57	-0.12087887
120	0xbd3c112f	-0.045914825
121	0xbdc2f3e5	-0.095191754
122	0x3da53d5a	0.080683425
123	0x3c74c49f	0.014939456
124	0x3caac322	0.020845
125	0x3ca5356d	0.020167077
126	0xbca54c36	-0.020177942
127	0xbce10856	-0.027469795
128	0xbd83dea9	-0.064389534
129	0xbd8bb5a0	-0.068217516
130	0xbd0dbe7a	-0.03460548
131	0xbd370a58	-0.0446876
132	0xbdd9489b	-0.106095515
133	0xbe6fbe79	-0.23412503
134	0xbde834ed	-0.1133822
135	0x3b28e094	0.0025768625
136	0xbe4ae63c	-0.1981439
137	0x3c4b29cd	0.012400103
138	0xbc26accc	-0.010173034
139	0x3e39e343	0.181531
140	0xbb683b8a	-0.0035435879
141	0xbd0f6b16	-0.035014234
142	0xbdfd8888	-0.12379557
143	0xbd28e11d	-0.04123031
144	0xbd8e5797	-0.069503
145	0x3d18c48d	0.03729682
146	0xbe3ae8a7	-0.18252812
147	0xbc9cd786	-0.019145738
148	0xbdc2aff6	-0.09506218
149	0xbc76c5cc	-0.015061807
150	0xbd0397fc	-0.032127365
151	0xbe0ab640	-0.13546085
152	0xbd344f45	-0.04402091
153	0xbd5300ac	-0.051514313
154	0xbd51ccd5	-0.051220734
155	0xbcf42baa	-0.029805977
156	0xbcdebb85	-0.027189026
157	0xbb874322	-0.004127876
158	0xbcb081c9	-0.021546261
159	0x3e0d8adf	0.13822506
160	0x3c3fb517	0.01170089
161	0xbd7a556b	-0.061116617
162	0xbd88e00a	-0.06683357
163	0x3bcd0892	0.006257125
164	0x3c139a2e	0.009008927
165	0x3cf381b2	0.02972493
166	0xbe070901	-0.13187028
167	0xbd502c47	-0.050823476
168	0xbd3f24dc	-0.04666601
169	0xbd5127a0	-0.05106318
170	0xbdf9ad97	-0.12191313
171	0xbd2e4b6d	-0.0425524
172	0x3cc57b10	0.024106532
173	0xbc73c3c7	-0.01487822
174	0xbdc84a2f	-0.097797744
175	0xbd33bdda	-0.04388223
176	0xbd21c3e6	-0.039493464
177	0xbdb1eb1e	-0.08687423
178	0xbd3e8a60	-0.046518683
179	0xbd10a906	-0.035317443
180	0xbd0d605b	-0.03451572
181	0x3a8df7d5	0.0010831306
182	0x3d9a7ec2	0.075437084
183	0x3d444472	0.047916837
184	0xbd955362	-0.07291295
185	0x3d19cbc1	0.03754783
186	0xbd54739b	-0.051868062
187	0xbd40e1a4	-0.047090188
188	0x3cd9451f	0.026522217
189	0xbd288863	-0.041145694
190	0xbd9112ef	-0.070836894
191	0x3c883f92	0.016631875
192	0xbcb7df88	-0.022445455
193	0xbe236435	-0.15956195
194	0xbd4f4600	-0.050603867
195	0xbcc25d38	-0.02372609
196	0xba99d9e4	-0.001173791
197	0x3d493e16	0.049131475
198	0xbdfc667c	-0.12324235
199	0xbce42f6e	-0.027854647
200	0xbd2e3006	-0.042526267
201	0x3d071081	0.032974724
202	0xbd57de86	-0.05270245
203	0x3bddf5a3	0.006773667
204	0xbc77d7b0	-0.0151271075
205	0xbd45b505	-0.048268337
206	0xbcd9fdf3	-0.02661035
207	0xbd87478d	-0.06605444
208	0x3c3ef311	0.011654631
209	0xbc6d44ea	-0.014481762
210	0x3b60ad8f	0.0034283136
211	0xbd4a346d	-0.049366403
212	0x3ccf1de9	0.025282817
213	0xbd789fa5	-0.060699124
214	0xbd6c4a1f	-0.057687875
215	0xbc790498	-0.015198849
216	0xbcdb35e1	-0.02675909
217	0x3acdf8c5	0.0015714398
218	0xbcc35496	-0.023844045
219	0xbdd59be3	-0.10430124
220	0xbd0dd9df	-0.034631606
221	0xbc083f76	-0.0083159115
222	0xbd12d1fb	-0.035844784
223	0x3bd86236	0.0066035045
224	0xbc621e1f	-0.013801127
225	0xbd00a5ce	-0.031408124
226	0xbe142fed	-0.14471407
227	0xbbda5f98	-0.0066642277
228	0x3ccbfe2d	0.024901474
229	0xbdedfaa8	-0.116200745
230	0xbc2b7874	-0.01046573
231	0xbe017501	-0.1264229
232	0x3d6d0781	0.057868484
233	0x3d45ce8c	0.04829268
234	0x3d7b28cf	0.061318215
235	0xbcbf2229	-0.023331719
236	0xbd4a20ab	-0.04934756
237	0xbb9343fa	-0.0044941874
238	0xbd184b63	-0.03718127
239	0xbd647f33	-0.05578537
240	0xbdd9015d	-0.10595963
241	0xbe095003	-0.13409428
242	0xbd9c6160	-0.0763576
243	0xbdce95a7	-0.10087138
244	0x3ce7a4f2	0.028276894
245	0x3bfa7eda	0.0076445164
246	0xbdbc33a7	-0.091895394
247	0xbd2ec66e	-0.042669706
248	0xbcf91d51	-0.030409487
249	0x3d188706	0.037238143
250	0x3cdd9aaf	0.027051298
251	0xbdd3bfe1	-0.10339332
252	0xbd3ee13e	-0.046601526
253	0xbdcfde3e	-0.10149811
254	0x3c8fc0d9	0.017548012
255	0xbcc08eea	-0.023505647

fc.2.bias f4 [256]
0	0xbcea7bd6	-0.028623503
1	0xbd198639	-0.03748152
2	0xbd1ddb0d	-0.03853898
3	0x3c3b0e6c	0.011417013
4	0xbd4e5b41	-0.050379995
5	0xbdb5606a	-0.0885628
6	0xbd9e7cc7	-0.07738643
7	0x3cde3b3c	0.027127855
8	0xbd73fe45	-0.059568662
9	0xbd2c472c	-0.042060062
10	0x3c0e1854	0.008672792
11	0xbd35240d	-0.044223834
12	0xbd2ff32e	-0.042956524
13	0xbcf7b920	-0.030239642
14	0xbd88a18e	-0.06671439
15	0xbd9cce1f	-0.07656502
16	0x3cef2e94	0.029197015
17	0xbd8cf694	-0.068829685
18	0xbceeb093	-0.029136932
19	0xbe01fdf2	-0.12694529
20	0x3d009c36	0.031398974
21	0xbd2ae424	-0.041721478
22	0xbd722da0	-0.059125543
23	0x3dbd2fb8	0.09237617
24	0xbd3faac2	-0.046793707
25	0x3d2b881d	0.041877855
26	0xbd12a6cf	-0.035803612
27	0xbd0f758b	-0.035024207
28	0xbd559218	-0.05214128
29	0xbd11cf46	-0.035598062
30	0xbd7ce594	-0.06174238
31	0xbd24ee08	-0.040266067
32	0xbdc844d1	-0.09778751
33	0xbd19a42f	-0.037510093
34	0x3c43ba9f	0.011946349
35	0x3cac5d2d	0.021040523
36	0xbcb3b3b9	-0.021936284
37	0x3d899228	0.0671733
38	0xbbc6ca72	-0.006066614
39	0xbe00cd01	-0.12578203
40	0x3b8c96fa	0.0042904587
41	0xbcbedf82	-0.023299936
42	0xbc9cbae6	-0.019132089
43	0x3d363f1d	0.044493783
44	0xbd606aab	-0.054789227
45	0xbccdd097	-0.025123877
46	0xbdcfd6b5	-0.10148374
47	0xbcb9116a	-0.022591311
48	0x3ce1a70e	0.027545478
49	0xbbfc1fb2	-0.007694208
50	0xbdd6feb1	-0.10497797
51	0x3d4c43a8	0.04986921
52	0x3d035875	0.03206678
53	0xbd877e56	-0.066158935
54	0xbd4f833b	-0.05066226
55	0x3d02ec63	0.031963717
56	0x3b407610	0.0029367246
57	0xbd271f5e	-0.0408014
58	0xbd2eea6d	-0.042704035
59	0xbc15cf62	-0.009143682
60	0x3ccf518d	0.025307441
61	0x3bb3bf6c	0.0054854658
62	0xbc011563	-0.007878634
63	0xbcf842d7	-0.03030531
64	0x3d89bb17	0.06725138
65	0x3d94dd0e	0.07268725
66	0xbd128d81	-0.03577948
67	0xbd60cf50	-0.05488521
68	0xbd72ae9c	-0.05924855
69	0x3cd23ff3	0.025665259
70	0xbdf38553	-0.11890664
71	0xbc8a5902	-0.016888145
72	0xbd501a7d	-0.05080651
73	0xbcfb3c8b	-0.030668518
74	0xbd345359	-0.0440248
75	0x3cd3b66e	0.025843825
76	0xbd93c33e	-0.07214974
77	0xbe08d1d8	-0.13361299
78	0x3d06ee7a	0.032942273
79	0x3cbb9d05	0.022902021
80	0x3d5e5d2c	0.054288074
81	0x3cb41917	0.02198462
82	0xbde5c3bf	-0.11218976
83	0xbbbd622b	-0.005779525
84	0x3d0d58eb	0.034508627
85	0xbdb28a9d	-0.08717845
86	0xbb29c8f5	-0.0025907133
87	0xbbfd5d50	-0.007732071
88	0xbd04b8f4	-0.032402948
89	0xbd880674	-0.06641856
90	0x3ca90d8d	0.020636344
91	0xbdfa3d24	-0.12218693
92	0xbdbe2483	-0.09284308
93	0xbd825016	-0.063629314
94	0xbd564d74	-0.05231996
95	0xbc9e3f75	-0.019317368
96	0x3c80df15	0.015731374
97	0xbdd94b14	-0.10610023
98	0xbdac2866	-0.08406143
99	0xbd1167f6	-0.035499536
100	0x3c535d4c	0.012900662
101	0xbbacb296	-0.0052703125
102	0xbcb843f9	-0.02249335
103	0xbd5f334d	-0.054492284
104	0xbd4d618a	-0.05014185
105	0xbd401240	-0.046892405
106	0xbd314c48	-0.043285638
107	0xbd4dbb45	-0.050227422
108	0xbd320236	-0.04345914
109	0xbdc1056a	-0.09424861
110	0x3c578cb6	0.013156107
111	0xbd2a38ec	-0.04155819
112	0xbbedc9e2	-0.0072567323
113	0xbcbc2027	-0.02296455
114	0xbd8ca426	-0.06867246
115	0xbcfacda3	-0.030615633
116	0xbd445b5b	-0.047938686
117	0xbca4d11f	-0.020119248
118	0xbbe6ebbf	-0.007047146
119	0xbca9cf88	-0.020728841
120	0xbd0d6884	-0.034523502
121	0x3b807426	0.003920096
122	0x3bfd0eca	0.0077227103
123	0x3d3da3fc	0.046298966
124	0xbda15d51	-0.07879127
125	0xbbb2faf4	-0.005462045
126	0xbcf18b82	-0.029485468
127	0xbcc1f20c	-0.023674987
128	0x3c8a1420	0.0168553
129	0xbd78b9d8	-0.06072411
130	0xbe1a21f4	-0.15052015
131	0xbd70759d	-0.058705915
132	0xbd91465f	-0.070935
133	0xbd1f7771	-0.038932268
134	0xbd498194	-0.04919584
135	0xbdb69532	-0.089151755
136	0xbd0a9723	-0.03383554
137	0xbda2f537	-0.07956927
138	0xbdedbe5d	-0.116085745
139	0x3c48a35d	0.01224598
140	0x3c3fb7ed	0.011701566
141	0xbcb12786	-0.021625292
142	0xbda5573a	-0.08073278
143	0xbd36f5e9	-0.044668112
144	0xbe05ad60	-0.13054419
145	0xbd868877	-0.06568997
146	0x3c33ce30	0.010974452
147	0xbb147b7f	-0.0022656617
148	0xbd05cc93	-0.0326658
149	0x3be801f3	0.0070803105
150	0x3c8bab6e	0.017049517
151	0x3cdfbdb5	0.027312139
152	0x3cd95e42	0.026534203
153	0xbdd2c258	-0.102909744
154	0xbe0078e1	-0.12546112
155	0x3c5d0dfe	0.0134921055
156	0xbd6bda0f	-0.057581004
157	0xbdde93c5	-0.108680286
158	0x3cac4ca2	0.021032635
159	0xbd320057	-0.043457355
160	0xbcb8bd61	-0.02255124
161	0xbb89ae59	-0.004201692
162	0xbd9755cf	-0.073894136
163	0xbce7234d	-0.028215075
164	0xbd2074d2	-0.03917391
165	0xbe0028b4	-0.12515527
166	0xbc8323f1	-0.01600835
167	0xbd8229d8	-0.06355637
168	0x3c9afc0f	0.018919019
169	0x3cfabc75	0.030607441
170	0x3c158ac9	0.009127327
171	0xbcb88a68	-0.022526935
172	0xbcd72a32	-0.026265237
173	0xbce6d74f	-0.028178839
174	0xbde50e97	-0.111844234
175	0xbd461053	-0.04835541
176	0xbd7dfd16	-0.06200894
177	0xbda0ebd8	-0.078574836
178	0xbe0bce59	-0.13652934
179	0xbd87b6b0	-0.06626642
180	0xbdf6c849	-0.1204992
181	0xbda90ec8	-0.082547724
182	0xbd861fc4	-0.065490276
183	0xbdd97f6b	-0.10620006
184	0xbdc386b1	-0.09547175
185	0x3cf69d9e	0.030104455
186	0xbddf6628	-0.10908157
187	0xbdad0223	-0.08447673
188	0xbc4885e2	-0.012238951
189	0xbdb2b09a	-0.0872509
190	0xbbb495c2	-0.0055110166
191	0xbad18904	-0.0015986268
192	0x3a5255c9	0.0008023647
193	0xbc278dfa	-0.010226721
194	0xbc4e363f	-0.012586175
195	0x3d8b5dc2	0.06804992
196	0xbd954490	-0.07288468
197	0xbcbee386	-0.023301851
198	0x3d853a0d	0.06505213
199	0x3d041cc3	0.03225399
200	0xbd2c4747	-0.042060163
201	0xbdc4f115	-0.09616295
202	0xbbc3e17d	-0.005977808
203	0x3dacfb9b	0.084464274
204	0xbce3bf17	-0.02780108
205	0xbd38dce6	-0.04513254
206	0xbd8b534d	-0.06802998
207	0xbd4eef57	-0.05052122
208	0xbce22f43	-0.027610427
209	0x3d1f0d3d	0.038830984
210	0xbca5104f	-0.020149378
211	0x3c9df82f	0.019283382
212	0xbcffb25a	-0.031212974
213	0xbd4c49f0	-0.0498752
214	0xbe03b9c0	-0.12863827
215	0xbd982aa0	-0.07430005
216	0x3d88b65e	0.06675409
217	0xbe18a7ce	-0.14907762
218	0xbbb28199	-0.005447578
219	0x3d3e7add	0.04650389
220	0x3cc26970	0.023731917
221	0xbc92e176	-0.017929774
222	0xbcb3bbf4	-0.021940209
223	0xbc79f8b2	-0.0152570475
224	0x3d185ae2	0.037196048
225	0xbdac6062	-0.08416821
226	0x3bc0d150	0.005884327
227	0x3c8be366	0.017076205
228	0xbd1b2f88	-0.037887126
229	0x3d99d93b	0.075121365
230	0xbc7ba3af	-0.015358849
231	0xbd9565de	-0.0729482
232	0x3d735e56	0.059416138
233	0xbbb8c897	-0.0056391465
234	0xbd14361d	-0.03618442
235	0xbd28c3f0	-0.041202486
236	0x3ce65f4d	0.028121615
237	0x3a9dd238	0.00120408
238	0xbd5cab1e	-0.053874128
239	0xbbdcace0	-0.0067344755
240	0x3bb54f15	0.005533109
241	0xbca0c65c	-0.019625835
242	0xbca3025b	-0.019898584
243	0xbe00f68c	-0.1259405
244	0xbcc328a6	-0.023823094
245	0xbd9a112c	-0.075228065
246	0xbd0ed03f	-0.034866568
247	0xba1dbd32	-0.0006017267
248	0x3bd094a2	0.0063653747
249	0x3c457197	0.012051008
250	0xbc356f71	-0.011073933
251	0xbcbd6d70	-0.023123473
252	0xbd61c111	-0.055115763
253	0x3cba083f	0.02270901
254	0x3d3cf9e0	0.046136737
255	0xbd0cea29	-0.034403

fc.4.weight f4 [128, 256]
0	0x3c9d8fd5	0.019233624
1	0x3d120d59	0.03565726
2	0xbbaf01a6	-0.0053407727
3	0x3da3647b	0.079781495
4	0xbd8331a1	-0.0640595
5	0x3d4ca9b0	0.049966514
6	0xbcf70f53	-0.030158674
7	0xbbe1ab93	-0.0068869083
8	0xbd6c1549	-0.057637487
9	0x3c0dd3ab	0.008656423
10	0xbd16a349	-0.036776815
11	0xbaad90f0	-0.0013242047
12	0x3dd23524	0.10264042
13	0x3d737e92	0.05944688
14	0xbdc8597a	-0.09782691
15	0x3d7cf795	0.06175955
16	0xb8491e9b	-4.7950638e-05
17	0xbd8d34ce	-0.06894837
18	0xbda9c0d8	-0.08288735
19	0xbcd03b2b	-0.025418838
20	0x3d9b6195	0.07586972
21	0xbccdaafc	-0.025105946
22	0xbd8e560c	-0.06950006
23	0xbd9eabc5	-0.07747606
24	0x3d894284	0.0670214
25	0xbdb749fc	-0.08949658
26	0xbdcef9af	-0.10106217
27	0xbddf3f82	-0.10900785
28	0xbc19899b	-0.009371187
29	0xbb61ba61	-0.0034443366
30	0xbccceab4	-0.025014259
31	0xbcd0b51b	-0.025476983
32	0x3e30b109	0.17255034
33	0x3d7f259c	0.062291726
34	0x3d311508	0.043232948
35	0x3d79cb9c	0.060985193
36	0x3cea401f	0.028595028
37	0x3ebc0338	0.36721206
38	0x3c8c21c0	0.017105937
39	0xbd3398ab	-0.043846767
40	0xbc28789a	-0.01028266
41	0x3dcf9c1c	0.101371974
42	0x3d90cf19	0.07070751
43	0xbc9922f0	-0.018693417
44	0xbd70f9b2	-0.058831878
45	0x3c82b93f	0.015957473
46	0xbd2a08da	-0.041512348
47	0xbd8022f8	-0.0625667
48	0x3e144463	0.14479212
49	0x3c6a23db	0.014290775
50	0x3d102fed	0.035201956
51	0xbd664b71	-0.05622429
52	0xbd043b84	-0.03228332
53	0xbc8bf6bc	-0.017085426
54	0x3e204feb	0.15655486
55	0x3d81d713	0.0633985
56	0x3d74ef52	0.059798546
57	0xbd5eb283	-0.05436946
58	0x3c9dcfb1	0.019264074
59	0xbd22890c	-0.03968148
60	0xbe84d079	-0.25940302
61	0x3ce8f5a8	0.02843745
62	0x3cc0b320	0.023522913
63	0x3d7d7dcb	0.061887544
64	0x3d203d61	0.039121035
65	0x3cb99bd1	0.022657307
66	0x3b4b7f69	0.0031051284
67	0xbc1bd9bd	-0.009512362
68	0x3cc57162	0.024101917
69	0xbd3d6c59	-0.046245907
70	0x3d6ecc5c	0.05830036
71	0x3e1e3eba	0.15453616
72	0x3d7765e2	0.060399897
73	0x3d53d792	0.051719256
74	0xbcfca2e4	-0.030839391
75	0xbd24cdac	-0.040235206
76	0xbd81b801	-0.06333924
77	0x3c147368	0.009060718
78	0x3d8c1c0d	0.06841288
79	0xbc8508cd	-0.016239548
80	0x3d47428c	0.04864745
81	0x3d6234ae	0.05522602
82	0xbd424627	-0.047430184
83	0x3da201c7	0.07910495
84	0xbd701043	-0.05860926
85	0x3d40ed09	0.047101054
86	0xbd28bb63	-0.04119433
87	0x3c8df1cb	0.01732721
88	0xbd28a46d	-0.041172434
89	0xbd30d84f	-0.043175038
90	0xbd19968a	-0.03749708
91	0xbe430c55	-0.19047673
92	0xbe585fd8	-0.21130311
93	0x3c2bdfc0	0.010490358
94	0xbd08666d	-0.033300806
95	0xbcf6193e	-0.030041333
96	0x3d1043d6	0.035220943
97	0xbe6d631c	-0.23182338
98	0xbd5b31c3	-0.053514253
99	0xbd3517da	-0.0442122
100	0xbe699a03	-0.22812657
101	0xbd92a4c6	-0.07160334
102	0x3c9d345e	0.01919001
103	0x3d0754c6	0.03303983
104	0x39b948a5	0.00035340074
105	0x3d112546	0.035435937
106	0xbd8d69ed	-0.06904969
107	0x3d8230bf	0.06356954
108	0x3ce92854	0.028461613
109	0xbc684d9d	-0.014178661
110	0xbd148a79	-0.03626487
111	0xbd9b78d0	-0.075914025
112	0xbb92cbbf	-0.004479855
113	0xbd803cf0	-0.06261623
114	0x3dca7bd6	0.09886901
115	0x3d588d9c	0.052869424
116	0x3cc664c5	0.024217973
117	0xbcf4af70	-0.029868811
118	0xbb400798	-0.0029301401
119	0x3cb62bab	0.02223762
120	0xbcc0269a	-0.023455907
121	0x3b9e16c0	0.0048244894
122	0xbc3cc230	-0.011520907
123	0xbcdd2fe1	-0.02700037
124	0x3d4220d7	0.0473946
125	0xbb843916	-0.0040351255
126	0x3dd3fab1	0.1035055
127	0xbd28db14	-0.041224554
128	0x3d49f220	0.049303174
129	0x3bd76e91	0.00657446
130	0xbd11b5b4	-0.035573676
131	0xbcee9672	-0.029124472
132	0x3c23e4a1	0.01000324
133	0x3d5df2ef	0.054186758
134	0xbca6a3c0	-0.020341754
135	0xbd78545c	-0.060627326
136	0x3d0f425b	0.03497539
137	0x3d43bc68	0.0477871
138	0x3d61d7e9	0.05513755
139	0x3de13209	0.109958716
140	0x3dadc353	0.08484521
141	0xbcc02225	-0.023453781
142	0x3e28f7f4	0.16500837
143	0x3c1de265	0.009636496
144	0xbcbe9319	-0.023263501
145	0xbd849c00	-0.06475067
146	0xbd2acc77	-0.0416989
147	0x3d13567e	0.035971157
148	0xbd709b13	-0.05874164
149	0x3cce7280	0.025201082
150	0xbcefc924	-0.029270716
151	0xbc97de9a	-0.018538762
152	0x3ca1d04e	0.019752648
153	0x3d2bf85c	0.0419849
154	0x3e1f7e18	0.15575445
155	0x3ca9e44b	0.020738741
156	0xbca21e95	-0.019789973
157	0xbda15fe9	-0.078796215
158	0x3d0f4175	0.034974534
159	0xbb3674ea	-0.0027840682
160	0xbc74b38d	-0.014935386
161	0xbdc1d873	-0.094651125
162	0xbda8290b	-0.08210953
163	0xbc361d6b	-0.011115412
164	0xbdc783b3	-0.097419165
165	0x3bd2a10a	0.0064278888
166	0x3c453f4b	0.012039016
167	0x3d100e31	0.035169784
168	0x3dd9afcb	0.10629233
169	0x3c730b8e	0.014834298
170	0xbd583594	-0.05278547
171	0xbcae44b0	-0.021272987
172	0x3bd00599	0.0063483235
173	0x3b60ab43	0.0034281767
174	0x3d3f3a9a	0.046686746
175	0x3ce7c54f	0.028292326
176	0xbc8ba007	-0.01704408
177	0xbd7f1eb8	-0.062285155
178	0xbd76ff19	-0.060301874
179	0xbb99c85b	-0.0046930737
180	0x3dccc7c9	0.099990435
181	0xbdbdc9bb	-0.09266993
182	0x3dd60798	0.10450667
183	0x3cd52faa	0.026023705
184	0x3e28f30a	0.16498962
185	0x3d1d3883	0.038383972
186	0x3ccd010e	0.025024917
187	0x3c6f552b	0.014607708
188	0xbc921e56	-0.01783673
189	0x3d10f7b7	0.03539249
190	0x3b914715	0.0044335225
191	0xbd2c0f92	-0.042007037
192	0xbe27c96b	-0.16385429
193	0x3cc4db62	0.024030391
194	0xbc2f9131	-0.010715769
195	0xbde69048	-0.11257988
196	0x3d5f6fa9	0.054549847
197	0xbd51dc3f	-0.051235434
198	0x3d405073	0.046951722
199	0xbd81e2e0	-0.06342101
200	0x3d34b3b4	0.04411669
201	0xbd2748a8	-0.040840775
202	0xbe1099e6	-0.14121208
203	0x3e056119	0.13025321
204	0xbc4bc964	-0.012438152
205	0xbc37c7d7	-0.011217079
206	0xbc3e8040	-0.011627257
207	0x3c6a59d7	0.014303646
208	0xbc80f32b	-0.015740952
209	0xbac5acee	-0.0015081444
210	0xbdffcd28	-0.12490302
211	0xb677dc34	-3.6934043e-06
212	0x3c07099e	0.008242039
213	0xbd03e17f	-0.03219747
214	0x3c84300a	0.016136188
215	0x3d5d770a	0.054068603
216	0x3d95de8e	0.073178396
217	0x3cefc39d	0.02926808
218	0x3d500019	0.050781343
219	0x3e14b546	0.14522275
220	0x3d62a24b	0.055330556
221	0x3de343ba	0.11096902
222	0x3b8a51cb	0.0042211763
223	0x3d5df620	0.0541898
224	0x3ebba789	0.36651257
225	0xbd326e44	-0.04356219
226	0x3bbfa0d6	0.0058480306
227	0x3cb17127	0.0216604
228	0x3c890c90	0.016729623
229	0x3da3bb31	0.07994688
230	0x3d2440ce	0.040100865
231	0xbcef3f8e	-0.02920511
232	0x3b918acc	0.0044415947
233	0x3d57874a	0.052619256
234	0xbcacf5fe	-0.021113392
235	0xbd37f0b3	-0.044907283
236	0xbd031b27	-0.032008316
237	0x3d8d90c8	0.069123805
238	0xbd0c90bb	-0.034317713
239	0xbc1d862f	-0.009614511
240	0xbd4ee5a4	-0.05051197
241	0xbc8f627f	-0.017503021
242	0x3dc78ba5	0.09743432
243	0xbd58b78d	-0.052909423
244	0x3bf5f937	0.0075065154
245	0x3d345208	0.044023544
246	0xbcbc4d97	-0.022986216
247	0x3c823ad5	0.015897194
248	0x3dabcec7	0.08389049
249	0x3d877d52	0.066157
250	0x3d921e00	0.07134628
251	0xbcd808c7	-0.026371373
252	0xbd528e94	-0.051405504
253	0x3d32f16e	0.043687277
254	0xbda7a816	-0.08186357
255	0xbd647182	-0.055772312

fc.4.bias f4 [128]
0	0xbdb0a068	-0.08624345
1	0xbe5adc9d	-0.2137322
2	0xbde16d2d	-0.11007152
3	0xbd214470	-0.039371908
4	0xbdfa6845	-0.12226919
5	0xbe11a28b	-0.14222161
6	0xbde18186	-0.11011033
7	0x3cc6d0ac	0.024269424
8	0xbdf69a83	-0.120411895
9	0xbe22941f	-0.15876816
10	0xbda38b62	-0.079855695
11	0xbe1b109a	-0.15143052
12	0xbd129f94	-0.035796717
13	0xbe1f8e42	-0.15581611
14	0xbd0ab630	-0.033865154
15	0xbd28848d	-0.041142035
16	0xbdef0950	-0.11671698
17	0xbe3114f4	-0.17293149
18	0xbe16d6f7	-0.1473044
19	0xbe0fdb3b	-0.14048474
20	0xbe05c0aa	-0.13061777
21	0xbe10e585	-0.14150055
22	0xbd9a6087	-0.075379424
23	0xbe22221e	-0.15833327
24	0xbd0f4ed7	-0.034987297
25	0xbe1ab54f	-0.15108226
26	0xbe66e620	-0.22548723
27	0xbdc7d62e	-0.097576484
28	0xbe41cd96	-0.18926081
29	0xbe1948bb	-0.1496915
30	0xbe49a33f	-0.1969118
31	0xbe1d7e82	-0.1538029
32	0xbe33f770	-0.17574859
33	0xbe3799b6	-0.1792973
34	0xbe3eeac1	-0.18644239
35	0xbdb70958	-0.08937329
36	0xbe771def	-0.24132513
37	0xbe5608c7	-0.20901786
38	0xbd967bc9	-0.07347829
39	0xbdb74e3d	-0.0895047
40	0xbd1e765e	-0.038687102
41	0xbe70f9cb	-0.23532788
42	0xbe008e00	-0.12554169
43	0xbd821db3	-0.06353321
44	0xbd71ce90	-0.059034884
45	0xbe44e076	-0.1922625
46	0x3a3c590c	0.00071849
47	0xbe22081c	-0.15823406
48	0x3d477779	0.048697922
49	0x3d6e3346	0.058154367
50	0xbdbcfcd5	-0.092279114
51	0x3daf5962	0.0856197
52	0xbd0e401a	-0.0347291
53	0xbd40cead	-0.0470721
54	0xbda57a99	-0.08080024
55	0xbe51c299	-0.2048439
56	0xbe6a0b8b	-0.22855966
57	0x3da7b11e	0.08188079
58	0xbe124691	-0.14284731
59	0xbe5acb74	-0.21366674
60	0xbe366711	-0.17812754
61	0xbc353f8e	-0.011062516
62	0x3e2e57e2	0.17025712
63	0xbe70e1ea	-0.2352368
64	0xbd9ed344	-0.077551395
65	0xbde80e00	-0.11330795
66	0xbe21718b	-0.1576597
67	0xbe2213be	-0.15827844
68	0xbe13f565	-0.1444908
69	0xbd4b30db	-0.04960714
70	0x3da13e75	0.07873241
71	0xbe0ee60a	-0.1395494
72	0xbd302b16	-0.04300984
73	0xbe03d654	-0.12874728
74	0xbd65c8fe	-0.056099884
75	0xbe82c446	-0.2554037
76	0xbe0f4b2c	-0.1399352
77	0xbe94e124	-0.2907802
78	0xbdf371b0	-0.118869185
79	0xbe365e7a	-0.17809477
80	0xbe076b57	-0.1322454
81	0xbca23cec	-0.01980444
82	0xbe18de5d	-0.14928575
83	0xbe2353b9	-0.15949906
84	0xbe720d76	-0.23637947
85	0xbe22b282	-0.15888408
86	0xbdeeafee	-0.1165465
87	0xbd873fb5	-0.06603948
88	0xbd4e6792	-0.05039174
89	0xbe0b7b0c	-0.13621157
90	0xbe1b57c3	-0.15170197
91	0xbe29835b	-0.16554014
92	0xbe8352c8	-0.25649095
93	0x3d2ade25	0.04171576
94	0xbe2f7901	-0.17136003
95	0x3e24d152	0.16095474
96	0xbdcdbe18	-0.10046023
97	0x3d061b7e	0.032741062
98	0x3c621f16	0.013801357
99	0xbe8db23a	-0.2767504
100	0xbdd66762	-0.104689375
101	0xbe6e0fd7	-0.2324823
102	0xbe355f10	-0.17712045
103	0xbe065bc8	-0.1312095
104	0x3dd2cd6d	0.10293088
105	0xbe3ff9bb	-0.18747608
106	0xbda73ba8	-0.081656754
107	0xbd64372d	-0.055716682
108	0xbda9516b	-0.08267482
109	0x3d3734e9	0.044728193
110	0xbe6021e7	-0.21887933
111	0xbe367c1d	-0.17820783
112	0xbe3b7e2e	-0.18309852
113	0x3e0a80a5	0.13525636
114	0xbddd71ff	-0.10812759
115	0x3e10651c	0.1410107
116	0xbdd577e7	-0.1042326
117	0xbd9e601c	-0.07733175
118	0xbe64d79b	-0.22347872
119	0xbe535798	-0.20638883
120	0xbe025f21	-0.12731601
121	0xbd46d439	-0.048542235
122	0xbd6cc183	-0.057801735
123	0xbe27ff2f	-0.16405939
124	0xbd821bd6	-0.063529655
125	0xbdf3c17e	-0.1190214
126	0xbc4b4425	-0.012406384
127	0xbe31a6f4	-0.17348844

fc.6.weight f4 [10, 128]
0	0x3d73bf97	0.059508886
1	0xbdd20295	-0.10254399
2	0xbc0c9ec5	-0.0085827755
3	0x3df74337	0.12073367
4	0xbd5042ac	-0.050844833
5	0x3cbba745	0.022906909
6	0xbd881369	-0.06644327
7	0xbeab7cd6	-0.3349368
8	0xbcb9ee50	-0.022696644
9	0x3cd9609d	0.026535327
10	0x3d826cfc	0.06368443
11	0x3da619e2	0.081104055
12	0xbdc274e4	-0.09494951
13	0xbc1f2f87	-0.009715921
14	0xbda098a2	-0.078416124
15	0xbc12e39f	-0.008965402
16	0x3dce93b1	0.10086764
17	0xbd80824f	-0.062748544
18	0x3e18f39a	0.14936677
19	0x3d8ee207	0.06976705
20	0x3c784e15	0.015155335
21	0x3cb23868	0.021755412
22	0x3d69d5ad	0.057088543
23	0x3d59887d	0.05310868
24	0x3d802138	0.06256336
25	0xbd3bcebf	-0.045851465
26	0xbcf46738	-0.029834375
27	0xbd8228fe	-0.06355475
28	0x3cc2e07f	0.023788689
29	0xbd1d1a90	-0.03835541
30	0x3d9a9639	0.07548184
31	0x3d7f7beb	0.062374037
32	0x3ca5bcc4	0.020231612
33	0x3d56df06	0.052458785
34	0x3def67b5	0.116897024
35	0xbd436115	-0.047700007
36	0x3db5f7e3	0.08885171
37	0x3d72daef	0.059290823
38	0xbdf1e65a	-0.11811514
39	0xbd959b13	-0.07304969
40	0xbde9eacb	-0.11421736
41	0xbd8844b7	-0.06653731
42	0xbdb20209	-0.086917944
43	0xbcce8330	-0.02520904
44	0xbd304269	-0.043032084
45	0x3ddc8673	0.10767832
46	0x3d88279f	0.06648182
47	0xbe31d01b	-0.17364542
48	0x3e267d7a	0.16258803
49	0x3e006f3f	0.12542437
50	0x3d05973b	0.032614928
51	0xbe9a031c	-0.30080497
52	0x3db92575	0.090403475
53	0x3d7e1c27	0.062038567
54	0x3d972079	0.073792405
55	0xbc3c7c13	-0.011504191
56	0xbd9110cf	-0.07083284
57	0x3a9110c2	0.0011067616
58	0xbcbaf242	-0.022820596
59	0x3d8ed468	0.06974107
60	0xbd7ee94c	-0.062234208
61	0xbdb292d4	-0.087194115
62	0xbcc32cbd	-0.023825044
63	0x3cdc92ea	0.026925523
64	0xbb2cea1e	-0.0026384662
65	0x3dee71f6	0.1164283
66	0x3c1910e2	0.009342404
67	0x3dec2319	0.11530132
68	0xbd7972af	-0.060900386
69	0x3d2e44c6	0.042546056
70	0xbe09e94e	-0.13467905
71	0x3d9cf814	0.07664505
72	0xbce80feb	-0.028327903
73	0x3da1b0ee	0.07895075
74	0xbd85f796	-0.06541364
75	0xbdbd2fd3	-0.09237637
76	0xbd42a37c	-0.047519192
77	0x3c24cd9c	0.010058787
78	0xbdb04ed2	-0.08608784
79	0x3d020754	0.03174527
80	0xbd92976f	-0.0715779
81	0xbda5a7d1	-0.08088649
82	0x3dbff960	0.093737364
83	0x3dc742b2	0.09729518
84	0xbc1b921f	-0.009495287
85	0x3d747071	0.059677545
86	0x3dd92ff5	0.1060485
87	0xbb80f590	-0.0039355233
88	0xbcfcd0b8	-0.030861244
89	0x3cd6db4d	0.026227618
90	0xbd0b40cb	-0.03399734
91	0x3da37416	0.07981126
92	0x3d07243c	0.03299354
93	0xbd8b56c6	-0.0680366
94	0x3d792742	0.060828455
95	0x3bc1815d	0.005905314
96	0x3dc86ab3	0.09785976
97	0x3d435352	0.047686882
98	0x3db08ce6	0.08620624
99	0xbc2db6ee	-0.010602696
100	0x3cac203c	0.021011464
101	0xbb5150e2	-0.003193908
102	0xbc9990a4	-0.018745728
103	0x3cd59f5a	0.026076961
104	0x3cb9a591	0.022661956
105	0x3d134ed1	0.035963837
106	0xbb92ec7f	-0.004483759
107	0xbdd3ba8e	-0.10338317
108	0x3deacef4	0.114652544
109	0xbdbe1aec	-0.09282479
110	0x3da163a9	0.07880337
111	0x3ba75ae3	0.00510727
112	0xbd0bd2af	-0.03413647
113	0xbdfd4ede	-0.12368558
114	0x3d90d74f	0.07072317
115	0xbddc8a0f	-0.1076852
116	0x3d51be48	0.051206857
117	0xbd3a4f7c	-0.04548596
118	0x3d89ff80	0.06738186
119	0x3d9f8fd7	0.07791107
120	0x3db94faf	0.090484016
121	0x3cec4fb3	0.028846597
122	0x3dcf67ce	0.10127221
123	0x3afdeed1	0.0019373541
124	0xbcb7b432	-0.022424791
125	0xbdb30ba3	-0.08742454
126	0xbc98be3d	-0.0186454
127	0xbb07c8bd	-0.0020719015
128	0xbd7e94de	-0.06215369
129	0xbdd7fbbf	-0.10546064
130	0xbb23f911	-0.0025020281
131	0xbce8de99	-0.028426455
132	0xbcbf2d9c	-0.023337178
133	0xbd5e0fba	-0.054214217
134	0x3d00afaa	0.031417526
135	0xbe999458	-0.2999599
136	0x3c1f2a82	0.0097147245
137	0xbd7e13b7	-0.06203052
138	0x3d593e6a	0.05303804
139	0x3dbc7edd	0.09203885
140	0xbd2f146c	-0.042744085
141	0xbdd99d1c	-0.10625669
142	0xbd93e859	-0.07222051
143	0x3dbf8822	0.09352137
144	0x3ca3d04f	0.01999679
145	0xbd2de1d3	-0.04245169
146	0x3cc25667	0.02372284
147	0xbd9ce2f1	-0.07660473
148	0x3cccff4a	0.025024075
149	0x3b5938b5	0.0033145372
150	0x3cc3fa14	0.023922957
151	0x3bf70bea	0.007539262
152	0xbce90569	-0.028444963
153	0xbd59f962	-0.053216346
154	0x3b5f6875	0.003408936
155	0xbd42d350	-0.047564805
156	0xbcbb3f22	-0.022857253
157	0xbc9ad154	-0.018898644
158	0xbd134d70	-0.035962522
159	0x3d00c4eb	0.031437796
160	0xbd9fd9d4	-0.07805219
161	0x3d1c6ecf	0.038191613
162	0xb9cd0e68	-0.0003911138
163	0xbcd3e140	-0.025864244
164	0xbb388154	-0.0028153257
165	0xbd67740a	-0.056507148
166	0xbd2e9c60	-0.0426296
167	0x3c37e97f	0.011225103
168	0x3cf67a98	0.030087754
169	0xbc09c4f6	-0.008408776
170	0x3ca89d96	0.020582955
171	0x3c9ba2e5	0.018998573
172	0xbda49968	-0.080370724
173	0xbdae222c	-0.085026115
174	0x3d968153	0.073488854
175	0xbd8d243b	-0.06891676
176	0x3de3425c	0.110966414
177	0x3e1b0bf8	0.15141284
178	0x3dad22d2	0.08453907
179	0xbe547a05	-0.20749672
180	0xbd202d77	-0.03910586
181	0x3d52a2ea	0.0514249
182	0x3d9c07f7	0.07618707
183	0xbd4dfbd1	-0.05028898
184	0x3d176e76	0.036970578
185	0x3a3dbb03	0.0007237645
186	0x3cfb1221	0.030648293
187	0xbdfa0882	-0.12208654
188	0xbd0c7756	-0.034293495
189	0x3d947027	0.07247954
190	0xbc935d4b	-0.017988821
191	0xbe1b0f12	-0.15142468
192	0x3ddae926	0.10689001
193	0xbd59cca0	-0.05317366
194	0xbd1f83c8	-0.038944036
195	0xbd81e9c0	-0.063434124
196	0xbd1e227c	-0.038607106
197	0x3d385408	0.045002013
198	0xbd144ea6	-0.036207817
199	0xbd27b2f4	-0.040942147
200	0xbdb9f538	-0.09079975
201	0x3d71d2a3	0.05903877
202	0x3d60b3fe	0.054859154
203	0xbe049cf4	-0.12950498
204	0xbddb0d89	-0.10695941
205	0xbd9d2e38	-0.07674831
206	0xbe225f61	-0.15856697
207	0xbdd4e666	-0.103955075
208	0xbdb347a6	-0.087539
209	0xbced7526	-0.028986525
210	0xbd257b85	-0.040401
211	0x3c053ecc	0.008132648
212	0x3d040149	0.032227788
213	0x3c259888	0.010107167
214	0x3c6d4ce0	0.01448366
215	0xbcda8aef	-0.026677577
216	0x3b537475	0.0032265459
217	0xbd921eb7	-0.07134765
218	0x3d2332bb	0.039843302
219	0xbcb103ee	-0.02160832
220	0x3d9cb53d	0.07651756
221	0xbd3003b3	-0.042972278
222	0x399beb20	0.00029739086
223	0xbdedf6f9	-0.11619372
224	0x3d495b32	0.049159236
225	0xbc4eb62a	-0.0126166735
226	0x3d8086f9	0.06275744
227	0x3c98c3f8	0.018648133
228	0xbbc74c90	-0.006082125
229	0x3cfa6ec6	0.030570399
230	0x3d222a2d	0.039591003
231	0xbd3f6ec4	-0.046736494
232	0xbb1e1a04	-0.0024124393
233	0x3debf1f5	0.11520759
234	0xbd956296	-0.072941944
235	0xbd7e1cee	-0.06203931
236	0xbd144c3b	-0.03620551
237	0xbc5874ba	-0.0132114235
238	0x3daa572d	0.08317409
239	0xbd1fe395	-0.0390354
240	0xbd30194b	-0.04299287
241	0xbdec29ed	-0.11531434
242	0xbd101608	-0.03517726
243	0xbe35aedd	-0.17742486
244	0xbd6479db	-0.055780273
245	0x3dd34d62	0.10317494
246	0x3cc891f8	0.024483666
247	0x3d2ab00f	0.04167181
248	0x3b9a2079	0.004703578
249	0x3c8ec5d1	0.01742831
250	0xbc9e184c	-0.019298695
251	0x3dd2014d	0.10254154
252	0xbe319531	-0.17342068
253	0x3d334eb2	0.04377622
254	0x3d1e9ea3	0.038725507
255	0x3d35280f	0.044227656

fc.6.bias f4 [10]
0	0x3cfbc5f5	0.030734042
1	0x3d1d2191	0.03836209
2	0xbcfad63c	-0.030619733
3	0xbd860bae	-0.065451965
4	0x3df1d711	0.11808599
5	0x3da6876e	0.081313
6	0x3d531621	0.051534776
7	0x3d07cd31	0.03315467
8	0x3d44f615	0.048086245
9	0x3c89420f	0.016755132
