encoder_final.pth (torch, 15744 bytes, 4 tensors)

fc1.weight f4 [64, 1]
000000 42 20 8d b8 26 69 93 3e 92 cb d9 b1 ee 6b 9e be
       -6.7294124e-05 0.2879116 -6.3386745e-09 -0.3094172
000010 75 fb ac 92 bb a6 cd 3e e9 a4 d1 3e b5 a2 62 3a
       -1.0916715e-27 0.40166268 0.4094613 0.0008645461
000020 14 cf ca a5 4a 37 53 3e 09 94 cc 19 9e eb 05 13
       -3.5181736e-16 0.2062656 2.1152897e-23 1.6903128e-27
000030 9f f1 3c ba 45 5b af 3e f4 74 54 29 62 69 d2 a3
       -0.0007207635 0.3424932 4.7174897e-14 -2.2812877e-17
000040 a1 67 01 ae aa b3 37 30 c9 27 1d b9 e6 19 54 aa
       -2.9423245e-11 6.683033e-10 -0.00014987508 -1.8838368e-13
000050 2c 11 96 03 da 23 f4 ac 30 6e 04 23 12 44 7d bb
       8.82015e-37 -6.9388774e-12 7.1790674e-18 -0.003864531
000060 92 59 1b 87 09 38 1d 99 fc b3 8a be 0e 08 13 19
       -1.1687226e-34 -8.128026e-24 -0.27090442 7.6013485e-24
000070 a0 0f 86 be c1 eb 98 be 93 5a bb 2a b8 ad 88 be
       -0.26183796 -0.29867366 3.3280721e-13 -0.26695037
000080 26 7a aa 1f fc b2 5a 3e 8c f9 9e 3e 4f 64 99 af
       7.219988e-20 0.2135734 0.31049764 -2.7901811e-10
000090 59 45 f9 a5 7d 49 bd 14 de 50 2a 29 17 bd b4 3e
       -4.3241606e-16 1.9113109e-26 3.7817724e-14 0.35300514
0000a0 b8 61 39 3e 04 78 86 be 2d 3c 56 3e 22 55 82 be
       0.18103683 -0.2626344 0.20921393 -0.25455576
0000b0 5d 45 81 3e 6f 07 94 3e 90 38 f0 1a 2e 9b 45 b7
       0.25248232 0.2891192 9.9353055e-23 -1.1778246e-05
0000c0 84 34 3a 3e d0 97 7e 3e 2f fd 8c 11 01 b5 43 3e
       0.18184096 0.248626 2.2244142e-28 0.19112016
0000d0 59 f0 6d 3e 3a 73 9b 16 32 fb 03 80 af a2 82 be
       0.23236217 2.5114319e-25 -3.65618e-40 -0.25514743
0000e0 65 f1 22 b2 97 93 51 3e 13 d2 90 8d 95 d0 6e 3e
       -9.484528e-09 0.20466457 -8.925259e-31 0.23321755
0000f0 4b f2 2d 3e 8a 6a 35 3e dc 86 27 3e 8e 56 70 1b
       0.16986959 0.17716423 0.16360039 1.9880302e-22

fc1.bias f4 [64]
000000 18 ac c5 b9 48 dc 04 3d 75 ca 8f b5 69 9c 31 be
       -0.00037702988 0.03243664 -1.0713253e-06 -0.17344822
000010 7b e3 f9 aa c3 2c a0 3d a0 04 71 bc d5 13 17 bb
       -4.4389132e-13 0.078210376 -0.014710575 -0.0023052592
000020 21 68 5b a7 cd 9e 99 3d 42 eb 49 ac b8 55 0d aa
       -3.0448804e-15 0.07500992 -2.8694412e-12 -1.2553055e-13
000030 fc f9 56 bb 52 2d c9 3d 7c bb 0e aa 3b da 8f a9
       -0.003280281 0.09823097 -1.267718e-13 -6.3883327e-14
000040 bf 50 ab 2e 36 d4 e4 b0 d7 99 4d bb 7c 47 f9 b7
       7.790523e-11 -1.6649497e-09 -0.0031372213 -2.97164e-05
000050 6f fc b6 a8 46 48 b6 2d 4f b6 0d b3 71 cb 8d 3b
       -2.0315535e-14 2.07231e-11 -3.299493e-08 0.0043272306
000060 6c 03 93 a5 fd f9 9f 99 60 f0 2f be 63 e0 88 ac
       -2.5502754e-16 -1.6541184e-23 -0.1718154 -3.8902644e-12
000070 6f 27 45 be 65 9c 20 be 00 e8 81 b8 e3 04 48 be
       -0.19253324 -0.1568466 -6.194413e-05 -0.19533114
000080 90 7a 6a a0 97 21 7a 3d 69 2c dc 3d b6 a3 a6 b2
       -1.9861123e-19 0.06106719 0.10750658 -1.939939e-08
000090 9e 34 66 ae 68 fd 57 ad 67 58 7b a9 a0 46 8c 3d
       -5.234268e-11 -1.22776025e-11 -5.5809873e-14 0.06849408
0000a0 f0 d5 df 3d db 95 3a be da db 44 3d eb aa 3e be
       0.10929477 -0.18221228 0.04806123 -0.18619888
0000b0 4b 4a 90 3d 91 3b 78 3d d7 51 62 9c 31 45 c9 b8
       0.0704542 0.060603682 -7.4882903e-22 -9.597315e-05
0000c0 26 5f 2d 3d c7 9d fb 3c 98 2e 0f a7 4f c0 1c 3d
       0.04232707 0.030714883 -1.9870495e-15 0.038269337
0000d0 4d 69 0d 3d e1 97 63 b0 8d 06 1d a2 1c 9f 54 be
       0.03452425 -8.279795e-10 -2.1280936e-18 -0.2076382
0000e0 13 45 25 34 1f a4 2e 3d 4f 25 ad a9 6b e0 0c 3d
       1.5391952e-07 0.042636987 -7.6892153e-14 0.03439371
0000f0 cc 02 1d 3d e6 ce a2 3d 81 34 12 3c 91 24 d4 9b
       0.038332745 0.07949619 0.008923651 -3.5096088e-22

fc2.weight f4 [50, 64]
000000 73 8c 00 00 a3 c0 cb 18 fc 8a 00 80 55 8a 86 9e
       5.0384e-41 5.2668783e-24 -4.9858e-41 -1.4245015e-20
000010 39 ab 00 00 92 73 0c 1c 5a ea 89 9b 85 48 97 99
       6.1423e-41 4.6471485e-22 -2.2816195e-22 -1.5642324e-23
000020 f2 95 00 80 2c 82 0c 9b b6 08 67 97 49 a8 00 80
       -5.379e-41 -1.162259e-22 -7.465112e-25 -6.037e-41
000030 54 8c 00 80 76 0e ec 93 23 53 98 82 78 8c 00 80
       -5.034e-41 -5.9589035e-27 -2.238211e-37 -5.039e-41
000040 cb c1 8b 86 10 e0 ed 8c fa 76 0c 18 36 94 00 80
       -5.257074e-35 -3.6650484e-31 1.8154644e-24 -5.3168e-41
000050 67 09 4e 81 e1 21 51 0c 35 2d 87 0e 0a ae 5b 18
       -3.784297e-38 1.6110969e-31 3.3323602e-30 2.8392954e-24
000060 e2 a9 00 00 64 07 00 00 bc 77 40 9e 9b 01 cb 9b
       6.0942e-41 2.651e-42 -1.0189156e-20 -3.358457e-22
000070 ad 09 8f 9e fa c9 1c 1e fd 88 00 80 3f c6 ca 1e
       -1.5144716e-20 8.300339e-21 -4.9142e-41 2.1469575e-20
000080 08 8a 86 82 24 9b db 99 b8 dc 64 1a e0 ad 00 00
       -1.9768756e-37 -2.270673e-23 4.732759e-23 6.2375e-41
000090 27 7c 00 00 df 20 01 80 09 76 ab 87 37 ea b5 18
       4.4537e-41 -1.03627e-40 -2.5798595e-34 4.70239e-24
0000a0 0e ee 8b a5 99 3b 92 1d 54 35 eb 99 5b 80 48 9e
       -2.4273968e-16 3.87075e-21 -2.431997e-23 -1.0614455e-20
0000b0 d1 65 a7 98 51 cb 72 9a 18 4f 00 80 dc 88 00 80
       -4.3271297e-24 -5.0208665e-23 -2.8373e-41 -4.9096e-41
0000c0 59 45 d9 99 60 1a 28 19 3d a3 00 80 8b 93 01 1d
       -2.2465283e-23 8.690723e-24 -5.8559e-41 1.7149286e-21
0000d0 88 15 4b 19 d8 8a 00 00 0c 8b 00 80 a2 79 01 1d
       1.0499202e-23 4.9808e-41 -4.988e-41 1.713589e-21
0000e0 9c 45 8d 0d d1 ac 52 19 88 a0 55 95 83 5b 50 1b
       8.706554e-31 1.08916455e-23 -4.3141644e-26 1.7234926e-22
0000f0 28 5d 65 1a 81 93 08 18 30 53 75 9a fb 7d 00 00
       4.743134e-23 1.7652058e-24 -5.073201e-23 4.5193e-41
000100 e0 8e 00 00 08 80 50 9c c0 89 00 80 4b 03 ef 1c
       5.1254e-41 -6.8986903e-22 -4.9415e-41 1.5816545e-21
000110 e5 0e 21 0b 05 d0 dc 9b f0 08 8e 1a 84 18 05 99
       3.1018678e-32 -3.6530376e-22 5.874426e-23 -6.88089e-24
000120 d4 c4 05 00 64 04 57 a1 f7 c4 a9 8c 94 8a 00 80
       5.29786e-40 -7.2850644e-19 -2.6157117e-31 -4.9712e-41
000130 61 cf 92 87 1b a5 aa 9c dd 1c cf 01 de 8a 00 00
       -2.2089525e-34 -1.1292335e-21 7.608121e-38 4.9816e-41
000140 ef 88 00 00 c4 02 05 8a ff 92 d1 07 ec 41 00 80
       4.9123e-41 -6.404237e-33 3.1533221e-34 -2.3648e-41
000150 27 d3 3c 21 39 b6 ca 08 57 24 d7 82 ae 1b 5e 91
       6.3976335e-19 1.2200273e-33 -3.1612269e-37 -1.7521242e-28
000160 3a 8a 00 00 40 98 00 00 94 7e 1e 1c f7 da 85 92
       4.9586e-41 5.4617e-41 5.2441413e-22 -8.447459e-28
000170 05 4f 02 9d 42 5f 4d 1d 18 3b 19 00 fd 0c 9d 1c
       -1.7246209e-21 2.7180771e-21 2.317086e-39 1.0392746e-21
000180 2f 29 09 00 f4 04 d7 1b 56 6f 10 1b 40 a2 00 00
       8.41293e-40 3.5571967e-22 1.1947375e-22 5.8204e-41
000190 80 d7 0b 00 3a fe 00 80 bf e2 00 00 60 c4 a3 9c
       1.087497e-39 -9.12e-41 8.1341e-41 -1.0837197e-21
0001a0 ce a6 c9 19 76 ef 54 1b dd ed 72 9c c0 eb 0c 1e
       2.0850285e-23 1.7613603e-22 -8.0378514e-22 7.46029e-21
0001b0 3d e9 8f 9a 05 bd d8 9b 79 97 00 80 8e 9b 00 00
       -5.952023e-23 -3.5856353e-22 -5.4338e-41 5.5803e-41
0001c0 fd 1e eb 1c 41 d7 f1 9b 55 9a 00 80 28 55 b2 1c
       1.5559006e-21 -4.000921e-22 -5.5364e-41 1.1801064e-21
0001d0 2b 71 a8 99 6c 87 5b 0b 19 90 00 00 a3 b5 59 1d
       -1.7416501e-23 4.2279746e-32 5.1692e-41 2.8813615e-21
0001e0 5b 68 a9 91 31 1e b2 1a 9c 3a 97 9c 9a ae 00 9c
       -2.6727813e-28 7.366785e-23 -1.0007492e-21 -4.2577315e-22
0001f0 4c 51 49 1b 71 a2 a5 19 b1 21 9b 1c 46 8c 00 80
       1.6652599e-22 1.712621e-23 1.0265749e-21 -5.032e-41
000200 f0 88 00 00 c5 30 18 a8 2e 9c 00 00 b2 a9 00 80
       4.9124e-41 -8.44827e-15 5.6027e-41 -6.0875e-41
000210 79 1a 2b 04 04 f7 c8 84 c7 f9 08 9f ea 1b 03 80
       2.0113109e-36 -4.7246622e-36 -2.900573e-20 -2.8552e-40
000220 c0 a1 00 00 81 6b e9 99 e2 8a 00 80 02 8d 00 00
       5.8025e-41 -2.4135056e-23 -4.9822e-41 5.0584e-41
000230 7e 8f 00 00 82 a8 51 05 bd 8b 01 80 26 94 00 80
       5.1475e-41 9.858083e-36 -1.41964e-40 -5.3146e-41
000240 21 9f 00 80 90 8e 00 00 4d 8a 00 00 40 8e 00 80
       -5.7085e-41 5.1142e-41 4.9613e-41 -5.103e-41
000250 b3 89 00 80 ef 24 00 00 92 a2 17 01 9d ac 00 80
       -4.9397e-41 1.3249e-41 2.7850958e-38 -6.1922e-41
000260 82 91 00 80 55 99 00 80 c3 94 00 00 f6 1f 01 80
       -5.2198e-41 -5.5005e-41 5.3366e-41 -1.03301e-40
000270 12 ac 00 00 df 8d 00 00 15 ca 38 83 89 a5 00 80
       6.1727e-41 5.0894e-41 -5.430472e-37 -5.9383e-41
000280 bd 88 00 80 8e fc 3e a2 13 8a 00 00 e6 99 00 00
       -4.9052e-41 -2.5883503e-18 4.9532e-41 5.5208e-41
000290 b7 2f 12 31 6c 35 01 80 1b 8a 00 80 7d f0 1a 25
       2.127292e-09 -1.11e-40 -4.9543e-41 1.3438851e-16
0002a0 e9 63 ee a9 1e 8a 00 00 c8 91 00 80 d8 99 00 00
       -1.0586655e-13 4.9547e-41 -5.2296e-41 5.5189e-41
0002b0 39 d9 a2 04 a6 2d a8 85 2d 06 06 80 af 8f 00 80
       3.8285504e-36 -1.5815413e-35 -5.53228e-40 -5.1544e-41
0002c0 90 09 4c 04 e4 8a 00 80 85 89 00 00 6f e5 dd 86
       2.3984476e-36 -4.9825e-41 4.9333e-41 -8.346808e-35
0002d0 b6 37 00 00 77 8b 00 80 42 97 00 80 a7 a3 00 80
       1.9985e-41 -5.003e-41 -5.4261e-41 -5.8707e-41
0002e0 31 8a 00 80 5b 98 00 80 2b 89 00 80 57 6c ae 0b
       -4.9574e-41 -5.4655e-41 -4.9207e-41 6.7185374e-32
0002f0 af 00 15 a2 cb 36 3f 86 09 8c 6d 05 2f 8a 00 80
       -2.0193627e-18 -3.5963363e-35 1.1169407e-35 -4.9571e-41
000300 26 8b 00 00 d4 1c 32 a5 44 8a 00 80 b1 ca b9 a6
       4.9917e-41 -1.5448806e-16 -4.96e-41 -1.2891893e-15
000310 f2 55 b5 90 06 ac 5b 23 66 be f5 23 57 39 02 9e
       -7.152433e-29 1.1908441e-17 2.664359e-17 -6.894e-21
000320 ab ea 6a 0e cb fe 0c a3 69 79 4a 95 d2 33 42 01
       2.8955715e-30 -7.64337e-18 -4.088935e-26 3.5669352e-38
000330 c5 92 00 80 80 98 e0 22 ae 60 15 83 eb 8a 00 00
       -5.2651e-41 6.0876787e-18 -4.3898147e-37 4.9834e-41
000340 66 2e 0c 14 78 72 2f 18 82 b6 25 80 87 6d 4e 99
       7.077344e-27 2.2676012e-24 -3.463385e-39 -1.0672069e-23
000350 66 9e b6 08 3d 93 77 0e 01 93 54 9e 81 2f 12 9a
       1.0990966e-33 3.0515993e-30 -1.1253586e-20 -3.0230466e-23
000360 77 94 00 80 e8 ad 11 80 2c f5 ef 24 d7 67 78 9f
       -5.3259e-41 -1.623589e-39 1.04065065e-16 -5.2601937e-20
000370 24 28 14 a6 b1 c4 7f a7 a3 d5 7c 16 6b 33 ed a7
       -5.1402216e-16 -3.5494986e-15 2.042381e-25 -6.583646e-15
000380 a0 77 e1 85 d5 20 d2 22 32 0d 14 a6 dc 9b 00 80
       -2.1202842e-35 5.6955376e-18 -5.13657e-16 -5.5912e-41
000390 53 a5 4d 96 c1 94 03 00 53 93 bd 06 d8 31 36 24
       -1.6611935e-25 3.2887e-40 7.131037e-35 3.950718e-17
0003a0 1f d6 be a5 3e a3 45 a6 64 1c 06 a6 16 94 d5 a7
       -3.310484e-16 -6.856934e-16 -4.6529066e-16 -5.927993e-15
0003b0 32 3e c9 a4 9d bc f7 23 ee 28 51 86 cc 9b 00 80
       -8.727522e-17 2.6859674e-17 -3.9338601e-35 -5.589e-41
0003c0 d2 4c 30 25 33 b5 24 24 ae 35 00 00 bc 12 f8 a3
       1.5291594e-16 3.5715313e-17 1.9257e-41 -2.6896148e-17
0003d0 ee cc 3e a4 3c f8 af 06 d7 8a 00 00 e4 51 03 28
       -4.1373265e-17 6.619243e-35 4.9806e-41 7.289718e-15
0003e0 7a bd ac 14 34 75 bc a5 2a 5d 79 9b 42 af a0 25
       1.7442297e-26 -3.269222e-16 -2.06269e-22 2.7874335e-16
0003f0 38 64 83 a4 2e 48 de 23 ac 22 b5 24 14 56 10 00
       -5.698197e-17 2.4099858e-17 7.8554974e-17 1.500247e-39

fc2.bias f4 [50]
000000 56 bc 86 9f 01 62 db 9e 63 0f 97 a6 3d ae a9 a8
       -5.706278e-20 -2.322806e-20 -1.04819e-15 -1.8838333e-14
000010 a7 42 e1 b5 ce 17 20 9c f4 64 58 bd 0b 93 18 bd
       -1.6783205e-06 -5.2970326e-22 -0.05283065 -0.037249606
000020 c4 31 27 9e e9 37 2c bc 73 7c c8 a7 ec 73 c7 bc
       -8.851198e-21 -0.010511377 -5.564608e-15 -0.024347268
000030 d9 d8 80 31 d3 14 03 b6 de 1a 51 a6 ee 37 2e a0
       3.749943e-09 -1.9532642e-06 -7.2547853e-16 -1.4756879e-19
000040 4f 04 55 9a e0 08 d0 9e 86 af 98 3d ab 68 a2 9d
       -4.4050848e-23 -2.2026527e-20 0.074553534 -4.2989267e-21
000050 d4 f0 03 a2 13 e7 72 ab 84 7a bf bc ed 98 0e b6
       -1.7881304e-18 -8.629635e-13 -0.02337385 -2.1248663e-06
000060 dd 2c e3 b0 c2 30 c4 af 34 c0 ad b8 b0 87 8d b5
       -1.6529175e-09 -3.5686837e-10 -8.2850835e-05 -1.0544809e-06
000070 09 af 0c b8 e7 7f 1d a6 16 e8 6a bd 22 42 35 af
       -3.3541615e-05 -5.4643657e-16 -0.05735024 -1.6485349e-10
000080 d5 f1 8a 9e 29 e3 53 ab cd a4 97 3d 08 48 65 97
       -1.4711338e-20 -7.5277507e-13 0.0740448 -7.4084807e-25
000090 73 94 33 bd ec cb aa a5 79 84 c1 ac 82 78 f4 b4
       -0.043842744 -2.9628482e-16 -5.5000973e-12 -4.5536223e-07
0000a0 fe a2 ab 3d 81 55 81 a5 8e c4 4b a8 d7 4d c6 bd
       0.08380698 -2.2435873e-16 -1.1311385e-14 -0.096828155
0000b0 db 21 8e 3d f3 f3 e7 ae c3 0c c8 3d ac 27 54 3c
       0.06940051 -1.0547998e-10 0.09768059 0.012948912
0000c0 b2 5f 36 a8 df 96 cc bc
       -1.012378e-14 -0.024974285
