encoder_weights.pth (torch, 673632 bytes, 8 tensors)

fc.0.weight f4 [512, 3]
0	0x3df4f785	0.11961273
1	0xbea94e54	-0.33067572
2	0x3ed12f12	0.40856224
3	0xbefe4da6	-0.49668616
4	0xbe90a25c	-0.2824887
5	0xbe5ee7cc	-0.21768111
6	0xbc68eb85	-0.0142163085
7	0x3d9f40a7	0.07776003
8	0xbec18d41	-0.3780308
9	0xbd902497	-0.07038229
10	0xbee717b9	-0.45135286
11	0xbef276a1	-0.47356132
12	0xbf247c3a	-0.64252055
13	0xbd49db8a	-0.049281634
14	0x3d1cd4fd	0.03828906
15	0x3e827c79	0.2548559
16	0xbe0869a2	-0.13321546
17	0x3e0e3946	0.13889036
18	0xbc27a2c4	-0.010231677
19	0xbf28847e	-0.6582717
20	0xbf380ba3	-0.71892756
21	0xbe016c66	-0.12639007
22	0xbd62df57	-0.055388775
23	0x3cb345ed	0.02188393
24	0x3d9c8a37	0.0764355
25	0xbe5ae255	-0.21375401
26	0xbe876bf6	-0.26449555
27	0xbe282c12	-0.16423061
28	0x3e3203fd	0.17384334
29	0x3d0511aa	0.03248755
30	0xbec952c7	-0.39320967
31	0x3ee5b862	0.44867235
32	0x3dc71b4d	0.09722004
33	0x3e5301d3	0.20606165
34	0xbe9eed49	-0.3104041
35	0x3de21264	0.11038664
36	0xbf09b317	-0.53788894
37	0xbec89eb2	-0.39183575
38	0xbd0b179a	-0.033958055
39	0x3eb89a8e	0.36055416
40	0xbf0dfd9e	-0.55465114
41	0x3e582f35	0.21111758
42	0xbbc9fea2	-0.006164388
43	0x3e851a11	0.2599645
44	0xbd588954	-0.05286534
45	0xbdb04733	-0.0860733
46	0x3c81e2c0	0.015855193
47	0x3de3ae80	0.111172676
48	0x3cbc7f84	0.023010023
49	0xbbce2af7	-0.006291743
50	0xbc93394a	-0.017971653
51	0xbf13b439	-0.5769687
52	0xbde3da1c	-0.111255854
53	0x3f0104b1	0.50397784
54	0x3e8054c1	0.25064662
55	0xbf094728	-0.536242
56	0xbe9e5efc	-0.30931842
57	0xbf2aa54f	-0.6665849
58	0xbe97ff78	-0.29687095
59	0x3eb51dd2	0.35374314
60	0xbf03a13c	-0.514179
61	0xbeec21cc	-0.46119535
62	0x3edb2b6d	0.4280657
63	0x3e4ca479	0.19984616
64	0xbea623d8	-0.32449222
65	0xbeb919db	-0.3615254
66	0xbcdac46a	-0.026704986
67	0xbf317fc6	-0.6933559
68	0xbf22b9fa	-0.6356503
69	0xbe9ad7b5	-0.30242696
70	0xbd22a59c	-0.03970872
71	0xbedc91ff	-0.43080136
72	0xbf4e267b	-0.80527467
73	0x3dd5202a	0.104065254
74	0x3da6af2d	0.08138881
75	0xbeaa1eb9	-0.33226565
76	0xbe1e25a7	-0.1544405
77	0xbe28e382	-0.16493037
78	0xbdd30a68	-0.10304719
79	0x3e9057c0	0.28191948
80	0x3eb8474b	0.35991892
81	0x3e137d33	0.14403228
82	0x3e3a0822	0.18167165
83	0x3e612b12	0.21989086
84	0x3f031d83	0.51216906
85	0xbef78a84	-0.48347867
86	0xbedcf093	-0.43152294
87	0xbf241757	-0.64098114
88	0xbf077eab	-0.52927655
89	0x3f06e6f2	0.52696145
90	0x3e406177	0.1878718
91	0x3df723f6	0.12067406
92	0xbdbb4e95	-0.09145848
93	0xbe578fd1	-0.21050955
94	0xbd093a67	-0.033502962
95	0x3e5e7142	0.21722892
96	0x3eb4683a	0.3523577
97	0xbe73509d	-0.2376122
98	0x3d83674e	0.06416188
99	0xbe5b2866	-0.2140213
100	0x3e2003de	0.15626475
101	0x3c46bdc6	0.012130206
102	0xbee77356	-0.45205182
103	0x3e679cd5	0.2261842
104	0x3d9cf436	0.07663767
105	0x3ea2527c	0.31703556
106	0xbec27eb1	-0.37987283
107	0x3e63c406	0.22242746
108	0xbe3936c1	-0.18087293
109	0xbf356f13	-0.7087261
110	0x3e44d48d	0.19221707
111	0xbd55e588	-0.05222085
112	0x3e447c7e	0.19188115
113	0x3e111d83	0.14171414
114	0xbe7ad13f	-0.24493884
115	0xbedd1021	-0.43176368
116	0xbea020c1	-0.3127499
117	0xbe8a07f0	-0.2695918
118	0xbead4517	-0.33841774
119	0x3e592b2b	0.21207874
120	0x3cdb0d15	0.026739636
121	0xbd56e6f4	-0.052466348
122	0x3d15d50b	0.036580127
123	0x3e49b575	0.19698127
124	0x3e9451ec	0.2896875
125	0x3eefdcfa	0.4684828
126	0xbeafd3e1	-0.34341338
127	0x3e732454	0.23744327
128	0x3d1cc5e4	0.03827466
129	0xbdce4887	-0.10072427
130	0xbe13fa1f	-0.14450882
131	0xbe544b96	-0.20731959
132	0xbce407ad	-0.027835691
133	0xbe4e15c0	-0.20125484
134	0xbe67aac9	-0.22623743
135	0x3eb9bd11	0.3627706
136	0xbeac64ec	-0.33670747
137	0xbba1840d	-0.0049290718
138	0x3e59a90e	0.21255895
139	0xbe7b5e68	-0.24547732
140	0x3ee51ce8	0.44748616
141	0xbf12d746	-0.5735973
142	0xbefe608b	-0.4968303
143	0x3ee55a11	0.44795278
144	0xbf26a306	-0.65092504
145	0xbf0980b7	-0.5371203
146	0xbe602e89	-0.21892752
147	0xbe10b3ce	-0.1413109
148	0xbee02f34	-0.43786013
149	0x3efa818c	0.4892696
150	0x3e8ae40c	0.2712711
151	0xbe8a9421	-0.27066138
152	0xbe8396f4	-0.25701106
153	0x3d0505cc	0.03247623
154	0xbeee354b	-0.46525034
155	0x3cf92f2b	0.030418
156	0xbe7e7646	-0.24849805
157	0xbe4151f3	-0.18878917
158	0x3ef4182c	0.47674692
159	0x3e83a6d9	0.25713232
160	0x3cac90e3	0.021065181
161	0x3e8eb4f6	0.27872437
162	0xbee6603f	-0.44995305
163	0xbed6b262	-0.4193297
164	0xbe8dc594	-0.27689803
165	0xbf46b909	-0.7762609
166	0xbf4dcdad	-0.8039196
167	0xbeaa5596	-0.33268422
168	0x3e042e92	0.1290839
169	0xbdda0ee3	-0.10647371
170	0x3ded9c87	0.11602121
171	0xbf31e484	-0.6948931
172	0x3d393d02	0.045224197
173	0xbcbed291	-0.023293765
174	0xbeca438b	-0.39504656
175	0x3ee89ac8	0.4543059
176	0xbd62ee8d	-0.05540328
177	0x3d06354c	0.03276567
178	0xbef66294	-0.48122084
179	0xbebb3b5f	-0.36568734
180	0xbee2711b	-0.44226918
181	0xbe36a0e5	-0.17834814
182	0x3f05413c	0.52052665
183	0xbf0a4a5c	-0.54019713
184	0xbf0a1e8c	-0.5395286
185	0xbe95d12d	-0.2926115
186	0x3e3a8aea	0.18217054
187	0xbf152425	-0.5825828
188	0xbe6271c3	-0.22113709
189	0x3e9c7677	0.30559132
190	0xbf0e1c44	-0.5551188
191	0xbe86cbc4	-0.26327336
192	0x3e2739db	0.16330664
193	0xbf147228	-0.5798669
194	0xbd83de37	-0.064388685
195	0xbe0b85fd	-0.13625331
196	0x3d587351	0.05284435
197	0x3e74772e	0.23873588
198	0x3ee0c158	0.4389751
199	0x3f012188	0.5044179
200	0xbe72c261	-0.23706962
201	0xbeece746	-0.46270198
202	0xbeafacd8	-0.34311557
203	0x3e0eaa05	0.13932045
204	0x3dd8d22a	0.105869606
205	0xbf231ccb	-0.6371581
206	0xbf1d2c9c	-0.61396194
207	0x3d73c182	0.059510715
208	0xbd4d5761	-0.05013216
209	0x3c863832	0.016384218
210	0xbe8e0ae1	-0.27742675
211	0x3e8b7967	0.2724106
212	0xbe8a3525	-0.2699367
213	0xbf0782d4	-0.52934
214	0xbd1c64eb	-0.03818218
215	0xbddeae7f	-0.10873126
216	0xbedce3e5	-0.4314262
217	0xbe960188	-0.29298043
218	0x3ce8661c	0.028369002
219	0xbe669198	-0.22516477
220	0xbf1f1969	-0.6214815
221	0x3d905a2c	0.07048449
222	0xbeb85bc8	-0.36007524
223	0xbf0ba578	-0.5454936
224	0xbeaeb305	-0.34120956
225	0xbee0ee21	-0.43931678
226	0xbec4803e	-0.3837909
227	0x3e396c87	0.18107806
228	0x3d07150d	0.03297906
229	0xbce73d4c	-0.02822747
230	0xbd035ed0	-0.032072842
231	0x3ea38840	0.31939888
232	0xbf424c80	-0.7589798
233	0xbf42756f	-0.7596044
234	0xbe02402a	-0.12719789
235	0xbf02ea89	-0.5113912
236	0xbefc4bfa	-0.49276716
237	0xbf15c007	-0.58496135
238	0x3eaef6b3	0.34172592
239	0xbeb2147a	-0.34781247
240	0xbda64777	-0.081190996
241	0x3e99f519	0.30069807
242	0x3d9f364a	0.07774027
243	0x3ea584cd	0.3232788
244	0xbf005879	-0.50135
245	0xbeea8360	-0.45803356
246	0x3dc24c1e	0.094871745
247	0xbda1e3d9	-0.079047866
248	0xbeb7833f	-0.3584232
249	0x3e54280b	0.207184
250	0xbf22282a	-0.63342535
251	0xbe1730cd	-0.1476471
252	0xbdc51ae6	-0.09624271
253	0x3e899fb0	0.26879644
254	0xbc20190c	-0.009771597
255	0xbe2935cb	-0.16524427

fc.0.bias f4 [512]
0	0x3eec5c00	0.4616394
1	0xba529c33	-0.000803414
2	0x3dfe64ea	0.124215916
3	0xbe7341a2	-0.23755506
4	0x3ea8c9b9	0.32966402
5	0xbe71ad2b	-0.23601215
6	0xbbb30b6f	-0.0054640095
7	0xbd8d8dbd	-0.069118
8	0x3ef0b3f5	0.47012296
9	0xbf133583	-0.5750353
10	0xbf0f8cd7	-0.5607428
11	0xbee5be47	-0.44871733
12	0x3db042d9	0.086065
13	0x3e2d4e94	0.16924506
14	0xbf1876c3	-0.59556216
15	0x3e44d9b7	0.19223677
16	0xbececccf	-0.40390632
17	0xbf09c80f	-0.5382089
18	0xbd3fb4aa	-0.046803154
19	0xbf1d846d	-0.6153019
20	0xbe00427f	-0.12525366
21	0xbeb38ba0	-0.35067463
22	0xbbf805e7	-0.007569063
23	0x3e62e6ac	0.22158307
24	0x3d2b6992	0.041848727
25	0xbe0fc1da	-0.14038792
26	0x3e104351	0.14088179
27	0x3e2ff6fc	0.17184061
28	0xbf2868da	-0.6578499
29	0xbe4b846b	-0.19874732
30	0x3e598813	0.21243314
31	0xbc9c0679	-0.019046055
32	0xbe084b12	-0.13309887
33	0x3cdbb5b3	0.02682004
34	0xbd9a27ad	-0.07527099
35	0x3d80f48b	0.06296643
36	0xbf10097e	-0.56264484
37	0xbebf02a7	-0.3730671
38	0x3e58c2f2	0.21168116
39	0x3d32edb4	0.043683723
40	0x3ea2793e	0.31733125
41	0xbe2d2164	-0.16907269
42	0xbce11f33	-0.027480697
43	0x3e338a95	0.17533334
44	0xbecc5012	-0.3990484
45	0x3e9ad2fd	0.30239096
46	0xbf229ae5	-0.635176
47	0xbd318f28	-0.043349415
48	0x3ebc8a28	0.36824155
49	0xbf052229	-0.5200525
50	0xbeb12b15	-0.3460318
51	0xbf06bce8	-0.52632
52	0xbddd5279	-0.10806746
53	0xbeb9b259	-0.3626888
54	0x3eafe3e3	0.3435355
55	0x3e1be045	0.15222271
56	0x3d238dde	0.039930217
57	0xbea9e74a	-0.33184272
58	0xbe288288	-0.16456044
59	0x3c06a927	0.00821904
60	0xbeb622de	-0.35573477
61	0x3e990742	0.2988835
62	0xbc61cb4b	-0.013781379
63	0xbf362fa8	-0.7116647
64	0xbf55597c	-0.8333967
65	0xbe2aea75	-0.16691001
66	0xbf385925	-0.72011024
67	0x3e1d526d	0.15363474
68	0xbc71638a	-0.014733205
69	0x3e917ced	0.28415623
70	0xbf38c2da	-0.7217232
71	0xbf2f0ca5	-0.6837867
72	0xbef04438	-0.46927047
73	0x3e5697ca	0.2095634
74	0xbcad6de1	-0.021170558
75	0xbee40c64	-0.44540703
76	0xbeff00ba	-0.49805242
77	0xbcb9439a	-0.022615243
78	0xbd7472aa	-0.059679665
79	0xbf493aaa	-0.7860514
80	0xbef90bbf	-0.48641774
81	0x3f0f7784	0.5604174
82	0xbef05fb7	-0.46948025
83	0x3eadc31e	0.33937925
84	0xbf31f214	-0.69510007
85	0xbf290e24	-0.660372
86	0xbf01ba8d	-0.5067528
87	0x3decd444	0.11563924
88	0x3d1f2319	0.03885183
89	0x3e645e03	0.22301488
90	0x3e8b19fe	0.27168268
91	0xbe9bd018	-0.304322
92	0xbcf4c14c	-0.029877327
93	0xbf3280a2	-0.6972753
94	0x3d0ea152	0.034821816
95	0x3e4a545b	0.19758742
96	0xbeafdff0	-0.34350538
97	0xbf4dff5f	-0.8046779
98	0x3e88f544	0.26749623
99	0xbd845bf3	-0.064628504
100	0xbeff73fb	-0.49893174
101	0xbec021fa	-0.37525922
102	0x3eb60da0	0.3555727
103	0xbe755d90	-0.23961473
104	0x3c7700f5	0.015075912
105	0xbec47d3f	-0.38376805
106	0xbec81d48	-0.3908484
107	0xbf02a2b1	-0.510295
108	0xbf2c8074	-0.67383504
109	0x3f0a510c	0.5402992
110	0xbe60f15d	-0.21967073
111	0xbeda89c5	-0.42683235
112	0xbd94b34b	-0.0726076
113	0x3e978394	0.29592574
114	0xbee0fd69	-0.43943337
115	0xbe56d78f	-0.20980667
116	0x3e2430f7	0.16034304
117	0x3f307972	0.6893531
118	0xbc858cd2	-0.0163025
119	0x3e2d3b6b	0.16917197
120	0xbf0c1f3d	-0.54735166
121	0xbefa8a7c	-0.4893378
122	0xbf5bc49d	-0.85846883
123	0x3e9b0048	0.30273652
124	0xbef378f6	-0.47553223
125	0x3e2605e4	0.16213185
126	0x3ec79232	0.38978726
127	0x3d4d1843	0.050071966
128	0x3e8b0316	0.27150792
129	0xbe711f60	-0.23547125
130	0x3cb57b54	0.022153534
131	0xbb20241b	-0.0024435583
132	0xbede1355	-0.43374124
133	0x3dde8c28	0.108665764
134	0xbe39d5ee	-0.18148014
135	0x3ea9d365	0.33169094
136	0xbf22de1d	-0.6362017
137	0xbebdeb34	-0.37093508
138	0xbf08e33c	-0.5347173
139	0xbedcc940	-0.43122292
140	0x3d567b8d	0.05236392
141	0xbf37346a	-0.7156435
142	0xbc86f821	-0.016475739
143	0xbd85ecc6	-0.065393016
144	0xbec3acb1	-0.3821769
145	0xbf0867cb	-0.53283376
146	0x3edde266	0.4333679
147	0xbefb110a	-0.49036437
148	0xbe67c5ef	-0.226341
149	0xbe93020a	-0.28712493
150	0xbf2c3716	-0.67271554
151	0xbf25a3f2	-0.64703286
152	0xbe63c4c0	-0.22243023
153	0xbb90578f	-0.004404969
154	0xbef769f9	-0.48323038
155	0xbf00a904	-0.502579
156	0xbf0ca1d4	-0.5493443
157	0xbe265cdb	-0.16246359
158	0x3e02c5ec	0.12770814
159	0x3ea58eb8	0.32335448
160	0x3b82e267	0.0039942744
161	0x3f5ef99f	0.8709964
162	0xbd0a5dc2	-0.03378082
163	0xbf722bc3	-0.94598025
164	0xbf24ab21	-0.6432362
165	0xbee34f7a	-0.44396573
166	0xbf131376	-0.5745157
167	0xbf318dc1	-0.69356924
168	0x3ebd6bfa	0.36996442
169	0xbc75e64c	-0.01500852
170	0xbf473523	-0.77815455
171	0xbe7bd3c7	-0.24592505
172	0x3eb20b76	0.3477437
173	0xbd60de27	-0.05489936
174	0x3f03e91f	0.5152759
175	0x3d6208ce	0.055184178
176	0xbf171b31	-0.59025866
177	0x3e1935b4	0.14961892
178	0xbd9d7c7c	-0.07689759
179	0xbe946512	-0.2898336
180	0xbe82809c	-0.25488746
181	0x3d1d6a36	0.03843137
182	0xbec93eea	-0.39305812
183	0xbf120ee6	-0.57053983
184	0xbe66a288	-0.22522938
185	0xbe81f21a	-0.2538002
186	0xbcb020fb	-0.021500101
187	0xbcc4b543	-0.024012214
188	0xbf11ed44	-0.57002664
189	0x3d5e4c5c	0.05427204
190	0x3e271dda	0.16319981
191	0xbe745d00	-0.23863602
192	0xbd6e59e7	-0.058191206
193	0x3eaa8231	0.33302453
194	0xbf139e53	-0.5766346
195	0xbf44d774	-0.76891255
196	0x3eb4e820	0.35333347
197	0xbe51aba6	-0.20475635
198	0x3ed8dac2	0.423544
199	0xbb6cee81	-0.0036152902
200	0xbe98ecdb	-0.29868206
201	0xbf0187d9	-0.5059791
202	0x3e757c45	0.23973186
203	0x3e572f1e	0.21014068
204	0x3ee862f1	0.45387986
205	0x3ee14fcc	0.44006193
206	0xbec8d522	-0.39225107
207	0xbd701274	-0.05861135
208	0x3ede450d	0.43412057
209	0xbd965c72	-0.07341851
210	0x3ed6f4b9	0.41983584
211	0xbedc583d	-0.4303607
212	0xbe17c3e3	-0.14820819
213	0xbf14e3e8	-0.5816026
214	0x3e265804	0.16244513
215	0xbb69e12e	-0.0035687196
216	0xbe26b1cb	-0.1627876
217	0x3d690efa	0.05689905
218	0xbf337c68	-0.70111704
219	0xbf05c151	-0.522481
220	0xbcb0f905	-0.021603117
221	0xbec5a6f2	-0.38603932
222	0xbe1726c0	-0.14760876
223	0x3ed7309d	0.42029276
224	0xbed4ebe4	-0.4158622
225	0xbf377cdd	-0.716749
226	0x3e75c771	0.24001862
227	0xbf30fa83	-0.6913225
228	0xbf04f960	-0.51943016
229	0xbf305e0e	-0.68893516
230	0xbd98b051	-0.07455505
231	0x3e822271	0.25416902
232	0xbc538a99	-0.012911462
233	0xbe36ae21	-0.17839862
234	0xbf03fc84	-0.51557183
235	0xbefda5b4	-0.49540484
236	0xbe93eff6	-0.28894013
237	0xbe3b0fe7	-0.18267785
238	0xbf0e15b9	-0.55501896
239	0xbf0fb2d9	-0.56132275
240	0xbef8f2f3	-0.48622856
241	0xbeae3d27	-0.3403103
242	0xbd0c5788	-0.034263164
243	0xbdc3d8aa	-0.0956281
244	0xbeca6384	-0.3952905
245	0xbeb1ac50	-0.34701777
246	0x3e747dd6	0.23876128
247	0xbcdb76e7	-0.026790095
248	0xbd5bda86	-0.053675197
249	0xbd240d4d	-0.040051747
250	0x3e3aab82	0.18229488
251	0xbf339a05	-0.7015689
252	0xbf1a21a9	-0.6020761
253	0xbebbe5ce	-0.36698765
254	0xbf43a464	-0.76422715
255	0x3e89eb49	0.2693732

fc.2.weight f4 [256, 512]
0	0xbca93a20	-0.020657599
1	0xbd356c0d	-0.0442925
2	0x3d4d4448	0.050113946
3	0x3dcb12ff	0.099157326
4	0xbdd0bdc9	-0.10192449
5	0xbe212116	-0.15735278
6	0x3ec1aded	0.37828007
7	0xbd2aac93	-0.041668486
8	0x3e090fdb	0.13384955
9	0xbd80418c	-0.06262502
10	0xbe01195f	-0.12607335
11	0xbe144d6f	-0.14482664
12	0x3db5b87f	0.088730805
13	0xbdd4e2b8	-0.10394806
14	0xbc596625	-0.013268982
15	0xbd019b61	-0.03164232
16	0xbd53179e	-0.051536195
17	0xbe6c3a20	-0.23069048
18	0x3ebe195c	0.37128723
19	0xbe90eed2	-0.28307205
20	0xbe53bf15	-0.20678361
21	0xbd703b96	-0.058650576
22	0x3f13fe1e	0.5780963
23	0xbc621736	-0.013799479
24	0xbe1ba42e	-0.15199348
25	0xbccc5b33	-0.02494583
26	0xbe1c890d	-0.15286656
27	0xbe1bd36e	-0.15217373
28	0xbc7ad616	-0.015309831
29	0xbe4f2a0a	-0.2023088
30	0x3d883797	0.06651228
31	0xbde71a32	-0.11284293
32	0xbd8162b9	-0.06317658
33	0xbdc073ec	-0.0939711
34	0x3c595723	0.013265404
35	0xbe12e4de	-0.14345118
36	0xbdb69e8b	-0.089169584
37	0xbd95e305	-0.07318691
38	0x3baf835c	0.0053562354
39	0x3d938922	0.072038904
40	0xbd02439a	-0.03180275
41	0xbf15357b	-0.5828473
42	0xbdd55d1b	-0.10418149
43	0x3d928446	0.071541354
44	0x3d256a6d	0.0403847
45	0xbd5b68f1	-0.053566877
46	0xbe1b5864	-0.15170437
47	0x3dd1b46b	0.1023949
48	0x3e7f2753	0.24917345
49	0xbe0c3c7c	-0.13694948
50	0xbd6778b4	-0.056511596
51	0xbdbced80	-0.09224987
52	0xbef24b17	-0.47322914
53	0xbe5819eb	-0.21103637
54	0x3e93de38	0.28880477
55	0x3eb97df7	0.36228916
56	0xbe57a29f	-0.21058129
57	0xbdf6ee5d	-0.12057183
58	0xbcbbdacd	-0.02293148
59	0xbd40e6b9	-0.047095034
60	0xbea2cdff	-0.31797788
61	0x3e786dbb	0.24260609
62	0xb9ffd211	-0.00048793902
63	0xbd7e941f	-0.062152978
64	0xbde4926d	-0.11160741
65	0xbe92705b	-0.28601345
66	0xbd72082f	-0.059089836
67	0x3d9ec6a2	0.0775273
68	0x3eaa0f60	0.33214855
69	0x3cc98cb9	0.024603235
70	0xbcd3f3e9	-0.025873141
71	0xbd71caff	-0.059031483
72	0xbc103da1	-0.008803756
73	0x3d937e54	0.072018296
74	0x3c350d95	0.0110506015
75	0xbc67789e	-0.0141278785
76	0xbceb0524	-0.028688975
77	0x3ed0a3fe	0.40750116
78	0x3e201d87	0.15636264
79	0xbd6a9af0	-0.057276666
80	0xbdfa418c	-0.12219533
81	0xbda01b29	-0.078176804
82	0xbc5ba570	-0.013406143
83	0xbb458b1a	-0.0030142725
84	0xbc5fac1a	-0.013651872
85	0xbd70920b	-0.058733027
86	0xbdf6eca2	-0.12056853
87	0x3e011ee3	0.12609439
88	0x3c5993fd	0.013279912
89	0xbd9bf055	-0.07614199
90	0x3d582cc1	0.052777056
91	0x3e3b84f8	0.18312442
92	0x3ec43f96	0.38329762
93	0xbdc4146c	-0.09574208
94	0x3f3a93c0	0.728817
95	0xbdd1c4ec	-0.10242638
96	0xbdef3d2d	-0.1168159
97	0xbe001876	-0.12509331
98	0xbd4700c5	-0.04858472
99	0xbd96387a	-0.07334991
100	0xbd6db4a3	-0.058033597
101	0xbeb4eee7	-0.35338518
102	0xbca7a32e	-0.020463552
103	0xbde4b0cc	-0.11166534
104	0xbd6c1e61	-0.05764616
105	0xbe7000cb	-0.23437802
106	0xbe6bbc2a	-0.23020998
107	0xbe68a070	-0.22717452
108	0xbdf47930	-0.11937177
109	0x3d5f0f29	0.054457817
110	0xbd9e4ed8	-0.07729882
111	0xbe3ece08	-0.18633282
112	0x3bbe5729	0.00580873
113	0xbcae4b42	-0.02127612
114	0xbe442068	-0.19152987
115	0xbee97505	-0.4559709
116	0xbe5c7f95	-0.21533044
117	0x3c88542e	0.016641703
118	0x3d938281	0.07202626
119	0xbe63873c	-0.22219557
120	0xbda2a7a0	-0.07942128
121	0xbe141ba2	-0.14463666
122	0xbcba6c18	-0.022756621
123	0x3d814fb5	0.06314031
124	0x3d731531	0.05934638
125	0xbd67cbb2	-0.056590743
126	0xbdaec009	-0.085327215
127	0x3cb1aded	0.02168938
128	0x3e746b69	0.23869099
129	0xbe91bc6b	-0.28464064
130	0x3de089c7	0.10963779
131	0x3d3fa180	0.046784878
132	0x3bbc27cb	0.0057420484
133	0xbd82108c	-0.06350812
134	0xbe43dbe6	-0.19126853
135	0x3e8ce7d5	0.27520624
136	0xbb011e3c	-0.001970186
137	0xbd13c523	-0.036076676
138	0xbe9080ea	-0.28223354
139	0xbe224906	-0.15848169
140	0xbdb85087	-0.08999734
141	0xbd1bf30a	-0.038073577
142	0x3e00f368	0.12592852
143	0xbecf182a	-0.40448123
144	0x3d8cc127	0.068727784
145	0xbdab6327	-0.08368521
146	0xbddd259d	-0.1079819
147	0xbda1407a	-0.07873626
148	0xbd6ee484	-0.0583234
149	0xbe388566	-0.18019637
150	0xbd95e5ec	-0.07319245
151	0xbe15b341	-0.14619161
152	0x3c053cfc	0.008132216
153	0x3f35259e	0.70760524
154	0xbe3ff6a1	-0.18746425
155	0xbeef0eb6	-0.4669091
156	0xbd829e9c	-0.063779086
157	0xbd608622	-0.05481542
158	0x3bbf300d	0.0058345855
159	0x3d9d4a37	0.07680171
160	0x3f0f370b	0.55943364
161	0x3d74c10f	0.059754428
162	0x3df27f6f	0.11840712
163	0xbc679522	-0.014134677
164	0xbce8ccfb	-0.028418055
165	0xbe3059fe	-0.1722183
166	0xbe70546e	-0.23469707
167	0xbd6bcf39	-0.05757067
168	0xbd22ef0f	-0.039778765
169	0x3ed0d0ef	0.40784404
170	0xbd3068c3	-0.04306866
171	0x3e20de8b	0.15709893
172	0xbd3436d3	-0.043997597
173	0xbd815cbf	-0.06316518
174	0x3c0c7fec	0.008575421
175	0xbd12e20a	-0.0358601
176	0xbdfddc71	-0.123955615
177	0xbd88e61b	-0.06684514
178	0xbdae51f6	-0.085117266
179	0x3de52459	0.111885734
180	0xbdb90776	-0.09034626
181	0xbe019e33	-0.12658004
182	0x3d2172ad	0.039416004
183	0xbc8459bb	-0.016156068
184	0x3dc33393	0.095313214
185	0xbe57cccf	-0.21074222
186	0xbcf501fb	-0.02990817
187	0x3f52c0f1	0.82325655
188	0xbe958e94	-0.2921034
189	0xbd89e23e	-0.067326054
190	0xbe024f4e	-0.12725565
191	0xbe08ec9c	-0.1337151
192	0x3e983a2c	0.29731882
193	0x3d06c99c	0.032907113
194	0x3da414ba	0.08011766
195	0xbdb1e9fc	-0.08687207
196	0x3d2ca939	0.04215357
197	0xbdac081a	-0.08399983
198	0x3c7a401a	0.015274072
199	0x3f1db303	0.61601275
200	0x3da41102	0.080110565
201	0xbd3a3ce0	-0.04546821
202	0xbbdd35da	-0.0067508044
203	0xbd33bfe3	-0.04388417
204	0x3d17c52c	0.037053272
205	0xbcd9b572	-0.026575778
206	0xbdf05f5e	-0.1173694
207	0x3d423fdf	0.047424193
208	0x3d74551b	0.059651475
209	0xbcf3ead6	-0.029775064
210	0xbd74784d	-0.05968504
211	0xbe00bdc1	-0.12572385
212	0xbc0d81c6	-0.008636897
213	0xbd2c43f0	-0.042056978
214	0xbde7943f	-0.113075726
215	0x3f050517	0.5196089
216	0xbe8114c0	-0.25211143
217	0xbd2aef7d	-0.0417323
218	0x3d5f5960	0.054528594
219	0xbd64344e	-0.055713944
220	0x3d17410c	0.036927268
221	0xbd455f07	-0.04818633
222	0xbdcaaae6	-0.098958775
223	0xbc0fbfad	-0.008773726
224	0xbe850a67	-0.259845
225	0x3b453dbd	0.0030096613
226	0xbd1da36e	-0.038485937
227	0xbd8556c2	-0.06510688
228	0xbd03b3ff	-0.03215408
229	0xbdc36b4d	-0.095419504
230	0x3d2f1ffc	0.042755112
231	0xbcfe51e1	-0.031044902
232	0x3d92befc	0.07165334
233	0x3dab0454	0.08350435
234	0xbe391364	-0.18073803
235	0xbca2608d	-0.01982143
236	0xbe58be23	-0.21166281
237	0xbe77ba09	-0.2419206
238	0xbe722116	-0.23645434
239	0x3c9b8953	0.01898638
240	0xbe09b5cf	-0.1344826
241	0xbe165868	-0.14682162
242	0xbcc96f61	-0.024589242
243	0xbcea788f	-0.02862194
244	0xbd07dc88	-0.0331693
245	0xbe2f59a4	-0.17124039
246	0xbdc71103	-0.097200416
247	0xbef19bca	-0.4718917
248	0x3d491a89	0.04909757
249	0x3eeb54cb	0.4596313
250	0x3d63f7fe	0.055656426
251	0x3ce07688	0.02740027
252	0xbe165c0a	-0.14683548
253	0x3d5b52c3	0.053545725
254	0xbd2910a0	-0.04127562
255	0xbded72fa	-0.11594196

fc.2.bias f4 [256]
0	0xbd53d0d7	-0.051712837
1	0xbd376394	-0.0447727
2	0x3b5936b2	0.0033144173
3	0xbd7eaa58	-0.06217417
4	0xbdad7743	-0.08470013
5	0xbdb9743c	-0.09055373
6	0xbdc40609	-0.095714636
7	0x3bb70618	0.005585443
8	0xbcc594aa	-0.02411874
9	0xbd010336	-0.031497203
10	0x3d1c7cbb	0.03820489
11	0xbd7db1f2	-0.06193728
12	0xbdf5b0dd	-0.119966246
13	0xbce5a235	-0.028031448
14	0xbd9246ca	-0.07142408
15	0x3b347234	0.002753389
16	0xbc9bc7a1	-0.019016089
17	0xbe13cee0	-0.14434385
18	0x3d09d622	0.03365148
19	0x3c62cffb	0.013843532
20	0xbdadc5c5	-0.08484987
21	0x3c913f1e	0.017730292
22	0xbd101d85	-0.035184402
23	0xbd3efbb4	-0.04662676
24	0xbc8f7dc7	-0.01751603
25	0x3e337ded	0.17528506
26	0xbda8ae30	-0.08236349
27	0xbcf8d019	-0.030372666
28	0x3cb1f417	0.021722836
29	0x3dbaf27b	0.09128281
30	0xbcbb2f96	-0.02284984
31	0xbd1c3409	-0.038135562
32	0x3bf3cea2	0.007440404
33	0x3bbc0e15	0.0057389834
34	0xbd86fd48	-0.06591278
35	0xbe277e4a	-0.16356769
36	0xbcea5fde	-0.028610166
37	0xbc8d6324	-0.017259188
38	0xbdf3d405	-0.11905674
39	0xbc59d986	-0.013296491
40	0xbc357d4a	-0.0110772345
41	0xbd046322	-0.032321103
42	0xbd8534af	-0.06504189
43	0xbd75bfd7	-0.059997406
44	0xbc190df2	-0.009341704
45	0xbce87df3	-0.02838037
46	0xbdf8c521	-0.12146974
47	0xbd9d0c75	-0.076683916
48	0xbc9db11a	-0.019249488
49	0xbe0c4a1a	-0.13700143
50	0xbbce54ea	-0.0062967436
51	0xbd3ab6fc	-0.045584664
52	0xbd33e05f	-0.04391515
53	0xbe126325	-0.14295633
54	0xbd7c7f8b	-0.061645072
55	0x3e14ce9e	0.14531943
56	0x3d5625cf	0.05228215
57	0x3ccab9cf	0.024746804
58	0xbcd5dc49	-0.026106017
59	0xbdd04632	-0.10169639
60	0x39d5283f	0.00040656512
61	0xbd9b92f8	-0.075963914
62	0xbbdfc464	-0.0068288315
63	0xbd280691	-0.041021887
64	0xbdb3cc8f	-0.08779251
65	0xbd30fe76	-0.043211423
66	0xbc94b90b	-0.018154642
67	0xbd480399	-0.048831556
68	0xbdcdcb27	-0.10048514
69	0x3cda3c69	0.026640134
70	0xbd81d6f0	-0.06339824
71	0xbcc97d19	-0.024595784
72	0xbd860d8c	-0.065455526
73	0x3cc516d2	0.024058733
74	0x3cb7e34a	0.022447247
75	0x3d677db5	0.056516368
76	0xbd649bd9	-0.05581269
77	0xbe028c27	-0.12748776
78	0xbdb16e16	-0.08663575
79	0xbe2502cc	-0.16114348
80	0xbe0dee15	-0.13860352
81	0xbe328872	-0.17434862
82	0xbda9e956	-0.082964584
83	0xbcab963b	-0.020945659
84	0x3c8c27f0	0.017108887
85	0x3a94cc54	0.0011352398
86	0x39808902	0.0002451614
87	0x3e0a3d4d	0.13499947
88	0xbd54ed0f	-0.05198389
89	0x3c92f63a	0.017939676
90	0x3bf7f053	0.0075664907
91	0x3da7c194	0.08191219
92	0x3bfe0941	0.007752568
93	0x3e5f4e3d	0.2180719
94	0xbd05dfe8	-0.032684237
95	0x3c450f66	0.012027597
96	0xbcc42565	-0.023943612
97	0x3cb7a294	0.02241639
98	0xbdc4854b	-0.09595736
99	0xbdbf3af8	-0.09337419
100	0xbda3c24f	-0.07996046
101	0x3d8adee9	0.06780798
102	0xbdd75090	-0.10513413
103	0xbdf3e3cd	-0.11908684
104	0xbd7bde81	-0.061491493
105	0xbdd0e9e7	-0.10200863
106	0xbda400fe	-0.08008002
107	0xbc265823	-0.010152849
108	0xbbd03fd8	-0.006355267
109	0x3d0d9b93	0.034572195
110	0xbd2a5698	-0.04158649
111	0xbd5c9b62	-0.053859122
112	0xbd6c6ca4	-0.057720795
113	0xbceb2ad2	-0.028706942
114	0xbd667e7e	-0.056272976
115	0x3d26b5f0	0.040700853
116	0x3bf177c0	0.0073690116
117	0xbd93f8d9	-0.07225198
118	0xbc21ab9e	-0.009867577
119	0x3dfe45a1	0.124156244
120	0xbc5f81df	-0.0136418035
121	0xbcdc5d39	-0.02689992
122	0xbd5cb799	-0.05388603
123	0xbdacfab8	-0.08446258
124	0x3d05e105	0.0326853
125	0xbd478e2b	-0.048719566
126	0xbccf78f3	-0.025326228
127	0xbe1d5d9f	-0.15367745
128	0x3cee42f1	0.029084655
129	0xbd8f846d	-0.0700768
130	0xbdf628ac	-0.12019476
131	0xbd981505	-0.07425884
132	0xbd8c576a	-0.068526104
133	0xbdcc1bb3	-0.09966221
134	0xbd562626	-0.052282475
135	0xbc47f388	-0.0122040585
136	0xbe035ac1	-0.12827589
137	0xbd33dd3b	-0.043912154
138	0xbe13a4e1	-0.14418365
139	0xbdbac665	-0.09119872
140	0x3d2307f9	0.039802525
141	0xbd37d438	-0.044880122
142	0xbcf224db	-0.02955859
143	0x3cff3fb0	0.031158298
144	0xbc5b8e63	-0.013400647
145	0x3d8b315a	0.067965224
146	0xbd17ad14	-0.037030295
147	0xbdf72e3b	-0.12069365
148	0xbdf637a0	-0.120223284
149	0xbc016309	-0.007897147
150	0xbacf6f6b	-0.0015826052
151	0xbcd20752	-0.025638256
152	0xbc1253d2	-0.008931117
153	0xbc894403	-0.016756063
154	0xbcda4ddd	-0.026648456
155	0x3cd1027a	0.025513876
156	0x3d2b6547	0.041844632
157	0xbd526472	-0.051365323
158	0x3d17e37c	0.03708218
159	0x3c86cb96	0.0164545
160	0xbe0e1a7b	-0.13877289
161	0xbd2f7bdd	-0.042842735
162	0x3cf047e5	0.029331157
163	0x3a4a0f86	0.00077080016
164	0x3cbd3c08	0.023099914
165	0xbd867e39	-0.06567044
166	0xbd96e0e5	-0.07367114
167	0xbc474ad3	-0.012163836
168	0xbdf3407c	-0.11877534
169	0xbd06f14f	-0.032944974
170	0xbd84255b	-0.064524375
171	0xbc46475f	-0.012101977
172	0xbde8d8c4	-0.1136947
173	0xbda2a2f8	-0.0794124
174	0xbd950fea	-0.07278426
175	0xbcf690bb	-0.03009831
176	0xbcebb883	-0.028774505
177	0xbd365983	-0.04451896
178	0xbdd978a4	-0.106187135
179	0xbd71b0cf	-0.05900651
180	0x3ce16bd3	0.027517235
181	0xbd222ce5	-0.039593596
182	0xbd77daf7	-0.060511556
183	0xbdb0c3fc	-0.08631131
184	0x3c94705a	0.01811998
185	0xbce87ca1	-0.02837974
186	0x3b24aa16	0.0025125793
187	0x3ca9206f	0.020645348
188	0xbdb7e2ed	-0.089788295
189	0xbd068944	-0.03284575
190	0x3c916f9d	0.017753417
191	0xbc92d606	-0.01792432
192	0xbd71c825	-0.059028763
193	0xbc870e91	-0.016486438
194	0xbd2f689b	-0.04282437
195	0xbe384adf	-0.17997311
196	0xbd20ff1d	-0.039305795
197	0xbd5ccb39	-0.053904746
198	0xbd46607a	-0.04843185
199	0xbe336ad3	-0.17521219
200	0x3e2bd52c	0.16780537
201	0xbd597aab	-0.0530955
202	0xbe2fffbe	-0.17187402
203	0xbd472d2f	-0.048627075
204	0xbdae4a5e	-0.08510278
205	0xbd0224ed	-0.031773496
206	0xbd1d4050	-0.03839141
207	0x3c474cc9	0.012164303
208	0xbd56efb8	-0.052474707
209	0x3d113a77	0.035456147
210	0xbd232a0b	-0.039835017
211	0xbd640b84	-0.055675045
212	0xbe039753	-0.12850694
213	0xbe0a00a5	-0.13476808
214	0xbda99e6e	-0.08282171
215	0xbdf8f68c	-0.121564
216	0xbd969ea7	-0.07354479
217	0x3ccb0dae	0.024786796
218	0xbd5cdd55	-0.053922016
219	0xbd90eba3	-0.07076194
220	0xbd5e6ca2	-0.05430282
221	0xbd785697	-0.060629454
222	0xbd9e6556	-0.07734172
223	0x3d14386a	0.036186613
224	0xbdcfd35d	-0.10147736
225	0x3d02dddb	0.03194986
226	0xbe078959	-0.13235988
227	0xbcec8b70	-0.028875083
228	0xbcdb04d8	-0.026735708
229	0x3b268a0c	0.0025411872
230	0xbdc23937	-0.09483569
231	0x3bc39a3b	0.0059693134
232	0xbcf930ae	-0.03041872
233	0xbd3b8596	-0.045781694
234	0xbcb89353	-0.022531187
235	0x3c390716	0.011293193
236	0xbd525e20	-0.051359296
237	0xbc0336f2	-0.008008705
238	0xbbf4da6e	-0.007472328
239	0xbdab64c7	-0.08368831
240	0xbc71828c	-0.014740597
241	0xbd0d1b61	-0.03444994
242	0xbb31abb1	-0.0027110393
243	0xbd27258d	-0.040807296
244	0xbd78e946	-0.060769342
245	0xbcff0d9c	-0.03113442
246	0xbd356332	-0.044284053
247	0x3b9398b7	0.004504289
248	0xbd8db2e2	-0.06918885
249	0xbc2468a9	-0.010034719
250	0xbc33749b	-0.010953094
251	0xbd274c67	-0.040844347
252	0xbd81a748	-0.063307345
253	0xbcf419ad	-0.0297974
254	0xbc9e46fe	-0.019320961
255	0xbdd7445f	-0.105110876

fc.4.weight f4 [128, 256]
0	0xbdd77fc6	-0.10522418
1	0x3d14bfba	0.036315657
2	0x3cb6de2f	0.022322742
3	0x3b8a5b46	0.0042223064
4	0x3d1306b4	0.035895064
5	0x3c23ca88	0.009997018
6	0x3cb9f64a	0.022700448
7	0x3e126356	0.14295706
8	0xbc07f779	-0.008298748
9	0x3d7ca5a0	0.06168139
10	0xbc4483c6	-0.011994308
11	0x3d002731	0.031287376
12	0x3cd45ce1	0.025923194
13	0x3d46c840	0.048530817
14	0xbb818eb1	-0.0039537777
15	0xbceca1b7	-0.028885705
16	0xbd0d2f7b	-0.03446911
17	0x3c4abb79	0.0123737985
18	0xbd437862	-0.047722228
19	0x3d9022b2	0.070378676
20	0x3da6d6fa	0.08146472
21	0x3bf8af0a	0.0075892257
22	0xbd277c54	-0.040890053
23	0xbe0f77a2	-0.1401048
24	0x3d320cf2	0.043469377
25	0x3ec39c32	0.38205105
26	0x3b2dca92	0.0026518446
27	0x3e2eb471	0.1706102
28	0xbc56ba46	-0.0131059345
29	0x3d053a19	0.03252611
30	0x3e3cad4b	0.18425481
31	0x3bb1c6f4	0.0054253284
32	0xbcd8acaf	-0.02644953
33	0xbc89e7de	-0.016834196
34	0x3c6068a0	0.01369682
35	0x3a6f0331	0.0009117602
36	0x3c97a107	0.018509401
37	0xbb2074fd	-0.0024483793
38	0x3d5cb87c	0.053886876
39	0x3c9096b4	0.017649986
40	0x3cc7425a	0.024323631
41	0xbcb7723c	-0.022393338
42	0x3d36c563	0.044621836
43	0x3d302f85	0.04301407
44	0xbcab5f97	-0.020919604
45	0xbb521c32	-0.0032060263
46	0x3da75d2d	0.08172069
47	0x3d4a64f9	0.0494127
48	0xbdefe0fa	-0.11712833
49	0x3d19aa6a	0.037516035
50	0x3ce034b9	0.02736889
51	0x3e0222ec	0.12708634
52	0x3b80b030	0.003927253
53	0xbc815d3d	-0.01579153
54	0x3cc0193e	0.023449536
55	0x3df0cc3f	0.11757707
56	0x3c986bcd	0.01860609
57	0xbd8cfe50	-0.06884444
58	0xbd5a2acf	-0.05326348
59	0xbdc1316f	-0.09433257
60	0x3e014d99	0.12627257
61	0x3da28749	0.0793596
62	0xbc9677d3	-0.018367684
63	0xbbdc2462	-0.0067182044
64	0x3d3b22c8	0.045687467
65	0xbc6ec2e8	-0.014572836
66	0x3cc520a3	0.024063414
67	0x3d1e4b8f	0.038646277
68	0xbcf3eb5f	-0.02977532
69	0x3db1fb51	0.08690513
70	0xbd2a3dac	-0.04156272
71	0x3c3067a4	0.010766897
72	0x3df6a3e4	0.120429784
73	0x3e0bc621	0.13649799
74	0x3b3eb512	0.0029099626
75	0x3eedf773	0.4647785
76	0xbdeaf2a0	-0.11472058
77	0x3ba37690	0.004988499
78	0x3e42c6b0	0.19021106
79	0xbd65f525	-0.05614199
80	0x3d0fe984	0.035134807
81	0x3cd1cc58	0.025610134
82	0x3d7d4609	0.06183437
83	0x3b977be0	0.0046229213
84	0x3bfd4b1b	0.0077299005
85	0x3d609e27	0.054838326
86	0x3c3e6c2d	0.011622471
87	0x3b5bbfe9	0.0033531135
88	0x3d874bea	0.06606276
89	0xbc23dc88	-0.010001309
90	0x3d3f9cc0	0.046780348
91	0xbce06469	-0.02739163
92	0x3d204adb	0.039133888
93	0xbd77be89	-0.060484443
94	0xbc960712	-0.018313918
95	0x3d6a48fa	0.057198502
96	0xbd1bfcf4	-0.03808303
97	0xbd61fed1	-0.055174652
98	0x3cf5ac59	0.029989408
99	0xbd491a11	-0.049097124
100	0xbd4709e9	-0.048593435
101	0x3e1d4008	0.15356457
102	0x3d9f10c4	0.0776687
103	0x3cb63989	0.022244232
104	0x3e37218d	0.17883892
105	0x3cd59cc9	0.026075738
106	0x3cd53ad2	0.026029024
107	0x3c8de7e0	0.01732248
108	0x3d6aa14d	0.057282735
109	0xbd44b3fe	-0.048023216
110	0xbc4cb368	-0.012493946
111	0xbcdb49b5	-0.026768545
112	0x3d2436c1	0.04009128
113	0xbd109e4f	-0.035307225
114	0x3c9760f4	0.018478848
115	0x3cf008c6	0.029301059
116	0xbc413653	-0.011792737
117	0xbcbf6dd8	-0.023367807
118	0x3f16c905	0.5890048
119	0xbddff990	-0.10936272
120	0x3d54a622	0.05191625
121	0xbcb4365d	-0.021998579
122	0x3e1fc633	0.15602951
123	0xbd6f2aa8	-0.05839029
124	0x3dbe9e21	0.093075044
125	0xbdb41e13	-0.08794799
126	0xbd0b6e4d	-0.034040738
127	0x3a860909	0.0010226081
128	0xbd0bc7b3	-0.034125995
129	0x3d8af5f5	0.06785194
130	0x3e03571e	0.12826201
131	0x3d034ddc	0.032056674
132	0xbd9a61c6	-0.0753818
133	0x3d1935d9	0.03740487
134	0x3ca55227	0.020180775
135	0xbce9cbc9	-0.028539555
136	0x3db22f82	0.08700468
137	0x39947b37	0.00028320562
138	0x3ca7db33	0.020490265
139	0xbc8db0c4	-0.017296202
140	0x3eee630f	0.4655995
141	0xbd8a3cd9	-0.06749887
142	0x3d08a9c0	0.03336501
143	0x3c61d62f	0.0137839755
144	0x3d70362c	0.058645412
145	0x3db944db	0.09046336
146	0xbc084e3e	-0.008319436
147	0x3c93115c	0.017952614
148	0x3c25a6aa	0.010110537
149	0x3d448e44	0.047987238
150	0x3e0ea394	0.13929588
151	0xbc0364d6	-0.008019647
152	0x3d605f91	0.05477864
153	0x3cdc3c8b	0.026884338
154	0xbd3e670f	-0.046485003
155	0x3d61d505	0.055134792
156	0xbcb1b891	-0.021694453
157	0xbd0bdc7b	-0.034145813
158	0xbddfa66d	-0.10920415
159	0x3c9cb636	0.019129854
160	0x3d8b4650	0.068005204
161	0x3c06105d	0.008182612
162	0xbc765c1f	-0.015036612
163	0xbc96afe9	-0.018394427
164	0x3cbb91e1	0.022896709
165	0xbd0cd40d	-0.034381915
166	0xbdabf4f9	-0.08396334
167	0x3d582468	0.052769095
168	0x3cab8fd1	0.0209426
169	0xbc013a62	-0.007887455
170	0x3cc79783	0.024364239
171	0x3d28f7ad	0.041251827
172	0xbd16cd9c	-0.036817178
173	0x3dd0c388	0.101935446
174	0x3dab4c52	0.08364166
175	0x3b329b47	0.0027253197
176	0x3c0acd97	0.008471868
177	0x3e20e267	0.15711366
178	0x3c78c89a	0.015184546
179	0xbd726454	-0.05917771
180	0xbdffcae5	-0.12489871
181	0x3c2eb3d1	0.010662989
182	0x3cdacd77	0.026709301
183	0x3d973237	0.073826246
184	0x3d1de1a4	0.038545266
185	0x3c53b3a3	0.012921247
186	0xbcb824b9	-0.022478448
187	0x3d5f1e50	0.054472268
188	0x3dd12b35	0.10213319
189	0x3d828e26	0.06374769
190	0x3da37689	0.07981593
191	0xbcb1f607	-0.02172376
192	0xbc18abc7	-0.009318299
193	0xbcb97e65	-0.022643277
194	0xbcb7e1a0	-0.022446454
195	0xbc363078	-0.011119954
196	0xbd6d5ac8	-0.057947904
197	0xbc8c5671	-0.017131062
198	0xbb0e4242	-0.0021706973
199	0xbd9c99b1	-0.07646502
200	0xbecd181c	-0.40057456
201	0xbc9bf62e	-0.019038286
202	0x3d14172c	0.03615491
203	0xbd4b5cf8	-0.04964921
204	0xbdcdcb4a	-0.1004854
205	0x3d244e52	0.040113755
206	0xbc945f18	-0.01811175
207	0x3d658862	0.056038268
208	0xb99bd800	-0.00029724836
209	0x3d04874d	0.032355595
210	0x3d77963c	0.06044601
211	0x3c812883	0.015766388
212	0x3c009feb	0.007850627
213	0x3d15be06	0.036558174
214	0x3cc43580	0.023951292
215	0xbd2f4bfd	-0.042797077
216	0xbcd5cc3e	-0.026098367
217	0xbccb0f55	-0.024787584
218	0x3e10e968	0.14151537
219	0xbc1cced0	-0.009570792
220	0x3cc9d058	0.024635479
221	0x3d8aa427	0.06769591
222	0xbd8fec7a	-0.07027526
223	0xbc773d25	-0.015090262
224	0x3e0ac031	0.13549878
225	0xbcebc15b	-0.028778723
226	0x3ceded5e	0.02904385
227	0xbdd7d24a	-0.10538156
228	0x3d8e47d3	0.06947293
229	0xbd694405	-0.056949634
230	0x3d037386	0.032092594
231	0x3d20d298	0.039263338
232	0x3cb36a44	0.021901257
233	0xbc704bee	-0.014666541
234	0x3c43fc4d	0.011962009
235	0xbc8b1a24	-0.016980238
236	0xbc9a3c8e	-0.018827703
237	0xbd77bf95	-0.06048544
238	0xbd422d3a	-0.047406413
239	0x3c886a0e	0.016652133
240	0xbdb5a0c7	-0.088685565
241	0x3d1e89b9	0.03870556
242	0x3c607ea0	0.013702065
243	0xbd34688c	-0.044045016
244	0x3d9ae096	0.075623676
245	0xbbd5ed17	-0.0065285075
246	0x3d78a953	0.060708355
247	0x3d095891	0.03353173
248	0x3b876ea1	0.004133061
249	0xbc1fbfc4	-0.00975031
250	0x3d23b2c5	0.03996541
251	0x3d5eb7d9	0.05437455
252	0xbdb04382	-0.08606626
253	0x3be81b63	0.007083343
254	0xbd3cbfd1	-0.046081368
255	0x3d5af566	0.053456686

fc.4.bias f4 [128]
0	0xbdda0316	-0.1064512
1	0xbe403177	-0.1876887
2	0x3ad0bb0d	0.0015924886
3	0xbdfdc4cb	-0.12391051
4	0x3c2b30b2	0.010448622
5	0xbda26a0d	-0.07930384
6	0xbe1f3b75	-0.15550025
7	0xbe11f08d	-0.14251919
8	0xbd80bc86	-0.06285958
9	0xbe2aa299	-0.16663589
10	0xbe0b7ecf	-0.13622592
11	0xbe0d4771	-0.13796784
12	0xbe0b7c7a	-0.13621703
13	0xbe509306	-0.20368585
14	0xbe8d8b82	-0.276455
15	0xbdb534ce	-0.08847962
16	0xbe0c8af9	-0.13724889
17	0xbe43d226	-0.19123134
18	0xbda88024	-0.08227566
19	0xbe541b4f	-0.20713542
20	0xbd85b4a8	-0.06528598
21	0x3e89ab7d	0.26888648
22	0xbde128dc	-0.109941214
23	0x3d083cf1	0.033261243
24	0xbe2e2aa3	-0.17008452
25	0xbe25cb66	-0.16190872
26	0x3e33e99f	0.17569588
27	0xbe15e454	-0.14637882
28	0xbdaca7ec	-0.08430466
29	0xbc10ef42	-0.008846106
30	0xbe1921d2	-0.14954308
31	0xbdf7ac4e	-0.120934114
32	0x3e0bf3b7	0.13667189
33	0xbdff9649	-0.124798365
34	0xbdec3836	-0.11534159
35	0xbcd65d89	-0.026167648
36	0xbe01dd2d	-0.12682028
37	0xbd942139	-0.07232899
38	0xbe1edcc5	-0.15513904
39	0xbdc8ef27	-0.0981124
40	0xbbec5a4e	-0.0072129136
41	0xbe5faf48	-0.21844208
42	0xbe1809e6	-0.14847526
43	0xbd1fe0e4	-0.03903283
44	0xbd615b4b	-0.055018704
45	0xbe301df6	-0.17198929
46	0xbd4cc96c	-0.04999678
47	0xbdbe7b52	-0.09300865
48	0x3cf2ae7c	0.029624216
49	0xbe0abae6	-0.13547859
50	0x3ca960af	0.020675985
51	0xbd5c62ea	-0.05380527
52	0xbe2234b5	-0.15840419
53	0xbd214768	-0.03937474
54	0xbdb0f709	-0.08640868
55	0x3bbf7a05	0.0058434033
56	0xbc571c93	-0.013129371
57	0xbdb47eb9	-0.08813233
58	0xbde3643f	-0.11103105
59	0xbd64862b	-0.055792015
60	0xbe6e1d02	-0.23253253
61	0xbdae6267	-0.085148625
62	0xbd77211e	-0.060334317
63	0xbca9d05d	-0.020729238
64	0xbc801aa0	-0.015637696
65	0xbe197cdd	-0.14989038
66	0xbea5d688	-0.32390237
67	0xbe134e96	-0.14385447
68	0xbdb2e3e7	-0.08734875
69	0xbd73a2f4	-0.059481576
70	0xbe2683bc	-0.1626119
71	0xbd402415	-0.04690941
72	0xbe00e87b	-0.12588684
73	0xbe01296f	-0.12613462
74	0xbcc028f8	-0.023457035
75	0xbdb320b5	-0.08746473
76	0xbe803206	-0.25038165
77	0xbdbbd8e5	-0.09172229
78	0xbe263caf	-0.16234086
79	0x3d53aeb6	0.05168029
80	0xbe25475d	-0.16140504
81	0xbdcee49a	-0.10102196
82	0x3df76ee2	0.12081696
83	0xbece9845	-0.40350547
84	0xbe3dbb88	-0.18528569
85	0x3e229997	0.15878902
86	0xbe7b0c6a	-0.24516454
87	0xbdbf40af	-0.09338509
88	0xbc915e41	-0.01774514
89	0xbd523a2e	-0.051325016
90	0xbe1a8192	-0.1508849
91	0xbe1d8ab3	-0.15384941
92	0x3c2039b5	0.009779383
93	0xbe2d0f23	-0.16900305
94	0xbdc04a13	-0.093891285
95	0xbe428dd1	-0.18999411
96	0xbe920670	-0.28520536
97	0x3c37a5a3	0.011208924
98	0xbddc0a2b	-0.10744127
99	0xbe0c016d	-0.13672419
100	0xba833d59	-0.001001279
101	0x3d3f9a2f	0.0467779
102	0xbd965c90	-0.07341874
103	0x3e1d5c58	0.15367258
104	0xbe07ad76	-0.13249764
105	0xbdc6ab46	-0.097006366
106	0xbb472688	-0.0030387957
107	0x3e0626d6	0.13100752
108	0x3e078ada	0.13236561
109	0xbd328848	-0.043587
110	0xbe0c2293	-0.13685064
111	0xbdf6af40	-0.12045145
112	0xbe80b051	-0.2513452
113	0xbe654f29	-0.22393478
114	0xbe837834	-0.25677645
115	0xbd3ef0f5	-0.046616513
116	0xbead5cd1	-0.33859876
117	0xbe0f27ca	-0.13980022
118	0xbe1cf7ba	-0.15328875
119	0xbda05623	-0.07828929
120	0xbe8b7892	-0.27240425
121	0xbd19852c	-0.03748052
122	0xbe5105ea	-0.20412412
123	0x3c9d4455	0.019197622
124	0xbd97bb9b	-0.0740883
125	0xbe073e65	-0.13207395
126	0xbe1a9653	-0.15096407
127	0xbc8b4f5f	-0.01700562

fc.6.weight f4 [10, 128]
0	0x3bda5c76	0.0066638542
1	0x3ae862de	0.001772966
2	0x3b96ebe9	0.0046057594
3	0xbd911d24	-0.07085636
4	0xbcaf6aa6	-0.021413159
5	0x3dd5aa13	0.1043283
6	0xbd82c0da	-0.0638444
7	0x3b96970b	0.0045956424
8	0x3d2ae63e	0.041723482
9	0xbdc43aa0	-0.09581494
10	0xbd68281c	-0.056678876
11	0x3d72550e	0.059163146
12	0x3d1a504e	0.03767424
13	0xbd195c49	-0.037441526
14	0x3e12a8ad	0.14322157
15	0xbd998ab9	-0.07497162
16	0xbb4ebc44	-0.003154532
17	0xbb16d073	-0.002301243
18	0xbdc3b93f	-0.09556817
19	0x3bad5744	0.005289944
20	0xbc9f5279	-0.019448506
21	0xbcbdc307	-0.023164285
22	0x3d2b6184	0.041841045
23	0xbc248ef1	-0.0100438455
24	0x3d6631c2	0.056199796
25	0x3df57839	0.11985821
26	0x3e0d8f00	0.13824081
27	0x3e1a5f7d	0.15075488
28	0x3cb4546b	0.02201291
29	0xbd19b59e	-0.03752672
30	0x3d004932	0.031319804
31	0xbc160f11	-0.009158866
32	0xbde51f21	-0.11187578
33	0x3cb3617b	0.021897068
34	0x3cd29976	0.025707942
35	0xbde851d7	-0.11343735
36	0xbc3b6ea5	-0.011439954
37	0xbc3c883f	-0.011507093
38	0xbd58fc4e	-0.05297499
39	0x3dc5cbe1	0.096580274
40	0xbcde565b	-0.027140787
41	0x3d1972af	0.037462886
42	0xbd231502	-0.039814956
43	0xbcd917c1	-0.026500585
44	0x3c039399	0.0080307955
45	0x3ea19dbd	0.31565657
46	0x3d7f20ab	0.062287014
47	0x3d093ee0	0.033507228
48	0xbdfce411	-0.12348188
49	0xbd75fee2	-0.06005753
50	0x3d8423ff	0.06452178
51	0xbb7885d8	-0.0037921574
52	0xbd5beb60	-0.053691268
53	0x3caeb34e	0.021325734
54	0xbd083597	-0.033254232
55	0x3d3f3164	0.046677962
56	0xbdee2dda	-0.11629839
57	0x3b2567a5	0.002523878
58	0xbce0138a	-0.027353067
59	0xbd220157	-0.03955206
60	0x3de8aa6c	0.113606304
61	0x3bec46a1	0.007210568
62	0xbbebd102	-0.0071965465
63	0xbda3168f	-0.07963287
64	0x3d23a354	0.039950684
65	0x3bbaf4d8	0.005705457
66	0x3d928a5c	0.07155296
67	0xbd5110fd	-0.051041592
68	0xbd880767	-0.06642037
69	0xbb393206	-0.0028258576
70	0x3cb9c8c7	0.022678746
71	0xbd43bcdf	-0.047787543
72	0x3cdfcb15	0.027318517
73	0xbd028d1c	-0.031872854
74	0x3e0b0f45	0.13580044
75	0xbda5a9b4	-0.08089009
76	0xbc75b3e2	-0.014996501
77	0x3d76c817	0.060249414
78	0xbd4df426	-0.050281666
79	0xbe52214f	-0.20520519
80	0x3bab016b	0.005218675
81	0xbc46e2ad	-0.012139005
82	0x3d8f94a4	0.07010773
83	0xbdd36f96	-0.10324018
84	0x3e0a15c5	0.13484867
85	0xbea165f1	-0.31523088
86	0xbd6d5bd7	-0.057948913
87	0x3da86b17	0.08223551
88	0xbba857a6	-0.0051374016
89	0x3d04ee1b	0.032453638
90	0x3e25a236	0.1617516
91	0x3c4c3448	0.012463637
92	0x3da96d99	0.08272857
93	0xbb421c4f	-0.0029618924
94	0xbd2bee8d	-0.041975547
95	0xbcbab3b8	-0.022790775
96	0x3d336a6e	0.04380267
97	0x3e3fd981	0.18735315
98	0xbe27ba8b	-0.16379754
99	0xbd83dc83	-0.06438544
100	0x3cf3fafb	0.029782763
101	0x3d860cde	0.06545423
102	0xbd0fcc37	-0.035106864
103	0xbe02075a	-0.12698117
104	0x3d328123	0.043580186
105	0x3dbc7bcc	0.092033
106	0xbcd72729	-0.02626379
107	0xbe4f0029	-0.20214905
108	0xbe8300fe	-0.25586694
109	0x3dfa1d57	0.122126274
110	0xbd8693ce	-0.0657116
111	0x3d3f30e9	0.046677504
112	0x3c9f40ad	0.01944002
113	0x3dc53915	0.09630028
114	0x3d18c735	0.037299354
115	0x3d5f2a2b	0.054483574
116	0x3cef4520	0.029207766
117	0x3cf7747d	0.030206913
118	0xbd9407a3	-0.07228019
119	0xbd998f7d	-0.07498071
120	0x3d6dc3e0	0.05804813
121	0x3da4a42a	0.08039124
122	0x3c4e2156	0.01258119
123	0xbe278068	-0.16357577
124	0x3d7bcea2	0.061476357
125	0x3d5b3c6f	0.05352443
126	0x3d0bcb14	0.034129217
127	0xbe40cb77	-0.18827616
128	0x3d595a1c	0.05306445
129	0x3cc8e1d1	0.02452174
130	0xbd14a99e	-0.036294572
131	0xbdcb3784	-0.09922698
132	0x3c9c7a2a	0.019101221
133	0x3c04fb34	0.008116532
134	0xbcd1ae26	-0.025595736
135	0x3c4c08a8	0.012453236
136	0xbca9a0e3	-0.0207066
137	0xbb41d238	-0.0029574763
138	0x3ddafbdf	0.10692572
139	0xbd0a569c	-0.033774003
140	0x3d872ff2	0.06600942
141	0x3d9476e2	0.072492376
142	0xbdcb2aa0	-0.099202394
143	0x3b4c83e5	0.0031206545
144	0x3dfb6217	0.122745685
145	0x3d1957c9	0.037437234
146	0x3ba22b09	0.004948978
147	0x3d3f786c	0.046745703
148	0x3d24f01c	0.04026805
149	0xbe11fa6a	-0.14255682
150	0x3d34f454	0.044178322
151	0xbd2dddc4	-0.04244782
152	0xbdde28ca	-0.10847624
153	0xbda861d3	-0.082217835
154	0xbe7924d6	-0.24330458
155	0xbd1bdf2b	-0.038054626
156	0xbd28c5b5	-0.041204173
157	0xbcc4c296	-0.024018567
158	0x3b1404b5	0.0022585813
159	0x3d39990b	0.04531197
160	0xbebc451a	-0.3677147
161	0xbc062712	-0.008188026
162	0xbca46d4b	-0.020071646
163	0x3dfc9cd7	0.12334602
164	0xbd9e9e3f	-0.07745027
165	0x3c3bdd63	0.011466357
166	0x3c1cf4f6	0.009579888
167	0xbcbfa98d	-0.023396278
168	0x3c89f41b	0.016840031
169	0x3d44fd97	0.048093405
170	0xbbee85d7	-0.0072791385
171	0x3d801604	0.06254199
172	0xbdd9e9a1	-0.10640264
173	0x3e1e380a	0.15451065
174	0xbd261df3	-0.040555906
175	0xbd629786	-0.055320285
176	0x3d22a0d7	0.03970417
177	0x3d0af4ec	0.033924982
178	0xbe136cf5	-0.14397033
179	0x3caf95e8	0.021433786
180	0x3d406e7e	0.046980374
181	0x3d1dbc12	0.038509436
182	0xbc8a0a7b	-0.0168507
183	0xbdade076	-0.08490078
184	0x3de5e139	0.112245984
185	0xbdcce9e3	-0.10005548
186	0x3cdbd17b	0.026833287
187	0xbce0be41	-0.02743447
188	0xbd9f6172	-0.07782258
189	0x3d652552	0.055943795
190	0x3db05dc4	0.086116344
191	0x3d6988b9	0.057015155
192	0x3d4e10b0	0.050308883
193	0xbc387bc1	-0.011259974
194	0xbd3f5057	-0.046707477
195	0x3d08b3bc	0.033374533
196	0x3c8b3a02	0.016995434
197	0xbb999254	-0.004686633
198	0x3a6acfbf	0.0008957348
199	0xbd37be12	-0.044859
200	0x3c78868e	0.015168799
201	0xbcbcc2f1	-0.023042174
202	0xbc0bd76f	-0.00853525
203	0xbbacc073	-0.005271965
204	0x3e0522a8	0.13001502
205	0x3d85299f	0.06502079
206	0xbd333e52	-0.043760605
207	0x3d9d8616	0.076915905
208	0xbdb2df6a	-0.08734019
209	0xbc6c4146	-0.014419859
210	0xbd1f1b0f	-0.038844164
211	0xbb666662	-0.003515624
212	0xbde23b73	-0.11046495
213	0x3de903aa	0.11377652
214	0x3d1e6209	0.038667712
215	0xbc3d88cd	-0.01156826
216	0xbc16e2cb	-0.009209345
217	0xbd2c42d3	-0.042055916
218	0xbcf570c2	-0.029960994
219	0xbd537d61	-0.051633243
220	0xbd894d18	-0.067041576
221	0x3c900564	0.017580695
222	0xbdfbcf97	-0.12295454
223	0x3cd92ac2	0.026509646
224	0xbd190cb2	-0.037365623
225	0xbde9b334	-0.114111334
226	0x3de4a94f	0.111651056
227	0xbe4e9fb4	-0.2017811
228	0xbd9eb90a	-0.07750137
229	0xbd3b569f	-0.045736905
230	0xbc5a7ef4	-0.013335932
231	0xbd693783	-0.056937706
232	0xbd9fc9ec	-0.078021854
233	0x3c1d1bee	0.0095891785
234	0xbd18d785	-0.03731491
235	0x3d2c3280	0.042040348
236	0x3d083d5b	0.033261638
237	0xbcd1f844	-0.025631078
238	0xbd6fd7a6	-0.058555268
239	0x3b881899	0.004153323
240	0x3d83d081	0.06436253
241	0x3bc84c93	0.006112644
242	0x3d1a08bf	0.037605997
243	0xbd9d1a55	-0.07671038
244	0x3da114e7	0.07865315
245	0xbd43c6cb	-0.047797006
246	0xbc998470	-0.018739909
247	0x3d6719d1	0.056421105
248	0x3b8223c2	0.003971548
249	0xbde69a2a	-0.11259873
250	0xbd0b5a98	-0.034021944
251	0xbb264520	-0.0025370792
252	0x3ad07cc7	0.0015906327
253	0x3dcd4579	0.100230165
254	0x3dcfb3e3	0.101417325
255	0x3dbf3c64	0.093376905

fc.6.bias f4 [10]
0	0x3d110192	0.03540189
1	0xbc456031	-0.01204686
2	0xbe304b50	-0.1721623
3	0x3d59724c	0.053087518
4	0xbd745206	-0.059648536
5	0x39fb8422	0.00047972897
6	0x3d6d71ff	0.057970043
7	0xbc6918de	-0.01422712
8	0x3d493787	0.04912522
9	0x3dbd8153	0.09253182
