checkpoints/best_model.pth (torch, 137954 bytes, 34 tensors)

model.0.weight f4 [128, 1]
000000 6e cb 98 bc 88 f9 a3 3c 58 14 b0 bc a4 d3 9c 3c
       -0.01865169 0.020016447 -0.021494076 0.019143887
000010 a2 d0 ab bc 82 24 a5 3c 99 96 be 3c 4a 43 9b 3d
       -0.020973507 0.02015901 0.02326517 0.07581194
000020 db 7b af bc 29 cc 5c bc bf 5f a0 3d 7c 41 e8 3d
       -0.021421364 -0.01347641 0.07830762 0.11340615
000030 db 34 ba bc b1 f6 26 3d 85 d2 3d 3c e3 84 c4 3d
       -0.022730282 0.040762607 0.011585836 0.09595659
000040 c7 74 70 3c d7 f5 39 be 06 e3 d1 bc fd bd b1 3c
       0.014676279 -0.18160187 -0.025620949 0.021697039
000050 2b 3c c6 bc 4c 91 21 3e 4c 1a b1 bc 60 4a d6 3c
       -0.024198612 0.15778083 -0.021618985 0.026158512
000060 20 99 b8 3d 53 b1 01 bc d8 c7 70 bc de 1a 95 3c
       0.09013581 -0.007915813 -0.014696084 0.018201288
000070 8a e6 a1 bc 53 16 af 3c 7f a5 bf bc 46 cb 5d 3d
       -0.01976325 0.02137295 -0.023394344 0.054148935
000080 1f cb b1 3c 79 b0 a3 3c 9b e3 4d 3d 3e 21 d8 3c
       0.021703301 0.01998161 0.05026589 0.026383039
000090 bb d1 aa bc f8 8b b1 3b 77 a9 77 bc c8 64 64 be
       -0.02085196 0.005418297 -0.015116087 -0.2230407
0000a0 a0 42 b4 bc 67 0a 89 3c 0a da 8f bc 60 ee a0 3c
       -0.022004426 0.016728593 -0.017560024 0.019644916
0000b0 d3 c2 d2 3d 3c 56 84 bc b2 8b 38 3d 2e 00 bf 3c
       0.10291066 -0.016154401 0.0450551 0.023315515
0000c0 1b 57 15 bd 45 4e 76 3c 9a 16 d9 bc 6d ac b9 3d
       -0.036460023 0.015033309 -0.026500035 0.09066091
0000d0 6e fc 65 3d bb 82 74 3d 2d ee fb bd c1 13 d4 3c
       0.05614894 0.059694987 -0.12301288 0.025888326
0000e0 d9 cc c4 3c c9 9e 70 be 98 ab 6e bc 34 05 ca 3d
       0.02402346 -0.23498072 -0.014567278 0.09864274
0000f0 fb 51 46 3e 08 dd 9c bc e8 4a ac bc 39 fe b0 bc
       0.1936721 -0.019148365 -0.021031812 -0.021605598
000100 fa 5a b9 bc 10 51 23 bd 7b 23 b9 bc 1e aa 61 3e
       -0.022626389 -0.03987223 -0.022599926 0.22037551
000110 e3 61 cd 3d 50 b1 6d be f6 36 30 3c 44 9b c2 bc
       0.10028436 -0.2321217 0.010755291 -0.023755677
000120 87 9e 7c bc 9b db 0c be be 38 80 3d 89 3d ec 3c
       -0.015418655 -0.13755648 0.06260823 0.028837936
000130 55 60 99 bd 56 a0 db 3c 85 a4 1a 3e 89 c0 6c be
       -0.07489077 0.026809853 0.15101822 -0.23120321
000140 a5 df 8d 3d 8b a5 b6 bd 67 b0 a9 bc 05 3f 42 3e
       0.069274224 -0.089182936 -0.020713998 0.18969353
000150 dd 8f 63 be ea 64 b7 bc 16 3c cc 3c ba 43 dd bc
       -0.22222848 -0.022386987 0.024930995 -0.027009834
000160 e6 a4 e0 bc 6a 9e dd bc 4d e2 d6 bd 0a a8 31 be
       -0.02742238 -0.027053077 -0.10492382 -0.17349258
000170 07 ef 6f bd 55 bb 9b 3c 34 40 bf bc 4e 8b b8 3d
       -0.058577564 0.019010225 -0.023346044 0.09010945
000180 66 4d a4 3c 7a e6 fb bc c8 cc b1 3c d5 b6 68 be
       0.020056438 -0.030749548 0.021704093 -0.22725995
000190 bf fe b6 bc f9 86 b7 3c 4a 0d c1 3c 11 dc 42 be
       -0.02233827 0.022403227 0.023565907 -0.19029261
0001a0 74 45 9b bc 18 d4 9c 3c 3e ff e2 bc 6d 81 c8 3c
       -0.018954016 0.019144103 -0.0277096 0.024475778
0001b0 b6 15 c3 3d 2c 86 12 be 86 ab 60 3d 36 66 ba 3c
       0.095256254 -0.14308995 0.054851077 0.022753816
0001c0 98 f6 db bd cb a5 c8 3c 0e 3b 53 3d 7b 79 8a bc
       -0.107403934 0.024493119 0.05156999 -0.01690363
0001d0 32 8e ad 3c b5 43 3c be ac e9 b5 3c 12 56 91 bc
       0.021185968 -0.18385203 0.02220615 -0.017741237
0001e0 0f 8b 40 bc f8 84 a6 3c 4f 16 da 3c 0b 58 09 be
       -0.011751904 0.020327076 0.026621966 -0.13412492
0001f0 68 71 22 3e 20 32 9e bc 4e c0 dc 3c 9a 72 21 3e
       0.15863574 -0.01931101 0.026947167 0.15766373

model.0.bias f4 [128]
000000 03 f2 29 35 de fc 9b b4 58 85 56 3c ad ac 41 35
       6.330958e-07 -2.9054985e-07 0.013093315 7.214938e-07
000010 56 99 7d 3d 2e 8d c5 bc 8d 98 dc 34 27 29 fc 33
       0.06191381 -0.024115171 4.108919e-07 1.174215e-07
000020 64 1d 30 3c 85 31 5d bb f8 63 30 be ff 71 cd 3d
       0.010749195 -0.003375144 -0.17225635 0.10031509
000030 74 0f c4 35 a8 e2 5c be 9e 92 b7 3c 61 9a 1e be
       1.4607635e-06 -0.21570837 0.02240878 -0.15488578
000040 7e e3 4a be a4 29 35 b7 42 96 6f be a6 c2 f0 3c
       -0.19813344 -1.0798136e-05 -0.23397163 0.02938969
000050 14 7e 58 bd 6e 76 1b 3e 29 be 95 3b 03 53 dd b7
       -0.052854612 0.15181896 0.004569788 -2.6383908e-05
000060 53 60 de 3d 60 f4 04 3d 23 31 08 39 9c 1e 40 3e
       0.10858216 0.032459617 0.00012988276 0.18761677
000070 de f5 8a b7 f2 fb 7f 3e af 85 b6 3d 3a ef cc 33
       -1.6565373e-05 0.24998453 0.08912217 9.543005e-08
000080 1a 09 8f 3d d1 35 cd bd a3 b7 53 32 09 6c 1c b3
       0.06984158 -0.1002003 1.2323571e-08 -3.6419838e-08
000090 b4 4b e9 39 6f 7b ba 3a 4f 17 29 3e 77 7c 16 b6
       0.00044497626 0.001422746 0.16512798 -2.242419e-06
0000a0 14 76 2e 34 fe 01 4a 3d af ec f9 bd 1f c3 86 34
       1.624797e-07 0.049318306 -0.12203347 2.5101414e-07
0000b0 45 53 29 3e 91 fc f5 bd a0 b2 b7 b3 ac 31 23 b2
       0.16535671 -0.12011064 -8.554093e-08 -9.499143e-09
0000c0 c9 69 02 bc 26 81 6e 3e 83 5b ce b3 68 47 e4 3a
       -0.007959791 0.23291454 -9.6092684e-08 0.00174163
0000d0 d4 ab 83 b3 e8 2e 4c bc 9d 6d 16 37 c1 05 5e b9
       -6.131418e-08 -0.012462355 8.966218e-06 -0.00021173713
0000e0 38 66 49 bd f5 03 d1 bb b7 6f c3 3b 65 88 19 3c
       -0.04916975 -0.0063786455 0.005964245 0.009370898
0000f0 5e f1 b2 b7 80 ce 96 bc ac 7b c0 bd af 1b 1b 35
       -2.1331649e-05 -0.018409014 -0.093985885 5.7782285e-07
000100 51 33 5d bd 5a 9a 2c bc 29 64 37 38 1f 04 ee bd
       -0.054004017 -0.010534847 4.372388e-05 -0.1162188
000110 67 a8 a5 3d 30 56 98 3d cb 45 6a bd 94 34 37 3e
       0.08088761 0.07438314 -0.057195466 0.1789115
000120 b6 8f b1 3d 4a 6a ae bc 91 89 cb 34 65 9e 02 35
       0.08669989 -0.021290917 3.791179e-07 4.865927e-07
000130 22 0f de bc 99 99 ea 37 37 9a 36 be b7 d6 80 33
       -0.027106825 2.7966498e-05 -0.17832266 5.999521e-08
000140 df ab 86 3d 97 f8 85 b3 2d a6 ae b3 c9 c5 8b b9
       0.065757506 -6.238513e-08 -8.1327336e-08 -0.00026659507
000150 64 40 84 b4 e3 f4 24 3e fa 13 3b b9 7d 25 9c bb
       -2.4633766e-07 0.16109042 -0.00017841152 -0.004765211
000160 57 c6 16 be ca aa 27 3e b5 42 3f 3c 2c c4 1b 3e
       -0.14724098 0.16373745 0.011673619 0.15211552
000170 25 44 eb bb 85 05 e4 35 2c e7 c1 bd 4b a9 50 39
       -0.0071797543 1.698893e-06 -0.09467921 0.00019899492
000180 38 ab 14 3b 23 2c 32 bc 2a d4 4b bd c5 32 56 be
       0.0022685062 -0.010874781 -0.049762882 -0.20917805
000190 31 8a a9 b9 c5 a1 91 bb ba f2 5d 3e d9 a1 3f be
       -0.00032337153 -0.0044443333 0.21674624 -0.18714084
0001a0 7e e9 2f 34 82 e8 8d 35 78 37 0a 3b 74 cd 94 3d
       1.6383089e-07 1.0572987e-06 0.002109019 0.072657496
0001b0 cf f8 7f 33 93 29 45 ba 1b 2a d1 bd 51 84 ce 3c
       5.9598104e-08 -0.00075211487 -0.10213109 0.025209578
0001c0 58 9a ee bc ed 5f fc 33 c0 3c 1f 34 c9 8c d9 bc
       -0.029126331 1.1752113e-07 1.483013e-07 -0.02655639
0001d0 bd 99 73 bd 3b 5d f1 3c 81 e2 50 be 5e 44 86 38
       -0.059472788 0.029463401 -0.20398904 6.402352e-05
0001e0 68 e5 38 35 93 83 8b bc 53 5d 88 36 2d 47 52 bb
       6.887917e-07 -0.017030513 4.06398e-06 -0.003208588
0001f0 72 01 09 bb e1 20 76 be 35 bb b3 b9 74 15 7a 3e
       -0.0020905402 -0.2403598 -0.0003428102 0.24422246

model.1.weight f4 [128]
000000 68 ad 23 3f 5f c7 29 3f 69 4f 33 3f 7d b0 35 3f
       0.6393647 0.6631984 0.70043045 0.70972425
000010 3f bd 3e 3f 7f 5b 2a 3f 1f 30 43 3f fd 77 42 3f
       0.74507517 0.6654586 0.762453 0.7596434
000020 0b aa 35 3f 84 c2 44 3f c4 6a 22 3f 8d 8d 2b 3f
       0.7096259 0.7685931 0.6344416 0.67012864
000030 33 0b 3b 3f f5 04 3d 3f cf cd 2e 3f b2 53 2d 3f
       0.73063964 0.7383569 0.6828279 0.67705834
000040 84 f0 33 3f f0 47 36 3f 32 dd 2b 3f c8 b9 20 3f
       0.7028887 0.7120352 0.6713439 0.6278348
000050 f4 4c 3b 3f 0a d4 33 3f 10 52 27 3f ba 79 27 3f
       0.73164296 0.7024542 0.6535959 0.65420115
000060 1b e0 27 3f d2 11 48 3f 71 1e 39 3f cf 34 2c 3f
       0.6557633 0.7815219 0.72312075 0.6726808
000070 fd ee 1c 3f 45 96 30 3f 48 44 3a 3f f5 11 39 3f
       0.6130217 0.68979293 0.7276044 0.72293025
000080 ba f8 24 3f 35 ac 29 3f b8 4f 2d 3f d7 0b 28 3f
       0.64442027 0.6627839 0.67699766 0.65643066
000090 32 24 33 3f 7f d3 3b 3f 67 dc 25 3f e9 4f 3b 3f
       0.69977105 0.7336959 0.6478943 0.7316881
0000a0 0f 40 2f 3f 94 9a 30 3f ee 71 39 3f 28 37 19 3f
       0.6845712 0.6898587 0.7243947 0.59849787
0000b0 b2 87 22 3f e6 0d 36 3f 30 3f 2c 3f 12 94 2e 3f
       0.63488305 0.7111496 0.67283916 0.6819469
0000c0 ea a9 4a 3f a8 f2 34 3f 61 59 3b 3f 51 58 32 3f
       0.7916552 0.70682764 0.73183256 0.6966601
0000d0 b4 5b 2d 3f f3 aa 35 3f 62 e4 28 3f bf 12 39 3f
       0.6771805 0.7096397 0.65973485 0.7229423
0000e0 aa a8 26 3f 4b 1e 30 3f fa f8 2d 3f 7b b5 2b 3f
       0.6510111 0.68796223 0.67958033 0.6707379
0000f0 b4 c0 40 3f 1d 7e 28 3f 7f b0 31 3f 9b c7 28 3f
       0.7529404 0.65817434 0.69409937 0.65929574
000100 9d 11 4a 3f dd d9 37 3f 19 55 33 3f a8 ee 2e 3f
       0.78933126 0.7181681 0.70051724 0.6833291
000110 07 da 24 3f 4d e9 2c 3f d0 48 2b 3f af 47 30 3f
       0.64395183 0.6754349 0.6690798 0.6885938
000120 f8 e6 29 3f 1c 00 34 3f 6c 0e 3a 3f 18 5a 2f 3f
       0.66368055 0.70312667 0.72678256 0.6849685
000130 42 3a 46 3f f5 bc 43 3f ae 36 37 3f 44 66 2d 3f
       0.77432644 0.764602 0.7156781 0.6773417
000140 27 6f 20 3f 4e 33 3c 3f 28 3b 22 3f e1 19 38 3f
       0.62669605 0.73515785 0.63371515 0.7191449
000150 87 a9 2a 3f a7 e1 2f 3f c9 7e 31 3f 8e c7 2d 3f
       0.6666493 0.68703693 0.69334084 0.6788262
000160 aa 39 3d 3f d4 8a 3b 3f 7c 5f 30 3f eb f6 44 3f
       0.73916113 0.7325871 0.688957 0.76939267
000170 9c a9 33 3f 8b e9 2f 3f 44 54 30 3f 60 3c 3f 3f
       0.7018068 0.68715733 0.6887858 0.747015
000180 d1 31 47 3f dd 6d 3c 3f 1d 94 32 3f a3 86 22 3f
       0.7781039 0.7360514 0.6975725 0.6348669
000190 73 75 2e 3f 2e 03 2b 3f 25 3b 35 3f a3 d1 3a 3f
       0.68147963 0.66801727 0.7079337 0.7297613
0001a0 89 f1 48 3f 92 b3 32 3f 3a fc 34 3f 8a 96 44 3f
       0.78493553 0.6980525 0.7069737 0.76792204
0001b0 8a 7e 28 3f 72 1e 2e 3f 83 8a 2b 3f a9 6d 2c 3f
       0.65818083 0.68015206 0.6700823 0.6735483
0001c0 24 bf 24 3f a8 32 21 3f 93 9f 30 3f ff fd 27 3f
       0.6435416 0.6296792 0.6899349 0.6562194
0001d0 fa da 1c 3f 2f ab 30 3f ab e7 20 3f e5 3c 23 3f
       0.6127163 0.69011205 0.628535 0.6376479
0001e0 83 b7 24 3f 73 0a 21 3f 92 2a 30 3f b4 ff 29 3f
       0.64342517 0.6290657 0.6881496 0.66405797
0001f0 f3 ab 2d 3f b7 cd 2e 3f 11 ed 2a 3f 6a c5 37 3f
       0.678405 0.68282646 0.66767985 0.71785605

model.1.bias f4 [128]
000000 6f 83 e3 3c 5b 4e 96 3c 76 b9 11 bd 51 73 86 bb
       0.027772633 0.01834791 -0.03557726 -0.0041031023
000010 aa 9b 4b bc 3a 90 42 bd 80 a7 f6 bc e5 65 0c 3d
       -0.01242725 -0.047500826 -0.030109167 0.03427686
000020 da dc 80 bd 88 16 3d 3a bd 60 b5 3b 9b c2 bb bb
       -0.06292124 0.0007213135 0.0055352137 -0.005729986
000030 c6 a2 f2 3c 25 1c 0f 3b 0a fd 40 bd 32 8b 54 bd
       0.029618632 0.0021836844 -0.047116317 -0.05189056
000040 f1 49 6a bd 59 9f a0 39 e0 f3 83 bd d4 d3 d3 3b
       -0.057199422 0.000306363 -0.06443 0.006464461
000050 36 15 1c 3c 9c 5a ca bb 27 86 7e bc b6 b0 01 bd
       0.009526541 -0.0061753523 -0.015534914 -0.031662665
000060 a7 c2 df bc 88 39 af bc f6 b5 71 bd 54 0b 56 bb
       -0.027314497 -0.021389738 -0.059011422 -0.003266056
000070 27 57 08 bd c4 f2 55 bc 5d b4 2f bd 76 8e 6a 3d
       -0.03328624 -0.013058368 -0.042896617 0.057264768
000080 78 fe 08 bd 5a 51 e2 bc ea 4f 20 bd 69 33 bf bc
       -0.033445805 -0.027626682 -0.039138712 -0.023339944
000090 b2 82 ea bc e2 59 a3 bd 56 1f 0e 3d cb c7 4d bd
       -0.028626774 -0.07976128 0.034697853 -0.050239366
0000a0 1e 5d b5 3b 1b 67 59 3c 46 5e a0 bb 91 fd e7 bc
       0.005534782 0.013269211 -0.004894051 -0.028319152
0000b0 1c f3 b6 bc ba 6f a6 bc a2 bd 97 bc cb 4f 17 bd
       -0.02233272 -0.020316947 -0.018523041 -0.03694133
0000c0 1a 55 46 bd 79 fa f5 bc 17 26 09 bd 9a 60 45 bd
       -0.048421003 -0.030026661 -0.03348359 -0.04818783
0000d0 6e 0a 6c 3c 55 c1 40 3c ee a3 a8 3c e7 2f 68 bc
       0.0144067835 0.011764844 0.02058598 -0.014171577
0000e0 55 bd aa bd 47 45 2d 3c 18 9d e2 3b e7 59 42 bd
       -0.083368935 0.010575599 0.0069156997 -0.04744902
0000f0 3d e4 31 bd bc 60 b4 3a a3 57 f5 3c ee 02 16 bd
       -0.043430556 0.0013761739 0.029949015 -0.036623888
000100 64 b2 c3 3c 3c 39 31 3d 8b 66 15 3d 56 1a 7a bc
       0.023888774 0.043267474 0.036474746 -0.015265068
000110 b1 dd 07 bd dc 3d f0 bc 87 59 a9 3c f6 e3 67 bd
       -0.033170406 -0.029326372 0.020672573 -0.056613885
000120 01 6c 92 bc ed 6e 04 bc b2 ac dd bc 4e dc 82 3b
       -0.017873766 -0.008083087 -0.027059887 0.0039935475
000130 b0 cd 98 bc 31 b3 7d bc a8 17 5c bc 5b 8d 62 bd
       -0.018652767 -0.015484617 -0.013433374 -0.05531059
000140 54 29 d6 bc d3 fb 95 bc 08 c9 e3 ba e2 42 e9 3b
       -0.026142754 -0.018308556 -0.0017378638 0.0071185688
000150 6f 6b c3 bc 84 df 33 bd b3 80 b5 bc 58 eb 1c bd
       -0.02385494 -0.043914333 -0.022156095 -0.03831038
000160 77 3b 86 3c c9 12 a0 bc d3 3d f7 bc f1 9a b8 bb
       0.016385777 -0.019540207 -0.030180847 -0.005633705
000170 c0 04 4c bd bc 39 0c bd da d3 25 bd a4 14 da 3c
       -0.049809217 -0.034234747 -0.04048524 0.02662117
000180 48 3d 22 3a 11 8d cb 3b 39 b5 51 bd 90 01 30 bd
       0.0006188941 0.006211885 -0.051198218 -0.04297024
000190 35 c1 0f 3c c6 1b 13 3c 1b 70 9b bb 80 99 45 bb
       0.0087740915 0.00897879 -0.0047435886 -0.0030151308
0001a0 66 2b b1 3a ab 2e 1f bd 37 43 0e bd 0a b0 4e 3c
       0.0013516962 -0.038862865 -0.03473207 0.012615213
0001b0 dd 9f e1 bc 14 b5 ff 3b 22 c1 9d 3a 69 37 15 bd
       -0.027542049 0.0078035686 0.0012035707 -0.036429796
0001c0 06 6f da bc 6a 7b 29 bc bd 1f a6 bb 98 55 fb 3c
       -0.026664268 -0.010344366 -0.0050697015 0.030680463
0001d0 6f 61 f3 3c 63 5f 9f 3c c0 e2 d3 bc b5 65 61 bd
       0.029709546 0.019454664 -0.025864959 -0.055028636
0001e0 93 91 12 bd 61 41 0b 3d bb 81 0f bb 81 5d 06 bc
       -0.03578336 0.033997897 -0.0021897394 -0.008201004
0001f0 bb 03 90 3b 60 8b 9e 3a 5f d5 1b bd 7e fd 97 3c
       0.004394976 0.001209598 -0.038045283 0.018553492

model.1.running_mean f4 [128]
000000 8e 81 05 38 9f ec 0e b8 38 c8 63 3c 36 7c 3e b8
       3.183033e-05 -3.407581e-05 0.013902716 -4.541521e-05
000010 78 64 83 3d 56 9d cf bc 1b 2e 2e b8 55 5f 09 b9
       0.06415647 -0.025343578 -4.1527772e-05 -0.00013100852
000020 0a d0 3b 3c f9 3b 6e bb 46 85 34 be 74 0b d3 3d
       0.011463175 -0.0036351664 -0.17628965 0.10304919
000030 cd b7 1d 38 fb 66 61 be bc a3 c0 3c b6 8e 22 be
       3.7602895e-05 -0.2201194 0.023515575 -0.15874752
000040 f5 2e 4f be 1e 2f 9d 39 01 29 74 be f0 a3 fb 3c
       -0.20232756 0.0002998048 -0.23843767 0.03071782
000050 b7 89 60 bd 35 ee 1e 3e 32 7b a2 3b 39 84 9f b8
       -0.054818835 0.15520556 0.0049585337 -7.606339e-05
000060 ea 53 e4 3d f6 fa 0a 3d 6b 57 37 39 a5 3f 44 3e
       0.11148818 0.03393074 0.00017484806 0.19164903
000070 4a f4 69 37 2c 59 82 3e 71 34 bc 3d ee 4d c5 b8
       1.394476e-05 0.25458658 0.0918969 -9.4082076e-05
000080 7b d1 93 3d 8d 4c d3 bd eb 0f b8 b8 f3 0b 3e b8
       0.072176896 -0.10317335 -8.776769e-05 -4.531066e-05
000090 a4 93 0e 3a b3 ad ca 3a 90 06 2d 3e 49 cc c7 39
       0.000543887 0.0015463143 0.16897035 0.00038108442
0000a0 76 fc 18 38 6d b4 51 3d 32 48 00 be 4b b9 31 b8
       3.6474747e-05 0.051197458 -0.1252754 -4.2372656e-05
0000b0 f7 0d 2d 3e 3c 8e fc bd 88 ab a5 b8 73 50 2c b8
       0.16899858 -0.123318166 -7.899763e-05 -4.108292e-05
0000c0 e5 21 0a bc 9c 0f 73 3e 1d 54 49 38 69 3c e5 3a
       -0.008430933 0.23736423 4.800047e-05 0.0017489317
0000d0 fd 36 cc b8 7d 1a 5a bc 18 eb 69 39 ce 1c 95 b9
       -9.7377204e-05 -0.013311979 0.00022308191 -0.00028440956
0000e0 2c 6e 51 bd 2f 9d d2 bb ef 2b d2 3b ec a6 20 3c
       -0.05113046 -0.006427429 0.0064139287 0.009805422
0000f0 06 24 bc b9 c7 a0 9e bc 3e 32 c6 bd 86 73 17 38
       -0.00035884994 -0.019363774 -0.09677552 3.6108795e-05
000100 16 58 65 bd 7d 49 36 bc 7e de b2 38 27 4d f5 bd
       -0.05599221 -0.011125919 8.529144e-05 -0.11977606
000110 6e 9b aa 3d fe 33 9e 3d 79 f4 72 bd b5 4f 3b 3e
       0.08330427 0.077247605 -0.05931518 0.18292125
000120 d3 21 b7 3d 0a 6e b5 bc 13 9c e3 b8 0f c0 4f b8
       0.08941998 -0.022147197 -0.000108532746 -4.9531514e-05
000130 94 94 e7 bc cf 8b 2a b7 c2 ed 3a be 77 9e d0 39
       -0.02826909 -1.0165341e-05 -0.1825476 0.00039790917
000140 2b 1d 8b 3d 4c 98 21 39 b5 db 21 38 1d b2 24 ba
       0.06792673 0.00015410892 3.859001e-05 -0.00062826445
000150 c5 5c c8 39 a4 da 28 3e 2f 74 86 b9 ea ac a6 bb
       0.0003821609 0.16489655 -0.00025645035 -0.005086531
000160 23 6f 1a be 37 9b 2b 3e 0f e2 4d 3c 8b d2 1f 3e
       -0.15081458 0.16758429 0.012566104 0.1560766
000170 fc 31 f8 bb 78 73 03 b8 4a a4 c7 bd 4c d6 93 38
       -0.007574318 -3.1340373e-05 -0.097481325 7.049422e-05
000180 e2 13 1f 3b 5c 62 3c bc 5c e0 53 bd d6 2d 5a be
       0.0024273326 -0.01149806 -0.051727638 -0.21306548
000190 f0 9d b0 b9 46 29 9e bb 95 5b 62 3e de 73 43 be
       -0.00033687009 -0.0048266975 0.22105248 -0.19087169
0001a0 ad 37 be 37 8d 65 17 b8 2a 8b 19 3b ef b1 99 3d
       2.2675691e-05 -3.6095782e-05 0.0023428896 0.07504641
0001b0 c7 86 2c b9 46 39 1a ba 8f 6b d7 bd 48 3f d8 3c
       -0.00016453407 -0.0005883168 -0.10518562 0.026397362
0001c0 73 31 f8 bc d1 28 3f b8 c5 ce bb b8 aa c3 e3 bc
       -0.030297017 -4.5575962e-05 -8.955369e-05 -0.02780326
0001d0 8d 8e 7c bd a7 27 ff 3c 14 41 55 be bf be d9 38
       -0.061659385 0.031146837 -0.20825607 0.000103828956
0001e0 22 e9 a7 37 3f 6e 93 bc e7 4f 2a b8 a8 94 54 bb
       2.0016512e-05 -0.017996905 -4.0605573e-05 -0.003243724
0001f0 b1 5d 27 bb 6a bf 7a be 4a d2 e2 b9 cc 81 7e 3e
       -0.0025538022 -0.24487081 -0.00043262757 0.24854201

model.1.running_var f4 [128]
000000 a0 a5 bc 39 fa 97 ce 39 a3 df dd 39 87 86 94 39
       0.00035981555 0.00039404613 0.00042319027 0.0002832899
000010 33 23 e1 39 1d 68 ec 39 7f 84 23 3a ac 60 c4 3b
       0.0004294157 0.00045090998 0.00062377 0.0059929695
000020 1d 11 8f 39 50 be 72 39 fd 2c d1 3b 61 49 59 3c
       0.00027287836 0.00023149815 0.006383537 0.013262124
000030 0b 38 06 3a 27 9e e6 3a cc 1e 11 39 68 40 1c 3c
       0.00051200454 0.001759474 0.0001383975 0.00953684
000040 4d a6 94 39 a0 ac 09 3d f0 11 4f 3a 23 75 00 3a
       0.00028352664 0.033611894 0.0007899096 0.0004900267
000050 26 59 09 3a 56 8c d0 3c 26 a1 ed 39 31 c6 2f 3a
       0.00052394194 0.025457542 0.00045324228 0.0006705253
000060 78 0f 0a 3c 8d c2 82 38 b1 66 57 39 57 f7 a3 39
       0.00842654 6.235121e-05 0.00020542253 0.00031274065
000070 35 ab c7 39 c4 f2 ea 39 ec 34 13 3a 25 b0 49 3b
       0.00038083797 0.00044812832 0.0005615491 0.0030775156
000080 8b 9a fd 39 01 f5 b1 39 2d 1e 2f 3b b5 f6 32 3a
       0.00048371064 0.00033942613 0.0026720867 0.00068269233
000090 09 5d c1 39 ab 3f af 37 09 5f 64 39 53 b5 4e 3d
       0.00036881145 2.0891273e-05 0.00021779178 0.050465893
0000a0 8b 38 f2 39 00 85 aa 39 a1 23 b7 39 85 12 e5 39
       0.00046199965 0.0003252402 0.00034931026 0.00043692082
0000b0 04 57 33 3c 35 7d 81 39 c8 b8 0c 3b c3 25 12 3a
       0.010946039 0.00024698084 0.0021472443 0.0005575085
0000c0 21 09 b6 3a 58 2e 84 39 f3 b5 38 3a 7f b0 0b 3c
       0.0013888219 0.0002521153 0.00070461555 0.008525967
0000d0 3c f0 58 3b 32 6a 75 3b df 16 7f 3c 1f 70 2b 3a
       0.0033102175 0.003744733 0.015569418 0.00065398397
0000e0 37 be 20 3a 9a 2b 65 3d 37 17 4e 39 05 f5 24 3c
       0.000613186 0.055949785 0.00019654339 0.010068183
0000f0 f8 59 1c 3d af 88 bb 39 03 db e6 39 f6 f3 00 3a
       0.03817174 0.00035769257 0.00044032195 0.00049191655
000100 9a a2 d4 39 3d d0 da 3a 0a 79 14 3a 67 da 49 3d
       0.0004055694 0.001669414 0.0005663788 0.04928055
000110 52 6d 2a 3c 56 b0 5f 3d 12 84 ed 38 f1 75 10 3a
       0.010402041 0.054611526 0.00011325641 0.00055107387
000120 b8 6e 56 39 51 09 9f 3c 19 8b 86 3b cb 14 4c 3a
       0.00020449876 0.019413622 0.004105937 0.0007785081
000130 42 ac bf 3b df 45 36 3a e3 3c bf 3c 55 f1 5d 3d
       0.005849392 0.00069531606 0.023344463 0.05418523
000140 10 6f a4 3b 7e 43 07 3c 93 1a ce 39 7d 10 16 3d
       0.0050181225 0.0082558375 0.0003931118 0.03663682
000150 df 38 4d 3d 4a 31 fd 39 bf f6 14 3a 45 ce 49 3a
       0.050103065 0.00048292644 0.000568252 0.0007698278
000160 5d f3 26 3a 9e bf 3d 3a dd 5c 3a 3c d1 93 fb 3c
       0.00063686614 0.0007238331 0.011374679 0.030710133
000170 40 00 6d 3b 2d b8 c6 39 ae d4 11 3a 50 f5 09 3c
       0.003616348 0.00037902725 0.0005563003 0.008420303
000180 3c 72 d3 39 1e 28 88 3a 3c 07 00 3a 62 84 56 3d
       0.00040330167 0.0010387932 0.00048838905 0.052372344
000190 9b f1 f8 39 55 9c 00 3a 9c e0 03 3a 3f 01 17 3d
       0.00047482256 0.0004906108 0.0005030723 0.036866423
0001a0 80 4b ba 39 49 39 cb 39 1c 9e 3a 3a cb 81 2e 3a
       0.00035532936 0.00038761858 0.0007118897 0.0006656914
0001b0 dd fa 19 3c b6 ec ab 3c 72 ea 4f 3b b6 02 01 3a
       0.009398189 0.020986896 0.0031725434 0.00049213634
0001c0 12 23 43 3c 2a cb 14 3a 91 27 37 3b 14 ef 8b 39
       0.011910217 0.0005676026 0.0027947167 0.00026690273
0001d0 c5 9d e4 39 72 11 0d 3d e3 c9 fe 39 b6 97 9f 39
       0.00043605096 0.034440465 0.00048597073 0.00030439877
0001e0 16 60 0a 39 ef 70 ce 39 9c e4 35 3a 83 4d 97 3c
       0.000131965 0.00039375524 0.00069386675 0.018469578
0001f0 60 c9 d2 3c e3 35 6f 39 19 5b 3a 3a 53 3d d0 3c
       0.025730789 0.0002281289 0.00071089115 0.025419867

model.4.weight f4 [64, 128]
000000 be 7d 71 3c 36 4c a9 bc 37 38 b6 bd 36 40 eb 3c
       0.014739452 -0.020666223 -0.08897441 0.028717142
000010 f6 4d a3 bc 9d c9 33 3d 93 ed c6 bb 50 3e c7 bc
       -0.019934636 0.043893445 -0.0060708015 -0.024321705
000020 53 3a a5 bd 43 86 c4 bd e9 9f 93 3c 78 06 68 bd
       -0.08067765 -0.09595921 0.018020587 -0.056646794
000030 bb 46 85 3c 82 54 dc bb b0 c0 1a bc a2 83 03 3c
       0.016269078 -0.0067239413 -0.009445354 0.008026989
000040 4e f8 76 bd b6 cb 2c bd 29 62 8a bd 42 f0 ff 3c
       -0.060295396 -0.04218646 -0.06757004 0.031242494
000050 5b df 2b bd a6 54 a3 bc c0 6a 61 bd 0a 09 39 bb
       -0.041961055 -0.019937824 -0.055033445 -0.0028234147
000060 dc d0 b1 bd 45 89 3b bd 7f 2b 4a 3d d6 85 60 3d
       -0.08682415 -0.045785207 0.049357887 0.054815136
000070 24 92 c4 bb d7 7b 33 3d 37 8b 94 bd 9b 7f 8c bc
       -0.0059988666 0.043819275 -0.072531156 -0.01715069
000080 fd 3e 0b 3d 24 b4 bc bb 61 42 6f bd 2c ba de bb
       0.033995617 -0.005758779 -0.058412913 -0.0067970958
000090 ec 54 61 bc 6d 62 ad 3b 49 6b 40 bb c9 8c db bc
       -0.013753157 0.0052912743 -0.0029360822 -0.02680053
0000a0 11 96 9e bc d7 9f 73 bb 8e 37 be bd 59 fc 07 3b
       -0.019358667 -0.003717413 -0.0928794 0.0020749776
0000b0 19 ae a7 bc d3 f7 a2 bd 69 c4 46 bd 68 f5 01 bd
       -0.020468758 -0.07957425 -0.048527155 -0.03172818
0000c0 08 81 2e 3d 15 1d 14 bc 0c da 1c 3d 9f 15 1c bd
       0.042603523 -0.009040137 0.038293883 -0.038106557
0000d0 6c a0 4f bd 9c 3e 53 3c 48 62 df bb f9 bc 00 3d
       -0.0506901 0.012893345 -0.006817136 0.03143022
0000e0 cf ea 06 bc 59 91 3b bd 71 c9 0b bd b3 43 2a bc
       -0.008234694 -0.04579291 -0.034127656 -0.010392117
0000f0 0a 5d 28 bd 66 a5 f9 3c 46 84 a4 bd a2 61 ca 3c
       -0.041104354 0.030474376 -0.08033042 0.024704758
000100 a5 4a 62 bd e4 ef 19 3d cd c3 69 3d c0 8c 49 3d
       -0.055246968 0.037582293 0.057071496 0.049206495
000110 a7 1e 0c 3d 55 4d 9a bd bd 85 39 3c 4a 37 ad bd
       0.03420892 -0.07534281 0.01132339 -0.08457811
000120 3e 61 30 3d e3 bf 66 3c 65 4b 24 bd c7 06 3e 3d
       0.043061487 0.014083835 -0.040110964 0.046393182
000130 49 d4 5d 3b 33 e0 58 bb dc ab 85 bc 0d 9e 88 bd
       0.0033848456 -0.0033092618 -0.0163173 -0.06670771
000140 13 2e 84 bb 02 ec e2 3c 8c 81 aa bd f9 9b 4d bd
       -0.004033813 0.027700428 -0.0832549 -0.050197575
000150 03 50 25 bd 21 9b 73 3a ec ee 72 bd 12 43 56 bd
       -0.04035951 0.00092928304 -0.059309885 -0.052310057
000160 5d d5 66 3c ad d1 37 bd c2 b0 93 bd 56 ef 74 3d
       0.014088956 -0.044877697 -0.07211448 0.05979856
000170 1a 28 a5 bd 84 d7 09 3d 66 6c 84 bd 94 8a 81 3c
       -0.080642894 0.033652797 -0.06465988 0.01581315
000180 78 8c 5f bd a6 06 45 bd b1 8b 2c 3a b5 29 bc bd
       -0.05457732 -0.048102044 0.0006582095 -0.091876425
000190 0f 45 ca bd bc 4e 12 bd 41 22 9e 3c 48 4a 63 bd
       -0.09876453 -0.03571962 0.019303443 -0.055490762
0001a0 dc a7 89 3c 9c 69 44 bd 29 28 9f bd 74 dc 41 bd
       0.016803674 -0.04795228 -0.07771332 -0.04732938
0001b0 25 35 70 bd 38 02 95 bd fb 56 94 bd cd 56 1a 3c
       -0.058644433 -0.07275814 -0.07243153 0.009420109
0001c0 70 01 0d 3d 42 d3 12 bd e4 fe cb 3c 62 7b dd bc
       0.0344252 -0.035846002 0.024901815 -0.027036373
0001d0 cd 6a ac 3c 03 b9 85 bd 30 be 01 bb b4 c4 08 bd
       0.02104702 -0.06529429 -0.0019797198 -0.033390716
0001e0 15 23 c7 bc 0c 2e 50 3c 9d e6 c3 bc c1 80 ae bd
       -0.02430872 0.012706291 -0.023913676 -0.085206516
0001f0 cd 93 42 3c 17 d2 30 3d 35 23 3c 3d 2a 8d 16 bd
       0.011876059 0.043169107 0.045932014 -0.03675572
000200 ad ec 12 3d 8a fd b9 3b 06 a7 bb bd 2d 95 e6 3c
       0.035870243 0.005675976 -0.091627166 0.028147304
000210 12 da d9 bd b7 29 73 3c e7 ea 55 bd 67 2f b2 3a
       -0.10637297 0.014841489 -0.052225973 0.0013594449
000220 c6 b8 8a bd 87 6c 24 bd 33 23 a7 3c 7b 8e f1 3b
       -0.06773524 -0.040142562 0.020402526 0.0073717213
000230 95 89 e1 bd 62 dd 8b bb c9 3e 65 bb 84 02 98 bd
       -0.1101257 -0.0042683342 -0.003498005 -0.07422355
000240 f9 f7 69 bc 3a bd 92 bd f7 29 aa 3c 53 df 8d bc
       -0.014280313 -0.07164998 0.020771964 -0.017318403
000250 26 7b 90 3b e7 65 5d bc a2 d1 50 bd c0 7b 24 3b
       0.0044092117 -0.013513065 -0.05098117 0.0025098175
000260 e6 45 5c bd 95 7e a5 3c bc 5e c3 bc 73 e5 f8 bc
       -0.053777598 0.02020196 -0.023848884 -0.030382847
000270 27 ba 0e bd e3 c6 71 3b ff 7b 90 bd e0 78 10 3d
       -0.034845497 0.0036892227 -0.070549004 0.035271525
000280 7f f7 b6 bc a0 86 a2 3b fe 52 bc bc e4 16 64 3d
       -0.022334812 0.004959896 -0.022988793 0.055685893
000290 0a 6a 80 bd d4 39 ba 3c c7 02 1f 3d d9 ee ab bc
       -0.06270225 0.022732653 0.038821008 -0.020987915
0002a0 8d 80 d4 3c 90 2b b4 3c 88 4a 95 bd 89 29 74 bd
       0.025940204 0.021993428 -0.07289606 -0.059609924
0002b0 59 76 66 bd e8 35 0e 3d f2 4c a6 bc b2 8c 48 3d
       -0.05626521 0.034719378 -0.020300362 0.048962303
0002c0 41 36 c4 3c 9a 4f 0a 3d 64 8e 08 bc 2d 62 28 bd
       0.023951652 0.03376732 -0.00833473 -0.041109253
0002d0 ea d2 a9 3c 2a 1a 7e 3c da 4f 37 bc d3 ea 30 bd
       0.020730454 0.015509168 -0.011188472 -0.043192696
0002e0 bf 0b 82 bd 6b c5 9a bd 7e bd 81 bd 5e b0 de 3c
       -0.06349897 -0.07557186 -0.06334971 0.027183708
0002f0 e2 4a 4e bd 7d c8 92 bd 3d ec 40 bd ae 15 cd bd
       -0.050364383 -0.07167146 -0.047100294 -0.10013901
000300 26 57 b9 bd 02 55 e4 bc 95 87 72 bd f0 9f 74 3c
       -0.09049825 -0.027872566 -0.059211332 0.01493071
000310 98 53 5e bd 3a db 04 bc 61 9f 2d 3b e1 bf 87 bc
       -0.05427894 -0.008108908 0.0026492702 -0.016570987
000320 02 53 3c bd 87 09 d1 3c 0e 95 ac bb 95 58 d8 bb
       -0.0459776 0.025517238 -0.005266792 -0.0066023567
000330 5d 58 9e bd 1b bf 4d bd 75 7c f2 3c f0 ac a1 3c
       -0.07731698 -0.05023108 0.029600361 0.019735783
000340 37 3f d7 bb fe ce 2d bd 44 43 fa bc 93 c9 ad 3c
       -0.006568815 -0.04243373 -0.030549653 0.021214282
000350 ce 03 46 bc f3 ee fe 3c 45 87 2d bd b7 d9 7f bd
       -0.012085868 0.0311198 -0.04236533 -0.06246349
000360 62 32 4a bb 9c 37 9c bd cc f3 b8 bd 0d d2 db bd
       -0.0030852784 -0.07627794 -0.090308756 -0.107334234
000370 13 27 83 3c d5 4b 54 3d 2a 47 00 bd 26 df 65 bd
       0.016009843 0.05183013 -0.031317867 -0.056121014
000380 f7 09 82 3b 4b f3 63 bc 8b 2d 49 bd 0c 6c 27 3d
       0.003968473 -0.013912986 -0.0491157 0.040874526
000390 65 3f 56 3c b4 56 46 3d b9 d4 6e 3c 1a e5 d2 bd
       0.013076638 0.04842253 0.014577084 -0.10297604
0003a0 c2 68 b5 3c af 59 1a 3d 30 23 9e bd e8 a6 be 3c
       0.022144679 0.037683185 -0.07721555 0.023272946
0003b0 82 fc 44 bd eb fb 57 bd e4 af 0a 3d dd 58 25 bc
       -0.048092373 -0.052730482 0.03385915 -0.010091987
0003c0 7c 65 2e bd 3e 46 b7 bc 66 9a 8c 3c 3f 8b 23 bd
       -0.04257725 -0.022372361 0.017163467 -0.039927717
0003d0 e1 69 77 bd 43 2e 43 bc bf 00 28 bd 80 0d 09 3d
       -0.06040371 -0.011912885 -0.041016337 0.03346014
0003e0 a9 51 ab bc 67 15 61 bc c5 5e c9 bc e1 13 a5 bd
       -0.020912962 -0.013738013 -0.024581322 -0.08060432
0003f0 b1 b4 fc bb ae 03 77 bd ff aa ec bc 69 b6 22 bd
       -0.00771197 -0.060306244 -0.028890131 -0.03972474

model.4.bias f4 [64]
000000 e3 5b 49 b3 29 85 71 33 22 ff 73 33 8e f5 21 b3
       -4.688253e-08 5.6233294e-08 5.680989e-08 -3.7709064e-08
000010 ae f8 64 b2 44 54 6c 33 bc ce 11 33 f3 6a 9f 33
       -1.332789e-08 5.502467e-08 3.3948467e-08 7.4234684e-08
000020 c4 8b 08 32 9e b3 13 34 01 1a 71 32 f5 6b b2 b2
       7.948021e-09 1.3755786e-07 1.4033959e-08 -2.077102e-08
000030 03 36 c5 33 5c dc cd 33 81 3f ff b2 1a 4a 34 34
       9.183352e-08 9.5861395e-08 -2.9714785e-08 1.6790764e-07
000040 bd 11 a4 b3 12 37 41 b1 9a 73 9c b2 d6 e6 e2 b4
       -7.640072e-08 -2.81165e-09 -1.821336e-08 -4.2263736e-07
000050 6e 27 c9 b3 d4 57 f8 b3 7f 5e b4 b2 04 b5 fb b3
       -9.366964e-08 -1.1564376e-07 -2.099773e-08 -1.1721025e-07
000060 ce c5 a1 34 8e 16 72 32 b8 4b 81 b3 55 51 59 31
       3.013251e-07 1.4091382e-08 -6.020804e-08 3.1623888e-09
000070 8b b6 84 32 5d 75 43 34 74 f2 17 b4 26 7b 61 b3
       1.5449833e-08 1.8203487e-07 -1.4151175e-07 -5.2498898e-08
000080 f3 55 76 b4 cf ec dc b3 cc f3 ab 33 f7 15 3a b4
       -2.2941803e-07 -1.02876236e-07 8.0071544e-08 -1.733059e-07
000090 5e a5 87 33 26 ee ca b3 13 3c f8 b1 0e ed 02 b4
       6.3165075e-08 -9.449677e-08 -7.2245796e-09 -1.2193433e-07
0000a0 9c 78 c2 34 8e ea 6b b2 ca 80 18 33 11 8b 05 32
       3.622307e-07 -1.3732132e-08 3.550739e-08 7.773239e-09
0000b0 86 41 c2 33 f9 e5 00 35 14 bc 9d b3 fc 7a e4 b2
       9.0457476e-08 4.801837e-07 -7.3450934e-08 -2.659862e-08
0000c0 c1 59 8a 33 a3 9a 37 b4 47 b8 07 32 04 8d be 33
       6.442452e-08 -1.709946e-07 7.899934e-09 8.873215e-08
0000d0 c5 ea a3 b4 23 5a 53 34 5a ce ac 33 5b d0 09 b2
       -3.0531933e-07 1.9683698e-07 8.046909e-08 -8.021824e-09
0000e0 ad 8b de b3 21 e3 07 b3 c9 5d 26 33 eb 34 46 33
       -1.03630875e-07 -3.163871e-08 3.8735184e-08 4.6148596e-08
0000f0 2a fc b2 b3 9e 8f 4e b4 f0 1d 88 33 b2 e1 c9 33
       -8.334639e-08 -1.9237493e-07 6.338439e-08 9.4008456e-08

model.5.weight f4 [64]
000000 bc f8 43 3f ce 7b 3c 3f e4 20 52 3f c9 79 4b 3f
       0.76551414 0.7362641 0.8208144 0.79482704
000010 35 f5 4e 3f 80 e6 3d 3f b6 c4 47 3f 35 e1 4a 3f
       0.80842906 0.7417984 0.7803453 0.7924989
000020 cd 1d 59 3f 70 b3 42 3f 84 f3 51 3f 0c b5 58 3f
       0.848111 0.7605505 0.820122 0.84651256
000030 5b ee 4b 3f 2b e9 50 3f 29 04 41 3f c2 84 48 3f
       0.79660577 0.81605786 0.7539697 0.7832757
000040 79 fd 49 3f a3 bc 4a 3f 56 f7 4c 3f 12 c1 56 3f
       0.78902394 0.79194087 0.80064905 0.8388835
000050 60 24 44 3f 88 a5 41 3f 4a cd 41 3f bd 93 40 3f
       0.76618004 0.75643206 0.7570387 0.7522543
000060 f5 6f 54 3f 81 a8 43 3f 09 77 4b 3f 6e c1 3d 3f
       0.8298333 0.7642899 0.7947851 0.74123275
000070 47 92 43 3f 3a 62 49 3f 47 90 46 3f 23 ea 52 3f
       0.76395077 0.78665507 0.775639 0.82388514
000080 24 bf 3f 3f 14 15 59 3f 50 97 4a 3f 46 5e 4c 3f
       0.7490103 0.8479779 0.79137135 0.7983135
000090 bc ca 56 3f e2 2e 41 3f e5 d1 49 3f e9 fd 4f 3f
       0.839031 0.7546216 0.788359 0.8124681
0000a0 19 21 60 3f cf ce 42 3f c9 da 44 3f 9a 06 40 3f
       0.87550503 0.76096815 0.7689634 0.75010073
0000b0 e6 59 4d 3f 7f 95 42 3f 7a e0 36 3f 9f d9 5c 3f
       0.802153 0.7600936 0.71436274 0.86269563
0000c0 6a a3 4d 3f 58 83 4f 3f 51 f9 48 3f d5 bf 53 3f
       0.80327475 0.8105979 0.78505427 0.8271459
0000d0 0b 27 3a 3f 9f cd 49 3f c7 63 53 3f e8 f1 58 3f
       0.72715825 0.7882938 0.82574123 0.8474412
0000e0 e4 c6 3e 3f 48 c1 4d 3f 17 b6 4d 3f 8d 69 4e 3f
       0.74522233 0.8037305 0.8035597 0.8062981
0000f0 0e c3 49 3f 26 7d 3c 3f b8 df 41 3f 09 b9 3a 3f
       0.78813255 0.7362846 0.7573199 0.7293859

model.5.bias f4 [64]
000000 eb 0f 23 be fe 58 3b be 8c c3 09 be 16 e2 16 be
       -0.15924041 -0.18295667 -0.13453501 -0.14734682
000010 c2 bf 05 be d6 64 2d be 50 ee 21 be 65 4c 0c be
       -0.13061431 -0.16932997 -0.15813565 -0.13701017
000020 6d 8a 01 be 31 c2 38 be 72 13 e5 bd 10 b6 06 be
       -0.12650461 -0.18042828 -0.111853495 -0.13155389
000030 aa bf 2d be 86 40 f9 bd b5 2e 02 be a2 18 50 be
       -0.16967645 -0.1217051 -0.1271313 -0.20321897
000040 c6 b8 20 be 50 99 36 be 6a 8e 0b be 79 10 11 be
       -0.15695485 -0.17831922 -0.13628545 -0.1416644
000050 9e 7f 74 be 1c fe 1d be ab a1 24 be 86 5e 0e be
       -0.23876807 -0.15428966 -0.16077296 -0.13903245
000060 ea 0d 04 be 6a 40 2f be 3b 94 13 be b7 6d 40 be
       -0.12895933 -0.17114416 -0.14412014 -0.18791853
000070 c3 41 30 be 7c 4a 39 be 0f 9f 0d be 1f e3 0c be
       -0.17212586 -0.1809482 -0.13830207 -0.13758515
000080 33 ce 20 be 0d 00 15 be 53 3a 17 be 65 3b 0d be
       -0.15703659 -0.145508 -0.14768343 -0.13792188
000090 ea 3d 06 be 94 23 24 be 2a 0b 28 be 69 85 04 be
       -0.13109556 -0.16029197 -0.16410509 -0.12941517
0000a0 33 23 fe bd 5b 86 1d be 9e ae 35 be 10 67 46 be
       -0.124090575 -0.15383284 -0.17742392 -0.19375253
0000b0 d7 9d 18 be b5 d3 12 be 57 b4 fc bd d5 a0 e0 bd
       -0.14903961 -0.14338572 -0.123390846 -0.10968176
0000c0 37 99 0a be 07 fa 07 be 59 7b 2a be cf 3a f0 bd
       -0.1353501 -0.13278972 -0.16648616 -0.11729967
0000d0 ac 40 47 be 5c 3b 5c be 5d 52 05 be 92 b8 d4 bd
       -0.19458264 -0.21507019 -0.130197 -0.103867665
0000e0 ca 30 13 be 57 0d f2 bd c3 22 d2 bd a5 d5 1b be
       -0.1437408 -0.118189506 -0.102605365 -0.15218218
0000f0 62 6a 37 be 22 03 14 be 28 47 51 be 91 82 45 be
       -0.17911676 -0.1445432 -0.204373 -0.19288088

model.5.running_mean f4 [64]
000000 8b 18 33 bf 17 f8 44 bf fa 5b 07 bf 7d 93 17 bf
       -0.69959325 -0.76941055 -0.5287472 -0.59209424
000010 24 75 31 bf 7e 30 17 bf 84 72 08 bf 0b ab 0d bf
       -0.6931937 -0.5905837 -0.53299737 -0.55339116
000020 e2 08 0f bf 62 e4 5e bf 14 85 0e bf 6c 83 e1 be
       -0.5587293 -0.87067235 -0.5567181 -0.4404558
000030 a4 ba 04 bf 23 8e 2b bf 28 77 bf be 79 13 52 bf
       -0.5184729 -0.6701376 -0.37395597 -0.8206096
000040 9e e1 37 bf ef c7 35 bf e9 29 9a 3e 8e 0d 29 bf
       -0.7182864 -0.710082 0.301101 -0.6603631
000050 73 4a 67 bf d8 31 20 bf c2 02 39 be 06 7e 17 bf
       -0.90347975 -0.62576056 -0.18067458 -0.5917667
000060 f5 1c 05 bf ee 29 82 be 2a 5b 44 bf a9 82 2a bf
       -0.5199731 -0.25422615 -0.76701605 -0.6660562
000070 65 4b 61 bf f3 d4 30 bf 39 75 2a bf 62 fd 34 bf
       -0.8800567 -0.69074935 -0.6658512 -0.7069913
000080 37 26 00 bf de ff e7 be 08 59 20 bf ea d2 f6 be
       -0.5005831 -0.453124 -0.6263585 -0.4820779
000090 c7 4b 49 bf a4 62 16 bf e5 52 24 bf 2c 49 45 bf
       -0.7863125 -0.58744264 -0.64188987 -0.77064776
0000a0 7d 12 4b bf 6d 25 8a 3e 30 b9 1c bf b3 a3 48 bf
       -0.79325086 0.2698168 -0.61220074 -0.78374785
0000b0 a1 36 2e bf d9 39 e8 be b9 d4 0a bf 51 22 ef be
       -0.6805211 -0.45356634 -0.5423084 -0.4670587
0000c0 7f 3a 1f bf c3 ab 25 bf 7e 4e 11 bf 86 b2 51 bf
       -0.6219863 -0.6471521 -0.56760395 -0.8191303
0000d0 1a a5 12 bf 7a cb 4e bf 54 bc 36 bf 19 e8 a1 3e
       -0.57283175 -0.8077923 -0.71381116 0.3162239
0000e0 ec 7f 01 bf 79 af 3d bf 5b 96 53 3f 78 af 1d bf
       -0.5058582 -0.74095875 0.826513 -0.6159587
0000f0 f8 39 1a bf 25 b6 38 bf 96 01 99 be 51 59 1f bf
       -0.60244703 -0.7215293 -0.29884022 -0.6224566

model.5.running_var f4 [64]
000000 f8 ec c3 3e 46 18 0e 3f db 47 1c 3f 0c a9 c3 3e
       0.3826673 0.5550579 0.6104714 0.3821491
000010 d7 5e dc 3e 92 d3 12 3f 59 ec c2 3e 50 c9 ae 3e
       0.43041107 0.5735408 0.38070944 0.34137964
000020 0f 69 1f 3f 65 69 04 3f fb 22 3c 3e 16 cf 0b 3f
       0.6226968 0.5172332 0.18372719 0.54612863
000030 02 14 12 3f 01 33 c0 3e 25 18 c9 3e f9 29 05 3f
       0.5706178 0.37538913 0.39276233 0.5201717
000040 a2 eb ea 3e af 3d e6 3e 5b d6 e5 3e b7 f6 b1 3e
       0.458829 0.44968936 0.44890103 0.3475854
000050 0b 72 0f 3f 40 7b ad 3e 2e 8c fe 3e 8b 28 98 3e
       0.5603339 0.33883095 0.49716324 0.29718432
000060 ec db 8a 3e 7b 0f 31 3f 0c 65 e5 3e 54 66 15 3f
       0.27120912 0.69164246 0.44803655 0.58359265
000070 ac 73 0a 3f cc 4c f3 3e f4 a7 a9 3e 30 6c ac 3e
       0.5408275 0.4751953 0.3313595 0.3367629
000080 bd 46 21 3f da 39 e6 3e 73 1d a8 3e 8a 0d a9 3e
       0.62998563 0.44966012 0.32834968 0.33018142
000090 81 f3 e7 3e a5 e4 01 3f a0 a2 bb 3e f1 ea ed 3e
       0.45302966 0.5073951 0.3664751 0.4646831
0000a0 b8 49 09 3f 58 9c af 3e 2c 68 91 3e d7 75 2f 3f
       0.5362811 0.34298968 0.2839979 0.68539184
0000b0 a6 96 03 3f a4 36 b5 3e e1 12 e1 3e 1f ee b7 3e
       0.51401746 0.3539325 0.43959716 0.3592386
0000c0 18 d5 09 3f 87 5b 01 3f 1b ba 18 3f 69 d2 34 3f
       0.5384078 0.50530285 0.59658974 0.7063356
0000d0 32 cf f4 3e 27 7b d4 3e 4a 24 2a 3f 38 ca f6 3e
       0.47814327 0.41500208 0.6646162 0.48201156
0000e0 e8 86 e7 3e 9d 2b f3 3e 4e 7f df 3e 86 d9 f6 3e
       0.45220113 0.47494212 0.43651813 0.48212832
0000f0 1b e3 a7 3e 9a a7 12 3f 65 b9 65 3f f8 a3 c4 3e
       0.32790455 0.5728699 0.89736015 0.38406348

model.8.weight f4 [20, 64]
000000 15 06 9e ba d8 a6 05 3c 71 0f ab 38 a4 77 90 bc
       -0.0012056256 0.008157454 8.1567916e-05 -0.017635174
000010 31 c7 52 bb 0b 72 d5 3c aa 7a df 3c 0a 4a 00 bb
       -0.0032162184 0.026055356 0.02728017 -0.001957538
000020 3d 8d 41 bc ec e7 61 3c d3 45 0e bc b2 d3 85 bc
       -0.011813459 0.013788205 -0.00868364 -0.016336296
000030 8a 8a bf 3b 1d 71 56 3b 13 40 b4 3c b5 8b d8 bc
       0.0058453726 0.003272123 0.02200321 -0.026433805
000040 69 3b 46 3c d6 7f 74 3c 33 a5 9b 38 dc 01 cf 3b
       0.012099125 0.014923057 7.421747e-05 0.0063173603
000050 c1 7f 15 bd 3e a4 bc 3b cd 63 ba 3c 67 cd af 3c
       -0.03649879 0.005756884 0.022752667 0.021460248
000060 8d 7c 2e 3a d4 e7 34 3c 31 59 54 bc b7 48 39 3c
       0.0006656133 0.0110416 -0.012960718 0.0113088405
000070 77 74 b8 3b d8 c5 86 3b 81 0c a3 bb 80 4d 1c 3c
       0.005629118 0.0041129403 -0.004975856 0.009539962
000080 ad 14 62 bc e8 e7 bc 3c 47 8e cc ba e4 ad a4 3c
       -0.013798875 0.0230598 -0.0015606367 0.020102449
000090 b2 0a 4b 3c e5 df ae 3c a2 b5 c1 bb a3 01 c8 bb
       0.012392687 0.021346996 -0.005911545 -0.0061037107
0000a0 ba f1 2b bc 16 e9 56 39 75 65 ef 3b b7 c5 97 bb
       -0.010494644 0.00020495462 0.007305796 -0.0046317237
0000b0 9e 06 f0 bb 1c 16 18 bc 05 e2 bf 3c 4b 6b 77 bb
       -0.0073250076 -0.009282615 0.023423204 -0.003775316
0000c0 4a d8 ed bb f4 ee fa 3c a2 11 73 3c 9a 70 be ba
       -0.0072584497 0.03063152 0.014835747 -0.0014529407
0000d0 41 94 17 3c 28 6a 2b bc 84 ae 4e bc c2 da 3e bb
       0.009251655 -0.010462321 -0.01261485 -0.002912209
0000e0 da a8 93 3c 95 5b 1d 3c b9 a9 a2 3b 2e 82 b0 ba
       0.01802485 0.009604354 0.00496408 -0.0013466531
0000f0 69 f4 0e bc f8 d7 cc 3c bd 51 57 3c 50 6b cf 3c
       -0.008725264 0.025005326 0.0131420465 0.025319725
000100 5a ac 38 bc 17 98 56 3c 39 ff 41 bc 80 8a cf 3b
       -0.011271561 0.0130977845 -0.011840635 0.006333649
000110 51 88 0d bc d8 71 b8 3c 66 ed 78 3c d4 1d d9 b9
       -0.008638457 0.022515222 0.015193319 -0.0004141169
000120 75 6f 37 3c 64 6e 4c 3c b4 67 08 bc 9a 1e 8c bb
       0.011196007 0.012477491 -0.008325506 -0.004276109
000130 8c 39 66 3c 68 45 4d 3c 8e f7 80 3a 20 0b c4 3c
       0.014051806 0.012528755 0.0009839402 0.023931086
000140 6f e5 93 bc 6b 73 df bc bd 70 76 3c 39 63 88 3c
       -0.018053738 -0.027276715 0.015041527 0.016648876
000150 fb c8 9f bc ee 47 32 bc 76 d1 bf 3b 80 99 51 bc
       -0.019505015 -0.010881407 0.005853827 -0.012792945
000160 15 8d 40 bc 31 b0 3a b9 8e 56 ec 3b 3a b0 7a bc
       -0.011752387 -0.00017803979 0.0072124666 -0.015300805
000170 9c 81 3e bc f0 55 41 3c c9 1c 54 ba 4e 56 94 3a
       -0.011627581 0.011800274 -0.00080914475 0.0011317225
000180 c1 72 99 bc 63 ac 67 3c 0f 5b c5 bc 58 55 b7 bc
       -0.018731477 0.014140221 -0.024091272 -0.022379562
000190 31 92 85 3b f1 fe 3a 3c 65 4e 84 ba 05 b6 5f bc
       0.0040762653 0.011413322 -0.0010094164 -0.013654237
0001a0 63 95 9b 3c 7f 89 5a bb 65 0c 7d 3c ff 80 60 3b
       0.018992132 -0.0033346114 0.01544485 0.0034256575
0001b0 4d 98 08 bb ae ce 41 3a 8b 6f 84 38 85 0d 0c 3c
       -0.0020842731 0.00073931634 6.315027e-05 0.008548145
0001c0 77 9f 4c bb e3 38 8e 37 c4 58 aa 3b ad 7f 92 3c
       -0.0031222978 1.6954209e-05 0.00519857 0.017883146
0001d0 6a df 06 3c 0a 20 c1 bc 42 55 55 bb 2c 6b 94 3b
       0.008231977 -0.023574848 -0.0032552038 0.0045293774
0001e0 82 e4 6d bc 60 8a 5b 3b 1b 9b 22 3b 66 b1 ca 3b
       -0.014519813 0.0033499226 0.0024811688 0.0061856983
0001f0 8e b0 43 bc c0 6b 19 3c 01 b5 a6 3c 81 91 a8 3c
       -0.011943949 0.0093640685 0.020349981 0.020577194
000200 50 00 24 3c 7e 54 57 bc cc c5 a8 3a 93 18 9c b9
       0.01000984 -0.013142703 0.0012876331 -0.00029772948
000210 82 4a 82 3c 05 1b ce bb 87 b6 f2 3b 70 62 91 bb
       0.015904669 -0.006289842 0.007407013 -0.0044367835
000220 3e 9c e3 3b 79 41 ac 3c b5 5e e3 3b b2 c5 54 bb
       0.0069461158 0.021027314 0.00693878 -0.0032466468
000230 71 36 b6 3c f7 95 6a 3b 36 40 6e 3b f3 20 b0 bc
       0.022242757 0.0035794952 0.003635419 -0.021500086
000240 dc d0 bb bc d4 e6 7c 3c db a8 c6 3b 43 0a a5 3a
       -0.02292674 0.015435893 0.0060626096 0.0012591559
000250 94 40 d7 bb 42 f8 1d bc 8e c2 89 3c cc bc b8 3b
       -0.0065689776 -0.009641709 0.016816404 0.0056377407
000260 00 ad da 3c 08 a2 0d 3c ba 7b 52 ba 8b 99 4b 3a
       0.026693821 0.008644588 -0.0008029301 0.0007766715
000270 e0 9e dd bb 4f 4f 25 3c 2f 29 f2 3b a0 60 78 3c
       -0.006763324 0.010089709 0.0073901634 0.015159756
000280 bd 14 76 3b 91 ea 7e 3b 6f 7f 09 3c 48 06 3e 3c
       0.0037548982 0.0038897137 0.008392199 0.011598177
000290 79 6f 8c bc b5 07 64 3b 13 24 37 bc 8d 19 b2 3c
       -0.017142998 0.0034794633 -0.011178034 0.0217407
0002a0 e9 b2 67 3a cd e3 aa 3b b8 10 14 ba c9 43 64 bc
       0.00088386104 0.0052151443 -0.0005648243 -0.013932177
0002b0 c2 18 29 bc 66 bf 8b b9 bb 68 7c 3c d8 98 40 3c
       -0.010320844 -0.0002665475 0.015405829 0.011755191
0002c0 0c df 53 3c 81 15 3e bb 70 28 0c 38 43 58 cf 3b
       0.0129315965 -0.0029004517 3.341626e-05 0.0063276603
0002d0 7c 78 00 3b 27 85 f8 3b 08 47 9a 3a ac 93 62 3c
       0.0019603064 0.0075842324 0.0011770437 0.013829153
0002e0 b6 01 46 3b 6e 23 24 b9 98 74 25 3c 64 d5 26 3b
       0.0030213422 -0.00015653457 0.010098599 0.002545678
0002f0 fd b5 c2 bc 63 34 f9 3b 30 b9 82 3a e8 66 8e 3c
       -0.02376842 0.007605122 0.0009973403 0.017383054
000300 04 53 4f bc 59 1f 0b 3c 43 0e 11 3c 07 9f d8 39
       -0.01265407 0.008491361 0.008853498 0.00041317215
000310 c4 00 cd 3b 50 eb 5b bb c3 6a 4d bc 76 0f fe bb
       0.006256195 -0.0033557005 -0.012537661 -0.007753308
000320 f0 1e 12 bc 35 1f d8 3c 20 dc c3 b8 ef 4e 22 bc
       -0.008918509 0.026382068 -9.339326e-05 -0.009906515
000330 3b dc ca 3b 98 03 0a bc 10 41 39 3c 0f 4e ce 3b
       0.0061908043 -0.008423708 0.011307016 0.0062959264
000340 e5 2f 02 bb 22 57 dc bb 8d 15 44 3c c3 f0 96 bb
       -0.0019864973 -0.006724254 0.011968029 -0.0046063378
000350 78 d8 0b 3c 44 4b 0e ba 82 e2 c1 3b 0c 1f bd 3c
       0.008535497 -0.00054280856 0.0059168944 0.023086093
000360 21 aa 95 ba 5e 69 64 bb f0 27 5e bb ce 8a 91 3c
       -0.00114185 -0.0034852843 -0.0033898316 0.017766383
000370 a3 72 5c bc ed 6c 43 bb 02 b1 c1 3a 33 b5 0d bc
       -0.013455066 -0.0029819563 0.0014777484 -0.008649158
000380 79 d2 52 bb 31 07 09 3c c0 5f aa 3b 3b dd 91 bc
       -0.0032168909 0.008363531 0.0051994026 -0.017805686
000390 29 e1 f5 3a a1 fa 4a bc 36 54 84 3a d8 eb b3 bb
       0.001875912 -0.012388856 0.0010095898 -0.0054907613
0003a0 7f 9c e8 3b 5c 73 2f 3b 34 78 dd 3b ea 63 b5 ba
       0.007098734 0.002677164 0.006758714 -0.0013838981
0003b0 97 6c fe 3b 83 35 d1 b8 de 79 f1 3b ab 7c ab 3a
       0.0077644098 -9.975864e-05 0.007369264 0.0013083419
0003c0 05 fe 5e 3c d3 47 6b 3c e7 95 b3 3a ee 34 44 bc
       0.013610368 0.014360386 0.0013701291 -0.01197551
0003d0 81 b5 40 3a 4b a9 86 bc cf 84 ab bb d3 3c db ba
       0.0007351265 -0.016438147 -0.005234338 -0.0016726501
0003e0 b3 49 d0 bb 87 9e bc 3b f4 8e 98 bb 88 c2 93 bb
       -0.006356442 0.0057562026 -0.004655713 -0.004509274
0003f0 32 23 69 3a b8 cd 42 bc 32 dc 1e bb 6a f2 39 bc
       0.0008893489 -0.0118898675 -0.0024240133 -0.0113493

model.8.bias f4 [20]
000000 47 ac 24 bd 0b 2f 19 bd 43 82 20 bd 4e b5 f8 3b
       -0.04020336 -0.03739838 -0.039186727 0.0075899726
000010 4d 0a 07 3b 79 7c 28 bd 0f 45 a3 b9 7d c9 6a bd
       0.0020605505 -0.04113433 -0.00031141235 -0.05732106
000020 c0 13 81 3d 43 e7 c1 bc ac 6b 00 bd 3c f1 cd bc
       0.06302595 -0.023669844 -0.031352684 -0.025139444
000030 72 5b ad 3c 6a a6 77 38 02 f6 6b bb 52 f3 8c bc
       0.021161769 5.9044374e-05 -0.0036004786 -0.017205868
000040 dc ff e2 bb f3 66 4f 3c 9d 0e cc 3c 02 89 02 bd
       -0.0069274735 0.012658822 0.024909312 -0.031868942

exp_avg f4 [128, 1]
000000 88 e7 ab b6 5e 5a 8d 36 01 ee 91 36 85 b6 ac b7
       -5.123151e-06 4.2126476e-06 4.349044e-06 -2.058899e-05
000010 5a 4b 83 b6 5b ab fd 36 ca e0 4f 37 4e dd 04 37
       -3.9128763e-06 7.559936e-06 1.2390499e-05 7.91934e-06
000020 3b 58 f4 37 a8 16 38 b6 aa be 08 37 45 c8 44 37
       2.9128152e-05 -2.7431324e-06 8.150624e-06 1.1729139e-05
000030 24 57 1f b5 e7 2d 6d 36 90 f7 a4 37 c9 16 26 37
       -5.935892e-07 3.534247e-06 1.9665604e-05 9.899676e-06
000040 01 94 ee 35 b8 89 9b b7 7f 18 f1 b6 88 2b 8a b3
       1.7775457e-06 -1.854157e-05 -7.1852114e-06 -6.434044e-08
000050 a7 b4 77 36 02 aa 87 37 26 46 8d 36 37 0d 1f 37
       3.6911022e-06 1.617242e-05 4.210294e-06 9.480215e-06
000060 c4 cb 1d 37 b8 05 e7 37 8b a4 83 37 cd 7c 5a b6
       9.405372e-06 2.7540009e-05 1.5693038e-05 -3.2557175e-06
000070 29 f3 73 b5 9c 2e 07 37 6f fe 31 35 13 a3 b1 36
       -9.08784e-07 8.057479e-06 6.630789e-07 5.2939954e-06
000080 5a 86 54 37 d5 02 04 b7 af 53 b3 36 52 fb c7 36
       1.2667466e-05 -7.8684725e-06 5.3443578e-06 5.9599197e-06
000090 6d 5f 13 37 64 45 57 b9 50 a0 80 37 0e c1 be b7
       8.784101e-06 -0.00020529848 1.533344e-05 -2.2739663e-05
0000a0 f0 fc c3 36 de 36 07 b2 e4 fc 96 36 29 5f 3b 37
       5.8408987e-06 -7.87051e-09 4.4997887e-06 1.1168225e-05
0000b0 97 82 31 37 02 7c 8d 37 e0 c9 c1 36 70 d7 10 37
       1.0580427e-05 1.6866255e-05 5.7753496e-06 8.633229e-06
0000c0 b6 84 01 b6 3a 33 47 36 82 53 07 37 38 2b 1e 37
       -1.9299746e-06 2.9683129e-06 8.06607e-06 9.4275965e-06
0000d0 21 f9 c2 36 7c d5 d2 36 c8 34 53 b7 bc a8 de 36
       5.810653e-06 6.2833406e-06 -1.2588869e-05 6.635759e-06
0000e0 5b d5 26 37 e2 c8 c8 b7 11 b3 95 b7 3e 0a 2a 37
       9.944047e-06 -2.3935401e-05 -1.7845568e-05 1.0135174e-05
0000f0 c2 dc a5 37 ac 44 2f 35 f1 e2 88 36 53 32 2a b6
       1.9772331e-05 6.529251e-07 4.0795353e-06 -2.5361267e-06
000100 23 9f 72 37 a2 5b 51 b6 d5 20 55 b7 d6 8a bc 37
       1.4461376e-05 -3.1196764e-06 -1.2703434e-05 2.2475997e-05
000110 3f 90 2c 37 23 68 c6 b7 39 b2 99 37 1f fd 68 b6
       1.0285584e-05 -2.3651932e-05 1.8322013e-05 -3.471803e-06
000120 d1 67 14 37 7a 7b 6c b7 6d 49 e5 36 8f e5 10 36
       8.845659e-06 -1.4095445e-05 6.8332797e-06 2.1591293e-06
000130 ec 3d fd b6 68 f8 29 37 d2 73 81 37 03 c8 c5 b7
       -7.547196e-06 1.0131022e-05 1.5431931e-05 -2.3577368e-05
000140 ee 3e f1 36 a3 ce 18 b7 74 a1 b0 36 e0 81 a2 37
       7.1896857e-06 -9.108017e-06 5.2640044e-06 1.9372383e-05
000150 2f 15 be b7 a1 b9 ec 36 c3 76 4d b6 80 26 93 b6
       -2.265963e-05 7.054958e-06 -3.061651e-06 -4.3854234e-06
000160 c2 de e3 b4 0c bf 26 b7 07 50 35 b7 69 dc 94 b7
       -4.2444123e-07 -9.938853e-06 -1.08070735e-05 -1.7745611e-05
000170 5a 9d e9 b6 13 ec 35 37 cf 62 c8 b6 21 f8 1b 37
       -6.9622592e-06 1.0843406e-05 -5.9719673e-06 9.296492e-06
000180 0f ea ca 36 ba fd 7e b6 bb a3 c9 36 96 60 c2 b7
       6.047317e-06 -3.7996638e-06 6.0093275e-06 -2.3171579e-05
000190 25 89 6a b6 e9 c2 b1 36 98 d5 76 b6 10 25 a3 b7
       -3.4948546e-06 5.2977016e-06 -3.6781184e-06 -1.9448373e-05
0001a0 23 52 6b 36 19 8b 47 37 e5 c4 c2 b2 f5 7e c7 36
       3.5065539e-06 1.18937105e-05 -2.267411e-08 5.945442e-06
0001b0 3d 75 24 37 22 b2 75 b7 2c 0c cb 36 57 f6 0d b6
       9.802458e-06 -1.4644613e-05 6.0512884e-06 -2.1154026e-06
0001c0 95 3f 38 b7 8f 25 39 b5 e4 d8 af 36 3e 0f 79 37
       -1.09820585e-05 -6.8972525e-07 5.240656e-06 1.4845105e-05
0001d0 ec e7 35 b6 a6 88 9d b7 c9 92 2c 36 74 37 4a b6
       -2.7106098e-06 -1.877949e-05 2.5715437e-06 -3.0132624e-06
0001e0 55 92 87 b6 51 fd d2 36 0d 28 94 36 30 9e 66 b7
       -4.040349e-06 6.2879776e-06 4.4154062e-06 -1.3745899e-05
0001f0 64 48 88 37 23 a3 02 38 6f 80 d5 35 f4 72 87 37
       1.6246173e-05 3.114635e-05 1.5907116e-06 1.6146783e-05
