checkpoints/checkpoint_epoch_850.pth (torch, 314812 bytes, 30 tensors)

lstm.weight_ih_l0 f4 [256, 2]
000000 1f 31 85 b9 0b fe d4 bc 95 1c 22 ba 5e 3f db b7
       -0.00025404335 -0.026000043 -0.00061840686 -2.6136342e-05
000010 f0 a8 df 3b bf b2 ed ae 4b 9b 28 bd 8b 91 b0 bc
       0.006825559 -1.0809264e-10 -0.041163724 -0.021553775
000020 15 12 61 bc c2 eb f7 39 16 1d a3 bc 28 da cd 39
       -0.013737221 0.00047287164 -0.01991133 0.00039263186
000030 35 5f cd 3a ed ba 83 bb 4d 75 1d bb e4 34 4c ba
       0.0015668633 -0.004020086 -0.0024026216 -0.0007789864
000040 d6 9a 88 bb d9 8d 98 b9 1e bc ef bc 37 11 59 ba
       -0.0041688485 -0.00029097384 -0.029264506 -0.0008280458
000050 38 06 91 bc 90 ae 05 3b 7d 2e e7 bc 47 8b 9c ba
       -0.01770316 0.0020398237 -0.02822041 -0.0011943363
000060 cb 7d 68 bd 4c c6 22 bd 2f bb 8f be 95 04 0c 3e
       -0.05676059 -0.039739892 -0.28072497 0.13673623
000070 15 1d f0 bb 80 31 c4 ba 95 d9 db bb 98 b5 45 3a
       -0.0073276856 -0.0014968365 -0.0067092874 0.0007542013
000080 d3 ce 13 ba 5c 04 11 b4 91 ca 15 bd 74 03 9d 3a
       -0.0005638424 -1.3505763e-07 -0.036570136 0.0011979179
000090 cd f4 fc bb 18 04 ab 3a 1a 70 9f b8 b3 5f 9b b9
       -0.007719612 0.0013047485 -7.602591e-05 -0.00029635205
0000a0 17 a2 6d bb f3 97 ba b9 0e ed d5 bb 33 2a 66 3a
       -0.0036259943 -0.00035589896 -0.0065285033 0.0008780092
0000b0 e2 e4 4b bd 7d 64 06 bb 75 3c 0c bd de f3 28 bb
       -0.049778827 -0.0020506673 -0.034237344 -0.0025780122
0000c0 da 98 2d bc df db 7c b9 90 b1 5c bd 28 9c 6b bb
       -0.010595525 -0.00024114501 -0.053880274 -0.003595123
0000d0 50 09 c1 bb 62 c4 ed 39 96 5f e0 b7 73 a1 e0 33
       -0.0058910027 0.0004535048 -2.6747392e-05 1.046018e-07
0000e0 82 d7 81 bc 20 63 3d 3b f1 c8 f8 b7 c5 6e b9 35
       -0.015849832 0.0028898194 -2.9657474e-05 1.3815812e-06
0000f0 e9 12 84 b1 08 3e 2b a1 f1 9a b1 99 79 60 6f 18
       -3.8438555e-09 -5.801915e-19 -1.8363951e-23 3.0938732e-24
000100 e1 6a 7e 3e 43 2a 07 be 4e 9e 98 bb 11 d8 31 b9
       0.24845459 -0.13199715 -0.0046575433 -0.00016960526
000110 5f cf a7 bb da 9e 48 bc 63 c9 55 b9 5d 40 9f b3
       -0.005121156 -0.012244904 -0.00020388285 -7.415722e-08
000120 40 81 1b bd 74 3e b7 bb 77 d0 46 bc 61 0c dd bb
       -0.03796506 -0.005592162 -0.012134663 -0.0067458604
000130 39 74 c8 b8 79 32 f7 b6 7c dd 2b ba ee ac a2 b7
       -9.558391e-05 -7.3670494e-06 -0.0006556136 -1.9392432e-05
000140 8e 77 bd bc ba 7a 99 b9 91 83 9b bc 28 30 10 bc
       -0.023128297 -0.00029273872 -0.018983634 -0.008800544
000150 62 4a 82 bc 5d f8 9f bb 6b 23 34 99 cd 39 cc 98
       -0.01590461 -0.004881902 -9.3129345e-24 -5.2791128e-24
000160 22 2e 0f ba 5a a2 a4 b7 c9 f9 1b bc d7 41 c6 b9
       -0.00054618914 -1.9625924e-05 -0.009520003 -0.00037814557
000170 89 3a 5e 3b 52 d0 43 3d 9e 2c 12 bd d7 11 19 bc
       0.0033909401 0.04780609 -0.03568708 -0.009342632
000180 99 17 c6 bd 5c b3 fb bb ed 7f 4d bc 07 26 0c 38
       -0.0967247 -0.0076812934 -0.012542707 3.3414017e-05
000190 c5 28 9d b8 04 21 d8 b6 b3 5e ce bc f0 06 63 bc
       -7.493937e-05 -6.441145e-06 -0.02519164 -0.0138566345
0001a0 6f 6a 20 bd 84 99 25 bd 86 07 a5 bc 4a 85 04 bb
       -0.039164003 -0.040429607 -0.020145189 -0.0020221048
0001b0 a4 10 17 b7 d3 af b8 34 40 16 f1 bc 27 68 3a bd
       -9.004176e-06 3.44006e-07 -0.029429555 -0.045509484
0001c0 46 a4 63 bc 76 dd 0f b9 52 69 88 bc 33 a2 5b bb
       -0.013894146 -0.00013720043 -0.016651783 -0.0033513426
0001d0 e5 a5 d9 bb 7d 2c 07 bb 4b 46 b5 b8 3f 8b 1c ba
       -0.0066420906 -0.0020625882 -8.643846e-05 -0.0005971677
0001e0 74 3b 52 bd 67 75 92 3d 79 d2 ff bc 88 a5 03 bd
       -0.05132623 0.07151299 -0.03122829 -0.032140285
0001f0 73 aa 22 bd bf 7c c8 3a 84 7e 3c bc 7f 32 be ba
       -0.039713334 0.0015295966 -0.011504773 -0.0014510899
000200 f3 d3 4e 3d 1b d6 ba bc 11 98 e2 b9 7e ce 06 b8
       0.0504951 -0.022807172 -0.00043219377 -3.21404e-05
000210 00 37 0d b3 13 b3 40 2f df 6c db bb 50 a0 79 bc
       -3.2879143e-08 1.7525918e-10 -0.006696328 -0.015235975
000220 40 60 c4 bb ec 31 3a ba a6 c6 11 be 9c 97 fa 3b
       -0.005992919 -0.0007102776 -0.14235935 0.007647468
000230 9e 2e 38 3d 27 b0 95 bc c0 d7 ee b9 ad 6a 86 ba
       0.044966333 -0.018272473 -0.00045555644 -0.001025518
000240 53 c5 46 bb d1 5b 04 ba d4 de 98 3b 3c 39 8b 39
       -0.0030330017 -0.0005049082 0.004665235 0.0002655479
000250 e4 2e b5 bb 6b 4e 04 bb b2 dc 9b 3b 47 47 8a bb
       -0.0055292714 -0.0020188342 0.0047565335 -0.0042199227
000260 7c a4 17 3d 25 c8 12 bd e5 02 e8 3e 50 0d 52 3e
       0.0370221 -0.035835404 0.45314708 0.20512891
000270 e6 56 76 bb 09 78 88 ba b9 d4 84 3c d9 45 f4 ba
       -0.0037588417 -0.001041175 0.016214715 -0.0018636539
000280 31 79 98 b7 a7 d8 31 b3 95 39 55 bc ca ce 0b ba
       -1.8176246e-05 -4.1408068e-08 -0.013014217 -0.0005333243
000290 a2 08 1e 3c 7c b8 c3 39 27 2e 67 bb 54 3c 0e b8
       0.009645613 0.0003733075 -0.0035275312 -3.3911623e-05
0002a0 7a 74 08 bc 8d 49 bd ba 25 dc a1 bb a8 bb ec b9
       -0.008328551 -0.0014441476 -0.0049395734 -0.00045153243
0002b0 90 cd 86 bc 2e 9f fc bb e0 8d 7b bb df aa 3c bb
       -0.016455442 -0.0077094054 -0.0038384125 -0.002878837
0002c0 cd d5 ef bb 2a 8b 9f 39 73 ce 18 3c fb 31 cf 39
       -0.007319188 0.0003043053 0.009326565 0.00039519355
0002d0 9f bc 49 bb ff 3c e2 b8 02 b5 7c b7 2e f6 b0 b5
       -0.0030782593 -0.00010787881 -1.5062515e-05 -1.318467e-06
0002e0 3a 4d 81 bb 6d d1 8c 3a d4 60 0c b8 ad 0d 8b 35
       -0.0039459737 0.0010743566 -3.346878e-05 1.0360287e-06
0002f0 91 e5 6a b5 ea aa 2e a1 0b ce 40 9a 3e 46 59 98
       -8.7505856e-07 -5.9179696e-19 -3.987111e-23 -2.8082056e-24
000300 39 c0 de be ee 1c cc 3b 34 14 5c bb ab de 0d b9
       -0.4350603 0.0062290346 -0.0033581378 -0.00013529758
000310 30 ed 89 3d 59 ff 69 bc 70 a4 05 b7 60 1d 93 b4
       0.06734693 -0.014282071 -7.965704e-06 -2.7402257e-07
000320 bc 1d 5c bb cc 21 42 bb 24 84 f9 3b 68 27 de bb
       -0.003358706 -0.0029622195 0.0076146293 -0.0067796
000330 a4 36 b3 b8 5f e1 e0 b6 93 ed 36 ba 51 1a 9c b7
       -8.545563e-05 -6.701957e-06 -0.00069781503 -1.8608904e-05
000340 0c 61 bf bb 54 41 2f b9 83 6a 4c 3b 86 bc f4 bb
       -0.0058404263 -0.00016713637 0.0031191416 -0.007468763
000350 05 08 42 bc cb e6 9e bb 2a 79 f3 9d 76 52 03 99
       -0.011842732 -0.00484929 -6.4446845e-21 -6.789194e-24
000360 02 e1 b2 b9 95 83 d9 b7 a7 1d cf bb b3 b8 43 b9
       -0.0003411845 -2.5929688e-05 -0.0063206735 -0.00018665455
000370 d7 56 f7 bd 78 0a c5 3d 9f 17 dc 3a c2 b3 2f bc
       -0.1207711 0.096211374 0.0016791708 -0.01072401
000380 18 de 8a 3d 94 24 ad bc 03 e3 0b ba 57 45 07 b8
       0.06780642 -0.021135606 -0.00053362566 -3.2251086e-05
000390 18 54 8f 39 7c ec 14 b5 03 7f bb bb 90 fd b6 bb
       0.0002733774 -5.5478426e-07 -0.005721928 -0.005584426
0003a0 e1 d2 35 3c 9f ba ff bc 09 14 91 bb fe a2 ed ba
       0.011097641 -0.031216918 -0.004427437 -0.001813024
0003b0 b9 13 23 b7 e7 89 fb b4 4f 60 b0 3c 05 74 29 bd
       -9.720149e-06 -4.685273e-07 0.021530299 -0.04137041
0003c0 fa 25 2d bc 87 3f f8 ba 6f 68 a6 bb c0 41 6b bb
       -0.010568136 -0.0018939831 -0.0050783674 -0.0035897344
0003d0 1d 0a a4 bb d4 16 29 bb a9 33 6d 3c 0f f5 12 ba
       -0.0050060884 -0.002580096 0.014477649 -0.00056059746
0003e0 cc b9 2b 3e f3 98 66 3e 39 d2 1f bb 5f 23 85 bc
       0.16770095 0.22519283 -0.0024386777 -0.016252218
0003f0 f5 0c 3c bc c5 01 09 38 90 79 f7 bb d7 0b 1e bb
       -0.011477699 3.2664993e-05 -0.007552333 -0.0024115944

lstm.weight_hh_l0 f4 [256, 64]
000000 3d ba c9 3b 93 07 b6 b8 bc 31 f3 b3 4d be 9b ba
       0.0061562345 -8.679847e-05 -1.1324616e-07 -0.0011882276
000010 4e 5e 30 3a e0 ae 9e ba 4e 8e 42 bc ab 44 4f 39
       0.00067279197 -0.001210656 -0.011874748 0.00019766639
000020 3a ed 67 b9 11 94 54 3a 23 0a 06 bb f7 a7 a1 b9
       -0.0002211825 0.0008109222 -0.002045282 -0.00030833457
000030 34 4d a4 ba 62 e0 e3 3a 7b 86 3f b9 98 27 8f 3a
       -0.0012535215 0.0017385597 -0.00018265277 0.0010921834
000040 6d a0 f3 b6 a7 d3 9d ba 76 71 76 3a cb cf 66 3a
       -7.2606404e-06 -0.0012041227 0.0009401062 0.0008804767
000050 b4 ce f6 3a 18 4a b6 39 f9 7f ad 3a 2b 92 7c bb
       0.0018829913 0.0003476895 0.0013236991 -0.0038539271
000060 f5 bd 0d b9 cb 0c 10 bb a2 00 c9 39 23 2d eb 37
       -0.00013517572 -0.0021980281 0.0003833818 2.8035201e-05
000070 68 20 0a ba d2 ca 01 38 35 a9 53 ae 09 c5 91 28
       -0.0005269111 3.0944888e-05 -4.812613e-11 1.6183684e-14
000080 31 90 d9 ba a6 84 0b ba af 15 8f bb 53 4b e5 b7
       -0.0016598759 -0.00053221954 -0.0043665986 -2.7334003e-05
000090 f8 da 1c 3b 3a d3 8d 3b 0c cc b2 b8 d8 55 16 b8
       0.0023934226 0.0043281587 -8.525708e-05 -3.5842735e-05
0000a0 2f 27 89 39 79 ca 1e 3b f4 01 27 3b a2 5e f1 a8
       0.0002615987 0.002422957 0.0025483342 -2.6797415e-14
0000b0 6c 87 7b 37 ff 40 04 3a e4 8c ae bc c5 5b 9a bb
       1.4992296e-05 0.00050450856 -0.021307416 -0.004710647
0000c0 a5 a8 12 bc 0e 31 29 39 77 cb 0f b8 05 50 1a 3b
       -0.008951341 0.0001613537 -3.428335e-05 0.002354623
0000d0 20 c0 f6 3b dc 24 1e 3a ac ba 13 b9 a7 70 21 bc
       0.0075302273 0.0006032714 -0.00014088553 -0.009853519
0000e0 a9 5a 1f 3a 99 48 51 bb 9c 5c b9 39 57 9a 8b 39
       0.0006078878 -0.003193414 0.0003535495 0.00026627138
0000f0 db 35 9f 3b ca 91 5e 3b 0f 62 14 3b 8a 28 21 ba
       0.004858715 0.0033961409 0.0022641455 -0.00061477034
000100 75 c3 33 b6 eb 0e 34 b5 8c 29 a9 b0 1e c0 b5 b5
       -2.678685e-06 -6.7076934e-07 -1.2308177e-09 -1.3541464e-06
000110 0e 2a fa b3 08 b6 16 37 2e 19 10 b6 d0 08 e6 35
       -1.1649182e-07 8.983079e-06 -2.1472329e-06 1.71389e-06
000120 d4 f3 b0 36 16 66 bb 36 43 7f 1e b6 7e a1 48 37
       5.273594e-06 5.5849187e-06 -2.361791e-06 1.1958529e-05
000130 16 24 47 36 27 fb aa 37 dc 04 85 36 23 8e 82 b7
       2.9674316e-06 2.0382531e-05 3.9642746e-06 -1.5563395e-05
000140 8b 13 7a b2 ed 50 cf b6 66 d4 51 b6 5f 88 47 b6
       -1.4556359e-08 -6.1785017e-06 -3.126706e-06 -2.973269e-06
000150 04 b7 cb 35 9a 19 8d 35 13 c6 1a 37 2e cd 90 b3
       1.5177943e-06 1.051277e-06 9.225233e-06 -6.7428445e-08
000160 4d 9a b4 b5 d0 8f bf 34 17 30 5b b5 19 a6 fd 32
       -1.3455953e-06 3.568116e-07 -8.165384e-07 2.9528609e-08
000170 21 2d 83 34 31 7a a5 34 09 e6 36 a9 1d 71 74 a5
       2.4433487e-07 3.082255e-07 -4.0611642e-14 -2.1201951e-16
000180 17 5e e2 b7 14 3c 00 b7 52 77 9e b6 db a2 1f b3
       -2.6985113e-05 -7.643383e-06 -4.7226576e-06 -3.716819e-08
000190 a5 81 87 35 9e d9 8c b5 cd 92 34 34 68 14 d7 33
       1.0096015e-06 -1.0494148e-06 1.6817212e-07 1.00154296e-07
0001a0 29 04 bd 37 75 f6 66 36 f1 8b 00 36 ae 6a ba a5
       2.2532493e-05 3.4416128e-06 1.9154943e-06 -3.2338146e-16
0001b0 e2 2c ed b3 58 f0 71 36 7f df 2c 38 c9 8f b1 36
       -1.1044337e-07 3.6051697e-06 4.1216143e-05 5.29175e-06
0001c0 6a 64 1a 35 6c af 51 36 fa 0e ce b4 9c 95 0a 36
       5.751559e-07 3.1245536e-06 -3.8381387e-07 2.0650687e-06
0001d0 cd ff 12 37 0a fc ed b4 9c 12 66 32 e7 0b 76 b5
       8.761836e-06 -4.4328073e-07 1.3391993e-08 -9.165946e-07
0001e0 65 b3 03 b4 6c c1 8c b7 c7 c1 6c b6 8f da d0 36
       -1.2265589e-07 -1.677937e-05 -3.5279534e-06 6.2243266e-06
0001f0 47 7d 15 b8 4d 40 de 37 9d e9 d9 b5 8f 8a 45 36
       -3.5641042e-05 2.6494405e-05 -1.623575e-06 2.943594e-06
000200 66 3e 23 2f 27 c6 13 2c 7b 0e dc 27 74 33 20 2d
       1.4846932e-10 2.0999953e-12 6.1077966e-15 9.106372e-12
000210 43 db 8f 2d 0f e4 c0 2c 79 d3 16 2f b4 11 07 ae
       1.635459e-11 5.482288e-12 1.3717551e-10 -3.071117e-11
000220 fe a3 74 2d c1 cf bc ae c5 c0 21 2f 19 f6 fd 2c
       1.3906208e-11 -8.586155e-11 1.471135e-10 7.218015e-12
000230 06 51 30 af 45 04 c3 ae a2 f2 c1 ac 9d 6a 22 2d
       -1.6035892e-10 -8.868332e-11 -5.5123276e-12 9.232307e-12
000240 c0 28 bc ab c7 6c c7 2c 2a 12 44 2f 4d 5d 0f 2d
       -1.3369514e-12 5.667997e-12 1.783255e-10 8.149326e-12
000250 ec 4c f2 ae 6e fd 47 ad 12 8a c3 2c ca 91 2f 2f
       -1.101855e-10 -1.1368113e-11 5.5575622e-12 1.5967952e-10
000260 b5 ff 73 ac 18 c3 aa ae 7b db 32 2c a1 64 14 2a
       -3.4674323e-12 -7.7653606e-11 2.5417158e-12 1.3179953e-13
000270 f2 dc 5b ae 42 1a e9 aa 31 6b 2a a1 4f fe fc 1b
       -4.9991074e-11 -4.1407334e-13 -5.7740107e-19 4.1854246e-22
000280 7f c3 3c 2f 40 bc 18 ad 0e d9 09 ae fc fa 95 a8
       1.7167955e-10 -8.6819996e-12 -3.1342977e-11 -1.665117e-14
000290 ef 13 4d 2e 4c a6 ce ad 1f cb 00 ac 53 e0 58 2b
       4.6629308e-11 -2.349334e-11 -1.8302649e-12 7.704993e-13
0002a0 6e 60 9e ae 5d c9 ed 2c 2b 7d 1d ad 81 b8 2f 1d
       -7.2021375e-11 6.758301e-12 -8.95221e-12 2.3256443e-21
0002b0 52 51 8c ac 69 83 d0 ad 3a b1 b3 2d 86 7e 06 ae
       -3.9880677e-12 -2.370522e-11 2.0428648e-11 -3.0580448e-11
0002c0 d2 8d 2a 2e b0 ee 44 ac b9 08 26 2a 05 fc 99 ad
       3.8779487e-11 -2.7985773e-12 1.4746788e-13 -1.7506005e-11
0002d0 cf 84 a4 ae 6a cd e8 2d 23 48 55 aa c3 17 4d 2f
       -7.481448e-11 2.6466569e-11 -1.8943228e-13 1.8653083e-10
0002e0 31 2c 8e 2d 9a 9c 0b ac 8b f5 fe 2e d0 3f 97 2d
       1.6163156e-11 -1.984002e-12 1.15942e-10 1.7195051e-11
0002f0 53 b0 38 af ab a7 4b 2d 07 ea b7 ac 37 fa 27 ad
       -1.6797345e-10 1.1576444e-11 -5.227155e-12 -9.54841e-12
000300 6b aa 4f 3a 52 b2 66 39 12 fa 0a b5 8d 1a 0e bb
       0.00079218176 0.00022000939 -5.1772906e-07 -0.0021683306
000310 29 e1 de ba a9 32 96 ba 11 4c 2a 3c 80 c6 a8 3a
       -0.0017004359 -0.001145919 0.010394112 0.001287654
000320 47 b2 35 ba 23 6c fb b9 9e b1 8c 3b dd ec a3 39
       -0.00069311674 -0.0004795502 0.0042936346 0.0003126626
000330 86 b3 6d 3c 0e bf 15 3b 2d d9 82 ba 59 e5 c2 3a
       0.014508134 0.0022849473 -0.0009982936 0.0014869376
000340 f9 05 fe 37 32 84 02 ba 9a 15 0b 3b 2e 25 13 ba
       3.028194e-05 -0.0004978805 0.0021222592 -0.0005613145
000350 10 d4 df ba c4 77 29 b9 16 ca 24 3b 65 ca 33 bb
       -0.0017076749 -0.00016161712 0.0025144867 -0.002743387
000360 0d bb 14 3a 8e 5a a6 bb 11 05 b4 b8 11 01 4f 36
       0.00056736247 -0.005076713 -8.5840125e-05 3.0846024e-06
000370 d6 b5 47 39 25 43 d2 b7 d8 01 20 2e 73 35 a0 a9
       0.00019045858 -2.5065217e-05 3.6381426e-11 -7.114699e-14
000380 9b 85 e4 bc 06 4a 17 39 74 e7 a7 bb ce d7 00 b6
       -0.02789574 0.00014428058 -0.005124027 -1.9199101e-06
000390 8d 3a 5e bb 8f 70 8a 3b cd 1b ac 38 8c c9 d6 b8
       -0.003390941 0.004224844 8.2067774e-05 -0.00010241856
0003a0 a2 01 1a bb b8 db 32 3a 30 40 8b b9 ba 2f 03 2a
       -0.0023499508 0.0006822902 -0.0002655997 1.1651696e-13
0003b0 58 09 cf 38 65 9b 5b 39 58 ba 8f bb d6 f8 c1 39
       9.8722696e-05 0.00020943357 -0.0043862276 0.00036997226
0003c0 f3 b4 e0 bb ca 69 83 38 cc 5b 99 b7 d2 48 98 3b
       -0.0068575083 6.2662715e-05 -1.8281768e-05 0.0046473527
0003d0 87 f9 27 3c 77 fd 2e bb d2 cc 82 37 d5 88 e0 bb
       0.010252363 -0.002670137 1.5592585e-05 -0.006852249
0003e0 ef a4 80 ba 2f 8f 55 b9 75 23 56 b8 bc 2f ce 3a
       -0.0009814779 -0.00020366603 -5.1054598e-05 0.0015730779
0003f0 44 63 a1 bc 78 3a ae 3b c9 be 26 bb 1b fd 8a 37
       -0.019700654 0.0053170286 -0.0025443307 1.6568743e-05

lstm.bias_ih_l0 f4 [256]
000000 dd 79 cb bc d6 69 df b8 53 d7 95 af f7 e1 47 bd
       -0.024838382 -0.00010653182 -2.725594e-10 -0.04879948
000010 c8 c0 ca bb 64 c4 2e bc a7 d6 0c bd f4 81 2a bb
       -0.006187532 -0.01066694 -0.034384396 -0.00260174
000020 ce ba d8 ba b2 63 7f bc f0 d7 0d bc cf 8e e4 bb
       -0.0016535164 -0.015587734 -0.008657441 -0.006975032
000030 c0 05 3e bd ff 65 ea 3c 1a d8 23 bb ce f5 b8 ba
       -0.046392202 0.028613089 -0.0025000633 -0.0014111341
000040 1c 16 53 b3 f5 34 8e bb 45 d8 ba bb 00 89 40 ba
       -4.9147374e-08 -0.004339809 -0.005702051 -0.00073446333
000050 12 80 b0 ba a9 5e c2 ba c7 8a 5f bb 55 41 c6 bb
       -0.0013465902 -0.0014829236 -0.0034109817 -0.0060502687
000060 a9 c2 71 bb 3f 0b 37 bd 8e 62 4f 3a cd 94 e5 b5
       -0.0036889708 -0.04468846 0.0007911109 -1.7105136e-06
000070 74 df a0 bb 2a 15 7f b6 6f 1f 36 a1 d7 73 78 99
       -0.00490945 -3.801028e-06 -6.17056e-19 -1.2844693e-23
000080 20 a4 4e 3c 99 2b dd b9 fe af 21 bc 8d a1 ba b4
       0.012612373 -0.00042184888 -0.00986862 -3.4762743e-07
000090 38 8c 85 bc 43 7e 46 bc 33 85 b0 b7 b6 1e e2 b8
       -0.016302213 -0.012115064 -2.104286e-05 -0.0001078224
0000a0 82 d4 96 bc f6 52 8c bc a7 ae 11 bc 96 72 46 99
       -0.018411878 -0.017129403 -0.008891738 -1.02595005e-23
0000b0 d4 5a 2b b6 92 81 2f ba 7f 2f 0d 3e 0e de 99 ba
       -2.5533855e-06 -0.00066950277 0.1378765 -0.0011739151
0000c0 cf 93 f7 bc 6c 2f ff b8 58 f3 90 b5 dd 74 3f bc
       -0.030221848 -0.000121681805 -1.0799658e-06 -0.011685577
0000d0 ab c8 24 bd 39 34 60 bb a0 e7 6d b5 71 73 72 bd
       -0.040230434 -0.0034210815 -8.862644e-07 -0.059192125
0000e0 a0 65 8a bb 67 2c ce bb da d8 67 bb 11 8e cf b9
       -0.0042235404 -0.0062919143 -0.0035377056 -0.00039587964
0000f0 6d 97 ce 3d d3 2f 0e bc b7 fb c1 bb 74 ec ca 38
       0.10087476 -0.008678394 -0.0059198993 9.6761534e-05
000100 a7 d3 1f bd 15 ae a7 b8 b1 1c b0 ac f7 9a b4 bc
       -0.039020207 -7.995606e-05 -5.0054062e-12 -0.02204655
000110 db 5f 67 bb db 26 7e ba 16 24 16 bd fa b7 1e bb
       -0.0035304937 -0.0009695121 -0.036655508 -0.0024218545
000120 78 fe d0 ba 63 5d 91 bc c6 8d cb bb 33 a2 0f bc
       -0.0015944978 -0.017744726 -0.006211969 -0.008766699
000130 11 8b b0 bd d3 78 27 3e a0 ef bc ba 04 6a 2c bb
       -0.08620275 0.16354685 -0.0014414676 -0.0026308307
000140 2f 57 db b3 f1 95 b6 bb 5c ee ef b9 2d 37 99 b8
       -1.0213841e-07 -0.0055720736 -0.00045763224 -7.305886e-05
000150 ff dc 85 bb b5 27 ce ba aa 84 84 bb ce 60 3c ba
       -0.0040851827 -0.0015728386 -0.004044135 -0.0007186056
000160 42 f6 77 ba 70 a5 39 bd 47 f9 ae ba 5d 9f 93 33
       -0.00094589975 -0.04532379 -0.0013349437 6.874209e-08
000170 d3 44 96 ba c3 36 1f 36 42 c8 fb a4 2b ff 13 99
       -0.0011464603 2.3724722e-06 -1.0919315e-16 -7.651253e-24
000180 9b ad 43 3e 2e 84 f3 b9 fc d4 25 bc 54 2a 78 b5
       0.19109194 -0.00046447053 -0.01012158 -9.2448795e-07
000190 28 6d ad bc 33 73 f5 bb e5 bb 8e b7 55 3e ae b7
       -0.021170214 -0.0074905395 -1.7015214e-05 -2.0771442e-05
0001a0 e8 92 73 bc 7b 5c 7f bc 2d f1 02 bc 3d ce 04 99
       -0.014866568 -0.015586014 -0.007992071 -6.8658895e-24
0001b0 30 21 22 b8 fd f5 72 bb 93 f2 a9 3e 12 2c 0b bc
       -3.8654718e-05 -0.003707289 0.33192882 -0.008494394
0001c0 02 40 7c bd a2 a6 39 37 86 90 9f ba 3e 07 1f bc
       -0.06158448 1.10656565e-05 -0.0012173809 -0.0097063165
0001d0 91 8e 4d bd 69 cd 6e bb 25 19 d2 b5 b8 c1 12 bd
       -0.05018479 -0.0036438352 -1.5653537e-06 -0.035829276
0001e0 96 be 0a bb ef 13 db bb 4d 5e aa bb 1c fc 3c ba
       -0.0021170727 -0.006685726 -0.00519923 -0.0007209198
0001f0 1a 6e ae 3e 6b 9d 29 bd a1 41 44 bc e6 37 d4 ba
       0.34068376 -0.04140989 -0.011978538 -0.0016190975
000200 b0 b6 32 3b ca b7 0a 3a 25 56 9d b4 54 34 e8 bb
       0.0027269535 0.0005291669 -2.9306207e-07 -0.007086316
000210 6d fa 84 ba ba 09 0c 3b ee 7c 01 bd 66 94 46 3b
       -0.0010145433 0.0021368102 -0.031613283 0.0030300855
000220 3d 73 58 3b b2 91 57 3c 0d 7c 61 bc 41 31 87 3a
       0.0033027672 0.013157295 -0.013762486 0.0010314361
000230 5f c3 83 3c 2d 49 d1 bd 0f e8 29 bc 1f 20 3b 3b
       0.016084371 -0.10219035 -0.0103702685 0.0028553081
000240 98 2b 1e 38 ed 7e 68 3b b7 cc e3 bb 9c 4a 20 bb
       3.7710735e-05 0.0035476044 -0.006951894 -0.0024458533
000250 f9 c1 96 3b 7e 26 8d 3b a6 b1 5f 3c b4 f6 38 bc
       0.00460076 0.004307567 0.0136531945 -0.011289287
000260 4b d5 e5 3b 6b 1e 32 3c fc ed 71 bb 4a d6 7b 39
       0.007013952 0.01087151 -0.0036915531 0.00024017054
000270 b7 46 ac 3b 03 76 19 ba 2a 69 dd ac 83 0a 8e 2a
       0.0052574533 -0.0005854072 -6.2928733e-12 2.523156e-13
000280 26 fe 27 be 7c df 43 bb ce 92 f8 bc cb f5 a2 39
       -0.16405544 -0.0029887846 -0.03034344 0.00031082178
000290 27 a0 24 bc 56 f2 fe bc 53 d9 d5 39 8d 85 58 3b
       -0.010047949 -0.031121414 0.00040788445 0.0033038587
0002a0 64 74 5a 3c 76 5e 42 bc fd a5 96 3b 9f ad 29 2a
       0.013333414 -0.011863342 0.004597424 1.5070452e-13
0002b0 51 c6 6b ba 22 0c 93 bc 59 41 75 3c 75 9c 1e bd
       -0.000899409 -0.017950121 0.014969193 -0.038723428
0002c0 9f ce 2f bd 5e 96 ba 3a 64 1a c4 38 ce 18 ff 3b
       -0.04292166 0.0014235487 9.350924e-05 0.0077849394
0002d0 9e c7 79 3b 76 40 ad bb 7a 39 97 b9 85 97 e0 bc
       0.0038113366 -0.0052872254 -0.00028843788 -0.027416
0002e0 47 5b 31 3b ef 5f 6e 3b a6 38 1d bc fb 4b 72 bb
       0.0027062462 0.00363731 -0.009596026 -0.0036971557
0002f0 8d fe c1 bd e9 e8 6b bd 19 69 9d 3b 80 35 f1 b9
       -0.0947238 -0.057595167 0.0048037884 -0.00046006963
000300 20 c2 e7 bc 87 7b cb b8 98 c9 92 af 89 25 e2 bc
       -0.028290808 -9.702803e-05 -2.6700486e-10 -0.027605789
000310 c3 b1 ca bb ec 7e ba 3b 3d e8 0e bd 33 39 fa ba
       -0.0061857416 0.0056914 -0.03488945 -0.0019090533
000320 4b 7d c9 ba 4c 2a 5b bc be 2e 0e bc be 54 67 bc
       -0.0015372423 -0.013376784 -0.008678136 -0.014119325
000330 93 94 47 bd 4b 26 61 3d 3a 24 38 bb f8 e1 8b bb
       -0.048725676 0.05496816 -0.0028097765 -0.004268881
000340 77 ee d6 b3 40 9f ba bb 96 14 c6 bb 9b 89 11 ba
       -1.0008528e-07 -0.0056952536 -0.0060449345 -0.0005551816
000350 07 0b 3e bb b5 70 19 bb 0f 9d 08 bc 4c b0 02 bc
       -0.0028998272 -0.0023413126 -0.008338227 -0.007976603
000360 5a db 76 bb 30 c0 44 bd b3 e3 bf ba 10 38 25 b6
       -0.0037667365 -0.048034847 -0.0014640003 -2.4619549e-06
000370 ac fb aa bb 47 db 97 b6 fc f6 d8 ab b1 33 72 99
       -0.00521799 -4.525678e-06 -1.5416275e-12 -1.2521546e-23
000380 3c f4 4b 3d 88 c0 22 ba 5b b1 13 bc a1 0f a9 b4
       0.049793467 -0.0006208499 -0.009014453 -3.1490075e-07
000390 bb 9f 87 bc 68 bf 05 bc 8d 59 71 b7 2e a6 32 b9
       -0.016555658 -0.008163311 -1.438557e-05 -0.0001703731
0003a0 67 3d 91 bc c6 37 98 bc f9 4b db bb 0d 24 3f 99
       -0.017729474 -0.018581282 -0.0066924063 -9.881749e-24
0003b0 30 16 51 b8 c0 fe 67 bb 56 3e 48 3e 8b 3a 1e bb
       -4.9850147e-05 -0.0035399646 0.1955503 -0.002414378
0003c0 49 9b 27 bd ba cb 16 38 22 dc 62 ba ac 73 2f bc
       -0.040919576 3.5952522e-05 -0.0008654018 -0.010708731
0003d0 13 5c 54 bd 4f dd 62 bb 3a b8 77 b5 e0 6a 36 bd
       -0.05184562 -0.0034616773 -9.2282755e-07 -0.044535518
0003e0 36 5a b2 ba 55 47 d8 bb cf a7 bd bb 1e d2 47 b9
       -0.0013607207 -0.0066003003 -0.0057878266 -0.00019056394
0003f0 70 73 4f 3e 99 09 eb bc 2d 04 1f bc c4 79 e6 ba
       0.2025888 -0.0286911 -0.009705585 -0.0017583896

lstm.bias_hh_l0 f4 [256]
000000 d8 79 cb bc dd 69 df b8 4c d7 95 af 8d e1 47 bd
       -0.024838373 -0.00010653187 -2.725592e-10 -0.048799086
000010 c6 c0 ca bb 71 c4 2e bc b7 d6 0c bd f6 81 2a bb
       -0.006187531 -0.0106669525 -0.034384456 -0.0026017404
000020 cf ba d8 ba 9f 63 7f bc fd d7 0d bc cd 8e e4 bb
       -0.0016535165 -0.015587716 -0.008657453 -0.006975031
000030 bf 05 3e bd ff 65 ea 3c 83 d7 23 bb 98 f5 b8 ba
       -0.0463922 0.028613089 -0.0025000281 -0.0014111279
000040 1c 16 53 b3 f5 34 8e bb 38 d8 ba bb f8 88 40 ba
       -4.9147374e-08 -0.004339809 -0.005702045 -0.00073446287
000050 12 80 b0 ba 90 5e c2 ba 85 8c 5f bb 4c 41 c6 bb
       -0.0013465902 -0.0014829207 -0.0034110856 -0.0060502645
000060 a9 c2 71 bb 68 0b 37 bd 11 62 4f 3a 05 95 e5 b5
       -0.0036889708 -0.044688612 0.00079110364 -1.71052e-06
000070 6d df a0 bb 2a 15 7f b6 78 1f 36 a1 d6 73 78 99
       -0.004909447 -3.801028e-06 -6.1705647e-19 -1.2844692e-23
000080 20 a4 4e 3c 99 2b dd b9 04 b0 21 bc 60 a1 ba b4
       0.012612373 -0.00042184888 -0.009868626 -3.4762616e-07
000090 97 8c 85 bc 3f 7e 46 bc 31 85 b0 b7 be 1e e2 b8
       -0.01630239 -0.01211506 -2.1042857e-05 -0.00010782246
0000a0 88 d4 96 bc ee 52 8c bc a7 ae 11 bc 98 72 46 99
       -0.01841189 -0.017129388 -0.008891738 -1.0259502e-23
0000b0 11 59 2b b6 92 81 2f ba 7f 2f 0d 3e 49 fa 99 ba
       -2.553283e-06 -0.00066950277 0.1378765 -0.0011747564
0000c0 d2 93 f7 bc e9 2a ff b8 c9 f3 90 b5 dd 74 3f bc
       -0.030221853 -0.0001216734 -1.0799787e-06 -0.011685577
0000d0 23 c9 24 bd 33 34 60 bb a0 e7 6d b5 c2 70 72 bd
       -0.04023088 -0.00342108 -8.862644e-07 -0.059189565
0000e0 1d 66 8a bb ba 2c ce bb d9 d8 67 bb 11 8e cf b9
       -0.0042235986 -0.006291953 -0.0035377054 -0.00039587964
0000f0 6c 97 ce 3d d3 2f 0e bc bb fb c1 bb e7 ea ca 38
       0.10087475 -0.008678394 -0.005919901 9.6758646e-05
000100 77 d3 1f bd fb ad a7 b8 7f f7 af ac f9 9a b4 bc
       -0.039020028 -7.995587e-05 -5.0012767e-12 -0.022046553
000110 71 60 67 bb db 26 7e ba 17 24 16 bd 1b b8 1e bb
       -0.0035305286 -0.0009695121 -0.03665551 -0.0024218622
000120 76 fe d0 ba 80 5d 91 bc eb 8d cb bb 2e a2 0f bc
       -0.0015944976 -0.01774478 -0.0062119863 -0.008766694
000130 5a 8b b0 bd d3 78 27 3e a2 ef bc ba e4 69 2c bb
       -0.08620329 0.16354685 -0.0014414678 -0.0026308233
000140 43 57 db b3 f1 95 b6 bb 3f 2d f0 b9 1b 37 99 b8
       -1.0213855e-07 -0.0055720736 -0.00045810078 -7.305873e-05
000150 fe dc 85 bb 8d 27 ce ba aa 84 84 bb 02 61 3c ba
       -0.004085182 -0.001572834 -0.004044135 -0.0007186086
000160 c6 f0 77 ba 46 a5 39 bd 47 f9 ae ba fb 9d 93 33
       -0.000945818 -0.045323633 -0.0013349437 6.8739574e-08
000170 75 44 96 ba c7 32 1f 36 ba c8 fb a4 24 ff 13 99
       -0.0011464494 2.3722403e-06 -1.0919394e-16 -7.651247e-24
000180 9c ad 43 3e d6 83 f3 b9 fc d4 25 bc 54 2a 78 b5
       0.19109195 -0.00046446797 -0.01012158 -9.2448795e-07
000190 cc 6b ad bc 31 73 f5 bb e4 bb 8e b7 8c 3d ae b7
       -0.021169566 -0.0074905385 -1.7015213e-05 -2.0771076e-05
0001a0 02 93 73 bc d4 5a 7f bc 2d f1 02 bc 3d ce 04 99
       -0.014866592 -0.01558562 -0.007992071 -6.8658895e-24
0001b0 33 21 22 b8 fd f5 72 bb 92 f2 a9 3e 55 27 0b bc
       -3.865473e-05 -0.003707289 0.3319288 -0.008493264
0001c0 ec 3f 7c bd f6 c4 39 37 86 90 9f ba 3e 07 1f bc
       -0.0615844 1.1072718e-05 -0.0012173809 -0.0097063165
0001d0 78 8e 4d bd 66 cd 6e bb 25 19 d2 b5 dc c1 12 bd
       -0.050184697 -0.0036438345 -1.5653537e-06 -0.03582941
0001e0 8b be 0a bb d2 13 db bb 62 5e aa bb 1c fc 3c ba
       -0.0021170701 -0.0066857124 -0.0051992396 -0.0007209198
0001f0 1a 6e ae 3e 6b 9d 29 bd f9 40 44 bc 6d 37 d4 ba
       0.34068376 -0.04140989 -0.011978381 -0.0016190835
000200 8c b6 32 3b c8 b7 0a 3a 25 56 9d b4 54 34 e8 bb
       0.002726945 0.0005291668 -2.9306207e-07 -0.007086316
000210 6d fa 84 ba ba 09 0c 3b f3 7c 01 bd 66 94 46 3b
       -0.0010145433 0.0021368102 -0.0316133 0.0030300855
000220 17 73 58 3b b9 91 57 3c 09 7c 61 bc 7f 31 87 3a
       0.0033027583 0.013157302 -0.013762482 0.0010314434
000230 5f c3 83 3c 2d 49 d1 bd 2a e8 29 bc 24 20 3b 3b
       0.016084371 -0.10219035 -0.010370294 0.0028553093
000240 98 2b 1e 38 ed 7e 68 3b b3 cc e3 bb 9c 4a 20 bb
       3.7710735e-05 0.0035476044 -0.0069518923 -0.0024458533
000250 f9 c1 96 3b 7c 26 8d 3b aa b1 5f 3c b7 f6 38 bc
       0.00460076 0.004307566 0.013653198 -0.01128929
000260 41 d5 e5 3b 6d 1e 32 3c dc ed 71 bb 51 d6 7b 39
       0.0070139472 0.010871512 -0.0036915457 0.00024017064
000270 b0 46 ac 3b 03 76 19 ba 68 95 dd ac 87 0a 8e 2a
       0.00525745 -0.0005854072 -6.297785e-12 2.5231572e-13
000280 26 fe 27 be 76 df 43 bb cb 92 f8 bc c5 f5 a2 39
       -0.16405544 -0.0029887832 -0.030343434 0.0003108216
000290 12 a0 24 bc 55 f2 fe bc 67 d9 d5 39 9a 85 58 3b
       -0.010047929 -0.031121412 0.00040788503 0.0033038617
0002a0 66 74 5a 3c 89 5e 42 bc c0 a6 96 3b 9f ad 29 2a
       0.013333416 -0.011863359 0.004597515 1.5070452e-13
0002b0 62 c6 6b ba 36 0c 93 bc 59 41 75 3c 72 9c 1e bd
       -0.00089941 -0.017950159 0.014969193 -0.038723417
0002c0 9f ce 2f bd 58 96 ba 3a 64 1a c4 38 d5 18 ff 3b
       -0.04292166 0.001423548 9.350924e-05 0.0077849426
0002d0 94 c7 79 3b 5e 40 ad bb 79 39 97 b9 85 97 e0 bc
       0.0038113343 -0.005287214 -0.00028843785 -0.027416
0002e0 27 5b 31 3b 28 60 6e 3b a6 38 1d bc fb 4b 72 bb
       0.0027062388 0.0036373232 -0.009596026 -0.0036971557
0002f0 8d fe c1 bd 0f ea 6b bd 14 69 9d 3b 80 35 f1 b9
       -0.0947238 -0.057596263 0.004803786 -0.00046006963
000300 39 c2 e7 bc 88 7b cb b8 98 c9 92 af a6 25 e2 bc
       -0.028290855 -9.702804e-05 -2.6700486e-10 -0.027605843
000310 c4 b1 ca bb ec 7e ba 3b 46 e8 0e bd 33 39 fa ba
       -0.006185742 0.0056914 -0.034889482 -0.0019090533
000320 4b 7d c9 ba 4e 2a 5b bc bf 2e 0e bc b4 55 67 bc
       -0.0015372423 -0.013376785 -0.008678137 -0.014119554
000330 93 94 47 bd 4b 26 61 3d 3a 24 38 bb 2f e2 8b bb
       -0.048725676 0.05496816 -0.0028097765 -0.0042689065
000340 75 ee d6 b3 40 9f ba bb a2 14 c6 bb 8f 89 11 ba
       -1.00085266e-07 -0.0056952536 -0.00604494 -0.0005551809
000350 3d 0b 3e bb af 70 19 bb 0f 9d 08 bc 4d b0 02 bc
       -0.0028998398 -0.0023413112 -0.008338227 -0.007976604
000360 5a db 76 bb 77 c0 44 bd b6 e3 bf ba 0d 38 25 b6
       -0.0037667365 -0.04803511 -0.0014640007 -2.4619542e-06
000370 ac fb aa bb 23 db 97 b6 65 f6 d8 ab c7 33 72 99
       -0.00521799 -4.5256616e-06 -1.5416111e-12 -1.2521563e-23
000380 3c f4 4b 3d 87 c0 22 ba 5d b1 13 bc 9d 0f a9 b4
       0.049793467 -0.00062084984 -0.009014455 -3.1490063e-07
000390 cc 9f 87 bc 68 bf 05 bc 8d 59 71 b7 2e a6 32 b9
       -0.01655569 -0.008163311 -1.438557e-05 -0.0001703731
0003a0 71 3d 91 bc c5 37 98 bc f9 4b db bb 0f 24 3f 99
       -0.017729493 -0.01858128 -0.0066924063 -9.8817505e-24
0003b0 1f 16 51 b8 c0 fe 67 bb 55 3e 48 3e bd 3d 1e bb
       -4.9850085e-05 -0.0035399646 0.19555028 -0.0024145686
0003c0 5e 9b 27 bd 3b c1 16 38 22 dc 62 ba a9 73 2f bc
       -0.040919654 3.5942747e-05 -0.0008654018 -0.010708728
0003d0 80 5b 54 bd 4f dd 62 bb 38 b8 77 b5 84 6a 36 bd
       -0.051845074 -0.0034616773 -9.2282744e-07 -0.044535175
0003e0 36 5a b2 ba ca 47 d8 bb d0 a7 bd bb 1e d2 47 b9
       -0.0013607207 -0.006600355 -0.005787827 -0.00019056394
0003f0 70 73 4f 3e 99 09 eb bc 2e 04 1f bc c3 79 e6 ba
       0.2025888 -0.0286911 -0.009705586 -0.0017583895

fc.weight f4 [50, 64]
000000 7d a0 d7 39 4b 26 0d b7 8d b4 39 35 6f 58 67 bc
       0.0004112757 -8.413171e-06 6.9180606e-07 -0.014120205
000010 1e 0e 45 3b 4a 75 42 3c 17 d9 ed bb a6 76 8b bb
       0.003006823 0.011868784 -0.007258545 -0.0042560874
000020 8e f2 0a 3b ed 6d 2b 3a a7 7b 94 3b d8 55 a3 3b
       0.0021201703 0.00065395125 0.004531342 0.0049845986
000030 47 49 28 3c b1 7a 01 bd df 23 ba 3b 95 58 e1 bb
       0.010271377 -0.03161115 0.0056805457 -0.006877015
000040 bb 7d 43 35 c3 d1 ef 3b a5 d1 aa bb bd 78 0a bb
       7.282612e-07 0.0073187067 -0.00521298 -0.0021129095
000050 21 4f 15 bb 07 72 08 bb da b3 61 3c b5 8f a4 bb
       -0.002278276 -0.0020819919 0.01377579 -0.005022014
000060 9e f0 9c 3b c0 79 31 bc c4 80 90 ba d9 33 ec b6
       0.004789426 -0.01083225 -0.0011024703 -7.039384e-06
000070 14 24 db 3b 99 3d 47 39 05 d0 2c af c4 2c b4 a9
       0.0066876505 0.00019001066 -1.5717212e-10 -8.0013714e-14
000080 ee 35 6f bd 01 fa b9 b9 36 46 15 3b 3e 67 97 b7
       -0.05840104 -0.00035472217 0.0022777445 -1.8048679e-05
000090 a4 34 63 bc 4c 43 4e bc e1 0c b2 b9 b3 90 bd ba
       -0.013867531 -0.012589287 -0.000339604 -0.0014462679
0000a0 9f b8 23 bc 99 3f 4d bb 4d 5f 50 3c 77 a0 82 2a
       -0.009992748 -0.0031318425 0.012718034 2.3203984e-13
0000b0 18 5e 49 ba 69 df c7 3a b7 30 d1 bd c5 22 19 bc
       -0.00076815626 0.0015249077 -0.1021437 -0.009346669
0000c0 59 52 b4 3b 64 0d 02 3a 4e 2c 38 b9 ed 4f 3c 3c
       0.0055029807 0.0004961102 -0.00017564112 0.011493665
0000d0 47 8b 76 3c 36 1e 90 bb 12 8c a6 38 39 01 8d ba
       0.015047855 -0.0043981327 7.941587e-05 -0.0010757811
0000e0 0b 1a 93 bb df a7 09 bc 45 a3 d1 3b ea b8 a9 b9
       -0.0044891885 -0.00840184 0.006397637 -0.00032371964
0000f0 8b c4 a7 3d bb b0 d6 3c 23 a2 01 bc c1 17 44 3c
       0.081917845 0.026207319 -0.007912192 0.011968554
000100 01 89 dd bc 13 ad 56 b9 45 8f 9a b5 53 17 bb 3b
       -0.027042868 -0.00020473106 -1.1515591e-06 0.0057095676
000110 bb 31 ce ba 64 d6 20 3d 3e b7 f9 bc 98 4a be 3a
       -0.0015731374 0.03926696 -0.030482884 0.001451808
000120 8c 58 95 bb 23 ea d2 ba 14 13 02 3a 3e d3 52 ba
       -0.0045576748 -0.0016091507 0.00049619493 -0.0008042342
000130 0e 4c 4c bc 7e 93 df 3c 31 c2 5d 3b 1e ca 40 bb
       -0.012469305 0.02729201 0.003383767 -0.0029417346
000140 7e e9 35 b8 d6 c6 6c 3b d9 a1 00 bc 6e 6c 24 3b
       -4.337122e-05 0.0036129258 -0.0078510875 0.0025089043
000150 4b 5b 5b 3b 84 1c 54 bb 0d bb a0 39 81 ee 89 bc
       0.0033471163 -0.003236563 0.00030656942 -0.01683736
000160 b0 1b 7f bb 05 42 49 3a b3 a3 ba 39 69 e7 b6 b9
       -0.0038926415 0.0007677379 0.0003559865 -0.0003488616
000170 95 4b 1e 3b bc 0b ca 39 80 07 96 2e 97 ee 3d 29
       0.0024153937 0.00038537185 6.8225425e-11 4.2173374e-14
000180 6d 6e d7 bd a5 a4 28 3b f5 18 8c bb 26 ed d1 b8
       -0.10519109 0.0025732901 -0.004275436 -0.00010010069
000190 fc 33 84 bb dc 40 76 3b 76 26 9f 39 a4 ea 6d b4
       -0.0040345173 0.003757528 0.000303555 -2.2157707e-07
0001a0 a4 06 9e bc 9f 3f 8b bc 93 a0 ae bb ec 28 58 aa
       -0.019290276 -0.01699811 -0.0053292005 -1.9198851e-13
0001b0 fb 67 e9 b9 53 fb 9f 3b 87 d9 5e 3d 9f e0 7a 3c
       -0.00044518695 0.004882255 0.05440667 0.015312343
0001c0 88 73 1f bb de 70 c1 ba 7e 98 e5 b9 82 2d 5a 3b
       -0.0024330337 -0.0014758368 -0.000437919 0.0033291285
0001d0 d4 14 2b bc bd 00 1f bc 5f 95 88 39 d1 0e 05 3d
       -0.0104419775 -0.009704766 0.00026051232 0.032484833
0001e0 20 84 bb 39 48 b0 9a bb 82 af 35 bc f2 69 3a 3b
       0.0003576586 -0.0047207214 -0.011089208 0.0028444496
0001f0 6b 43 f6 bd 6f 01 0e 3d 5f 6a ff b8 bc 11 1b 3c
       -0.12024578 0.034669336 -0.00012179161 0.009464677
000200 f0 2a cf 3a b9 80 69 ba aa d4 d3 b5 8c fa 97 3c
       0.0015805643 -0.0008907426 -1.5782618e-06 0.018552087
000210 53 bc c9 bb dd 99 99 bc 97 43 71 bb ae 19 ab 3a
       -0.006156483 -0.018750126 -0.0036813968 0.0013053918
000220 a8 48 a4 3a d4 30 90 3c 35 25 5f bc 10 b1 83 bc
       0.001253386 0.017601408 -0.013619711 -0.01607564
000230 c7 84 b0 bb 8c a3 d9 bd 7e f1 1e 3b 52 67 34 bb
       -0.005386922 -0.10626897 0.0024252827 -0.0027527404
000240 f7 e3 68 38 9e 3a 15 3c 10 e7 d8 bb 5a 79 a3 39
       5.552542e-05 0.009108214 -0.0066193417 0.00031180197
000250 47 1e c0 3b 33 6d 9b 3b af d7 05 bb 88 a4 f9 3b
       0.0058629843 0.004743242 -0.0020422747 0.0076184906
000260 ef c0 4b 3c 85 fa 4e 3b 41 1c ca bb a9 f3 51 39
       0.012436136 0.0031582427 -0.006167919 0.00020022564
000270 96 29 a9 ba 4c 62 8f b9 72 a7 6a af 8e 42 b5 2b
       -0.001290607 -0.00027348322 -2.1341665e-10 1.2879296e-12
000280 e4 8c f8 bb 25 a3 8d 3a 9f f1 be 3c c4 e7 d2 38
       -0.007585155 0.0010806067 0.023308573 0.0001005675
000290 9d 30 2b 3c 8d fa 99 3a 0b 66 bc 38 9c 14 d7 b9
       0.010448602 0.0011747644 8.9835456e-05 -0.0004102335
0002a0 a1 2e 03 3d 8f 19 09 bc 6c 70 6e 3b 4c 9e 9e 2b
       0.03202689 -0.00836791 0.0036382927 1.1270511e-12
0002b0 54 d7 82 3a 0d ac 8f 3b 95 02 cc bd 8e 52 31 3c
       0.0009982386 0.0043845237 -0.0996143 0.010822905
0002c0 b9 a5 ae 3c 0c 39 02 3b 83 c3 51 ba 52 e9 58 bc
       0.021319257 0.0019870428 -0.0008001851 -0.013239222
0002d0 bb 4b ff 3a 04 eb 5d ba 3d 3b 79 b8 b0 09 8b 3c
       0.0019477525 -0.0008465501 -5.9421396e-05 0.016972393
0002e0 96 1f 23 bc cf c5 e8 3b 99 36 7e 3a 1c 6f 87 bb
       -0.009956261 0.0071036587 0.0009697467 -0.0041331183
0002f0 25 f6 c4 3d 14 d9 cc bc 73 bf 8c 3c 3f 46 6b 3b
       0.09617261 -0.025005855 0.017181134 0.0035900024
000300 60 e5 97 3c 02 e4 8d ba ae f3 ac b5 22 43 1f 3c
       0.018541992 -0.0010825398 -1.2885919e-06 0.009720596
000310 77 59 fb bb dd 2b 30 bd ec 1f d3 3c ac 52 2e bc
       -0.007670577 -0.04301058 0.025772057 -0.010639828
000320 6b 6a 9b 3b ca 79 5d 3b b5 02 1f 3c fd 22 07 bc
       0.0047429106 0.0033794516 0.009705235 -0.008248088
000330 d8 c1 75 bc 03 4a d9 bc 0d 7d 7c 3b 2a d2 2b 3c
       -0.014999829 -0.02652455 0.0038526685 0.010487119
000340 b3 6c 87 38 ae 45 19 bc 4a 47 23 3c 62 f7 c7 3a
       6.4575484e-05 -0.009354992 0.009965727 0.0015256221
000350 ab c7 0d bc 6e e4 92 bb 30 36 49 bb da 44 c2 3c
       -0.008653562 -0.0044827973 -0.0030702464 0.023714472
000360 5d 14 35 bb 45 6a 19 3b db fb b7 3b f9 7c ca b7
       -0.0027630546 0.002340929 0.0056147403 -2.4138471e-05
000370 ef 60 05 bc f1 cc c9 b9 9b d7 19 af 43 a3 88 aa
       -0.008140787 -0.000384904 -1.3991867e-10 -2.4271739e-13
000380 26 4f d3 3d 8e 84 4a bb f1 54 12 3b 5e cd ce 38
       0.10317831 -0.0030901763 0.002232846 9.861098e-05
000390 4b 11 1c 3c c9 a2 c5 bb 60 79 a1 b8 a5 05 b3 ba
       0.009525607 -0.0060313684 -7.699686e-05 -0.0013658298
0003a0 31 24 82 3b 50 04 79 3c e5 a2 f5 3b e1 50 38 29
       0.0039715995 0.015198782 0.007496225 4.092636e-14
0003b0 3d cc 24 ba 5d 85 a3 3b 96 7b 95 bc 7e 4b 32 bc
       -0.00062865374 0.0049902634 -0.018247407 -0.010882257
0003c0 c3 d1 92 3b 0f aa ed b9 44 6c eb 37 2d fd 50 bc
       0.004480572 -0.00045330866 2.8064598e-05 -0.012755674
0003d0 0b 89 a1 bb 85 f8 5c 3c b7 d4 23 b9 6e 4d 3a bc
       -0.004929667 0.013486986 -0.00015624134 -0.011371
0003e0 f6 0b 4a ba 92 52 48 bb 98 98 5c 3c d6 10 ad bb
       -0.0007707471 -0.0030566794 0.013464116 -0.005281548
0003f0 9b 3c 8a 3d ba ce 71 bd c1 0a 13 3b a1 37 c3 3b
       0.06749841 -0.05903504 0.002243683 0.005957559

fc.bias f4 [50]
000000 cb 31 8b bd b4 0a 08 bc fc d0 df ba 63 8c cc 3b
       -0.06796607 -0.008303333 -0.0017075832 0.0062423213
000010 ec c0 bf bc a4 f1 ef 3c 1e 66 5b 3d 14 2e d4 3c
       -0.023407422 0.029290028 0.053564183 0.025900878
000020 4a 24 14 bd ee 3a 2e 3d 62 f9 e2 ba 76 eb 60 3d
       -0.03616742 0.04253667 -0.0017316754 0.054912053
000030 51 09 e3 3c 82 31 8e 3d 6b c4 7e 3d d2 6c 03 3d
       0.027714403 0.069430366 0.062199038 0.0320862
000040 9f 1d d9 3c cc de 3e bd 74 77 1b 3b a8 bf 42 bd
       0.026503382 -0.046599194 0.0023722323 -0.04754606
000050 9d 45 98 bd 34 ef 74 3b 28 6b 1a bd 2b 4a 1c 3d
       -0.07435153 0.0037374021 -0.03769985 0.03815667
000060 fb 7a fe 3c bd 53 00 3d 64 40 e9 ba f8 4f 27 3c
       0.031064501 0.03132986 -0.0017795679 0.010211937
000070 c6 9c 17 3d a4 cb 89 bd bc 91 32 bd dc b9 00 3d
       0.037014745 -0.067282945 -0.043596014 0.03142725
000080 dc 78 22 bc 90 62 2c 3c b1 52 3f bd 54 0a 23 bd
       -0.00991651 0.010521546 -0.04670972 -0.03980477
000090 85 24 89 bc 58 e5 61 3c 69 7b 97 bd 63 44 59 3d
       -0.016741047 0.01378759 -0.073965855 0.053043734
0000a0 c7 64 72 bc 5d 9e 37 bd 84 a2 82 bd 71 0f 7a bc
       -0.014794535 -0.04482876 -0.06378654 -0.015262471
0000b0 96 cd 1b 3d f7 ef 10 bd 61 bb 0e 3d 05 cc ea b9
       0.03803786 -0.0353851 0.034846667 -0.00044783964
0000c0 26 b8 69 3c fc d4 0d 3d
       0.014265096 0.034626946

decoder.0.weight f4 [64, 50]
000000 2c f0 a8 aa e0 eb 45 2a 14 d3 78 a8 d3 7e d3 aa
       -3.0009448e-13 1.757895e-13 -1.3812536e-14 -3.756913e-13
000010 bc 9c 9b 2a 3f 46 1a a8 2e 76 39 aa 42 bb 18 ab
       2.7642287e-13 -8.5639495e-15 -1.6472303e-13 -5.426112e-13
000020 e3 e8 0a a7 84 f3 ab 2a a3 37 90 2a b2 a3 ad a8
       -1.9277595e-15 3.0544675e-13 2.5618144e-13 -1.927785e-14
000030 f4 bf 5e aa 9b a1 c6 a7 3c e9 14 2b f5 de 94 29
       -1.9784158e-13 -5.5131253e-15 5.290384e-13 6.611197e-14
000040 7a 48 39 aa b1 9c 12 aa 3a 34 07 2b bf ab cb 2a
       -1.6456446e-13 -1.3021768e-13 4.8034114e-13 3.6179217e-13
000050 12 4c 87 2a b5 c7 88 26 eb 1f 17 29 8f 6b 5e aa
       2.4033602e-13 9.491026e-16 3.355642e-14 -1.9754878e-13
000060 40 6b 37 2b c9 6d d8 29 24 db c3 aa e3 36 de a8
       6.51635e-13 9.6113716e-14 -3.4791018e-13 -2.4670754e-14
000070 9c 43 1e 2a f2 a6 8f aa f7 6c 88 aa 9a cc b2 aa
       1.4056676e-13 -2.5517744e-13 -2.4234063e-13 -3.1761123e-13
000080 2a f2 c2 a9 7d c2 af 28 c8 a3 30 28 3d a7 46 aa
       -8.6573394e-14 1.9513249e-14 9.805477e-15 -1.7643955e-13
000090 b4 78 68 aa 4b f2 43 2a 70 09 e8 a9 b1 97 27 ab
       -2.0647617e-13 1.7403541e-13 -1.0304507e-13 -5.954083e-13
0000a0 15 fb 93 2a dc 33 85 29 69 5c 1c 2a a6 6d 6e 2a
       2.628667e-13 5.9153827e-14 1.3887645e-13 2.1176688e-13
0000b0 0c ea 09 2b 32 ac 48 a9 4d cf cd aa d3 6e 2b 2b
       4.899698e-13 -4.4558277e-14 -3.655916e-13 6.0905203e-13
0000c0 59 c6 d3 a8 74 ab fe aa f6 72 77 a5 dd 34 a1 a3
       -2.3511725e-14 -4.5238433e-13 -2.1462785e-16 -1.7478043e-17
0000d0 71 5b ff a4 12 89 3b 25 ed a9 4d a6 09 22 ba ad
       -1.1074353e-16 1.6266106e-16 -7.1353955e-16 -2.1160866e-11
0000e0 94 ea 89 a5 fa 57 4d 26 70 d4 95 25 46 7c b2 a4
       -2.3924668e-16 7.1242893e-16 2.5991333e-16 -7.740572e-17
0000f0 4a 8e 28 a5 2e 43 ea a5 26 3b 3f 24 d2 70 32 a6
       -1.4619887e-16 -4.0638052e-16 4.1466624e-17 -6.1909056e-16
000100 dd 49 58 24 d9 86 48 26 0d 27 d5 a7 2f 14 4d 25
       4.69001e-17 6.957169e-16 -5.9161715e-15 1.7787754e-16
000110 9a 3c b6 a5 d2 40 f0 24 94 31 cc a4 05 f0 52 a5
       -3.1613032e-16 1.0419322e-16 -8.8554886e-17 -1.8295918e-16
000120 d1 da 05 a6 19 d6 c7 a5 19 22 da a5 b2 f0 e7 a4
       -4.6440196e-16 -3.4666075e-16 -3.7840077e-16 -1.00588034e-16
000130 e5 b0 18 24 f2 fa f9 25 14 e0 01 26 43 07 1c aa
       3.310958e-17 4.3364662e-16 4.505955e-16 -1.3858103e-13
000140 e5 5f 27 a5 24 55 4a ad 54 b1 56 26 e2 df c3 a5
       -1.4517431e-16 -1.1501276e-11 7.448649e-16 -3.3978817e-16
000150 96 9a 9d 25 15 53 ae a6 8c 3c 05 26 48 cd 60 25
       2.733991e-16 -1.2096195e-15 4.62257e-16 1.9498455e-16
000160 7e 1d 5d 25 2a 36 58 a5 fb 28 da a4 8d d2 18 27
       1.9178687e-16 -1.8753365e-16 -9.461185e-17 2.1208377e-15
000170 21 c7 05 a5 ca 89 a0 a4 99 1d 3a 25 0a d4 81 a3
       -1.1603379e-16 -6.962236e-17 1.6142956e-16 -1.407601e-17
000180 6d d3 22 a5 2a 75 e6 a3 4e 4b 2d a5 29 e9 47 25
       -1.4122894e-16 -2.4986271e-17 -1.5030872e-16 1.7339496e-16
000190 8a 09 ac b7 5b 81 40 37 82 03 83 35 c6 b9 39 b5
       -2.050844e-05 1.147421e-05 9.761281e-07 -6.9188206e-07
0001a0 a0 aa 1a b6 45 87 97 37 ec 84 93 37 b2 d6 2e b8
       -2.3047105e-06 1.8063593e-05 1.7585662e-05 -4.1684783e-05
0001b0 08 8c bb b6 fd 26 0a b8 27 6d 16 b3 d1 02 06 37
       -5.589336e-06 -3.2938075e-05 -3.502387e-08 7.987678e-06
0001c0 70 79 09 b7 d1 f2 d7 b5 5b 59 1e 37 b5 74 15 b6
       -8.194111e-06 -1.6089417e-06 9.438339e-06 -2.2270663e-06
0001d0 ff b2 98 37 b0 35 1b b8 72 cd 3a b8 01 9e 63 38
       1.8203164e-05 -3.700488e-05 -4.453719e-05 5.426817e-05
0001e0 01 2e 36 b7 50 51 d6 b6 cf 06 eb 36 12 6d 9e b6
       -1.08587565e-05 -6.387163e-06 7.0043384e-06 -4.7214644e-06
0001f0 16 9a f2 b6 66 cd b1 b7 53 5c e8 36 c4 66 63 37
       -7.2301e-06 -2.119569e-05 6.9248867e-06 1.3554181e-05
000200 ea b5 b2 36 3a 3a 38 37 16 4d a7 b8 39 6a ad b7
       5.325991e-06 1.0980812e-05 -7.977539e-05 -2.067267e-05
000210 be 87 85 b7 cf 3f a2 36 93 79 58 b7 27 6c e7 b7
       -1.5918045e-05 4.8354045e-06 -1.29029095e-05 -2.7587708e-05
000220 03 9d 1c 36 c0 7c 56 37 33 fc 89 37 f8 3e a8 b7
       2.3337204e-06 1.278444e-05 1.6449112e-05 -2.0056483e-05
000230 25 09 d0 b7 fa 54 09 38 f3 2b 52 b7 63 9f 8d b7
       -2.479979e-05 3.2742486e-05 -1.2527208e-05 -1.688273e-05
000240 69 89 22 b7 51 60 b2 36 76 d7 68 b8 63 3f df 36
       -9.687946e-06 5.316026e-06 -5.5513774e-05 6.653297e-06
000250 ab 04 97 37 d6 24 ff b6 4a 74 1d 3b ab cc 67 3a
       1.8002776e-05 -7.6038805e-06 0.0024025613 0.00088424486
000260 e0 09 a5 3a 43 21 da b9 7f 0b 1e 38 c3 39 e5 ba
       0.0012591444 -0.00041604982 3.7680842e-05 -0.0017488528
000270 1e f4 8f 3b 82 d3 34 bb ab 31 a4 3b 9a ca 2d 3b
       0.0043931147 -0.0027591889 0.0050108037 0.0026518465
000280 8f e4 07 b9 51 9c 7d 3b ff f1 84 3b 92 cf 16 3a
       -0.00012959748 0.0038697908 0.0040571685 0.0005752976
000290 99 7e 94 b9 9b a7 51 3a e3 c1 ae 3a 9d 85 f6 ba
       -0.00028323082 0.00079976924 0.0013332929 -0.001880813
0002a0 80 d2 00 bb 56 cc ef 3a 85 c2 68 3b 4a 07 29 ba
       -0.0019656718 0.001829515 0.0035516333 -0.00064479245
0002b0 b8 89 c7 3b 18 a7 c7 3a a0 52 08 bb 17 06 bc ba
       0.0060894154 0.0015232293 -0.0020801201 -0.0014345077
0002c0 56 fe 36 3b 5c ea 45 3a aa c8 b2 3b 22 63 ef 3a
       0.0027922592 0.0007549876 0.00545605 0.0018263797
0002d0 19 06 de bb c7 9d 92 3a f0 63 37 3b 5a 90 4a bb
       -0.0067756292 0.0011185937 0.0027983151 -0.0030908794
0002e0 86 cd e2 3b 9b 1d d6 3b f3 a0 91 3b 9a ad 77 3b
       0.006921473 0.006534291 0.0044442355 0.0037792684
0002f0 ca 0a 65 bb 2b d5 03 bb 3f 04 62 bb c4 51 d0 3a
       -0.0034949058 -0.0020116072 -0.0034487394 0.0015893509
000300 b8 cb 4d bb 55 54 45 3b 07 a5 8d ba ee fc 9f 3a
       -0.0031401943 0.003011008 -0.0010806628 0.0012206116
000310 bb 45 22 3b 82 db 89 3b 62 5d 13 ba 7f fe 36 bb
       0.00247608 0.0042070756 -0.000562152 -0.0027922688
000320 c7 dc e0 26 5c d1 a2 2e 38 a6 9c 32 fe 20 0d 26
       1.5602964e-15 7.404097e-11 1.8236378e-08 4.8963915e-16
000330 81 a5 0e a6 56 54 82 26 ef ca 5f aa 44 52 86 28
       -4.9490446e-16 9.043421e-16 -1.9876785e-13 1.4912666e-14
000340 7f ff 22 af 02 6d 25 35 b0 56 5a 33 19 bb 23 2a
       -1.4824585e-10 6.162592e-07 5.0835922e-08 1.4542221e-13
000350 b4 d0 b4 b2 79 5d 8e 25 02 cf 2b b6 b8 83 26 27
       -2.1049665e-08 2.4696413e-16 -2.560148e-06 2.3108533e-15
000360 69 b1 4f 26 f4 9b ee 25 92 58 3c a6 31 51 3b 23
       7.205799e-16 4.1392097e-16 -6.534564e-16 1.0154483e-17
000370 c5 90 23 2d 54 2d a0 2d 62 9a 83 ac 82 d9 5e 23
       9.297623e-12 1.8210024e-11 -3.740384e-12 1.2080703e-17
000380 bf 9a a0 a6 db e9 be 32 6a a8 c5 26 ff 01 72 2d
       -1.1144174e-15 2.2225256e-08 1.371527e-15 1.3756551e-11
000390 66 30 8e 2d 46 1e 0e 26 f2 83 aa a6 52 e4 93 a5
       1.6165024e-11 4.9307175e-16 -1.1831883e-15 -2.565515e-16
0003a0 d8 26 62 29 22 a8 60 a5 1a e7 6d 2d 87 23 3c a5
       5.0215772e-14 -1.9485869e-16 1.3523205e-11 -1.6318438e-16
0003b0 02 0d 1f 2f 5c da 40 26 35 3e 92 24 e7 04 d2 34
       1.4465587e-10 6.6909314e-16 6.342279e-17 3.9119115e-07
0003c0 79 9e 79 a8 79 31 75 26 c3 df d0 26 5f 26 8e a8
       -1.385664e-14 8.50685e-16 1.449355e-15 -1.5781808e-14
0003d0 ac 03 91 b2 81 d3 98 a9 cc 01 03 25 bf dc 97 b0
       -1.6881891e-08 -6.786846e-14 1.1363048e-16 -1.1049436e-09
0003e0 b2 14 15 a6 ec 53 d1 27 25 8d 79 33 ae 3a 38 b6
       -5.1722807e-16 5.810014e-15 5.81032e-08 -2.7452293e-06
0003f0 fa 07 66 b5 09 53 98 b3 c5 cc 03 b5 89 0b 60 b5
       -8.5693284e-07 -7.0931556e-08 -4.909928e-07 -8.346329e-07

decoder.0.bias f4 [64]
000000 0c 7d db b8 8d c3 ba b4 97 cf 63 bb 58 42 9d bb
       -0.000104660256 -3.4787482e-07 -0.0034761184 -0.0047991686
000010 5c 45 b2 bc db e5 13 bd 69 77 f0 ad 59 f1 98 bb
       -0.021761589 -0.03610788 -2.733787e-11 -0.0046674428
000020 c3 cb 71 bc b9 e6 af 24 41 1c c4 bd 60 d3 35 af
       -0.014758053 7.628501e-17 -0.095757015 -1.653695e-10
000030 a8 05 ef ba 75 ab 0f 3d 24 87 88 9d 00 9b f3 af
       -0.0018235939 0.035075624 -3.6138632e-21 -4.4311577e-10
000040 27 94 e5 3b 4a 14 82 a7 59 c0 38 b2 85 f8 1a 31
       0.0070061865 -3.6104246e-15 -1.0753944e-08 2.2551216e-09
000050 07 b0 fd b3 f3 ab 41 be b3 1e 00 a6 b5 d8 93 bb
       -1.181325e-07 -0.1891325 -4.4450526e-16 -0.0045119175
000060 3c 4d 74 b3 97 4d 41 bc 68 1f 49 3d 82 dc 66 9b
       -5.688092e-08 -0.011798284 0.049102217 -1.9096404e-22
000070 c9 6c 17 bc 2e 44 b6 b7 94 61 d1 3c 52 12 c4 b2
       -0.009242245 -2.172784e-05 0.025559224 -2.2825734e-08
000080 ef b0 58 3d 49 a6 9d ae 64 76 2e bc c6 eb cf b3
       0.052903112 -7.1690716e-11 -0.010648344 -9.6820756e-08
000090 55 15 15 3d 5b c7 a4 94 8a 17 0b a2 59 0c 4c b5
       0.036397297 -1.66384e-26 -1.8850474e-18 -7.601389e-07
0000a0 64 00 1d b2 39 74 76 3d 74 60 ca aa ca 1f 74 be
       -9.138692e-09 0.060169432 -3.5949336e-13 -0.23840252
0000b0 8f f0 73 a1 3b 30 65 b4 1c c9 4b bd 9c 4f f9 b7
       -8.264998e-19 -2.1344833e-07 -0.04975234 -2.9720184e-05
0000c0 8e 4d 97 be e2 06 8e bb 02 fc a3 ba 12 e9 af bd
       -0.29551357 -0.0043343166 -0.0012511017 -0.085893765
0000d0 6c 93 c4 ad 99 e2 92 b5 53 cd 33 3d 51 2a a0 b9
       -2.2348089e-11 -1.0943796e-06 0.043896984 -0.00030549106
0000e0 f7 39 1d 3d f2 a9 27 b7 c2 82 77 b8 c3 23 e5 b5
       0.038385358 -9.993544e-06 -5.9011167e-05 -1.7072238e-06
0000f0 bc c1 e7 94 e8 36 19 bb 43 2e d0 b2 19 9d 89 a9
       -2.3401454e-26 -0.0023378674 -2.4235424e-08 -6.111274e-14
