checkpoints/checkpoint_epoch_500.pth (torch, 314812 bytes, 30 tensors)

lstm.weight_ih_l0 f4 [256, 2]
00000000: badc 98bb c490 1fbc d153 d8bb 2bd8 3a2b
00000010: 6a4b 7a3e b219 8e3a 4666 1439 6d2b 41b0
00000020: 9a82 3131 d0e1 05b1 e48e d4bb b73a 03b9
00000030: e257 ca39 8673 4aa4 8ad8 c137 ea9a 1aad
00000040: 8272 bcbc 540f d7bb 81e6 4635 54ba 31b5
00000050: a8c0 d636 8eb4 7aa5 48a3 5fbd 0bd5 59bb
00000060: 3104 dbb1 f8e2 faae b2b8 9bbe 7524 c53d
00000070: 8dff f1bc e534 aabb 4d78 acbc 67d1 e8bb
00000080: da5a 12be 350f 41bc 6e6c a5b9 9798 65ae
00000090: f06e b735 ffaf 09b6 d767 8d3c 1cc7 0e33
000000a0: 6187 993a b14c 26b6 ffe9 6937 800d 6aa6
000000b0: e778 1bbb e949 16ac bf10 cc35 1db3 31a9
000000c0: 5759 233d 27c5 09b1 f8e7 bc3a d999 45bc
000000d0: fe92 d4b7 ac6d aeb2 a62e 8eb7 df61 e3aa
000000e0: 7a82 c2b7 daa5 2bad fb0b 66bc e786 ef3a
000000f0: 77c2 18be c5be ebbb ce19 01be 6cf0 99bc
00000100: fe98 9e3e 2fa2 1cbe 1ed7 44bb ad1a 26b7
00000110: fe0e 02bb 49e4 6db6 bc84 04be 8e0b 50ba
00000120: 6753 81b9 1069 02b8 2cda 3538 1aaf 80b8
00000130: 8e42 5abd 8537 e43a 2410 8e3b 78cf 7eb7
00000140: 9a69 31bb e5d1 8dbc 181c 3ebc 67ed 5fbc
00000150: d436 bcbd 0a8a 46b8 edbf 1e3d 8d6b 78bb
00000160: e5ca 2bbb 60db 34b7 795c 0fbd 5b96 6fbb
00000170: 8348 fa3c 35a0 4e3c 9394 d7bb 7575 a8b9
00000180: 408d 1fbb fe8a 3cb3 fbf2 ac3b 08cc c8b9
00000190: 71df 51b9 30e1 c0b7 a7d8 fe39 9ccb 46b4
000001a0: 0dda d2ab 75e3 1ea3 0d46 3739 fc55 6da9
000001b0: 103f c4bc c73e 01ba a2b5 4b3b 6e56 bbbb
000001c0: c4eb 97b7 ae1b f4b4 43ce 0db8 9da2 1ab8
000001d0: 6680 b5b9 a06f 5aad e4f1 9e3c 790d d539
000001e0: 46c5 2bbd 2da2 803d 69af 823d d4dd 7ebb
000001f0: e562 32b6 bde4 8aa8 35c4 96b7 59e6 58b4
00000200: f30a 5a3b ffd3 02bc d9ac feab 6701 63ab
00000210: 9828 7d3c 3fbc 793b c516 493d a92e b6b2
00000220: 3a58 5c31 ee13 bcb0 9dde 1bbd 7f24 55bb
00000230: 0cc6 beb4 a272 0ea4 aa2a f431 ba44 1aad
00000240: 8bcc 83bd f68a a2bb 3bf7 8235 9d83 0fb5
00000250: 81fb bd35 10cd c7a5 8080 60bb 4897 3ebb
00000260: f879 12b0 5076 b7ae 1ec8 da3e 0cb8 5d3e
00000270: 487e 6bbd b92c 9fbb 8b9b 9a3b ab11 0cbc
00000280: 0d02 afbd eb35 62bb 8df0 b5b7 7069 db2d
00000290: 8a1d 5036 09f1 1cb6 6df3 a3b6 e94b 63b2
000002a0: c9d3 3eb8 9ee8 43b7 403f 9534 654e b6a5
000002b0: 5860 a6b4 25cd b0ab 1fc4 c5ab 2d59 85a8
000002c0: 20fc ae3a ebd9 1eb0 1c77 993c 38c1 8cbc
000002d0: 73cf 93b4 a943 c3b2 8181 44ae 8dd8 13ab
000002e0: 3304 00b5 d1a4 29ad 78a2 34bd 6f1f a1bb
000002f0: 61e9 8abc df27 653b 3efa 7abd caad c2bb
00000300: 7d94 dbbe 4af3 a4bc ea50 c2ba c2c6 adb7
00000310: 58bb 62b7 82e9 8cb6 0dd0 fbbd 8950 343c
00000320: e2f4 99b9 4c3b bdb8 a5f1 0e39 6636 83b8
00000330: 8dc8 0ebe 66d3 7e3c 3d0f d238 7307 a6b7
00000340: 1ff6 243d b7b8 c1bc e8d2 823b 9998 86bc
00000350: a972 3bbd f6b3 52b8 36ec 703b 555c 20bb
00000360: 2189 3ab9 3e5b b4b7 90ed 4dbd 6bcf 94bb
00000370: f3ae 22be d383 483d cc4d 94ba 4395 85b9
00000380: bf49 a0b8 4cf4 89b3 5c91 0eba a63d 4fba
00000390: 4a8a a739 a592 c2b7 9638 6d3d 4951 26b7
000003a0: abe8 afb8 b1a0 e8a2 603f 0e38 1435 b2a8
000003b0: d00c f4bc f2ed d0ba bb46 063c f4f7 78ba
000003c0: 283f 32b7 fce3 a8b4 bc0e b037 8cfb 13b8
000003d0: 0b81 48b8 57ec 92ad e82d 803e fc83 b43c
000003e0: 3f6d ed3d d748 503e e06c da3d 7e4f 223c
000003f0: ab94 2b29 05c0 83a8 1fef be35 95bb 30b4
-0.0046649845 -0.009739105 -0.0066017886 6.638047e-13 0.2444283 0.0010841398 0.0001415248 -7.02747e-10
2.5831128e-09 -1.9482407e-09 -0.0064867605 -0.00012515007 0.0003859392 -4.389962e-17 2.3108227e-05 -8.788284e-12
-0.02300382 -0.0065631066 7.4096175e-07 -6.620878e-07 6.400125e-06 -2.1745218e-16 -0.054599077 -0.0033238556
-6.3742154e-09 -1.14090015e-10 -0.3041435 0.09626094 -0.029540801 -0.005194294 -0.021053458 -0.007105041
-0.1429247 -0.011783411 -0.0003155204 -5.22041e-11 1.366685e-06 -2.0517034e-06 0.017261429 3.324304e-08
0.001171332 -2.4780568e-06 1.3942364e-05 -8.1203355e-16 -0.0023723186 -2.135731e-12 1.5204058e-06 -3.945725e-14
0.039880123 -2.0048192e-09 0.0014412394 -0.012060606 -2.5340818e-05 -2.0306139e-08 -1.6949441e-05 -4.0391212e-13
-2.318736e-05 -9.757051e-12 -0.014040942 0.0018274457 -0.14917932 -0.0071943724 -0.126075 -0.0187914
0.309761 -0.15296243 -0.0030035446 -9.900582e-06 -0.0019845362 -3.5448631e-06 -0.12941259 -0.0007936292
-0.00024666937 -3.1092262e-05 4.335695e-05 -6.136131e-05 -0.053286128 0.0017411566 0.00433542 -1.5187885e-05
-0.0027071 -0.017312 -0.011603378 -0.013667441 -0.09190145 -4.7335438e-05 0.038757253 -0.0037905902
-0.0026213464 -1.0779913e-05 -0.0350003 -0.0036558125 0.030552154 0.0126114385 -0.0065789907 -0.0003213097
-0.0024345666 -4.3898574e-08 0.005277989 -0.00038298988 -0.00020015032 -2.2993045e-05 0.00048608074 -1.851426e-07
-1.4981919e-12 -8.613363e-18 0.00017478336 -5.269915e-14 -0.023955852 -0.0004930314 0.0031083603 -0.0057170903
-1.811039e-05 -4.546868e-07 -3.3809116e-05 -3.6867907e-05 -0.00034618675 -1.2416651e-11 0.019402452 0.00040636564
-0.04193618 0.062809326 0.06381113 -0.0038889544 -2.658163e-06 -1.5420277e-14 -1.797276e-05 -2.0200368e-07
0.0033270686 -0.007985114 -1.809576e-12 -8.0648547e-13 0.015451573 0.0038106588 0.04909398 -2.1208807e-08
3.2064364e-09 -1.3684465e-09 -0.038054097 -0.0032522974 -3.5534356e-07 -3.088844e-17 7.106185e-09 -8.769147e-12
-0.06435498 -0.004960413 9.757708e-07 -5.3463174e-07 1.4154795e-06 -3.4659953e-16 -0.003425628 -0.002908187
-5.328782e-10 -8.342893e-11 0.42730802 0.2165224 -0.057493478 -0.0048576263 0.004718249 -0.008549134
-0.08545313 -0.0034517 -2.1688897e-05 2.4944241e-11 3.101161e-06 -2.3386112e-06 -4.886117e-06 -1.3230399e-08
-4.549677e-05 -1.1677066e-05 2.7799433e-07 -3.162509e-16 -3.099001e-07 -1.2562491e-12 -1.4052126e-12 -1.480464e-14
0.0013350286 -5.7789745e-10 0.018733554 -0.017181978 -2.7531823e-07 -2.2731756e-08 -4.4680263e-11 -5.2525416e-13
-4.7689826e-07 -9.643134e-12 -0.044100255 -0.0049170773 -0.016956987 0.0034966392 -0.061273806 -0.0059411274
-0.42886725 -0.02013554 -0.001482514 -2.0715761e-05 -1.3514269e-05 -4.199509e-06 -0.12295542 0.011005529
-0.00029364886 -9.023267e-05 0.00013632195 -6.256699e-05 -0.13943692 0.015553331 0.00010016419 -1.979221e-05
0.040273782 -0.02364765 0.003992427 -0.016430186 -0.045763645 -5.0235503e-05 0.0036761886 -0.0024469097
-0.00017789427 -2.150016e-05 -0.050275385 -0.0045413277 -0.1588705 0.048953842 -0.0011314689 -0.00025478945
-7.643131e-05 -6.423997e-08 -0.00054385304 -0.00079056097 0.00031955756 -2.3194889e-05 0.057915293 -9.913297e-06
-8.387988e-05 -6.3053865e-18 3.391446e-05 -1.9784989e-14 -0.029791266 -0.0015940054 0.008195574 -0.0009497397
-1.06243315e-05 -3.145832e-07 2.0987696e-05 -3.5281802e-05 -4.7803896e-05 -1.6703234e-11 0.25035024 0.022035591
0.11593103 0.20340286 0.106652975 0.009906648 3.8098576e-14 -1.4627197e-14 1.4225697e-06 -1.6459519e-07

lstm.weight_hh_l0 f4 [256, 64]
00000000: 5091 e83a 5e9e e8b1 1ee6 ba39 2f97 1334
00000010: 0274 d233 1be3 7c3a 12d1 daad e0e8 79b3
00000020: f50f 4abb 73ba a934 6782 07af a3d9 bd3a
00000030: 1d47 6fb3 57b8 053a 339c f93a 24b5 c7ba
00000040: 07e3 a5ba 362a bcb4 d987 1637 7bdf 4236
00000050: 7a1d d637 60f4 5db0 2535 99b1 da5c d5ad
00000060: 8703 1d34 926f f5ba e3f7 fa35 5042 e0b1
00000070: c5ef 68b1 d151 6ebb 84e7 fcb9 7cb0 04bb
00000080: ec6f 91b9 98c5 69b8 5cd7 3236 a029 763b
00000090: d85b 7c36 cf15 fab7 f174 643b eea5 9ab8
000000a0: 3ca7 26bb dce3 403b 2b49 f2b8 e5d0 d439
000000b0: 2b58 feb7 78fe 173b bfce 78bb ecc8 5339
000000c0: 7a84 2f37 a3f9 97b8 afeb 25b6 e1eb 8435
000000d0: aca5 4c2d b5c4 fa31 08d2 943a 54db b3ba
000000e0: 51a6 b5b6 2872 bcb8 7da6 72b3 c1fc 193b
000000f0: 8d24 ce39 5b8d 05bb b75b 27b0 7d41 0837
00000100: 31c3 7829 2a80 eca1 240f 96ab 9eca 44a5
00000110: 20f7 94a4 5c0f 2aab fd19 e11d d6b5 9622
00000120: 7a45 452b 8ba5 d5a6 347d 881e d79e 2bab
00000130: 6d27 39a3 c361 722b 4e19 5c2a c5d4 012a
00000140: 1c26 c32a 07d4 5ea4 f0f9 2827 ed89 ce25
00000150: f3bf 97a7 5141 061f efcc 2023 a12d 21a0
00000160: 181f d323 4199 02aa 5023 2326 c817 18a1
00000170: c088 8fa2 2ac1 3f2b b66d 62aa 439e 52ab
00000180: c2dd 662b 4ce9 aa29 936e 22a8 40a0 802a
00000190: 18fd 4da9 ca08 e5a8 fa28 f72a e9c3 6d28
000001a0: d994 ff2a 73fb d729 639e 21a8 9eb3 f72a
000001b0: bcbd 5b27 7994 9e2a 793a 18ab 202f 4729
000001c0: 96ed 0f25 eb45 2f29 5b14 21a9 246a 8ea5
000001d0: 00d3 049f a613 9ca0 546d 2a2b 0623 eea9
000001e0: 0cfe f5a6 5ccc 9ca8 1a94 0aa2 5b54 dbab
000001f0: 6204 8eac ba0b f8ab 66b4 a89f 5811 1827
00000200: a919 9cbb 9c92 8e32 a0e3 e739 4c2b 8e34
00000210: 99bf 2e36 a97f a43a 8a1c c6af 3547 29b3
00000220: 3a82 12bb 90f2 8238 afab d0ad 1775 cf3a
00000230: 6648 51b2 ca5d 053b f33b 133b 53c1 8c3b
00000240: e08b 823b 9434 dab4 89cb 15b9 59f7 dfb5
00000250: 31b7 a2b7 3a74 36b1 a5d9 4132 3e52 3130
00000260: eaaa c4b4 e396 193c a923 6136 aaf0 4f33
00000270: 65aa 6933 d9ad deba 0bee 8f39 cd30 3339
00000280: 3893 803a c883 6ab7 ad03 8d37 94af ff3a
00000290: 5f98 6539 06b3 2937 2cc5 493b 9d32 43b7
000002a0: 8e9d 83ba 07d1 b5bb f1df 27b9 8fa3 28bb
000002b0: b162 31b7 2e19 3c3b 791e 3bbb e4d2 b1ba
000002c0: 648c c636 b0d3 463a ae8a a436 c02d f935
000002d0: ec6a e12e 19e0 2832 766e 8bba e6f3 ee3a
000002e0: dac6 2bb7 3178 9d36 1726 5335 1ba6 9f3a
000002f0: d4ac c1ba 4627 1d3a b7d5 1132 e9dc 48b6
00000300: d5f4 1430 8c8c 41a7 c85d 9eae 6762 b72a
00000310: f5c6 9329 d514 bcaf dea4 c0a0 3903 9ba8
00000320: 4211 572f 5283 ca2b c0b7 7625 b191 ea2f
00000330: 952f b029 ccb0 0a2e a811 bcae 4590 912e
00000340: 8b08 1230 a12f 082a 06f7 43ab cf83 0aac
00000350: 14e4 1cae 21fc 95a3 7bd8 faa5 f8c1 8f26
00000360: f329 90aa 26f0 dfaf 4866 9129 101c 38a7
00000370: 158d 46a8 f0d0 b92f 6b72 0fb0 8f4b f92f
00000380: 892b 87b0 3c60 12ae d765 032d d83c 9daf
00000390: 0df0 3bad 4a5c 382e c6c0 21af ac57 89ad
000003a0: fa78 acb0 303d 992e 80f8 992d 8033 34b0
000003b0: b0d3 a72d 74c5 ddae b154 1830 48e5 152f
000003c0: ded6 8a2b c75e 0f2f 938d f7ad 6412 5eac
000003d0: ed8d a922 7abd 3026 2d0c a82f ac5b e9af
000003e0: fe2d 532b 792f 1a2e adde ba28 a459 8730
000003f0: 89dd 2bb0 f69a ebaf 1457 00a5 4c19 d9aa
0.0017743502 -6.770093e-09 0.00035648135 1.3745442e-07 9.799989e-08 0.00096468785 -2.4876576e-11 -5.818663e-08
-0.0030832265 3.1614363e-07 -1.2324507e-10 0.0014484416 -5.57112e-08 0.0005101016 0.0019043743 -0.0015236479
-0.001265616 -3.504844e-07 8.972326e-06 2.9038335e-06 2.5524514e-05 -8.074661e-10 -4.458928e-09 -2.425653e-11
1.4623048e-07 -0.0018725267 1.8698596e-06 -6.526797e-09 -3.3896737e-09 -0.0036364684 -0.00048237678 -0.0020246794
-0.00027739943 -5.5735552e-05 2.6649423e-06 0.0037561432 3.7604386e-06 -2.9812478e-05 0.0034859742 -7.374199e-05
-0.002542927 0.002943269 -0.00011553088 0.0004059143 -3.0320216e-05 0.0023192447 -0.0037965027 0.00020197377
1.0461657e-05 -7.2467396e-05 -2.4724102e-06 9.903416e-07 1.1632844e-11 7.2983206e-09 0.0011354098 -0.0013721981
-5.413582e-06 -8.985802e-05 -5.6496436e-08 0.00234966 0.00039318614 -0.0020378444 -6.088458e-10 8.121479e-06
5.5236364e-14 -1.6025907e-18 -1.0662343e-12 -1.706894e-16 -6.4603415e-17 -6.041745e-13 5.9583875e-21 4.0850108e-18
7.008488e-13 -1.4824715e-15 1.4451343e-20 -6.097184e-13 -1.0037219e-17 8.611134e-13 1.9548705e-13 1.1531321e-13
3.4665402e-13 -4.831817e-17 2.3450175e-15 3.5828766e-16 -4.211903e-15 2.8429632e-20 8.717014e-18 -1.3652328e-19
2.2889835e-17 -1.159949e-13 5.6599843e-16 -5.153108e-19 -3.8905017e-18 6.81249e-13 -2.0110896e-13 -7.482662e-13
8.2020165e-13 7.589987e-14 -9.0167835e-15 2.2848563e-13 -4.5738668e-14 -2.5427919e-14 4.3904447e-13 1.3198624e-14
4.5400383e-13 9.5915375e-14 -8.97164e-15 4.4000648e-13 3.049521e-15 2.8169462e-13 -5.4082395e-13 4.422775e-14
1.248377e-16 3.891845e-14 -3.5766837e-14 -2.4704997e-16 -2.8126622e-20 -2.644043e-19 6.0547856e-13 -1.0575399e-13
-1.706915e-15 -1.7408106e-14 -1.8780892e-18 -1.5584299e-12 -4.0363693e-12 -1.7624715e-12 -7.144921e-20 2.110364e-15
-0.004763801 1.6597646e-08 0.00044229347 2.6481064e-07 2.6039545e-06 0.0012550253 -3.6036268e-10 -3.941314e-08
-0.0022355453 6.244064e-05 -2.3723105e-11 0.0015827742 -1.2181863e-08 0.0020350092 0.0022466152 0.004295507
0.0039839596 -4.064392e-07 -0.0001428557 -1.6686782e-06 -1.939721e-05 -2.6550553e-09 1.1283565e-08 6.45091e-10
-3.66322e-07 0.009374353 3.354837e-06 4.8414826e-08 5.4404513e-08 -0.0016989066 0.0002745244 0.0001708895
0.00098095 -1.397817e-05 1.6810221e-05 0.0019507282 0.00021895905 1.0114867e-05 0.003078769 -1.163469e-05
-0.0010041462 -0.0055485996 -0.00016009786 -0.0025732254 -1.05730005e-05 0.0028701532 -0.0028552099 -0.0013566879
5.9172035e-06 0.00075846445 4.9037253e-06 1.8565261e-06 1.02508085e-10 9.829841e-09 -0.0010637778 0.0018230646
-1.0238693e-05 4.6929567e-06 7.8659053e-07 0.0012180241 -0.0014776238 0.0005994927 8.488704e-09 -2.993091e-06
5.4190014e-10 -2.6860321e-15 -7.201667e-11 3.257561e-13 6.562625e-14 -3.4211803e-10 -3.2635165e-19 -1.7209854e-14
1.9560267e-10 1.4389412e-12 2.1399356e-16 4.2667872e-10 7.824224e-14 3.1534594e-11 -8.5523866e-11 6.619464e-11
5.312663e-10 1.2095751e-13 -6.962073e-13 -1.9684148e-12 -3.5672867e-11 -1.6261393e-17 -4.351478e-16 9.975194e-16
-2.5608647e-13 -4.07341e-10 6.4570365e-14 -2.5550342e-15 -1.10218e-14 3.3799763e-10 -5.2185695e-10 4.5346524e-10
-9.834916e-10 -3.328203e-11 7.469101e-12 -2.8601366e-10 -1.0683021e-11 4.1918725e-11 -1.4711352e-10 -1.5614031e-11
-1.2549031e-09 6.9685036e-11 1.7504442e-11 -6.5556804e-10 1.907971e-11 -1.0084991e-10 5.541763e-10 1.3632928e-10
9.865127e-13 1.3039446e-10 -2.814352e-11 -3.1558306e-12 4.595781e-18 6.1319055e-16 3.0567673e-10 -4.244759e-10
7.5026086e-13 3.505771e-11 2.0746718e-14 9.84802e-10 -6.252426e-10 -4.2856357e-10 -1.1131733e-16 -3.8564497e-13

lstm.bias_ih_l0 f4 [256]
00000000: 8e42 ebbb ad5c 64ab e6b3 ecbb 12de aeb0
00000010: d222 29b0 d873 6abb 01f6 80a5 9ec8 2eb1
00000020: ff74 2cbb ce5d 58b4 2091 3624 a47a d0bb
00000030: 949c 86ae 37db 883c f7d2 19bb 0e54 8bbb
00000040: 880a a2bc 2189 a3af 78af 50b5 cf31 4c33
00000050: 85a4 b737 f436 2ea6 810a 4bac 5a2b 0ead
00000060: 7597 73b2 2d60 abbc 639f ef31 8be7 c7aa
00000070: 23b3 8ead 85d6 df38 26de f939 80b7 85bc
00000080: 6b2f fc3b 35f5 2bb8 642f 2e35 e01f ab3c
00000090: 548b 42b8 41cf a3b8 9c53 d53c 946f bdb7
000000a0: 3a65 1bbd e79b 5bbc e89f c4b8 8eb6 9ebb
000000b0: e2f2 92b7 21a9 2cbb 1774 af3d 9a82 7db9
000000c0: 0d60 01b3 a6b0 67ba e441 a4b7 8ad8 9cb7
000000d0: 27ad 05a3 1298 28a9 28c9 a8bb fb75 1cbc
000000e0: fd07 c3b3 175b 5ab8 2599 cfb0 574f 6fbb
000000f0: 355a a13d 4423 84bb f82e 75ac 0494 a3b4
00000100: 08dd 0cbc fb4f adaa 3686 b2bb e6f4 a8b5
00000110: 5612 06b1 7be6 49bc 0ea0 5ea4 e65b 35ad
00000120: 1339 9b3a 5e85 4eb5 c247 2ba5 5e82 03bc
00000130: 5563 c3ae a911 3b3e 9b8c a53a f7db 01bc
00000140: 1de7 8dbc 7faf 74b4 9ba7 3fb6 616d f232
00000150: 4386 5a35 c4f9 24a6 49d1 3aac 839c 4aa8
00000160: 9f65 d1b1 6e5a cabc 884f 1b36 9f66 49ab
00000170: 40cc 25ad 1c0c f5bb 325a 023d a7d1 dabb
00000180: aac2 7e3e b62a 25b8 516c f8b9 203c a13d
00000190: cb83 a0b8 c8a7 48b8 163b 8d3d 6680 ffb7
000001a0: 0684 53bd a1ec 8abc a79e ad37 58fa b6bb
000001b0: 7434 8db7 f278 453b a124 483e b47b 8fb9
000001c0: fec0 c2b3 7228 9cba cae8 b0bc e6a2 e5b5
000001d0: c69c bea2 4d3a 17a9 3412 a0bb fc1d 9dbb
000001e0: 6ea3 2a33 4c7d 2db8 e12f 1fae 9c1d 923c
000001f0: da03 ad3e c543 1f3c c7ee c2a8 5629 8bb4
00000200: 9278 393b deff f035 e1f2 c9bc 42c3 d3b6
00000210: 1b10 0ab6 9151 cabc ac60 a42f 3e92 15b5
00000220: 4be2 b03a a6b8 a7b8 5c5c 75b0 f830 4d39
00000230: 4413 14b5 4896 ecbd d8a9 07bc d49a e5bb
00000240: be11 94bb c9b5 5a38 4cb1 b038 61af dc36
00000250: 05db 1c3a 4cef ab30 8f36 fc34 c2cc 3d31
00000260: 131d 9b37 6167 5bbc 7b07 16b9 b027 0ab4
00000270: e299 9234 1ae2 03ba 663e 2d3d 4e45 6abb
00000280: 50a5 3dbe cdbe f8ba 7a6a ffb9 bea7 a1bb
00000290: 37b9 003c 1f58 c7b9 1325 7bbc cdcd 083a
000002a0: 33c9 a43c cccc 603c 947e b33a fd2b 703c
000002b0: 1bca 05b9 fe0e 19bc adaf 87b9 6b72 abba
000002c0: 92ca f4b7 f21a b3bc af8f 113a e9f3 8438
000002d0: 8d0d 3730 4fa3 f1b1 4007 013c 7a83 02bb
000002e0: 22f7 8539 f590 6938 4558 25b5 ee77 f1bb
000002f0: 2f00 c2bd 8fe1 8abe f90a ebb2 7e5a 9238
00000300: c42c 00bc 7efc 9aab a0c0 d2bc 5582 48b5
00000310: 531a 19b0 6061 0ebc ab57 16aa ba6a a5b5
00000320: 9fdf d5ba e2fb d9b3 637d 8dae 0847 16bc
00000330: 8b61 01af ade8 5f3d 3f83 cabb 5c2d c6bb
00000340: 9e77 c4bc d963 d3bc 93ab 2db5 a04c 3c33
00000350: 99d0 c036 8ab1 e0a7 862d 22b5 4f87 eab4
00000360: 45b7 7eb2 4638 cdbc 31f3 762f 5424 3bb1
00000370: 9c89 2cb5 98da 8cbb ff1d 163b d624 b0bc
00000380: 9f27 0c3d 69d8 fdb7 8799 4bb7 69f1 143d
00000390: 6894 68b8 cffc 2db8 e754 073d 5b04 c4ba
000003a0: e3cd 4dbd 69ca 7fbc 7f31 88b9 3eed ddbb
000003b0: 21ae 64b7 342c 8bbc b18c d83d d2df 7fb9
000003c0: ae9f c3b3 2b22 41ba 55e7 07bc a884 2bb9
000003d0: 40e5 e9a1 5770 2dac 9ec3 e1bb e1ac 93bb
000003e0: e4a2 d4ba 6f93 13b8 f384 4fae 13f6 fabb
000003f0: 1dfb 553e 65b0 f5bb d3c6 8635 b1d7 89b4
-0.007179565 -8.1130485e-13 -0.007223594 -1.2723282e-09 -6.1531324e-10 -0.0035774615 -2.237116e-16 -2.543437e-09
-0.0026314852 -2.0150694e-07 3.9587885e-17 -0.006362276 -6.1214284e-11 0.016706092 -0.0023471692 -0.0042519635
-0.019780412 -2.9746963e-10 -7.774138e-07 4.7542752e-08 2.189191e-05 -6.044285e-16 -2.8853866e-12 -8.0813915e-12
-1.4178899e-08 -0.020919884 6.9739357e-09 -3.5510166e-13 -1.6223084e-11 0.00010673426 0.00047658494 -0.016322851
0.0076960823 -4.0997944e-05 6.4889014e-07 0.020889223 -4.6382964e-05 -7.81105e-05 0.026040845 -2.2582513e-05
-0.037938334 -0.013403869 -9.375793e-05 -0.0048435396 -1.7517657e-05 -0.0026345926 0.08567064 -0.00024176613
-3.012251e-08 -0.00088382734 -1.9581006e-05 -1.8697483e-05 -7.246611e-18 -3.7435394e-14 -0.005150933 -0.009549613
-9.081848e-08 -5.2060084e-05 -1.5104759e-09 -0.0036515796 0.07878534 -0.0040325243 -3.4842667e-12 -3.0468811e-07
-0.00859762 -3.078647e-13 -0.005448128 -1.258825e-06 -1.950999e-09 -0.012323017 -4.8274148e-17 -1.0309064e-11
0.0011842571 -7.6935055e-07 -1.4856198e-16 -0.008026687 -8.885218e-11 0.18268456 0.0012630405 -0.007925979
-0.017322117 -2.2788116e-07 -2.8558777e-06 2.8222248e-08 8.1406705e-07 -5.7237426e-16 -2.6548366e-12 -1.1247191e-14
-6.0942535e-09 -0.024701323 2.3143093e-06 -7.155196e-13 -9.424517e-12 -0.00747825 0.0318243 -0.0066778245
0.24878946 -3.9378843e-05 -0.00047382948 0.07872796 -7.653943e-05 -4.7839974e-05 0.068960354 -3.0458159e-05
-0.05163958 -0.016958537 2.0697085e-05 -0.0055840425 -1.6832935e-05 0.0030131903 0.19545223 -0.00027367251
-9.068934e-08 -0.0011913909 -0.021595377 -1.7109239e-06 -5.1665594e-18 -3.3579303e-14 -0.0048849825 -0.004794834
3.9729848e-08 -4.1363106e-05 -3.619494e-11 0.017836384 0.33792 0.009720747 -2.164188e-14 -2.5920843e-07
0.0028300625 1.7955861e-06 -0.024651946 -6.311021e-06 -2.0572977e-06 -0.024697097 2.9900116e-10 -5.5719636e-07
0.0013495175 -7.997574e-05 -8.926173e-10 0.00019568566 -5.516233e-07 -0.115521014 -0.00828024 -0.0070069823
-0.0045187166 5.214455e-05 8.425358e-05 6.5769277e-06 0.0005983564 1.25099e-09 4.6978354e-07 2.7619511e-09
1.8490979e-05 -0.013391347 -0.00014307901 -1.286669e-07 2.7306584e-07 -0.0005030945 0.042295836 -0.0035746875
-0.18520093 -0.0018977762 -0.0004871672 -0.0049333265 0.007856659 -0.00038021893 -0.015328663 0.0005218655
0.02011547 0.013720702 0.001369434 0.014658925 -0.00012759159 -0.009341953 -0.00025880095 -0.0013080364
-2.9181396e-05 -0.021863434 0.00055527216 6.339682e-05 6.659427e-10 -7.032589e-09 0.007875264 -0.0019914792
0.00025551865 5.568653e-05 -6.159574e-07 -0.007369033 -0.09472691 -0.27125213 -2.736259e-08 6.978678e-05
-0.007823173 -1.1012439e-12 -0.025726616 -7.4695464e-07 -5.5698485e-10 -0.008690208 -1.3353092e-13 -1.232452e-06
-0.0016317255 -1.0150667e-07 -6.434211e-11 -0.009172209 -1.1767136e-10 0.054665256 -0.0061801965 -0.0060478877
-0.02398282 -0.025804447 -6.4697196e-07 4.384185e-08 5.74633e-06 -6.2364978e-15 -6.041595e-07 -4.3684346e-07
-1.48264165e-08 -0.025051247 2.2459969e-10 -2.7232732e-09 -6.427524e-07 -0.0042985193 0.0022906063 -0.02150194
0.034217473 -3.0260724e-05 -1.2135489e-05 0.03636304 -5.5451324e-05 -4.148186e-05 0.033039954 -0.0014954911
-0.050245177 -0.015612223 -0.0002597682 -0.0067726662 -1.3630402e-05 -0.016988851 0.1057371 -0.00024402075
-9.109441e-08 -0.0007367457 -0.0082949 -0.00016357249 -1.5849376e-18 -2.464714e-12 -0.0068897745 -0.0045066928
-0.0016222862 -3.518484e-05 -4.7184433e-11 -0.007658729 0.20896573 -0.0074978345 1.0041643e-06 -2.5675175e-07

lstm.bias_hh_l0 f4 [256]
00000000: 9242 ebbb 7a5c 64ab e6b3 ecbb 63df aeb0
00000010: cd22 29b0 d673 6abb 91f2 80a5 a2c7 2eb1
00000020: fe74 2cbb 8c5d 58b4 0590 3624 097a d0bb
00000030: 989c 86ae 28db 883c 34d3 19bb 1854 8bbb
00000040: 880a a2bc 0389 a3af f1af 50b5 b531 4c33
00000050: 85a4 b737 fb36 2ea6 810a 4bac 7428 0ead
00000060: 7597 73b2 8c60 abbc 39a0 ef31 7ce7 c7aa
00000070: f5b2 8ead 9ad6 df38 6ade f939 7fb7 85bc
00000080: 7a2f fc3b 35f5 2bb8 512f 2e35 e31f ab3c
00000090: 5d8a 42b8 35cf a3b8 9f53 d53c 9c6f bdb7
000000a0: 3965 1bbd e59b 5bbc e89f c4b8 89b6 9ebb
000000b0: 10f3 92b7 22a9 2cbb 1374 af3d 0c85 7db9
000000c0: c45f 01b3 edaf 67ba ea41 a4b7 8ad8 9cb7
000000d0: bead 05a3 c497 28a9 28c9 a8bb 0c73 1cbc
000000e0: 300d c3b3 b759 5ab8 dd99 cfb0 574f 6fbb
000000f0: 1f5a a13d 4423 84bb 142e 75ac fd93 a3b4
00000100: 8adc 0cbc 4150 adaa e985 b2bb c7f4 a8b5
00000110: 1d0f 06b1 7ce6 49bc 17a0 5ea4 755c 35ad
00000120: 3939 9b3a 3183 4eb5 f246 2ba5 6582 03bc
00000130: 0965 c3ae aa11 3b3e 9c8c a53a 91dc 01bc
00000140: e4e5 8dbc bdaf 74b4 cb99 3fb6 606d f232
00000150: 8784 5a35 cff9 24a6 49d1 3aac b19c 4aa8
00000160: 8363 d1b1 005a cabc 694f 1b36 4365 49ab
00000170: a6cc 25ad a80c f5bb 305a 023d add1 dabb
00000180: b3c2 7e3e ab2a 25b8 516c f8b9 203c a13d
00000190: d4cd a0b8 c8a7 48b8 153b 8d3d 4e7f ffb7
000001a0: ff83 53bd 7bee 8abc a79e ad37 58fa b6bb
000001b0: 7534 8db7 f278 453b 7924 483e 637a 8fb9
000001c0: 7cce c2b3 db25 9cba eae0 b0bc e6a2 e5b5
000001d0: 6d9c bea2 4b3a 17a9 3412 a0bb d81d 9dbb
000001e0: faa2 2a33 f87c 2db8 2630 1fae 9b1d 923c
000001f0: d903 ad3e c743 1f3c 7df0 c2a8 6529 8bb4
00000200: 8a78 393b 87ca f035 e1f2 c9bc 42c3 d3b6
00000210: ee0f 0ab6 7e51 cabc 8b5e a42f 4992 15b5
00000220: e0e1 b03a f9b8 a7b8 2c84 75b0 a303 4d39
00000230: 6e13 14b5 4c96 ecbd afa9 07bc db9a e5bb
00000240: d111 94bb c9b5 5a38 4ab1 b038 5caf dc36
00000250: bbda 1c3a 51ef ab30 5b36 fc34 88ce 3d31
00000260: 141d 9b37 3f67 5bbc 8907 16b9 ba27 0ab4
00000270: d299 9234 18e2 03ba 973f 2d3d fc45 6abb
00000280: 4ea5 3dbe 87bf f8ba a96a ffb9 1b8e a1bb
00000290: ddb7 003c 2e58 c7b9 1325 7bbc cbcd 083a
000002a0: 21c9 a43c e1cc 603c b27e b33a ff2b 703c
000002b0: 1fca 05b9 e50e 19bc b2b0 87b9 5772 abba
000002c0: 92ca f4b7 741a b3bc 1e91 113a e2f3 8438
000002d0: 7e0e 3730 0ea3 f1b1 3907 013c 7b83 02bb
000002e0: 2ef7 8539 c481 6938 4458 25b5 b477 f1bb
000002f0: 3000 c2bd 35e2 8abe 0b0b ebb2 7e5a 9238
00000300: c62c 00bc 7efc 9aab a0c0 d2bc 5081 48b5
00000310: 551a 19b0 6161 0ebc 4852 16aa c66b a5b5
00000320: 9fdf d5ba dffb d9b3 257d 8dae 7046 16bc
00000330: 8b61 01af b0e8 5f3d 4083 cabb 842d c6bb
00000340: 9e77 c4bc e063 d3bc e1ab 2db5 9e4c 3c33
00000350: 93d0 c036 d5a9 e0a7 912d 22b5 ac87 eab4
00000360: 45b7 7eb2 2d39 cdbc dbf2 762f 6925 3bb1
00000370: bf88 2cb5 b5da 8cbb 051e 163b cf24 b0bc
00000380: a027 0c3d 26d8 fdb7 7398 4bb7 65f1 143d
00000390: 9194 68b8 cefc 2db8 0955 073d a104 c4ba
000003a0: e1cd 4dbd 69ca 7fbc 5032 88b9 39ed ddbb
000003b0: 0aae 64b7 3e2c 8bbc b08c d83d abdf 7fb9
000003c0: 5a9e c3b3 8a21 41ba f2e7 07bc b784 2bb9
000003d0: 52e9 e9a1 8370 2dac 9ac3 e1bb e6ac 93bb
000003e0: 52a3 d4ba a193 13b8 ee84 4fae 4ff4 fabb
000003f0: 1ffb 553e 91b0 f5bb 3cd9 8635 aed7 89b4
-0.0071795667 -8.113021e-13 -0.007223594 -1.2723657e-09 -6.1531297e-10 -0.003577461 -2.236883e-16 -2.543381e-09
-0.002631485 -2.01506e-07 3.958695e-17 -0.006362204 -6.121431e-11 0.016706064 -0.0023471834 -0.004251968
-0.019780412 -2.974688e-10 -7.7742067e-07 4.754266e-08 2.189191e-05 -6.044289e-16 -2.8853866e-12 -8.080748e-12
-1.4178899e-08 -0.02092006 6.9740307e-09 -3.5510126e-13 -1.6223004e-11 0.00010673441 0.00047658692 -0.01632285
0.0076960893 -4.0997944e-05 6.4888906e-07 0.020889228 -4.6382065e-05 -7.811041e-05 0.02604085 -2.2582528e-05
-0.03793833 -0.013403867 -9.375793e-05 -0.004843537 -1.7517741e-05 -0.0026345928 0.08567061 -0.00024177524
-3.012225e-08 -0.00088381657 -1.9581017e-05 -1.8697483e-05 -7.246736e-18 -3.743513e-14 -0.005150933 -0.009548914
-9.082794e-08 -5.2058804e-05 -1.5104963e-09 -0.0036515796 0.07878517 -0.0040325243 -3.4842173e-12 -3.0468792e-07
-0.0085975025 -3.078666e-13 -0.0054480922 -1.2588215e-06 -1.9508157e-09 -0.012323018 -4.8274178e-17 -1.0309188e-11
0.0011842615 -7.693189e-07 -1.4855923e-16 -0.008026694 -8.885521e-11 0.18268457 0.0012630406 -0.007926122
-0.017321534 -2.2788204e-07 -2.8550737e-06 2.8222246e-08 8.140418e-07 -5.7237484e-16 -2.6548366e-12 -1.124723e-14
-6.0940137e-09 -0.024701118 2.3143023e-06 -7.1550074e-13 -9.424605e-12 -0.0074783154 0.03182429 -0.0066778273
0.2487896 -3.9378803e-05 -0.00047382948 0.07872796 -7.667733e-05 -4.7839974e-05 0.06896035 -3.045765e-05
-0.051639553 -0.01695942 2.0697085e-05 -0.0055840425 -1.6832937e-05 0.0030131903 0.19545163 -0.0002736627
-9.071388e-08 -0.0011913137 -0.021591622 -1.7109239e-06 -5.1665225e-18 -3.3579296e-14 -0.0048849825 -0.0047948174
3.9729436e-08 -4.13628e-05 -3.619518e-11 0.017836383 0.33791998 0.009720749 -2.1642622e-14 -2.5920886e-07
0.0028300607 1.7940337e-06 -0.024651946 -6.311021e-06 -2.0572875e-06 -0.024697062 2.9898603e-10 -5.57197e-07
0.001349505 -7.9976344e-05 -8.931831e-10 0.00019551678 -5.516257e-07 -0.11552104 -0.008280202 -0.0070069856
-0.0045187254 5.214455e-05 8.425357e-05 6.5769254e-06 0.0005983521 1.2509905e-09 4.6978207e-07 2.762052e-09
1.849098e-05 -0.013391315 -0.00014307922 -1.2866704e-07 2.7306538e-07 -0.0005030944 0.042296972 -0.003574728
-0.1852009 -0.0018977978 -0.00048716858 -0.0049302704 0.007856336 -0.00038021937 -0.015328663 0.0005218654
0.020115437 0.013720722 0.0013694374 0.014658927 -0.00012759164 -0.00934193 -0.00025880855 -0.001308034
-2.9181396e-05 -0.0218632 0.0005552935 6.339677e-05 6.6595607e-10 -7.0325603e-09 0.007875257 -0.0019914794
0.000255519 5.5672383e-05 -6.1595733e-07 -0.007369006 -0.09472692 -0.27125707 -2.7362622e-08 6.978678e-05
-0.007823175 -1.1012439e-12 -0.025726616 -7.469398e-07 -5.5698496e-10 -0.008690209 -1.3351223e-13 -1.2324824e-06
-0.0016317255 -1.0150665e-07 -6.434168e-11 -0.009172067 -1.1767136e-10 0.054665267 -0.006180197 -0.0060479064
-0.02398282 -0.02580446 -6.469764e-07 4.3841844e-08 5.746327e-06 -6.235662e-15 -6.041601e-07 -4.368461e-07
-1.48264165e-08 -0.025051678 2.2459849e-10 -2.7233347e-09 -6.4273985e-07 -0.004298533 0.0022906077 -0.021501927
0.034217477 -3.0260602e-05 -1.2135238e-05 0.036363024 -5.5451474e-05 -4.1481857e-05 0.03304008 -0.0014954993
-0.05024517 -0.015612223 -0.00025977427 -0.006772664 -1.3630381e-05 -0.01698887 0.10573709 -0.00024402018
-9.109199e-08 -0.00073673634 -0.008295046 -0.00016357271 -1.5850454e-18 -2.4647235e-12 -0.0068897726 -0.004506695
-0.001622299 -3.518502e-05 -4.7184416e-11 -0.0076585184 0.20896576 -0.007497855 1.0047002e-06 -2.5675166e-07

fc.weight f4 [50, 64]
00000000: dfab c1bc 8e84 cc34 49f0 d0bc b508 5036
00000010: 3fd9 1337 ac08 8c3c 8040 b9b0 06e0 d835
00000020: 1c0c a7bc b850 6839 ea1e 1332 e110 7fbc
00000030: be44 3036 014b e73d 70fb 8f3c a4f3 9a3c
00000040: e7da d9bc e801 1e35 611a deb9 732e f3b8
00000050: ed9e a4ba 3ee2 96b1 b824 42b5 26fb 3733
00000060: 2591 5ab8 3a69 9b3c c192 9138 aeae 3d34
00000070: 1cfc d534 e03a bcbc 41f7 0c3d c1e9 e1bc
00000080: 0daf bdbd 510f 90b8 47d3 3d3a 945f c5bc
00000090: f2bb bc3a 4910 dd3a 72da 22bc c56f 9dba
000000a0: 7265 e53c 4453 88bc 0099 7bbb e156 3abc
000000b0: 1f01 86b8 b413 8d3c 139c 553d 8eef a6bb
000000c0: 2542 d838 e4aa 273b 6229 a03a 9821 91b8
000000d0: 9b80 0031 f848 2033 2b95 48bc 7cfb 9c3c
000000e0: d96f 83b9 7503 7c3a 6718 f835 e18c 53bb
000000f0: a961 5cbd 5884 abb9 3c1f dd32 8bbd 99b9
00000100: f314 9e3c d74d 5ab5 0f82 ecbc 505d 67b7
00000110: 5946 1db6 6efd 353c f801 b330 f776 2134
00000120: ca30 e23b 9fd8 8cb8 a1a2 f530 bd87 de3c
00000130: 138d 49b5 2770 963d dbf8 eabb 1820 2dbc
00000140: 9b26 18bc 3866 a337 baae 1d39 88eb 84b8
00000150: 097a bbb9 4792 f930 e277 4c35 ac7d f7b2
00000160: c73d d337 6ad6 9bbc 199d 8ab8 1146 01b4
00000170: f692 a5b4 9d36 92bc 3df0 e93c 8edb b1bc
00000180: 1913 233a 79f2 7638 0a0e 7d39 fcea 05bd
00000190: 8df6 e8ba dd5a 26b9 71dc 0bbd e212 723a
000001a0: ba91 a13b 619b 463c 2554 dc3a 1183 453c
000001b0: 0518 07ba 7081 20bc 4fcb 953d 05af 953b
000001c0: 2d00 7eb7 edb8 f83b b729 9d3a 6012 ad37
000001d0: e287 e4b0 407f 09b3 90e3 6fbb a6e1 44bc
000001e0: 40a7 3939 d425 5939 c354 03b5 550f afbb
000001f0: 2d98 acbd 6790 963a fd48 70b1 9d70 9e38
00000200: 2b4c 19bd 89c3 4e32 0e9d e53c cac5 e737
00000210: bd4e ff36 69a8 82bc 8c04 9bb1 bf22 74b6
00000220: 42b2 083c a01e 7d39 8c23 a9b2 7892 9f3a
00000230: dcf2 96b6 f666 b0bd a8ac edbb 245f 2d3d
00000240: b788 7bbd d244 bcb7 0bc3 1dba dd97 6c39
00000250: 7f08 1b3b e1b4 56b2 c67e 1535 99bf 41b3
00000260: 436e e537 23e2 783d d691 1ab8 8518 bf34
00000270: fcfe b734 f9e1 6c3c db21 a0bc 55f3 08bd
00000280: 4a42 b13d 3d65 a1bb e2df d1ba 8be9 1f3d
00000290: 9876 81b9 55cc 783b 8f38 0e3d a989 ccbb
000002a0: 3a94 e0ba f186 1dbd 9560 3c3a c055 d13c
000002b0: 1b44 da3b c218 b6bb 6b49 9dbd ec52 02bc
000002c0: 15eb 4eb9 ff57 49bb 3c3d ccbb 7ddc 7939
000002d0: 78b6 93af 1637 0834 5285 3f3c 5a73 983c
000002e0: 465e 3439 5465 c23b 7ff0 8136 c806 813c
000002f0: 5bfd 953d f489 4f3c 80e1 0933 7a84 1337
00000300: c411 913a e666 dbb3 8b27 34bc 699d 7fb6
00000310: 4d64 ed35 d852 12bc 4e94 daaf 5c21 21b4
00000320: 73f9 963c b105 4a38 8965 15b0 85b1 b9bb
00000330: 1eb0 8f33 3d47 023e b1ed 8fbc 469c 1e3c
00000340: dddb e03b 9214 ecb6 b0dd 85b8 d693 b4b7
00000350: 887f 8739 3c99 c330 8d27 3033 5cd6 0532
00000360: 5c3c 1235 0509 b93c 5b3c 46b7 3696 c832
00000370: ea94 65b5 04af 323c 111a 83bc 2cb9 8aba
00000380: 1c07 c83d f9f4 dbb9 57be 1cb9 143f b03c
00000390: 607e d3ba 632f 9bb7 c1f5 de3b 8d43 c039
000003a0: 9344 b4bc fa10 eebb b4f7 bf3a 65ad 273c
000003b0: 5993 15b8 eddc 92bc 9a31 11bd 0c02 263b
000003c0: bc62 90b6 7478 793b 8cd5 4938 2560 9638
000003d0: 2657 10af f8ec 9a31 76c9 f13b 25a2 d3ba
000003e0: 1606 e038 6180 94b8 e962 9335 cbf1 b0bc
000003f0: 83b3 6d3b 55fa 06bc 6416 07b1 f2f8 2836
-0.023641525 3.8094407e-07 -0.025505202 3.0999483e-06 8.812464e-06 0.017093979 -1.3478854e-09 1.6158453e-06
-0.020391516 0.00022155314 8.563555e-09 -0.015567989 2.6266057e-06 0.11293603 0.01757595 0.018915005
-0.026593639 5.886236e-07 -0.00042362793 -0.00011595795 -0.0012559571 -4.3912953e-09 -7.2324065e-07 4.2836426e-08
-5.2110427e-05 0.018971074 6.941474e-05 1.7665545e-07 3.9857775e-07 -0.022977293 0.034415487 -0.027577283
-0.09261904 -6.869308e-05 0.00072412606 -0.024093427 0.0014399274 0.0016865815 -0.009939777 -0.0012011459
0.028002474 -0.016641267 -0.0038390756 -0.011373253 -6.389827e-05 0.01722131 0.052150797 -0.005094475
0.00010312003 0.0025584036 0.0012219364 -6.920396e-05 1.8699555e-09 3.7319268e-08 -0.012242596 0.019162886
-0.000250696 0.0009613552 1.8484542e-06 -0.0032280015 -0.053804073 -0.00032714265 2.574199e-08 -0.00029323655
0.019297099 -8.13246e-07 -0.02887061 -1.3790399e-05 -2.343577e-06 0.011107786 1.3024524e-09 1.5037573e-07
0.0069027888 -6.716069e-05 1.7872318e-09 0.027164334 -7.5083625e-07 0.0734561 -0.007170779 -0.010566734
-0.009286548 1.9478714e-05 0.00015037777 -6.3381216e-05 -0.00035758343 1.8158709e-09 7.6170375e-07 -2.8811733e-08
2.5181927e-05 -0.019023139 -6.6096145e-05 -1.2039551e-07 -3.0840573e-07 -0.017848307 0.028556937 -0.021711137
0.00062208023 5.887679e-05 0.0002413319 -0.0326948 -0.0017773673 -0.00015864843 -0.034145776 0.0009234381
0.004930702 0.012122006 0.0016809745 0.012055174 -0.00051534205 -0.009796485 0.07314169 0.004567983
-1.5139621e-05 0.0075904042 0.0011990581 2.0631764e-05 -1.6627804e-09 -3.201353e-08 -0.0036604144 -0.012016689
0.0001770528 0.00020708825 -4.892465e-07 -0.005342404 -0.08427463 0.0011487127 -3.4966086e-09 7.555003e-05
-0.037426155 1.2035238e-08 0.028028991 2.7629449e-05 7.6087586e-06 -0.015949445 -4.5116106e-09 -3.6379058e-06
0.008343281 0.00024139369 -1.9690354e-08 0.0012174388 -4.498621e-06 -0.08613388 -0.0072532482 0.04232706
-0.06140968 -2.2443393e-05 -0.00060181384 0.00022563287 0.0023656187 -1.24975665e-08 5.5691305e-07 -4.511057e-08
2.7350272e-05 0.060762536 -3.685228e-05 3.5594363e-07 3.4271932e-07 0.014458173 -0.019547394 -0.033435185
0.08655222 -0.0049253986 -0.0016012157 0.039041083 -0.00024693157 0.0037963588 0.034721907 -0.0062419963
-0.0017134019 -0.03845877 0.00071860227 0.025553584 0.006660951 -0.0055571506 -0.07680019 -0.00795434
-0.00019733266 -0.0030722616 -0.0062328856 0.00023828629 -2.6868796e-10 1.2686027e-07 0.011689501 0.018609691
0.00017201257 0.0059324894 3.872497e-06 0.015750304 0.07323714 0.012667168 3.210289e-08 8.792727e-06
0.0011067917 -1.0216699e-07 -0.010995756 -3.8089586e-06 1.7687067e-06 -0.008930884 -3.9759346e-10 -1.500643e-07
0.018429494 4.8165854e-05 -5.4350174e-10 -0.005666914 6.690992e-08 0.12722488 -0.017569395 0.009680813
0.0068621472 -7.035743e-06 -6.383227e-05 -2.1526514e-05 0.00025844225 1.4231669e-09 4.1014165e-08 7.790359e-09
5.447707e-07 0.022587309 -1.1815772e-05 2.3351372e-08 -8.5525846e-07 0.010905985 -0.01600364 -0.001058375
0.09766981 -0.00041953454 -0.00014948226 0.021514453 -0.0016135685 -1.8499506e-05 0.0068041985 0.00036671423
-0.022005355 -0.0072652074 0.0014645965 0.010234212 -3.5661596e-05 -0.017927611 -0.035447694 0.002533081
-4.3030286e-06 0.003806618 4.8121015e-05 7.170466e-05 -1.3127685e-10 4.50893e-09 0.0073787523 -0.0016146345
0.00010682286 -7.0811024e-05 1.098114e-06 -0.02159967 0.0036270327 -0.008238395 -1.9657813e-09 2.5178856e-06

fc.bias f4 [50]
00000000: 32f5 adb7 62f9 8a3d d195 58bd 1b31 933c
00000010: 7f7e 53bd c5bf 18bd cda9 d6bc 58cb 043d
00000020: 5594 a4bd 79d6 6bbd 3485 3ebd 5689 93bb
00000030: 6338 aabc 87e7 13bd cab7 05bc 43ff 883d
00000040: cca6 4f3d 0caf d13b ed71 323c 6123 1dbc
00000050: b639 a3bd ebf4 bebc d27b 20bd 7be0 ccbc
00000060: f0a7 a9bc f63e 3f3d 3605 543b fcd5 b53c
00000070: 6be1 a53c c70c c8bc 4bc2 3cbc 5fca 883b
00000080: a7bf 5fbd 01b3 e639 80b8 18bd c18c 3ebc
00000090: 1621 5dbd cc82 19ba e277 a33c 5417 2f3c
000000a0: 85d9 0cbd ee4f 55bd 17c2 febb bba5 9cbd
000000b0: 057e 263d 1a8b 2d3d 7065 e5bc 4bc1 cbbc
000000c0: 3f13 c8bc 5bf5 5e3b
-2.0737385e-05 0.06785847 -0.05287725 0.017967751 -0.051634308 -0.03729226 -0.026204014 0.032420486
-0.080361046 -0.057577584 -0.04651375 -0.0045024557 -0.02077884 -0.036109474 -0.0081614945 0.06689312
0.05069618 0.006399041 0.01089142 -0.0095909545 -0.07969992 -0.023310145 -0.039180584 -0.025009384
-0.020709962 0.046690904 0.0032351739 0.022196762 0.02024909 -0.024420155 -0.011520932 0.004174515
-0.054626133 0.00044002387 -0.037285328 -0.011630238 -0.05398663 -0.0005855977 0.019954626 0.010686714
-0.03438713 -0.05207818 -0.007774602 -0.07648798 0.040647525 0.042368986 -0.02800247 -0.024872443
-0.02442324 0.0034020755

decoder.0.weight f4 [64, 50]
00000000: 6f8b 0080 2d89 0080 c98a 0000 d188 0080
00000010: 3b89 0080 8d8a 0000 3689 0000 058a 0000
00000020: af8a 0000 9b89 0000 d08a 0000 158a 0080
00000030: 8789 0000 f588 0080 418a 0000 fc8b 0080
00000040: 398a 0080 4a8a 0000 558b 0000 8c8a 0080
00000050: 438c 0000 0c8a 0080 b78b 0000 3a89 0000
00000060: a18a 0000 338a 0000 e189 0000 9189 0080
00000070: b489 0000 0f89 0000 cc89 0000 9289 0000
00000080: 8e8a 0080 3189 0080 b689 0000 d88a 0000
00000090: 5a8a 0000 f389 0080 6c89 0080 4e8a 0080
000000a0: 028b 0000 0389 0080 188b 0080 9a8b 0000
000000b0: 0a8a 0080 3a9f 0000 208a 0080 018a 0000
000000c0: e888 0080 a68a 0000 c956 7e8a 9d6e 920a
000000d0: 98fb e109 0ddf 9e8a ada6 4c09 2363 850a
000000e0: cc01 260a df3b a50a 6419 8809 9e32 6d0b
000000f0: 135d 048b 08b1 fb8a cb6c 130a 68fc a68a
00000100: 74de ae0a 36a6 a988 82b9 068b f642 cb0a
00000110: 7ea4 ac0a d544 5308 d105 240a 97e7 3e09
00000120: 39c3 8e8a 2583 878a ee8a 3f0a 5af1 000b
00000130: ec42 120a bf55 4c8a 91f8 b70a ac9b 6189
00000140: f911 998a dc04 6e0a 07c9 bc0d 7bb0 068a
00000150: 1fb9 8e89 419f bf8a 7a5d 670a f5be b58a
00000160: 0b93 860a 3997 008a edbc d509 b401 e189
00000170: d38d 9289 f118 6289 a708 278c f75f 6d89
00000180: cd79 880a ca19 ec8a 8727 790a 7ff7 d389
00000190: 6807 519a d09f f88e 412e b399 4e2d 5e0b
000001a0: 803d 120d b415 ad0b 57b2 8f8c f11f 8910
000001b0: 6190 038e 7095 5c0d 08ce f90c e095 a40c
000001c0: 6982 ba0d 0df9 030d 9a4b d3ac 8245 fc8b
000001d0: de0c 268d 5618 3d0d 31b7 9818 d861 090d
000001e0: 8c10 a095 6e7f 418d 241f 2e1c 10ae 8a99
000001f0: 9c2c 878d 852a 211e 7375 b08d 9742 b08e
00000200: 96ad 5b8d ccda 070e 0f11 b08b 16cd 078d
00000210: e020 f590 204a 1e0c 4a36 a98d d57f 0d8d
00000220: e191 aa92 0849 2d0e 9061 880c c100 020d
00000230: ffb3 2b8d b11a f40d 73b7 a58c 50d5 1d8d
00000240: 6d9a ac20 6fc5 068d 7c20 2c0d e887 fa8c
00000250: 02b8 828c 5b41 1190 e980 3b3e f6c5 b4bd
00000260: 1199 223e f3bd 473e 23fb 87bd c820 6cbe
00000270: 0b7d 6b3e 29ef 63be 7c75 6a3e e3ca 133e
00000280: fea7 d03d acd2 593e ed07 6f3e 0d7d 2c3e
00000290: 08a3 a6bd e9cb ca3d ab1c 4c3e d788 2cbe
000002a0: 8509 43be 767d 5f3e be36 5c3e f8fb d6bd
000002b0: 1f76 5f3e 08b1 2e3e ae5e 52be 6680 4bbe
000002c0: f0d6 603e 7ac1 f8bd 5793 0dbe 7aea 5ebb
000002d0: 8e6e 59be b876 2d3e 03f6 463e 8e1a 58be
000002e0: 7eb1 6d3e 020e 6c3e c1fb 4f3e 152b 443e
000002f0: f99c 58be 1070 bbbd 081e 5bbe 4874 543e
00000300: fd03 283c c41b 443e 7766 25be cfb3 4a3e
00000310: 9282 5a3e 6e0f 503e dade 31be d92d 3dbe
00000320: fbbe 283d 984f 913b 671b c8bc dd36 0ebd
00000330: 540d 1a3d a80e 21bd 0c22 bd3c 5c97 d03b
00000340: 28c6 67ba daf8 273b 457e 64b9 7f13 7a3d
00000350: af09 d93c 8b8b 093d 585c a83c cbe6 02bd
00000360: 37da 77bd 83ed 1cbd f313 413d c5fa 323d
00000370: 5f6d cdbc a649 0dbd b361 813b 2c0b 57bb
00000380: fe72 a73c 1d57 813d 7c60 57bd 8efc a63c
00000390: db04 2a3c 8bcd 993b c4e9 10bd a10a 65bd
000003a0: b64e b9bc 9bba a6bd 483c 7c3a 54db 0a3d
000003b0: 661a 33bd 2044 b03c af0e 74bd 8c3c b83c
000003c0: d144 59bc 70ac 2d3b 02d6 953c 438a 123c
000003d0: a465 3a3d 2306 3dbd 7d48 663d 9aa3 45bc
000003e0: 5643 3dbc 178f 2b3b 7cee 0725 7957 b3a4
000003f0: 7e44 aea4 c42a 1ea4 138d ba24 df6e d5a3
-5.002e-41 -4.921e-41 4.9787e-41 -4.908e-41 -4.9229e-41 4.9703e-41 4.9222e-41 4.9512e-41
4.975e-41 4.9364e-41 4.9797e-41 -4.9534e-41 4.9336e-41 -4.9131e-41 4.9596e-41 -5.0217e-41
-4.9585e-41 4.9609e-41 4.9983e-41 -4.9701e-41 5.0316e-41 -4.9522e-41 5.012e-41 4.9228e-41
4.973e-41 4.9577e-41 4.9462e-41 -4.935e-41 4.9399e-41 4.9167e-41 4.9432e-41 4.9351e-41
-4.9704e-41 -4.9215e-41 4.9401e-41 4.9808e-41 4.9631e-41 -4.9487e-41 -4.9298e-41 -4.9614e-41
4.9867e-41 -4.915e-41 -4.9897e-41 5.008e-41 -4.9519e-41 5.712e-41 -4.955e-41 4.9506e-41
-4.9113e-41 4.9738e-41 -1.22459776e-32 1.4100897e-32 5.4403377e-33 -1.5298749e-32 2.4633977e-33 1.2844725e-32
7.992947e-33 1.5911443e-32 3.2764686e-33 4.568262e-32 -2.5492297e-32 -2.4237013e-32 7.098254e-33 -1.6080163e-32
1.6839268e-32 -1.02103935e-33 -2.5947022e-32 1.9573377e-32 1.6624873e-32 6.3576415e-34 7.897407e-33 2.2979311e-33
-1.3747537e-32 -1.3049358e-32 9.222445e-33 2.4833476e-32 7.042231e-33 -9.83837e-33 1.771576e-32 -2.7156586e-33
-1.4740125e-32 1.1460197e-32 1.163479e-30 -6.4850576e-33 -3.4359344e-33 -1.8452536e-32 1.11398264e-32 -1.7501496e-32
1.2959042e-32 -6.191418e-33 5.145555e-33 -5.416838e-33 -3.5281592e-33 -2.7215488e-33 -1.2867816e-31 -2.857296e-33
1.314214e-32 -2.2735674e-32 1.1996348e-32 -5.1029146e-33 -4.322617e-23 -6.1290614e-30 -1.8526848e-23 4.2789728e-32
4.506375e-31 6.666983e-32 -2.2139973e-31 5.4086186e-29 -1.6216513e-30 6.7972613e-31 3.8488525e-31 2.5358404e-31
1.149453e-30 4.0667276e-31 -6.005374e-12 -9.717145e-32 -5.1168188e-31 5.8269415e-31 3.9476055e-24 4.233416e-31
-6.464959e-26 -5.9626105e-31 5.761202e-22 -1.4339169e-23 -8.330757e-31 8.532062e-21 -1.0875112e-30 -4.3451473e-30
-6.769353e-31 1.6745382e-30 -6.78184e-32 -4.184695e-31 -9.668611e-29 1.2194183e-31 -1.0428499e-30 -4.360285e-31
-1.076447e-27 2.135906e-30 2.1012836e-31 4.006025e-31 -5.2910106e-31 1.5044087e-30 -2.5532685e-31 -4.8636126e-31
2.9240124e-19 -4.152959e-31 5.3040694e-31 -3.8600394e-31 -2.0140417e-31 -2.8646556e-29 0.18310894 -0.088268206
0.15878703 0.19506054 -0.066396974 -0.2305938 0.22996919 -0.22259201 0.22896379 0.14432864
0.10188292 0.21271771 0.23342867 0.16844578 -0.081365645 0.09902174 0.19932811 -0.16849075
-0.190466 0.21825203 0.21505257 -0.10497278 0.21822403 0.1705972 -0.2054393 -0.19873199
0.21956992 -0.12146278 -0.13825737 -0.003401427 -0.2123358 0.16939819 0.19429784 -0.2110388
0.23212239 0.23052219 0.2031088 0.1915706 -0.2115363 -0.091522336 -0.21398175 0.20747483
0.010254857 0.19151217 -0.16152368 0.19795154 0.21338871 0.20318386 -0.17370167 -0.1847452
0.04119776 0.004434537 -0.024427129 -0.03472029 0.037610367 -0.039320618 0.023087524 0.0063656997
-0.0008841478 0.0025630505 -0.00021790813 0.06105375 0.026493875 0.033580344 0.020551845 -0.031958383
-0.06051084 -0.038312446 0.047138166 0.043696184 -0.025076566 -0.034494065 0.003948414 -0.0032813055
0.020440575 0.06315444 -0.05258225 0.0203841 0.010377134 0.004693692 -0.035379186 -0.05591834
-0.02262054 -0.08141061 0.000962202 0.033900574 -0.043726347 0.02151686 -0.059584316 0.022489808
-0.013261036 0.0026500486 0.018290523 0.008944097 0.04550709 -0.04614843 0.056221474 -0.012062931
-0.011551699 0.0026177817 1.1790185e-16 -7.777706e-17 -7.55765e-17 -3.4297013e-17 8.090363e-17 -2.3140462e-17

decoder.0.bias f4 [64]
00000000: 2189 fdb0 85b0 00ae f9bd 7cb0 5c72 57be
00000010: 234b 1f3c ae8a 19a5 721a f3bc 2b73 79ae
00000020: 736b b23c d9b5 edb9 495e 4fb2 103e 76ad
00000030: 2cc0 2aac 2f1b 893c b3ad fab2 c77a 70b2
00000040: a646 593d 62be 25bd e98f a9bb 86d9 cbb1
00000050: 3706 769c d0de 4ab3 891e 0829 c3c9 85b2
00000060: 79b5 a2a7 644e b6b8 3595 043d 1e95 23b3
00000070: f5a1 4fbd c0dd 0bb1 5b21 41bc 3166 0cac
00000080: 1f77 7b3d 8b0a 8cae 2fe8 abb3 ef5a 78b4
00000090: 288e 293d 8e11 85ac 9148 c83b f84b 18af
000000a0: 6a96 95b4 3b30 803d 4dc9 dab7 6d30 10a1
000000b0: 23ae bab2 73eb 80b1 0e83 8fb1 ffc3 4396
000000c0: a525 b7b7 acca fab1 ecb1 1db3 a7cd 19b9
000000d0: 43e9 dfaf 6d3b 15b2 da00 433d ec5e ceb7
000000e0: 7c48 643d 869a 7fb3 5833 b7bb 7622 69b0
000000f0: 714e 42b8 42a9 3c3a fe50 8bbc dfd4 82b6
-1.8447147e-09 -2.926061e-11 -9.1947033e-10 -0.21039718 0.009722504 -1.3317621e-16 -0.029675696 -5.6718335e-11
0.021779751 -0.0004533965 -1.2070424e-08 -1.3997262e-11 -2.426513e-12 0.016736595 -2.918282e-08 -1.3997755e-08
0.05304589 -0.040464766 -0.005174626 -5.932807e-09 -8.1402605e-22 -4.7234437e-08 3.022455e-14 -1.5574988e-08
-4.5160786e-15 -8.693038e-05 0.032368857 -3.8087016e-08 -0.050691564 -2.0353212e-09 -0.011787738 -1.9951924e-12
0.0613929 -6.368336e-11 -8.005042e-08 -2.3129881e-07 0.041395336 -3.7820363e-12 0.006112166 -1.3851309e-10
-2.7862853e-07 0.06259199 -2.6081363e-05 -4.885319e-19 -2.1732438e-08 -3.7520578e-09 -4.176747e-09 -1.581382e-25
-2.183283e-05 -7.2989987e-09 -3.671623e-08 -0.00014667829 -4.0729206e-10 -8.686453e-09 0.047608234 -2.4601315e-05
0.05573319 -5.9512352e-08 -0.0055908374 -8.481388e-10 -4.632626e-05 0.0007196852 -0.017006394 -3.8990834e-06

decoder.3.weight f4 [20, 64]
00000000: 3a1e 2b03 f3b9 9f26 2de5 b114 f994 84be
00000010: a4bb 943d 3efb d8a4 be24 a5bb a406 ba0f
00000020: f535 e1bb c6bc aba0 ae7f 0080 e016 bb0d
00000030: d419 0aad 5ea8 94bd 9000 5b32 9700 6080
00000040: 33e5 76bd 05b3 6839 4e20 dc3b 8a3a 8f88
00000050: 4c27 9b99 e794 6f9e 34d2 2229 8b05 e0b1
00000060: c8d6 2003 747b e5b4 95ad c539 87b0 e49e
00000070: 9b77 c43d 0f9d 88af d201 103d 5c4e c88c
00000080: b393 8d3b b6bc b801 2650 b234 8022 3831
00000090: 21aa aebb ae91 0080 9af9 3abc 89eb 4bac
000000a0: 0324 1fab 53c7 ffbd e9f6 ae36 c050 118a
000000b0: 6d4f 0380 c092 8a04 cab1 d52e 6640 a114
000000c0: 360a 5810 7afb ee88 a86d bf91 4a3c 2c21
000000d0: 048a 0000 af57 9d0a bc6e 86bd c65c 3a29
000000e0: 53e8 a6bc f2aa f198 1cce 1e38 fbb0 2d05
000000f0: 8707 a412 34d9 e73c 5bec dfb9 2e2a 1e2b
00000100: af7d 4081 4a6c 1f0d 5eb9 eb1c 207e 98be
00000110: a887 883d c7f2 9f24 d864 bfba 616d bc10
00000120: fa31 27bc b7c5 9c20 3b5e 7d80 9ad9 110f
00000130: 86aa 98ad abac 13be 96e5 10af 618a 0000
00000140: a929 49bc 911a 02bb 5e52 4bbc 8dce ca09
00000150: 1022 0b9b 8193 2083 683f f2a8 9efb 869c
00000160: a21d aa12 9f9a b1b5 eee0 4cbd fb98 ef83
00000170: a15f 133a 21a5 1430 af82 58bc 22d9 e214
00000180: 87de b1bd 6551 2a81 6547 2ab4 2808 a8ac
00000190: be65 cebc bd88 0000 1a31 1dbd 272d cb2c
000001a0: d8a7 b02a 33bb 91bd 64ab c435 998a 0080
000001b0: 3a0d 3280 bda3 4085 fc01 90b0 5caa b293
000001c0: 6dfb 9991 743e 2180 e911 5118 2809 60a3
000001d0: 7185 0000 6ea2 0180 d2d7 a83b 290e 9ba8
000001e0: c55d e1bb f0cc 0896 d2f4 7238 fb78 aa87
000001f0: 15be bb16 f6e4 663d fe46 78b8 b600 21b2
00000200: 939d d902 73a7 acad d486 1e96 3ab3 a63e
00000210: 2660 2abd c438 6424 3832 0bba 9379 548f
00000220: f754 0e3d f0d8 a5ac c26f 0080 d2e6 8788
00000230: 6262 b8ad a28d f4bd 75d8 25af 7489 0000
00000240: e249 1a3c 5257 b039 c8bb 32ba b270 9284
00000250: dc2a ba1a 9939 2a86 c880 8e28 8726 b220
00000260: 226e b680 c4db 9ab5 832b 5bbd 6e14 9686
00000270: fcce 7d3a d243 86ae 4482 a93c e6fb 0e18
00000280: 569b 8dbd 4c96 1580 f9db e3b3 e557 26ac
00000290: b5a1 c5bb f871 5804 5834 00be 8389 b2ac
000002a0: 0272 c7a9 7a6c 1cbe a4a8 a534 8d6e 0000
000002b0: 2c37 0080 b756 8983 51dc f6ae 5944 e694
000002c0: 33e1 0390 bc4b 0000 aa8a 069b 2279 4123
000002d0: 0b89 0080 cac9 2a00 f8a3 15bd fb23 b0a7
000002e0: e724 48bd 0431 3b18 92a0 7a38 b78c 1687
000002f0: ea4b dd11 c7f1 6e3d 9c18 d0ba 0676 15a9
00000300: 913b 8a03 179d 8c9a 9165 8424 dcfc abbe
00000310: 084f 9d3d c478 91a2 e4f2 933a 8bb6 488f
00000320: 585f 8ebc aa47 40a6 bcf1 0000 b212 8b13
00000330: bfdb 18ae 9805 abbd 3bc8 a52c 8875 0080
00000340: 0ffe a6ba ee34 82b8 ed1a 35ba 0339 c983
00000350: 3811 dd9a d23d 5b03 8c1f 2929 af3d 490f
00000360: 20d4 4f8f b2cd 8c34 7233 72bd 5c48 0280
00000370: 61e6 26ba 364f e12d 4844 963d 9518 8a0d
00000380: ab68 bcbc e121 1701 5878 8f33 59d7 08ac
00000390: e627 01bd 178a 6c1b 4745 d63b be84 9cac
000003a0: 2e4e 76a9 45e0 003c e8f1 9736 3cfa 2380
000003b0: 0fb7 0100 3c76 7005 e4b5 5e30 9cd7 9894
000003c0: 129b 6310 f289 0000 feab 6c14 77e7 2ea4
000003d0: be8a 0000 7c59 0200 2c2f 35bd 4359 d2a8
000003e0: 3769 f6bc 8b83 e098 71fc 5d37 800c 2986
000003f0: 7c79 ac92 5dc6 d0bb 0472 c7b9 813a ba2a
5.028708e-37 1.1083243e-15 1.7962827e-26 -0.25894907 0.07262352 -9.410069e-17 -0.0050397804 1.8343574e-29
-0.0068728873 -2.9093447e-19 -4.5803e-41 1.1530272e-30 -7.850127e-12 -0.07258676 1.2747606e-08 -8.816419e-39
-0.060277175 0.00022191934 0.006717718 -8.620262e-34 -1.6042496e-23 -1.2683347e-20 3.6153548e-14 -6.519888e-09
4.726633e-37 -4.2744398e-07 0.00037704097 -2.4213449e-20 0.095931254 -2.4849853e-10 0.035157986 -3.086204e-31
0.0043205856 6.786171e-38 3.32134e-07 2.6795135e-09 -0.0053303395 -5.226e-41 -0.011412049 -2.8978783e-12
-5.6538124e-13 -0.1248919 5.214348e-06 -6.9966834e-33 -3.03999e-40 3.2578413e-36 9.7177e-11 1.6282246e-26
4.2606355e-29 -1.4383226e-33 -3.0202067e-28 5.835566e-19 4.951e-41 1.5151533e-32 -0.0656409 4.1380765e-14
-0.020374453 -6.246965e-24 3.786209e-05 8.166927e-36 1.0351711e-27 0.028301813 -0.00042709973 5.619141e-13
-3.5355004e-38 4.9126006e-31 1.5598912e-21 -0.29783726 0.066664994 6.936654e-17 -0.0014602197 7.432145e-29
-0.010204786 2.6558265e-19 -1.151324e-38 7.1909605e-30 -1.7356127e-11 -0.14421336 -1.3178289e-10 4.9641e-41
-0.012277999 -0.001985226 -0.012409775 4.882397e-33 -1.1508817e-22 -4.71891e-37 -2.6894895e-14 -8.932418e-22
1.0735813e-27 -1.3232528e-06 -0.050019197 -1.408228e-36 0.0005621855 5.407675e-10 -0.013214751 2.2905812e-26
-0.08685022 -3.1282466e-38 -1.5858457e-07 -4.7757527e-12 -0.025194999 4.9052e-41 -0.038376905 5.77462e-12
3.1380345e-13 -0.071157835 1.4653019e-06 -4.972e-41 -4.59652e-39 -9.0578706e-36 -1.0477943e-09 -4.5101504e-27
-2.4294097e-28 -3.052975e-39 2.702166e-24 -1.2145003e-17 4.787e-41 -1.50104e-40 0.005152681 -1.7214598e-14
-0.0068776333 -1.1050659e-25 5.7925303e-05 -2.5649863e-34 3.0331438e-25 0.056370698 -5.9193924e-05 -9.371595e-09
3.1975727e-37 -1.9628498e-11 -1.2805683e-25 0.32558614 -0.0415956 4.94877e-17 -0.00053099124 -1.0475821e-29
0.034748998 -4.713667e-12 -4.0091e-41 -8.179283e-34 -2.0962069e-11 -0.11941077 -1.5083564e-10 4.9309e-41
0.009417029 0.00033634395 -0.0006818143 -3.442793e-36 7.699704e-23 -3.2015762e-35 1.5821017e-14 3.0179868e-19
-1.6753569e-38 -1.1537854e-06 -0.053508293 -5.645375e-35 0.0009682027 -6.105662e-11 0.020691998 1.8480246e-24
-0.069143936 -1.982462e-39 -1.0610524e-07 -2.363881e-12 -0.00603124 2.544301e-36 -0.12519968 -5.074331e-12
-8.8571525e-14 -0.15275756 3.0856347e-07 3.9658e-41 -1.9792e-41 -8.072045e-37 -1.1225921e-10 -2.3251023e-26
-2.6008682e-29 2.7168e-41 -1.1129025e-22 1.0488202e-17 -4.9162e-41 3.929479e-39 -0.036533326 -4.8888823e-15
-0.048863318 2.419393e-24 5.9754188e-05 -1.1326098e-34 3.4914438e-28 0.058336046 -0.0015876475 -3.3187015e-14
8.124587e-37 -5.8156435e-23 5.7417935e-17 -0.33591354 0.0768109 -3.9430194e-18 0.0011287597 -9.895918e-30
-0.017379448 -6.6710504e-16 8.6718e-41 3.5106968e-27 -3.4755972e-11 -0.08350676 4.711812e-12 -4.2162e-41
-0.001274051 -6.208742e-05 -0.00069086143 -1.18268075e-36 -9.1431276e-23 6.442928e-37 3.75529e-14 9.921945e-30
-1.0246742e-29 2.6226695e-07 -0.059131093 -2.09629e-40 -0.00063667266 2.5614715e-11 0.07337242 8.510825e-31
-0.022999128 2.7758627e-38 6.680847e-08 -1.9446304e-12 -0.03153219 1.9566082e-22 0.00653902 -4.448524e-12
-5.4690783e-14 0.00786597 4.5283123e-06 -3.30401e-39 1.57505e-40 1.1306462e-35 8.102161e-10 -1.543312e-26
4.4887318e-29 4.9485e-41 1.19488746e-26 -3.7926294e-17 4.9771e-41 2.15772e-40 -0.04423444 -2.3353395e-14
-0.030079467 -5.8035467e-24 1.3231403e-05 -3.179455e-35 -1.0884674e-27 -0.006371303 -0.00038041186 3.3080832e-13
