checkpoints/checkpoint_epoch_100.pth (torch, 78474 bytes, 24 tensors)

fc1.weight f4 [64, 2]
0.32100326 -0.44708154 0.46785653 -0.58411956 -0.0747033 0.08640598 0.15255941 0.35993764
0.12493135 0.14193459 0.0805841 0.61421204 -0.31371054 -0.701675 0.13904294 -0.1356535
-0.14556439 0.3342905 -0.41328192 0.25022703 -0.5214199 0.23239775 0.27182454 -0.10685561
-0.28250298 0.027922994 -0.3972296 0.1254298 -0.008269117 -0.5454589 0.14402366 -0.27773988
0.6992713 0.1349504 -0.25653288 0.50661254 0.015097675 0.29217517 -0.11934794 -0.25850505
-0.23261999 -0.37155107 0.43075362 -0.4530918 0.41539714 0.6099741 0.3370087 -0.80213773
-0.46833143 -0.65249795 -0.26863563 -0.6009533 -0.24021475 0.38620415 0.3704624 0.08256743
0.018413857 0.6421589 -0.254128 -0.41345856 -0.4667397 -0.554725 0.5780098 -0.7388617
0.37052503 -0.24074194 -0.53569776 -0.3452524 -0.18538351 0.59102356 -0.121139996 -0.7034689
0.66291153 -0.64841425 0.24217337 0.76264983 0.13506441 0.62024623 0.010667745 -0.387027
-0.3566193 0.3200772 0.35174873 -0.48085892 0.11187025 -0.01959641 0.028064573 -0.15012364
0.4335028 0.41561455 -0.08757423 -0.078569345 0.20639075 0.010533199 0.008640813 -0.7985787
0.3551002 0.38567394 0.6089801 -0.19367231 0.6629831 0.60350245 -0.4596062 -0.67667514
-0.11740924 -0.20549627 -0.4041392 -0.30354613 -0.45798466 0.25361675 0.038073517 -0.14783825
-0.2758589 -0.40576354 0.17794375 -0.082285516 0.19845459 0.3997055 -0.47463796 0.20290282
-0.052410524 -0.49575448 0.49815822 -0.08064636 -0.18748587 -0.13753 -0.4760987 0.14037572
00000000: 8a5a a43e dfe7 e4be e48a ef3e dc88 15bf
00000010: 0bfe 98bd 9ef5 b03d 8938 1c3e bf49 b83e
00000020: 02dc ff3d 4d57 113e 4709 a53d 003d 1d3f
00000030: ab9e a0be f9a0 33bf 4661 0e3e c0e8 0abe
00000040: d50e 15be 2028 ab3e b099 d3be c21d 803e
00000050: c67b 05bf adf9 6d3e 962c 8b3e 1dd7 dabd
00000060: 3ba4 90be c3be e43c ae61 cbbe ab70 003e
00000070: 317b 07bc 32a3 0bbf f07a 133e ec33 8ebe
00000080: 7203 333f 7030 0a3e 4758 83be 5cb1 013f
00000090: 3d5c 773c fc97 953e b16c f4bd c65a 84be
000000a0: ef33 6ebe f13b bebe bd8b dc3e a6fb e7be
000000b0: efae d43e 4327 1c3f 688c ac3e e658 4dbf
000000c0: 23c9 efbe 1b0a 27bf 9c8a 89be 13d8 19bf
000000d0: dbfa 75be 8dbc c53e 3fad bd3e 1d19 a93d
000000e0: a8d8 963c 8764 243f 111d 82be d7b0 d3be
000000f0: 82f8 eebe 7502 0ebf 73f8 133f 0a26 3dbf
00000100: 75b5 bd3e 0e85 76be 7d23 09bf ecc4 b0be
00000110: 2dd5 3dbe 524d 173f 3f18 f8bd 8a16 34bf
00000120: 92b4 293f 7afe 25bf 4cfc 773e 053d 433f
00000130: 534e 0a3e 75c8 1e3f c4c7 2e3c 6728 c6be
00000140: ce96 b6be 29e1 a33e 6918 b43e 2433 f6be
00000150: 3b1c e53d a788 a0bc ade7 e53c 03ba 19be
00000160: 14f4 dd3e 6ecb d43e 1e5a b3bd f7e8 a0bd
00000170: 1958 533e 7093 2c3c 3292 0d3c a76f 4cbf
00000180: b2cf b53e 0e77 c53e 1fe6 1b3f 0952 46be
00000190: 43b9 293f 237f 1a3f 8151 ebbe 953a 2dbf
000001a0: 4174 f0bd 9d6d 52be 55eb cebe 666a 9bbe
000001b0: f77c eabe 0eda 813e faf2 1b3d e962 17be
000001c0: 613d 8dbe 3dc0 cfbe e336 363e 4f85 a8bd
000001d0: ae37 4b3e 33a6 cc3e bf03 f3be c2c5 4f3e
000001e0: 6bac 56bd 88d3 fdbe 980e ff3e eb29 a5bd
000001f0: 4cfc 3fbe aad4 0cbe 35c3 f3be a7be 0f3e

fc1.bias f4 [64]
0.68976426 0.26374382 -0.46213782 0.60505354 -0.10043074 0.36900103 0.09729444 0.5685037
0.13594675 0.5301276 -0.7340314 0.25650674 -0.5961426 0.36944076 -0.23669778 0.5045721
-0.29622886 0.06408689 -0.40732807 -0.58932996 0.29982558 -0.43674654 0.0019720572 -0.30592433
-0.022847086 0.18576907 -0.14765653 -0.5274533 -0.40143937 0.45317766 -0.49358305 -0.5640117
-0.7064845 0.7175603 0.0061051743 -0.06937631 -0.42171973 0.26935384 0.5521246 -0.32960916
-0.13201481 -0.34115234 -0.39683607 -0.59629613 -0.23217721 0.4391199 -0.6775015 0.7016544
0.07942146 -0.14902347 -0.5752109 -0.35384667 0.79766154 -0.15710826 0.35786447 0.42461094
0.09156656 -0.522996 -0.41218957 0.65225995 0.5891986 -0.48106337 -0.5704173 -0.26929542
00000000: 6494 303f 6e09 873e 549d ecbe cae4 1a3f
00000010: a2ae cdbd b4ed bc3e 4f42 c73d 7589 113f
00000020: a035 0b3e 71b6 073f 7be9 3bbf da54 833e
00000030: cd9c 18bf 5727 bd3e e760 72be a32b 013f
00000040: 4fab 97be fd3f 833d 4e8d d0be 54de 16bf
00000050: bd82 993e 3e9d dfbe a13d 013b 1da2 9cbe
00000060: d029 bbbc 3f3a 3e3e 4633 17be 2e07 07bf
00000070: 7689 cdbe e706 e83e ebb6 fcbe 1263 10bf
00000080: 2bdc 34bf 08b2 373f ea0d c83b 2b15 8ebd
00000090: a6eb d7be bfe8 893e 0a58 0d3f 88c2 a8be
000000a0: e42e 07be 85ab aebe 192e cbbe dda6 18bf
000000b0: ddbf 6dbe 53d4 e03e bd70 2dbf 9f9f 333f
000000c0: b8a7 a23d 9c99 18be 0641 13bf 642b b5be
000000d0: 8c33 4c3f fde0 20be 033a b73e 9b66 d93e
000000e0: 4087 bb3d 11e3 05bf 830a d3be 82fa 263f
000000f0: b8d5 163f f04d f6be de06 12bf 17e1 89be

fc2.weight f4 [32, 64]
-0.14107214 -0.09981278 -0.08754732 0.13398948 -0.036328416 -0.05467091 -0.10971519 -0.14362834
-0.12981795 0.076982886 0.026060047 -0.026948879 -0.13130714 0.0049168495 0.021048829 -0.112375915
-0.0105511 -0.08828431 0.02916908 -0.1298947 0.009349894 -0.045293882 0.075604275 -0.08853639
0.07607925 -0.06106404 -0.08814165 0.09739223 -0.010893639 -0.109324716 -0.043269575 -0.030313432
-0.07304624 0.07642778 -0.14490438 -0.15682605 0.14539093 -0.10064759 0.04657374 0.08391428
-0.12363042 -0.04343471 0.0806185 0.009081379 -0.039400835 -0.1327935 -0.011741564 -0.023208268
0.100964904 -0.107692115 -0.0049194135 -0.10786562 0.06315157 -0.007152057 -0.02738579 0.0066878246
0.059142884 -0.050195202 -0.028251085 0.0017185222 -0.053833947 0.009493545 -0.15604423 -0.021749211
-0.103485264 -0.08259467 -0.005796405 0.013169241 -0.11278997 -0.037381355 0.14923887 -0.021151813
-0.10950966 -0.058175392 0.027510148 -0.11047548 0.07007707 -0.03731344 0.012508411 -0.0830047
0.0668715 0.05693303 0.019476317 -0.048488602 0.13120414 -0.040401008 8.2514634e-05 -0.008683334
0.023683617 0.09589423 -0.077867016 -0.083913945 -0.15073428 0.022197764 -0.03326799 0.016070163
-0.12253008 0.076902635 0.111596264 0.05897852 -0.036806628 0.061102703 0.0054423613 0.030439058
0.015814334 -0.09956966 -0.12936626 0.045309275 -0.007645578 -0.025737733 0.050287876 0.12077452
-0.00043021332 -0.10948556 -0.16550106 0.021667197 0.14136712 -0.016709518 0.08281529 0.0037768662
0.08293891 0.013846171 -0.13610382 -0.017513897 0.1057067 -0.080917776 -0.05881359 0.1062766
-0.16325468 0.04203658 0.097215846 0.061988138 -0.12130384 -0.11910272 -0.1175088 0.06261131
-0.06336039 -0.17928112 -0.11290353 -0.08961883 -0.001338914 0.053667538 0.058217853 -0.042569503
-0.13201462 -0.089141525 0.033005342 0.06819108 -0.12965082 -0.17325899 0.035051458 -0.17345944
-0.08507336 -0.069739 -0.14937907 -0.022021353 0.10060638 -0.014042541 -0.042453896 -0.1638675
0.02598019 0.04133494 -0.07727061 -0.018679053 -0.15183808 -0.11456257 -0.08239512 0.06301151
0.040364366 -0.046300214 -0.10426371 0.10057849 0.05830678 -0.039409343 -0.07484011 0.055915907
-0.11242823 -0.16483717 -0.051994316 -0.12951887 0.03826103 -0.06494074 -0.0541888 -0.15766138
0.024868852 -0.038118094 -0.089580715 -0.1524476 -0.16940741 -0.11345292 0.104905486 -0.11988256
-0.11379876 -0.079590105 -0.016309028 0.013382187 0.065541536 0.032489628 -0.073515795 0.018601246
-0.14709355 -0.049141943 -0.006065729 0.06842193 -0.13080938 -0.13324408 -0.04767238 -0.16818492
0.07778226 0.025036426 -0.097263664 -0.040540066 -0.08158672 0.008426695 -0.010327724 -0.11945566
0.013892892 -0.1037029 0.06907445 -0.05192563 -0.09490457 -0.10988369 -0.04433979 -0.10258501
0.0067922766 -0.023491653 0.024594286 -0.10551481 -0.012274657 -0.02836015 0.001280514 -0.080630824
0.08079799 -0.011730196 -0.07767313 0.0018341526 -0.021455733 -0.082169436 0.03850974 -0.07852387
-0.13744557 -0.15806438 -0.169363 -0.012285769 0.0050155576 -0.10830582 0.03313606 0.02612681
0.049158294 0.028741824 -0.07228968 -0.03463459 -0.065922804 -0.078154385 0.0076022916 -0.09938906
00000000: 3775 10be a56a ccbd 024c b3bd 8a34 093e
00000010: 1bcd 14bd 9bee 5fbd 5cb2 e0bd 4f13 13be
00000020: ffee 04be 34a9 9d3d e17b d53c e5c3 dcbc
00000030: 6175 06be 861d a13b 986e ac3c 5825 e6bd
00000040: 85de 2cbc 68ce b4bd fff3 ee3c 1e03 05be
00000050: 4c30 193c 1486 39bd 6ad6 9a3d 9152 b5bd
00000060: 70cf 9b3d 491e 7abd 9c83 b4bd 9475 c73d
00000070: 3c7b 32bc a3e5 dfbd 703b 31bd e053 f8bc
00000080: 4499 95bd 2b86 9c3d d061 14be 0297 20be
00000090: 5ce1 143e 5320 cebd 1bc4 3e3d 40db ab3d
000000a0: f231 fdbd 98e8 31bd 501b a53d 10ca 143c
000000b0: c562 21bd 05fb 07be b05f 40bc 441f bebc
000000c0: b0c6 ce3d af8d dcbd 0833 a1bb a6e8 dcbd
000000d0: 9c55 813d cd5b eabb 2a58 e0bc 8a25 db3b
000000e0: cf3f 723d 7c99 4dbd d26e e7bc 0940 e13a
000000f0: fc80 5cbd d08a 1b3c 0fca 1fbe 672b b2bc
00000100: 15f0 d3bd 6527 a9bd c5ef bdbb cdc3 573c
00000110: 6efe e6bd 311d 19bd 13d2 183e 9146 adbc
00000120: 9a46 e0bd 5249 6ebd f65c e13c f840 e2bd
00000130: 9184 8f3d fad5 18bd 14f0 4c3c 5efe a9bd
00000140: edf3 883d 9c32 693d cc8c 9f3c fc9b 46bd
00000150: 615a 063e 877b 25bd b50b ad38 8b44 0ebc
00000160: 2504 c23c 3264 c43d be78 9fbd 13db abbd
00000170: 165a 1abe 16d8 b53c 0444 08bd 93a5 833c
00000180: 0df1 fabd 217f 9d3d 958c e43d 7693 713d
00000190: 8cc2 16bd d446 7a3d d655 b23b 555b f93c
000001a0: 108d 813c 2eeb cbbd 9778 04be 3896 393d
000001b0: c287 fabb f0d7 d2bc a9fa 4d3d a258 f73d
000001c0: 418e e1b9 f739 e0bd 1c79 29be 687f b13c
000001d0: 8bc2 103e 66e2 88bc 109b a93d 4d85 773b
000001e0: e0db a93d 0ddb 623c cd5e 0bbe 4e79 8fbc
000001f0: c17c d83d 38b8 a5bd 85e6 70bd 8ca7 d93d
00000200: 3c2c 27be 8d2e 2c3d 1a19 c73d 46e7 7d3d
00000210: 266e f8bd 20ec f3bd 74a8 f0bd 5c3a 803d
00000220: 18c3 81bd 7895 37be f739 e7bd 148a b7bd
00000230: 807e afba 7ed2 5b3d d875 6e3d 5c5d 2ebd
00000240: d72e 07be d58f b6bd 9c30 073d c4a7 8b3d
00000250: 2fc3 04be ce6a 31be 1e92 0f3d 5a9f 31be
00000260: f13a aebd 52d3 8ebd d4f6 18be 2066 b4bc
00000270: b80a ce3d b012 66bc 23e4 2dbd e2cc 27be
00000280: 68d4 d43c d34e 293d 0e40 9ebd d004 99bc
00000290: 717b 1bbe c89f eabd c6be a8bd 2e0c 813d
000002a0: 1b55 253d 4ba5 3dbd 3688 d5bd 18fc cd3d
000002b0: 17d3 6e3d b16b 21bd c645 99bd 1408 653d
000002c0: c640 e6bd 13cb 28be fef7 54bd 98a0 04be
000002d0: 99b7 1c3d a7ff 84bd 13f5 5dbd fc71 21be
000002e0: c3b9 cb3c b821 1cbd 1876 b7bd 391b 1cbe
000002f0: 2379 2dbe 015a e8bd b0d8 d63d fd84 f5bd
00000300: 530f e9bd 2300 a3bd 839a 85bc f640 5b3c
00000310: a43a 863d d813 053d 738f 96bd a461 983c
00000320: b19f 16be 1049 49bd 06c3 c6bb cc20 8c3d
00000330: e5f2 05be 2371 08be 1d44 43bd ab38 2cbe
00000340: 4e4c 9f3d 3119 cd3c 2c32 c7bd 570d 26bd
00000350: f016 a7bd 1f10 0a3c 9d35 29bc 2ba5 f4bd
00000360: 039f 633c 3062 d4bd e876 8d3d f8af 54bd
00000370: 545d c2bd b30a e1bd a49d 35bd 1718 d2bd
00000380: bf91 de3b 9171 c0bc f579 c93c 2618 d8bd
00000390: a51b 49bc 8c53 e8bc ecd6 a73a c621 a5bd
000003a0: 6b79 a53d 0230 40bc 1713 9fbd f367 f03a
000003b0: efc3 afbc 7348 a8bd 64bc 1d3d 1fd1 a0bd
000003c0: 88be 0cbe a1db 21be 7f6d 2dbe 404a 49bc
000003d0: 8c59 a43b 71cf ddbd adb9 073d e407 d63c
000003e0: 355a 493d f973 eb3c 9d0c 94bd 00dd 0dbd
000003f0: 8902 87bd 680f a0bd a51c f93b 7e8c cbbd

fc2.bias f4 [32]
-0.051238153 -0.09976951 -0.11079772 -0.13195905 -0.054534864 0.07170569 -0.12236487 0.35517713
-0.12982787 -0.1476264 -0.0039989282 0.079005875 0.00473144 -0.11085656 -0.18984671 -0.14897051
-0.030977825 -0.033898517 0.25450265 0.035587545 0.04160498 -0.0709287 -0.15758349 -0.11895591
-0.017014729 -0.06965299 -0.063206986 -0.096338764 -0.13986354 -0.07357241 0.053826135 0.079766266
00000000: 19df 51bd f553 ccbd eae9 e2bd 4620 07be
00000010: f35f 5fbd 6fda 923d 6f9a fabd c7d9 b53e
00000020: 99f1 04be 602b 17be 7109 83bb d5cd a13d
00000030: 320a 9b3b c408 e3bd 2d67 42be ba8b 18be
00000040: 35c5 fdbc 2cd9 0abd 2c4e 823e 3fc4 113d
00000050: fc69 2a3d 1143 91bd 915d 21be 289f f3bd
00000060: 7962 8bbc 3aa6 8ebd aa72 81bd 424d c5bd
00000070: 6338 0fbe 22ad 96bd cb78 5c3d 7f5c a33d

fc1.weight f4 [64, 32]
-0.17491122 -0.23869388 -0.17003994 -0.17929408 0.06843193 0.026913153 0.11060125 0.08389264
0.06401611 -0.00047259548 0.051364318 -0.27881745 -0.09474096 -0.06690502 -0.17720206 -0.06248026
0.059776343 0.09429078 -0.09147359 -0.08545447 -0.09685722 0.079260066 0.083421014 -0.09541292
0.05966703 -0.21363539 0.039585266 -0.07519665 -0.009554691 -0.010351259 -0.22325835 -0.062786646
0.02781335 -0.03589337 0.1438714 0.1059594 0.032297656 0.12082018 0.1236357 0.19058007
-0.029510451 -0.15990739 0.0026100883 -0.14930627 0.07417078 0.2079856 -0.13467377 0.20438981
0.12760217 0.15960257 0.054398984 -0.18407688 0.10103776 -0.0019017345 0.21608151 0.004714462
-0.21163575 -0.023037046 0.21321593 0.019204337 -0.11621992 0.0049211374 -0.08257593 -0.11685317
0.013110279 0.039124686 0.0856801 0.07327235 0.07757506 0.021816028 -0.017443907 0.1659655
-0.14011973 0.106845774 -0.051601574 0.050536092 0.024245942 -0.18391064 -0.19685796 0.1391288
-0.09765102 -0.1268863 0.21616918 -0.2002096 -0.062225573 0.053037066 0.04400506 0.12722453
-0.0018934679 -0.010143221 -0.13181636 -0.16767669 -0.015039239 -0.10003744 0.14693528 -0.07843791
0.07227434 -0.031061333 -0.12807761 -0.17029215 -0.22671993 -0.19102554 -0.008770073 -0.11056096
0.049389802 0.11204061 0.050142236 -0.09065715 0.063663684 -0.23762645 0.14468892 0.041587655
-0.17378354 -0.01577721 -0.025408225 0.093819596 -0.018892795 -0.06845467 -0.0076707434 -0.119441405
0.120379895 0.10565901 -0.113602966 -0.17420518 0.15426342 -0.1692802 0.14047617 -0.07701049
0.03725098 -0.11651021 -0.090177916 0.09025221 0.07351689 0.030795919 -0.15165266 -0.06509342
0.1036984 -0.19115272 0.042721502 0.041278668 -0.09195378 0.09838839 -0.115179814 0.097263634
0.040104236 0.14021645 -0.0998704 -0.20293905 -0.13857128 -0.05593686 -0.09458416 0.005901865
-0.21524498 -0.04639374 -0.1260718 -0.14048845 -0.14941625 -0.12625526 -0.22886164 0.080397956
-0.12006539 0.06771383 0.0016972957 -0.054365687 0.094594456 0.08751561 -0.11184545 -0.0025292358
-0.22649519 0.103655264 -0.037692633 0.056498706 -0.22719765 -0.0049900166 0.09516808 0.1206643
-0.11617923 -0.008729687 -0.034583796 -0.2621366 -0.13868529 -0.054318182 0.06641715 0.024246344
-0.16817221 -0.2581138 0.15206023 0.06608261 -0.11271692 0.11990547 -0.1392318 -0.13424166
-0.1457689 -0.12807645 -0.20794468 -0.1495482 -0.10125825 0.07026443 0.021979773 0.43593925
-0.11170541 -0.054731376 -0.16242638 -0.029612077 -0.12938514 0.0541244 -0.18912809 0.05787008
-0.12782587 0.06451296 0.061737366 0.019541945 -0.0061136372 -0.0064144507 -0.0197921 0.1460138
-0.0879932 0.069059595 -0.09253195 -0.057038445 0.05698016 0.12447295 -0.048211135 0.123822056
0.069862515 0.109812506 0.059436448 -0.09678483 0.048075262 -0.0028130175 0.10717496 0.547772
-0.11580628 0.15852533 -0.03428552 0.06973481 -0.22201401 -0.18407577 -0.16330548 -0.12617055
0.01569213 -0.09328669 0.40794486 0.051447734 -0.0138166025 0.0047582416 -0.009292311 0.11704546
-0.288448 -0.11854142 0.19195561 0.057587642 -0.11582599 -0.08729628 0.040450606 -0.09921808
00000000: ed1b 33be 2b6c 74be f31e 2ebe de98 37be
00000010: 0a26 8c3d f978 dc3c e882 e23d e8cf ab3d
00000020: e11a 833d b1c6 f7b9 6463 523d 29c1 8ebe
00000030: 8c07 c2bd 8005 89bd 7574 35be 4deb 7fbd
00000040: 0ad8 743d 861b c13d 8156 bbbd c102 afbd
00000050: 145d c6bd 1a53 a23d a3d8 aa3d d967 c3bd
00000060: 6a65 743d 3cc3 5abe 2924 223d b400 9abd
00000070: 478b 1cbc 5498 29bc d69d 64be 4996 80bd
00000080: d3d8 e33c ed04 13bd 0653 133e 3e01 d93d
00000090: 8c4a 043d 9270 f73d b734 fd3d 6c27 433e
000000a0: e7bf f1bc c3be 23be 040e 2b3b bee3 18be
000000b0: dae6 973d 2dfa 543e ece7 09be 904b 513e
000000c0: 25aa 023e db6e 233e 78d1 5e3d a67e 3cbe
000000d0: e3ec ce3d 9f43 f9ba 7944 5d3e c67b 9a3b
000000e0: 0bb7 58be 30b8 bcbc 4755 5a3e 6a52 9d3c
000000f0: b604 eebd 7e41 a13b 921d a9bd b750 efbd
00000100: 7fcc 563c 3541 203d 0c79 af3d d00f 963d
00000110: acdf 9e3d 87b7 b23c 86e6 8ebc dcf2 293e
00000120: 8c7b 0fbe f5d1 da3d 2c5c 53bd effe 4e3d
00000130: 6d9f c63c 1253 3cbe 2295 49be c877 0e3e
00000140: 42fd c7bd 7bee 01be 745b 5d3e bf03 4dbe
00000150: 3ee0 7ebd 653d 593d a63e 343d 2647 023e
00000160: 3d2e f8ba c12f 26bc defa 06be 70b3 2bbe
00000170: 2467 76bc 6ee0 ccbd 3476 163e 0ea4 a0bd
00000180: 9204 943d 5674 febc c726 03be 1161 2ebe
00000190: 4529 68be 339c 43be 5ab0 0fbc c96d e2bd
000001a0: f64c 4a3d 8c75 e53d f261 4d3d 75aa b9bd
000001b0: 1b62 823d 5954 73be 5529 143e d157 2a3d
000001c0: 50f4 31be 353f 81bc e924 d0bc 7d24 c03d
000001d0: 10c5 9abc f631 8cbd dc5a fbbb b29d f4bd
000001e0: bc89 f63d c063 d83d aca8 e8bd d862 32be
000001f0: 3bf7 1d3e ca57 2dbe fcd8 0f3e adb7 9dbd
00000200: 7c94 183d e89c eebd 33af b8bd 27d6 b83d
00000210: 0690 963d b947 fc3c d64a 1bbe b34f 85bd
00000220: d45f d43d 8abd 43be befc 2e3d d213 293d
00000230: 4352 bcbd da7f c93d 65e3 ebbd 2832 c73d
00000240: 5744 243d e794 0f3e da88 ccbd 41cf 4fbe
00000250: a1e5 0dbe 0d1e 65bd 57b5 c1bd 6f64 c13b
00000260: 2e69 5cbe 5d07 3ebd f718 01be 34dc 0fbe
00000270: 9300 19be 0f49 01be b55a 6abe afa7 a43d
00000280: d8e4 f5bd 8cad 8a3d cb77 de3a 8eae 5ebd
00000290: bdba c13d 623b b33d 3a0f e5bd 89c1 25bb
000002a0: 5bee 67be 3649 d43d 9763 1abd 306b 673d
000002b0: 80a6 68be 4b83 a3bb 7be7 c23d d81e f73d
000002c0: 60ef edbd f606 0fbc bda7 0dbd c536 86be
000002d0: 8403 0ebe be7c 5ebd b705 883d 45a0 c63c
000002e0: 5635 2cbe 7e27 84be adb5 1b3e 5256 873d
000002f0: 21d8 e6bd 0091 f53d c892 0ebe a576 09be
00000300: 7144 15be 7926 03be 73ef 54be 2a23 19be
00000310: 7c60 cfbd cce6 8f3d ed0e b43c 6e33 df3e
00000320: cec5 e4bd 022e 60bd 1a53 26be 0795 f2bc
00000330: 8a7d 04be 8cb1 5d3d cbaa 41be 2d09 6d3d
00000340: c9e4 02be 5f1f 843d 52e0 7c3d 6e16 a03c
00000350: e854 c8bb 5030 d2bb 0b23 a2bc a484 153e
00000360: c735 b4bd 1e6f 8d3d 6481 bdbd 25a1 69bd
00000370: 0764 693d adeb fe3d 0a79 45bd 6b96 fd3d
00000380: 1414 8f3d 61e5 e03d a273 733d 2037 c6bd
00000390: 91ea 443d 9a5a 38bb 8c7e db3d c93a 0c3f
000003a0: d82b edbd 7754 223e f96e 0cbd 20d1 8e3d
000003b0: a457 63be 5c7e 3cbe 8d39 27be da32 01be
000003c0: c88c 803c 180d bfbd 26de d03e dcba 523d
000003d0: 085f 62bc 06eb 9b3b c73e 18bc 88b5 ef3d
000003e0: 75af 93be d8c5 f2bd 0390 443e 05e1 6b3d
000003f0: 2d36 edbd 64c8 b2bd 89af 253d d932 cbbd

fc1.bias f4 [64]
0.070340216 0.02008454 -0.03808956 -0.097085394 -0.1667457 -0.35709026 0.18944202 0.0262043
0.013457543 -0.24579145 -0.01910987 -0.24346453 0.012521558 0.092873566 -0.02674896 0.059082687
0.16702259 -0.055092536 0.016723407 0.053887296 0.019997193 -0.11118155 -0.007648331 -0.0345951
-0.057537448 -0.05652188 -0.035446353 -0.2346855 0.07106701 -0.116942964 -0.05969488 -0.07574281
0.07877378 0.044750918 -0.068076655 -0.21150407 0.03737187 -0.23319153 0.16337417 0.07495378
0.057641976 -0.15761423 0.105850905 0.15761946 0.18184297 0.18687488 -0.28926298 -0.008517206
0.2178047 0.011297643 -0.030260699 -0.22666672 -0.16303656 -0.10898555 0.0027596282 -0.22581717
0.32571143 0.080474846 0.0238562 -0.13933167 0.14804453 0.19944313 -0.15662092 0.41390407
00000000: 880e 903d 5588 a43c cc03 1cbd b5d4 c6bd
00000010: 63bf 2abe 89d4 b6be 17fd 413e 66aa d63c
00000020: 077d 5c3c c1b0 7bbe 4d8c 9cbc c44e 79be
00000030: 3927 4d3c 7f34 be3d a320 dbbc b000 723d
00000040: f807 2b3e b6a8 61bd 87ff 883c edb8 5c3d
00000050: 27d1 a33c 27b3 e3bd da9e fabb 97b3 0dbd
00000060: 63ac 6bbd 7d83 67bd 3230 11bd 6551 70be
00000070: 958b 913d cb7f efbd 9e82 74bd 0c1f 9bbd
00000080: 2654 a13d bd4c 373d c66b 8bbd 8694 58be
00000090: 3f13 193d c3c9 6ebe 8f4b 273e 5e81 993d
000000a0: fe19 6c3d a065 21be 5cc8 d83d ff66 213e
000000b0: 0b35 3a3e 215c 3f3e 471a 94be c08b 0bbc
000000c0: 3208 5f3e c019 393c 49e5 f7bc 521b 68be
000000d0: 0ef3 26be d133 dfbd e1da 343b 9e3c 67be
000000e0: a6c3 a63e ffcf a43d 146e c33c f6ac 0ebe
000000f0: fc98 173e d23a 4c3e 3c61 20be 3ceb d33e

fc2.weight f4 [20, 64]
-0.061990965 -0.12574773 0.07002877 -0.15489113 0.031363748 0.020940352 0.03127619 -0.0860523
0.0588558 0.034728356 -0.072313376 0.02496872 -0.050727 -0.014746943 -0.21302004 0.23147757
-0.012518434 -0.008035508 0.14186308 -0.03231037 -0.078964986 0.041958608 0.019779895 -0.06343211
-0.009508621 0.048122548 -0.015913947 -0.023221396 -0.08489618 0.10197757 0.06860985 -0.020867694
0.27791613 0.12449787 0.057590798 0.031267256 -0.13460666 -0.08200112 -0.15483248 0.014971674
0.01573025 -0.035128355 -0.020394217 -0.0761687 0.14200947 -0.038359556 0.6182706 -0.06336444
-0.06973349 -0.15759408 -0.1840298 -0.048012808 0.020660255 0.014247222 0.052875713 -0.017094407
0.15060912 0.046740375 -0.09806687 -0.048373226 -0.010352572 -0.043999784 -0.14902191 0.058162764
0.029254094 -0.037679985 0.10394833 0.11457607 -0.024915589 0.089075916 -0.17606898 0.028551402
0.056777824 0.11847012 -0.05785167 0.066230856 0.08123161 -0.050734945 -0.2672294 -0.066542216
-0.2507416 -0.010065568 -0.009439798 -0.12970486 -0.042643998 0.09628433 -0.012559405 -0.040188674
-0.040598784 -0.07261297 -0.0294343 0.034963164 0.084378354 0.12053405 -0.014152036 -0.11591326
-0.121436626 -0.015748864 0.017092256 0.050088905 -0.2903697 0.0842817 -0.055140704 -0.119932994
0.116224796 0.026162729 -0.016775398 0.005520068 0.073121406 -0.06894553 0.23722044 0.0522222
0.094686836 -0.17402631 0.05142507 0.046108615 -0.011890496 0.076939866 0.11830023 0.044002198
-0.25014326 -0.07687686 0.04425497 -0.0306279 0.13543004 0.14368945 0.015705582 -0.21862708
0.043165214 0.11214575 0.14748968 0.023220448 0.037926715 0.17585278 -0.112778634 0.031121366
0.16335966 -0.037728768 -0.08979227 0.14698055 0.08661388 0.12540402 -0.06420132 0.28363276
-0.038116366 0.1899225 0.035007834 0.12973636 -0.08208284 0.096686326 0.025753904 0.04218915
-0.011753708 -0.09662048 0.12846439 0.058151953 0.10316478 0.033684045 -0.007851466 -0.07425325
0.3781041 -0.22880338 -0.11415964 0.080332436 -0.075365506 0.0061195027 0.07144328 -0.10711071
-0.013088062 0.119201615 0.07489398 0.18517698 -0.010392912 0.059185337 0.3947963 -0.105364405
-0.0049975393 -0.1554493 -0.12642372 -0.032661352 -0.08704426 0.016652303 0.058723986 0.009354816
-0.009797667 -0.062635615 0.09282031 -0.021685349 -0.09103506 -0.11211103 0.07564428 -0.08608877
0.009568078 0.14441842 0.07649924 0.054248624 -0.05291146 0.26996216 0.07035709 0.051807106
-0.083575904 0.028568009 0.09429368 0.062574275 -0.07821215 -0.059502516 0.18907818 -0.24779208
-0.12046693 -0.071464464 -0.027675953 -0.09059857 -0.023506202 -0.026752375 0.017118331 -0.03787247
-0.070236325 0.07310233 0.063557245 0.06873309 -0.08680726 -0.0029965788 -0.031896573 0.12320197
-0.16196212 -0.14725198 0.0693181 0.0021237915 0.084870175 0.03370373 0.07421638 0.10262587
0.041006878 0.03453642 -0.04163887 -0.0141854985 -0.34763622 0.18719493 -0.029112328 0.06617242
0.15939133 -0.009110359 0.15298472 0.040451284 0.12763149 0.16904418 0.1583234 0.10085081
-0.35104024 -0.05486448 0.13478546 0.016855085 -0.0660298 0.2617417 0.14297168 -0.13051447
00000000: 3dea 7dbd 03c4 00be 3e6b 8f3d c89b 1ebe
00000010: 4677 003d 1a8b ab3c 761b 003d 303c b0bd
00000020: c812 713d 523f 0e3d 0919 94bd 338b cc3c
00000030: 1dc7 4fbd 299d 71bc ed21 5abe 7508 6d3e
00000040: 1e1a 4dbc 5da7 03bc 8e44 113e e157 04bd
00000050: 65b8 a1bd cadc 2b3d 7209 a23c b2e8 81bd
00000060: 0cca 1bbc 261c 453d f75d 82bc cc3a bebc
00000070: 0cde adbd 9ed9 d03d 5283 8c3d baf2 aabc
00000080: 064b 8e3e bdf8 fe3d 54e4 6b3d 1812 003d
00000090: 54d6 09be 34f0 a7bd 688c 1ebe c14b 753c
000000a0: badc 803c c0e2 0fbd c611 a7bc 56fe 9bbd
000000b0: ee6a 113e e91e 1dbd fb46 1e3f 37c5 81bd
000000c0: 6fd0 8ebd 5860 21be 4f72 3cbe 14a9 44bd
000000d0: b23f a93c 2e6d 693c 3494 583d 9209 8cbc
000000e0: 4739 1a3e d672 3f3d 48d7 c8bd 0123 46bd
000000f0: d69d 29bc 1e39 34bd 3399 18be 143c 6e3d
00000100: 48a6 ef3c 5456 1abd dde2 d43d dca6 ea3d
00000110: c71b ccbc 6f6d b63d 6d4b 34be a1e4 e93c
00000120: dd8f 683d 76a0 f23d dff5 6cbd 0ba4 873d
00000130: c25c a63d 72cf 4fbd 4bd2 88be 4947 88bd
00000140: 3461 80be 0dea 24bc 62a9 1abc 5ad1 04be
00000150: 79ab 2ebd b830 c53d f6c5 4dbc e19c 24bd
00000160: e94a 26bd 1cb6 94bd 3320 f1bc 8935 0f3d
00000170: 8fce ac3d 8eda f63d f1dd 67bc ee63 edbd
00000180: c4b3 f8bd c303 81bc 0f05 8c3c 062a 4d3d
00000190: 56ab 94be e29b ac3d 38db 61bd 6e9f f5bd
000001a0: 4407 ee3d 3853 d63c 8f6c 89bc b0e1 b43b
000001b0: adc0 953d 5033 8dbd eae9 723e f2e6 553d
000001c0: 2ceb c13d f433 32be 18a3 523d 63dc 3c3d
000001d0: 5bd0 42bc a692 9d3d 6447 f23d a63b 343d
000001e0: c712 80be 9d71 9dbd b344 353d 5de7 fabc
000001f0: 2cae 0a3e 5423 133e fea8 803c c7df 5fbe
00000200: 02ce 303d acac e53d 8907 173e cf38 be3c
00000210: 0b59 1b3d c012 343e 7cf8 e6bd 3cf2 fe3c
00000220: c147 273e 7b89 1abd 02e5 b7bd 1282 163e
00000230: 9e62 b13d e969 003e fb7b 83bd 5038 913e
00000240: e81f 1cbd 0b7b 423e 6064 0f3d 9cd9 043e
00000250: 0c1b a8bd 7b03 c63d daf9 d23c 88ce 2c3d
00000260: a092 40bc f5e0 c5bd 2b8c 033e be30 6e3d
00000270: 0e48 d33d 48f8 093d 6fa3 00bc 1712 98bd
00000280: dc96 c13e 6f4b 6abe 88cc e9bd 5585 a43d
00000290: 3b59 9abd 1c86 c83b db50 923d dc5c dbbd
000002a0: 506f 56bc fa1f f43d 0462 993d 099f 3d3e
000002b0: 0847 2abc 536c 723d be22 ca3e 4bc9 d7bd
000002c0: 66c2 a3bb 1a2e 1fbe 3875 01be e9c7 05bd
000002d0: 4344 b2bd 696a 883c 9088 703d f144 193c
000002e0: 6586 20bc 1a47 80bd 9318 be3d 79a5 b1bc
000002f0: 9770 babd 789a e5bd 63eb 9a3d 4f4f b0bd
00000300: 6ec3 1c3c 6ce2 133e a2ab 9c3d ce33 5e3d
00000310: b0b9 58bd 7b38 8a3e 6117 903d b033 543d
00000320: d829 abbd 7507 ea3c 0b1d c13d f126 803d
00000330: b12d a0bd e9b8 73bd b69d 413e 35bd 7dbe
00000340: 5eb7 f6bd f65b 92bd aeb8 e2bc be8b b9bd
00000350: 1490 c0bc cc27 dbbc be3b 8c3c 2a20 1bbd
00000360: 10d8 8fbd adb6 953d 4d2a 823d efc3 8c3d
00000370: 01c8 b1bd 4062 44bb fba5 02bd 5051 fc3d
00000380: 66d9 25be 39c9 16be a6f6 8d3d 4f2f 0b3b
00000390: 6ad0 ad3d ec0c 0a3d c2fe 973d 832d d23d
000003a0: d4f6 273d 1076 0d3d 858d 2abd 4b6a 68bc
000003b0: 60fd b1be 07b0 3f3e fa7c eebc 6885 873d
000003c0: 7b37 233e 9d43 15bc 07a8 1c3e 3fb0 253d
000003d0: d4b1 023e eb19 2d3e 881f 223e df8a ce3d
000003e0: 8cbb b3be 94b9 60bd 3305 0a3e ad13 8a3c
000003f0: a23a 87bd 0203 863e 2b67 123e 96a5 05be

fc2.bias f4 [20]
0.059603117 0.0065664374 -0.081760824 -0.008900014 -0.059135977 -0.062053937 -0.12546399 0.002021913
-0.03669673 0.04687036 0.008534636 0.012666957 -0.02295707 -0.014067159 -0.0005513404 8.772322e-05
0.050318312 -0.07343295 -0.06968793 -0.06518837
00000000: 6622 743d 452b d73b 3872 a7bd 5dd1 11bc
00000010: 9138 72bd 452c 7ebd a279 00be 1282 043b
00000020: 4f4f 16bd 22fb 3f3d dcd4 0b3c 1289 4f3c
00000030: 7710 bcbc f179 66bc d487 10ba 0cf8 b738
00000040: 931a 4e3d 0464 96bd 8cb8 8ebd 7b81 85bd

exp_avg f4 [64, 2]
2.424954e-05 -8.505369e-06 3.4558518e-05 -3.9627434e-07 7.572017e-05 -2.585593e-06 -5.5571627e-06 -2.0307012e-05
2.436071e-05 8.037778e-06 -3.474667e-05 -1.6233253e-05 -6.972816e-05 1.1955856e-05 5.1306215e-06 -1.7720111e-05
1.8583469e-05 -7.0475235e-06 -2.3323835e-05 -2.1352434e-06 8.667739e-06 2.5513502e-06 -2.1793196e-05 -5.38997e-06
3.8192953e-05 3.877362e-06 -6.8077534e-05 5.1109396e-06 2.2889423e-12 4.0914504e-14 9.787755e-07 -5.7472694e-06
-1.8313898e-05 -2.383892e-06 -8.028685e-06 -1.3801507e-06 -1.0490495e-06 2.5497572e-08 3.0930136e-05 -1.4950697e-06
-9.607069e-06 4.64865e-06 3.1430889e-06 6.908667e-06 -1.7023342e-05 -3.4922205e-06 -1.01111245e-05 4.341623e-06
-3.076668e-05 4.3761806e-06 -7.0556634e-05 7.360982e-06 -1.2610025e-06 1.5142914e-06 -2.5274074e-05 5.670358e-06
4.225083e-06 -1.2535811e-05 -1.5096447e-05 3.1130908e-06 3.233637e-05 1.7553945e-06 4.240327e-05 7.682031e-06
3.3372227e-05 9.251803e-06 -4.498224e-06 3.535375e-06 -1.3115055e-05 7.194151e-06 0.00014591763 -4.4536714e-06
3.61544e-05 4.8079446e-06 2.7728664e-05 -1.5039598e-05 -2.3558443e-05 -2.4194405e-05 3.6662535e-12 3.47397e-14
-6.42831e-05 7.747052e-06 -2.2382788e-05 3.0241276e-06 -8.153958e-06 2.4615313e-06 1.5639341e-07 2.25553e-15
3.4909476e-06 9.251568e-07 -3.1995543e-05 -1.3816464e-06 4.791356e-06 9.316457e-06 5.323279e-05 -2.9384e-07
-3.096625e-05 -4.623531e-06 1.237654e-05 -5.1374263e-07 -1.9316149e-05 2.4428525e-06 -1.3952523e-05 3.7728996e-06
-3.3002605e-05 -1.0506692e-06 -5.2842697e-05 5.5513588e-06 3.4473353e-05 1.4040457e-06 2.0195816e-05 -3.1322802e-06
2.9354425e-05 2.670847e-06 4.7834452e-05 9.801693e-06 -1.6094514e-06 7.061074e-06 -9.609823e-05 2.3174453e-06
-1.42392655e-05 1.8386655e-07 1.7069018e-05 8.962912e-06 1.3522705e-05 -1.740862e-06 -4.8051577e-05 7.3682877e-06
00000000: 7e6b cb37 48b2 0eb7 edf2 1038 88bf d4b4
00000010: f5cb 9e38 2684 2db6 aa77 bab6 fa58 aab7
00000020: 3a5a cc37 fed9 0637 f4bc 11b8 a52c 88b7
00000030: 053b 92b8 0396 4837 b427 ac36 a6a5 94b7
00000040: b2e3 9b37 c479 ecb6 8ea7 c3b7 344b 0fb6
00000050: a86b 1137 dd37 2b36 88d0 b6b7 7ddb b4b6
00000060: 5f31 2038 491a 8236 d9c4 8eb8 a37e ab36
00000070: eb11 212c 3643 3829 785e 8335 abd8 c0b6
00000080: cca0 99b7 f4fa 1fb6 f1b2 06b7 9e3d b9b5
00000090: 11cd 8cb5 c105 db32 fbba 0138 34aa c8b5
000000a0: 0c2e 21b7 99fb 9b36 dbed 5236 ffd0 e736
000000b0: 59cd 8eb7 e45b 6ab6 f3a2 29b7 42ae 9136
000000c0: 790b 01b8 1bd7 9236 cef7 93b8 5bfe f636
000000d0: b73f a9b5 a83e cb35 a903 d4b7 0144 be36
000000e0: 30c5 8d36 e650 52b7 bf46 7db7 7eea 5036
000000f0: eaa0 0738 e59a eb35 2ada 3138 12e2 0037
00000100: 28f9 0b38 3138 1b37 73ef 96b6 4841 6d36
00000110: bb08 5cb7 4965 f136 7701 1939 bf70 95b6
00000120: 7ea4 1738 ee53 a136 da9a e837 9552 7cb7
00000130: 5f9f c5b7 17f5 cab7 adfe 802c 2674 1c29
00000140: bacf 86b8 56f9 0137 acc2 bbb7 1ef2 4a36
00000150: fccc 08b7 c930 2536 18ed 2734 2f87 2227
00000160: 0646 6a36 4b58 7835 f432 06b8 0271 b9b5
00000170: 6fc5 a036 e14d 1c37 4646 5f38 10c1 9db4
00000180: c2e1 01b8 d423 9bb6 d6a4 4f37 20e8 09b5
00000190: 1d09 a2b7 e3ef 2336 a115 6ab7 ec31 7d36
000001a0: 476c 0ab8 b804 8db5 6aa3 5db8 cf45 ba36
000001b0: 7b97 1038 a572 bc35 2f6a a937 2a34 52b6
000001c0: 263e f637 cd3c 3336 daa1 4838 f371 2437
000001d0: 5404 d8b5 2aee ec36 5888 c9b8 6885 1b36
000001e0: 2ee5 6eb7 da6c 4534 702f 8f37 6a5f 1637
000001f0: 93df 6237 90a7 e9b5 fd8a 49b8 1c3d f736

exp_avg_sq f4 [64, 2]
5.492587e-07 1.2005507e-09 3.7035556e-07 4.2238757e-10 1.0353383e-07 2.6699778e-10 2.1846655e-07 3.1694496e-09
3.67941e-07 6.6408085e-10 2.3841146e-07 2.7081104e-09 1.4230065e-07 1.0669542e-09 3.7494377e-07 1.4608081e-09
9.8497374e-08 1.1053958e-09 3.984355e-07 6.2257977e-10 7.5562994e-08 1.4161254e-10 2.1486427e-07 6.7060263e-10
2.3156902e-07 4.8190674e-10 1.1477162e-07 3.124643e-10 2.847664e-07 1.1386319e-10 1.6231523e-07 9.098096e-10
1.4524153e-07 2.9891256e-10 8.5197605e-08 2.5329322e-10 1.0372185e-07 1.3210581e-10 9.3260795e-08 2.0123114e-10
3.9017365e-07 1.0122123e-09 8.407675e-08 4.90123e-10 6.7115684e-07 7.853832e-10 2.6490386e-07 3.299692e-10
3.0823543e-07 5.6414184e-10 1.7886764e-07 7.2851386e-10 2.0385961e-07 3.574276e-10 1.9226428e-07 3.449746e-10
1.6231589e-07 2.5263602e-09 3.3623917e-07 7.8494705e-10 2.5193765e-07 4.5342793e-10 6.2788615e-07 1.2725522e-09
4.2677198e-07 6.824886e-10 4.4650994e-07 1.0855495e-09 3.3880812e-07 1.2339261e-09 3.2794398e-07 5.896641e-10
2.8348575e-07 1.1115562e-09 9.2110426e-08 1.2002265e-09 3.0619873e-07 5.95147e-09 3.448796e-07 1.4009063e-10
3.1455775e-07 1.0403989e-09 2.6107062e-07 2.7447009e-10 2.4721075e-07 3.4507763e-10 5.163275e-08 8.749047e-14
3.261566e-08 4.8923754e-11 5.0843636e-07 1.6773022e-09 4.84854e-07 9.273404e-10 1.9267496e-07 4.1663542e-10
1.1766595e-07 2.872025e-10 5.4632345e-08 6.659424e-11 2.11141e-07 3.1167946e-10 3.5848726e-07 5.698261e-10
7.328238e-07 1.7710462e-09 7.6360215e-07 1.2738854e-09 8.838901e-08 2.0066092e-10 1.4640652e-07 1.0475526e-09
1.1218012e-07 2.6326233e-10 4.196558e-07 6.8820777e-10 1.4513392e-07 3.2790556e-10 1.8819497e-07 3.8845602e-10
1.8324268e-07 3.883449e-10 4.929427e-07 1.098938e-09 9.109957e-08 2.3744062e-10 3.660863e-07 1.0693968e-09
00000000: c570 1335 9f00 a530 48d5 c634 c435 e82f
00000010: 5356 de33 99c8 922f a193 6a34 8ccd 5931
00000020: 6d89 c534 898a 3630 0bfe 7f34 9519 3a31
00000030: 4ecb 1834 1da4 9230 e14b c934 9ec5 c830
00000040: 8185 d333 a8ec 9730 8fe8 d534 2822 2b30
00000050: 3245 a233 63b4 1b2f 71b5 6634 7755 3830
00000060: 35a5 7834 2c77 0430 5e78 f633 71c7 ab2f
00000070: ffe1 9834 4763 fa2e df48 2e34 2916 7a30
00000080: b0f3 1b34 3454 a42f e1f5 b633 da3f 8b2f
00000090: b1bd de33 7b40 112f aa46 c833 8841 5d2f
000000a0: 0f79 d134 0e1e 8b30 af8d b433 57b9 0630
000000b0: 8c29 3435 6ee2 5730 1c38 8e34 0967 b52f
000000c0: 8e7b a534 f411 1b30 c30e 4034 9b40 4830
000000d0: 81e4 5a34 767f c42f 3471 4e34 dca6 bd2f
000000e0: 0d49 2e34 339c 2d31 5c84 b434 bdc3 5730
000000f0: 0c42 8734 4f46 f92f 028c 2835 f3e5 ae30
00000100: 181f e534 de99 3b30 dcb7 ef34 6132 9530
00000110: 6fe5 b534 ea96 a930 4710 b034 ec15 2230
00000120: fc31 9834 68c5 9830 3ece c533 37f5 a430
00000130: a263 a434 af7d cc31 e427 b934 0208 1a2f
00000140: 7de0 a834 c8fd 8e30 4629 8c34 3be4 962f
00000150: 63b8 8434 5cb5 bd2f cfc2 5d33 d202 c529
00000160: 4c15 0c33 402b 572e 7b7b 0835 d386 e630
00000170: ea26 0235 c8e7 7e30 17e2 4e34 390c e52f
00000180: 8aaf fc33 29e4 9d2f e6a4 6a33 3971 922e
00000190: ffb5 6234 fc58 ab2f 1d76 c034 f2a1 1c30
000001a0: 45b7 4435 2669 f330 57fa 4c35 dc14 af30
000001b0: 5fd0 bd33 07a1 5c2f eb33 1d34 7bf9 8f30
000001c0: ace7 f033 e1ba 902f 0e4d e134 512c 3d30
000001d0: 1cd6 1b34 9b44 b42f a412 4a34 538e d52f
000001e0: 5dc1 4434 b07e d52f c452 0435 7209 9730
000001f0: 85a2 c333 cc88 822f 858a c434 0efa 9230

exp_avg f4 [64]
-1.7200848e-05 -4.704557e-06 -4.570508e-06 -2.094398e-05 -1.5503307e-06 -8.216722e-06 1.3615803e-05 -1.6017073e-05
-2.4403648e-06 -3.284238e-07 -3.6877705e-06 -1.3175585e-05 -5.6984077e-06 6.7138926e-06 1.1981964e-13 -4.0990553e-06
-5.4036814e-06 1.0216357e-06 2.5679862e-08 -1.6248677e-06 3.2930916e-06 -5.5122923e-06 -7.953983e-07 1.3536276e-06
5.203052e-06 1.1226651e-05 3.1833724e-06 -3.7901448e-06 -1.2527314e-05 7.005879e-06 -1.4645634e-05 5.0865806e-06
9.4412377e-07 8.012047e-06 8.252963e-06 -1.097059e-05 -9.16171e-07 -2.2375129e-05 -3.259022e-05 1.759159e-13
1.2559081e-05 -4.482042e-06 2.2212918e-09 1.9723272e-08 -1.5656404e-06 1.07122905e-05 7.2453945e-06 4.8193237e-05
-4.3588643e-06 -1.923954e-06 4.389859e-06 -8.7323707e-07 8.872674e-06 1.1267648e-05 -3.4791735e-06 3.225917e-05
1.6463442e-06 4.835923e-06 4.5684765e-06 1.18949865e-05 1.3620414e-07 -1.669389e-06 -2.6011134e-07 1.3382342e-05
00000000: 8a4a 90b7 d6db 9db6 5d5c 99b6 dbb0 afb7
00000010: f514 d0b5 8dda 09b7 6e6f 6437 675c 86b7
00000020: 26c5 23b6 3952 b0b4 6a7b 77b6 b50c 5db7
00000030: f334 bfb6 e647 e136 a9e7 062a 9e8a 89b6
00000040: 4551 b5b6 231f 8935 9d96 dc32 0716 dab5
00000050: e2fe 5c36 3bf6 b8b6 5b83 55b5 4aae b535
00000060: e095 ae36 195a 3c37 eca1 5536 315a 7eb6
00000070: 672c 52b7 0b14 eb36 85b6 75b7 65ad aa36
00000080: b16f 7d35 7b6b 0637 3576 0a37 530e 38b7
00000090: cbee 75b5 39b2 bbb7 7bb1 08b8 4e10 462a
000000a0: d8b4 5237 7364 96b6 61a5 1831 ef6b a932
000000b0: ff22 d2b5 f0b8 3337 771d f336 1823 4a38
000000c0: 5c42 92b6 471d 01b6 9a4c 9336 6568 6ab5
000000d0: d8db 1437 2e0a 3d37 bf7b 69b6 054e 0738
000000e0: f5f7 dc35 4344 a236 ea4a 9936 9490 4737
000000f0: 823f 1234 c50f e0b5 6ea5 8bb4 b984 6037

exp_avg_sq f4 [64]
3.7652166e-09 2.341795e-09 5.78438e-10 4.67345e-09 3.3401177e-09 6.6458963e-09 1.933786e-09 3.2802023e-09
2.0407078e-09 2.0915707e-09 3.945828e-10 2.2182212e-09 1.3522545e-09 8.120362e-10 1.0843836e-09 1.7820639e-09
1.2195349e-09 5.519946e-10 3.9425507e-10 5.1388616e-10 2.5739995e-09 1.3106988e-09 3.9933066e-09 1.33284e-09
1.6866747e-09 1.452185e-09 1.2311505e-09 1.1240385e-09 2.9281713e-09 2.6866718e-09 1.6185588e-09 5.3138685e-09
3.3954561e-09 3.1684493e-09 2.5760174e-09 3.2766017e-09 3.767018e-09 1.4702571e-09 9.733391e-09 1.3948805e-09
2.2557867e-09 1.2147333e-09 1.3723793e-09 9.815714e-11 2.438651e-10 5.5546514e-09 2.737881e-09 1.2234725e-08
1.4649317e-09 3.3285374e-10 1.2417793e-09 1.9995943e-09 7.844823e-09 4.162122e-09 9.3048946e-10 7.9039255e-09
8.127792e-10 3.3986434e-09 8.2513224e-10 1.0372135e-09 2.665547e-09 3.804633e-09 5.4725313e-10 2.4455018e-09
00000000: 325f 8131 4bed 2031 f5ff 1e30 1a94 a031
00000010: f987 6531 ec59 e431 86e3 0431 ee69 6131
00000020: 833c 0c31 4dbb 0f31 98ec d82f 5c6f 1831
00000030: 3ada b930 f835 5f30 5b09 9530 cdec f430
00000040: 929c a730 2bbb 1730 78be d82f 8641 0d30
00000050: 47e2 3031 1d24 b430 7f35 8931 232f b730
00000060: 97d0 e730 3896 c730 4235 a930 977c 9a30
00000070: ef38 4931 6ea0 3831 fa73 de30 4895 b631
00000080: 7f55 6931 f3bb 5931 c705 3131 962a 6131
00000090: 0a6f 8131 1312 ca30 e837 2732 ffb5 bf30
000000a0: 3804 1b31 a1f3 a630 4e9e bc30 8fd9 d72e
000000b0: f610 862f 3bdb be31 5025 3c31 e430 5232
000000c0: b456 c930 00fd b62f 3aab aa30 3c69 0931
000000d0: e5c5 0632 6a02 8f31 60c5 7f30 d5c9 0732
000000e0: 406a 5f30 918d 6931 85cf 6230 b58d 8e30
000000f0: cc2c 3731 e8b9 8231 846d 1630 b90d 2831

exp_avg f4 [32, 64]
5.576149e-16 3.7573157e-17 0.0 -5.29368e-15 1.1466367e-16 1.9716484e-16 1.1816577e-12 2.6999565e-15
1.73543e-13 1.5085709e-12 1.7011375e-12 3.4341366e-17 7.646608e-13 1.5276907e-12 0.0 9.802295e-16
2.7196643e-17 7.6010536e-13 1.4429477e-13 5.037981e-13 1.0823471e-12 0.0 -8.428419e-16 3.927456e-18
1.7040578e-12 6.110754e-13 9.690957e-13 -6.3586004e-19 -1.0357299e-15 9.96675e-13 1.3106123e-12 0.0
0.0 1.7251264e-12 4.2328782e-13 2.6373853e-16 -1.3928085e-18 -6.438363e-16 -2.1462133e-14 0.0
1.3852284e-12 0.0 0.0 0.0 6.5161186e-17 2.1270369e-13 0.0 3.1573973e-13
-6.347371e-16 -2.9459668e-19 1.5270597e-16 1.3547109e-12 5.0803784e-13 1.3445207e-12 1.7962522e-12 2.3864133e-13
1.1910012e-12 0.0 1.16226e-16 1.7877838e-12 1.11072135e-13 0.0 6.628872e-13 1.5555206e-12
4.7807052e-06 1.6543221e-06 -7.674778e-06 1.1918742e-05 3.2571288e-09 2.210486e-05 -2.4192552e-05 1.0319069e-05
4.085027e-06 4.7980493e-06 -3.7264363e-05 1.382581e-06 -2.613602e-05 -1.3555334e-06 2.9935475e-13 6.3069156e-06
1.737579e-11 4.856628e-06 -5.041318e-14 -1.7580189e-05 -8.678831e-06 2.7049552e-12 8.966396e-07 2.0699798e-12
-3.6331967e-05 -1.8214077e-05 -5.814617e-06 2.2696534e-12 2.6902057e-06 -6.101698e-06 -4.6134268e-05 3.4237094e-12
2.2208355e-12 -8.254428e-06 8.705214e-06 -2.2326127e-05 3.709215e-12 6.17106e-06 1.9600157e-05 2.8103857e-13
-9.926818e-06 2.158582e-12 2.7358706e-13 4.6808917e-15 2.7539599e-08 8.610404e-06 1.3130039e-12 6.2234526e-06
9.5240944e-07 -2.3000263e-08 3.864811e-12 -4.367608e-05 1.6995116e-05 -2.9179604e-05 -1.7052788e-06 8.438891e-06
-1.8585042e-05 8.714649e-13 7.0580624e-13 7.0152064e-06 5.8350147e-06 3.0361232e-12 -2.165576e-05 -2.2949393e-05
3.5716283e-15 1.465879e-15 0.0 3.3731037e-15 0.0 2.6703152e-15 1.9410867e-15 2.5236042e-15
1.1944132e-15 5.308463e-15 8.293706e-18 1.9875673e-15 0.0 4.901241e-15 0.0 2.911607e-15
6.881046e-17 9.495654e-16 0.0 0.0 3.5576764e-15 3.742187e-17 7.54172e-16 1.2237348e-16
2.2384512e-15 1.1677812e-15 8.663406e-16 0.0 0.0 4.1287838e-15 1.0764769e-18 3.960785e-18
0.0 6.1604465e-15 4.779448e-16 0.0 7.2597004e-17 1.7867899e-16 4.2551285e-15 0.0
1.2850757e-15 2.970884e-17 0.0 0.0 1.6138549e-16 2.7429548e-15 0.0 4.1061942e-15
1.0431418e-15 7.511666e-17 1.4714466e-17 2.0921473e-16 5.0529628e-15 1.0681043e-15 5.4091727e-15 2.7856646e-15
2.4289714e-15 0.0 0.0 6.1580854e-15 2.5697931e-15 6.054291e-18 0.0 8.169264e-16
3.5584873e-13 4.549877e-13 7.0733854e-15 2.9410713e-13 9.0403725e-14 1.0766607e-13 1.4267382e-12 1.2710911e-13
4.629756e-13 1.9090849e-12 2.155332e-12 3.137166e-13 1.0181605e-12 1.907036e-12 2.3458132e-14 1.9891914e-13
5.8815816e-13 1.1727984e-12 5.902773e-14 5.6806323e-13 1.2423254e-12 4.010404e-13 4.671543e-13 2.983092e-13
2.1123867e-12 1.0164004e-12 1.1539443e-12 3.342413e-13 3.6215307e-14 1.1823779e-12 1.7243722e-12 5.093397e-13
3.299919e-13 2.3745827e-12 7.4890343e-13 3.4259965e-14 5.6686806e-13 2.6790077e-13 2.903428e-13 2.4398964e-14
1.7002296e-12 3.148576e-13 5.146152e-14 6.3784334e-15 4.3088658e-13 4.054356e-13 1.8667007e-13 2.0517557e-13
3.8785473e-13 4.998751e-13 6.203332e-13 1.7941488e-12 7.4737975e-13 1.6876588e-12 2.2549451e-12 1.1971656e-13
1.3978169e-12 1.4721605e-13 1.4250519e-13 2.2745506e-12 2.9039217e-13 4.5400416e-13 7.81463e-13 2.0027554e-12
00000000: b8b8 2026 8e46 2d24 0000 0000 95b9 bea7
00000010: be32 0425 ca50 6325 b54d a62b 688d 4227
00000020: 5d64 432a ff4f d42b f069 ef2b 215f 1e24
00000030: 9e3b 572b dc00 d72b 0000 0000 1644 8d26
00000040: 42d8 fa23 5df3 552b 2376 222a 7bce 0d2b
00000050: aa53 982b 0000 0000 c1ee 72a6 c6e5 9022
00000060: 27d3 ef2b a000 2c2b 5a63 882b 3aac 3ba1
00000070: b043 95a6 0045 8c2b c973 b82b 0000 0000
00000080: 0000 0000 3bca f22b 344a ee2a f008 9825
00000090: d18a cda1 bc92 39a6 4f50 c1a8 0000 0000
000000a0: 1df4 c22b 0000 0000 0000 0000 0000 0000
000000b0: 6040 9624 aa7b 6f2a 0000 0000 e4be b12a
000000c0: 55f3 36a6 31e6 ada0 d90e 3025 9ba8 be2b
000000d0: fcff 0e2b 7739 bd2b cecc fc2b d757 862a
000000e0: 579e a72b 0000 0000 dcff 0525 b39b fb2b
000000f0: ba1c fa29 0000 0000 0f96 3a2b 89eb da2b
00000100: f269 a036 130a de35 ecc2 00b7 9bf6 4737
00000110: 04d4 5f31 d36d b937 1cf1 cab7 1020 2d37
00000120: 1d12 8936 eefe a036 4e4c 1cb8 1f91 b935
00000130: ad3e dbb7 c6ef b5b5 9185 a82a fe9f d336
00000140: cdd6 982d 1ef6 a236 700a 63a9 2b79 93b7
00000150: 4c9b 11b7 2458 3e2c 9bb0 7035 71a9 112c
00000160: 2763 18b8 6fca 98b7 2e1b c3b6 71b6 1f2c
00000170: 6289 3436 30bd ccb6 4b80 41b8 11ec 702c
00000180: 0447 1c2c 807c 0ab7 9c0c 1237 fe48 bbb7
00000190: a381 822c 0011 cf36 046b a437 ed35 9e2a
000001a0: 5c8b 26b7 8ee5 172c 0d04 9a2a 9ba5 a827
000001b0: 3890 ec32 6775 1037 f3c9 b82b 0dd3 d036
000001c0: 14a9 7f35 1d92 c5b2 1ffb 872c d530 37b8
000001d0: bc90 8e37 b9c6 f4b7 efe0 e4b5 c394 0d37
000001e0: 13e7 9bb7 aa4b 752b b3aa 462b 2a64 eb36
000001f0: 65ca c336 efa5 552c 64a9 b5b7 7283 c0b7
00000200: 75ae 8027 6441 d326 0000 0000 c80e 7327
00000210: 0000 0000 9f6a 4027 bbde 0b27 48d8 3527
00000220: 1222 ac26 ee41 bf27 ebfd 1823 2538 0f27
00000230: 0000 0000 f895 b027 0000 0000 abcd 5127
00000240: 87aa 9e24 c8d8 8826 0000 0000 0000 0000
00000250: c62d 8027 f293 2c24 1260 5926 4716 0d25
00000260: 234c 2127 864b a826 a7b4 7926 0000 0000
00000270: 0000 0000 4fc1 9427 26dc 9e21 8f20 9222
00000280: 0000 0000 17f4 dd27 1ac2 0926 0000 0000
00000290: b565 a724 bb00 4e25 a24e 9927 0000 0000
000002a0: ed32 b926 0202 0924 0000 0000 0000 0000
000002b0: 9710 3a25 96a6 4527 0000 0000 f5f0 9327
000002c0: 2455 9626 0d35 ad24 8db7 8723 4a35 7125
000002d0: 5b0d b627 18ee 9926 d0e2 c227 71ba 4827
000002e0: 9d06 2f27 0000 0000 0000 0000 50de dd27
000002f0: 512c 3927 295d df22 0000 0000 8776 6b26
00000300: 3553 c82a 5211 002b 77d8 fe27 4e91 a52a
00000310: 3392 cb29 4471 f229 a9cb c82b b51c 0f2a
00000320: e850 022b 0457 062c 02ab 172c 549b b02a
00000330: 194b 8f2b 1b32 062c c54a d328 8af6 5f2a
00000340: 438d 252b 840e a52b 2beb 8429 45e5 1f2b
00000350: 7dd7 ae2b 03c4 e12a 047e 032b e3ee a72a
00000360: 60a5 142c af0b 8f2b 3a67 a22b 3f29 bc2a
00000370: 6819 2329 a767 a62b 0eaf f22b cb5d 0f2b
00000380: d8c4 b92a ae18 272c 2ecc 522b 0d4b 1a29
00000390: 268f 1f2b 92d0 962a cf72 a32a 2ec4 db28
000003a0: 3a49 ef2b c33f b12a 18c3 6729 aace e527
000003b0: 4d91 f22a 6e3d e42a fc2b 522a d501 672a
000003c0: c257 da2a ccb3 0c2b b89b 2e2b 0681 fc2b
000003d0: 635e 522b 5184 ed2b 7bad 1e2c f3c9 062a
000003e0: a9b9 c42b 23c0 252a 5372 202a a90e 202c
000003f0: ec79 a32a e594 ff2a 58f6 5b2b 6fee 0c2c

exp_avg_sq f4 [32, 64]
9.0158966e-14 1.8165584e-14 0.0 1.5403937e-11 8.467845e-15 6.870223e-11 3.689239e-07 2.2705057e-13
1.0078182e-08 6.108613e-07 7.9546743e-07 4.2911405e-13 1.5859612e-07 6.2720926e-07 0.0 2.2736141e-13
1.732499e-15 1.6932427e-07 4.8125406e-09 6.645297e-08 3.0955334e-07 0.0 6.5182443e-12 5.3448234e-18
7.789607e-07 1.0543319e-07 2.5334467e-07 5.391855e-20 6.061093e-13 2.602982e-07 4.615058e-07 0.0
0.0 8.262688e-07 5.563388e-08 4.9433287e-15 2.5870123e-19 3.5374282e-12 5.3826086e-11 0.0
5.2144765e-07 0.0 0.0 0.0 6.537169e-13 1.37875515e-08 0.0 2.2481544e-08
3.834243e-12 1.1573669e-20 4.713257e-13 4.904547e-07 7.3172295e-08 4.853301e-07 8.75506e-07 1.31979165e-08
3.7771903e-07 0.0 2.0309109e-14 8.61168e-07 3.8547734e-09 0.0 1.1665217e-07 6.590276e-07
8.8011274e-07 1.4116384e-06 9.5208605e-09 3.9556116e-07 2.530068e-08 4.4791925e-08 5.6349313e-07 7.601876e-08
1.1059177e-07 1.2782297e-06 1.3450139e-06 6.1594267e-07 2.936409e-07 1.1876753e-06 1.2496537e-08 3.1557266e-07
1.9024045e-06 4.270555e-07 4.239466e-09 7.451643e-08 4.6910958e-07 1.0920816e-06 1.3022141e-06 6.322483e-07
1.2706404e-06 2.7609738e-07 4.3201015e-07 7.758728e-07 1.11599965e-08 4.6656584e-07 8.023312e-07 1.7414711e-06
7.326424e-07 1.8022196e-06 2.0016964e-07 1.1172652e-08 2.0503976e-06 2.804508e-07 2.9572382e-07 1.0950184e-08
8.8962355e-07 6.919958e-07 1.0840347e-08 2.9219468e-12 9.629892e-07 6.375086e-08 2.55268e-07 2.1850884e-08
9.603933e-07 1.5033094e-06 2.291687e-06 8.588303e-07 1.805442e-07 8.5325246e-07 1.6270769e-06 1.1537189e-08
5.6535134e-07 1.1327467e-07 7.712577e-08 1.7285602e-06 1.6501184e-08 1.3857979e-06 1.5558108e-07 1.2353697e-06
1.7011692e-12 2.8655718e-13 0.0 1.5173113e-12 0.0 9.509118e-13 5.0246417e-13 8.492936e-13
1.9024955e-13 3.757966e-12 9.1730144e-18 5.2681546e-13 0.0 3.2035214e-12 0.0 1.1305267e-12
6.3142833e-16 1.2024428e-13 0.0 0.0 1.6879055e-12 1.8675253e-16 7.5849964e-14 1.9970532e-15
6.682058e-13 1.8186059e-13 1.000904e-13 0.0 0.0 2.2733124e-12 1.5453405e-19 2.0920783e-18
0.0 5.06103e-12 3.0462845e-14 0.0 7.028336e-16 4.257569e-15 2.4145757e-12 0.0
2.2022804e-13 1.1770272e-16 0.0 0.0 3.473313e-15 1.0033506e-12 0.0 2.2485052e-12
1.4511162e-13 7.524669e-16 2.887381e-17 5.8371344e-15 3.40492e-12 1.5213976e-13 3.9019057e-12 1.0348389e-12
7.867923e-13 0.0 0.0 5.0571626e-12 8.8066685e-13 4.8881175e-18 0.0 8.899812e-14
8.8036005e-09 1.4681416e-08 5.1356597e-13 3.48437e-09 5.447926e-10 7.1130085e-10 9.165788e-08 1.0698871e-09
5.3429585e-09 1.6111004e-07 2.0431074e-07 6.6736683e-09 4.0363403e-08 1.645233e-07 3.911657e-11 2.6799736e-09
2.4388234e-08 5.514084e-08 6.5043554e-10 1.38055345e-08 7.585004e-08 1.1428674e-08 1.3396238e-08 6.3226646e-09
1.9793319e-07 3.466275e-08 6.302901e-08 7.935214e-09 4.868537e-11 6.463125e-08 1.16068954e-07 1.842579e-08
7.734205e-09 2.3709917e-07 2.0702126e-08 1.0944337e-11 2.2827827e-08 3.8611434e-09 2.3295408e-09 4.2317157e-11
1.3372382e-07 7.0415846e-09 1.8825191e-10 2.8920226e-12 1.2544648e-08 5.6383866e-09 2.4755524e-09 3.6893975e-09
9.391612e-09 1.7695331e-08 2.6698276e-08 1.2514411e-07 2.3773344e-08 1.2328228e-07 2.3311527e-07 2.220224e-09
9.320006e-08 1.5403465e-09 1.3715032e-09 2.2976752e-07 2.2912474e-09 1.46417785e-08 2.6589042e-08 1.7291079e-07
00000000: 1b05 cb29 fc9e a328 0000 0000 957e 872d
00000010: 0b8b 1828 eb13 972e 8410 c634 dfa2 7f2a
00000020: 5024 2d32 12fa 2335 1b88 5535 da91 f12a
00000030: 924a 2a34 7e5d 2835 0000 0000 77fc 7f2a
00000040: eead f926 80cf 3534 8e5b a531 e8b4 8e33
00000050: b030 a634 0000 0000 2057 e52c 6e30 c522
00000060: c619 5135 826a e233 6d03 8834 879f 7e1f
00000070: c79a 2a2b 1dbf 8b34 e0c4 f734 0000 0000
00000080: 0000 0000 c2cc 5d35 19f2 6e33 291a b227
00000090: d3b5 9820 a4ec 782c c9ba 6c2e 0000 0000
000000a0: 9cf9 0b35 0000 0000 0000 0000 0000 0000
000000b0: 4401 382b 4bde 6c32 0000 0000 701d c132
000000c0: cae7 862c d49e 5a1e 99aa 042b caa7 0335
000000d0: e522 9d33 a147 0235 5004 6b35 0dbd 6232
000000e0: 4fc9 ca34 0000 0000 9eed b628 042b 6735
000000f0: f272 8431 0000 0000 3582 fa33 08e8 3035
00000100: e340 6c35 8777 bd35 3091 2332 835d d434
00000110: c954 d932 3e61 4033 f442 1735 c13f a333
00000120: 787e ed33 a38f ab35 5386 b435 4257 2535
00000130: b3a5 9d34 3668 9f35 5ab0 5632 fa6b a934
00000140: 1f56 ff35 1046 e534 bdaa 9131 d705 a033
00000150: eed9 fb34 a393 9235 bcc7 ae35 c6b7 2935
00000160: df8a aa35 893a 9434 06ef e734 9345 5035
00000170: 2fba 3f32 527c fa34 c85f 5735 7ebc e935
00000180: cdaa 4435 cbe3 f135 36ee 5634 d8f1 3f32
00000190: 9099 0936 dd90 9634 f9c3 9e34 6b1f 3c32
000001a0: 77ce 6e35 97c1 3935 5a3c 3a32 1d9d 4d2c
000001b0: 0f40 8135 68e7 8833 c40b 8934 9ab2 bb32
000001c0: dde6 8035 51c5 c935 e2ca 1936 5e8a 6635
000001d0: 9ddb 4134 100b 6535 f061 da35 1835 4632
000001e0: a6c2 1735 6941 f333 57a0 a533 e000 e835
000001f0: 7dbe 8d32 a7ff b935 cd0d 2734 fbce a535
00000200: 146b ef2b 3e51 a12a 0000 0000 e78a d52b
00000210: 0000 0000 35d4 852b 5c6e 0d2b 0e0e 6f2b
00000220: b333 562a c038 842c 5636 2923 0e49 142b
00000230: 0000 0000 836d 612c 0000 0000 841b 9f2b
00000240: 30ff 3526 0e62 072a 0000 0000 0000 0000
00000250: 348d ed2b 9e4f 5725 87cc aa29 21e7 0f27
00000260: 4d15 3c2b bfc1 4c2a 3062 e129 0000 0000
00000270: 0000 0000 5bf8 1f2c 0d71 3620 3e5e 1a22
00000280: 0000 0000 b511 b22c 4531 0929 0000 0000
00000290: f793 4a26 2565 9927 21e9 292c 0000 0000
000002a0: 69f4 772a b6b3 0725 0000 0000 0000 0000
000002b0: 5147 7a27 8435 8d2b 0000 0000 7839 1e2c
000002c0: 9461 232a 42e2 5826 2e28 0524 104e d227
000002d0: 9699 6f2c 4d4b 2b2a 3e49 892c 00a4 912b
000002e0: 5c76 5d2b 0000 0000 0000 0000 dfee b12c
000002f0: bce2 772b f756 b422 0000 0000 ec67 c829
00000300: a53e 1732 8d39 7c32 548e 102b af71 6f31
00000310: 5fc0 1530 5985 4330 74d5 c433 4e0b 9330
00000320: 2995 b731 97fd 2c34 8260 5b34 354e e531
00000330: 085c 2d33 d2a7 3034 5809 2c2e 982a 3831
00000340: 4b7e d132 ffd3 6c33 55ca 3230 622d 6d32
00000350: 00e3 a233 d757 4432 4725 6632 bf3e d931
00000360: 7687 5434 19e0 1433 915a 8733 7153 0832
00000370: db1e 562e 68cb 8a33 9541 f933 be46 9e32
00000380: 65df 0432 5395 7e34 75d4 b132 e988 402d
00000390: ec16 c432 faaa 8431 b715 2031 e21c 3a2e
000003a0: b995 0f34 6ff2 f131 34fc 4e2f 0c82 4b2c
000003b0: f283 5732 c6bb c131 611e 2a31 9188 7d31
000003c0: bf58 2132 7200 9832 2156 e532 5a5f 0634
000003d0: 2336 cc32 935f 0434 3d4e 7a34 9892 1831
000003e0: 4625 c833 20b4 d330 7b7f bc30 04b6 7634
000003f0: 0d74 1d31 398b 7b32 ec65 e432 5ba9 3934

exp_avg f4 [32]
2.0255358e-13 3.2995235e-05 7.414154e-15 2.8978369e-13 1.7351665e-13 -1.4093825e-05 7.1135036e-13 -5.9764465e-05
9.21966e-13 5.455732e-13 1.4574588e-13 7.570784e-05 3.6619815e-07 4.1275425e-13 1.6083425e-11 4.747011e-13
4.1639928e-13 0.0 7.027806e-05 4.18393e-13 -2.5707994e-05 1.7338178e-13 2.0528101e-13 0.0
-5.210248e-06 4.8383384e-13 1.1147776e-14 0.0 3.281945e-13 1.4301382e-13 5.818025e-14 1.8698503e-13
00000000: 180e 642a 5d64 0a38 c08f 0528 3b22 a32a
00000010: c55c 432a 8474 6cb7 323a 482b 9bab 7ab8
00000020: 53c1 812b b190 192b 6418 242a 56c5 9e38
00000030: e499 c434 285c e82a a778 8d2d d29d 052b
00000040: 7669 ea2a 0000 0000 3f62 9338 c988 eb2a
00000050: 7fa7 d7b7 e535 432a 3920 672a 0000 0000
00000060: b1d3 aeb6 e72f 082b 0bd2 4828 0000 0000
00000070: d0c1 b82a ed04 212a a102 8329 c486 522a
