checkpoints/checkpoint_epoch_700.pth (torch, 314812 bytes, 30 tensors)

lstm.weight_ih_l0 f4 [256, 2]
0	0x3c8fa805	0.017536173
1	0xbb3180f6	-0.0027084923
2	0xbb9b0499	-0.0047307727
3	0xba7a64c7	-0.000955176
4	0x3d9da2d5	0.07697073
5	0xb9a6c79b	-0.00031810705
6	0xb0dafc6f	-1.5933334e-09
7	0xaf87c449	-2.4695826e-10
8	0x3a2dfb1f	0.0006636846
9	0x38c9ff60	9.631994e-05
10	0xbcd402fe	-0.025880333
11	0xbc10216a	-0.008797029
12	0xbc33d990	-0.010977164
13	0xbbed4f01	-0.007242084
14	0x2a1da03e	1.3999996e-13
15	0x9f9f2b2a	-6.741053e-20
16	0xb90c8238	-0.0001339995
17	0xb7b76129	-2.1860544e-05
18	0xbd146f00	-0.03623867
19	0xbbfdabff	-0.007741451
20	0x1f8b7fab	5.908e-20
21	0x8a2a70a5	-8.206388e-33
22	0xbad41905	-0.0016181773
23	0xb971889a	-0.00023034439
24	0xbc1a7b43	-0.009428802
25	0xba81f97e	-0.0009916273
26	0xbe93c6c1	-0.28862575
27	0x3de0b41a	0.10971852
28	0xb957c59a	-0.0002057761
29	0xb8044c28	-3.154218e-05
30	0xbc2a4a66	-0.0103937145
31	0xbb527a30	-0.0032116286
32	0xbe34cbed	-0.17655917
33	0xbc740ebd	-0.014896092
34	0xbc15531f	-0.009114056
35	0xbad0f250	-0.0015941355
36	0xbc98f694	-0.018672265
37	0xbb91a197	-0.004444312
38	0x375e0a11	1.3234575e-05
39	0xa302ed57	-7.097573e-18
40	0x30882c65	9.90792e-10
41	0xaa1185b1	-1.292497e-13
42	0xbc864c31	-0.016393753
43	0xbc1ad538	-0.009450249
44	0xbc864876	-0.016391974
45	0xbb993438	-0.0046754144
46	0xbc98ff47	-0.018676413
47	0xbb74c46f	-0.003734853
48	0xbba68b66	-0.0050825356
49	0xb997fb7d	-0.00028988338
50	0xbc851654	-0.016245998
51	0xbc144c3d	-0.00905138
52	0xbb05ecac	-0.0020435257
53	0xb6c1cb56	-5.7755196e-06
54	0xbc553a7e	-0.013014434
55	0xbb12b36e	-0.002238478
56	0xbb79e7aa	-0.0038132467
57	0xbae1eaf4	-0.0017236159
58	0xbcc99ff4	-0.024612404
59	0xbc553c33	-0.013014841
60	0xbcab298f	-0.02089384
61	0xb74d7ee7	-1.2248499e-05
62	0xa912baaf	-3.2580435e-14
63	0xa5632466	-1.9701444e-16
64	0x3e870e81	0.26378253
65	0xbdecdce8	-0.11565572
66	0xbb156fd9	-0.0022802262
67	0xb912652c	-0.00013961334
68	0xa629654e	-5.8770947e-16
69	0xa5ace29b	-2.9990798e-16
70	0xbc8a416e	-0.016876902
71	0xb778d208	-1.4830854e-05
72	0xba0f3e71	-0.00054643216
73	0xb92923de	-0.00016130458
74	0x3bdca78b	0.00673384
75	0x39999914	0.00029296486
76	0xbc71c1cb	-0.0147556765
77	0xbab0e21e	-0.0013495123
78	0x39823560	0.000248353
79	0xb9300f6c	-0.00016790413
80	0xba0301a1	-0.0004997496
81	0xbb2eb648	-0.002665894
82	0xbcb86aff	-0.022511957
83	0xbbfa4dd2	-0.0076386714
84	0xbb987a7a	-0.004653272
85	0xb2926440	-1.7042225e-08
86	0x2fac371a	3.132577e-10
87	0xa9a8d0f5	-7.496947e-14
88	0xb789b9ee	-1.6418253e-05
89	0xb67e96b4	-3.793667e-06
90	0xb946f234	-0.00018972979
91	0xb7ddbe91	-2.6433992e-05
92	0x3ccf146d	0.025278294
93	0x3d1f6666	0.038916014
94	0xbbf914a3	-0.007601337
95	0xbb21e396	-0.0024702302
96	0xa7728c35	-3.3660253e-15
97	0x970ad650	-4.4860705e-25
98	0xbc168ac7	-0.009188361
99	0xbc30bf7d	-0.010787842
100	0x3b706891	0.003668342
101	0xb830dfcb	-4.2170093e-05
102	0xbbf21deb	-0.0073888204
103	0xb906c231	-0.00012851578
104	0xb7f99479	-2.9752251e-05
105	0xb64f511b	-3.0892613e-06
106	0xbc511043	-0.012760225
107	0xbc23f5ef	-0.010007366
108	0xb7b32dc8	-2.1359781e-05
109	0xb5711baf	-8.981978e-07
110	0xbc53662c	-0.012902778
111	0xbbf9d439	-0.007624176
112	0xba011be3	-0.0004925115
113	0xb8e2068a	-0.00010777738
114	0x3a3014da	0.00067169743
115	0x373598ff	1.0824063e-05
116	0xbc0235a4	-0.007947359
117	0xba047e1c	-0.0005054192
118	0x3c9923ba	0.018693794
119	0x3b50615c	0.0031796312
120	0xbd046a1f	-0.032327767
121	0x3dcde073	0.10052576
122	0x3c9f5115	0.019447843
123	0xbc8490be	-0.0161823
124	0xbb5fdc7f	-0.0034158526
125	0xbb64a836	-0.00348903
126	0xbc032e93	-0.00800671
127	0xbafb81ec	-0.00191885
128	0xbc1099d2	-0.008825736
129	0xbbe2add0	-0.0069176927
130	0x39e9ed8b	0.00044618206
131	0xba7f4cf5	-0.00097389455
132	0xbb724954	-0.0036969976
133	0xba843776	-0.001008733
134	0x39e55b09	0.0004374611
135	0xaf3844c3	-1.6759132e-10
136	0x391891d4	0.00014550175
137	0xba23dff9	-0.0006251331
138	0xbdcde7cb	-0.100539766
139	0xbbe70684	-0.0070503373
140	0xbc23001c	-0.009948757
141	0xbb8d5f01	-0.004314304
142	0xa00c71a9	-1.1896068e-19
143	0x9f48ec20	-4.2546965e-20
144	0xb918ed9f	-0.0001458437
145	0xb748895d	-1.1952911e-05
146	0xbd10a63b	-0.03531478
147	0xbc75861f	-0.01498559
148	0x1d8819f3	3.602573e-21
149	0x89cd9a0f	-4.949683e-33
150	0xba909a63	-0.0011032339
151	0xb9bd5dbe	-0.00036118733
152	0xbb800a0d	-0.003907448
153	0xba7fca2f	-0.0009757606
154	0x3ed1bec5	0.40965858
155	0x3e33554b	0.17513005
156	0xb95fc15b	-0.00021338968
157	0xb8061d0a	-3.1975134e-05
158	0xbbe1fc49	-0.00689653
159	0xbc0672d1	-0.008206085
160	0xbd9f80ea	-0.0778826
161	0xbbd6e0d0	-0.0065575615
162	0xbc10279c	-0.008798506
163	0xbb0c7edb	-0.0021437916
164	0xbca4d332	-0.020120237
165	0xbc353502	-0.011060001
166	0x240d6bd9	3.0665852e-17
167	0xa2a4c3c4	-4.4659564e-18
168	0xaacbba3d	-3.6189273e-13
169	0xaa9121e2	-2.5780685e-13
170	0xbc286626	-0.01027826
171	0xbbf551de	-0.007486566
172	0xbc03d21e	-0.008045701
173	0xbd00f5b5	-0.031484324
174	0xbcfa6c8a	-0.030569334
175	0xbbb5809b	-0.0055390126
176	0xbbf29294	-0.0074027274
177	0xb9f62c46	-0.00046953763
178	0xbbf02751	-0.0073289056
179	0xbca73227	-0.020409657
180	0xb9d66113	-0.00040889587
181	0xb6c080c8	-5.737038e-06
182	0x3b217e10	0.002464179
183	0xba391c21	-0.00070613815
184	0xbb06d3a1	-0.0020572918
185	0xbae7b518	-0.0017677872
186	0xbb80feda	-0.0039366307
187	0xbbf655fe	-0.0075175753
188	0xbbcd81f7	-0.0062715965
189	0x36c486f4	5.856966e-06
190	0xa797d51b	-4.214197e-15
191	0xa51e7bef	-1.3746306e-16
192	0xbedbac10	-0.4290471
193	0xbcba9e70	-0.022780627
194	0xbac59885	-0.0015075362
195	0xb993089f	-0.00028044448
196	0xa6449d95	-6.8214724e-16
197	0xa5b448de	-3.12744e-16
198	0xb95a9a0d	-0.00020847488
199	0xb83401f0	-4.291715e-05
200	0xba054121	-0.00050832523
201	0xba0fbcf7	-0.0005483175
202	0x3b8fdcbc	0.0043903273
203	0x390c47c5	0.00013378177
204	0xbc970f40	-0.018439889
205	0xbad78c9a	-0.0016445101
206	0x38ce2561	9.829808e-05
207	0xb90f84b1	-0.00013686974
208	0xbba8a827	-0.0051469984
209	0xbbc7de7d	-0.0060995207
210	0xbc6dab6a	-0.0145062
211	0xbcb3c043	-0.021942263
212	0xb9de92ca	-0.00042452506
213	0xb10b7e25	-2.0298867e-09
214	0xb09cf924	-1.1421304e-09
215	0xaa00942d	-1.1420093e-13
216	0xb7bd9bff	-2.2603197e-05
217	0xb68ba276	-4.1614358e-06
218	0xb9514b4e	-0.00019959846
219	0xb7acc483	-2.0595506e-05
220	0xbdf8a930	-0.12141645
221	0x3ded711e	0.11593841
222	0xbabcbfe0	-0.0014400445
223	0xbb914625	-0.0044334107
224	0x95364cd2	-3.6815208e-26
225	0x97891a58	-8.860068e-25
226	0xbc95ac62	-0.018270675
227	0xbd2abd78	-0.041684598
228	0x3ad5501d	0.0016274486
229	0xb8017681	-3.0866362e-05
230	0xbb3674f3	-0.0027840703
231	0xbb031a2b	-0.002000461
232	0xb7dd2f43	-2.6367261e-05
233	0xb6827c33	-3.8887606e-06
234	0xbc117d2a	-0.008879939
235	0xbbd9fdf9	-0.0066525904
236	0xb8138ef5	-3.518067e-05
237	0x3614bdac	2.2164122e-06
238	0xbb4474d6	-0.0029976866
239	0xbc81faed	-0.015866721
240	0xb9832991	-0.00025017236
241	0xb94451e1	-0.00018722519
242	0x38cceeea	9.771979e-05
243	0xb6c43e29	-5.8484916e-06
244	0xbb37fc7e	-0.002807408
245	0xba96263a	-0.0011455484
246	0x3deea46c	0.11652455
247	0x3c82192c	0.015881144
248	0x3e2b3a44	0.16721445
249	0x3e8125b9	0.25224093
250	0x3cdc9e73	0.026931023
251	0xbc03f95f	-0.00805506
252	0xbbce6d44	-0.0062996466
253	0xbbcb1b82	-0.0061983475
254	0xbb624204	-0.0034524212
255	0xbbeee633	-0.0072906255

lstm.weight_hh_l0 f4 [256, 64]
0	0xb97a9987	-0.00023899051
1	0xb7238c45	-9.748216e-06
2	0xb8d3eec2	-0.00010105736
3	0x32113e8b	8.4543315e-09
4	0x39256785	0.0001577419
5	0xb92ee02f	-0.00016677448
6	0x3a17c68e	0.000578978
7	0x2c00032e	1.819166e-12
8	0xb7873661	-1.6118576e-05
9	0x398acb96	0.00026473094
10	0xa0c19bfd	-3.2798696e-19
11	0x3958810f	0.00020647443
12	0xb9092a54	-0.00013081107
13	0x39b99b72	0.00035401765
14	0x364c62be	3.0455844e-06
15	0xb974ece5	-0.00023357903
16	0xba9e1731	-0.0012061355
17	0xb8dd0330	-0.00010538695
18	0xb8e10a06	-0.00010730703
19	0xac99764c	-4.361655e-12
20	0xb17072cd	-3.4989853e-09
21	0x3801190e	3.077933e-05
22	0xb9d262e9	-0.00040128015
23	0x3a21f03a	0.0006177459
24	0x388936ab	6.542852e-05
25	0x39945b66	0.00028296857
26	0xb6253b45	-2.4621415e-06
27	0xb718884b	-9.091639e-06
28	0x38da3f20	0.00010406808
29	0x398402e8	0.00025179167
30	0xb81cf674	-3.7422826e-05
31	0x2f8108c0	2.347118e-10
32	0x3a62e5a3	0.00086554344
33	0x38b9f213	8.866577e-05
34	0x2e2d2407	3.9367645e-11
35	0x378522e5	1.5871085e-05
36	0xb991930e	-0.0002776612
37	0x39e8729c	0.0004433588
38	0xb8a42a9c	-7.828066e-05
39	0x37deb257	2.6547508e-05
40	0x396b67a7	0.0002244996
41	0x3963afa0	0.00021713832
42	0x344eae4f	1.9248658e-07
43	0x30cb3c2d	1.4787297e-09
44	0xb62de06f	-2.5909646e-06
45	0x363a0e91	2.7724639e-06
46	0x3983e704	0.00025158387
47	0x3908be68	0.00013040903
48	0x27aff7f5	4.8841093e-15
49	0x3a6a7e9c	0.0008945258
50	0x38081d2e	3.2452102e-05
51	0xb9c9bff4	-0.00038480724
52	0xb5ce6470	-1.5377427e-06
53	0xba87e0a6	-0.0010366633
54	0xb8309462	-4.2099862e-05
55	0xb94036bf	-0.00018330941
56	0x37ff33e7	3.0422538e-05
57	0x371ea48c	9.455845e-06
58	0x393291a4	0.00017029658
59	0xba26cb67	-0.0006362707
60	0xbb1e4baf	-0.0024153998
61	0xbafadcbb	-0.0019139269
62	0x3aae35a4	0.0013291133
63	0xb9e02776	-0.0004275401
64	0x38cb5c48	9.696983e-05
65	0xb91813c1	-0.00014503209
66	0xb8ff9f3b	-0.000121890065
67	0x33e144fc	1.0489927e-07
68	0xb85a29b0	-5.2014075e-05
69	0x392723d0	0.00015939702
70	0x389fd0bd	7.620591e-05
71	0xaaa4d727	-2.9281544e-13
72	0xb70aea6b	-8.280021e-06
73	0xb957191a	-0.00020513349
74	0x1eeed2f7	2.5286483e-20
75	0xb776ed0d	-1.4717935e-05
76	0xb91527a1	-0.0001422451
77	0xbb2c443f	-0.0026285795
78	0x37960cab	1.7887292e-05
79	0xb8e3c6e2	-0.00010861248
80	0xb8192484	-3.651205e-05
81	0xb99a816b	-0.00029469593
82	0xb9ea2cf7	-0.0004466546
83	0x2ceec3dd	6.786112e-12
84	0xaea5b4c8	-7.5354445e-11
85	0x387df1da	6.0545142e-05
86	0xb915c610	-0.00014283531
87	0xb987dd4b	-0.00025914083
88	0xb8314c69	-4.227125e-05
89	0x39b0520d	0.00033630469
90	0xb69f5c8f	-4.7493445e-06
91	0x38da392d	0.000104057
92	0x388a71e6	6.601568e-05
93	0x39d9b68a	0.00041525468
94	0xb82278de	-3.8736376e-05
95	0xaf3e86b7	-1.732826e-10
96	0xbb1e3406	-0.0024139895
97	0x38bf2d6d	9.116051e-05
98	0x2d096018	7.8088855e-12
99	0x387abff2	5.9783408e-05
100	0xb724f5b5	-9.83237e-06
101	0x39ab4a65	0.0003267109
102	0x377ca566	1.505888e-05
103	0x377ba044	1.4998081e-05
104	0x3934d821	0.00017246652
105	0x39496bf1	0.00019209065
106	0x3578dcfb	9.270877e-07
107	0x2ef154d5	1.09744804e-10
108	0xb75480ed	-1.2666203e-05
109	0x38026150	3.1085045e-05
110	0xb9fab520	-0.00047818664
111	0xb8dbb5f2	-0.00010476624
112	0x26143dac	5.1431396e-16
113	0x37715520	1.4384539e-05
114	0xb7478ddb	-1.1894353e-05
115	0x3953126c	0.00020129391
116	0x37392704	1.1035943e-05
117	0xb8d572dc	-0.00010178026
118	0xb75714e6	-1.2819864e-05
119	0x37d9ee52	2.5979392e-05
120	0xb5ed1c8e	-1.7666187e-06
121	0xb75d9463	-1.32071755e-05
122	0x38913896	6.924679e-05
123	0xba6a921c	-0.00089481636
124	0xbb50eabc	-0.0031878194
125	0xbaad471e	-0.0013220047
126	0xb892cbbd	-6.999772e-05
127	0xb9b962c0	-0.00035359524
128	0x383fbaa0	4.5711757e-05
129	0xb7a5b0b5	-1.9751818e-05
130	0x3873b7c5	5.8106863e-05
131	0xb1a8bc12	-4.9108246e-09
132	0xb864c141	-5.4539418e-05
133	0xb7da62c9	-2.6033626e-05
134	0xb8053d40	-3.1766715e-05
135	0xa9d56379	-9.476356e-14
136	0x33ecda89	1.1029358e-07
137	0x38d800bc	0.000102998194
138	0x9db54cad	-4.798958e-21
139	0xb71d7e0e	-9.387279e-06
140	0x384169f1	4.611345e-05
141	0xb9021348	-0.00012404949
142	0x33dadae1	1.019123e-07
143	0x3835dc88	4.335915e-05
144	0x384b631f	4.8491285e-05
145	0x3726b9dc	9.937645e-06
146	0x38c6a86d	9.4727475e-05
147	0x2bcc87a0	1.4532715e-12
148	0x302d3e1a	6.3025285e-10
149	0xb8964081	-7.164572e-05
150	0x37a589f5	1.9733774e-05
151	0xb8363fde	-4.3451662e-05
152	0xb744b310	-1.1724202e-05
153	0xb93d69b3	-0.0001806382
154	0x3465d98c	2.140643e-07
155	0x3915c147	0.00014281749
156	0xb8ac2287	-8.20803e-05
157	0x3617c46f	2.2615093e-06
158	0xb7615117	-1.3429925e-05
159	0xaeff334f	-1.1605172e-10
160	0xba515c8c	-0.0007986508
161	0x35d193a8	1.5614687e-06
162	0x2c54a454	3.0218232e-12
163	0x3596d197	1.123687e-06
164	0x3624ff88	2.4586643e-06
165	0xb7762a04	-1.4672525e-05
166	0x37175bf3	9.02171e-06
167	0xb5a7afb5	-1.2493607e-06
168	0xb88efa81	-6.8177476e-05
169	0xb93dfcf0	-0.00018118671
170	0xb4201839	-1.4909973e-07
171	0x30c6f078	1.4474741e-09
172	0x33b76254	8.539487e-08
173	0x3619ce54	2.2918875e-06
174	0xb7fe06c5	-3.0282312e-05
175	0xb8adf68b	-8.295205e-05
176	0xa67cf555	-8.776255e-16
177	0xb9febcc0	-0.00048587285
178	0xb5f47eae	-1.8216285e-06
179	0x3889be55	6.568121e-05
180	0x3593b2a6	1.1004347e-06
181	0x394a5f1b	0.00019299651
182	0xb4674b6c	-2.154099e-07
183	0x3884d1ca	6.333327e-05
184	0xb5d67fa7	-1.5981394e-06
185	0x35ba9774	1.3902159e-06
186	0xb8174407	-3.606456e-05
187	0xb89d681f	-7.5057374e-05
188	0xb874a7e7	-5.8330505e-05
189	0xb81bd476	-3.715275e-05
190	0xb7f72b63	-2.9464898e-05
191	0xb7d5fb27	-2.550853e-05
192	0xb019556a	-5.5782456e-10
193	0x2fbc3edb	3.4241662e-10
194	0xaea5671b	-7.5216465e-11
195	0xa9066500	-2.984158e-14
196	0x2f5975ec	1.9777929e-10
197	0xaea22e35	-7.375115e-11
198	0x2e579dde	4.9025554e-11
199	0x209dfdee	2.676487e-19
200	0xac94dcdf	-4.2309346e-12
201	0x2f9250c3	2.661463e-10
202	0x969423f8	-2.393339e-25
203	0x2f43a4bb	1.7793671e-10
204	0xae84b16c	-6.0341815e-11
205	0xafc59063	-3.5936684e-10
206	0x2cef43fa	6.8003355e-12
207	0xada232a1	-1.8439751e-11
208	0xb03790b4	-6.678065e-10
209	0xae4f1c18	-4.7091303e-11
210	0x2fc74674	3.624795e-10
211	0xa3007cdb	-6.965333e-18
212	0xa64839de	-6.9467364e-16
213	0xaf1711b5	-1.3739661e-10
214	0xafbf127d	-3.4755834e-10
215	0x30259cf1	6.024968e-10
216	0x2faa8058	3.1014014e-10
217	0x2f983db0	2.769247e-10
218	0xac92140f	-4.1517965e-12
219	0xaf9d4f5a	-2.8614516e-10
220	0xae8eab17	-6.487804e-11
221	0x2f92e5f2	2.672063e-10
222	0xad4a2ca1	-1.149228e-11
223	0xa34d7324	-1.1137454e-17
224	0x3044c40b	7.158298e-10
225	0x2debab04	2.6792353e-11
226	0x24c0ad7f	8.356064e-17
227	0x2d50a342	1.1859682e-11
228	0xae5c72b4	-5.0124085e-11
229	0x2e9f0ef2	7.233138e-11
230	0xae530bbb	-4.7986264e-11
231	0x2d1eb1f6	9.0207754e-12
232	0xaf3c9399	-1.7150938e-10
233	0xb060cc53	-8.178109e-10
234	0x2a437e7f	1.7363366e-13
235	0x25777ce9	2.1466156e-16
236	0xac5be067	-3.124634e-12
237	0x2d139b57	8.390475e-12
238	0x2f71a12d	2.1976083e-10
239	0x2fd687d7	3.9022893e-10
240	0x1d5bb84f	2.9079694e-21
241	0x2fa106f4	2.929067e-10
242	0x2d12adfd	8.337772e-12
243	0xb09ce887	-1.1416582e-09
244	0xad174e95	-8.600805e-12
245	0xafdcd124	-4.016637e-10
246	0xacd10465	-5.940625e-12
247	0xb05080f6	-7.5853224e-10
248	0x2df8252b	2.8210842e-11
249	0x2c887f52	3.879488e-12
250	0xafd9041b	-3.9474987e-10
251	0xb0a43967	-1.1948885e-09
252	0xb0cf3a71	-1.5077842e-09
253	0xb003858e	-4.7847315e-10
254	0x2ffb7366	4.573863e-10
255	0xafac345a	-3.1323816e-10

lstm.bias_ih_l0 f4 [256]
0	0xbb28ce92	-0.002575789
1	0xbac6488b	-0.0015127821
2	0xb986e53f	-0.00025729273
3	0xb0fdea75	-1.847481e-09
4	0xb9e16314	-0.00042989163
5	0xbb27ae51	-0.0025586078
6	0xbbd70e0d	-0.0065629543
7	0x9f2ef814	-3.705114e-20
8	0xb7ac33f4	-2.052819e-05
9	0xbbfef94f	-0.0077811847
10	0x8a141449	-7.129756e-33
11	0xba39d1a2	-0.00070884277
12	0xbb016ed5	-0.00197499
13	0x3ca420b3	0.020035123
14	0xb83c85f4	-4.4947446e-05
15	0xbbe9bce1	-0.007133112
16	0xbc781bcc	-0.015143346
17	0xbb55ae83	-0.0032605238
18	0xbb8a1408	-0.0042138137
19	0xa3254453	-8.959136e-18
20	0xaa9688be	-2.6740237e-13
21	0xbc7e3a2d	-0.0155168
22	0xbc834728	-0.01602514
23	0xbba5c625	-0.005059021
24	0xb974f5be	-0.000233612
25	0xbc2ea81e	-0.010660199
26	0xb7a36660	-1.9478786e-05
27	0xba3223ec	-0.0006795514
28	0xbab14005	-0.0013523108
29	0xbbc2f6ea	-0.0059498446
30	0x371976e0	9.147188e-06
31	0xa7efd091	-6.6561954e-15
32	0x3caff8ab	0.021480879
33	0xb9e41c92	-0.00043508835
34	0xa5260524	-1.4399947e-16
35	0xb7d1422c	-2.4945555e-05
36	0xb984c16b	-0.0002532111
37	0xba559211	-0.0008147071
38	0xbb04c874	-0.002026108
39	0xb8e51d5f	-0.00010925042
40	0xbbb2c5c7	-0.005455706
41	0xbc24d823	-0.010061297
42	0xb43fa19a	-1.7847051e-07
43	0xa93fefd5	-4.261854e-14
44	0xb6fbe5a5	-7.507117e-06
45	0xb8218e74	-3.851806e-05
46	0x3e083685	0.13302048
47	0xbb6e1325	-0.003632733
48	0x9744941e	-6.3517966e-25
49	0xbc83dda6	-0.016096901
50	0xb82729dc	-3.9854887e-05
51	0xbb858ac1	-0.0040753786
52	0xb717fa2d	-9.05855e-06
53	0xbc1f963e	-0.00974041
54	0xb458d855	-2.0195269e-07
55	0xbcbb3033	-0.022850132
56	0xb91932b1	-0.00014610101
57	0x37dd7515	2.6399774e-05
58	0xbac65fdc	-0.001513477
59	0x3b7787d1	0.0037770162
60	0x3df39cb0	0.1189512
61	0x3b161ac8	0.0022904146
62	0xbaff5208	-0.0019479403
63	0xbbea6034	-0.0071525816
64	0xbb9fde8e	-0.0048788255
65	0xbacaf7e4	-0.0015485254
66	0xba178575	-0.00057800795
67	0xaf63864e	-2.0693244e-10
68	0xba6bb742	-0.0008991846
69	0x3b0b97ff	0.0021300314
70	0xbbe5dea4	-0.007015066
71	0x9fb7062e	-7.751374e-20
72	0xb7b5d442	-2.1675722e-05
73	0xbcb0fcc7	-0.021604909
74	0x8a346b15	-8.686825e-33
75	0xba0e4fd7	-0.0005428767
76	0xba8befa3	-0.0010676276
77	0x3e1b0b23	0.15140967
78	0xb7a648ca	-1.9822637e-05
79	0xbc0ab49e	-0.008465914
80	0x3c2ae7d9	0.010431253
81	0xba9f35c9	-0.0012146767
82	0xbc5cf209	-0.01348544
83	0xa36e0914	-1.2903928e-17
84	0xaaa68bcf	-2.9584535e-13
85	0xbc5ba48c	-0.01340593
86	0xbcbf7a64	-0.02337379
87	0xbc1e6ffe	-0.009670256
88	0xb9f7a4f7	-0.0004723442
89	0xbc65e08c	-0.014030587
90	0xb999fc38	-0.00029370352
91	0xbaceebec	-0.0015786863
92	0xba395681	-0.000707008
93	0xbc722c40	-0.014781058
94	0x3a2774c9	0.0006387947
95	0xad0b1b93	-7.907358e-12
96	0x3e532d99	0.20622863
97	0xb9d7a042	-0.00041127397
98	0xa5aff71a	-3.0525103e-16
99	0xb804837f	-3.1593718e-05
100	0xba1a9842	-0.0005897322
101	0xbb1089ef	-0.002205487
102	0xbaf308c3	-0.001854204
103	0xb9974df2	-0.00028859038
104	0xbbc1f8bf	-0.0059195454
105	0xbc9747a3	-0.018466776
106	0xb34a26cd	-4.706708e-08
107	0xab787dda	-8.8281953e-13
108	0xb6b63954	-5.4306965e-06
109	0xb78ddf55	-1.6912507e-05
110	0x3ea04151	0.31299832
111	0xbb5ed1b8	-0.0033999514
112	0x97f194d0	-1.5611826e-24
113	0xbd5b88c6	-0.053597234
114	0xbb01a7aa	-0.0019783773
115	0xbb828234	-0.0039828066
116	0xb6cd2d6a	-6.114763e-06
117	0xbc2c25da	-0.010507071
118	0x35986c34	1.1356374e-06
119	0xbbc57fef	-0.0060272138
120	0xb9060588	-0.00012781296
121	0xb7794f67	-1.4860044e-05
122	0xbb14fd87	-0.0022734122
123	0x3c8c8f57	0.017158194
124	0x3eaf6d13	0.34262905
125	0xbcb92b10	-0.022603542
126	0xbbf77e86	-0.0075529246
127	0xbbcd795d	-0.006270571
128	0xbacf1b66	-0.0015801012
129	0xbbaeb4e6	-0.0053316234
130	0xbc788a56	-0.015169701
131	0x36e07f6b	6.6905536e-06
132	0x3a882a64	0.001038861
133	0x3b6ac194	0.0035820948
134	0x3c74dcbe	0.014945207
135	0xad46f267	-1.1308821e-11
136	0x3a01d1ab	0.00049522024
137	0xbcc0b0da	-0.02352183
138	0xa1e13a03	-1.5261949e-18
139	0xba14ef38	-0.00056813983
140	0x3a2d77a3	0.00066172535
141	0xbddd7f79	-0.10815329
142	0xba5ebf56	-0.0008497139
143	0xbc0e88e1	-0.008699627
144	0xbbf32709	-0.007420425
145	0xbbc2a919	-0.005940568
146	0xbc48e134	-0.012260724
147	0xb02693bf	-6.060041e-10
148	0xb0a458b1	-1.1957778e-09
149	0x3c603d28	0.013686456
150	0xbc8854a2	-0.016641919
151	0xbc8656b6	-0.016398769
152	0xbaff8f51	-0.0019497668
153	0x3c95e1e3	0.018296188
154	0xb8b1eda3	-8.484281e-05
155	0x3c17c9b1	0.009264396
156	0x3a26e66c	0.0006366733
157	0x3c20dc66	0.009818172
158	0x3bb76572	0.00559681
159	0xb292e542	-1.7100891e-08
160	0xbe31134c	-0.17292517
161	0xbb58e583	-0.0033095784
162	0x2fd88178	3.9382164e-10
163	0x3ac260e6	0.0014829903
164	0xbb1cceec	-0.0023927046
165	0x3b01b9ea	0.0019794651
166	0xbc64145d	-0.013920871
167	0xb9941943	-0.0002824758
168	0x3c60206b	0.013679604
169	0x3c9646de	0.018344339
170	0x383fd7ac	4.573881e-05
171	0x338f7425	6.680083e-08
172	0xb96ca5fc	-0.00022568548
173	0xba21b187	-0.0006168116
174	0x3c9c324f	0.019066958
175	0x3bcd3483	0.0062623634
176	0xaa01e256	-1.1536028e-13
177	0x3cf97f76	0.030456286
178	0xbad0c387	-0.0015927412
179	0x3c098192	0.008392708
180	0x3a5d09e8	0.0008431957
181	0xbc51da1a	-0.012808347
182	0xb902ffb5	-0.00012493024
183	0x3c96fab1	0.018430086
184	0x3a5d6236	0.00084451155
185	0xbb22b815	-0.002482896
186	0x3c2c30ef	0.010509714
187	0xbb3c2225	-0.0028706875
188	0xbdbcf6ad	-0.09226737
189	0xbe163eb9	-0.14672364
190	0xbb49a7e6	-0.0030770241
191	0xbc4c134c	-0.012455773
192	0xbb3d89bb	-0.0028921205
193	0xbaf4c230	-0.0018673595
194	0xb9ec7b77	-0.00045105416
195	0xaf8e17e6	-2.584663e-10
196	0xb99b35b3	-0.00029603913
197	0x3b556216	0.0032559684
198	0xbbbe4afe	-0.0058072796
199	0xa42e6093	-3.7812037e-17
200	0xb784f9eb	-1.5852003e-05
201	0xbb9040a4	-0.004402237
202	0x898efd12	-3.4423243e-33
203	0xba03778b	-0.00050150667
204	0xbb20394f	-0.002444822
205	0x3d5b1878	0.053490132
206	0xb7cded80	-2.4548499e-05
207	0xbba1e9ae	-0.004941187
208	0xbb43da3b	-0.0029884714
209	0xb9b1fad2	-0.00033946946
210	0xbb6c1811	-0.0036025087
211	0xa34221d2	-1.0523923e-17
212	0xa9feeea6	-1.1321265e-13
213	0xbc42f205	-0.011898522
214	0xbc30cb77	-0.010790697
215	0xbb69bd10	-0.0035665669
216	0xb97fbf7b	-0.00024390027
217	0xbc48b38f	-0.012249841
218	0xb7b4c0bf	-2.1547427e-05
219	0xbb86f8aa	-0.0041189985
220	0xbadbb398	-0.0016761897
221	0xbc4575ad	-0.012051982
222	0xb9f2cee3	-0.0004631198
223	0xa7e26e5f	-6.2847265e-15
224	0x3d62a8e1	0.055336837
225	0xb99231a7	-0.00027884284
226	0xa54652fb	-1.7201877e-16
227	0xb7b2d7b3	-2.1319696e-05
228	0xb92fd573	-0.00016768817
229	0xbb658466	-0.0035021543
230	0xba2ccbe4	-0.00065916614
231	0xb87b3740	-5.989452e-05
232	0xbbda2ec2	-0.006658406
233	0xbc1908fa	-0.009340519
234	0xb527c78b	-6.250272e-07
235	0xa915d219	-3.3266877e-14
236	0xb6939d50	-4.399255e-06
237	0xb915dd92	-0.00014292289
238	0x3e2d6e8a	0.16936699
239	0xbb0d3a96	-0.0021549813
240	0x9703fdce	-4.264873e-25
241	0xbd063ba9	-0.03277174
242	0xbb0a3429	-0.0021088219
243	0xbb957d46	-0.004562053
244	0xb6c99377	-6.007434e-06
245	0xbc0d16e8	-0.008611418
246	0xb37abc91	-5.837916e-08
247	0xbc097093	-0.008388656
248	0xbaf5e7a7	-0.0018761054
249	0xb8654a8f	-5.4667293e-05
250	0xbb4abe3c	-0.0030936142
251	0xbb37c470	-0.002804067
252	0x3e424371	0.1897104
253	0xbbf2c18b	-0.007408326
254	0xbb134532	-0.0022471664
255	0xbbd2451b	-0.0064169294

lstm.bias_hh_l0 f4 [256]
0	0xbb28ce61	-0.0025757777
1	0xbac64895	-0.0015127832
2	0xb986e53d	-0.00025729268
3	0xb0fde7b6	-1.8474029e-09
4	0xb9e16307	-0.00042989125
5	0xbb27ae88	-0.0025586206
6	0xbbd70e55	-0.006562988
7	0x9f2ef822	-3.7051184e-20
8	0xb7ac33f2	-2.0528187e-05
9	0xbbfef901	-0.0077811484
10	0x8a141435	-7.129741e-33
11	0xba39d272	-0.0007088549
12	0xbb016ed8	-0.0019749906
13	0x3ca420b1	0.02003512
14	0xb83c865d	-4.494783e-05
15	0xbbe9bd07	-0.0071331295
16	0xbc781bcc	-0.015143346
17	0xbb55ae83	-0.0032605238
18	0xbb8a1459	-0.0042138514
19	0xa3254467	-8.959153e-18
20	0xaa9688be	-2.6740237e-13
21	0xbc7e3a39	-0.015516811
22	0xbc8346ef	-0.016025035
23	0xbba5c637	-0.0050590294
24	0xb974f5be	-0.000233612
25	0xbc2ea8ee	-0.010660393
26	0xb7a365f7	-1.9478595e-05
27	0xba3223e2	-0.0006795508
28	0xbab13ff9	-0.0013523094
29	0xbbc2f6e9	-0.005949844
30	0x371976d9	9.147182e-06
31	0xa7efd097	-6.656198e-15
32	0x3caff8a9	0.021480875
33	0xb9e41c92	-0.00043508835
34	0xa5260525	-1.4399948e-16
35	0xb7d1420f	-2.4945502e-05
36	0xb984c22c	-0.0002532167
37	0xba559245	-0.0008147101
38	0xbb04c87b	-0.0020261097
39	0xb8e51d57	-0.00010925036
40	0xbbb2c5ae	-0.005455694
41	0xbc24d85f	-0.0100613525
42	0xb43fa19a	-1.7847051e-07
43	0xa93fefe2	-4.2618585e-14
44	0xb6fbe5d8	-7.5071403e-06
45	0xb8218e74	-3.851806e-05
46	0x3e083684	0.13302046
47	0xbb6e166d	-0.0036329285
48	0x97449455	-6.3518237e-25
49	0xbc83de71	-0.01609728
50	0xb82729fb	-3.9855e-05
51	0xbb858ac1	-0.0040753786
52	0xb717facd	-9.0586955e-06
53	0xbc1f9652	-0.009740429
54	0xb458d855	-2.0195269e-07
55	0xbcbb2c59	-0.022848295
56	0xb91933fd	-0.00014610584
57	0x37dd7849	2.6401265e-05
58	0xbac65fdc	-0.001513477
59	0x3b7787d1	0.0037770162
60	0x3df39cb0	0.1189512
61	0x3b161ac8	0.0022904146
62	0xbaff520d	-0.0019479409
63	0xbbea602a	-0.007152577
64	0xbb9fddbd	-0.004878728
65	0xbacaf80f	-0.0015485304
66	0xba178583	-0.00057800877
67	0xaf638657	-2.0693257e-10
68	0xba6bb6b1	-0.0008991762
69	0x3b0b97ff	0.0021300314
70	0xbbe5dea7	-0.0070150676
71	0x9fb705f1	-7.7513344e-20
72	0xb7b5d47a	-2.1675824e-05
73	0xbcb0fb5f	-0.021604238
74	0x8a346b01	-8.68681e-33
75	0xba0e4fef	-0.0005428781
76	0xba8bf604	-0.0010678177
77	0x3e1b0b23	0.15140967
78	0xb7a648cf	-1.9822646e-05
79	0xbc0ab51a	-0.00846603
80	0x3c2ae82b	0.01043133
81	0xba9f35c9	-0.0012146767
82	0xbc5ce46e	-0.013482196
83	0xa36e0915	-1.2903929e-17
84	0xaaa68be0	-2.958458e-13
85	0xbc5ba49d	-0.013405946
86	0xbcbf7a64	-0.02337379
87	0xbc1e7004	-0.009670261
88	0xb9f7a3ad	-0.0004723346
89	0xbc65df74	-0.014030326
90	0xb999fc31	-0.0002937033
91	0xbacee56e	-0.0015784928
92	0xba3956a4	-0.00070701004
93	0xbc722bc5	-0.014780943
94	0x3a2774dc	0.0006387958
95	0xad0b1c87	-7.9075696e-12
96	0x3e532d99	0.20622863
97	0xb9d7a078	-0.00041127554
98	0xa5aff71a	-3.0525103e-16
99	0xb804837f	-3.1593718e-05
100	0xba1ab2f2	-0.0005901299
101	0xbb1089f0	-0.0022054873
102	0xbaf308c1	-0.0018542038
103	0xb9974d7d	-0.00028858698
104	0xbbc1f87c	-0.005919514
105	0xbc974be1	-0.0184688
106	0xb34a26cd	-4.706708e-08
107	0xab787dda	-8.8281953e-13
108	0xb6b6394f	-5.4306943e-06
109	0xb78ddf55	-1.6912507e-05
110	0x3ea04151	0.31299832
111	0xbb5ecebb	-0.0033997733
112	0x97f18fc9	-1.5610556e-24
113	0xbd5b84ae	-0.05359333
114	0xbb01a79c	-0.001978374
115	0xbb828234	-0.0039828066
116	0xb6cd2d37	-6.11474e-06
117	0xbc2c25e1	-0.010507078
118	0x35986c34	1.1356374e-06
119	0xbbc5800f	-0.0060272287
120	0xb9060575	-0.00012781269
121	0xb7795deb	-1.48634235e-05
122	0xbb14fdc2	-0.002273426
123	0x3c8c8f57	0.017158194
124	0x3eaf6d14	0.34262908
125	0xbcb92b10	-0.022603542
126	0xbbf78128	-0.0075532384
127	0xbbcd7967	-0.006270576
128	0xbacf1ba7	-0.0015801088
129	0xbbaeb4e1	-0.005331621
130	0xbc788a56	-0.015169701
131	0x36e07f6b	6.6905536e-06
132	0x3a882a0a	0.0010388505
133	0x3b6ac194	0.0035820948
134	0x3c74dcd0	0.014945224
135	0xad46f267	-1.1308821e-11
136	0x3a01d1a4	0.00049521984
137	0xbcc0b100	-0.0235219
138	0xa1e13a0b	-1.5261957e-18
139	0xba14ef51	-0.0005681413
140	0x3a2d77a3	0.00066172535
141	0xbddd7f79	-0.10815329
142	0xba5ebf3c	-0.0008497124
143	0xbc0e88e4	-0.008699629
144	0xbbf32709	-0.007420425
145	0xbbc2a919	-0.005940568
146	0xbc48e134	-0.012260724
147	0xb02693bf	-6.060041e-10
148	0xb0a45bc4	-1.1958652e-09
149	0x3c603d25	0.013686453
150	0xbc8854b6	-0.016641956
151	0xbc8656ba	-0.016398776
152	0xbaff8f45	-0.0019497654
153	0x3c95e1db	0.018296173
154	0xb8b1eced	-8.4841486e-05
155	0x3c17c9af	0.009264394
156	0x3a26e66f	0.0006366735
157	0x3c20dc68	0.009818174
158	0x3bb7656c	0.005596807
159	0xb292e455	-1.710047e-08
160	0xbe31134c	-0.17292517
161	0xbb58e625	-0.0033096161
162	0x2fd88166	3.9382114e-10
163	0x3ac260df	0.0014829895
164	0xbb1ccea8	-0.0023926888
165	0x3b01b9e7	0.0019794644
166	0xbc641458	-0.013920866
167	0xb9941953	-0.00028247628
168	0x3c6020a2	0.013679655
169	0x3c9646fb	0.018344393
170	0x383fdb7f	4.574237e-05
171	0x338f7420	6.6800794e-08
172	0xb96ca60d	-0.00022568573
173	0xba21b171	-0.00061681034
174	0x3c9c3251	0.019066961
175	0x3bcd347f	0.0062623615
176	0xaa01e256	-1.1536028e-13
177	0x3cf97f5f	0.030456243
178	0xbad0c387	-0.0015927412
179	0x3c098194	0.00839271
180	0x3a5d0a1b	0.0008431987
181	0xbc51d9eb	-0.012808303
182	0xb902ffb6	-0.00012493026
183	0x3c96fab1	0.018430086
184	0x3a5d6204	0.00084450864
185	0xbb22b6be	-0.002482816
186	0x3c2c30ec	0.010509711
187	0xbb3c2225	-0.0028706875
188	0xbdbcf6ad	-0.09226737
189	0xbe163f68	-0.14672625
190	0xbb49a7ed	-0.0030770258
191	0xbc4c134c	-0.012455773
192	0xbb3d8a0e	-0.0028921398
193	0xbaf4c236	-0.0018673602
194	0xb9ec7b77	-0.00045105416
195	0xaf8e1801	-2.5846705e-10
196	0xb99b35bc	-0.0002960394
197	0x3b556216	0.0032559684
198	0xbbbe4b1c	-0.0058072936
199	0xa42e61aa	-3.781296e-17
200	0xb784f9eb	-1.5852003e-05
201	0xbb9040a6	-0.004402238
202	0x898efd13	-3.4423246e-33
203	0xba0376ae	-0.0005014938
204	0xbb20394f	-0.002444822
205	0x3d5b1878	0.053490132
206	0xb7cded80	-2.4548499e-05
207	0xbba1e984	-0.0049411673
208	0xbb43da42	-0.002988473
209	0xb9b1fad3	-0.0003394695
210	0xbb6c1879	-0.003602533
211	0xa34221d4	-1.05239245e-17
212	0xa9feeefc	-1.1321323e-13
213	0xbc42f222	-0.011898549
214	0xbc30cb78	-0.010790698
215	0xbb69bd12	-0.0035665673
216	0xb97fbf7e	-0.00024390031
217	0xbc48b551	-0.01225026
218	0xb7b4c0b1	-2.1547401e-05
219	0xbb86f8c4	-0.0041190106
220	0xbadbb397	-0.0016761896
221	0xbc457559	-0.012051904
222	0xb9f2cedf	-0.00046311968
223	0xa7e26e85	-6.2847426e-15
224	0x3d62a8e3	0.055336844
225	0xb99231af	-0.00027884307
226	0xa54652e0	-1.7201842e-16
227	0xb7b2d7b2	-2.1319694e-05
228	0xb92fd4cb	-0.00016768572
229	0xbb658466	-0.0035021543
230	0xba2ccbe2	-0.000659166
231	0xb87b373f	-5.9894515e-05
232	0xbbda2e9b	-0.006658388
233	0xbc1908fd	-0.009340522
234	0xb527c78b	-6.250272e-07
235	0xa915d224	-3.3266914e-14
236	0xb6939d5c	-4.3992604e-06
237	0xb915dd92	-0.00014292289
238	0x3e2d6e8a	0.16936699
239	0xbb0d3a47	-0.0021549629
240	0x9703fde9	-4.2648863e-25
241	0xbd0639e9	-0.03277007
242	0xbb0a3429	-0.0021088219
243	0xbb957d49	-0.0045620543
244	0xb6c9925d	-6.0073057e-06
245	0xbc0d16e7	-0.008611417
246	0xb37abd39	-5.8379758e-08
247	0xbc097013	-0.008388537
248	0xbaf5e7a7	-0.0018761054
249	0xb86549a5	-5.466644e-05
250	0xbb4abe36	-0.0030936128
251	0xbb37c470	-0.002804067
252	0x3e424371	0.1897104
253	0xbbf2c18b	-0.007408326
254	0xbb134537	-0.0022471675
255	0xbbd2451a	-0.006416929

fc.weight f4 [50, 64]
0	0xbba003c1	-0.00488326
1	0x3bd9049e	0.006622865
2	0xbb241a5e	-0.002504013
3	0xb65af255	-3.2625587e-06
4	0xbaa8631c	-0.001284692
5	0x3c6eddb2	0.0145792235
6	0xbbd208d9	-0.006409746
7	0x2e17e7ac	3.453919e-11
8	0x39a31b68	0.00031110202
9	0x3cb2f791	0.021846564
10	0xa39a5596	-1.673296e-17
11	0x3b89b9eb	0.0042030714
12	0xbb0e7843	-0.0021739162
13	0xbd429a7b	-0.047510605
14	0xb98a727f	-0.00026406717
15	0x3ad7de76	0.0016469497
16	0xbdc78cd2	-0.09743656
17	0x3b7dfeee	0.0038756686
18	0x3c432805	0.011911397
19	0x3030825b	6.4213673e-10
20	0xb30c39cc	-3.2648856e-08
21	0xbc8160db	-0.015793255
22	0x3b221d48	0.0024736691
23	0x3c80adc9	0.015707867
24	0x3bd51318	0.0065025203
25	0xba884f50	-0.0010399614
26	0xb9ede2aa	-0.0004537304
27	0x3ac08c28	0.0014690207
28	0x3a19e7fd	0.0005871056
29	0x3bd64acc	0.006539678
30	0x3b2fa034	0.002679837
31	0xb121e39f	-2.3557971e-09
32	0xbe135410	-0.14387536
33	0x3a84f161	0.0010142737
34	0x30be76a5	1.385804e-09
35	0x38b68ad0	8.704292e-05
36	0xbb1663bb	-0.0022947628
37	0x3b17cac3	0.0023161627
38	0xb82878e3	-4.0166906e-05
39	0xbb07a529	-0.0020697808
40	0xbb15d3f9	-0.0022861941
41	0xbbc217a1	-0.005923227
42	0xb8147c16	-3.5401514e-05
43	0xb30cf3df	-3.281809e-08
44	0x39a3fdd4	0.000312789
45	0x38757c64	5.85284e-05
46	0x3db16e4a	0.08663614
47	0x3b869018	0.004106533
48	0x288e44d6	1.579502e-14
49	0x39fa22c3	0.00047709615
50	0xba4c43db	-0.00077920937
51	0xbc8956d5	-0.016765038
52	0xb9b598a9	-0.0003463675
53	0x3bc1a60a	0.005909686
54	0xb9caf49d	-0.00038710693
55	0xbcaae74f	-0.02086225
56	0x3883fb5d	6.293387e-05
57	0xba0bb0d4	-0.00053287786
58	0xba7e88ce	-0.00097097165
59	0xbba83868	-0.0051336773
60	0xbd94f68e	-0.07273589
61	0x3ab0164c	0.0013434379
62	0x3c322657	0.010873399
63	0x3adddeee	0.00169274
64	0xbbc36bc1	-0.005963773
65	0x3c120a1c	0.008913543
66	0x3ba98a69	0.0051739705
67	0xb71f065e	-9.478621e-06
68	0xba9c4b70	-0.0011924338
69	0x3c3b34fc	0.011426207
70	0xbcb28005	-0.02178956
71	0x2e1f92b0	3.62827e-11
72	0xb982550f	-0.00024858906
73	0x3d198689	0.03748182
74	0xa32347fb	-8.85149e-18
75	0x3bcbb1be	0.006216257
76	0xbb0e0fd3	-0.0021676912
77	0x3db0794e	0.08616887
78	0x39a4ff17	0.00031470574
79	0x3c5b92e0	0.013401717
80	0xbca9da2c	-0.020733915
81	0x3c88676c	0.016650878
82	0x3cc6fe90	0.024291307
83	0x2e25945f	3.7648436e-11
84	0x314cd0d5	2.9804614e-09
85	0xbca6f9b2	-0.020382736
86	0x3c9c47bb	0.019077173
87	0x3cff2c5c	0.031149082
88	0x3b747103	0.0037298806
89	0xbc4c3a20	-0.01246503
90	0x39efc5ec	0.00045733096
91	0xbc69b0bf	-0.014263331
92	0xbbd0a617	-0.0063674557
93	0xbbb03311	-0.0053771813
94	0x3acc73c1	0.0015598462
95	0x32c2ed60	2.2692518e-08
96	0xbd6be60a	-0.05759243
97	0x3b59cf97	0.0033235305
98	0x30f378e3	1.7714935e-09
99	0xba217e75	-0.0006160506
100	0xba4ada37	-0.0007738205
101	0x3adf4d5a	0.0017036602
102	0x3b28ed18	0.0025776085
103	0xb980f018	-0.00024592946
104	0xbc59a497	-0.01328387
105	0xbd05e551	-0.032689396
106	0x376ac0c9	1.3992373e-05
107	0xb3e58c2a	-1.0689139e-07
108	0x38d0fcaa	9.965275e-05
109	0x3934dc50	0.0001724821
110	0x3d9b6b79	0.07588858
111	0x3ae6b98b	0.0017602904
112	0x2a06d538	1.1975566e-13
113	0xbcf87a3e	-0.030331727
114	0xb9644f54	-0.00021773326
115	0xbca8458f	-0.02054098
116	0xba516e2d	-0.0007989135
117	0x3c952f44	0.018211015
118	0xb83d8cc4	-4.519221e-05
119	0xbc8aa6c8	-0.01692523
120	0xbad43ad1	-0.0016191845
121	0xba61e99c	-0.00086178794
122	0xbc563a7c	-0.013075467
123	0xbbbdbf57	-0.0057906318
124	0xbdaf6bbb	-0.0856547
125	0x3ce627c0	0.028095126
126	0x3c1c0a0c	0.00952388
127	0x3be78a1e	0.0070660254
128	0x3a497faf	0.0007686568
129	0x3b9cf646	0.0047901003
130	0xba03e800	-0.0005031824
131	0xb5e1d653	-1.6826183e-06
132	0x3aa560ea	0.0012617384
133	0xbc7e9b39	-0.015539938
134	0xbc3d7997	-0.011564634
135	0x2d86bbb8	1.53174e-11
136	0x3a3b93fa	0.0007155534
137	0x398b7d1d	0.00026605363
138	0xa19b6653	-1.0530294e-18
139	0xba0103d5	-0.00049215305
140	0x3a16acf3	0.00057478173
141	0xbd50ee70	-0.05100864
142	0xba8080aa	-0.000980397
143	0x3b4eaa2d	0.0031534538
144	0x3d1d575b	0.038413387
145	0x3b3a9888	0.0028472263
146	0x3b908942	0.0044108937
147	0xaed64f43	-9.745673e-11
148	0xb2c16f27	-2.2518703e-08
149	0xbc762835	-0.015024235
150	0x3c0cc857	0.008592687
151	0x3b781773	0.0037855774
152	0xbaa7e29e	-0.0012808626
153	0xbb7fae26	-0.0039013713
154	0xb9a3e9e8	-0.00031264056
155	0xba79f633	-0.0009535283
156	0xbb300a56	-0.002686163
157	0x3c33e4b0	0.010979816
158	0xb9242622	-0.00015654464
159	0x327474d7	1.4229236e-08
160	0x3d633681	0.0554719
161	0xbbecbddd	-0.007224782
162	0x3082ad42	9.507988e-10
163	0x3aa760cc	0.0012769937
164	0x3a2085f6	0.00061234774
165	0x3b891441	0.0041833227
166	0xbbd8775a	-0.0066060247
167	0xba536267	-0.00080636743
168	0xbb8d96f7	-0.004320975
169	0xbbf81b38	-0.007571604
170	0xb89bbecc	-7.426515e-05
171	0xb39ac003	-7.2061106e-08
172	0x3977a918	0.00023618748
173	0xba90261e	-0.0010997688
174	0xbd54d646	-0.05196216
175	0xbb56baf9	-0.0032765253
176	0x2a17ff5b	1.3500088e-13
177	0xbb91108a	-0.0044270204
178	0x3a155886	0.000569709
179	0x3b8336c0	0.0040043294
180	0xb748ffd9	-1.1980498e-05
181	0x39e8d438	0.00044408604
182	0x38f11f31	0.000114975854
183	0x3ba8e19b	0.0051538474
184	0x398e0e55	0.0002709503
185	0xbae0e1b0	-0.0017157104
186	0xbb44a342	-0.0030004536
187	0x3ba145f4	0.004921669
188	0x3d9f325a	0.07773276
189	0xbc6801c8	-0.014160581
190	0xbac32739	-0.0014889009
191	0x3a17984a	0.0005782886
192	0x3b804fb6	0.0039157523
193	0xb83ef1e9	-4.5524826e-05
194	0x3adc269c	0.0016796174
195	0x33254b38	3.8485467e-08
196	0x3a225dfd	0.0006193815
197	0xbc82d95c	-0.015972786
198	0x3a0cf812	0.00053775415
199	0xace143c1	-6.402407e-12
200	0xb81a4deb	-3.6789028e-05
201	0xbb21039d	-0.0024568804
202	0x22332289	2.4277306e-18
203	0xba17aae8	-0.000578566
204	0xbb10d15f	-0.002209745
205	0x3b706639	0.0036682023
206	0x378962b3	1.6377633e-05
207	0x3b05153e	0.002030685
208	0x3d1dfc64	0.038570777
209	0xba9c451a	-0.0011922449
210	0xbaa373f5	-0.0012470471
211	0x2fb9c13e	3.378861e-10
212	0x3223b1dd	9.52829e-09
213	0x3add8f69	0.0016903701
214	0x3bea0a22	0.007142321
215	0xbb704275	-0.0036660705
216	0x3a151d14	0.0005688232
217	0xbbb29499	-0.005449843
218	0xb94e1fad	-0.00019657491
219	0x3bbf5dea	0.005840053
220	0xbb677348	-0.0035316516
221	0x399ca0d3	0.00029874462
222	0xbabd0564	-0.0014421162
223	0x3280f60f	1.5013056e-08
224	0x3d464bd1	0.048412148
225	0xbb5fca2d	-0.0034147606
226	0xb05213ae	-7.642552e-10
227	0x3a25b7f5	0.0006321662
228	0x3aab7fb1	0.001308432
229	0x3b972d1c	0.0046135318
230	0xbbaed715	-0.0053356984
231	0xb99db835	-0.00030082618
232	0x3a7d131f	0.00096540333
233	0x3ad1e276	0.0016012925
234	0xb7c1f779	-2.3122631e-05
235	0xb31ba825	-3.6241676e-08
236	0xb933a9fe	-0.00017134097
237	0x387120a6	5.7489284e-05
238	0xbd628af9	-0.055308316
239	0xba89f88a	-0.0010526341
240	0x27d1b874	5.8209138e-15
241	0xbb4a40bf	-0.0030861346
242	0x3a8f184d	0.0010917276
243	0x3ba1949e	0.0049310466
244	0x381420b0	3.5316392e-05
245	0x3a0e1019	0.0005419269
246	0x39039ed6	0.00012552305
247	0x3b86a296	0.004108737
248	0xb9f96eee	-0.0004757563
249	0xbb4e34ae	-0.0031464505
250	0xb9ba02cb	-0.00035478765
251	0x3b2f4f72	0.0026750234
252	0x3d99fa1b	0.07518407
253	0xbc8240cd	-0.01590004
254	0xb97f0eba	-0.00024324181
255	0x3ac29ef1	0.0014848394

fc.bias f4 [50]
0	0xbc095beb	-0.008383731
1	0x3d36d5d6	0.044637524
2	0xbd7d2465	-0.061802287
3	0x3c8e0b43	0.017339354
4	0xbd4fc50b	-0.050725024
5	0x3d0e9528	0.034810215
6	0x3d596879	0.05307815
7	0xbcc064f4	-0.023485638
8	0x3b94c3e6	0.0045399545
9	0xbc761bde	-0.0150212925
10	0xbd2b77c4	-0.041862264
11	0x3c9dc5cd	0.019259358
12	0x3d8737d1	0.06602443
13	0xbc953b16	-0.018216651
14	0x3d29772b	0.041373413
15	0x3b338a45	0.0027395647
16	0x3d183eeb	0.03716938
17	0x3d91b204	0.07114032
18	0xbcfdf358	-0.030999824
19	0x3cea1af1	0.0285773
20	0xbd27141d	-0.040790666
21	0xbce7e147	-0.028305663
22	0x3b6193ca	0.0034420365
23	0xbd1b4997	-0.037911978
24	0xbd145c0b	-0.03622059
25	0x3d32b1f6	0.043626748
26	0x3cf28dd5	0.029608646
27	0x3d59d147	0.053178098
28	0x3d1a19a3	0.037622105
29	0xbd01863b	-0.031622153
30	0x3c6c96fb	0.014440293
31	0x3cc521ab	0.024063906
32	0xbd390121	-0.045167092
33	0x3c348c1f	0.011019736
34	0xbb96725b	-0.004591269
35	0x3c2d7a5c	0.010588255
36	0xbc1a0dcf	-0.009402706
37	0x3d15e5fc	0.036596283
38	0x3cfa968a	0.03058936
39	0x3bdfb523	0.006827013
40	0xbd6053d7	-0.054767456
41	0xbc47b26b	-0.012188534
42	0xbd089536	-0.033345424
43	0xbd2ed5d1	-0.04268438
44	0x3d1c8a5e	0.038217895
45	0xbd640e53	-0.055677723
46	0xbcf739fa	-0.030179013
47	0xbca8b967	-0.02059622
48	0x3d433fd6	0.0476683
49	0x3d1a20ee	0.03762906

decoder.0.weight f4 [64, 50]
0	0x80008b6f	-5.002e-41
1	0x8000892d	-4.921e-41
2	0x00008ac9	4.9787e-41
3	0x800088d1	-4.908e-41
4	0x8000893b	-4.9229e-41
5	0x00008a8d	4.9703e-41
6	0x00008936	4.9222e-41
7	0x00008a05	4.9512e-41
8	0x00008aaf	4.975e-41
9	0x0000899b	4.9364e-41
10	0x00008ad0	4.9797e-41
11	0x80008a15	-4.9534e-41
12	0x00008987	4.9336e-41
13	0x800088f5	-4.9131e-41
14	0x00008a41	4.9596e-41
15	0x80008bfc	-5.0217e-41
16	0x80008a39	-4.9585e-41
17	0x00008a4a	4.9609e-41
18	0x00008b55	4.9983e-41
19	0x80008a8c	-4.9701e-41
20	0x00008c43	5.0316e-41
21	0x80008a0c	-4.9522e-41
22	0x00008bb7	5.012e-41
23	0x0000893a	4.9228e-41
24	0x00008aa1	4.973e-41
25	0x00008a33	4.9577e-41
26	0x000089e1	4.9462e-41
27	0x80008991	-4.935e-41
28	0x000089b4	4.9399e-41
29	0x0000890f	4.9167e-41
30	0x000089cc	4.9432e-41
31	0x00008992	4.9351e-41
32	0x80008a8e	-4.9704e-41
33	0x80008931	-4.9215e-41
34	0x000089b6	4.9401e-41
35	0x00008ad8	4.9808e-41
36	0x00008a5a	4.9631e-41
37	0x800089f3	-4.9487e-41
38	0x8000896c	-4.9298e-41
39	0x80008a4e	-4.9614e-41
40	0x00008b02	4.9867e-41
41	0x80008903	-4.915e-41
42	0x80008b18	-4.9897e-41
43	0x00008b9a	5.008e-41
44	0x80008a0a	-4.9519e-41
45	0x00009f3a	5.712e-41
46	0x80008a20	-4.955e-41
47	0x00008a01	4.9506e-41
48	0x800088e8	-4.9113e-41
49	0x00008aa6	4.9738e-41
50	0xac26d1e0	-2.3706523e-12
51	0x2c04f325	1.88933e-12
52	0xac62d004	-3.2232004e-12
53	0x2c079bee	1.9271212e-12
54	0x2bdd2972	1.5714498e-12
55	0x2b4d612f	7.29655e-13
56	0x2bc5e8ef	1.4062344e-12
57	0x2b139c1d	5.244154e-13
58	0x2a0e8c40	1.2660793e-13
59	0xab2b5562	-6.0869896e-13
60	0x2c0bbba4	1.985725e-12
61	0xab31502e	-6.2994304e-13
62	0x2b0d681b	5.023774e-13
63	0x2aff8f44	4.539651e-13
64	0xaaa634a8	-2.952406e-13
65	0xab82eef8	-9.303383e-13
66	0x2be2b113	1.6107414e-12
67	0x2a5b0c51	1.945538e-13
68	0x2bcfc02c	1.4761573e-12
69	0xac5457b3	-3.0175695e-12
70	0xaaadc4db	-3.086757e-13
71	0xaba817e4	-1.1943749e-12
72	0x2af977c3	4.4314387e-13
73	0xaaf523c9	-4.3545574e-13
74	0xab05cedc	-4.7538167e-13
75	0x2b3658d7	6.478268e-13
76	0xaaaacd02	-3.034032e-13
77	0x2aa65904	2.954929e-13
78	0x2bf8f4df	1.7689425e-12
79	0x2b8c9a39	9.990404e-13
80	0xaa729a30	-2.1547412e-13
81	0x2b48c679	7.132971e-13
82	0xa9a75564	-7.431103e-14
83	0xab67407e	-8.2157187e-13
84	0xa9c3fde6	-8.703784e-14
85	0xaa61197a	-1.9992853e-13
86	0xaa4e7885	-1.8338289e-13
87	0xa9653461	-5.0893646e-14
88	0x2c0e0af3	2.0185492e-12
89	0xad70dac9	-1.3691001e-11
90	0xab44513b	-6.974592e-13
91	0x29a7630e	7.433473e-14
92	0x2bb4e345	1.2852849e-12
93	0xab714251	-8.571243e-13
94	0xa99d986f	-6.9986436e-14
95	0xad1ced3f	-8.9202526e-12
96	0xab9d9aa1	-1.1198439e-12
97	0xab7a6a74	-8.8965575e-13
98	0x2b8f2c19	1.0173001e-12
99	0x2bb35bdf	1.2744214e-12
100	0xa97d79e1	-5.6282998e-14
101	0xaa27ffe0	-1.4921354e-13
102	0x279acc5c	4.2965153e-15
103	0xa9f16f0d	-1.0721814e-13
104	0xa864895d	-1.2686328e-14
105	0x28073af7	7.506791e-15
106	0xa9f23a53	-1.07570765e-13
107	0xa82f880e	-9.743954e-15
108	0x297317e4	5.397756e-14
109	0xa81fe120	-8.875089e-15
110	0xa9a23ce5	-7.204809e-14
111	0xaa14cf63	-1.3216992e-13
112	0x26da40fb	1.5144402e-15
113	0x291b66ff	3.450625e-14
114	0x27bb2e66	5.195323e-15
115	0xa864f0f9	-1.2708795e-14
116	0x2943c3c1	4.3468487e-14
117	0x2924a963	3.6562235e-14
118	0x2765da61	3.1898518e-15
119	0x2967c3bb	5.1462073e-14
120	0xa84c20bd	-1.1331374e-14
121	0xa9818bcc	-5.753002e-14
122	0x27c0e765	5.3541584e-15
123	0xa8a4e624	-1.8307465e-14
124	0x28e9b08a	2.5944758e-14
125	0x2869add7	1.2971794e-14
126	0xa980ba5a	-5.716669e-14
127	0x271c1ee2	2.166609e-15
128	0x29f0a95d	1.0687521e-13
129	0x281ca067	8.694521e-15
130	0xa8cdd20a	-2.2850662e-14
131	0xa887ac59	-1.5062755e-14
132	0x28a3cdc7	1.8185877e-14
133	0x28daa8c2	2.4276049e-14
134	0xa9582235	-4.7991305e-14
135	0xa99a990c	-6.865523e-14
136	0x29b8e232	8.21048e-14
137	0xa9cefca7	-9.192066e-14
138	0xa95d79e5	-4.9177584e-14
139	0x288a8dba	1.5382542e-14
140	0x2961a4ab	5.0102863e-14
141	0xa856a3ad	-1.1914878e-14
142	0x284ce9a7	1.137494e-14
143	0xa7828ae9	-3.6232855e-15
144	0xa8250990	-9.1614135e-15
145	0xa9ee29ef	-1.05765975e-13
146	0xa7fae9fc	-6.9642625e-15
147	0xa8972f60	-1.6784913e-14
148	0x27ee2397	6.6096857e-15
149	0x29bc775c	8.369583e-14
150	0x3cc21edb	0.023696354
151	0xbc0953a1	-0.008381755
152	0x3c95ea5e	0.018300232
153	0x3cdb6963	0.02678365
154	0xbc1b41e7	-0.009476162
155	0xbd16859d	-0.036748517
156	0x3d544ad8	0.05182919
157	0xbd418856	-0.04724916
158	0x3d4f69d6	0.050638042
159	0x3c707f55	0.014678796
160	0x3c3cab4e	0.011515452
161	0x3d2b090a	0.041756667
162	0x3d36b025	0.04460158
163	0x3cabd4b9	0.020975458
164	0xbc1672d8	-0.009182654
165	0x3c18182b	0.009283106
166	0x3d17d39b	0.037067037
167	0xbc99f6ea	-0.018794496
168	0xbd18e979	-0.037332032
169	0x3d20676a	0.039161123
170	0x3d2b68a7	0.04184785
171	0x3b03a003	0.0020084388
172	0x3d5e554e	0.05428057
173	0x3c99cdca	0.018774886
174	0xbcfa3a30	-0.030545324
175	0xbceb863c	-0.028750531
176	0x3d12a727	0.03580394
177	0xbc997a3e	-0.018735047
178	0xbc8decf7	-0.017324908
179	0xbc0d4c8b	-0.008624206
180	0xbd4cb0e4	-0.049973384
181	0x3d0d1f13	0.034453463
182	0x3d1b24dc	0.03787695
183	0xbd0bf253	-0.034166645
184	0x3d6e7466	0.058216475
185	0x3d68b67d	0.05681466
186	0x3d15bd71	0.03655762
187	0x3d091f08	0.03347686
188	0xbd2ab162	-0.04167307
189	0xbbc9950e	-0.006151802
190	0xbcfa1ada	-0.030530382
191	0x3ceaa292	0.028641973
192	0xbb2a596e	-0.0025993246
193	0x3cfd34cc	0.030908965
194	0xbcc51f7e	-0.024062868
195	0x3cfa2478	0.030534968
196	0x3cff5769	0.03116961
197	0x3d310ea6	0.04322686
198	0xbce58113	-0.028015649
199	0xbcddb8b9	-0.027065622
200	0x3db57eb4	0.08862057
201	0x3d9298ec	0.07158074
202	0xbd1ecb7e	-0.038768284
203	0xbcc0fbbf	-0.023557542
204	0x3d5170fe	0.05113315
205	0xbda52c40	-0.08065081
206	0xbaf898f2	-0.001896648
207	0x3c3223c6	0.010872787
208	0xbd5e195d	-0.054223407
209	0xbd4c684b	-0.04990415
210	0xbd1d6e87	-0.038435485
211	0x3d269fb5	0.040679652
212	0x3c717eab	0.014739673
213	0x3c651daf	0.013984128
214	0x3d2173de	0.03941714
215	0xbd2e1fdc	-0.042510852
216	0xbcffd03a	-0.03122722
217	0xbd2faafc	-0.042887673
218	0x3d5b3a15	0.05352219
219	0xbd5f68ff	-0.05454349
220	0x3d0bd14e	0.034135155
221	0x3b085e47	0.0020808147
222	0xbcd4bb59	-0.02596824
223	0x3c132139	0.008980089
224	0x3cd30148	0.025757447
225	0x3cda6a1b	0.026661923
226	0xbd20cd44	-0.039258257
227	0xbd1152c7	-0.035479333
228	0xbcda5868	-0.026653484
229	0x3d0b2772	0.033973165
230	0xbd0a644d	-0.03378706
231	0xbc77686c	-0.01510058
232	0xbd35ff50	-0.044432938
233	0xbd620195	-0.05517729
234	0xbc5546c4	-0.01301736
235	0x3d0da4d3	0.034581017
236	0xbbf1bb7e	-0.007377087
237	0x3bd0b542	0.006369264
238	0xbcf8ef9f	-0.030387698
239	0x3d35e389	0.044406448
240	0x3b0ff816	0.002196794
241	0xbd6008e7	-0.05469599
242	0x3db55006	0.08853154
243	0xbd149ca2	-0.03628219
244	0xbb9e0eaa	-0.0048235254
245	0x3c430d9e	0.011905102
246	0x3c7388b6	0.014864137
247	0x3ad96eb4	0.0016588778
248	0xbd058d44	-0.032605425
249	0x3c93fc6f	0.018064706
250	0xb33205a4	-4.1448985e-08
251	0x328a7cbe	1.612204e-08
252	0xb26ccf70	-1.3784174e-08
253	0x334be428	4.7472128e-08
254	0xb409f7cb	-1.2849266e-07
255	0xb3a445b0	-7.649521e-08

decoder.0.bias f4 [64]
0	0x9a0980b8	-2.8434914e-23
1	0x299c7cae	6.94942e-14
2	0xb1cfc849	-6.0472627e-09
3	0xbdc670f8	-0.09689516
4	0x39e470e0	0.00043571647
5	0xb56e589a	-8.879084e-07
6	0x2a6349e2	2.0187283e-13
7	0x1c9d41f2	1.0406435e-21
8	0x3bc08816	0.0058755977
9	0xa7acee2a	-4.799781e-15
10	0x9a142c80	-3.064163e-23
11	0xbcb3dba7	-0.021955324
12	0xa3355af0	-9.8312864e-18
13	0x3cd728a3	0.026264494
14	0xa49418fb	-6.422709e-17
15	0x9990c088	-1.4967014e-23
16	0x3d318b07	0.043345477
17	0xb4fb0445	-4.67555e-07
18	0xb8bd1fd7	-9.018153e-05
19	0x8d6567ca	-7.0691005e-31
20	0xbeb6bf37	-0.3569276
21	0x9c350f03	-5.990728e-22
22	0x385df4a0	5.291833e-05
23	0x9b297c78	-1.401957e-22
24	0xb4e6e6f9	-4.3008893e-07
25	0xa396381f	-1.62868e-17
26	0x3d13f038	0.036117762
27	0x9b3748b6	-1.51609e-22
28	0xbb006ae3	-0.001959496
29	0xb8e56f9e	-0.00010940361
30	0x3c3f96bc	0.011693653
31	0xbaca4945	-0.0015433213
32	0x3d21045f	0.03931081
33	0x9cf1e1a0	-1.6006365e-21
34	0xb6ae0e26	-5.187251e-06
35	0xafe7db8d	-4.2174655e-10
36	0x3d534ed1	0.051588837
37	0xb0a6a547	-1.2125064e-09
38	0xb3b6b3f6	-8.50777e-08
39	0xab26eab8	-5.9300785e-13
40	0xab461651	-7.03747e-13
41	0x3d2c1b59	0.04201827
42	0xab10f3bf	-5.149734e-13
43	0x989b550d	-4.015244e-24
44	0x9ab77089	-7.5868836e-23
45	0x9b24d581	-1.3634749e-22
46	0x2dc81baa	2.2749653e-11
47	0xbdf3ff8f	-0.11913978
48	0xa30b5b4c	-7.554538e-18
49	0x979a62fd	-9.977005e-25
50	0x9d998e2f	-4.0645777e-21
51	0xa191ac88	-9.871251e-19
52	0xabfcfac6	-1.7975281e-12
53	0x9942cb47	-1.00706165e-23
54	0x3d444a94	0.047922686
55	0x3c1e23eb	0.009652118
56	0x3d60408d	0.05474906
57	0x9202eb67	-4.1310923e-28
58	0x37eeae9f	2.8453125e-05
59	0x9b69e7c9	-1.9348202e-22
60	0xa732c940	-2.481156e-15
61	0xbb4c5e5d	-0.0031184175
62	0xb09a6b19	-1.1235414e-09
63	0xb887f353	-6.482624e-05
