checkpoints/checkpoint_epoch_150.pth (torch, 314812 bytes, 30 tensors)

lstm.weight_ih_l0 f4 [256, 2]
000000 d0 42 be be 08 44 45 3b e8 8a 15 bf b4 c1 91 b9
       -0.3716035 0.0030100364 -0.5841508 -0.00027800875
000010 e3 f3 13 3f f7 0b 3d bd b7 ed 0f bf b8 e7 be 3a
       0.57794017 -0.04615399 -0.562221 0.0014564907
000020 89 af 2c bf 15 21 8a be 61 5d 15 3f 35 06 21 3c
       -0.67455345 -0.26978365 0.5834561 0.00982814
000030 fc 82 cb 3e 97 bb 8b be d3 71 11 bf 1b 76 0e be
       0.3974837 -0.27291557 -0.56814307 -0.13912241
000040 43 09 bb 3e 86 14 c9 bd 47 4f 10 bf ae 32 e9 bd
       0.36530504 -0.09818368 -0.5637097 -0.113866195
000050 67 c5 53 be e1 86 c8 3c 98 fc fd be 31 6c 98 bc
       -0.20680772 0.024478378 -0.49606776 -0.018606277
000060 29 d5 16 bf 1e b9 ce 3b d7 c7 2d 3f 00 41 52 bd
       -0.58919007 0.006308689 0.67883056 -0.05133152
000070 cc a7 1c 3f c6 d4 1c be c5 fd a7 3d 59 f4 69 3d
       0.6119354 -0.15315542 0.082026996 0.057117794
000080 62 7d 26 bf c7 ed ec be 4a ba 52 3e ac d1 2b bd
       -0.6503507 -0.4627516 0.20578876 -0.041948006
000090 e4 98 a6 3e b1 b5 9a 3b 20 fc 1a bf a2 f0 f9 3b
       0.3253852 0.0047213663 -0.6054096 0.0076275626
0000a0 94 9b 1a bf b5 1b 0d be 3d 87 e3 3e 17 42 c7 bc
       -0.60393643 -0.137801 0.44439116 -0.024323506
0000b0 22 48 d2 be 8a 6e 12 bc e7 46 db be f9 00 07 bb
       -0.41070658 -0.008937487 -0.42827532 -0.0020599945
0000c0 c2 29 17 bf 67 aa ad 3b d6 da e7 3e b6 93 0f be
       -0.5904809 0.0052998546 0.45284146 -0.14021191
0000d0 77 ef d9 be 9b e0 af 3e c1 e2 ad be ba 6a 5d bd
       -0.4256551 0.34351048 -0.33962062 -0.05405686
0000e0 82 31 a0 3e d3 0f 6e 3c 21 49 9e 3e 81 b4 b9 bd
       0.3128777 0.01453014 0.30915168 -0.090676315
0000f0 80 aa 15 bf b9 68 8c bc d3 a9 17 3f d8 98 39 3c
       -0.5846329 -0.01713978 0.59243506 0.011327945
000100 76 b9 15 bf 12 3f 3a 3d 4f 45 2a 3f 6d c3 d4 3b
       -0.58486116 0.045470305 0.66512007 0.006493023
000110 d9 18 19 bf 29 1c c3 be e5 90 1d 3f 4b f2 3f 3c
       -0.5980354 -0.38107422 0.61549217 0.011715482
000120 7d 7a 28 3f 1d 26 6a be 91 c2 1a 3f 4a 62 ad be
       0.658119 -0.22866102 0.60453135 -0.3386405
000130 37 75 b1 be d7 3a 6f bc c3 9c 06 bf 94 53 80 3c
       -0.3465974 -0.014601431 -0.5258295 0.015664853
000140 3f c6 fe bd 24 10 c5 bd 52 ec e2 3e 4d fb b7 3c
       -0.12440156 -0.09622219 0.44320923 0.022458697
000150 0e 1b 73 be bb 78 1c bd d7 4e 1e bf c3 be aa bc
       -0.2374079 -0.038201075 -0.6183905 -0.020842915
000160 56 d0 e5 3e 83 18 c6 bb 4e 71 28 3f a0 c1 19 3c
       0.4488551 -0.0060454025 0.6579789 0.009384543
000170 d7 08 f4 be 79 05 90 bb 34 97 fc be 13 09 95 bd
       -0.47662994 -0.0043951836 -0.4933411 -0.072771214
000180 be c4 98 be db 36 19 3c b1 b9 b2 be ce c9 b3 3a
       -0.29837602 0.0093514575 -0.34907296 0.0013716759
000190 da 5f 30 3f 11 de ac bb fd 5a 08 3f a9 72 81 be
       0.6889626 -0.005275496 0.5326384 -0.2528279
0001a0 31 8f 00 bf c5 4e df bd b6 7e 92 be 0e 28 55 bd
       -0.5021849 -0.10903696 -0.28612298 -0.052040152
0001b0 da c5 f4 3e ab 84 0d 3c f8 b3 e1 be f6 31 d0 be
       0.478072 0.008637588 -0.44082618 -0.40663117
0001c0 29 72 f8 be 0d 2e 0a bc 76 dd 5c be 2c fc 04 3e
       -0.48524597 -0.008433831 -0.21568856 0.12986821
0001d0 76 0b 1f 3f d2 d5 7d bd 5a 0a fe 3e 52 76 32 bc
       0.62126863 -0.061971493 0.49617273 -0.010892468
0001e0 5e 98 fc be 39 6f c0 3c 82 b3 09 bf 2e 3c 9e bd
       -0.49334997 0.023490535 -0.5378953 -0.07726322
0001f0 f3 ea e4 be 7e cf 11 3c 38 5f f6 be 9f ba 16 bc
       -0.44710502 0.008899568 -0.4811952 -0.009199767
000200 4d 53 36 3c 57 fa 04 3c ff 4e 60 3e 75 85 e0 bc
       0.011128259 0.008116326 0.21905135 -0.027407387
000210 b3 5d 6d 3e 56 bd 86 bd 07 2a 3f be fc 50 d6 bb
       0.23180275 -0.06579082 -0.18668376 -0.006540416
000220 27 2f cd be 64 e4 c9 bc 72 04 b7 3e 4b 30 ba bb
       -0.40075037 -0.024645038 0.3574558 -0.0056820265
000230 15 c3 d2 3e 14 72 a4 be ef 7f c6 be 51 c8 f4 bc
       0.4116446 -0.32118285 -0.3876948 -0.029880675
000240 ee 2d 08 be 34 c2 59 bc b2 f4 b9 be 25 85 03 bd
       -0.13298771 -0.013290931 -0.363195 -0.0321094
000250 34 a3 dd be fd 8c 92 3c 95 d7 51 be 5b cd 9b 3c
       -0.43288577 0.017889494 -0.20492394 0.01901882
000260 62 6b be be b3 55 89 bb b9 e0 42 3f f1 4b d9 3d
       -0.37191302 -0.0041911243 0.7612415 0.10610188
000270 32 4d 9a 3e d1 27 8a bc 69 0a 96 bd 45 c1 4d bb
       0.3013702 -0.016864689 -0.07326204 -0.0031395715
000280 8c d2 3d be 88 7d 08 bf e2 8e 9c 3d 76 51 9a bc
       -0.18537349 -0.53316545 0.0764444 -0.018837672
000290 95 da 20 bd 97 24 3b bc d5 2f 68 bd 9e f8 a9 bb
       -0.039270956 -0.011422298 -0.05668624 -0.005187108
0002a0 5d 42 b9 be 54 62 f3 bc ae e7 0b bf 32 cf e4 be
       -0.36183444 -0.029709972 -0.5465039 -0.44689327
0002b0 42 e3 8b be 05 ce ea bb 3b 7f f5 be 86 10 44 bd
       -0.2732182 -0.0071656727 -0.47948632 -0.04786732
0002c0 8c 12 45 3e 11 78 0a be 12 f3 c7 3e b4 55 b2 bc
       0.19245356 -0.13522364 0.39052635 -0.021769382
0002d0 ba 84 13 bf a5 5d b5 bc 3e d9 d3 be fc 96 10 be
       -0.576244 -0.02213938 -0.4137668 -0.14120096
0002e0 3b b4 0b 3e e5 10 07 bb 21 9c ec 3e fd c1 6e bd
       0.13642971 -0.0020609435 0.46212867 -0.05829047
0002f0 e7 2a b6 3d aa 5c 66 bd f3 3d d6 3e a1 38 02 3c
       0.08894902 -0.056240715 0.41844139 0.007948072
000300 56 65 0f bf 0d 46 a7 bb a8 44 34 3f 86 1b 4f 3e
       -0.56014 -0.0051047863 0.7041726 0.20225343
000310 5e b3 ed be 54 26 6b be b6 f4 5c 3e 28 49 3e 3b
       -0.4642591 -0.2296384 0.21577725 0.0029035304
000320 5c ef a5 3e bd d9 a5 3a c1 4b e0 3e 21 33 3c bc
       0.3240918 0.0012653392 0.43807796 -0.011486799
000330 b0 75 ba be 20 6a b8 bb 1a 29 c9 3d 8b 8d 0f bd
       -0.36417913 -0.0056278855 0.098222926 -0.035047095
000340 0b f6 08 be b9 54 29 3c d4 88 8a 3e 82 0c 3c bc
       -0.13375108 0.010335141 0.27057517 -0.0114775915
000350 74 04 28 be 20 7a c7 3c 98 a5 d5 be 0c f4 c6 bb
       -0.16407949 0.024350226 -0.417279 -0.006071573
000360 2e a3 dc 3e cc 16 e4 3b 80 6c 3b 3f 8f 2c 48 3e
       0.43093246 0.0069607254 0.7321243 0.19548248
000370 ba 00 c5 be 06 ea dc bc 8e dd dc be 95 ff bf bc
       -0.38477117 -0.02696706 -0.43137783 -0.0234373
000380 be 56 58 be 83 99 10 bb 05 f1 8e be 46 37 09 be
       -0.2112684 -0.0022064156 -0.27918258 -0.13399991
000390 89 b8 41 3f be e7 ba 3d 7c f4 fd 3e fc fd 3f bd
       0.75672203 0.091262326 0.4960059 -0.046873078
0003a0 93 2e dc be 2f 70 4e bd c0 c3 00 bf 8b 78 c6 bc
       -0.43004283 -0.050399955 -0.5029869 -0.024227401
0003b0 94 2c c2 3e 4a ce f2 3b 3e 1c 01 bf 2f 88 dd be
       0.37924635 0.0074098455 -0.5043372 -0.43267962
0003c0 ab b6 06 3e 3c 0f 17 bc cb 70 1d bf 3b ad 0b 3e
       0.1315562 -0.009219941 -0.61500233 0.13640301
0003d0 dc e5 fe 3e cb 61 5e 3c a9 f7 02 3f 03 15 5f 3d
       0.49784744 0.01357312 0.5115915 0.054463398
0003e0 26 5d 34 be a2 8d 36 bc c2 26 d1 be d2 2f 6c bd
       -0.17613658 -0.011142166 -0.40849882 -0.057662793
0003f0 79 8a 2e bf 5f 10 5d bc b0 4a c2 be b6 40 e6 bc
       -0.6818004 -0.013492673 -0.37947607 -0.028107028

lstm.weight_hh_l0 f4 [256, 64]
000000 1b 53 f2 3b 99 ae de bc 47 a9 a3 bc 6f 55 ad bc
       0.007395161 -0.027182864 -0.019978179 -0.021158902
000010 f6 1d 46 3c af cb aa 39 c2 83 f2 bb af f6 13 bb
       0.012092104 0.00032576683 -0.0074009607 -0.0022577455
000020 61 6b 20 3c c2 d1 80 bb c0 63 ca 3c 44 8f 53 bc
       0.009791226 -0.003931255 0.024705768 -0.012912575
000030 1f 8a de bc a9 15 ec 3a 52 93 54 3c 65 91 4d bc
       -0.02716547 0.0018011826 0.012974577 -0.012546872
000040 f7 d6 7b bb 24 55 02 3b b4 ea fd ba 35 d3 b0 3c
       -0.003842769 0.0019887174 -0.0019372315 0.021585086
000050 bc 7b 97 3b e5 f4 a8 bc 2a 06 ef 3b 5d bc 9f 3c
       0.0046229046 -0.020624587 0.007294436 0.019498998
000060 5b bd 83 bc 9a dc f4 3b 69 6f ad ba bb e4 e1 bc
       -0.016081503 0.007472587 -0.0013232055 -0.027574887
000070 2b 35 29 3b 02 3d 77 3c 22 55 3b 3c 70 b1 88 ba
       0.0025819044 0.015090229 0.011433871 -0.0010428857
000080 c8 1f 8e bb 94 83 34 bb de 10 d8 bb 00 4b 9d ba
       -0.0043372847 -0.0027544247 -0.0065938076 -0.0012000501
000090 62 b8 a5 bb 37 cf 26 3c d7 15 5b bc 78 20 af bc
       -0.0050573805 0.01018124 -0.013371906 -0.021377787
0000a0 e2 01 c2 3b 6e c6 3e 3c 23 17 9c 3b e9 c6 b6 bc
       0.0059206346 0.011643989 0.0047635003 -0.022311645
0000b0 39 71 a7 bb fd 79 5a 3b 73 08 ae 3c c3 d4 c5 39
       -0.0051099327 0.003333687 0.021244263 0.00037733288
0000c0 4a c5 9f 3c 46 d2 d3 bb 2f f2 3f 3b 73 72 96 3c
       0.019503254 -0.0064642755 0.002928864 0.01836512
0000d0 ec bb 76 bb c5 1d 80 3b e5 0f 2b 3b ff 4a ad 3c
       -0.0037648631 0.003909799 0.0026102003 0.021153925
0000e0 90 0d 0c 3c 6a e1 89 bb 0e 55 e2 3a d3 32 e0 bb
       0.008548155 -0.0042077797 0.001726778 -0.006841996
0000f0 db 9d 58 bc b9 c7 ba bc 2c 57 86 b6 c2 01 9d 3c
       -0.013221229 -0.022800313 -4.0036593e-06 0.019165877
000100 fd 5e b1 3b b4 42 9d 3d ca 4b 00 ba e4 a3 43 ba
       0.005412935 0.07678738 -0.0004894106 -0.0007463081
000110 89 80 7d 3b 2b 80 dd ba 9e 4d bc bb d4 f6 aa 3b
       0.003868135 -0.0016899159 -0.0057465574 0.0052174125
000120 01 1d 76 bc 65 c5 9a 3b c3 30 cd 3d 66 2c a0 bb
       -0.0150215635 0.0047232383 0.10019066 -0.004888105
000130 bd 3d bd 3d b7 f7 37 bc 81 23 c1 3b ee dd 82 ba
       0.09240291 -0.011228493 0.005894125 -0.0009984353
000140 85 60 d0 bb 37 8f bd bb 7d 0f d9 3a 39 3e d7 3d
       -0.0063591623 -0.005784895 0.0016560402 0.10509915
000150 46 6f cd ba 4f 98 ee ba d4 02 cd bd b0 2b ee 3b
       -0.0015673421 -0.001820335 -0.10010305 0.0072683915
000160 98 be ce bd 6f 5f c7 3b 19 80 48 bd 23 86 56 bc
       -0.100949466 0.0060843746 -0.04895029 -0.013093504
000170 55 8c 2e 3b 62 cc ff 3a 33 e7 91 3d b8 ce c4 3b
       0.0026633937 0.0019515867 0.07124176 0.006006088
000180 0c 6d d1 3d f7 a8 aa bc a3 60 35 3b 8d 1f d0 bb
       0.10225877 -0.020832522 0.0027676008 -0.0063514174
000190 c8 3f 1e bc 28 02 81 3b a3 c9 92 3d 11 37 ce 3d
       -0.009658761 0.0039370246 0.071673654 0.10069097
0001a0 61 81 9d 3c 89 08 04 3c 88 bb 9c ba ae a7 d3 bd
       0.019226732 0.008058676 -0.0011957744 -0.10334717
0001b0 fc e8 3a bc b4 b0 b5 3c c5 b6 a9 3b bb d3 8c bd
       -0.011408087 0.022178985 0.0051792585 -0.06876322
0001c0 9f ab ab bd 63 05 d7 bc d1 de 9b 3c c7 07 12 3a
       -0.083823435 -0.026247686 0.019027146 0.0005570617
0001d0 fe e4 7f bd 7f 4b 96 3d b6 e1 ce bb 0c a7 bd bb
       -0.062474243 0.073386185 -0.006313528 -0.005787736
0001e0 52 91 b0 bd 1c 8b 3a bd 5b 99 cb 39 4a 8b 77 3b
       -0.08621468 -0.04554282 0.00038833436 0.0037772232
0001f0 4a 23 17 3b 8e 48 82 3d 8a f7 c6 bd b1 9f bb 3b
       0.0023061805 0.06361495 -0.09715183 0.005725824
000200 8f 26 a3 3d 6a 6e 29 3e 60 5a 02 3e 67 db eb 3d
       0.07966339 0.16546026 0.12729788 0.11516457
000210 11 8b 69 bd 99 95 de 3a 7a c2 d4 bd 84 46 90 3d
       -0.05701739 0.001698184 -0.10388656 0.070447
000220 22 b5 1e be f1 6e c5 3d 72 a2 15 be 82 36 ec 3d
       -0.15498784 0.09640301 -0.14612749 0.11533834
000230 f7 82 0c 3e e8 5b 0e 3c 98 a2 a4 3b 7e 63 3e bd
       0.13721834 0.008688904 0.0050242655 -0.046481602
000240 be e4 08 3c 4f 2e f8 3b be 9b a6 bb 27 1f 3b 3e
       0.008355318 0.00757388 -0.005084484 0.18273602
000250 19 4e bb bd bf 27 f2 3d 1b 35 76 3d 2a 2f f3 3d
       -0.09145755 0.11823987 0.06010924 0.1187423
000260 50 9d 3d be 18 66 5f 3c 28 d1 c8 3a 14 0c 28 be
       -0.18517041 0.013635181 0.0015321122 -0.16410857
000270 0c 29 79 3b 7f 7b f7 bc cd 45 37 3e 8b f7 9e 3b
       0.003801885 -0.030210255 0.1789772 0.0048512868
000280 3a d4 47 3e 72 bb 66 3b 2d 6f 40 3d 70 dc 05 3c
       0.19514552 0.003520694 0.046981025 0.008170232
000290 06 89 f3 3b fd bc 08 bc 28 1f 1d 3e eb 55 87 3d
       0.007432106 -0.00834584 0.15343916 0.066081844
0002a0 00 ab b8 bb 21 08 39 3c 41 20 8c 3c 4a e9 36 be
       -0.005635619 0.011293442 0.017105224 -0.1786243
0002b0 2b 7b f6 3b 88 91 04 bb 52 07 32 3e dc 6e 2a 3e
       0.007522007 -0.0020228345 0.17385605 0.16643852
0002c0 25 4a 16 be f5 2e ea bd 28 0f 91 bb e3 4a b1 bc
       -0.14676721 -0.114347376 -0.0044268556 -0.021642154
0002d0 b2 3b c0 bd 37 4a fe bd cd 01 85 bb ea f8 d1 3c
       -0.09386386 -0.12416499 -0.0040590526 0.025631387
0002e0 33 b6 28 bd dd 5e 02 3d 9b b2 50 39 7f 4a 93 bc
       -0.041189384 0.03182875 0.00019902962 -0.017979858
0002f0 e0 4c 2e 3d ca 8c 33 be 93 95 43 be bb ee 15 3e
       0.042553782 -0.17534176 -0.19100027 0.1464185
000300 e8 df b2 3a 45 3a bf bb 51 cc d2 bb cb eb 1c 3b
       0.0013647052 -0.0058358037 -0.006433048 0.0023944254
000310 3f 0c bd 3b 4a d1 46 bb 9f 3f f8 39 9a 77 25 3c
       0.005769282 -0.0030337148 0.00047349648 0.010099316
000320 bb d9 1e 3c 6b 4e 1d 3c 37 3a d4 3b 8e 1e e1 3b
       0.009695466 0.009601216 0.0064766663 0.0068700975
000330 d9 28 d6 bb 9a bd 42 bc 0e 93 0b 3c 9f 17 8e 3b
       -0.006535631 -0.011886025 0.008518947 0.004336312
000340 c8 b6 45 bc e7 4f 89 bb 23 74 8c ba b9 57 c4 3b
       -0.012067504 -0.0041904333 -0.0010715764 0.0059919027
000350 25 9e f4 bb c9 42 9a bb ac da 86 bb dd 54 46 3c
       -0.0074651414 -0.0047076684 -0.004115423 0.012105194
000360 b0 d2 97 bb ff b4 21 3c f5 89 5b 3c 40 fd f8 bb
       -0.00463327 0.009869813 0.013399591 -0.007598549
000370 df d6 98 3b 4b 4c e0 3b 17 12 d7 b8 c7 ef c6 3b
       0.0046642865 0.0068450323 -0.000102553684 0.006071064
000380 0f cd bd ba 9e 98 8b bc eb c5 ea ba 0d dc 09 b9
       -0.0014480668 -0.017040547 -0.0017911767 -0.00013147313
000390 c6 ce 0a bc 86 32 cd 3b ec 92 42 bc ff 4e a4 3b
       -0.00847215 0.0062621264 -0.011875849 0.0050143
0003a0 f6 97 7a 3c 7c 2c 38 3c 1c a1 96 3b f5 41 bc bb
       0.015295019 0.011241075 0.0045968425 -0.0057451674
0003b0 11 01 27 bc d1 79 93 3c 2d c0 39 3c 90 55 be bb
       -0.010193125 0.018002423 0.011337322 -0.0058085397
0003c0 53 56 62 ba 4f 49 52 3c 62 c3 7c 3c 97 73 74 3b
       -0.0008634079 0.012834861 0.015427442 0.0037300342
0003d0 83 f6 cb ba f0 43 da 3b d4 74 18 bc 64 b0 23 bc
       -0.0015561137 0.006660931 -0.009305198 -0.009990785
0003e0 a8 e7 2f 3c 86 7b 69 3c 48 84 18 3b a9 59 6e ba
       0.0107363835 0.014250642 0.0023272205 -0.000909234
0003f0 51 69 a6 3b e1 eb 40 3b 6e 00 df b8 65 c2 3a 3c
       0.0050784727 0.002943747 -0.00010633549 0.011398886

lstm.bias_ih_l0 f4 [256]
000000 6a 8b b9 3c ea 84 f4 bd f6 52 4c be 41 13 cc bd
       0.022649486 -0.11939414 -0.19953522 -0.0996461
000010 a8 ee b9 be 77 cf 80 be 6d 56 9e be f3 4f 8c be
       -0.36314893 -0.25158283 -0.30925313 -0.27404746
000020 f8 53 55 be 3a 18 81 be ea 56 dc bc 13 be 88 bd
       -0.20832813 -0.25213796 -0.026896913 -0.06676879
000030 72 c9 e3 bd 53 5f 8f be e5 7b b4 be 35 6c f3 3c
       -0.11122407 -0.28002414 -0.35250774 0.029714683
000040 d4 8a df be 27 eb ce bd c8 ab 28 be 75 ca 37 bd
       -0.43660605 -0.101034455 -0.1647178 -0.044870812
000050 b8 4a 8b be 8c 03 19 be b1 0a b3 3c 90 75 15 be
       -0.27205443 -0.1494276 0.021855684 -0.14595628
000060 c1 a2 76 bd f0 9a a5 be 51 a2 68 3e 80 36 16 be
       -0.060213808 -0.3234477 0.22718169 -0.14669228
000070 72 3c 73 be b6 45 55 bd 18 c8 cd bd b9 c5 ea be
       -0.23753527 -0.052068435 -0.100479305 -0.45853975
000080 00 a1 be 3d 4c ae 10 be 7c 28 cf be 32 95 36 be
       0.09308052 -0.14128989 -0.40460575 -0.17830351
000090 6b 84 d4 be 93 7a b5 be 02 d6 1c be ca 3e 86 bd
       -0.41507277 -0.3544508 -0.15316013 -0.06554945
0000a0 25 77 21 be 5d 69 d5 bd 56 67 63 bd ba 47 d9 bd
       -0.15768106 -0.10420487 -0.05551847 -0.10609384
0000b0 3b 85 b4 be 4c 61 20 be 6d a3 20 be 4e d7 33 be
       -0.35257897 -0.15662116 -0.15687342 -0.17562601
0000c0 de 5a 2b bc 13 4c 36 be 43 38 69 be b5 d5 a6 be
       -0.010458676 -0.17802458 -0.22775368 -0.3258492
0000d0 9b e5 62 be b6 27 e3 bd e0 1d ba be 36 05 cf be
       -0.221579 -0.11091559 -0.36350918 -0.40433663
0000e0 e3 cd 46 3d 14 04 a7 3e 17 5a 89 be f5 c4 8c be
       0.048536193 0.326203 -0.26826546 -0.27494016
0000f0 df f1 d2 ba 83 64 32 be 2c 5d 34 bb ad 53 25 be
       -0.0016093812 -0.17421155 -0.0027521355 -0.16145201
000100 5a 08 c5 bc 52 0f d1 bc c3 27 84 be d8 ac 8b bc
       -0.024051834 -0.02552 -0.25811586 -0.017050192
000110 4c cc b3 bb 24 d1 96 bc da 12 0d bf 00 68 38 be
       -0.0054870006 -0.018410273 -0.5510689 -0.18008423
000120 c3 35 43 be 4d fe 36 be ba f0 ac bb cc 69 bc bc
       -0.19063477 -0.17870446 -0.0052777203 -0.022999667
000130 b8 8a d5 3a 96 ae 88 3d df df a1 bd ad 04 61 bd
       0.0016291952 0.066739246 -0.07904028 -0.0549361
000140 20 36 32 bf 9d ee 17 3b 35 66 6a be b1 c2 96 3d
       -0.6961384 0.0023182996 -0.22890551 0.07361353
000150 46 13 3e be a3 c3 28 bf 4b 16 9e 3d d8 3c af be
       -0.1856204 -0.6592352 0.07719096 -0.34226108
000160 5f 94 a0 39 19 5e 21 be 69 7f 50 3d 59 0f 83 be
       0.00030628123 -0.15758552 0.050902758 -0.25597647
000170 26 25 69 be 8f ea 6a bc 02 98 cf bc 75 fc c8 bd
       -0.22768077 -0.01433815 -0.025341038 -0.09813777
000180 c5 1d 9d 3e 70 9e 61 3e 06 cc b1 be e1 be ba 3b
       0.30686775 0.22033095 -0.3472597 0.005699024
000190 df 7f 05 be 80 f8 82 be e7 24 ef bd 28 a3 e6 be
       -0.1303706 -0.25580215 -0.116769604 -0.45046353
0001a0 e8 e0 26 be f7 e5 c0 bc d7 bc 1a bd 49 ea 8e bc
       -0.16296732 -0.023547156 -0.037777748 -0.0174457
0001b0 35 58 bc 3c ec e4 5f 3e 35 04 d3 bd a7 0f e2 bd
       0.02299128 0.2186467 -0.10303537 -0.11038142
0001c0 f0 7f 36 bb fa 70 91 be db f0 cd 3d 21 51 2b be
       -0.0027847253 -0.28406507 0.10055705 -0.16730167
0001d0 45 b7 07 be 92 80 07 bf a8 07 0f be aa 72 8c be
       -0.13253506 -0.5293056 -0.13967764 -0.27431232
0001e0 d8 f5 95 be 72 b5 68 3d fe fa 0c be 6f 9f af 3d
       -0.29289126 0.056813665 -0.13767621 0.085753314
0001f0 c3 2a 84 3b ed 35 09 be 4d 39 5a 3e 43 49 ea bd
       0.004033418 -0.13399477 0.21310921 -0.11439755
000200 42 57 2a 3e e8 30 eb 3c 0a dc ae 3e 46 4a 97 3e
       0.16634849 0.028709844 0.3415225 0.29548854
000210 37 58 d6 bd 2f 5b a6 be 2d aa b5 be d9 1e 45 be
       -0.104660444 -0.32491443 -0.35481396 -0.19250049
000220 71 7b a8 bd e1 27 56 be 1e e2 ee bd e4 94 e1 3e
       -0.082266696 -0.2091365 -0.11664222 0.44058907
000230 07 8c 65 3e f0 60 2c 3f 7d 78 bd be 3b e5 d5 3d
       0.22416697 0.67335415 -0.37005988 0.10444113
000240 ed 28 30 bd 68 3d 20 3f f6 fd c6 be ef 56 07 be
       -0.04300778 0.625937 -0.38865632 -0.13216756
000250 82 5e 51 3e ed 85 c2 3e 8b cb 5b be 8a 8a 81 be
       0.20446208 0.37992802 -0.21464364 -0.2530101
000260 97 46 07 bd 80 79 d0 be 95 30 59 3e a5 78 08 3d
       -0.033026304 -0.40717697 0.21209939 0.03331818
000270 3d d3 8f 3e 1d f4 21 3e 72 c7 a2 be bd 99 69 3e
       0.2809085 0.15815778 -0.3179279 0.22812553
000280 b1 14 f5 be c3 b7 2e bf bc 31 27 be 37 f7 db bd
       -0.4786735 -0.6824915 -0.16327566 -0.10740512
000290 f0 8f cf be c3 38 3c bf ec 16 99 bd 9d 0e 0a 3f
       -0.40539503 -0.7352411 -0.07475075 0.5392855
0002a0 53 59 4e bd e8 8b 1f bf e3 95 08 be 6a b0 bf 3c
       -0.050378155 -0.62322855 -0.13338427 0.02339955
0002b0 82 7c 9c be 78 a7 28 3f e8 a5 be be 73 a7 2e be
       -0.30563742 0.6588054 -0.3723595 -0.17056064
0002c0 83 9f 50 be 59 2e 7c be d5 e3 25 3f 57 95 9e 3e
       -0.20373349 -0.24627055 0.6480077 0.30973312
0002d0 18 da 32 be cf ea 4d be a2 e1 11 be 59 f8 ef 3d
       -0.17466009 -0.20109104 -0.14246228 0.117172904
0002e0 52 10 fb be 2f 8b 4b bd f0 10 3b 3f 94 77 64 3e
       -0.4903589 -0.049693283 0.7307272 0.2231124
0002f0 0e 4f d6 3e 5e 36 5d 3e eb 47 07 3f ad c3 8f be
       0.4185719 0.2160277 0.52844113 -0.28078976
000300 82 9c 2c bf 4b aa 6f 3e 28 6d 4f bf 9c d3 14 bf
       -0.6742631 0.23404805 -0.81025934 -0.5813539
000310 23 fe 61 be e3 6b f0 bd 7b e5 2e bf b3 51 37 bf
       -0.22069602 -0.11739328 -0.6831891 -0.7160904
000320 29 bb eb be 34 68 2f bf b7 f4 60 bd 1d 74 d5 be
       -0.4604123 -0.68518376 -0.05492088 -0.4169015
000330 7d 01 b8 3d 72 c6 8d bd 0f 9e aa be 6b 04 5d 3c
       0.08984659 -0.06922616 -0.33323714 0.013489823
000340 91 e1 6d be 8c 57 c7 bd 2e 4c 82 bf 29 b6 da 3e
       -0.23230578 -0.09733495 -1.0179498 0.42717102
000350 08 ae 2d bf 81 17 4f bf 8f 46 ac 3e d4 ac 39 bf
       -0.67843676 -0.8089524 0.33647582 -0.7252934
000360 2a 29 bf 3e bb 01 b3 be d4 a4 77 be ed 86 01 bf
       0.37336093 -0.34962258 -0.2418397 -0.50596505
000370 2b 09 77 bf 9c a0 c5 be b0 06 8d 3e 9b d0 28 3c
       -0.96498364 -0.38599098 0.27544165 0.010303642
000380 f5 1e 1c 3e fc 91 0b bd de 9c 7c be bb f1 f2 3d
       0.15246184 -0.03407477 -0.24669215 0.11862513
000390 05 e6 a3 be b6 a0 4e be 92 e4 72 be 8c de e5 3d
       -0.32011428 -0.20178494 -0.23720005 0.11224088
0003a0 06 46 25 bf 95 19 33 3c 99 3f 04 bf a9 3c 9c 3e
       -0.6455997 0.010931392 -0.5165954 0.3051503
0003b0 d3 8f b0 be f3 52 3a bd 05 42 3f bf ae f4 d8 be
       -0.3448473 -0.045489263 -0.7471011 -0.42374176
0003c0 85 b7 63 be a7 a3 da 3c 77 8f 92 3d 17 38 51 bf
       -0.22237976 0.026689364 0.0715627 -0.8172621
0003d0 3e d6 9c bc 27 8d de be 38 2a 0f be 84 e2 94 bd
       -0.019145127 -0.43467066 -0.13980949 -0.07269767
0003e0 1b ea e7 3d d0 18 d2 bd 29 95 08 bf f5 ab 95 be
       0.11323949 -0.10258639 -0.533526 -0.29232755
0003f0 23 54 b7 be 2d 25 e1 be 63 27 e2 3e b6 d4 34 bf
       -0.3580638 -0.43973675 0.44170675 -0.7063707

lstm.bias_hh_l0 f4 [256]
000000 86 8d b9 3c 36 96 f4 bd 90 48 4c be 84 0d cc bd
       0.022650491 -0.11942713 -0.19949555 -0.099635154
000010 f6 ee b9 be 4d d0 80 be 78 56 9e be 26 4e 8c be
       -0.36315125 -0.2515892 -0.30925345 -0.27403373
000020 ca 53 55 be 4c 18 81 be 27 91 dc bc b2 bc 88 bd
       -0.20832744 -0.2521385 -0.026924683 -0.06676616
000030 72 c6 e3 bd a8 53 8f be 53 7b b4 be 47 68 f3 3c
       -0.11121835 -0.27993512 -0.3525034 0.02971281
000040 d4 8a df be cf ea ce bd f3 ac 28 be e5 c9 37 bd
       -0.43660605 -0.1010338 -0.16472225 -0.044870276
000050 43 4d 8b be 43 00 19 be cc 0a b3 3c 4d 71 15 be
       -0.27207384 -0.14941506 0.021855734 -0.14594002
000060 a6 a1 76 bd fd 9a a5 be 3d a1 68 3e 79 40 16 be
       -0.060212754 -0.3234481 0.22717758 -0.14673032
000070 7b 3d 73 be 11 a2 55 bd f8 c9 cd bd 9a d1 ea be
       -0.23753922 -0.05215651 -0.10048288 -0.45863038
000080 7e df be 3d 4b ae 10 be 7d 28 cf be 2b 95 36 be
       0.093199715 -0.14128987 -0.40460578 -0.1783034
000090 47 87 d4 be 2c 79 b5 be d2 d6 1c be 86 21 86 bd
       -0.41509458 -0.3544401 -0.15316322 -0.06549363
0000a0 00 77 21 be fd 66 d5 bd 60 71 63 bd ed 47 d9 bd
       -0.15768051 -0.10420034 -0.055528045 -0.10609422
0000b0 3f 85 b4 be a7 60 20 be fb 9f 20 be 51 d7 33 be
       -0.3525791 -0.1566187 -0.15686028 -0.17562605
0000c0 3e 9c 2b bc cc 5c 36 be 79 37 69 be dc d5 a6 be
       -0.010474263 -0.17808837 -0.22775067 -0.32585037
0000d0 73 d1 62 be a3 27 e3 bd 76 1f ba be f7 89 ce be
       -0.22150211 -0.110915445 -0.36352128 -0.40339634
0000e0 37 dc 46 3d 0a 04 a7 3e 5f 5c 89 be de c4 8c be
       0.048549857 0.3262027 -0.26828286 -0.27493948
0000f0 a5 75 d1 ba e9 69 32 be b8 5c 34 bb b1 53 25 be
       -0.0015980495 -0.17423214 -0.0027521085 -0.16145207
000100 09 f4 c4 bc 0f 01 d1 bc 3f 28 84 be b3 aa 8b bc
       -0.024042146 -0.0255132 -0.25811955 -0.01704917
000110 9a 05 b6 bb e5 d0 96 bc b7 13 0d bf 68 60 38 be
       -0.005554867 -0.018410156 -0.5510821 -0.18005526
000120 f1 35 43 be af 10 37 be 42 15 ad bb 6a 71 bc bc
       -0.19063546 -0.17877458 -0.005282075 -0.023003299
000130 12 5f d5 3a 20 ae 88 3d bc dc a1 bd f0 04 61 bd
       0.0016278944 0.06673837 -0.0790343 -0.05493635
000140 05 36 32 bf e7 7a 18 3b f8 63 6a be 5b bb 96 3d
       -0.6961368 0.0023266615 -0.22889698 0.07359954
000150 8a 1a 3e be b4 c4 28 bf 77 16 9e 3d 13 3c af be
       -0.18564811 -0.65925145 0.077191286 -0.3422552
000160 e5 f7 a0 39 1e 5e 21 be 51 61 50 3d 82 0f 83 be
       0.00030702274 -0.15758559 0.05087406 -0.2559777
000170 df 1e 69 be a3 27 6a bc fe a3 cf bc 5c fc c8 bd
       -0.22765683 -0.014291677 -0.025346752 -0.09813759
000180 c2 04 9d 3e 70 9e 61 3e 58 cc b1 be 05 61 ba 3b
       0.30667692 0.22033095 -0.34726214 0.005687835
000190 6c 7e 05 be 63 f8 82 be 3b 24 ef bd 2a a8 e6 be
       -0.13036507 -0.2558013 -0.11676832 -0.45050174
0001a0 f3 e0 26 be 85 e5 c0 bc 33 bd 1a bd ac e6 8e bc
       -0.16296749 -0.023546943 -0.03777809 -0.017443977
0001b0 a1 5d bc 3c c8 e2 5f 3e c8 03 d3 bd 9e 0c e2 bd
       0.022993864 0.21863854 -0.103034556 -0.11037563
0001c0 5f 88 36 bb f9 8c 91 be ee c7 cd 3d c9 56 2b be
       -0.002785228 -0.28427866 0.10047899 -0.16732325
0001d0 a4 b4 07 be 3f 85 07 bf 8b 0b 0f be b6 7f 8c be
       -0.13252503 -0.5293769 -0.13969247 -0.27441186
0001e0 e0 f5 95 be 1d 9d 68 3d 3d fa 0c be f3 9b af 3d
       -0.2928915 0.05679046 -0.13767333 0.08574667
0001f0 43 32 84 3b c7 39 09 be 56 37 5a 3e f8 50 ea bd
       0.004034312 -0.13400947 0.21310171 -0.11441225
000200 51 56 2a 3e ed 2f eb 3c cc dc ae 3e 44 4a 97 3e
       0.1663449 0.028709376 0.3415283 0.29548848
000210 29 51 d6 bd 2d 5b a6 be 19 aa b5 be 10 1e 45 be
       -0.10464699 -0.32491437 -0.35481337 -0.19249749
000220 b0 7a a8 bd c3 27 56 be f8 e3 ee bd cf 94 e1 3e
       -0.08226526 -0.20913605 -0.11664575 0.44058844
000230 e7 8a 65 3e ea 60 2c 3f 68 80 bd be 62 12 d6 3d
       0.22416268 0.6733538 -0.3701203 0.10452725
000240 89 04 2d bd 3c 3c 20 3f c9 fd c6 be cb 53 07 be
       -0.042240653 0.6259191 -0.38865498 -0.13215558
000250 81 5d 51 3e a8 85 c2 3e 89 cb 5b be 8b 8a 81 be
       0.20445825 0.37992597 -0.21464361 -0.25301012
000260 3e 1f 07 bd 69 79 d0 be 92 30 59 3e e2 81 08 3d
       -0.03298878 -0.4071763 0.21209934 0.03332699
000270 26 d3 8f 3e 8a e6 21 3e 6d c7 a2 be d1 98 69 3e
       0.2809078 0.158106 -0.31792775 0.22812201
000280 75 14 f5 be af b7 2e bf 1a a6 27 be 85 00 dc bd
       -0.4786717 -0.6824903 -0.16371956 -0.107422866
000290 0e 91 cf be e7 38 3c bf 19 17 99 bd c5 0e 0a 3f
       -0.40540355 -0.73524326 -0.07475109 0.53928787
0002a0 80 ae 4e bd c7 8b 1f bf 21 95 08 be 9f b7 bf 3c
       -0.050459385 -0.6232266 -0.13338138 0.023402987
0002b0 df 7b 9c be 73 a7 28 3f b7 a5 be be 72 a7 2e be
       -0.30563256 0.6588051 -0.37235805 -0.17056063
0002c0 9c 9f 50 be 49 2b 7c be 41 e3 25 3f a4 95 9e 3e
       -0.20373386 -0.24625887 0.64799887 0.30973542
0002d0 30 db 32 be a4 ea 4d be 47 e4 11 be 02 f8 ef 3d
       -0.17466426 -0.2010904 -0.14247237 0.117172256
0002e0 0b 11 fb be 6e 8d 4b bd 56 10 3b 3f ba 74 64 3e
       -0.4903644 -0.049695425 0.730718 0.22310153
0002f0 5d 4f d6 3e 93 36 5d 3e eb 47 07 3f 39 c3 8f be
       0.41857424 0.2160285 0.52844113 -0.2807863
000300 52 99 2c bf 2b a0 6f 3e 40 6d 4f bf 57 d3 14 bf
       -0.6742145 0.23400943 -0.8102608 -0.5813498
000310 50 f7 61 be 0d 58 f0 bd 1a e5 2e bf b5 51 37 bf
       -0.22066998 -0.11735544 -0.6831833 -0.7160905
000320 c6 b6 eb be 48 69 2f bf bf 36 60 bd a5 77 d5 be
       -0.46037883 -0.6852002 -0.05473971 -0.41692844
000330 16 f9 b7 3d 72 c6 8d bd 11 9e aa be 6b 04 5d 3c
       0.08983056 -0.06922616 -0.3332372 0.013489823
000340 c0 e1 6d be 17 42 c7 bd 37 4c 82 bf fc b2 da 3e
       -0.23230648 -0.097294025 -1.0179509 0.4271468
000350 d5 a9 2d bf 8f 17 4f bf de 46 ac 3e 2f ad 39 bf
       -0.6783727 -0.8089532 0.33647817 -0.7252988
000360 ba 18 bf 3e a6 01 b3 be 22 9f 77 be 44 88 01 bf
       0.37323552 -0.34962195 -0.24181798 -0.5059855
000370 3e 04 77 bf 61 a3 c5 be b6 05 8d 3e 69 69 28 3c
       -0.9649085 -0.3860121 0.2754342 0.010279038
000380 67 19 1c 3e d1 91 0b bd b1 9d 7c be 4e f6 f2 3d
       0.15244065 -0.03407461 -0.2466953 0.11863385
000390 2d de a3 be b4 9f 4e be 90 e8 72 be 3b df e5 3d
       -0.32005444 -0.2017811 -0.23721528 0.112242185
0003a0 e6 45 25 bf f8 39 33 3c 87 3f 04 bf ad 3d 9c 3e
       -0.6455978 0.010939114 -0.51659435 0.30515805
0003b0 61 8f b0 be fb 42 3a bd e6 41 3f bf d4 f3 d8 be
       -0.3448439 -0.045474034 -0.7470993 -0.42373526
0003c0 bc b7 63 be eb 07 db 3c fe 91 92 3d 66 38 51 bf
       -0.22238058 0.026737174 0.07156752 -0.8172668
0003d0 e5 c4 9c bc 37 99 de be f1 27 0f be cb 50 95 bd
       -0.019136855 -0.4347627 -0.1398008 -0.07290801
0003e0 0f e0 e7 3d d2 1a d2 bd 0e 95 08 bf fb ab 95 be
       0.11322033 -0.10259022 -0.5335244 -0.29232773
0003f0 8d 56 b7 be 81 20 e1 be 78 27 e2 3e d0 d4 34 bf
       -0.3580822 -0.4397011 0.44170737 -0.70637226

fc.weight f4 [50, 64]
000000 1f b2 61 be b9 a8 a8 3e db cc ac be c9 db bc bd
       -0.22040604 0.32941225 -0.33750042 -0.09221608
000010 76 2d ee 3b df cd 61 bd 2b e9 35 3e 23 d5 d8 3d
       0.007268603 -0.055127975 0.17764728 0.105875276
000020 84 29 14 be 04 72 fd 3d 91 d5 9e bd 5b ef c7 3a
       -0.14468962 0.123752624 -0.07755578 0.0015253829
000030 6e 89 0b 3e d9 da b6 be 7f 4f ec 3e b7 3e b9 3d
       0.13626644 -0.35713843 0.461544 0.09045165
000040 80 89 9c be 72 45 df be 7b b0 8e bc e2 74 a1 3e
       -0.30573654 -0.4360767 -0.017418137 0.31534487
000050 91 28 07 be 2c a6 94 be 9d 8e 9a bd 83 4e af 3d
       -0.13199069 -0.2903303 -0.075467326 0.08559897
000060 fb 5c bc be 9d f6 f0 3e ee 7f 3f bc 6d 7a 03 be
       -0.36789688 0.4706315 -0.011688216 -0.1283967
000070 2f ae 13 3e d5 c1 b2 be 05 0b 78 3e cc 87 33 3e
       0.14421915 -0.34913507 0.24222954 0.17532271
000080 66 e4 8f 3e 70 a7 ef 3e 3d 9c d5 3d fa 30 49 3d
       0.28103942 0.46807432 0.10430191 0.049118973
000090 f7 41 04 3f a0 30 f7 3e 13 3d 7c 3e 59 71 6c 3d
       0.51663154 0.48279285 0.24632673 0.057725284
0000a0 37 b5 85 3b 9f 76 f8 3e 20 d3 59 3e ab 2a 7c be
       0.0040804404 0.48528 0.21271944 -0.24625652
0000b0 4f 8d 0b 3f 40 5c ef be 53 76 ff 3d dc d2 14 3e
       0.54512495 -0.4675007 0.124737404 0.14533561
0000c0 59 c7 f4 bd eb 82 7e bd 9f 7e e1 be 24 bb 9a be
       -0.11952085 -0.06213657 -0.44041917 -0.30220902
0000d0 b4 b6 02 be 8e 38 e7 bd c1 1c 7e be b2 dd c3 3e
       -0.12765008 -0.11290084 -0.24815656 0.38255078
0000e0 92 b7 ac bd f5 0d 33 bd 6d 1f 87 bd dc b7 0f bf
       -0.08433451 -0.043714482 -0.06597791 -0.5613992
0000f0 62 5a a8 3c 29 3c 0e be 32 f2 8b be 3f c5 ed 3d
       0.02055091 -0.13890137 -0.27333218 0.11609887
000100 71 fe a4 bc 2b 01 eb 3e 67 03 65 be bd 51 05 3e
       -0.020140858 0.4589933 -0.22364579 0.13019462
000110 d8 22 10 3e 3e c1 43 3c a2 ce 81 bb 3a 69 0f 3e
       0.14075792 0.011947928 -0.0039614 0.14004984
000120 2c 25 88 be 59 76 25 3e ad c0 80 be 30 81 7c 3e
       -0.2659086 0.16158427 -0.25147 0.24658656
000130 79 0c e1 3e c6 a7 e2 be 29 91 ba 3e a6 85 6b bd
       0.43954828 -0.44268626 0.36438873 -0.057500504
000140 8e ff 84 be ae 15 aa be 44 03 05 3e 56 c4 10 3f
       -0.25976223 -0.33219665 0.12989527 0.56549585
000150 be 39 24 be a8 f7 25 be c5 26 a5 be bc 5e bf 3d
       -0.16037652 -0.16207755 -0.3225614 0.09344241
000160 03 7a 19 bf ab a9 c6 3e 08 1f 9e be bd f6 35 be
       -0.599518 0.3880132 -0.3088305 -0.17769904
000170 06 65 30 3d 00 8d 41 be 82 52 f1 3e 71 7b 21 3e
       0.043065093 -0.18901443 0.4713326 0.15769745
000180 71 e8 0a 3f 2c 5d 0e 3f 41 8f 42 bd 98 11 a5 3d
       0.5426093 0.5561092 -0.0474999 0.08059996
000190 37 03 06 3f c6 c9 05 3f c1 50 c9 3e dd 58 c5 3e
       0.52348655 0.52261007 0.39319423 0.3854436
0001a0 1f 15 86 bd 45 0f 08 3f e9 61 0a bd 68 18 08 bf
       -0.06546997 0.531483 -0.03378478 -0.5316224
0001b0 52 40 1a 3f 65 72 11 bf 13 a5 24 3e fd 0a 47 3e
       0.60254395 -0.5681518 0.16078596 0.19437785
0001c0 a9 87 d1 be 9d 5e da be 27 c3 1a bf ec 63 5f be
       -0.40923813 -0.4265031 -0.6045403 -0.21815461
0001d0 d6 27 c2 be d8 a5 18 be e4 a3 56 be de 26 52 3e
       -0.37921017 -0.14907014 -0.20960957 0.20522639
0001e0 f5 5d d7 be ab a6 99 be 80 0f 20 be 50 77 13 bf
       -0.4206387 -0.3000997 -0.15630913 -0.5760393
0001f0 34 c7 6f 3e 5b bc 33 be ec a1 10 bf 3f 4c 00 3e
       0.23415834 -0.1755232 -0.56497073 0.12529086
000200 9e 26 34 3e 9e 7b 10 3c 34 16 fa 3e b8 79 36 3e
       0.17592856 0.008818535 0.48845065 0.1781987
000210 32 86 ff 3d 79 c2 a8 3c 47 2b 9b bd a6 6d 85 3e
       0.124767676 0.020600544 -0.07576614 0.26060218
000220 8d 37 52 be 77 da 86 3e 82 d6 03 bf fc 29 89 3e
       -0.20529003 0.2633855 -0.5149919 0.26789844
000230 6b e3 8b bd 47 bb bd 3e 7c d2 08 bf 6c 92 07 3c
       -0.06830486 0.37056944 -0.53446174 0.008274656
000240 8e e6 2d 3e 4e b4 c0 3e 31 eb 6d be a4 8f 97 3d
       0.16982481 0.37637562 -0.2323425 0.07400444
000250 c3 67 87 be 1e 5f 01 3f 25 01 ee 3d dd c8 7b 3e
       -0.2644635 0.5053576 0.11621312 0.24588342
000260 bf cd d2 bd 66 3f 09 bf eb 06 8f 3e b1 a0 9b be
       -0.10293149 -0.53612363 0.27934965 -0.30396035
000270 94 f2 0f 3e 42 06 0d 3f db cc 51 3c c8 44 51 bd
       0.1405738 0.55087674 0.012805189 -0.051090986
000280 bc 55 bd 3d 60 0e b4 be 06 09 46 be 78 5b 11 bd
       0.09244868 -0.35167217 -0.1933938 -0.035487622
000290 4a aa f8 be 51 d1 e4 be 14 44 98 3d b9 b1 05 be
       -0.4856742 -0.44690946 0.0743486 -0.13056077
0002a0 bd 95 18 3e 68 1f d5 be f8 ce 81 be 79 67 97 bd
       0.1490087 -0.41625524 -0.25353217 -0.07392783
0002b0 5d f7 e0 be 8d eb b6 3e 5e 72 7b 3e 41 b9 ee 3e
       -0.43938723 0.35726586 0.24555346 0.46625713
0002c0 b0 b2 4c 3d 8e fd 2d 3d 67 a5 c5 3e 96 05 cf 3e
       0.049975097 0.042478137 0.38602754 0.4043395
0002d0 c9 45 a6 bd 8a 0c ee be e5 d4 3d 3d e4 ac 04 bf
       -0.08118779 -0.46493942 0.04634561 -0.5182631
0002e0 26 0f 17 3e 2f 90 62 3e a0 80 e8 3d 8c bf e4 3e
       0.14751872 0.22125314 0.11352658 0.4467739
0002f0 db 9e 83 3e e0 44 f4 be ad a5 88 bd 10 95 80 3e
       0.25707135 -0.47708797 -0.06672225 0.25113726
000300 9a 92 30 3e 74 a0 02 be 4d ac ca 3e 44 70 b2 3d
       0.17243424 -0.1275652 0.3958458 0.08712819
000310 bf 1b 97 3c 99 a3 1f 3c 1c 57 10 be 19 cb 53 bd
       0.018445848 0.009743595 -0.1409573 -0.05170736
000320 dd 7b 0c 3d da ee 65 bd c0 ac f2 bb eb 86 08 bc
       0.034297813 -0.05613599 -0.0074058473 -0.008332948
000330 69 e8 a2 39 8a 8b b1 3e 15 4b bf be 86 a4 07 bd
       0.00031072207 0.34676772 -0.3736197 -0.033115886
000340 b0 8c bb 3e 09 e0 d0 3e 69 a8 e8 bd 96 a2 11 be
       0.36630774 0.40795925 -0.11360247 -0.14222178
000350 6b 7e 88 3d 9f 42 b4 3e c1 ab 12 bc 3a de 09 bd
       0.06664737 0.35207078 -0.008952082 -0.033659197
000360 9e 85 41 3e 6b 13 c1 be 10 ad 08 bd 70 d0 3d 3d
       0.18898627 -0.37710127 -0.03336817 0.04634136
000370 9c 41 4e 3b 02 64 d2 3e 25 29 2c bd 6d 91 cb bd
       0.0031472212 0.41091925 -0.042031426 -0.09939847
000380 c1 a0 cc bd 9f 28 d5 be 6d 12 b3 bd 4e c1 77 bd
       -0.09991599 -0.41632554 -0.08743749 -0.060487084
000390 94 9b d0 be cd 71 ca be e6 c5 c0 bd fc a8 b0 3c
       -0.40743697 -0.39539948 -0.09412746 0.021564953
0003a0 fe 1c 50 bc 3c c1 d5 be 11 81 ca bd d3 bb 5e 3d
       -0.012702225 -0.4174899 -0.09887899 0.054378342
0003b0 b1 fa e3 be 86 e2 d3 3e c6 93 0d bd ee 64 66 bd
       -0.445272 0.4138376 -0.034564756 -0.056248598
0003c0 1f f7 b8 bb b2 30 bb bc b3 56 c7 3e 36 54 b0 3e
       -0.0056446935 -0.022850368 0.38933334 0.34439248
0003d0 b7 42 d4 3c dc 07 d9 3c d4 b5 21 3e 1e e6 db be
       0.025910718 0.026493005 0.15792018 -0.42949003
0003e0 6f eb c1 bb ca 45 c0 bc 41 40 12 3e 93 e3 ed 3e
       -0.0059179584 -0.023470778 0.14282323 0.46462688
0003f0 e0 b3 d2 bc 2e e0 7a 3d 2b c6 c6 3d 9e 8b 1d bd
       -0.025720537 0.06124895 0.09705766 -0.038463227

fc.bias f4 [50]
000000 4a 20 4a bf af bc 86 bf 9c 0a 82 3e b2 f7 0a 3f
       -0.7895552 -1.0526332 0.2539872 0.54284203
000010 9e 1d 80 3f 75 07 1d 3f f1 46 d9 3e 3f b6 87 bf
       1.0009038 0.61339504 0.42436936 -1.0602492
000020 0d 38 65 3f c5 70 9f 3f f0 5a 4a bf 54 66 69 3f
       0.8953865 1.245629 -0.7904501 0.91171765
000030 e2 51 86 bf ee 34 8b 3f 68 cc 6f bf c6 b6 a9 bf
       -1.0493739 1.0875528 -0.93671274 -1.3258903
000040 59 18 3e 3f b7 f5 67 bf 4b a7 0c 3f f3 8b 78 bf
       0.742559 -0.90609306 0.5494277 -0.97088546
000050 d1 d7 62 bf 6b 33 60 3f 0a 9b 5b 3f eb 62 38 bf
       -0.8861056 0.8757846 0.85783446 -0.72025937
000060 14 43 23 bf be c8 8a bf 4b e5 94 3f 61 3c 79 3f
       -0.6377423 -1.0842512 1.1632475 0.97357756
000070 13 b0 42 3f 92 c6 61 bf 4d ba 96 3f f1 1c 99 bf
       0.7604992 -0.8819362 1.1775604 -1.1961957
000080 14 4b 07 3f 5d 74 8c bf 38 b5 7f 3f 04 f1 8a bf
       0.52848935 -1.0973011 0.9988589 -1.0854802
000090 b3 36 71 3f 89 86 96 3f 88 af 2d 3f 38 fe 74 bf
       0.9422409 1.1759807 0.67845964 -0.9570041
0000a0 fb 76 3e 3f c8 97 4a bf 45 bb 84 bf ee b7 36 bf
       0.744003 -0.7913785 -1.036965 -0.71374404
0000b0 eb c6 62 3f 8c 46 8a 3f 4f 23 87 3f 16 56 6a 3f
       0.88584775 1.0802779 1.055765 0.91537607
0000c0 5d f5 61 bf be f7 7a 3f
       -0.8826502 0.98034275

decoder.0.weight f4 [64, 50]
000000 9b ba 44 3c c7 39 c1 3b c5 1a f8 bb 5e 41 3f bc
       0.012007381 0.00589678 -0.0075715506 -0.0116733
000010 42 2d ae bc 9f 5b 4f bc 31 7e 97 bb c7 96 ae ba
       -0.021261815 -0.0126561215 -0.0046231975 -0.0013320082
000020 75 30 c6 bc 88 6c 79 bc 3e bc 19 3c 57 d3 fc ba
       -0.024193028 -0.01522363 0.009383259 -0.0019289058
000030 ff c2 0c 3c cf 70 b4 bb 5f c7 29 38 50 ee a8 3a
       0.008591413 -0.005506612 4.047842e-05 0.0012888405
000040 21 6b d0 b8 a7 4d 46 bc 70 da 58 bc df 91 62 bb
       -9.938167e-05 -0.012103475 -0.013235673 -0.003457181
000050 b0 7f b3 3b 36 90 b2 3a 7c f7 82 bc 62 0f f1 ba
       0.005477868 0.00136233 -0.01598715 -0.0018391425
000060 74 cb 32 3c a9 ae 42 3b a8 5f 32 bb c3 18 e3 3b
       0.010912765 0.0029706156 -0.002721766 0.006930442
000070 6d 8d 8f 39 5b 84 5f 3c 50 1a f7 bb 43 86 aa 3c
       0.00027380456 0.013642396 -0.0075409785 0.020815974
000080 91 55 35 b9 1c f7 ef 3c 6d 35 45 bb 6d 7e 6e 3c
       -0.00017293381 0.029292636 -0.0030091659 0.014556509
000090 fd d4 2f 3a 12 57 30 bc 06 03 0a bb 0a cd dd ba
       0.0006707458 -0.010762947 -0.002105893 -0.0016922068
0000a0 5e 64 8e bc 40 40 d4 ba bb 62 24 ba 45 6d 98 3c
       -0.017381843 -0.0016193464 -0.00062708155 0.018606791
0000b0 d1 60 75 b8 07 ca 78 ba 6d 99 a6 bb c8 31 7f bb
       -5.850272e-05 -0.00094905536 -0.0050842077 -0.0038939584
0000c0 a3 dd b7 b9 88 af 0c bb bc 86 dd 34 8a e0 6d 37
       -0.00035069612 -0.002146693 4.126249e-07 1.417858e-05
0000d0 3e 34 f8 b7 f5 ff 67 b7 4b 5d f9 b6 c1 3c 9d b3
       -2.9588231e-05 -1.3828268e-05 -7.431639e-06 -7.321933e-08
0000e0 c8 3c 67 39 2f 2f 81 38 2b 8f 0d b8 62 ab 12 b4
       0.0002205252 6.159988e-05 -3.3750355e-05 -1.3659658e-07
0000f0 3c e7 6c b5 a5 f1 1d b4 d3 4b a1 36 37 a0 08 b6
       -8.825334e-07 -1.4709674e-07 4.807001e-06 -2.0358837e-06
000100 dd e3 bc b4 d8 79 de 38 2d 38 08 b7 e2 16 a3 38
       -3.518352e-07 0.0001060848 -8.119311e-06 7.776708e-05
000110 ca ea 36 36 64 9b 47 38 fe d5 b4 b6 bb 9c 47 35
       2.7256779e-06 4.7590016e-05 -5.38933e-06 7.436135e-07
000120 43 c0 a7 b7 a9 74 5d 37 11 d6 69 b5 6d 14 84 34
       -1.999748e-05 1.3199789e-05 -8.711077e-07 2.4601778e-07
000130 12 44 2d b7 54 cd ee b7 88 d6 00 38 d7 79 45 38
       -1.0327452e-05 -2.8467424e-05 3.0717376e-05 4.7081932e-05
000140 b2 f0 59 b6 73 56 04 33 2f 78 9c 36 d6 0c be 37
       -3.2475623e-06 3.081227e-08 4.6631535e-06 2.2655742e-05
000150 29 8b 01 ba e5 90 57 b5 85 c4 2c 33 52 21 e5 b6
       -0.0004941696 -8.030459e-07 4.0225604e-08 -6.828611e-06
000160 28 22 8d 36 52 0a 23 b5 c9 96 62 38 22 74 1b b6
       4.2061038e-06 -6.073725e-07 5.402303e-05 -2.3164398e-06
000170 0f f2 95 b7 84 53 3d 37 0a fa 2d b6 9d e0 7d b7
       -1.7874901e-05 1.1284723e-05 -2.592455e-06 -1.5132272e-05
000180 4f 1f af b5 d8 76 d6 35 8b 1a c0 b5 56 d7 14 37
       -1.3047628e-06 1.597883e-06 -1.431284e-06 8.871624e-06
000190 20 bb 79 92 e7 98 2a 11 89 5a 34 92 a3 90 84 91
       -7.8801196e-28 1.3457752e-28 -5.690958e-28 -2.0915067e-28
0001a0 92 73 e0 91 cc 06 99 10 8b e1 d9 11 3a 41 37 13
       -3.5412194e-28 6.035833e-29 3.4375565e-28 2.3130006e-27
0001b0 d7 6e 1c 91 fd d1 a8 13 18 3d 59 90 bd 2f 67 11
       -1.2340385e-28 4.2616227e-27 -4.284277e-29 1.8237397e-28
0001c0 a0 42 28 9c c7 3e 8a 11 b8 ae cd 90 d6 17 fb 97
       -5.567265e-22 2.181125e-28 -8.112744e-29 -1.6226512e-24
0001d0 ab c0 e1 91 b6 7c 76 92 4d ed 87 91 69 b0 58 1a
       -3.5617482e-28 -7.777763e-28 -2.1445492e-28 4.4810256e-23
0001e0 a1 27 19 93 be b0 ba 90 1d 7d 31 11 72 80 01 92
       -1.9330854e-27 -7.363638e-29 1.4001392e-28 -4.0863544e-28
0001f0 c0 c8 77 12 c4 03 e8 94 c9 f7 6b 12 3d f7 a1 10
       7.81869e-28 -2.3427499e-26 7.4458344e-28 6.3884234e-29
000200 02 bd 04 92 70 f1 2a 90 c6 18 10 11 5f b7 83 12
       -4.1884826e-28 -3.3712585e-29 1.1367231e-28 8.312467e-28
000210 22 f4 dc 91 6f e6 85 12 62 bf c0 11 87 13 8b 11
       -3.4860338e-28 8.450286e-28 3.0410208e-28 2.1942368e-28
000220 4e b8 82 92 cc fe d9 10 81 eb 76 91 97 7b b7 11
       -8.249588e-28 8.5983985e-29 -1.9478549e-28 2.8948477e-28
000230 63 b7 60 91 c7 29 b3 10 71 f3 ba 12 70 c1 8c 11
       -1.7726995e-28 7.066742e-29 1.1798263e-27 2.220732e-28
000240 46 55 ca 92 2a ef e0 90 f4 b6 7a 12 fa 41 61 12
       -1.2769014e-27 -8.872091e-29 7.91116e-28 7.1078804e-28
000250 2b ae a7 13 26 12 a3 13 d7 84 a4 a9 88 61 2e a9
       4.232847e-27 4.116488e-27 -7.306107e-14 -3.8720356e-14
000260 9b 74 f1 a8 05 05 11 aa 6e 5a 05 aa fa c0 9b a8
       -2.6806944e-14 -1.2880329e-13 -1.1844147e-13 -1.7292147e-14
000270 75 a7 5b a9 5d c4 60 a9 c6 51 a7 a9 1a 6b bf a8
       -4.8773014e-14 -4.990831e-14 -7.430475e-14 -2.1251708e-14
000280 d0 fe 20 29 c4 02 9f a9 50 a5 d1 29 dd 23 d5 28
       3.574815e-14 -7.061498e-14 9.3101416e-14 2.3663304e-14
000290 72 b8 94 aa 5c 51 b8 a9 1f 95 33 29 48 0e f2 a7
       -2.6418066e-13 -8.185355e-14 3.9875326e-14 -6.7183977e-15
0002a0 c2 c9 ac 29 74 1e 28 29 f4 ca 59 2a cb 71 50 2a
       7.673334e-14 3.7329908e-14 1.9343885e-13 1.8513591e-13
0002b0 96 ae 75 29 21 f3 28 a9 2d 6d 96 29 b6 e1 97 29
       5.4552357e-14 -3.7514374e-14 6.680277e-14 6.744902e-14
0002c0 56 cc 7b 29 d6 18 3e aa 85 d4 7d aa 42 f1 1b aa
       5.591043e-14 -1.6884007e-13 -2.2544647e-13 -1.3850469e-13
0002d0 f5 b1 00 a8 6d be 75 29 d9 94 5c a9 46 72 35 2a
       -7.144016e-15 5.4566096e-14 -4.8978918e-14 1.6115676e-13
0002e0 3e a2 2a 29 7c d9 a4 aa 76 f5 83 a6 ca b0 7d aa
       3.7888306e-14 -2.9283162e-13 -9.156483e-16 -2.253225e-13
0002f0 b1 94 ca a8 40 1f 29 29 af 2c bb a9 ae 54 7b 28
       -2.249099e-14 3.7552643e-14 -8.3122196e-14 1.3951661e-14
000300 2d 67 58 a9 c7 df d3 a8 0b ef eb a9 40 fb e5 29
       -4.8051125e-14 -2.3522754e-14 -1.0477564e-13 1.0213228e-13
000310 f2 f7 94 29 62 b8 a7 aa 14 35 fc a9 a2 f5 89 28
       6.615532e-14 -2.97931e-13 -1.1200256e-13 1.5316582e-14
000320 7e d7 3c 33 93 4b 06 35 44 bf 64 33 b2 6b 26 34
       4.396815e-08 5.0028865e-07 5.3259342e-08 1.5499134e-07
000330 08 db cd 33 3f 54 f4 b0 60 d4 f1 33 59 24 e0 34
       9.585898e-08 -1.7777281e-09 1.1261068e-07 4.1749698e-07
000340 9e 52 1e b5 a4 32 71 34 7a 2a 5f b5 1a db 2e b5
       -5.897981e-07 2.2463297e-07 -8.3135785e-07 -6.5138886e-07
000350 d8 5c 0b 35 b0 54 21 b4 34 62 da 33 f0 ee a8 b4
       5.191664e-07 -1.5025103e-07 1.0169279e-07 -3.1466288e-07
000360 f0 9f ca b4 56 b6 72 b4 36 f3 16 35 0c be 31 b5
       -3.7741802e-07 -2.260434e-07 5.6233273e-07 -6.6214193e-07
000370 ce 53 d0 33 46 b4 e7 34 3b 06 ea b4 ca d5 41 35
       9.700999e-08 4.315827e-07 -4.359043e-07 7.2209207e-07
000380 7a ce 1a b5 86 81 1d 33 bc 9d d6 34 2a c1 b5 33
       -5.7669934e-07 3.6672212e-08 3.9975373e-07 8.4636056e-08
000390 b1 98 2d b4 04 78 9a b2 e8 0c cc 34 4f 09 73 34
       -1.616743e-07 -1.7982536e-08 3.8007352e-07 2.2634525e-07
0003a0 d9 82 84 33 ba 42 37 34 39 b6 40 b4 e4 33 f6 b3
       6.17053e-08 1.7067478e-07 -1.7947686e-07 -1.14647065e-07
0003b0 10 d5 67 33 7f 67 1e 34 64 82 64 b2 32 d8 d2 b4
       5.3977658e-08 1.4752548e-07 -1.3300994e-08 -3.927285e-07
0003c0 72 40 dd 34 fc 6b fc 34 ba 3b 18 b5 88 da d9 b3
       4.1211348e-07 4.7017227e-07 -5.6711326e-07 -1.01446005e-07
0003d0 22 39 aa b3 bd fb 04 b4 59 f6 9d b3 ab 46 c2 33
       -7.926634e-08 -1.238504e-07 -7.3556926e-08 9.0466834e-08
0003e0 71 b3 3a b3 e3 4d b9 34 58 da 52 38 34 c3 55 3a
       -4.34697e-08 3.4515605e-07 5.027125e-05 0.00081543927
0003f0 c1 38 86 b8 e8 92 25 b8 62 0c d1 38 04 22 13 b8
       -6.400189e-05 -3.9475883e-05 9.968203e-05 -3.507921e-05

decoder.0.bias f4 [64]
000000 22 5c 12 bd bf 72 50 bd 14 26 04 b3 88 1f 8e b8
       -0.035732396 -0.05089068 -3.0768277e-08 -6.776961e-05
000010 33 29 a0 bd f0 50 3c bd 48 d7 6b bf f4 6f f7 be
       -0.07820358 -0.045975626 -0.9212537 -0.483276
000020 d1 aa d1 bc ed 0a 6b b6 e2 cb a5 ba fb 3c c7 be
       -0.025594147 -3.5024088e-06 -0.0012649263 -0.38913712
000030 40 62 dd ae f9 28 3a bd c0 ca f1 bc 38 5d 40 b0
       -1.0067369e-10 -0.04544923 -0.029515624 -6.9981665e-10
000040 8d 9e 11 bd 17 d0 2f bd 8f 82 6b a7 92 93 32 ab
       -0.035551596 -0.04292306 -3.2683577e-15 -6.34431e-13
000050 46 36 89 b1 99 64 fb bd bb 85 cd bd 4d e8 02 b3
       -3.993395e-09 -0.12275047 -0.10035273 -3.047926e-08
000060 c3 3a a4 b0 5f 3b b2 be 0a 1e 9f bd 12 b4 4b bd
       -1.1949272e-09 -0.34810922 -0.07769401 -0.049732275
000070 08 23 5b b9 44 57 e8 be 18 ac 3d bf 8e 25 4e b1
       -0.00020898518 -0.45379078 -0.7409072 -2.9998293e-09
000080 32 27 6c ae 38 2f ef bd a7 a1 b3 bd e9 bb dc ba
       -5.3695e-11 -0.11678928 -0.08771067 -0.001684067
000090 bd 76 e2 bd c2 12 43 bd 30 f8 91 b3 97 04 cb bd
       -0.11057804 -0.04762531 -6.797234e-08 -0.09912985
0000a0 1b 53 27 bf 2d c4 f7 be 22 db 0b be ab 15 9a b3
       -0.65361184 -0.48391858 -0.13657811 -7.175125e-08
0000b0 8e f2 53 be 6b a3 af aa e4 d9 06 be 2f b0 a3 bd
       -0.20697996 -3.119964e-13 -0.13169056 -0.07992589
0000c0 00 39 41 bf c4 50 b1 b4 e3 c3 10 bf fd c4 99 bb
       -0.754776 -3.3027584e-07 -0.565489 -0.0046926723
0000d0 23 99 96 b1 01 25 7d bd 1d 42 0b bd 90 dc ba bc
       -4.382984e-09 -0.061802868 -0.033998597 -0.02281025
0000e0 dd 99 f2 b6 9d b6 dc bd 42 ad d2 bd d5 67 a3 a8
       -7.230074e-06 -0.10777018 -0.102869526 -1.8141665e-14
0000f0 68 e0 dd b6 f7 d2 9f b7 47 86 18 bf 3d a3 21 be
       -6.6124376e-06 -1.9052515e-05 -0.5957989 -0.15784927
