checkpoints/checkpoint_epoch_250.pth (torch, 314812 bytes, 30 tensors)

lstm.weight_ih_l0 f4 [256, 2]
0.20122364 0.00059152587 -0.39179313 -0.000545899 0.560452 -0.1403088 0.09069073 -0.0011137065
-0.07948283 0.0046958732 -0.059883688 -0.007177821 0.36189848 0.00071969547 0.36277357 0.0024846331
-0.09294432 0.025796512 -0.051766276 0.005417593 0.020416234 0.0025339476 0.009041622 -0.0008602656
-0.027463093 -0.0040838835 -0.43716875 -0.20500393 -0.03941281 0.005992877 0.08978356 -0.0013718598
-0.5920078 0.0004083326 0.005745695 0.0032471272 0.14758344 -0.0005472987 0.5489335 -0.0022503196
0.4013363 -0.0006472603 0.14711368 0.0019170627 0.30316973 -0.000830072 0.2591085 0.003385137
0.4589006 3.2811186e-05 0.09831328 0.00024781234 -0.1966719 -0.011089418 0.120191544 -0.009575675
0.15798089 0.00015983806 0.13049203 -0.009393103 0.12121903 0.009220199 -0.16593593 0.0069655925
-0.012570878 0.0078831995 -0.3062073 -0.09959702 -0.1542953 -0.002737213 -0.50840235 -0.003575637
-0.14422134 0.00034812852 -0.18532477 -0.015004271 -0.28130227 -0.065694965 0.2940285 -0.010336872
0.118933976 0.0014087012 0.18774273 -0.00069375074 -0.38922402 -0.003523557 0.045990147 0.0007581671
-0.3383585 -0.15816236 -0.0631825 0.0020850953 -0.43827862 -0.020275036 0.09017845 0.00083420076
0.014686363 0.010087161 0.4095194 -4.8587826e-05 0.025057489 0.026454326 0.24896649 0.0003062184
-0.021935306 -0.0007654072 0.34731326 0.00044072125 -0.36285013 -0.066350505 -0.07271526 0.0006107035
0.0070848903 -0.002822262 -0.360852 -0.18175013 -0.37291962 -0.006819686 0.40349475 -0.010307639
0.1529265 -0.002431091 -0.04471269 0.030755447 0.11055704 0.00015832475 -0.12830898 -0.010389028
0.08369701 -2.084188e-05 -0.008748555 -0.0002908744 0.26568142 0.0007957907 0.5456251 -0.01576111
-0.03740649 0.0043497765 -0.25852525 -0.014405009 0.17483869 0.00023723197 0.14981475 0.014255932
-0.08862747 0.006858836 -0.04773111 0.008048438 0.018623577 0.00014112411 -0.051135883 -0.0010525192
-0.02150581 0.003703618 -0.29254884 -0.065388046 -0.30998412 -3.408041e-05 -0.030344421 -0.0022340887
-0.3937136 9.481742e-05 -0.21653987 0.0005970141 -0.021513525 0.0022404825 0.07967058 -0.0017853815
-0.012316476 -0.0030739848 0.19773136 5.179193e-05 -0.023688333 0.0023706811 -0.05839652 -0.009852357
0.27683443 0.00017360503 0.04640022 0.0021514627 -0.020082138 -0.0049885376 -0.10700404 0.014613176
-0.00538806 -0.009627115 0.07734588 0.011378038 0.30313006 -0.001425826 -0.08587245 -0.0016391615
-0.010591316 0.011177444 -0.13828498 -0.025427662 -0.057112128 -0.001585915 -0.053765718 -0.0042339787
-0.110034 -0.011700141 -0.07462213 0.0068432 -0.12959754 -0.015232424 -0.16764009 -0.008997445
0.015076943 0.0046975855 0.06673655 -0.00559509 -0.42158297 -0.00059912197 0.1492681 -0.0019557357
-0.27812985 -0.09172822 -0.31362763 0.00021453387 -0.1250929 -0.0033515266 0.06369398 0.0035680498
-0.032008544 0.0129462425 0.027491974 0.0036256083 0.30012703 -0.03678703 0.44325712 -0.025986621
-0.21144845 0.00015815975 0.23503625 0.0019564477 -0.2752422 -0.0075548408 0.08650557 0.00025005676
-0.006881064 -0.0013873823 -0.19686815 -0.061534353 -0.109649345 -0.0006304371 0.5011415 -0.041047994
0.11511504 -0.006249462 0.28595355 0.00862594 -0.1310753 0.010697188 -0.013072455 -0.0030171042
00000000: 920d 4e3e a110 1b3a 1c99 c8be a91a 0fba
00000010: c879 0f3f 1cad 0fbe 10bc b93d caf9 91ba
00000020: e5c7 a2bd d7df 993b 9948 75bd ed33 ebbb
00000030: c24a b93e f2a9 3c3a 75bd b93e 3ad5 223b
00000040: 9759 bebd 3553 d33c e008 54bd 1086 b13b
00000050: f23f a73c 9610 263b 5023 143c 7283 61ba
00000060: 48fa e0bc 19d2 85bb 95d4 dfbe 8dec 51be
00000070: 546f 21bd e55f c43b 71e0 b73d facf b3ba
00000080: d38d 17bf 7915 d639 6246 bc3b c1cd 543b
00000090: 1d20 173e 9878 0fba e886 0c3f 197a 13bb
000000a0: f47b cd3e e7ac 29ba f8a4 163e f345 fb3a
000000b0: 1039 9b3e 3099 59ba dfa9 843e 2dd9 5d3b
000000c0: 05f5 ea3e be9e 0938 7958 c93d cfec 8139
000000d0: 5c64 49be 64b0 35bc fc26 f63d 4be3 1cbc
000000e0: bec5 213e 349a 2739 b49f 053e 88e5 19bc
000000f0: af41 f83d 5110 173c 1ceb 29be a03f e43b
00000100: 15f6 4dbc 8928 013c 34c7 9cbe 86f9 cbbd
00000110: 96ff 1dbe d062 33bb a826 02bf 3c55 6abb
00000120: c2ae 13be 0585 b639 c7c5 3dbe 79d4 75bc
00000130: da06 90be 158b 86bd e78a 963e fc5b 29bc
00000140: a893 f33d 2ba4 b83a a13f 403e d3dc 35ba
00000150: 5f48 c7be 7aeb 66bb 2a60 3c3d bcbf 463a
00000160: 533d adbe 50f5 21be d465 81bd 18a6 083b
00000170: 0e66 e0be d517 a6bc 7baf b83d 44ae 5a3a
00000180: 129f 703c 9f44 253c 87ac d13e c8ca 4bb8
00000190: 5d45 cd3c beb6 d83c 12f1 7e3e f08b a039
000001a0: acb1 b3bc 9ca5 48ba 0bd3 b13e 9b10 e739
000001b0: 7ec7 b9be c6e2 87bd bdeb 94bd 9e17 203a
000001c0: 5e28 e83b b3f5 38bb 98c1 b8be b51c 3abe
000001d0: 52ef bebe ac77 dfbb dd96 ce3e 5fe1 28bc
000001e0: c498 1c3e f052 1fbb a724 37bd d9f2 fb3c
000001f0: bb6b e23d fa03 2639 6e63 03be be36 2abc
00000200: 5769 ab3d 99d5 aeb7 1956 0fbc 8080 98b9
00000210: 6507 883e 9c9c 503a 16ae 0b3f 711d 81bc
00000220: 8c37 19bd 9288 8e3b 6c5d 84be fd02 6cbc
00000230: ea08 333e 79c1 7839 0a69 193e b691 693c
00000240: 5282 b5bd 16c0 e03b b281 43bd 98dd 033c
00000250: 7990 983c b7fa 1339 dc73 51bd aff4 89ba
00000260: f42c b0bc 66b8 723b f6c8 95be 2bea 85bd
00000270: 3db6 9ebe 90f1 0eb8 dd94 f8bc ca69 12bb
00000280: d494 c9be b7d8 c638 a1bc 5dbe f080 1c3a
00000290: 223d b0bc 0fd5 123b 542a a33d 7603 eaba
000002a0: 0bcb 49bc e874 49bb 177a 4a3e 293b 5938
000002b0: 090e c2bc 6e5d 1b3b 3031 6fbd c86b 21bc
000002c0: 3ebd 8d3e bf09 3639 280e 3e3d 8eff 0c3b
000002d0: 4c83 a4bc e376 a3bb ef24 dbbd 1a6c 6f3c
000002e0: 538e b0bb 0cbb 1dbc 8467 9e3d f36a 3a3c
000002f0: dd33 9b3e c8e2 baba e5dd afbd 22d9 d6ba
00000300: 3387 2dbc 9921 373c 949a 0dbe ac4d d0bc
00000310: 68ee 69bd 7ade cfba 7139 5cbd 30bd 8abb
00000320: 8159 e1bd f3b1 3fbc 7dd3 98bd ec3c e03b
00000330: 38b5 04be 6b91 79bc d8a9 2bbe 056a 13bc
00000340: 4805 773c 34ee 993b 2cad 883d 0457 b7bb
00000350: b9d9 d7be 650e 1dba bdd9 183e cd2b 00bb
00000360: 0967 8ebe 01dc bbbd cd93 a0be 7ff4 6039
00000370: 5a18 00be 49a5 5bbb fd71 823d f1d5 693b
00000380: 641b 03bd 7a1c 543c d936 e13c 9d9b 6d3b
00000390: 40aa 993e ffad 16bd 99f2 e23e e5e1 d4bc
000003a0: f185 58be afd7 2539 58ad 703e bf37 003b
000003b0: 8cec 8cbe 998e f7bb d529 b13d 0d1a 8339
000003c0: 8c7a e1bb d3d8 b5ba ce97 49be 720b 7cbd
000003d0: d68f e0bd eb43 25ba cf4a 003f f121 28bd
000003e0: 6fc1 eb3d 49c8 ccbb 8168 923e d153 0d3c
000003f0: 9a38 06be 4243 2f3c da2d 56bc 9cba 45bb

lstm.weight_hh_l0 f4 [256, 64]
-0.0003096663 9.020647e-05 0.00013403146 -0.0005052728 0.000108153705 0.0002764397 -0.00045380555 -0.0012346072
-0.0010468919 -0.00016037241 -7.594226e-05 -0.00019667769 -0.00057523174 0.00042780707 0.000740793 -5.788858e-05
-8.028381e-05 0.0003610684 -0.00030412577 5.8545433e-05 4.3350065e-06 0.0014111665 -0.00045839552 -0.0010816685
-9.038364e-05 3.2133896e-05 0.00026938898 -0.0007667075 -0.00084661046 0.0005978339 0.0006250257 -0.00023009616
1.9943587e-05 0.00023393561 0.0003810315 0.001061483 0.00084077887 -7.6806275e-05 0.0009161535 0.00029699673
0.0002450161 -0.00045759496 -0.0006918204 -0.00025184476 -6.463588e-06 0.00060205406 -0.0011053697 -0.00054063555
-0.0012355833 -0.00022333662 5.733056e-05 6.155546e-05 0.0004440259 -0.0015870136 -0.001032224 -5.8558835e-05
-0.0004434967 -0.00036581425 -0.0007214308 1.7881935e-05 -0.0008820507 -0.0001716758 -0.0017648538 -4.3661727e-05
0.00033270865 1.4840202e-05 -0.00026244725 0.0003417256 0.00031468508 -0.0001970532 0.00040851586 -0.0005423383
-4.914267e-06 0.00037299533 -5.6284473e-05 0.00015790763 -0.00033249083 0.00026731723 -1.9387933e-05 0.00010566077
-1.8622872e-05 8.535412e-06 -0.000118190925 -0.0004776052 7.5488155e-05 0.000464824 0.0003132721 -0.00023500399
-7.201554e-05 -0.00012101702 -7.7003664e-05 -0.0003630274 -0.0005153239 -0.00053061015 0.0001296095 5.581427e-05
0.00036402585 2.9216719e-05 -0.00035330834 -1.1544921e-05 9.844632e-05 2.1477696e-05 -3.9500414e-05 2.5775419e-06
0.00030373415 -0.0003860141 1.867454e-05 0.00022937631 0.00021589862 -2.0765447e-05 4.9225666e-05 0.00026371234
-0.00036095452 0.00018459775 -0.00011880794 -1.4295991e-05 0.00016030064 -0.00051089085 -2.469158e-05 -4.944499e-06
1.0233463e-05 -0.00026593948 2.7011392e-05 1.4540186e-06 -0.00031301923 -6.179582e-05 0.00047341853 0.00033370196
0.00026352098 0.0022057097 4.0576328e-05 6.976698e-05 0.0012410304 0.004917649 -0.0007611333 0.0005883669
0.0050416295 0.0014139414 -0.0015040496 -0.00035279852 -0.00058083585 -0.008463267 -0.0034229467 6.793363e-05
-0.0029398324 3.4738096e-05 -0.00023721368 -3.9627255e-05 -0.0019545297 -0.00035474877 3.1002204e-05 0.0006122237
7.910753e-05 8.871484e-05 -0.00031704933 0.00034545222 0.00053817854 -0.0034849765 0.00020681329 -0.000495756
0.00024389589 -0.0069459146 -0.00041011447 0.0059573753 0.0004998595 0.00589471 0.0111663025 -0.0057739923
-0.00063544523 0.00023569349 0.00034187097 0.0013601838 0.009307484 -0.0072271056 -0.0011044914 -0.00024860055
-0.0005208455 0.00043064373 -0.0044878777 2.6334783e-05 -0.0006143016 0.00035695775 -0.0034155445 0.00041278813
0.00019035413 0.006906774 0.0029426354 -5.4370685e-06 0.008688981 -0.0014378524 -0.000105898995 0.00010277698
-0.0008243369 -0.0032310507 0.0004905812 -0.00023910013 -0.0045209704 5.3920332e-05 0.0013865228 0.0008879146
-0.0010532195 -0.004622776 0.0023357924 0.0008207158 0.0022942058 0.00048021218 0.00066899834 0.0009152409
0.0008569089 0.00026676434 0.0002623375 -0.00075567386 0.003380183 0.00020156067 0.0006162277 -0.0012882114
-0.00038321246 -0.00016579659 0.00073736033 0.0010157577 0.00071370153 0.00061691244 -0.0007281643 -7.348622e-05
-0.00020112054 0.00032458967 4.4963603e-05 0.0011634331 -0.0026917155 -0.00010736856 0.0009575389 0.00014905458
0.0010810005 0.0014191674 -0.00084242 -0.0011736847 0.00017372139 0.0008280669 -0.0015637686 0.00010250392
0.0018735472 -0.001447452 -0.0003173013 0.00019937575 0.0014764357 0.00074450276 -0.0003218188 -0.0005335006
-0.00075127074 -0.00053205085 -0.0035319137 -0.00013770601 -0.0009663486 0.00015078559 0.0015165583 -6.284039e-05
00000000: b55a a2b9 3b2d bd38 cc8a 0c39 4974 04ba
00000010: 94d0 e238 1cef 9039 c0ec edb9 8bd2 a1ba
00000020: dd37 89ba a429 28b9 3143 9fb8 443b 4eb9
00000030: 26cb 16ba 4b4b e039 c731 423a 64cd 72b8
00000040: 0b5e a8b8 c84d bd39 1273 9fb9 ae8e 7538
00000050: 6c75 9136 e4f6 b83a ce54 f0b9 c6c6 8dba
00000060: 598c bdb8 82c7 0638 c73c 8d39 dffc 48ba
00000070: 11ef 5dba f4b7 1c3a c4d8 233a f845 71b9
00000080: 874c a737 9d4c 7539 2fc5 c739 7621 8b3a
00000090: b767 5c3a 0e13 a1b8 052a 703a 3ab6 9b39
000000a0: 8175 8039 5be9 efb9 485b 35ba 080a 84b9
000000b0: cce1 d8b6 2ad3 1d3a 0de2 90ba 70b9 0dba
000000c0: 4cf3 a1ba 782f 6ab9 3876 7038 5617 8138
000000d0: 26cc e839 5703 d0ba b14b 87ba 129d 75b8
000000e0: 1f85 e8b9 c2ca bfb9 671e 3dba 2a01 9637
000000f0: 6c39 67ba df03 34b9 ab52 e7ba 6c21 37b8
00000100: 666f ae39 2ffa 7837 1399 89b9 a229 b339
00000110: 51fc a439 11a0 4eb9 122e d639 b52b 0eba
00000120: 3be5 a4b6 968e c339 fe12 6cb8 0294 2539
00000130: 2a52 aeb9 b626 8c39 45a3 a2b7 3296 dd38
00000140: 5038 9cb7 5133 0f37 45dd f7b8 1667 fab9
00000150: 654f 9e38 9fb3 f339 ab3e a439 676b 76b9
00000160: 0c07 97b8 85ca fdb8 077d a1b8 b654 beb9
00000170: cd16 07ba a518 0bba c9e7 0739 1e1a 6a38
00000180: b9da be39 6d16 f537 3e3c b9b9 0fb1 41b7
00000190: f774 ce38 002b b437 3fad 25b8 d5f9 2c36
000001a0: 823e 9f39 ef61 cab9 45a7 9c37 bc84 7039
000001b0: d862 6239 7531 aeb7 a877 4e38 df42 8a39
000001c0: 7f3e bdb9 9590 4139 8728 f9b8 d0d8 6fb7
000001d0: 6016 2839 4eed 05ba c420 cfb7 ece8 a5b6
000001e0: 64b0 2b37 cb6d 8bb9 8696 e237 b327 c335
000001f0: bb1c a4b9 6198 81b8 2935 f839 b8f4 ae39
00000200: 3029 8a39 ab8d 103b 8030 2a38 dd4f 9238
00000210: 12aa a23a 3b24 a13b cb86 47ba a23c 1a3a
00000220: 4134 a53b 0054 b93a 8823 c5ba d1f7 b8b9
00000230: 3c43 18ba 84a9 0abc 8453 60bb 9777 8e38
00000240: 34aa 40bb bfb3 1138 90bc 78b9 7135 26b8
00000250: 9117 00bb 93fd b9b9 5d08 0238 a37d 203a
00000260: 88e6 a538 6b0c ba38 a439 a6b9 d01d b539
00000270: 8d14 0d3a 3464 64bb 05dc 5839 9ff5 01ba
00000280: 4ebe 7f39 8e9a e3bb a204 d7b9 1636 c33b
00000290: 0109 033a 6928 c13b def2 363c c233 bdbb
000002a0: 0294 26ba 7d24 7739 253d b339 3248 b23a
000002b0: 6b7e 183c 5bd1 ecbb 95c4 90ba 9a56 82b9
000002c0: 5a89 08ba 06c8 e139 0c0f 93bb 84e9 dc37
000002d0: 1509 21ba 0f26 bb39 54d7 5fbb 7c6b d839
000002e0: cc99 4739 3852 e23b 3bd9 403b 1070 b6b6
000002f0: 3a5c 0e3c 5276 bcba 1716 deb8 f989 d738
00000300: 5018 58ba 09c0 53bb 599a 003a f4b6 7ab9
00000310: a624 94bb 8428 6238 fcbb b53a f1c2 683a
00000320: 2f0c 8aba a87a 97bb 1814 193b 4e25 573a
00000330: 635a 163b fdc4 fb39 b85f 2f3a c7ec 6f3a
00000340: 2fa2 603a 81dc 8b39 588a 8939 6a18 46ba
00000350: 0f86 5d3b 085a 5339 578a 213a 34d9 a8ba
00000360: e8e9 c8b9 afd9 2db9 6a4b 413a 2c23 853a
00000370: b317 3b3a 4bb8 213a 47e2 3eba 9d1c 9ab8
00000380: e2e3 52b9 b02d aa39 4d97 3c38 567e 983a
00000390: 7e67 30bb 0f2b e1b8 5903 7b3a 894b 1c39
000003a0: 5cb0 8d3a 5b03 ba3a d9d5 5cba 53d6 99ba
000003b0: fb28 3639 a112 593a 5ef7 ccba 5ff7 d638
000003c0: d091 f53a 6eb8 bdba 765b a6b9 850f 5139
000003d0: f684 c13a bc2a 433a cab9 a8b9 9fda 0bba
000003e0: edf0 44ba 5479 0bba ae77 67bb 2d65 10b9
000003f0: 8f52 7dba 331c 1e39 41c7 c63a 2dc9 83b8

lstm.bias_ih_l0 f4 [256]
-0.0017022901 -0.0014545107 -0.018500311 -0.0034540663 -0.010189486 -0.0022995865 -0.0020757176 0.05062196
0.014509397 -0.00656545 -0.0005311477 -0.002211784 -0.01076431 -0.1952534 0.0036042798 -0.007983556
-0.133045 0.00061294396 -0.0009725183 -0.0063792733 0.050106052 -0.0012295381 -0.00056485756 -2.9836205e-05
-0.03328389 -0.0011585946 -0.010935789 -0.012230212 -0.0045868065 -0.03909158 -0.0073216157 -0.03081605
-0.013482012 -0.08665668 -0.015042493 -0.029230772 -0.01531676 -0.02513368 -0.044343956 -0.053107694
-0.0074199196 -0.0018510338 0.03247822 0.009560946 -0.15938795 0.005701806 -0.014790613 -0.00039624888
-0.012794942 -0.00037624658 -0.042841915 -0.046054337 -0.004577435 0.001448243 -0.07382764 0.001214042
-0.0055579157 -0.17292112 -0.063880295 -0.19133061 0.0082475925 -0.27188295 0.022450652 -0.014812133
-0.006632192 -0.00038602753 0.00047401048 -0.051454224 -0.0020683338 -0.31990075 0.0004857146 0.013404245
0.008445163 0.0042256345 -0.00021068695 -0.0021977015 -0.0071526063 -0.083544545 -0.04243941 -0.013089973
0.0012393516 -0.17689209 -0.012551656 -0.002509035 -0.0056912396 8.9529894e-05 -0.00012992865 -0.014725199
-0.000255319 -0.0034596766 0.16776742 -0.025607917 -0.030902851 0.021817056 -0.17905791 0.12750767
-0.013649537 -0.022737741 0.03845552 0.1160641 0.019697763 0.010925025 0.039136842 -0.013295986
-0.016697386 -0.011816363 0.00041068246 -0.19578332 -0.06368957 -0.12269046 0.34996158 -0.0059358603
0.0010316374 0.004596647 -0.67366594 -0.100045025 0.001144826 0.0012724858 -0.010195601 0.001205864
-0.0114498725 -0.052469812 0.001064326 -0.2705408 0.014594631 -0.2568953 -0.0071025644 -0.008684927
0.0713978 0.09600461 -0.35109907 0.031613473 -0.12805542 -0.6956536 -0.09801159 0.1731624
0.01171123 0.008904062 0.020209018 0.013776548 0.11624141 -0.020331474 -0.005101011 0.026609886
-0.09894903 0.024902431 -0.030167172 -0.20060033 -0.55323195 -0.035150383 -0.029458212 0.061560005
0.03441782 0.021242855 -0.09872095 -0.018421136 -0.0066340985 -0.03339796 0.24202119 -0.0444155
0.00016823417 0.060794838 -0.025057558 -0.27091408 0.04165175 -0.1562634 -0.033648875 -0.012264414
-0.018265616 0.04779783 -0.015502222 0.46571 -0.06555057 -0.031658776 0.19019555 -0.062052652
0.034923382 0.03387198 0.339091 0.00888627 -0.0027495585 0.07422181 0.43721867 0.0008886981
-0.011236762 -0.0071224133 0.015544968 -0.14524509 0.05500038 -0.3665036 0.025145983 0.018793648
-0.023095759 -0.00017726788 -0.016293697 -0.04461119 -0.01784161 -0.38724095 -0.0141669875 0.16660544
0.014153555 0.016130365 -0.024756154 -0.0024558662 -0.019995043 -0.071072765 -0.49350953 -0.024851417
-0.040036727 -0.6657456 -0.0067181154 -0.017681025 0.0044265515 -0.027541926 -0.17867349 0.06986613
-0.035213277 -0.0060500866 0.049230993 0.012526508 0.032116603 -0.075972944 -0.2400829 -0.002882839
-0.015213258 -0.024907824 -0.004048487 -0.024817534 -0.0068698237 -0.013154308 0.043112036 -0.40574485
-0.04870474 -0.022762712 0.15474501 -0.04024292 -0.10853013 -0.49286363 0.31699806 -0.0012534662
-0.032918874 0.008739966 -0.57218295 -0.17609134 -0.0063681235 0.012679489 -0.0880237 0.00010411771
-0.27591074 -0.043925297 0.0015281946 -0.58238524 -0.103728496 -0.43232572 0.11342725 -0.0034514894
00000000: 611f dfba 48a5 beba f78d 97bc 9e5d 62bb
00000010: cdf1 26bc a9b4 16bb c308 08bb f958 4f3d
00000020: d2b8 6d3c fd22 d7bb b83c 0bba 94f3 10bb
00000030: ca5c 30bc 82f0 47be c835 6c3b 76cd 02bc
00000040: f33c 08be f9ad 203a 99f0 7eba 3909 d1bb
00000050: 013c 4d3d 7428 a1ba f312 14ba c348 fab7
00000060: b054 08bd fcdb 97ba 062c 33bc 3a61 48bc
00000070: ec4c 96bb 7e1e 20bd 2aea efbb f171 fcbc
00000080: a8e3 5cbc 0f79 b1bd ca74 76bc 5f75 efbc
00000090: 26f3 7abc 26e5 cdbc 02a2 35bd 7487 59bd
000000a0: cc22 f3bb 639e f2ba e207 053d 84a5 1c3c
000000b0: 9836 23be 37d6 ba3b 5454 72bc a0bf cfb9
000000c0: e0a1 51bc f642 c5b9 017b 2fbd 79a3 3cbd
000000d0: 4ffe 95bb f9d2 bd3a f232 97bd 7d20 9f3a
000000e0: 2d1f b6bb 3c12 31be acd3 82bd 2cec 43be
000000f0: e920 073c 3e34 8bbe 6eea b73c 97ae 72bc
00000100: dc52 d9bb bd63 cab9 9c84 f839 aac1 52bd
00000110: e28c 07bb 08ca a3be 83a7 fe39 7a9d 5b3c
00000120: 955d 0a3c 3177 8a3b d9eb 5cb9 5007 10bb
00000130: 6960 eabb 6719 abbd f2d4 2dbd 5377 56bc
00000140: bd71 a23a 3323 35be 76a5 4dbc 9f6e 24bb
00000150: 947d babb ffc1 bb38 753d 08b9 f641 71bc
00000160: 56dc 85b9 bebb 62bb 39cb 2b3e b2c7 d1bc
00000170: fa27 fdbc afb9 b23c f55a 37be 5f91 023e
00000180: 4fa2 5fbc 8044 babc 8983 1d3d 04b3 ed3d
00000190: 345d a13c e0fe 323c f44d 203d 68d7 59bc
000001a0: f5c8 88bc 6b99 41bc de50 d739 6c7b 48be
000001b0: ad6f 82bd 2345 fbbd 2a2e b33e 9b81 c2bb
000001c0: 0238 873a 789f 963b 5f75 2cbf 68e4 ccbd
000001d0: fc0d 963a 8ac9 a63a 730b 27bc 150e 9e3a
000001e0: 3f98 3bbc 96ea 56bd db80 8b3a 5384 8abe
000001f0: 521e 6f3c c887 83be a1bc e8bb 394b 0ebc
00000200: 0339 923d 119e c43d 42c3 b3be 217d 013d
00000210: f620 03be 5b16 32bf 4dba c8bd 7c51 313e
00000220: 75e0 3f3c 58e2 113c 628d a53c 08b7 613c
00000230: fa0f ee3d 318e a6bc 6226 a7bb fafc d93c
00000240: caa5 cabd 2f00 cc3c 2521 f7bc 2c6a 4dbe
00000250: 9ca0 0dbf d9f9 0fbd 5952 f1bc 5826 7c3d
00000260: b3f9 0c3d 7f05 ae3c 362e cabd ece7 96bc
00000270: da62 d9bb 4dcc 08bd 67d4 773e 07ed 35bd
00000280: 0468 3039 0204 793d 8245 cdbc 40b5 8abe
00000290: 079b 2a3d 8303 20be 67d3 09bd aef0 48bc
000002a0: c6a1 95bc a8c7 433d 08fd 7dbc 8b71 ee3e
000002b0: 613f 86bd a2ac 01bd 9fc2 423e ec2a 7ebd
000002c0: d20b 0f3d 58bd 0a3d 569d ad3e b897 113c
000002d0: f031 34bb 9b01 983d 20db df3e 85f7 683a
000002e0: 651a 38bc 2263 e9bb 52b0 7e3c 21bb 14be
000002f0: 1448 613d 5ca6 bbbe f3fe cd3c 23f5 993c
00000300: 5133 bdbc fce0 39b9 5c7a 85bc 39ba 36bd
00000310: 9128 92bc 7244 c6be a71c 68bc 9e9a 2a3e
00000320: 50e4 673c d423 843c 6bcd cabc 99f2 20bb
00000330: a5cc a3bc 998e 91bd 48ad fcbe 3395 cbbc
00000340: 8dfd 23bd 4e6e 2abf a323 dcbb ccd7 90bc
00000350: 9b0c 913b 9b9f e1bc 2ff6 36be f915 8f3d
00000360: cc3b 10bd ce3f c6bb 70a6 493d fc3b 4d3c
00000370: b38c 033d b497 9bbd 4bd8 75be 03ee 3cbb
00000380: 0741 79bc 7e0b ccbc 2ca9 84bb 244e cbbc
00000390: 421c e1bb 2b85 57bc 3f96 303d cabd cfbe
000003a0: 9f7e 47bd de78 babc 7a75 1e3e c3d5 24bd
000003b0: 0b45 debd 9f58 fcbe 924d a23e 594b a4ba
000003c0: f1d5 06bd 1332 0f3c 957a 12bf 4a51 34be
000003d0: b1ab d0bb a2bd 4f3c c545 b4bd c559 da38
000003e0: 2c44 8dbe 03eb 33bd b44d c83a 3317 15bf
000003f0: 9b6f d4bd cc59 ddbe 8c4c e83d 6232 62bb

lstm.bias_hh_l0 f4 [256]
-0.0017022793 -0.0014545232 -0.018500173 -0.0034540265 -0.010189491 -0.0022995404 -0.0020755918 0.050630808
0.014509388 -0.006565396 -0.0005311467 -0.0022117782 -0.010764305 -0.19525366 0.0036042961 -0.007983562
-0.13304503 0.00061294215 -0.0009727459 -0.0063785515 0.050106123 -0.0012295328 -0.00056488643 -2.9825494e-05
-0.03328389 -0.0011586029 -0.010935785 -0.012230187 -0.004586827 -0.039092235 -0.00732161 -0.030816384
-0.013482006 -0.08665662 -0.015042488 -0.029230872 -0.015316753 -0.025133666 -0.04434398 -0.05310788
-0.007419919 -0.0018510536 0.032477636 0.009560734 -0.15938814 0.0057018064 -0.014790652 -0.0003961192
-0.012795148 -0.0003765168 -0.042841475 -0.046054333 -0.0045774747 0.0014432245 -0.07382759 0.0012142578
-0.0055579296 -0.17291912 -0.063889965 -0.19133265 0.008247566 -0.2718885 0.022450058 -0.014812135
-0.0066321464 -0.00038602814 0.00047401854 -0.05146473 -0.0020707436 -0.31991085 0.00048570562 0.0134042185
0.00844536 0.00422105 -0.00021068635 -0.0021977045 -0.0071513797 -0.083544515 -0.04243933 -0.013089927
0.0012393583 -0.17689276 -0.012553847 -0.0025090352 -0.0056912433 8.950647e-05 -0.00012992865 -0.014725203
-0.00025530695 -0.0034596734 0.16776747 -0.02561011 -0.030902889 0.021817079 -0.17905524 0.1274359
-0.013649271 -0.022737784 0.038455445 0.116064765 0.019743497 0.010924833 0.039140098 -0.013295884
-0.016697416 -0.011816853 0.00041067257 -0.19578347 -0.06368957 -0.12269051 0.34990063 -0.0059360904
0.0010423221 0.0045959973 -0.6735429 -0.10004429 0.0011448227 0.0012717968 -0.010195486 0.0012059619
-0.011449831 -0.052469473 0.0010643898 -0.27056077 0.014593332 -0.25676706 -0.007100498 -0.0086849425
0.071398035 0.095940135 -0.35109895 0.031613473 -0.12805478 -0.69565266 -0.09801147 0.17316243
0.011711218 0.008904133 0.02020857 0.013776739 0.116241515 -0.020331496 -0.0051011774 0.026609737
-0.09894918 0.024902461 -0.030167153 -0.20060027 -0.5532328 -0.0351504 -0.029458296 0.061560072
0.03441776 0.021242792 -0.09869781 -0.01842117 -0.0066340766 -0.03339784 0.24210994 -0.04447464
0.00016818597 0.06079507 -0.025058607 -0.27006152 0.041651104 -0.15626335 -0.033649094 -0.012264407
-0.018265733 0.04779751 -0.015501694 0.46571082 -0.065550335 -0.031658873 0.19019644 -0.062052507
0.0349234 0.033871915 0.33909267 0.008884351 -0.0027495325 0.07422238 0.4372156 0.0008886911
-0.011236745 -0.0071220333 0.015544981 -0.14524251 0.05500068 -0.36650994 0.025146024 0.018793656
-0.023096057 -0.00017726798 -0.016293697 -0.044612333 -0.017841617 -0.38724142 -0.014168819 0.16660382
0.014153604 0.0161285 -0.024755267 -0.0024558299 -0.019995047 -0.071072735 -0.49350965 -0.024851369
-0.040036812 -0.66574603 -0.00671935 -0.017681045 0.0044266474 -0.027541952 -0.17867234 0.06986779
-0.035213236 -0.006050157 0.049231034 0.012532397 0.032120936 -0.07597231 -0.2400829 -0.00288679
-0.015213261 -0.024906328 -0.004048893 -0.024817431 -0.006869789 -0.013154347 0.043123618 -0.40574616
-0.04870479 -0.022762725 0.15474382 -0.040243026 -0.108530425 -0.49286434 0.31699902 -0.001253521
-0.03291109 0.008739571 -0.5721933 -0.17609115 -0.0063680164 0.012679786 -0.08802368 0.00010411091
-0.2759132 -0.04392531 0.0015281946 -0.58236444 -0.103728555 -0.43236342 0.11345797 -0.00345149
00000000: 041f dfba b3a5 beba ad8d 97bc f35c 62bb
00000010: d3f1 26bc e3b3 16bb a706 08bb 4062 4f3d
00000020: c9b8 6d3c 8922 d7bb a73c 0bba 7bf3 10bb
00000030: c45c 30bc 93f0 47be 0e36 6c3b 7ccd 02bc
00000040: f53c 08be daad 203a dfff 7eba 2b03 d1bb
00000050: 143c 4d3d 4628 a1ba e314 14ba c331 fab7
00000060: b054 08bd 43dc 97ba 022c 33bc 1f61 48bc
00000070: 184d 96bb 2e1f 20bd 1eea efbb a472 fcbc
00000080: a2e3 5cbc 0779 b1bd c574 76bc 9575 efbc
00000090: 1ef3 7abc 1ee5 cdbc 08a2 35bd a687 59bd
000000a0: cb22 f3bb 0d9f f2ba 4507 053d a0a4 1c3c
000000b0: a536 23be 38d6 ba3b 7e54 72bc 38ae cfb9
000000c0: bea2 51bc 3b67 c5b9 8b7a 2fbd 78a3 3cbd
000000d0: a4fe 95bb 942a bd3a eb32 97bd bb27 9f3a
000000e0: 4b1f b6bb b611 31be bed8 82bd b5ec 43be
000000f0: cd20 073c f834 8bbe 2fe9 b73c 99ae 72bc
00000100: 7a52 d9bb d263 cab9 b185 f839 aecc 52bd
00000110: 50b5 07bb 5bcb a3be 4ea6 fe39 5e9d 5b3c
00000120: 685e 0a3c bc50 8a3b b0eb 5cb9 5d07 10bb
00000130: 1f56 eabb 6319 abbd ddd4 2dbd 2277 56bc
00000140: f771 a23a 6023 35be a7ae 4dbc a06e 24bb
00000150: 9c7d babb 6cb5 bb38 753d 08b9 fa41 71bc
00000160: b8da 85b9 b0bb 62bb 3ccb 2b3e 4bcc d1bc
00000170: 0e28 fdbc bbb9 b23c 425a 37be 8e7e 023e
00000180: 31a1 5fbc 9744 babc 7583 1d3d 5db3 ed3d
00000190: 1dbd a13c 12fe 323c 5e51 203d fbd6 59bc
000001a0: 05c9 88bc 799b 41bc 8a4f d739 767b 48be
000001b0: ad6f 82bd 2945 fbbd 2d26 b33e 8983 c2bb
000001c0: 879e 883a 059a 963b 4f6d 2cbf 05e4 ccbd
000001d0: e00d 963a 6bb2 a63a f80a 27bc 5e11 9e3a
000001e0: 1298 3bbc 3bea 56bd ff82 8b3a f186 8abe
000001f0: df18 6f3c f976 83be 4bab e8bb 4a4b 0ebc
00000200: 2239 923d 437c c43d 3ec3 b3be 217d 013d
00000210: cb20 03be 4b16 32bf 3dba c8bd 7e51 313e
00000220: 69e0 3f3c a4e2 113c 718c a53c d5b7 613c
00000230: 0810 ee3d 3d8e a6bc c727 a7bb aafc d93c
00000240: dea5 cabd 3f00 cc3c 1b21 f7bc 286a 4dbe
00000250: aaa0 0dbf def9 0fbd 8652 f1bc 6a26 7c3d
00000260: a3f9 0c3d 5d05 ae3c 1422 cabd fee7 96bc
00000270: ab62 d9bb 2ccc 08bd abeb 773e 0a2b 36bd
00000280: 145b 3039 4004 793d b547 cdbc 8145 8abe
00000290: 599a 2a3d 8003 20be a2d3 09bd a7f0 48bc
000002a0: 05a2 95bc 52c7 433d d1fa 7dbc a671 ee3e
000002b0: 413f 86bd bcac 01bd dbc2 423e c52a 7ebd
000002c0: d70b 0f3d 47bd 0a3d 8e9d ad3e ab8f 113c
000002d0: 8031 34bb e701 983d b9da df3e 0df7 683a
000002e0: 531a 38bc f25f e9bb 60b0 7e3c 74ba 14be
000002f0: 6548 613d 31a7 bbbe 09ff cd3c 27f5 993c
00000300: f133 bdbc 03e1 39b9 5c7a 85bc 6cbb 36bd
00000310: 9528 92bc 8244 c6be 5624 68bc 319a 2a3e
00000320: 85e4 673c eb1f 843c 8fcb cabc fdf1 20bb
00000330: a7cc a3bc 958e 91bd 4cad fcbe 1995 cbbc
00000340: a4fd 23bd 556e 2abf fe2d dcbb d7d7 90bc
00000350: 690d 913b a99f e1bc e2f5 36be d816 8f3d
00000360: c13b 10bd 6540 c6bb 7ba6 493d af54 4d3c
00000370: 3e91 033d 5f97 9bbd 4bd8 75be 4d30 3dbb
00000380: 0b41 79bc 5b08 ccbc 94ac 84bb ed4d cbbc
00000390: f81b e1bb 5585 57bc 64a2 303d f6bd cfbe
000003a0: ad7e 47bd e578 babc 2a75 1e3e dfd5 24bd
000003b0: 3345 debd b758 fcbe b24d a23e 2f4d a4ba
000003c0: c7cd 06bd 6b30 0f3c 437b 12bf 3d51 34be
000003d0: cbaa d0bb e1be 4f3c c245 b4bd 1f56 da38
000003e0: 7f44 8dbe 07eb 33bd b44d c83a d615 15bf
000003f0: a36f d4bd bd5e ddbe a75c e83d 6532 62bb

fc.weight f4 [50, 64]
-0.0023768672 0.0069402177 -0.0060478696 0.005601697 0.016485177 0.048382115 0.016985308 -0.038645014
0.070225246 0.020552564 -0.016363828 0.006306664 -0.01754837 -0.080345735 -0.039141256 -0.0050956258
-0.0046151257 0.010431584 0.0027672192 -0.0029207496 0.0028391534 0.020498563 0.038309276 -0.011160378
-0.004104012 0.0025530115 -0.0046887207 -0.015911277 -0.023078106 -0.02664307 0.020854155 0.0030095368
0.007564812 -0.06757289 -0.0019224535 0.076240875 -0.008772434 0.074622214 0.08039109 -0.05744747
0.0038159336 -0.009945165 0.020290695 0.0012586071 0.08931173 -0.096774645 0.00896618 0.013783885
-0.010289295 -0.024063207 -0.06966734 -0.0027416619 -0.022022532 -0.023035923 -0.04867337 0.005113608
-0.015180124 0.065085165 0.008511854 -0.030141609 0.09714905 -0.021502584 0.016521016 -0.00307347
0.11207081 0.0067834193 0.08513081 0.12432177 -0.054713774 -0.16293383 -0.10192374 0.10654995
-0.15110393 -0.06793353 0.02684735 -0.018234804 0.03849487 0.18513012 0.11293661 0.060843963
0.013121136 -0.017401455 -0.08180907 0.09244185 -0.052749656 -0.088262774 0.12280972 0.09149627
0.0467558 -0.0482978 0.014699779 0.16755223 0.18042274 0.2887985 -0.13019577 0.1417771
-0.028151987 0.13385543 0.110203125 -0.23869903 -0.09704167 -0.15588021 -0.07371188 0.22020137
0.09729557 0.1104819 0.04316091 -0.054903634 -0.20186166 0.14819454 0.14385085 0.14225523
0.12230774 -0.07064442 0.18918647 0.045545906 0.034720525 0.09319573 0.11807333 0.0167485
-0.0730449 -0.14178374 -0.01812969 0.06757975 -0.18380843 0.108547986 -0.14399724 -0.026635785
-0.0036218928 0.01570704 -0.00036992424 -0.013630563 0.01513642 0.2330584 0.0050964435 -0.00075751357
0.21908942 0.0181949 -0.012321205 0.01096715 -0.011816299 -0.25356475 -0.21213457 -0.0072795106
0.0049437922 0.0028360072 0.008834988 -0.0032416962 -0.010083201 0.0071717473 -0.019920401 -0.0033354613
-0.0052305916 0.0053414637 -0.004687792 -0.0105248885 -0.008110378 -0.39507955 0.019600136 -0.012959862
0.013027618 -0.22871856 -0.007890698 0.2992782 0.016378421 0.21785226 0.20708974 -0.24255045
-0.0049650674 -0.008947616 -0.11492438 0.02401048 0.2819655 -0.23075937 -0.18513484 -0.022703154
-0.014681068 0.011394634 -0.26117083 0.002804631 -0.012819211 -0.0055778767 -0.19205722 -0.0025678647
0.03489806 0.2416496 0.0073633078 -0.16731717 0.28998908 -0.18953516 0.01048699 -0.029993199
0.009571775 0.012371023 0.0057973405 0.0075098267 0.0018037241 0.06773301 -0.010948791 -0.018611724
0.070446625 0.0049927207 -0.014071837 0.0042133313 -0.00052129716 -0.11814907 -0.0043597864 0.004688179
-0.0071548834 -0.006236482 -0.0076053613 0.0077654347 -0.013926687 -0.00840445 0.015161165 0.009429353
0.0054666507 -0.0008405818 0.013367448 0.010751758 0.010669589 -0.072587706 0.025099335 0.0043219575
0.00035725912 -0.10183224 0.00273592 0.11608321 -0.00017241453 0.096046686 0.16495895 -0.084339455
0.00607828 0.00956221 0.012939969 0.0040760147 0.13391645 -0.07332257 -0.052249666 0.01003259
0.001594897 -0.0057737133 -0.09138928 0.0027378632 -0.0074051092 0.007326499 -0.06422674 0.0017178679
-0.070201255 0.09354864 0.011942187 -0.03529836 0.14311737 -0.02665352 -0.010317072 -0.003447606
00000000: 37c5 1bbb c46a e33b 352d c6bb 718e b73b
00000010: ec0b 873c 532c 463d c624 8b3c 3c4a 1ebd
00000020: 41d2 8f3d da5d a83c 6f0d 86bc 22a8 ce3b
00000030: 99c1 8fbc 4e8c a4bd 9552 20bd 35f9 a6bb
00000040: 7b3a 97bb 3ce9 2a3c 3c5a 353b 0c6a 3fbb
00000050: 1711 3a3b 9aec a73c 30ea 1c3d 05da 36bc
00000060: f37a 86bb 6d50 273b d7a3 99bb 5e58 82bc
00000070: 4c0e bdbc 9142 dabc 55d6 aa3c a63b 453b
00000080: 3ee2 f73b a863 8abd d6fa fbba 2d24 9c3d
00000090: 41ba 0fbc 88d3 983d 15a4 a43d 0a4e 6bbd
000000a0: be14 7a3b 0cf1 22bc ac38 a63c d9f7 a43a
000000b0: 11e9 b63d c931 c6bd e2e6 123c ced5 613c
000000c0: 6e94 28bc 3420 c5bc c0ad 8ebd 74ad 33bb
000000d0: 9968 b4bc d5b5 bcbc ba5d 47bd 0e90 a73b
000000e0: 0eb6 78bc 5f4b 853d 4e75 0b3c 89eb f6bc
000000f0: 15f6 c63d 3026 b0bc 1557 873c 456c 49bb
00000100: 6185 e53d 7247 de3b 1059 ae3d 6a9c fe3d
00000110: 8d1b 60bd 20d8 26be 65bd d0bd dc36 da3d
00000120: fdba 1abe bc20 8bbd f9ee db3c 2861 95bc
00000130: ccac 1d3d c092 3d3e 4f4b e73d 8537 793d
00000140: 09fa 563c 7f8d 8ebc 848b a7bd 2752 bd3d
00000150: 0610 58bd 1dc3 b4bd aa83 fb3d 6562 bb3d
00000160: 0283 3f3d ead3 45bd 58d7 703c d092 2b3e
00000170: bdc0 383e 66dd 933e 0a52 05be 042e 113e
00000180: ff9e e6bc 6611 093e 2db2 e13d 856d 74be
00000190: c8bd c6bd 109f 1fbe 41f6 96bd 787c 613e
000001a0: e642 c73d 5644 e23d 7fc9 303d a2e2 60bd
000001b0: d3b4 4ebe 4fc0 173e a34d 133e 5bab 113e
000001c0: 7b7c fa3d 06ae 90bd 19ba 413e 588e 3a3d
000001d0: 1c37 0e3d 67dd be3d 6ed0 f13d 2634 893c
000001e0: 9198 95bd c22f 11be b784 94bc 4167 8a3d
000001f0: 4738 3cbe 684e de3d 0374 13be 4a33 dabc
00000200: 475d 6dbb 0dac 803c 64f2 c1b9 ba52 5fbc
00000210: bffe 773c dca6 6e3e 1100 a73b e093 46ba
00000220: fa58 603e 790d 953c e1de 49bc 90af 333c
00000230: 2699 41bc 3dd3 81be ce39 59be f688 eebb
00000240: 89ff a13b 4edc 393b a0c0 103c a372 54bb
00000250: 0334 25bc fa00 eb3b 1c30 a3bc c197 5abb
00000260: 6265 abbb 7207 af3b 0d9c 99bb 9570 2cbc
00000270: 64e1 04bc de47 cabe 7790 a03c 9a55 54bc
00000280: ca71 553c 3335 6abe fc47 01bc fe3a 993e
00000290: 0a2c 863c aa14 5f3e 550f 543e 255f 78be
000002a0: 01b2 a2bb 0699 12bc 795d ebbd a0b1 c43c
000002b0: c85d 903e 2f4c 6cbe fd93 3dbe f7fb b9bc
000002c0: dd88 70bc 8fb0 3a3c 2fb8 85be e6cd 373b
000002d0: ab07 52bc 9fc6 b6bb a6aa 44be 9f49 28bb
000002e0: 45f1 0e3d fe72 773e e747 f13b 3155 2bbe
000002f0: 7379 943e 8115 42be a0d1 2b3c 4cb4 f5bc
00000300: efd2 1c3c d5af 4a3c 9ef7 bd3b fe14 f63b
00000310: f06a ec3a 9bb7 8a3d 8f62 33bc 9d77 98bc
00000320: 5246 903d fa99 a33b 908d 66bc fc0f 8a3b
00000330: a9a7 08ba 24f8 f1bd 8adc 8ebb 4c9f 993b
00000340: 8373 eabb 675b ccbb 6536 f9bb 3075 fe3b
00000350: c22c 64bc d1b2 09bc 8966 783c 937d 1a3c
00000360: 9721 b33b 7d5a 5cba 2403 5b3c 2428 303c
00000370: 80cf 2e3c dda8 94bd 1f9d cd3c 359f 8d3b
00000380: 824e bb39 6c8d d0bd 1f4d 333b 09bd ed3d
00000390: 2cca 34b9 20b4 c43d 00eb 283e 2aba acbd
000003a0: 4f2c c73b d1aa 1c3c 2a02 543c 1790 853b
000003b0: 6521 093e 252a 96bd bf03 56bd bb5f 243c
000003c0: dd0b d13a 6b31 bdbb 4e2a bbbd b96d 333b
000003d0: 8fa6 f2bb 2113 f03b 4f89 83bd 152a e13a
000003e0: adc5 8fbd 6e96 bf3d 2aa9 433c 0395 10bd
000003f0: 5c8d 123e 7c58 dabc f008 29bc 3bf1 61bb

fc.bias f4 [50]
-0.34047726 0.4121485 -0.61996746 -0.5158212 0.29596707 0.51123977 -0.5696638 0.70403063
-0.74393255 -0.46836382 -0.30365852 -0.8043733 -0.65444416 -0.5071708 0.3258662 -0.3077866
-0.6273027 0.30911753 0.71375597 -0.3963635 -0.5503619 0.3003258 -0.68494713 -0.57662904
0.6091267 0.6607305 -0.5797303 0.3720196 0.3626115 0.032641217 0.55229485 -0.39288217
-0.6035214 0.5184737 -0.55984306 -0.69937843 -0.71034634 -0.4256623 0.62491524 0.30018306
0.59716624 -0.5441645 -0.03927568 -0.63401985 0.622281 -0.66047347 -0.5922191 -0.64987427
0.59478176 0.41905046
00000000: 0953 aebe 2105 d33e 30b6 1ebf dc0c 04bf
00000010: ff88 973e 9ce0 023f 7dd5 11bf 5a3b 343f
00000020: 5d72 3ebf 62cd efbe 2179 9bbe 69eb 4dbf
00000030: a789 27bf f2d5 01bf efd7 a63e 3596 9dbe
00000040: e996 20bf a744 9e3e b6b8 363f 28f0 cabe
00000050: 84e4 0cbf 4ec4 993e b258 2fbf f69d 13bf
00000060: baef 1b3f a225 293f 3469 14bf 5a79 be3e
00000070: 37a8 b93e ccb2 053d 3263 0d3f da27 c9be
00000080: 6180 1abf b1ba 043f e051 0fbf 770a 33bf
00000090: 42d9 35bf 69f0 d9be 72fa 1f3f 98b1 993e
000000a0: e3df 183f 5d4e 0bbf 89df 20bd 204f 22bf
000000b0: cf4d 1f3f ca14 29bf ac9b 17bf 295e 26bf
000000c0: 9e43 183f c88d d63e

decoder.0.weight f4 [64, 50]
-1.5447313e-13 -1.0876933e-13 -8.059519e-12 -3.9953907e-13 4.1346904e-13 -4.276544e-13 -3.3634014e-13 4.2784522e-14
-9.852431e-14 7.0694474e-14 -7.9396676e-15 4.573941e-13 -1.7287078e-13 -5.2515186e-13 2.9388422e-13 -1.275747e-13
-5.146316e-13 -1.5716599e-13 1.4510994e-14 1.7797836e-13 3.3519907e-13 2.0786287e-14 -9.28397e-14 -3.613262e-13
5.6282935e-13 -1.4986931e-13 -1.3864098e-13 -4.9291368e-14 -2.4216055e-14 -1.1326316e-12 -1.1858262e-13 -1.00335545e-13
6.3332227e-14 3.2131486e-13 4.4086121e-13 3.9477458e-14 -4.1745433e-14 -1.8996112e-11 2.464051e-13 1.3473836e-13
8.698082e-14 -1.7391833e-13 -5.39693e-13 7.277383e-14 1.7219845e-13 3.7394835e-13 7.170549e-15 2.0790192e-14
1.1607403e-12 4.620314e-12 -3.1991412e-22 -1.6654387e-23 2.7946303e-22 1.6981041e-22 7.131989e-23 -4.930933e-22
-1.00687486e-22 5.489274e-22 7.237599e-22 -1.5322136e-22 2.4010616e-22 7.473787e-22 5.175078e-22 -1.1431417e-21
-2.8379972e-22 -2.3660286e-23 8.234147e-23 -4.4433133e-23 7.8506205e-22 2.7058057e-24 -5.8161995e-22 3.9824341e-22
3.2125728e-22 2.4074578e-22 3.136474e-23 2.0625879e-22 -3.2558673e-22 3.0721901e-22 5.5300115e-23 -4.0240206e-22
-4.073531e-24 -5.568905e-22 -3.1375411e-22 3.7951464e-23 -1.04316536e-22 2.2417218e-22 -4.5948934e-22 1.569009e-22
1.0702003e-22 -2.0297647e-22 1.6882199e-22 8.171063e-23 1.02759325e-22 2.4710034e-22 -7.8469915e-22 -1.9151281e-22
-2.9780357e-22 6.0816334e-22 3.9463432e-22 8.425057e-22 -0.00029039534 9.048775e-05 0.0008282658 0.00029534227
-4.5106815e-05 -0.0005312079 1.2142023e-07 1.3446495e-05 6.1007704e-05 7.932001e-05 -1.9021167e-05 0.0013705064
0.0011605318 0.00042003804 -0.0010901028 -1.8503042e-05 -0.00031203448 0.000103838924 -1.8688244e-05 0.0003843989
0.00013834327 -0.0012171477 0.0003588444 0.00083189755 -0.00058592594 -0.0005204732 -5.6937253e-05 -0.0017745134
-0.0015368222 9.876721e-07 0.00041058383 -6.269653e-05 5.9243557e-05 -0.0011428589 0.00044452123 0.0003997635
7.804114e-05 0.00031615133 -0.0004715845 -0.0009431205 -1.6284268e-05 0.0011697744 5.775096e-06 7.526354e-05
-0.0012139756 3.7344293e-05 4.1918942e-05 0.00024956118 -0.0009670955 0.00017906692 0.44948584 -0.4272418
0.4550573 0.49219894 -0.40737325 -0.5336888 0.4787469 -0.47640547 0.46954867 0.46792012
0.4236133 0.47094676 0.4961497 0.45942107 -0.42464417 0.42179415 0.45470485 -0.45582607
-0.4563537 0.4985768 0.46369645 -0.43329394 0.46912107 0.48816273 -0.5009651 -0.5290005
0.50113547 -0.44844937 -0.45610857 -0.31149125 -0.4490294 0.46834108 0.47158453 -0.49514392
0.45989326 0.45766592 0.47596496 0.48326993 -0.46148625 -0.41615808 -0.5439518 0.5066206
0.33274943 0.4591834 -0.44666046 0.45715377 0.5234121 0.45731282 -0.44936135 -0.44947648
0.034097448 -0.008561434 0.01034113 0.038229797 -0.043557987 -0.08126548 0.0671753 -0.054539554
0.12777571 -0.18700701 -0.08800809 0.044802062 0.12598224 0.041822344 0.15706983 0.03400506
0.07963195 -0.013992835 -0.052763347 0.026865419 0.051957063 0.047181595 0.0490927 0.04181614
-0.07119306 -0.06520775 0.03158836 0.059777655 -0.048119966 -0.0084216995 -0.07184436 0.016778551
0.044811253 -0.06803012 0.039433215 0.048724588 0.074459665 0.033096384 -0.04375392 0.13101846
-0.08136328 0.0918972 -0.023637198 0.052078076 0.03210132 0.05759606 0.052619394 0.13664204
-0.09096802 -0.025179798 -4.9145e-41 -5.4743e-41 -5.0885e-41 -5.0789e-41 -4.9075e-41 5.2951e-41
00000000: d9eb 2daa 40ed f4a9 d9c8 0dad a6eb e0aa
00000010: 2bc3 e82a 7fbf f0aa b957 bdaa 32af 4029
00000020: 66db dda9 9730 9f29 4107 0fa8 b8be 002b
00000030: 9ca2 42aa 2ed1 13ab 2e71 a52a e7a2 0faa
00000040: 1ddb 10ab 03f4 30aa 13b4 8228 c562 482a
00000050: 47b3 bc2a ea39 bb28 710e d1a9 9868 cbaa
00000060: 216c 1e2b e3bc 28aa 8b18 1caa 14fd 5da9
00000070: 6c1e daa8 5b67 9fab 1d83 05aa 81ef e1a9
00000080: 8b9c 8e29 5ae2 b42a cc2e f82a 69ca 3129
00000090: 3501 3ca9 7117 a7ad b8b6 8a2a b0b3 172a
000000a0: 07dd c329 8cd0 43aa fbe8 17ab 42df a329
000000b0: d3e0 412a a383 d22a 522c 0128 eb42 bb28
000000c0: 145c a32b 1790 a22c 5060 c19b 4412 a199
000000d0: cfec a81b c749 4d1b e070 ac1a 3f07 159c
000000e0: 8972 f39a 33e7 251c 36be 5a1c b73b 399b
000000f0: a122 911b a0e1 611c 3a68 1c1c 27bf ac9c
00000100: e18b ab9b 08d4 e499 e716 c71a 8edd 569a
00000110: 3c45 6d1c 015a 5118 aac8 2f9c 2fb9 f01b
00000120: 2830 c21b 9b85 911b abab 171a 015a 791b
00000130: 1bce c49b d7b3 b91b 1db5 851a b43c f39b
00000140: 4c96 9d98 514f 289c 19a7 bd9b a385 371a
00000150: cf38 fc9a f780 871b 44df 0a9c 7aae 3d1b
00000160: 1861 011b 2d62 759b e017 4c1b 6e90 c51a
00000170: f174 f81a ed5c 951b 2829 6d9c 5886 679b
00000180: df02 b49b 5cce 371c b48a ee1b b9a1 7e1c
00000190: 3440 98b9 3ec4 bd38 fa1f 593a 2bd8 9a39
000001a0: 1331 3db8 c240 0bba bd5f 0234 4298 6137
000001b0: 86e2 7f38 9b58 a638 a58f 9fb7 90a2 b33a
000001c0: fc1c 983a 8d38 dc39 c8e1 8eba fb36 9bb7
000001d0: 8f98 a3b9 19c4 d938 b3c4 9cb7 2689 c939
000001e0: 3d10 1139 b388 9fba 4823 bc39 b313 5a3a
000001f0: d398 19ba 5d70 08ba e9cf 6eb8 ca96 e8ba
00000200: 326f c9ba 2890 8435 a143 d739 f17b 83b8
00000210: 497c 7838 fbcb 95ba a10e e939 5997 d139
00000220: 05aa a338 1dc1 a539 003f f7b9 bf3b 77ba
00000230: 339a 88b7 1e53 993a b2c7 c136 ced6 9d38
00000240: 431e 9fba 21a2 1c38 1fd2 2f38 89d7 8239
00000250: ae84 7dba e9c3 3b39 0223 e63e 70bf dabe
00000260: 45fd e83e 8001 fc3e 3a93 d0be d49f 08bf
00000270: 501e f53e 6beb f3be af68 f03e 3a93 ef3e
00000280: d8e3 d83e ef1f f13e 5507 fe3e 3d39 eb3e
00000290: f66a d9be 67f5 d73e 13cf e83e 0962 e9be
000002a0: 31a7 e9be 7545 ff3e 9f69 ed3e b4d8 ddbe
000002b0: a330 f03e 77f0 f93e 403f 00bf 946c 07bf
000002c0: 6a4a 003f 289b e5be 1087 e9be c87b 9fbe
000002d0: 2ee7 e5be 67ca ef3e 8773 f13e 8183 fdbe
000002e0: 2177 eb3e 3053 ea3e aeb1 f33e 286f f73e
000002f0: ed47 ecbe ac12 d5be 6d40 0bbf e3b1 013f
00000300: 225e aa3e 161a eb3e aeb0 e4be 0f10 ea3e
00000310: 56fe 053f e824 ea3e b112 e6be c821 e6be
00000320: c4a9 0b3d 4245 0cbc d86d 293c d996 1c3d
00000330: dc69 32bd 846e a6bd 3493 893d de64 5fbd
00000340: a3d7 023e c47e 3fbe 963d b4bd 5e82 373d
00000350: 7d01 013e e84d 2b3d ead6 203e e448 0b3d
00000360: 1316 a33d 3442 65bc 611e 58bd de14 dc3c
00000370: eed0 543d 7d41 413d 6d15 493d 6747 2b3d
00000380: abcd 91bd a48b 85bd cc62 013d 6ad9 743d
00000390: 7119 45bd 2bfb 09bc 2323 93bd 2c73 893c
000003a0: 018c 373d 6053 8bbd b984 213d 6f93 473d
000003b0: 4f7e 983d 1390 073d 4f37 33bd b429 063e
000003c0: cba1 a6bd 9934 bc3d cca2 c1bc d24f 553d
000003d0: ac7c 033d d9e9 6b3d 6f87 573d e4eb 0b3e
000003e0: 714d babd dd45 cebc ff88 0080 9a98 0080
000003f0: d98d 0080 948d 0080 cd88 0080 9b93 0000

decoder.0.bias f4 [64]
-0.0017261497 -6.849259e-09 -0.00064698997 -0.3279803 -0.061378665 -4.2878526e-20 -3.7007555e-13 -3.2981203e-17
-0.09662368 -0.018679136 -0.020595433 -0.23329522 -7.1232216e-06 -0.35880047 -0.0032402445 -0.03155255
-0.20072316 -0.14451987 -0.0038930112 -0.0007033106 -0.09465162 -0.047223322 -3.3961942e-07 -0.017480986
-5.320018e-12 -8.0525083e-13 -0.46889168 -0.056081265 -0.2287129 -0.00019409228 -0.36903268 -0.37718797
-1.5884568e-11 -2.0627704e-09 -0.0005433104 -0.08057239 -0.08902466 -0.064140834 7.3720286e-05 -0.010522585
-2.7368363e-10 -0.0060511534 -1.3951189e-17 -2.5807696e-05 -0.033411883 -0.002615128 1.19537e-11 -0.0015235003
-3.551599e-06 -0.031065788 -0.012954315 1.5837327e-10 -5.3971245e-16 -0.019082151 -0.018848214 -8.567675e-12
-0.05445998 1.4681457e-06 -0.0018364768 -0.00030884513 1.2294365e-06 -0.6198951 1.571286e-17 -0.0073113986
00000000: f93f e2ba b856 ebb1 c39a 29ba 09ed a7be
00000010: 3268 7bbd f57c 4a9f 8255 d0aa 5519 18a4
00000020: a3e2 c5bd fd04 99bc c1b7 a8bc f1e4 6ebe
00000030: 0204 efb6 b2b4 b7be 485a 54bb 3f3d 01bd
00000040: 5f8a 4dbe 04fd 13be e421 7fbb 605e 38ba
00000050: b5d8 c1bd 3e6d 41bd f054 b6b4 4934 8fbc
00000060: 762e bbac 70a8 62ab 9212 f0be 78b5 65bd
00000070: b733 6abe 4085 4bb9 daf1 bcbe c81e c1be
00000080: deb8 8bad a4c0 0db1 f26c 0eba 2303 a5bd
00000090: 9052 b6bd 455c 83bd 479a 9a38 ec66 2cbc
000000a0: 8c75 96af c148 c6bb 50ad 80a3 9b7d d8b7
000000b0: e6da 08bd 9162 2bbb ae4a 522d 30b0 c7ba
000000c0: 0258 6eb6 ae7d febc 563e 54bc 1d22 2e2f
000000d0: c08f 1ba6 2c52 9cbc 9267 9abc 61b9 16ad
000000e0: 6e11 5fbd 1a0d c535 f0b5 f0ba 7eec a1b9
000000f0: 1e03 a535 72b1 1ebf f1ec 9023 7594 efbb

decoder.3.weight f4 [20, 64]
5.0419563e-05 -1.2555617e-21 -2.6012984e-05 -0.48403698 -0.022885315 5.0776e-41 -1.8886756e-20 5.0485e-41
0.20548378 0.002016039 3.968414e-06 0.15816244 2.7752907e-16 -0.052492745 -0.05220416 -1.2791718e-06
0.024793414 -6.877919e-05 -1.0348473e-06 -0.014728396 0.16294354 -0.0015750452 -1.001389e-06 -0.07032551
1.9380931e-25 -4.9844e-41 0.39723715 -0.00089549937 0.4304455 -9.319686e-07 0.1453041 -0.073458806
-0.004485727 1.5501339e-08 -0.002313196 -0.063395105 0.24692556 2.6255604e-05 0.0023632557 -0.0001528952
-1.0388811e-32 0.02005388 4.9626e-41 -4.0234645e-05 -9.51886e-06 -1.7676519e-05 3.3937207e-11 5.653198e-13
-4.6767385e-05 -0.00017315948 -0.020761862 4.685873e-09 -1.4470994e-25 -0.00023826608 -0.001276844 -2.6839e-41
-0.0067807455 3.41497e-05 -0.010596501 7.911906e-05 5.353195e-05 -0.15919833 -1.6481256e-16 -3.021438e-07
-3.7577203e-05 2.8295577e-22 0.0047000083 -0.4844758 0.017439472 4.9586e-41 -3.4042544e-20 4.9956e-41
-0.007883303 -0.006620588 -6.502888e-06 0.05333418 4.257351e-17 -0.00083421526 -0.013707849 -2.048961e-06
0.083729334 -0.0058390372 4.9633036e-07 -0.0055521717 -0.097115934 -6.9071786e-05 -1.0014192e-06 -0.0035165928
-8.1728825e-25 -5.231598e-37 -0.42523557 -0.0001673744 0.07869809 1.6293582e-09 0.010188413 0.24649343
-0.007884657 1.9442524e-08 -0.0064627673 0.30727842 -0.30110452 -4.1257118e-07 0.0053260876 9.509324e-05
1.6839732e-32 2.5733621e-05 -5.0693e-41 -4.3838885e-05 9.942616e-06 5.4173957e-05 -0.0046772305 -1.967103e-14
-1.4404616e-05 5.7674124e-06 -0.15546614 6.29385e-09 -1.1025468e-25 -3.8392764e-06 -0.008496043 4.927e-41
-0.17318416 5.0694674e-05 0.0040488183 -3.0847157e-05 6.731054e-06 -0.08902229 -2.6037214e-17 -0.06629759
3.081327e-05 1.0108538e-21 -0.0014070972 0.47918722 -0.06973583 -4.9725e-41 2.4682974e-20 6.0515e-41
0.2600898 -0.0004475012 -1.3101377e-06 0.07729176 -6.2748346e-17 0.0011690436 -0.011356732 -1.7264199e-06
-0.11537885 4.1184594e-05 0.08020152 -0.01356071 0.12638067 -3.1896278e-05 1.025954e-08 0.005164159
-4.8512185e-26 1.4796265e-37 -0.45346922 -8.6736334e-05 -0.058449067 -1.0067896e-15 0.14000113 0.25038323
0.03327184 -6.4362777e-09 -0.0039211228 0.21374166 0.34212163 0.00031706353 0.0019857644 1.227424e-05
-1.3434125e-32 -0.010491446 -5.1917e-41 -0.00022549345 2.15079e-06 -1.7550154e-05 -0.015033513 -6.172328e-14
-1.613944e-05 4.378503e-06 -0.15466446 5.6344174e-09 -6.109558e-26 -1.0589954e-05 0.0009001709 -1.5937587e-35
-0.12573259 1.0165269e-06 -0.0039438303 -3.548728e-05 -4.3074588e-06 -0.14828427 -1.219513e-16 5.5550345e-06
-1.1969737e-05 -1.482917e-21 0.009432965 -0.47573435 -0.0010429058 5.1331e-41 -2.6246331e-20 4.963e-41
-0.14400555 0.00030336573 2.376632e-06 -0.19199847 9.4328435e-17 0.0103583215 -0.033445194 2.0485193e-06
0.058357056 0.00049008173 -0.019383973 -0.0036400051 0.18181013 -7.2402736e-06 3.502256e-08 0.0010378821
3.8561678e-26 4.9822e-41 -0.42450112 -0.00012220145 0.20526598 4.1370153e-16 0.08066954 0.011408042
0.05442271 -3.4503906e-09 0.0049148435 -0.2744539 0.022498788 0.0042386046 -0.00039863362 -0.0036330589
2.0132032e-33 0.026136164 5.0155e-41 7.3836236e-05 7.4855675e-06 -4.706035e-05 -0.012378775 7.936716e-09
-2.5243162e-05 -4.5441197e-07 -0.03636035 8.378592e-09 -1.02909494e-25 1.4398461e-05 0.027036639 4.836986e-37
0.09091652 -1.880968e-05 0.0112197865 -1.2319081e-05 -2.8731908e-08 -0.061860595 -1.03303477e-16 -0.017227398
00000000: 9879 5338 31bc bd9c 7536 dab7 b2d3 f7be
00000010: fc79 bbbc 8b8d 0000 6061 b29e bb8c 0000
00000020: 576a 523e 861f 043b 6b28 8536 56f5 213e
00000030: 10fc 9f25 a202 57bd 07d4 55bd 02b0 abb5
00000040: 8f1b cb3c 8c3d 90b8 15e5 8ab5 5f4f 71bc
00000050: acda 263e bf71 ceba 7767 86b5 d206 90bd
00000060: 9fec 6f16 f28a 0080 ab62 cb3e f2bf 6aba
00000070: 5a63 dc3e 652c 7ab5 99ca 143e 9271 96bd
00000080: 01fd 92bb ce27 8532 fd98 17bb 4bd5 81bd
00000090: 0eda 7c3e 7b3f dc37 dae0 1a3b 7e52 20b9
000000a0: 65c4 578a 0948 a43c 568a 0000 9fc1 28b8
000000b0: 31b3 1fb7 0948 94b7 e641 152e 961f 1f2b
000000c0: 1928 44b8 2592 35b9 c814 aabc 6001 a131
000000d0: 6924 3396 10d7 79b9 c65b a7ba d14a 0080
000000e0: 0431 debb f63b 0f38 f29c 2dbc b9ec a538
000000f0: 7e87 6038 e304 23be 1504 3ea5 5436 a2b4
00000100: 379c 1db8 4909 ab1b 8702 9a3b 360d f8be
00000110: 39dd 8e3c 3a8a 0000 e9c2 209f 428b 0000
00000120: f828 01bc 84f1 d8bb 6233 dab6 f174 5a3d
00000130: ee55 4424 3daf 5aba e396 60bc e280 09b6
00000140: 497a ab3d 6555 bfbb 903b 0535 feee b5bb
00000150: b8e4 c6bd a2da 90b8 8068 86b5 a376 66bb
00000160: 3ff0 7c97 a505 3283 7ab8 d9be 3981 2fb9
00000170: 772c a13d f2ef df30 4ded 263c c668 7c3e
00000180: a62e 01bc 9002 a732 9fc5 d3bb 9953 9d3e
00000190: 5f2a 9abe 5a7f ddb4 7686 ae3b cb6c c738
000001a0: b0df ae0a 88de d737 508d 0080 a5df 37b8
000001b0: 36cf 2637 d838 6338 7443 99bb 4f2e b1a8
000001c0: 5bab 71b7 b285 c136 8432 1fbe 4a41 d831
000001d0: 1a7d 0896 22d3 80b6 fd32 0bbc 5889 0000
000001e0: 3057 31be fea0 5438 f3ab 843b e261 01b8
000001f0: 50db e136 5251 b6bd a226 f0a3 08c7 87bd
00000200: 7f3d 0138 83c1 981c 596e b8ba 0758 f53e
00000210: a9d1 8ebd 9d8a 0080 c51f e91e b1a8 0000
00000220: 7e2a 853e 989e eab9 fdd7 afb5 244b 9e3d
00000230: 16b0 90a4 983a 993a 9611 3abc 56b7 e7b5
00000240: bf4b ecbd 9fbd 2c38 b240 a43d bd2d 5ebc
00000250: ef69 013e 5ec8 05b8 ef41 3032 1b38 a93b
00000260: 8038 7095 7565 4902 1e2d e8be 37e6 b5b8
00000270: 4a68 6fbd fb17 91a6 755c 0f3e 3b32 803e
00000280: 0e48 083d 1926 ddb1 c37c 80bb 18df 5a3e
00000290: 912a af3e 8c3b a639 9923 023b 76ed 4d37
000002a0: 0882 8b8a 50e4 2bbc b990 0080 7072 6cb9
000002b0: 4a56 1036 ab38 93b7 204f 76bc 0cfd 8aa9
000002c0: 2f63 87b7 0eeb 9236 5c60 1ebe dc98 c131
000002d0: ed43 9795 82ab 31b7 72f9 6b3a 3d7a a985
000002e0: 0bc0 00be 996f 8835 3f3b 81bb 2dd8 14b8
000002f0: ca88 90b6 d5d7 17be ac99 0ca5 6265 ba36
00000300: a1d1 48b7 9317 e09c b98c 1a3c 7493 f3be
00000310: 1db2 88ba 178f 0000 bce3 f79e 598a 0000
00000320: 3176 13be 0f0d 9f39 3a7e 1f36 3f9b 44be
00000330: ae81 d924 f3b5 293c d4fd 08bd 4b79 0936
00000340: cf07 6f3d d478 003a 23cb 9ebc 278d 6ebb
00000350: 6f2c 3a3e 7af1 f2b6 b66b 1633 8b09 883a
00000360: bcf2 3e15 e28a 0000 3658 d9be 3423 00b9
00000370: 3f31 523e 927b ee25 1236 a53d cce8 3a3c
00000380: 59ea 5e3d ea1b 6db1 b20c a13b 3985 8cbe
00000390: 614f b83c fee3 8a3b b3ff d0b9 9d18 6ebb
000003a0: 1940 2709 821b d63c d08b 0000 87d8 9a38
000003b0: 892c fb36 ab62 45b8 58d0 4abc 0c5a 0832
000003c0: 47c1 d3b7 e8f5 f3b4 97ee 14bd 70f1 0f32
000003d0: a4ca fe95 eb90 7137 f17b dd3c 1798 2403
000003e0: 7132 ba3d 7bc9 9db7 32d3 373c 0dae 4eb7
000003f0: 22ce f6b2 8961 7dbd 9c33 eea4 7920 8dbc

decoder.3.bias f4 [20]
0.0030990632 0.009348247 0.000250535 0.0034947116 0.00031325239 0.008590098 0.013315468 -0.0010707891
0.014729135 0.00018576879 0.006325185 -0.009226526 -0.007265595 -0.0047813407 -0.004246011 -0.0067244945
-0.008473359 -0.002669213 -0.008198553 -0.011205802
00000000: a719 4b3b 6429 193c 3d5a 8339 8807 653b
00000010: 063c a439 7bbd 0c3c 1f29 5a3c b859 8cba
00000020: 7852 713c eeca 4239 7f43 cf3b db2a 17bc
00000030: 3a14 eebb cbac 9cbb 1f22 8bbb 2659 dcbb
00000040: d8d3 0abc f7ed 2ebb 3953 06bc 8a98 37bc
