checkpoints/checkpoint_epoch_50.pth (torch, 281254 bytes, 24 tensors)

fc1.weight f4 [256, 2]
000000 2c 36 f2 3d 24 53 20 3f 66 62 05 3f 58 26 bb 3e
       0.11826739 0.6262686 0.5210327 0.3655269
000010 13 11 2f 3f 76 41 2f bf b9 e3 71 3e 1c a0 9c be
       0.6838543 -0.6845926 0.23622026 -0.30590904
000020 f4 7d 60 3e 67 56 75 be 32 d8 32 be 7f fb f4 3e
       0.21923047 -0.23958741 -0.17465284 0.47848126
000030 1d 12 d7 be 1c 9b d1 3e 81 f6 c4 3e 2b 95 25 3e
       -0.42006007 0.40938652 0.38469318 0.16170184
000040 c9 99 a3 3e f5 cd 24 3f 6d b6 32 bf ee 8d f4 be
       0.31953266 0.64376765 -0.6980961 -0.47764534
000050 8d d4 e9 3e de e3 db be 88 41 55 3e f6 93 9f 3e
       0.45669976 -0.42947286 0.2082578 0.31167573
000060 97 1e ee 3e 0b 88 df be 5a 8a ee bd fa 29 cf be
       0.46507713 -0.4365848 -0.11647482 -0.40461713
000070 a1 a8 3c 3d d7 fc 27 be 0b 7b b4 be 27 ce 85 3d
       0.046059255 -0.16405044 -0.35250124 0.06533461
000080 c8 7d a0 be 97 a1 3d 3e bd ae e4 be 98 4d ff 3e
       -0.31345963 0.18518673 -0.44664565 0.49863887
000090 dc 14 af be 8c dd 31 3f 53 86 b9 be 32 c5 0e be
       -0.34195602 0.6947868 -0.36235294 -0.13942412
0000a0 66 f1 0a 3f bb e4 f7 be 66 0a 63 be 76 9a 32 bf
       0.54274595 -0.48416695 -0.22171935 -0.6976694
0000b0 81 40 c1 3e ae a1 9b 3e da 73 e6 3c a3 7b f5 bd
       0.37744525 0.3039679 0.028131414 -0.119864725
0000c0 73 ee 57 be af cb 07 3f 18 19 3b 3e 40 a6 02 bf
       -0.21087055 0.5304517 0.18271291 -0.5103493
0000d0 28 fd 0f 3f 26 12 b4 be 49 1b 06 3f bb d2 a3 3e
       0.5624566 -0.35170096 0.52385384 0.31996712
0000e0 60 5e e9 be 92 9e 2c 3f 8d 1a fa 3e c2 8b 53 3e
       -0.45579815 0.6742946 0.48848382 0.20658782
0000f0 6d 73 20 3f 83 6c 26 3f 3f c6 06 bf be f6 22 3c
       0.62676126 0.65009326 -0.5264625 0.009946523
000100 1b 6d 1c bd 41 86 0d bc 2a 6b f5 be 87 ba 1d bf
       -0.03818999 -0.008637966 -0.47933322 -0.61612743
000110 91 c2 0e bf ac c1 97 3e cd 2d b2 be cf 2c 35 3f
       -0.55765635 0.29639947 -0.34800568 0.707715
000120 e7 e9 0d 3e b9 91 d8 bd a0 57 af 3e dd 34 32 3d
       0.13858758 -0.105746694 0.3424654 0.043507446
000130 bf 16 9e be 3d b3 1d be d1 fc 0c 3d 5c 70 34 3f
       -0.3087673 -0.15400405 0.034420792 0.70483947
000140 98 78 1f bf 88 3a e5 be 68 78 fb 3d 86 f8 28 bd
       -0.62293386 -0.44771218 0.12278825 -0.041252635
000150 f7 4d 05 3f 17 c8 0f 3f a8 a7 9d 3e e5 9e 15 3f
       0.5207209 0.5616469 0.30791974 0.5844558
000160 46 2c 3d 3e dc af 2b bf 0e 07 0a bf 63 2e f5 be
       0.1847392 -0.67065215 -0.53917015 -0.47886953
000170 fc 76 0a 3f 31 4f 0e bf 05 b6 06 3f d0 ab e3 bd
       0.54087806 -0.55589586 0.5262149 -0.11116755
000180 0c 49 d3 be 64 ae 2e bf 18 f8 f4 3e 8b 42 b6 3d
       -0.41266668 -0.6823485 0.4784553 0.08899411
000190 8c 69 24 3d 67 e6 00 bf ac ba 28 bf 5a c7 97 3e
       0.04013972 -0.50351566 -0.6590984 0.2964428
0001a0 0c fc f9 3d f9 cc 02 3f 25 85 21 3f 32 2c 23 bd
       0.12206277 0.51094013 0.6309379 -0.03983707
0001b0 f0 88 ac 3e 1f 63 b7 be 7f 52 64 be c8 a1 ae be
       0.33698225 -0.3581781 -0.22297095 -0.34107804
0001c0 10 6f e8 be bb 97 d7 be 4e 9e 8b 3b 00 31 07 bf
       -0.45397234 -0.4210795 0.0042608147 -0.52809143
0001d0 4f b7 32 be 0f a9 e8 be 80 56 f8 be bb f0 e1 be
       -0.17452739 -0.4544148 -0.48503494 -0.44128975
0001e0 2b 60 82 be 40 58 fa 3c ab 7e 5b be 76 b4 1a bd
       -0.25463995 0.030559659 -0.21435039 -0.037769757
0001f0 64 ee a0 be 28 55 99 bd 92 7f 25 3f 44 b5 42 3e
       -0.31431878 -0.074869454 0.6464778 0.1901446
000200 bb fe b0 bd 72 cd 5d 3d 6c 63 1a bf f0 40 1f 3f
       -0.08642336 0.054151006 -0.60307956 0.6220846
000210 71 42 27 3f a7 17 c5 3e 57 f3 0f 3f c7 b4 32 bf
       0.65335757 0.38494608 0.5623068 -0.69807094
000220 11 ad 88 3d a9 c5 39 be 86 3c 77 3e ee 7e 10 3f
       0.06673635 -0.18141808 0.24144182 0.5644368
000230 03 11 98 3e 98 93 28 3d 63 16 0a 3f 5a 6f 9b be
       0.2970048 0.04115638 0.5394041 -0.30358392
000240 bc 2a 26 3f 09 5e 13 bf 4a a2 4e 3e 29 a5 b8 3d
       0.6490896 -0.5756536 0.20179096 0.09015877
000250 e6 82 4e be e7 4d 25 bf 1f 41 0f 3f a9 33 c1 3c
       -0.20167121 -0.64571995 0.5595874 0.023584204
000260 c7 6b 2c 3f 9d e5 86 3e 19 d1 78 3e 50 a0 7e 3e
       0.67351955 0.26347056 0.24298514 0.24865842
000270 92 50 c7 3d 2f 28 33 bf ed 0b bb 3e 08 7e f3 be
       0.097321644 -0.6998319 0.36532536 -0.47557092
000280 a3 49 79 be c7 f0 3a be e1 b6 db be e9 ac b1 3e
       -0.24344496 -0.18255912 -0.42912963 0.34702232
000290 76 53 7a be 79 20 bb be fa 8f 23 bf ae 09 0a bf
       -0.244459 -0.36548212 -0.63891566 -0.5392102
0002a0 d0 b2 c7 3d e9 e8 bb be 1d 24 8e 3e e7 5e 8a 3e
       0.09750903 -0.36701134 0.27761927 0.2702553
0002b0 05 09 bd be c2 ea 98 3e 77 d8 26 3f a1 e1 fc bd
       -0.36920944 0.29866606 0.6517405 -0.12347723
0002c0 d2 35 20 be b8 74 5e 3d 40 10 03 bf d6 a5 bb 3e
       -0.15645531 0.05431053 -0.5119667 0.3664996
0002d0 a1 2a 59 be e7 4c aa 3e 6e 77 9a bd 71 3e bf 3e
       -0.21207668 0.33261797 -0.07542311 0.37352327
0002e0 0c 07 e9 3e fe f5 ae be d2 3d 80 be e6 9e 95 3d
       0.4551319 -0.34172052 -0.25047165 0.07305698
0002f0 8d 96 6f 3e 36 2f 17 bf 1a 8d 61 be 4b 78 da 3d
       0.23397274 -0.59056413 -0.22026482 0.10667475
000300 e2 09 01 3f cf 62 b9 be 09 23 93 3e 19 d0 99 3e
       0.50405705 -0.36208197 0.28737667 0.30041578
000310 a5 e0 1b 3f 61 4a d9 3e 88 4a df 3d ef 9a 03 3f
       0.60889655 0.4243956 0.109028876 0.51408285
000320 a2 73 4f 3d 8a b2 61 bc f4 5f dc be 15 9e 0e 3f
       0.050647385 -0.013775477 -0.43041956 0.55709964
000330 dd 52 1e bf 81 9d 96 3e 4e bd 8f 3e e4 25 5e be
       -0.6184519 0.2941704 0.28074116 -0.21694142
000340 1e 2c 1b be c4 16 d1 3e 33 7b 07 3d 53 37 de be
       -0.15153548 0.4083768 0.033076476 -0.43401584
000350 60 1b d5 be 38 d8 be be a0 c6 86 3e cc d3 9d be
       -0.41622448 -0.37274337 0.26323414 -0.3082565
000360 62 e1 a3 3e 9a 20 21 bf 0f b1 45 3d 7a b5 31 3f
       0.3200789 -0.6294037 0.04826456 0.69417536
000370 ba bc ec 3d db d3 c0 3e 1b 29 bf 3c 3c 98 ff be
       0.11559434 0.37661633 0.02333503 -0.49920833
000380 23 f3 c6 3e c0 59 af 3e ff 9d 1a bf 71 33 92 bc
       0.38857374 0.3424816 -0.6039733 -0.017846795
000390 09 96 c2 3d 49 7b 9a 3e f6 25 15 3e 24 a4 60 be
       0.09501273 0.30172184 0.14565262 -0.21937615
0003a0 56 d9 f9 3e 0a fc 56 3e 2b 92 58 be 34 2b d7 3d
       0.48798627 0.20994583 -0.21149509 0.10506287
0003b0 d6 ac 90 3e fa b4 03 bd 9f 2e 65 3d 8b 2e a1 be
       0.28256863 -0.032155015 0.055952664 -0.31480822
0003c0 35 09 02 be b5 6a 1e 3f f2 63 c5 bd 96 8f c9 be
       -0.12698825 0.6188157 -0.09638204 -0.3936736
0003d0 28 20 0c bf c9 dc f7 3e 77 4a c5 be 55 56 ed be
       -0.54736567 0.48410633 -0.38533375 -0.4635493
0003e0 7b 22 04 3f 49 bf ce be c4 6d 14 3f e0 f2 8a 3d
       0.51615113 -0.40380314 0.5797999 0.06784606
0003f0 ab fb 28 be 73 08 0d 3f 4e e5 3e 3e b8 91 96 be
       -0.16502254 0.5509102 0.1864216 -0.2940805

fc1.bias f4 [256]
000000 1a 18 34 3f 1c af 0b bf 6c 46 01 bf 28 de 9d be
       0.70349276 -0.5456407 -0.5049808 -0.30833554
000010 de b4 34 bf 66 13 a8 3e f7 94 fb 3e 01 37 cb 3e
       -0.7058848 0.328273 0.4913709 0.39690402
000020 3a f0 44 be 24 72 c1 3e 12 e6 05 3e 9a b2 ea 3b
       -0.19232264 0.37782395 0.13076046 0.0071624042
000030 03 4d df 3b ee 26 31 bf 35 df 92 be 1c 46 19 3f
       0.0068146004 -0.69200027 -0.28685918 0.59872603
000040 8c 29 d1 3e 6c f0 cc 3e c9 01 9e be 34 8b ff be
       0.4085201 0.40027177 -0.30860737 -0.4991089
000050 30 95 91 3e 7c 42 78 be 3d e4 0a 3f 0d 12 16 3f
       0.28434134 -0.24244112 0.54254514 0.58621293
000060 61 8f 09 bf a9 46 21 bf 70 78 15 bf 6f bb 61 be
       -0.53734404 -0.62998444 -0.583869 -0.22044156
000070 1a 37 87 3e 28 5a de be 5b 6c e2 be f1 81 03 3f
       0.26409227 -0.4342816 -0.44223294 0.5137015
000080 c3 59 3c 3e dd 59 ab bd e0 26 9e 3d 7c 12 0a be
       0.18393616 -0.083667494 0.077222586 -0.13483614
000090 45 85 8d bd 1c 47 d4 3e 27 81 fb be 42 ae 98 3e
       -0.06910185 0.41460502 -0.49121973 0.29820448
0000a0 a1 8a 11 be 4e 97 a4 3e 6a b8 d7 be 53 9e 8c 3e
       -0.14213039 0.32146686 -0.42132884 0.27464542
0000b0 3f 93 3b bc 84 67 b2 3e 5d 7a 33 3f 32 4d 9b be
       -0.01144868 0.348446 0.70108587 -0.30332333
0000c0 9d 3b 0e 3f 68 9a d6 bc 92 7b 19 3f 7e a1 ff be
       0.5555971 -0.026196674 0.5995418 -0.49927896
0000d0 a5 c7 fc be 97 af 9c 3e ad 92 eb 3e de 8c df be
       -0.49371067 0.30602714 0.46010342 -0.4366216
0000e0 f3 6b 06 bf 87 cd 9d 3e 52 01 07 bf 31 61 02 bf
       -0.5250847 0.30820867 -0.5273639 -0.5092955
0000f0 bd e9 07 bf 53 5c b9 3e b0 12 be 3e bf f4 8b 3e
       -0.5309103 0.3620325 0.37123632 0.27335164
000100 2a a1 0c 3f a9 43 e2 3e 8a ec 07 3f f8 82 f3 be
       0.54933417 0.44192246 0.53095305 -0.4756086
000110 c8 ab 2a bf 40 83 03 3e 69 17 06 bf c1 ed 30 3f
       -0.6666837 0.12843037 -0.5237947 0.69112784
000120 fb 72 07 be c2 78 23 bf c7 b2 0b 3f 06 1f eb be
       -0.13227455 -0.63856137 0.5456967 -0.45922107
000130 f1 a3 94 3e 9b e6 61 3e 90 90 18 3f 7b c4 30 3f
       0.29031327 0.22060625 0.59595585 0.69049805
000140 66 ed 5b 3e 21 55 2b 3d 0d fe b1 be 93 8d ec be
       0.21477279 0.041829232 -0.34764138 -0.46201763
000150 21 d1 91 be e2 f3 cc 3e 12 18 09 3f c9 34 f8 3e
       -0.28479865 0.40029818 0.53552353 0.48477772
000160 3d 07 f2 3e 33 fc 9a be 24 5d b1 bd 6a 22 15 3f
       0.47271147 -0.30270538 -0.08660343 0.58255637
000170 4c 0c a7 3c 4d 2a 14 3f a8 1a 0c 3f 68 d4 27 bf
       0.020391606 0.57877046 0.54728174 -0.6555848
000180 50 87 79 be 88 38 48 be 6e 64 01 3e b2 79 2e bf
       -0.24368024 -0.19552815 0.12635967 -0.6815444
000190 17 2b 74 3b 1d b5 d0 3e 03 d8 cc 3d ef 02 2e 3f
       0.003725713 0.40763178 0.100021385 0.67973226
0001a0 1f 0b 53 3e 45 db 66 3e 47 af 08 3f 08 13 dc 3d
       0.20609711 0.22544582 0.5339245 0.107458174
0001b0 f2 94 8a be ac c0 06 3e f6 34 ee 3d b8 d3 17 bd
       -0.2706676 0.13159436 0.11631195 -0.037067145
0001c0 3e 3d db be 73 2b 82 bc 1a 9a 23 3f fe 2d e6 be
       -0.42820162 -0.015889859 0.63907015 -0.44956964
0001d0 ed 75 37 be d1 c6 21 bf b5 9a 83 3d ef 39 ea be
       -0.17916079 -0.63193995 0.064259924 -0.45747325
0001e0 04 c5 c6 3e 3a bb 9e be 37 5a 50 be 41 3b 1f bf
       0.38822186 -0.31002218 -0.20346914 -0.6219979
0001f0 1d e5 b6 be ae 1a e8 3e 05 da a5 3b c9 b0 22 bd
       -0.35721675 0.45332855 0.0050613903 -0.039719377
000200 61 f0 09 3f ee f3 1b bf 6f 32 6c bc a9 37 28 bf
       0.53882414 -0.6091908 -0.014416321 -0.6570993
000210 d7 ef 10 bf 8f 36 79 be 18 85 07 bf 0c 1f e7 3e
       -0.56615967 -0.24337219 -0.5293746 0.45140874
000220 0c 22 0b be 6c 24 5f 3e a6 c8 41 be 3a d3 3c be
       -0.13587207 0.21791238 -0.18924198 -0.18439952
000230 a1 09 b9 3e 0c 9d 34 bf bf 80 f2 3e ae 31 a2 bd
       0.3614016 -0.70552135 0.4736385 -0.07919632
000240 da e1 17 bf 11 37 1f 3f b1 56 bf 3d 48 ac 00 bf
       -0.59329 0.621934 0.09342707 -0.5026288
000250 5a 73 a8 3e 1a e3 17 3f a6 3d 1a bf 09 b5 0e 3f
       0.32900506 0.59330904 -0.6025032 0.5574499
000260 eb 54 b3 bc 28 01 d1 be d7 3e 88 3e 2f 8a 26 3f
       -0.021891078 -0.40821195 0.26610443 0.650546
000270 83 66 e0 3e 74 f6 74 be 2b 70 90 3e 03 59 42 be
       0.4382821 -0.2392214 0.28210577 -0.18979268
000280 e3 bf c1 3c 5c 91 9f be b7 fc d6 be 27 fd 9e 3e
       0.023651069 -0.31165588 -0.4198968 0.31052515
000290 50 f5 3b be 90 a3 da 3c 1c f4 4a bd 11 56 80 bd
       -0.18355298 0.02668932 -0.049549207 -0.06266416
0002a0 ca ab 18 3f d5 71 02 bf 92 19 04 3e 82 3d e7 be
       0.5963713 -0.50954944 0.1290038 -0.45164114
0002b0 1a df 59 3d 04 81 9e bb c2 3c 3e 3e cc 38 5a 3d
       0.05319128 -0.004837157 0.18577865 0.053276822
0002c0 61 17 e2 be e9 83 28 3f 7f 38 09 be f7 fc 1d 3f
       -0.44158462 0.6582628 -0.13400458 0.6171412
0002d0 61 b7 e5 3e 3e 7c 9e be 5e e1 dd be 21 41 17 bf
       0.4486647 -0.30954164 -0.43336004 -0.59083754
0002e0 cd b7 57 3e c1 9d 03 3c a2 3e fa 3d 9c 34 2b 3f
       0.21066208 0.008033217 0.122189775 0.6687715
0002f0 69 66 0c 3f 64 ac 5a 3e 19 ef 80 3e 03 e7 97 3e
       0.54843765 0.21354824 0.25182417 0.29668435
000300 d7 23 f8 3e 02 98 06 3f 6b 89 29 bf 11 da cd bb
       0.48464844 0.52575696 -0.6622531 -0.006282099
000310 ed d5 0c bf 17 80 fd bd 55 61 37 3d 55 16 6d 3e
       -0.55013925 -0.12377947 0.044770557 0.2315305
000320 48 ba 9d 3e 74 63 9f 3e 13 c7 69 3e 47 a7 46 3d
       0.30806184 0.31130564 0.22829847 0.04849937
000330 3a 1f 88 bd 8d 5d 88 be 05 f2 12 3f db 53 dd bd
       -0.06646581 -0.26633874 0.5740054 -0.1080701
000340 9e 2e 98 bc cd 31 c8 be 61 e8 93 3e 0d d1 15 3f
       -0.018576916 -0.39100495 0.2888823 0.5852211
000350 33 0c 93 3d d2 6c f4 3e 06 35 30 3f 64 19 01 bf
       0.07180061 0.47739273 0.6883091 -0.5042937
000360 e2 61 90 3c 05 76 75 3e 61 5e e3 be 40 f6 30 bf
       0.0176248 0.23970802 -0.44407943 -0.6912575
000370 eb 72 67 3e c7 6b d3 3e 06 9c 05 3f 14 f4 d7 3e
       0.22602431 0.41293165 0.521912 0.42178404
000380 99 38 b3 be a5 a8 70 3e 0a e2 dc 3e fc 8c fa be
       -0.35004118 0.23501833 0.43141204 -0.48935688
000390 08 97 88 3e 69 4d 1b bf f7 9e 8e be 50 80 3d 3e
       0.26677728 -0.60664994 -0.27855656 0.18505979
0003a0 c1 33 76 3e fd 7a 8f 3e 1d 9e 0c 3f ab c4 87 3e
       0.2404318 0.2802352 0.5492876 0.26517233
0003b0 c1 f0 22 bf c5 0a 32 3f 5c 00 a0 be 21 36 d1 be
       -0.6364861 0.69547683 -0.31250274 -0.4086161
0003c0 9a 37 07 3f 10 d0 73 be 2a 70 6b bd ae e7 09 bf
       0.52819216 -0.23809838 -0.057480015 -0.5386914
0003d0 e0 82 18 3f 6d 6c 12 3f 31 c0 06 3f 0f be 38 bf
       0.595747 0.57196695 0.5263701 -0.72165006
0003e0 be af aa 3e e2 b9 11 bf 68 92 fc be 5f 94 c4 3e
       0.33337206 -0.5692426 -0.4933045 0.38394448
0003f0 5f f3 e2 be dd 1b 9c 3e 1f f4 ae be 0e 12 21 bf
       -0.44326302 0.30490008 -0.34170625 -0.62918174

fc2.weight f4 [32, 256]
000000 2e e8 20 3d 3d 81 08 3c a0 6c e1 3a a6 6b 1f bd
       0.039283924 0.008331594 0.001719851 -0.03892102
000010 f4 38 2b 3d f7 39 94 bc f6 79 04 3b 94 5b 29 bd
       0.04180236 -0.018094046 0.0020214296 -0.0413471
000020 99 41 c1 3c a6 33 d7 3c 5c 61 60 3d d0 e0 d7 3c
       0.02359085 0.026269745 0.05478035 0.026352316
000030 95 33 62 bd 31 d1 89 bd 24 90 21 bc 8f 37 a3 bc
       -0.055224974 -0.06729353 -0.009861026 -0.019923953
000040 67 49 6a 3b bb 04 12 bd 94 a3 f1 3c af 76 05 3c
       0.0035749318 -0.035649043 0.029496945 0.008145972
000050 d0 1a 79 bd bb 89 14 bc 71 1d 18 3d a9 d3 2d 3d
       -0.060816586 -0.009066041 0.037137453 0.042438183
000060 3a 14 64 bd 05 2f 3d bd 42 66 58 bd 3b bd aa 3c
       -0.055683352 -0.04618742 -0.052831896 0.020842185
000070 0f 7b 0f 3c 3e 61 62 bc 3b ae 32 3d 9d e3 ea bb
       0.008757367 -0.01381713 0.04362319 -0.007168247
000080 26 38 d7 bb 33 c9 71 bd c8 45 ec 3c 62 77 63 bb
       -0.0065679727 -0.05902977 0.028841868 -0.003470861
000090 fc 88 17 3c 61 02 a9 3c b6 e9 46 bd 50 f7 be 3c
       0.009248968 0.020631017 -0.048562728 0.023311287
0000a0 e9 b7 52 3b aa 2a 64 3d ce 96 79 3c 3e 0e 08 bc
       0.0032153076 0.05570475 0.015233709 -0.008304177
0000b0 47 b0 64 bc de a8 96 3c 02 5b 03 3d 2e 6e 01 bd
       -0.013958043 0.018391069 0.032069214 -0.031599216
0000c0 b1 81 95 3c 9b 77 5b bd 63 39 cd bc b3 e2 0f 3c
       0.018250318 -0.05358086 -0.025051778 0.008782077
0000d0 56 bb 7a 3c 1b 7d a0 bc 92 02 07 3d 9b bf 5a bd
       0.015303453 -0.019590905 0.032961436 -0.053405385
0000e0 8d 76 34 3d 76 9e 90 bc 8a b9 91 bd 2d c4 75 bd
       0.04405837 -0.017653685 -0.07115467 -0.06000154
0000f0 ed c7 b9 3c 2f 27 b0 bb 6f 22 07 3d b6 8d 5c 3d
       0.02267834 -0.005375765 0.032991823 0.053846084
000100 fe 9b 8c bc 80 12 a6 ba ab d9 a4 3c e0 3d 13 bd
       -0.017164227 -0.0012670308 0.020123323 -0.03594768
000110 66 9f f6 3c 28 86 a2 ba 3d fc 33 3c 9f b8 a5 bb
       0.030105304 -0.0012399601 0.010985431 -0.005057409
000120 95 c2 45 bc 73 e7 56 bb 38 47 80 3c 3a 7a 97 3c
       -0.012070318 -0.0032791763 0.01565896 0.0184909
000130 6c 40 19 bd ac 4b 3a 3d 30 db 67 bc 0e cd 44 bd
       -0.037414953 0.045482323 -0.0141513795 -0.048047118
000140 38 1a 31 bd 75 91 05 39 6c aa 56 bd 0b 1b 5f bd
       -0.043237895 0.00012738055 -0.05240862 -0.05446915
000150 6e 09 fa bc 4a ad 11 bb da 11 80 bd 11 01 2d 3d
       -0.030522075 -0.0022228532 -0.06253405 0.042237345
000160 e1 7c 23 3d 42 e4 37 bd 8c 31 2a 3c f1 45 35 bd
       0.039914016 -0.044895418 0.010387789 -0.044256154
000170 88 a0 63 bd 8b bc a4 3c 1f 02 3d bd f6 49 01 3d
       -0.055573016 0.020109436 -0.0461446 0.031564675
000180 17 0c 62 3d e6 d1 e4 bc 6f ac 22 3d 94 b8 1f bd
       0.05518731 -0.027932119 0.039715227 -0.038994387
000190 3e 53 c2 3c 13 38 32 3d 78 d9 95 bd 9e ea 04 3d
       0.023721334 0.043510508 -0.073168695 0.03245031
0001a0 ae 11 53 bd 35 94 d8 3c 19 7d 2d 3d 79 a0 4e 3c
       -0.051530533 0.026437858 0.04235563 0.012611502
0001b0 09 9d 53 bc eb 92 e7 39 e9 c2 d8 bc 6b 6c 01 3d
       -0.012915858 0.00044169216 -0.026460128 0.031597536
0001c0 be d2 06 bd a8 18 2c 3d a5 42 63 b9 64 f2 2b bd
       -0.032915823 0.0420157 -0.00021673234 -0.04197921
0001d0 23 6a f4 3c 07 9e 22 bc 1c 91 97 bc cd 14 bf 3b
       0.029835766 -0.009925372 -0.01850181 0.005831337
0001e0 c8 43 17 3d f6 13 d8 bb 65 6b 84 bc b0 79 03 bd
       0.036929876 -0.0065941764 -0.016164491 -0.032098472
0001f0 78 6f 9c ba 3b 3f 84 bd 18 54 86 bd 0d 26 5a bd
       -0.0011935076 -0.06457373 -0.06559008 -0.053258944
000200 7c ea c8 b9 2f f0 f4 bc 84 18 0a 3c 30 47 16 3d
       -0.00038321677 -0.029899685 0.008428697 0.036688983
000210 88 70 68 3d 20 1e 3f 3d ef d4 ee 3c 7f 2b 28 3d
       0.056747943 0.04665959 0.029154269 0.041057106
000220 7f 77 27 bd 29 b8 39 3d 31 9d a6 3c 1a 7c 88 3c
       -0.040885445 0.045341644 0.020338627 0.016660739
000230 15 51 cd bc 13 53 7b 3c cb 36 30 3d a3 ac 81 bd
       -0.025063077 0.015339631 0.043021005 -0.06331756
000240 7f 13 f0 ba 09 e2 d7 3c 35 fe a1 3c de 61 6c bd
       -0.0018316357 0.0263529 0.019774536 -0.05771052
000250 09 d0 aa 3c 17 42 4d 3d 5b 05 4d 3d 6c 24 39 bd
       0.020851152 0.050111856 0.050053935 -0.04520075
000260 c9 85 91 3c 13 2a ad bc 36 8e ed 3c 29 1f 41 bd
       0.017763989 -0.021138227 0.028998476 -0.047148857
000270 5c 83 b5 bc 4c 93 63 bc 1b 68 0a bb de a5 a3 3c
       -0.022157364 -0.013890099 -0.002111918 0.019976553
000280 da c8 89 bd ac f0 56 3d 47 01 aa bc 33 ad 28 3b
       -0.067277625 0.052475616 -0.020752562 0.0025738
000290 62 d9 1e bc ae fa 6b bd b8 41 fb 3c 34 f2 7a bd
       -0.009695383 -0.057612114 0.030670986 -0.06126614
0002a0 cf 7e 5e bc 3a e7 c1 bc 5e 59 3f bc 66 f1 47 bd
       -0.013580038 -0.023669828 -0.011679022 -0.0488142
0002b0 21 b8 b3 bc 6f 42 78 3c d2 ae 62 bd e0 29 13 3d
       -0.021938385 0.015152558 -0.055342503 0.035928607
0002c0 5b d3 b2 bc 7a 01 08 3d 8a 36 87 bd 24 21 4f bd
       -0.021829298 0.033204533 -0.066021994 -0.050568715
0002d0 9b 12 ca bc 78 60 ba bc 44 f1 0d 3d 97 f9 66 bc
       -0.024667075 -0.022751078 0.034653917 -0.014097593
0002e0 54 44 16 3d 01 7b 79 3d b7 74 5f 3c 1e 87 60 3d
       0.036686257 0.06090832 0.013638667 0.054816358
0002f0 75 fe db 3c c4 b7 47 bd e8 92 08 3d 2a 15 f2 bb
       0.026854733 -0.048759237 0.033343226 -0.007387777
000300 1f a8 74 3c 4f 51 94 bd 8e 02 c4 3c 58 49 37 bd
       0.014932661 -0.07242071 0.023927 -0.04474768
000310 4e d0 89 bd 4e 75 18 bc c8 61 79 bb 9b a8 4f 3d
       -0.06729184 -0.009305311 -0.0038052667 0.050697904
000320 0b f5 f7 3c a5 5c 37 bd c4 25 c5 3b a0 97 26 3d
       0.030268213 -0.044766087 0.006016465 0.040671945
000330 84 49 1b 3c 0b 47 53 bd e3 fc 90 bd 38 61 ef 3c
       0.009477977 -0.051581424 -0.07079484 0.029221162
000340 7f 63 6e bd 27 ff 89 bd d9 82 8c bd 8b ff 20 3c
       -0.058200356 -0.067381196 -0.06860895 0.009826551
000350 c9 90 c0 bb f2 87 01 bd 36 76 79 3c 15 36 f3 bc
       -0.0058766347 -0.03162379 0.015225938 -0.029688874
000360 17 9b 03 3d 8a 2f ff 3b 89 2c da 3b 26 ec b7 3c
       0.032130327 0.0077876495 0.006658141 0.022451472
000370 99 a0 40 3d 8d 59 b3 3c ce e2 87 3c fc 6f b1 bc
       0.047028158 0.021893287 0.016587641 -0.021659844
000380 bd 6a 72 bd 25 79 08 3c 87 16 c6 bc fe 30 7d bd
       -0.059183825 0.008329664 -0.024180664 -0.0618143
000390 e5 80 5f bd e3 47 12 bb de ee 4f bd 7d 49 f1 bb
       -0.054566283 -0.002232068 -0.05076491 -0.007363497
0003a0 a6 f6 be bc 34 ab 50 3c a0 6d 3a bd 42 08 37 bd
       -0.02331097 0.0127361305 -0.045514703 -0.04468561
0003b0 70 7a 2c 3d d4 1d c5 3c 44 c9 3d 3d b4 0e 9e bb
       0.042108953 0.024062075 0.04633452 -0.00482353
0003c0 e9 3c 70 bc a2 2a d7 3c 15 c6 d7 bc 30 b8 a7 bb
       -0.01466296 0.026265446 -0.02633957 -0.0051183924
0003d0 bc e6 ed 3c 5f 39 1c bd de e1 40 bc e1 81 84 bd
       0.029040687 -0.03814065 -0.011772601 -0.06470085
0003e0 60 6a ed bc 8a 7c 47 bd 91 2b 57 bc 1a c7 50 3d
       -0.028981388 -0.048702754 -0.013132946 0.050971128
0003f0 6d 59 68 bd d1 da 49 bc b0 de 1b bd fc b3 ba 3c
       -0.056725908 -0.012320236 -0.03805417 0.022790901

fc2.bias f4 [32]
000000 41 a3 9e 3c ea 45 8c bc bd a9 17 bd cf 23 61 3d
       0.019364955 -0.017123181 -0.03702711 0.05496579
000010 04 7d 93 bc 22 40 84 bd 53 28 88 3d 5d 29 88 bd
       -0.018003948 -0.06457545 0.06648316 -0.066485144
000020 fd 52 87 bd aa be d8 3c f3 dc 06 3d dc 28 ba 3c
       -0.06607626 0.026458103 0.032925557 0.022724561
000030 fd da a1 bc 30 2a 8c 3c d8 67 69 bd 6f e3 e3 3c
       -0.019757742 0.01710996 -0.0569838 0.02781841
000040 7a 2d 51 3d a3 23 40 bc b7 6f 4b bc 89 3f 3c 3c
       0.05106876 -0.011727246 -0.012416772 0.011489757
000050 60 1a 3f 3d 41 7e f8 3c 4b 9f f5 3b f6 64 1f bd
       0.046656013 0.03033364 0.007495796 -0.038914643
000060 dc 54 01 3c fa d9 68 bd e8 5e fe bc e2 2b 33 bd
       0.007893767 -0.056848504 -0.031051114 -0.04374302
000070 1c 7b 68 3d a9 ff 56 bd e3 fd 10 bd 0e da ce bb
       0.05675803 -0.05248991 -0.035398375 -0.0063126152

fc1.weight f4 [256, 32]
000000 2d a0 ee bd 27 90 c7 3d 3b 16 99 3c 6d ef 32 3e
       -0.11651645 0.09744292 0.018687358 0.17474146
000010 88 fd ec bd 29 4a 0d 3e a7 f2 cf bd a9 28 1d be
       -0.11571795 0.13797821 -0.10153704 -0.15347542
000020 73 04 be bd d4 36 17 be 43 19 3a 3d 2a 93 aa 38
       -0.09278192 -0.14767009 0.045434248 8.133643e-05
000030 a2 f7 20 bd 66 4d 09 3e 89 4e 3a 3e 00 2d 91 3d
       -0.03929866 0.13408431 0.18194021 0.07088661
000040 db 16 0e 3e 1e 93 8a bd dd d8 1f 3e c3 7b e9 3d
       0.13875906 -0.067663416 0.1561007 0.11400559
000050 6c a9 03 be 76 ac a9 bd 75 b0 f5 3d 5d 45 ca bd
       -0.12857598 -0.082848474 0.11996547 -0.09876511
000060 49 e4 69 3d aa 50 e1 bd 1c 75 2b be 5b c5 14 3e
       0.057102475 -0.110017136 -0.16743892 0.1452841
000070 24 7b b4 bd fa c9 9b bc 83 29 cb 3d d4 d1 22 3d
       -0.0881255 -0.019017208 0.09920027 0.03975089
000080 b0 a7 9f 3c b4 e0 32 bd 82 0f 37 bc f9 8e 64 3d
       0.01948914 -0.043671325 -0.011173131 0.05580041
000090 90 9e 26 3e c2 57 23 be 9b 1f 23 3d 66 69 75 3d
       0.16271424 -0.15951446 0.039825063 0.05991497
0000a0 f4 54 97 3c d9 af d0 bd 10 f8 a6 3b 70 0b 8f 3c
       0.018473126 -0.1018979 0.0050954893 0.017461509
0000b0 64 e3 b0 3d 93 fd 15 3d be d3 58 3b 13 a6 30 be
       0.08637121 0.03661878 0.0033085193 -0.17250852
0000c0 08 98 95 3d eb db 55 bb 16 75 3e 3d 18 3d 28 be
       0.07304388 -0.0032632302 0.04649838 -0.16429555
0000d0 88 d4 aa bd 5f e9 de 3d 49 bb ed bc 2b 17 48 bc
       -0.08341318 0.10884356 -0.029019969 -0.012212555
0000e0 c9 29 14 bc c6 80 d6 3d 39 cf 27 3e 0f 50 e5 bd
       -0.0090431655 0.1047378 0.16387643 -0.111969106
0000f0 cb d1 0a be 8e ba 21 be ee 56 d3 3c 33 f0 ce 3b
       -0.13556592 -0.15793821 0.025798287 0.006315255
000100 c7 59 80 3d eb 79 03 3e 14 82 34 bd 0b f4 69 bd
       0.06267124 0.12839477 -0.044069365 -0.057117503
000110 50 00 ad 3d 01 68 75 3d 84 a2 73 3d d1 81 ed 3d
       0.08447325 0.05991364 0.05948116 0.11597026
000120 0f 78 38 3e 6a 89 06 3b f3 ba d5 3d d7 05 1c 3e
       0.18014549 0.0020528683 0.10436048 0.15236603
000130 a1 7b a2 bd 7f aa 8c bc a3 16 19 3e f0 73 f7 3d
       -0.079337366 -0.017171143 0.14950041 0.1208266
000140 d3 ad 2c 3d 4b f1 7c 3d 64 06 30 3d 11 f7 27 3e
       0.04215796 0.061753552 0.042974845 0.16402842
000150 0b f3 c0 3d 6b bc 11 3e 9d c0 03 be be f0 08 3d
       0.09421357 0.14232032 -0.12866445 0.033432715
000160 a2 68 ab 3d 12 e6 94 3d bb d4 b7 3d 7c 18 cc bd
       0.083695665 0.07270445 0.08976122 -0.099656075
000170 b2 09 4f bd e1 25 0c be 4f a2 c5 3d d4 0f 5c 3d
       -0.050546356 -0.13686325 0.096500985 0.053726032
000180 83 9d 34 bd ed e6 c6 3d eb 89 76 bd 0e 27 87 bd
       -0.044095527 0.09712014 -0.060190123 -0.06599246
000190 25 f6 34 be ac a9 7f bd 1b 0b 3f 3d 73 42 30 3e
       -0.17672022 -0.06241767 0.04664145 0.17212848
0001a0 87 d0 11 be 2e d2 1d bd 96 ed cf bd 50 42 93 3d
       -0.14239703 -0.03853052 -0.10152738 0.071903825
0001b0 2e 0e 71 3c 1c f5 a9 bd 9f 7e 24 be 83 f3 97 3d
       0.014712853 -0.08298704 -0.16063927 0.07419493
0001c0 3e ee 93 3d 4e 54 90 bd cf a4 c2 bd c3 3a be bd
       0.072231755 -0.0704733 -0.09504091 -0.09288552
0001d0 f1 a4 8d 3d 9d 71 80 3d f4 48 8f bd 79 34 16 be
       0.06916226 0.0627167 -0.069963366 -0.14668454
0001e0 f2 fd c5 bb 5c 42 12 be cf 44 2f be d1 0e a4 3d
       -0.0060422355 -0.14283127 -0.17116092 0.080106385
0001f0 b6 b4 a0 3b 4c b7 a9 3c b2 c4 1e 3d 89 53 ff bc
       0.004904355 0.020717286 0.038761802 -0.031167762
000200 84 4c 86 3d d0 76 33 be 0e ab a9 bd ad 97 11 bd
       0.06557563 -0.17525792 -0.08284579 -0.03554504
000210 07 ff 8b bd 07 9c 8c bd 1e 6a 13 3e 1e 28 7a bc
       -0.06835752 -0.06865697 0.14395949 -0.015268354
000220 3b d0 ce 3d 22 d4 66 bc 15 87 62 3d f4 71 0f 3c
       0.100983106 -0.014088662 0.055304606 0.008755196
000230 91 63 fe 3c 4f ec 2a be 8c a2 5d bd 11 8e 9f bd
       0.031053336 -0.16691707 -0.054110095 -0.07790769
000240 b7 03 bf bd ff 81 26 bd fa ea 9f bc e5 0a 00 be
       -0.093268804 -0.040651318 -0.019521225 -0.12504156
000250 37 bb 0a 3e ec a3 e9 3d fd 20 a5 bd bd 58 d3 bd
       0.1354798 0.11408219 -0.08062933 -0.1031966
000260 cf 98 0a be e5 b5 84 bd ac bf e7 3b e9 d8 86 bd
       -0.13534854 -0.06480006 0.0070724096 -0.06584341
000270 7b de 15 be 4d a6 20 3e 5d f2 7f 3d 10 f7 95 3d
       -0.14635651 0.15688439 0.062486995 0.07322514
000280 49 e3 10 3c e9 cd e5 bc 35 63 85 3d 91 c2 f5 3d
       0.0088432515 -0.028052287 0.06513063 0.12000001
000290 5e 23 19 be 5e a8 00 be 46 13 ec bc 13 14 2b 3e
       -0.14954898 -0.12564227 -0.028817784 0.16706876
0002a0 69 25 15 be 7f b2 0f be 21 61 a5 3d af 31 fb 3c
       -0.14565052 -0.14032935 0.080751665 0.03066334
0002b0 b1 61 db bd 0d db 7b bc 08 5a 2c be 60 4f b2 bd
       -0.107119925 -0.01537205 -0.16831219 -0.08706546
0002c0 64 4b 0f bd 05 52 f8 bd c2 db f8 3d 5f 4a ac 3d
       -0.034984007 -0.12125019 0.121512905 0.08412623
0002d0 4c 7c 14 3e e5 ef 92 bd 24 86 24 be 97 b6 0f bc
       0.1450054 -0.071746625 -0.16066796 -0.00877156
0002e0 bc 49 3b 3c 1b d4 a9 3d 09 5c 0b 3d 21 fb 22 be
       0.011431154 0.08292409 0.03402332 -0.1591611
0002f0 c5 e0 df 3c e5 79 1d 3e ca 79 72 bd 44 3b 67 bd
       0.027328858 0.1537853 -0.05919818 -0.056453004
000300 c0 d7 c7 3b 43 a2 37 3d 88 5c 5a 3c ac dc e0 bd
       0.0060987175 0.04483248 0.013327725 -0.1097959
000310 ab 02 93 3d d7 88 c9 3c b1 b0 94 3d 33 ce d6 bd
       0.07178243 0.024601383 0.07260264 -0.10488548
000320 b7 9f b2 bd 46 4d 9c 3c c6 10 2d 3e a7 75 c7 3d
       -0.087218694 0.019079816 0.1690093 0.09739237
000330 e4 a2 5e 3d 70 52 f2 bd b9 44 f1 3d b6 ac e3 bd
       0.054354563 -0.1183213 0.11780686 -0.11116926
000340 f3 5a 96 3b 61 6b 8f bd 3f 36 20 bd 82 bb 19 3e
       0.0045884787 -0.07002903 -0.039114233 0.15012935
000350 16 ee 0b be dc 66 94 bd c0 37 1a 3e e4 1d 03 be
       -0.13665041 -0.07246181 0.1506033 -0.12804371
000360 6f 42 04 be 05 b2 23 bd a4 02 31 be 04 9c 0b 3e
       -0.12915967 -0.039964695 -0.17286164 0.13633734
000370 c1 e6 09 3e 73 36 c7 3c 49 a4 22 bc 8e ae 4c bd
       0.13466932 0.024317956 -0.009926864 -0.049971156
000380 05 35 02 bd 06 e7 60 bd 2e 51 c8 3c 24 ce 13 3e
       -0.031788845 -0.05490782 0.024452772 0.14434105
000390 9e 5e a2 bb 54 f0 36 3d 71 da 1a 3e 22 fe fe 3d
       -0.004955127 0.04466279 0.15122391 0.12450816
0003a0 aa c7 3a 3c 08 24 08 3d 64 f1 cb bd 33 cb af bd
       0.011400143 0.033237487 -0.09958151 -0.08583679
0003b0 36 98 d2 bc d0 17 ff 3c 13 e3 a3 bd e0 fb dc 3d
       -0.025707345 0.031139284 -0.08002295 0.10790229
0003c0 69 e4 76 bd ea 24 58 3d 8f c0 0d bd 76 72 7f bd
       -0.060276423 0.05276958 -0.034607466 -0.062365018
0003d0 0e f8 86 3d 27 23 6e 3d 42 2b 98 3d 23 22 fd 3d
       0.065902814 0.058138993 0.07430126 0.12360027
0003e0 a4 ab e3 3d a1 9e de 3d fc 60 0c be 58 2a f5 3d
       0.11116722 0.108701 -0.13708872 0.11970967
0003f0 23 11 0d be b5 d6 0a 3e 24 62 3d bb d8 a7 84 bd
       -0.13776068 0.13558467 -0.0028897608 -0.06477326

fc1.bias f4 [256]
000000 ca 2f 26 be 08 4d 11 3c ff 18 16 3e 0b 77 04 be
       -0.16229168 0.008868463 0.14657973 -0.12936036
000010 0d de 1d 3d 8f 43 10 be cf e0 70 bc 0d 52 c4 bd
       0.038541842 -0.14088272 -0.014702036 -0.095859624
000020 a5 83 d4 3c de 64 07 be 36 34 c3 3d 23 1f 12 be
       0.02594168 -0.13222072 0.09531443 -0.1426969
000030 e8 16 e6 3c 5d 98 19 bd a8 27 1c be 0f 84 11 be
       0.028087094 -0.03749882 -0.15249503 -0.14210533
000040 08 c8 54 3d e5 2c 46 3e fb b7 1c bd da e2 c7 bd
       0.051948577 0.19353063 -0.038261395 -0.097600654
000050 2b fc 19 3e 97 98 4a 3d e4 b1 36 bd 06 43 85 3c
       0.150376 0.049461927 -0.044603243 0.01626731
000060 5c bb 90 3c 26 ec 19 3d 78 84 90 bd 2a 82 3f 3c
       0.017667465 0.037578724 -0.070565164 0.011688748
000070 b3 60 1b be 73 ab e6 3d 2f e4 90 bd bc 2d 88 bd
       -0.15173607 0.1126317 -0.070747726 -0.06649348
000080 f4 9d f7 bd 68 34 13 3e 66 e9 6e bd 92 82 ff 3d
       -0.12090674 0.1437546 -0.058328055 0.12476076
000090 bf 08 1a 3e 53 9b 13 3e ea 08 98 bd f2 54 10 be
       0.15042399 0.1441472 -0.07423575 -0.14094904
0000a0 8e 3d 0e 3c ff d0 8f bd 20 f7 5d 3d 4a 08 29 be
       0.008681668 -0.07022285 0.054190755 -0.16507068
0000b0 ce 36 d6 bd 45 b0 21 bd b8 9c 19 3e e9 3f 52 bd
       -0.10459672 -0.039474744 0.1500119 -0.05133048
0000c0 a4 03 2b be 3b 19 2f 3d 24 d6 ee bd 13 1a a8 3d
       -0.16700608 0.04274867 -0.11661938 0.08208098
0000d0 85 27 30 3e 00 c9 fc bd e9 fa f8 3d df d7 00 3d
       0.17202576 -0.12343025 0.12157232 0.03145587
0000e0 75 1f 2c 3d 73 e9 4f 3d db 9b 82 bd 00 49 96 3d
       0.042022187 0.050759744 -0.06377383 0.073381424
0000f0 47 58 6c bc 9f 7a 20 3d 44 48 88 bb 79 13 37 bd
       -0.014425344 0.03917944 -0.0041590054 -0.044696305
000100 85 8b 0e be 6c cc bf bd a9 4e 2e 3e 82 30 2c bd
       -0.1392041 -0.09365162 0.17022194 -0.04203845
000110 6d a7 89 3d 96 26 b4 3d b7 00 7a bd 1d 85 27 3e
       0.06721387 0.08796422 -0.061035838 0.16359372
000120 99 32 0b 3e af 1a d5 bd 37 ff 91 3d 87 f2 0f 3e
       0.1359352 -0.1040548 0.071287565 0.1405736
000130 64 e4 18 bd 6b 4d bf bd f4 a6 bf 3c ff 72 c5 bd
       -0.037327185 -0.09340938 0.02339504 -0.096410744
000140 8b 13 e3 bd a8 f2 f0 bd 60 57 aa bd 8f 56 1c bd
       -0.11087712 -0.11765033 -0.08317447 -0.038168486
000150 6e e7 88 bd db 2f 6b bd 12 3b 23 3e da b7 10 bc
       -0.06684767 -0.057418685 0.15940502 -0.008832896
000160 ff 0d 37 3e 0b e9 9d 3d 8a 76 05 3d 80 76 f5 bc
       0.17876433 0.07710465 0.03258375 -0.029963732
000170 4f 2a 87 3d 01 26 1e be de f2 e5 bc 76 43 b5 3d
       0.065998666 -0.15444185 -0.02806991 0.08850758
000180 78 a2 48 bc cc 33 1f 3e ee d7 d7 3d 67 f0 4d bc
       -0.012245767 0.15547103 0.10539232 -0.012569523
000190 cc 76 9e 3d 7b f7 5a bd 5c 02 bf bc e8 13 26 be
       0.077375025 -0.053458672 -0.023316555 -0.16218531
0001a0 57 98 12 3d 2f 70 8a bd 0b 6b c3 bd 92 da 32 bd
       0.035789814 -0.067596786 -0.09541901 -0.043665476
0001b0 b3 3a ce 3d e7 07 23 3e db e2 10 3c e5 88 1a be
       0.1006979 0.15920983 0.008843149 -0.15091284
0001c0 6e e2 02 3e a9 90 c0 3d 94 d6 19 bd 55 19 0a bc
       0.12781689 0.09402592 -0.037558153 -0.008428891
0001d0 82 f5 c0 bd c5 62 8a 3d ee d1 2c be c3 b7 e0 bd
       -0.09421827 0.0675712 -0.16876957 -0.1097255
0001e0 02 19 96 bd fc 71 64 bd f3 8b c3 3d 28 22 6c 3d
       -0.073289886 -0.055772766 0.095481776 0.05764976
0001f0 45 ed 1b 3c 7a ef 2f bd 81 24 fd 3c 9d 65 e9 bb
       0.009517019 -0.042952992 0.030901195 -0.007122709
000200 e5 cd 31 be 7a fb e4 bd ae e4 1f 3e 47 47 1b 3e
       -0.17363699 -0.11180778 0.15614578 0.15163909
000210 86 df 24 3d 78 32 21 be 74 eb e8 bd 1a 38 29 be
       0.04025223 -0.15741909 -0.11373034 -0.16525307
000220 71 97 b3 bd f9 53 ad bd 46 e6 d5 bd e1 bf 14 3d
       -0.087691195 -0.08463282 -0.10444312 0.036315802
000230 35 12 75 bd 59 8c 0d 3d 5b 6c 5c bd 55 30 1c 3e
       -0.059831817 0.034557674 -0.053814273 0.15252812
000240 fb cc c6 bd 34 32 c4 bd a2 c9 2e 3d fe 2c 8f 3c
       -0.09707066 -0.09579888 0.04267276 0.017477509
000250 97 af 10 3e fa 0b f0 3c 81 af 83 bd 10 9d 23 be
       0.14129482 0.029302586 -0.06429959 -0.15977883
000260 12 97 d0 3d 7e 24 de bd fe a7 87 3d 5f 88 df bd
       0.101850644 -0.10846804 0.06623839 -0.109146826
000270 0c 74 a0 bb 26 b2 a7 bc 8e e0 3d bc 13 81 91 3c
       -0.0048966464 -0.02047069 -0.011589183 0.017761743
000280 fe 9d 05 3e a7 4b 88 3c 37 be fa bd e3 30 89 bd
       0.1304855 0.016637636 -0.12243312 -0.066987775
000290 27 d8 b3 3d fc 93 22 3e f4 fc 22 3d e0 52 d3 bb
       0.08781462 0.15876764 0.039792016 -0.0064490885
0002a0 d6 5f 2e 3e 2b 3c 2b bd 05 2b 10 be de c4 00 3e
       0.17028746 -0.041805428 -0.1407891 0.12575099
0002b0 e0 02 97 bc 22 05 00 be b5 99 80 3d 6b 37 1c bb
       -0.018433988 -0.12501958 0.06279317 -0.0023836743
0002c0 48 ed 39 bd 4a 45 28 3e 6b 67 24 3e 2d 2d 60 3d
       -0.045392305 0.16432682 0.16055076 0.054730583
0002d0 87 d8 6e 3c 5a 06 e9 3d 9b 9d 39 3d de 9c c2 3b
       0.014577991 0.113781646 0.04531632 0.00593911
0002e0 3b 95 c4 bd 83 8e 2c 3e 1b 3d 31 be 06 ba fa bc
       -0.09598776 0.16851239 -0.17308466 -0.030606281
0002f0 c4 5d 3c 3d e1 7f 77 bd 4e 1f 88 bd 67 a5 60 3d
       0.04598786 -0.06042469 -0.06646596 0.05484524
000300 03 3a d4 bd aa 14 b2 3d 57 b4 f0 3c c5 ed 46 3d
       -0.10362627 0.086953476 0.029382868 0.0485666
000310 e9 1c 4e bc 40 88 c0 bb e9 c4 9a 3d 94 8c f3 bd
       -0.012580135 -0.0058756173 0.07557089 -0.118920475
000320 9c ec 17 3e 13 38 b2 3c 10 92 56 bc b1 66 51 3b
       0.14836353 0.021755254 -0.013096347 0.0031952078
000330 68 70 22 bd 99 38 2d be 3e 74 fd bd 5e 1b 18 3e
       -0.03965798 -0.16916122 -0.12375687 0.1485419
000340 75 56 a4 3d 5d 91 c8 bd 1d 2a 14 be 48 c4 8d 3d
       0.08024303 -0.09793351 -0.1446919 0.06922203
000350 7a 06 f9 bd df de e1 3d 00 56 ce 3d 32 28 14 be
       -0.121594384 0.110288374 0.10074997 -0.14468458
000360 aa b1 98 3d 5a 55 07 be 9c 85 92 3d ce c4 53 bd
       0.07455762 -0.13216153 0.0715439 -0.05170136
000370 a2 23 eb 3d 74 05 30 3d a4 42 e8 3d bf 9f 18 bd
       0.11481406 0.04297395 0.11340836 -0.03726172
000380 75 f7 cc bd 27 50 d7 3d 2e 15 c8 bd 9c cf 87 bd
       -0.10008136 0.10513335 -0.09769665 -0.06631395
000390 19 a1 38 39 70 2f f8 bd 7d 49 e1 3d 0f 67 0c 3e
       0.00017607621 -0.12118423 0.11000345 0.13711189
0003a0 8a a4 30 bd 25 b0 ee bd db 2d 69 bd c3 4b c5 bd
       -0.043125667 -0.11654691 -0.056928497 -0.09633591
0003b0 dc eb fd bd e9 36 05 bc 46 04 0a be ab 1a ff 3d
       -0.12398502 -0.008130767 -0.13478193 0.124562584
0003c0 c7 72 31 3e c0 e0 ca bd 8b 78 de 3d d3 4f 18 3e
       0.1732894 -0.09906149 0.108628355 0.148742
0003d0 0d 58 e0 bd ac b2 c9 bc d8 36 d1 bc 48 a6 24 bd
       -0.10954294 -0.02462133 -0.025538847 -0.04019764
0003e0 1d c7 e3 bc d3 21 15 be c3 bf 67 bb 86 24 11 3e
       -0.027804906 -0.14563684 -0.0035362102 0.14174089
0003f0 15 33 07 3e a2 a4 ee 3d 67 45 11 be 0a 9b ba bd
       0.1320308 0.11652495 -0.14186631 -0.091116026

fc2.weight f4 [20, 256]
000000 9b fe 78 3c a3 98 a9 bc 5b 78 39 3d ad df 44 bd
       0.015197421 -0.020702666 0.045280796 -0.048064876
000010 d1 dc fd bc fd 34 2f bd a7 3a 33 bd 7c 82 4f 3c
       -0.030989083 -0.042775143 -0.043757107 0.012665387
000020 27 60 5b 3d ba ae f9 bc 6a 30 44 3d 57 3f 8c bc
       0.053558495 -0.030478824 0.047897734 -0.017120047
000030 0a 6e 6c bb c2 b4 40 bd 98 f9 5b 3d 48 42 96 bb
       -0.003607633 -0.047047384 0.053704828 -0.004585538
000040 12 24 fc b8 f6 44 60 3d e2 8f 89 3c 3f d5 11 bd
       -0.00012023015 0.054753266 0.016792241 -0.035603758
000050 87 c8 f1 3b a1 39 5e bd 8a 24 a6 3a 66 04 0a 3c
       0.007378641 -0.054254178 0.0012675684 0.0084239
000060 86 1c b6 3b 52 fc e3 bc 42 4f d4 3c 5b 82 a1 bc
       0.0055575995 -0.027830277 0.0259167 -0.019715479
000070 e0 1b 00 3d ac 00 0d 3d 17 a0 dc bc 34 86 15 3d
       0.031276584 0.03442447 -0.026931806 0.03650494
000080 84 0b da 3c cf c6 12 bd 70 bd 61 3d 65 2a a9 3c
       0.02661682 -0.03583413 0.055112302 0.020650098
000090 3c 7f 62 3c 0e 37 17 bd fb 3e 2a 3d e5 e1 08 3d
       0.01382428 -0.03691774 0.04156397 0.033418555
0000a0 5d a1 19 3d b8 6f 6f 3d 3e b4 ee 3c 33 50 44 3d
       0.037507404 0.058456153 0.02913868 0.047928046
0000b0 b0 a7 73 bb 2b 62 8e 3d 85 1c 1c 3c 81 a6 c4 bc
       -0.0037178807 0.06952318 0.009528284 -0.024005176
0000c0 8f cd a2 bc f7 18 2e bd e4 54 3a 3c 58 b4 38 bb
       -0.019873409 -0.042504277 0.011372779 -0.0028183665
0000d0 63 87 00 bd 0c 6d 63 3d 3a f1 b8 3c 0a b1 15 bd
       -0.031379115 0.055523917 0.022575963 -0.03654579
0000e0 a0 0a 4b bd c4 95 52 3b b4 42 7e 3d 9f b6 2a 3d
       -0.04957068 0.0032132724 0.06207533 0.041678067
0000f0 ea 15 35 bd dc ff d6 3c a2 b4 fb 3c b0 f9 62 bb
       -0.044210352 0.02624505 0.03072578 -0.0034633689
000100 9c 9a be bc d2 43 4e bd 78 a0 7b bc 35 d8 47 bd
       -0.023267083 -0.050357647 -0.015358083 -0.048790175
000110 1d 43 74 3d 48 53 bb 3b 4e 1d f1 bb f4 be 5f 3a
       0.059634317 0.005716715 -0.0073582297 0.0008535229
000120 38 f4 17 bd 89 98 08 bc d1 dc b7 3b d1 0f a5 3d
       -0.03709814 -0.008337148 0.00561104 0.08059657
000130 8f e8 9c bc c3 19 a6 bc b8 b1 9a 3c 90 d7 1c 3c
       -0.019153861 -0.020275956 0.018883571 0.0095728785
000140 ca 0a 8f bd 3d ee 1c 3d fe 3c a3 3c fe 3c ad 3c
       -0.0698448 0.03831314 0.019926544 0.021147247
000150 19 d7 7e 3d f3 08 a5 3c 80 af df bc 68 fd 11 bd
       0.06221685 0.020145869 -0.027305365 -0.035642058
000160 0e b6 dd bc 6f 65 31 bd 49 67 48 bd 94 99 a2 3c
       -0.02706435 -0.043309625 -0.048926625 0.019848622
000170 4d 31 d8 3c 13 a5 39 bd 8c e0 0d 3d 73 0e 45 3d
       0.026390696 -0.045323443 0.034637973 0.048109483
000180 e4 9c ce bc 49 f7 4c 3d 7f 3c 81 3d 18 4a ae 3c
       -0.025221296 0.050040517 0.06310367 0.021275565
000190 33 a9 5a bd 30 02 21 b9 d8 75 e1 3c 73 b8 6e bc
       -0.053384017 -0.00015354971 0.027522013 -0.014570343
0001a0 2e 6a 44 3d 99 ef 46 bd da 5f 7b 3d 9c 73 d9 3c
       0.047952823 -0.048568342 0.061370708 0.026544385
0001b0 ed ee 14 bb 20 6e 01 3d ed e0 45 bd dd 08 1a bd
       -0.0022725419 0.031599164 -0.04831021 -0.03760611
0001c0 5a d6 a2 bc 26 60 96 3d 9b e8 ff bc 56 83 32 3d
       -0.019877601 0.073425576 -0.031238845 0.043582283
0001d0 94 a9 4b bd cb 50 73 3d bc d1 27 3d 61 21 6d bc
       -0.04972227 0.059403222 0.040971503 -0.01447329
0001e0 4e 20 53 3b a5 69 8c 3c 6c f2 e2 3c d6 a4 fb bc
       0.00322153 0.017140219 0.027703486 -0.030718248
0001f0 29 13 11 3d e8 3a 29 3d 1e f5 03 bd 84 b2 3d bc
       0.035418663 0.041315943 -0.032216184 -0.011578206
000200 21 ba 04 3d 57 ed 96 bd 9a f4 27 3d 02 90 f8 bc
       0.03240407 -0.07369488 0.041004755 -0.030342106
000210 84 82 ee 3c 9f c2 3c 3c f8 6b e2 bc ca c1 18 bd
       0.02911497 0.011521011 -0.027639374 -0.037294187
000220 bf 3a b3 3c 37 4c 67 bd d6 94 21 3d 52 79 03 bd
       0.021878598 -0.05646917 0.03944858 -0.032098122
000230 b2 16 80 bd ff be 7b bb 19 25 61 bd 97 cd ae bc
       -0.06254329 -0.0038413403 -0.05496702 -0.021338267
000240 ec db 94 bc 16 35 69 3d 03 d7 91 3b fd b0 13 bd
       -0.018171273 0.056935392 0.00445068 -0.03605746
000250 4e 10 c2 3d 21 0b dc 3c 92 fe 58 3d 00 8e fe b9
       0.09475766 0.026860775 0.052977152 -0.00048552454
000260 6f 42 17 3d 28 5e 9a bc 3e c5 9b 3d 00 bc 5b bd
       0.03692859 -0.018843725 0.0760598 -0.053646088
000270 34 3b 03 bd b0 f9 b5 3c b5 9e 35 bc c4 aa 49 bd
       -0.032038882 0.022213787 -0.011085202 -0.04923512
000280 12 89 b4 bc eb 12 76 3d e2 78 6c bd 16 c1 92 bb
       -0.022038016 0.060076635 -0.05773247 -0.004478584
000290 9e 47 00 bd 31 7a 81 3c e0 ec 1d bd 8e f8 6f 3d
       -0.0313183 0.015805336 -0.03855598 0.05858665
0002a0 85 4e 17 bd 68 73 c8 bc 9e 7c f5 bc ec 1e 65 3d
       -0.036940116 -0.024469092 -0.029966649 0.055937693
0002b0 9d 81 df bb 30 11 17 3d 8b e6 73 3d f8 c0 83 3d
       -0.006820871 0.036881626 0.059546035 0.0643329
0002c0 a6 6a 64 3c 01 31 82 3c d3 f7 8e 3a c4 25 7f 3d
       0.013941443 0.015892508 0.0010907598 0.062291875
0002d0 ee 90 06 bd 32 74 58 3c fe c9 1f 3d 42 4c 71 bd
       -0.03285306 0.013211297 0.039010994 -0.058910616
0002e0 45 65 31 bd 13 ab c3 bc 4c 3c 49 3d 3b c6 e4 3c
       -0.04330947 -0.023885285 0.04912977 0.027926555
0002f0 cb 24 d8 3b d3 b3 85 bc 87 d8 0d 3d 68 c2 0a bc
       0.006596183 -0.016321098 0.034630325 -0.008469202
000300 88 6e 7a 3d 5b 44 c1 3c 69 5c 10 bd c2 48 d8 bc
       0.061140567 0.023592165 -0.03524438 -0.026401881
000310 26 93 fb 3b fb 7d 2e bc fa 72 0d 3b f6 84 ab 3d
       0.0076774536 -0.010650153 0.0021583424 0.0837497
000320 a0 da af bc f2 79 e6 bb df 6a 23 3d 3a 80 8b 3b
       -0.021466553 -0.00703358 0.039896842 0.004257229
000330 f0 e3 49 3d 38 2d ca bc 37 c8 7a 3d fc df 24 3d
       0.049289644 -0.024679765 0.061226096 0.04025267
000340 d4 47 c8 bc 56 fa 7c bd 0e 59 45 bd c4 1a 2f bc
       -0.024448313 -0.061762176 -0.048180632 -0.010687534
000350 e8 17 9b 3c 20 f8 a5 bd cd 8c b8 3b 72 0f 5e bd
       0.018932298 -0.08103967 0.005632019 -0.05421395
000360 92 5c 59 bd c2 84 28 bd 5a fc 53 bc 7a 8d 00 3d
       -0.053066798 -0.041142233 -0.012938583 0.031384923
000370 e8 f4 b0 3d 92 71 17 bc 14 c7 0a bd 37 f0 e4 bc
       0.08640462 -0.009243386 -0.033881262 -0.027946575
000380 b0 89 b5 3c 84 b2 32 bd 23 63 74 bd 8f af 79 3d
       0.022160381 -0.043627277 -0.059664857 0.06095844
000390 28 39 cd bc e7 95 f0 3c ad d2 9a 3b 5d f5 fc bb
       -0.025051668 0.029368354 0.0047248215 -0.0077196793
0003a0 08 5b 8a bc 1a 25 80 bd 8e 4d 6c ba e1 1e c0 bb
       -0.01688911 -0.062570766 -0.0009014242 -0.005863056
0003b0 37 42 58 3d 4a 35 3f 3d 97 6f bd bc f2 98 6a bd
       0.052797522 0.04668168 -0.0231245 -0.057274766
0003c0 71 96 e7 3c fa 0e 6e bd 7b bc 40 bd f5 54 7f bd
       0.028269978 -0.05811975 -0.04705475 -0.06233688
0003d0 d8 95 4b bd 80 e2 0b 3d c5 bd 55 3d 0e 0e fe 3c
       -0.04970345 0.034151554 0.05218293 0.031012561
0003e0 07 6f 29 3d 0e c5 8a 3d f1 19 4b bd f8 2f ca 3d
       0.04136565 0.067758664 -0.049585287 0.098724306
0003f0 66 97 c6 bb b7 1a 0d bd 61 5c 86 3a d7 2b 11 3c
       -0.0060605286 -0.034449305 0.001025092 0.00886055

fc2.bias f4 [20]
000000 88 c3 89 3b b1 98 42 bd 56 cd 01 bd 7c bf 3c 3d
       0.0042042173 -0.0475089 -0.031689964 0.04608105
000010 b9 f4 88 bd d4 d9 10 3d 49 9d c2 3b af 3b 97 3c
       -0.06687302 0.035363987 0.00593916 0.018461077
000020 f1 c6 5e 3d 38 09 51 ba a7 7e 01 ba 5b 72 03 bc
       0.054388944 -0.0007974091 -0.0004939832 -0.00802287
000030 ef d8 70 bd 46 43 04 bd 23 4e b0 3c 7a dc 15 39
       -0.058800634 -0.03229072 0.021521633 0.00014291881
000040 0a 01 1f bd 97 63 27 3c 3c 41 20 3d 67 de 6f bc
       -0.03881935 0.010216615 0.039124712 -0.014640427
