checkpoints/checkpoint_epoch_300.pth (torch, 314812 bytes, 30 tensors)

lstm.weight_ih_l0 f4 [256, 2]
0	0x3d515a18	0.05111131
1	0x38773b09	5.894437e-05
2	0xbe7350be	-0.2376127
3	0xbbdc8949	-0.006730233
4	0x3f01d74f	0.5071916
5	0xbd02aec7	-0.031904962
6	0x3d1ba37b	0.037997704
7	0x3cb04285	0.021516094
8	0xbe28d8d9	-0.16488971
9	0xbce8b076	-0.028404456
10	0xbe053986	-0.13010225
11	0x3c4e4d46	0.012591666
12	0x3e1a7c2b	0.15086429
13	0x3bab35e1	0.0052249287
14	0x3ded59e5	0.11589412
15	0x3b203f00	0.0024451613
16	0xbd674073	-0.056457948
17	0x3c7d9c58	0.01547917
18	0xbdc5cb92	-0.096579686
19	0xb9f1fed8	-0.00046156975
20	0x3e407648	0.1879512
21	0x3bd5b31a	0.0065215947
22	0x3cdd8a6e	0.027043547
23	0x3c64f7d8	0.013975106
24	0xbe07bea5	-0.13256319
25	0xbc835dc2	-0.016035918
26	0xbe3a1182	-0.18170741
27	0xbc7722b7	-0.01508396
28	0x3c12c28a	0.008957515
29	0x3c4b8c15	0.012423535
30	0x3cebc8bb	0.02878224
31	0xbb2b56ab	-0.0026144187
32	0xbeb4e408	-0.35330224
33	0x3ae0f402	0.0017162564
34	0xbd09f337	-0.033679213
35	0xbc6dd19e	-0.014515309
36	0x3cbeb57a	0.023279894
37	0xbb7dc4b4	-0.003872198
38	0x3eb599d7	0.35468933
39	0x39125c88	0.00013958116
40	0x3e41a98a	0.1891233
41	0x3b67ce3d	0.003537073
42	0x3d2797c8	0.040916234
43	0x3b068c59	0.002053043
44	0x3e2751c0	0.16339779
45	0xb9c6620e	-0.0003783856
46	0x3d9ed222	0.077549234
47	0xbb1852f0	-0.0023242794
48	0x3ead797c	0.33881748
49	0x3bd19da5	0.0063969665
50	0x3d2d6e34	0.042341426
51	0xbc525320	-0.012837201
52	0xbd994165	-0.07483176
53	0xbc0aa19b	-0.008461381
54	0xbda62ae4	-0.081136495
55	0xbd17f99a	-0.037103273
56	0xbd4a9ff9	-0.049468968
57	0xbd57a693	-0.052649092
58	0x3e0558e2	0.13022187
59	0xbbb26824	-0.0054445434
60	0x3bec4db8	0.0072114132
61	0x3b85f762	0.004088328
62	0xbdcb2fd2	-0.099212304
63	0xbc85d243	-0.016335612
64	0x3d961c21	0.07329584
65	0x3c4862ac	0.012230556
66	0xbe359d9f	-0.17735909
67	0xbc6ddcac	-0.014517944
68	0xbda63033	-0.08114662
69	0xbc1d5a2c	-0.009604018
70	0xbed8254f	-0.42215964
71	0xbb289510	-0.0025723614
72	0xbdf4f3eb	-0.11960586
73	0xbb7c8b3e	-0.0038535143
74	0xbe1da8ab	-0.15396373
75	0xbc8541a7	-0.016266657
76	0xbe03b9f4	-0.12863904
77	0x3af6134e	0.0018774064
78	0x3e272220	0.16321611
79	0xbb5b6407	-0.003347637
80	0x3db7a772	0.089674845
81	0x3c248a57	0.010042748
82	0x3d4971c2	0.049180754
83	0xba40f2e4	-0.0007360412
84	0xbea570c5	-0.323126
85	0xba82cb05	-0.0009978717
86	0x3e06749c	0.1313042
87	0x390278cc	0.00012442766
88	0xbe9a6a5e	-0.30159277
89	0x3b021318	0.0019847807
90	0xbd3284ce	-0.043583684
91	0x3c18422b	0.009293119
92	0xbe44a3f6	-0.19203171
93	0x3c5c2f29	0.013438978
94	0xbc0c3926	-0.008558547
95	0x3a642472	0.00087029405
96	0x3aaf6fc4	0.0013384749
97	0x3cb583a2	0.022157494
98	0x3e7114ca	0.23543087
99	0xba0b3583	-0.0005310403
100	0x3de5d185	0.11221603
101	0xbafe4eee	-0.0019402185
102	0x3d892e38	0.06698269
103	0x3c689e8b	0.014197956
104	0xbdcc53bd	-0.09976909
105	0xbd3cf2f7	-0.046130147
106	0x3e0b6f9b	0.13616793
107	0x3b801689	0.0039089364
108	0xbe1adb3e	-0.15122697
109	0x3bc6622e	0.0060541844
110	0xbdcefcf0	-0.10106838
111	0xbcf64c28	-0.030065611
112	0x3e2465a6	0.16054401
113	0x3b8b28e0	0.004246816
114	0xbe367db9	-0.17821397
115	0xbc6e2cf9	-0.0145370895
116	0xbe2223ff	-0.15834044
117	0xbc8cfa50	-0.017209202
118	0x3e7e9106	0.2486001
119	0x39979900	0.00028914958
120	0x3cc567ce	0.02409735
121	0x3c0a0804	0.008424763
122	0x3d1a7b47	0.037715223
123	0x3b457536	0.0030129678
124	0xbda8ffc0	-0.082519054
125	0xbcbd12e2	-0.023080293
126	0x3c5a683d	0.013330516
127	0x3b276c78	0.002554683
128	0xbb0c5a08	-0.0021415967
129	0xb91faa18	-0.00015226786
130	0x3c880e00	0.016608238
131	0xb9eb18c4	-0.00044841145
132	0x3e26e2c4	0.16297442
133	0x3ce2b78c	0.027675413
134	0x3ed00df9	0.4063566
135	0x3d01d4ee	0.031697206
136	0xbdb96904	-0.09053233
137	0xbca77552	-0.020441685
138	0xbdd9f6e8	-0.10642797
139	0x3af818db	0.0018928306
140	0x3d40a065	0.047027964
141	0x3c6ddd02	0.014518024
142	0x3d316107	0.043305423
143	0x3b40d995	0.0029426564
144	0xbd39b974	-0.045342878
145	0x3c913db5	0.01772962
146	0xbcb24f46	-0.021766316
147	0xb92fe37b	-0.00016774044
148	0x3e6df16f	0.23236631
149	0x3d40eeab	0.04710261
150	0x3ca7a344	0.020463593
151	0x3ca122ef	0.019669978
152	0xbd32b54d	-0.043629933
153	0xbbbb4714	-0.0057152603
154	0xbd46da6b	-0.048548143
155	0x3a1e809f	0.0006046388
156	0xbe03ae43	-0.12859444
157	0x3c3c2f97	0.011485956
158	0xbcf99fc7	-0.030471696
159	0xbc10e9ec	-0.008844834
160	0xbe6f0b9c	-0.23344272
161	0x3a2f2040	0.0006680526
162	0xbd9df121	-0.07712007
163	0xbb876afa	-0.0041326256
164	0x3dc495d6	0.095988914
165	0xbc48cf52	-0.01225646
166	0x3d099e5d	0.033598293
167	0x3cb4ca22	0.02206904
168	0x3cf31e08	0.029677406
169	0x3b09d1b4	0.0021029534
170	0x3d1d9fac	0.038482353
171	0x3947d9e9	0.00019059297
172	0xbd9233c5	-0.071387805
173	0xbc985af8	-0.018598065
174	0xbd496940	-0.04917264
175	0x3a1a34e9	0.0005882518
176	0x3e20e43c	0.15712065
177	0x3d419f28	0.047270924
178	0x3ddca0fd	0.107728936
179	0x3bf3098c	0.0074169096
180	0xbcc50a97	-0.024052901
181	0xbb4bc27c	-0.0031091264
182	0xbda396e8	-0.079877675
183	0xbc80fea0	-0.015746415
184	0xbdc37ba8	-0.0954507
185	0xbcb8fe69	-0.02258225
186	0x3d1c9e17	0.038236704
187	0xb9a827ab	-0.00032073012
188	0x3e558539	0.20851602
189	0xbc70dffd	-0.0147018405
190	0xbdaed7bf	-0.08537244
191	0xbb813640	-0.0039432347
192	0x3ddf339c	0.108985156
193	0x3b42ca3e	0.0029722597
194	0xbd39420d	-0.045229007
195	0xbae3f72a	-0.0017392386
196	0xbd50a555	-0.050938923
197	0xbb1c50e2	-0.002385192
198	0x3babe58a	0.005245869
199	0xbb5a8f27	-0.0033349486
200	0xbd2ba26f	-0.041902956
201	0xbbc59eba	-0.0060308846
202	0xbd51d9b4	-0.05123301
203	0xbaf643b9	-0.0018788493
204	0xbdef3ea4	-0.116818696
205	0x3bd0198b	0.006350701
206	0xbcc102dd	-0.023560936
207	0x3bb58533	0.00553956
208	0x3da2204c	0.079163164
209	0x3b90695a	0.00440709
210	0xbca54317	-0.020173592
211	0xbb249102	-0.0025110845
212	0xbea11403	-0.3146058
213	0xb8c67f0b	-9.465039e-05
214	0x3da5c0f9	0.08093447
215	0x3c93d4fc	0.018045895
216	0xbe3bf2da	-0.1835436
217	0xb98bcb66	-0.0002666369
218	0xbe0c5eb4	-0.13708001
219	0x3bca31ca	0.006170486
220	0xbd568904	-0.052376762
221	0x3cc6d132	0.024269674
222	0xbd06b97c	-0.032891735
223	0x39ae3cb9	0.00033233108
224	0x3e061038	0.13092124
225	0x3d208d60	0.039197326
226	0x3cc83d89	0.024443405
227	0x3aeaf2d0	0.0017925147
228	0x3e2b2901	0.1671486
229	0xbab3af9b	-0.0013708951
230	0x3ead5cab	0.33859763
231	0x3cbe325c	0.023217373
232	0xbdc7ae0c	-0.09749994
233	0xbc1ada43	-0.009451452
234	0x3e05d724	0.13070351
235	0x3c4ac1f6	0.012375345
236	0xbdff5b4e	-0.12468587
237	0x39aab5dc	0.00032560423
238	0xbd805e23	-0.06267955
239	0xbc4703a0	-0.01214686
240	0x3e2d9492	0.16951206
241	0x3be85e4b	0.0070913187
242	0xbd5d435e	-0.054019324
243	0xba5073f5	-0.0007951849
244	0xbd498865	-0.04920234
245	0x3b05204e	0.0020313445
246	0x3eea9be2	0.45822054
247	0xb8c196b8	-9.231031e-05
248	0x3e5b2ad9	0.21403064
249	0x3d092fd9	0.033492897
250	0x3e7d5531	0.24739529
251	0x3b2806c5	0.00256388
252	0xbd8f47aa	-0.06996091
253	0xbc5218d3	-0.012823301
254	0x3d0a2085	0.03372242
255	0x3b67552b	0.0035298567

lstm.weight_hh_l0 f4 [256, 64]
0	0x37d1ef7d	2.5026262e-05
1	0x3848ec8e	4.7904025e-05
2	0xb8912a65	-6.9220354e-05
3	0x379be3d6	1.8583534e-05
4	0x38de48e1	0.0001059936
5	0xb8077911	-3.229926e-05
6	0x38bc27e1	8.9719666e-05
7	0x38832ad6	6.2545456e-05
8	0x392b7930	0.00016352977
9	0xb7679de6	-1.38054365e-05
10	0xb81ddd6a	-3.7637925e-05
11	0x38f360f6	0.00011605203
12	0x38881a3e	6.489873e-05
13	0xb87b630a	-5.99353e-05
14	0x390120c7	0.00012314609
15	0xb90ddc30	-0.00013528834
16	0xb81bc51e	-3.713846e-05
17	0x38958832	7.130242e-05
18	0x3923447b	0.00015570402
19	0xb8bafe73	-8.916566e-05
20	0x380741ba	3.224772e-05
21	0x38723973	5.77508e-05
22	0xb9052024	-0.00012695842
23	0x35fac781	1.8684515e-06
24	0xb853d62b	-5.050578e-05
25	0x3899a3e9	7.326139e-05
26	0xb80c9419	-3.3516528e-05
27	0x38d0d089	9.9570556e-05
28	0x38f8e8ec	0.000118689466
29	0x383fabdf	4.5698016e-05
30	0x39662b5b	0.0002195066
31	0xb8db3053	-0.00010451735
32	0xb8171bab	-3.6026973e-05
33	0xb885c44f	-6.3784995e-05
34	0xb910cb02	-0.00013808536
35	0xb8cc2b7d	-9.735578e-05
36	0xb9a31cf1	-0.00031111346
37	0x388a0b93	6.582509e-05
38	0x380d4942	3.3685246e-05
39	0x386ef2ab	5.6969624e-05
40	0x38f0a605	0.00011475015
41	0x388a9602	6.608294e-05
42	0x384758c6	4.7527974e-05
43	0x38d9bdae	0.00010382697
44	0xb89f9f9e	-7.611442e-05
45	0x39658226	0.00021887626
46	0xb85133ce	-4.987773e-05
47	0x3843fd2a	4.67274e-05
48	0x39d06560	0.00039748382
49	0x379e6dd0	1.8886203e-05
50	0xb93d5a59	-0.00018058102
51	0xb8b0de7b	-8.433774e-05
52	0xb8f977c9	-0.00011895557
53	0x3855c982	5.0970826e-05
54	0xb8e4faf5	-0.000109186316
55	0xb91f7a13	-0.00015208898
56	0xb87d6119	-6.041033e-05
57	0x38a153ee	7.6927114e-05
58	0x38c39b94	9.327303e-05
59	0x35b4c909	1.3469554e-06
60	0xb93d4f4d	-0.00018053986
61	0xb89f9f82	-7.6114215e-05
62	0x397126d0	0.0002299801
63	0xb8dbd28b	-0.000104819504
64	0x39e82078	0.0004427468
65	0x3a827c46	0.0009955249
66	0xbb5726ce	-0.0032829526
67	0xbb93cc75	-0.004510457
68	0xbab5e1a8	-0.0013876455
69	0xb98159bd	-0.00024671658
70	0x398f8e8e	0.00027381297
71	0xb9943a6c	-0.00028272287
72	0x3a9c5326	0.0011926636
73	0xb99afc0c	-0.00029560959
74	0xba1cee58	-0.0005986444
75	0x3a0663b4	0.0005126551
76	0x3a8eb48f	0.0010887551
77	0xbac5c3bd	-0.0015088242
78	0xb9faa96f	-0.00047809954
79	0xbb8c86a6	-0.0042885123
80	0xba204857	-0.0006114295
81	0x3b920c01	0.0044569974
82	0x3bf54243	0.0074847057
83	0xb9eb810e	-0.00044918846
84	0xb90ea26c	-0.00013602682
85	0x3a2fe867	0.0006710351
86	0xbc2b0602	-0.010438444
87	0x3b195e81	0.0023402276
88	0xba5ca89d	-0.00084174593
89	0x3a94c821	0.0011351147
90	0xbae78b35	-0.0017665388
91	0x3b8425da	0.0040328326
92	0x3b94c1b2	0.004539692
93	0x3b37af98	0.0028028246
94	0x3c3e4b82	0.011614682
95	0xbba757c5	-0.0051068985
96	0xbaba6b68	-0.0014222683
97	0xbb10db6d	-0.0022103444
98	0xbb0147e1	-0.001972668
99	0xba3427f3	-0.0006872408
100	0x3b2cafdc	0.0026349938
101	0x3abb8744	0.001430728
102	0xba83c2fd	-0.0010052618
103	0x3aaf0930	0.0013354179
104	0x3b9bef4c	0.004758751
105	0x3a858aaa	0.001018842
106	0x3a954ab1	0.0011390058
107	0x3b791474	0.0038006576
108	0xba59f205	-0.0008313957
109	0xba1b5b90	-0.00059264246
110	0x3a6e5abd	0.00090925005
111	0x3a67bbc5	0.00088399305
112	0xbb982c28	-0.0046439357
113	0xba884bc0	-0.0010398552
114	0x3a8a1919	0.0010536044
115	0xbad310a0	-0.0016102977
116	0xbbc0cc26	-0.0058837114
117	0xbb05cab7	-0.0020415017
118	0x3b299c54	0.0025880532
119	0xbabad337	-0.0014253621
120	0xb947e889	-0.00019064745
121	0x3a8b6586	0.0010635115
122	0x3ad1d87e	0.0016009954
123	0xba3d95e4	-0.0007232113
124	0xbba96393	-0.005169341
125	0xbb5e535a	-0.0033924193
126	0xbb6a0e25	-0.0035713997
127	0xbab0f52b	-0.00135008
128	0xb877c239	-5.9070273e-05
129	0xb9c63552	-0.0003780523
130	0x3a1aac16	0.00059002766
131	0xbad0e1ec	-0.0015936471
132	0xba402302	-0.00073294353
133	0x3a229980	0.0006202683
134	0xb9ea63da	-0.00044706353
135	0xb9b6b351	-0.00034847346
136	0xba3734a8	-0.00069887424
137	0x38870553	6.438293e-05
138	0x3a90bbb3	0.0011042267
139	0xba266861	-0.0006347951
140	0xb9c369fb	-0.0003727226
141	0xba249116	-0.0006277723
142	0x3a39497c	0.000706814
143	0x39d5ed0b	0.00040803137
144	0x39e22bfc	0.0004313885
145	0x3a7e64a7	0.00097043294
146	0xba95d606	-0.0011431582
147	0xba549ef1	-0.00081108423
148	0xba149f61	-0.0005669501
149	0xb9b4ebbe	-0.00034507917
150	0xbaa112f1	-0.001228897
151	0xba36a2ee	-0.00069670274
152	0xb98cb2c3	-0.0002683607
153	0x3a1cd165	0.000598213
154	0xba417a88	-0.00073806243
155	0xba4c962a	-0.00078043586
156	0xba4e10d5	-0.00078607845
157	0x3a0e13fd	0.00054198486
158	0x3a44f8fa	0.0007513907
159	0xb920d229	-0.0001533708
160	0x3a1a401e	0.0005884188
161	0xba1c3ddf	-0.0005960147
162	0xb894ec4f	-7.101206e-05
163	0x3a6ee47e	0.00091130275
164	0xb9f871dc	-0.00047387078
165	0x3a4202d4	0.0007400934
166	0x3a5e5dc0	0.0008482598
167	0x39512a89	0.00019947639
168	0xba90ad32	-0.0011037944
169	0xb93ab31c	-0.00017805066
170	0x39150510	0.00014211633
171	0xba667441	-0.0008791127
172	0x3a3ab43f	0.00071221957
173	0x3a67ee81	0.00088474905
174	0x39be2ab7	0.0003627145
175	0xb8e82f79	-0.000110714645
176	0x39a58dea	0.00031576987
177	0x39a67a8a	0.00031753286
178	0xbb0e1fcc	-0.0021686433
179	0x38e8e77a	0.00011105738
180	0x39c039b2	0.0003666408
181	0xb8a61142	-7.918711e-05
182	0x382e086f	4.1492687e-05
183	0x3a4d4d79	0.0007831674
184	0x3a6ca7cc	0.0009027689
185	0x3a0d4764	0.0005389361
186	0xba0483a6	-0.00050550175
187	0xb9fd37ed	-0.00048297588
188	0xba5a5a9c	-0.0008329542
189	0xba20efe2	-0.0006139261
190	0x3a2f47e8	0.0006686435
191	0xba41a1a9	-0.0007386455
192	0x38b6c528	8.7151595e-05
193	0xba90b83a	-0.0011041232
194	0xbb3568b4	-0.0027680816
195	0x378b28ce	1.6589092e-05
196	0xbc2280c3	-0.0099183945
197	0xbb704831	-0.0036664123
198	0x3b11e1cf	0.0022259837
199	0x3ba7e32b	0.005123516
200	0x3bbc4d05	0.005746486
201	0x3977cdd7	0.00023632437
202	0xba872268	-0.0010309936
203	0x3be48dfc	0.0069749337
204	0xbba2659c	-0.0049559604
205	0xbab9d340	-0.0014177337
206	0xbb692cdc	-0.0035579717
207	0xbaeffe74	-0.0018310086
208	0xba0f091b	-0.0005456374
209	0x38864385	6.4021944e-05
210	0xbb20c072	-0.002452877
211	0xbaf7e51e	-0.0018912887
212	0xbbae9176	-0.005327399
213	0x3b525b27	0.0032097788
214	0xbaea0603	-0.0017854575
215	0x3b20fbcc	0.0024564145
216	0x3c1df07b	0.009639855
217	0xb9196692	-0.00014629427
218	0xbab94b05	-0.0014136737
219	0xbc0bc026	-0.0085296985
220	0xbc25f329	-0.010128775
221	0x3b17ae02	0.0023144488
222	0xbbc71c1d	-0.0060763494
223	0xbb1a5bbc	-0.0023553213
224	0x3c0e67a5	0.008691703
225	0xbaad38f4	-0.0013215826
226	0xbb077908	-0.0020671505
227	0xbbc16857	-0.005902331
228	0x3aa4b28a	0.0012565416
229	0x3ac33e2c	0.0014895848
230	0xbbc8458a	-0.0061118053
231	0x380d7b93	3.3732107e-05
232	0xbbdbdf90	-0.0067100003
233	0xbabed2fd	-0.0014558729
234	0x3bc017e5	0.0058622235
235	0xbc26b243	-0.010174337
236	0xbb9054a2	-0.0044046203
237	0xbb9970f9	-0.004682657
238	0x3bcd120f	0.0062582563
239	0x39291d4a	0.00016128007
240	0x3b69fcd9	0.0035703687
241	0x3b837c3e	0.0040126136
242	0x3b0af3c5	0.0021202427
243	0x3b1cbed7	0.002391746
244	0xbb960e26	-0.0045793233
245	0x3b603af6	0.003421483
246	0x3b4f4a0a	0.0031629824
247	0x3b52ce80	0.003216654
248	0x3a1304ba	0.00056083093
249	0x3ae990b0	0.001781961
250	0xbbfc70ef	-0.0077038924
251	0xb8c0d661	-9.1952046e-05
252	0x3b17964c	0.0023130355
253	0xba9f7f5a	-0.0012168691
254	0xba6531fe	-0.0008743106
255	0x3a830034	0.0009994567

lstm.bias_ih_l0 f4 [256]
0	0xb999449b	-0.0002923355
1	0xbb19c5ac	-0.002346377
2	0xbbca9dac	-0.0061833467
3	0x3c6cca91	0.0144525925
4	0xbc30050b	-0.01074339
5	0x3b122efb	0.0022305835
6	0x3af18ee4	0.0018429426
7	0x3b8c86fc	0.0042885523
8	0x3c6c2c39	0.01441484
9	0xbbb21e22	-0.005435721
10	0xbc055e72	-0.008140193
11	0x3c7a4e6b	0.015277485
12	0xbbe22201	-0.0069010262
13	0xbca9a07b	-0.020706406
14	0x3c5a10d8	0.01330968
15	0xba8546c3	-0.0010168183
16	0xbd0cb4dc	-0.03435217
17	0xbbeca455	-0.0072217383
18	0xbb78998c	-0.0037933318
19	0xbb2c161c	-0.0026258295
20	0x3c5cdc5d	0.013480273
21	0x3a13c007	0.0005636219
22	0xbaca8fc4	-0.0015454222
23	0xba16a286	-0.0005746264
24	0x39c53b44	0.00037618924
25	0xbb318ef6	-0.0027093268
26	0xbb508c99	-0.0031822084
27	0xbc5f7ed6	-0.01364108
28	0xbc3f1ff0	-0.011665329
29	0xbc400c1c	-0.011721637
30	0xbc494a1b	-0.0122857345
31	0xbbf64044	-0.0075149853
32	0x3a1163b4	0.0005546168
33	0xbcb109c4	-0.021611102
34	0xbbbaff77	-0.0057067233
35	0xbbbad0e6	-0.005701172
36	0xbc272343	-0.010201278
37	0xbcb11e97	-0.021621032
38	0xbb0b668b	-0.0021270837
39	0xbc0cfb48	-0.008604832
40	0xb9c88eaa	-0.00038253266
41	0xba3fd846	-0.0007318299
42	0x3a4149a4	0.0007373339
43	0xbc09b5a6	-0.008405125
44	0x3ba591af	0.005052767
45	0x3c27c761	0.010240407
46	0x3c14ec44	0.009089533
47	0x3a64161c	0.00087008043
48	0x3ac65bf0	0.0015133601
49	0xba0250dd	-0.0004971156
50	0xbc4dc86e	-0.012559993
51	0x3a46909b	0.00075746485
52	0xbc619bca	-0.013770053
53	0x39fab35b	0.00047817346
54	0xbb992171	-0.004673176
55	0xbd55a1ce	-0.052156262
56	0x3b695cf3	0.003560838
57	0xbcb4e9b4	-0.022084095
58	0xbc0467dc	-0.008081403
59	0xbd608c0c	-0.05482106
60	0xbaabd3b5	-0.0013109358
61	0xbd979471	-0.0740136
62	0xbc160572	-0.009156572
63	0x3b97294d	0.0046130777
64	0x3912cf28	0.00014000817
65	0x3c018fc6	0.007907813
66	0x3ce3a7ce	0.027789976
67	0x3c6ce0c6	0.014457887
68	0xbbcb4b47	-0.006204042
69	0xbdef7209	-0.11691672
70	0x3c7b242d	0.015328449
71	0x3b8d1932	0.004305982
72	0x3cebd3bc	0.028787486
73	0xb7bbd32e	-2.2390475e-05
74	0x3d25589d	0.04036771
75	0x3d0e7437	0.0347788
76	0x3b8b4451	0.0042500873
77	0x3cc66b26	0.024221014
78	0x3c336d71	0.010951386
79	0xba8a1992	-0.0010536185
80	0xbab93c61	-0.0014132374
81	0xbd13d109	-0.036088023
82	0xbc454592	-0.012040513
83	0x3cb04b94	0.021520413
84	0x3c0740d7	0.008255205
85	0xba50578f	-0.00079476176
86	0x3bcdcb41	0.0062803333
87	0x3bfa7631	0.007643484
88	0x3d24d2c9	0.040240083
89	0x3c8e90d8	0.017403051
90	0x3d2dbaf3	0.042414617
91	0xbbcbc038	-0.0062179826
92	0x3af7dc8d	0.0018910334
93	0xbaa8b7c3	-0.0012872148
94	0xbd953dd8	-0.072871864
95	0x3d073372	0.033008046
96	0x3d105a89	0.03524259
97	0x3c1f2664	0.009713743
98	0x3b2d8da9	0.002648214
99	0x3d2bd18b	0.041947883
100	0xbb84cbe9	-0.0040526283
101	0xbb0aad36	-0.002116037
102	0x3ceefd3a	0.029173482
103	0x3bc23b3c	0.0059274714
104	0x3cc9a402	0.024614338
105	0xb9d93eaf	-0.00041436168
106	0x3bdde811	0.0067720492
107	0xbd3f126b	-0.046648424
108	0xbbb10b7a	-0.0054029794
109	0xbc163c69	-0.009169676
110	0x3e48983b	0.19589321
111	0x3ac3cbd0	0.001493806
112	0x3cd12fbf	0.025535462
113	0x3b028836	0.0019917614
114	0xbedff389	-0.4374049
115	0xbaa4c8ca	-0.0012572047
116	0x3c929d41	0.01789725
117	0x3c47a50f	0.012185349
118	0xbaf28ede	-0.0018505713
119	0x3c8b85dc	0.017031603
120	0xb9675c83	-0.0002206434
121	0x3c84ccc9	0.01621093
122	0x3d04b34a	0.032397546
123	0xbdae5d52	-0.08513893
124	0x3c81f4a1	0.015863718
125	0xbd88e3ee	-0.06684099
126	0xbc6421cc	-0.013924073
127	0x3b6f6928	0.0036531184
128	0x3c19ba2a	0.009382764
129	0x3cee173d	0.029063815
130	0xbe46f4ad	-0.19429274
131	0xbc82aeb3	-0.015952444
132	0xbd13c0f5	-0.03607269
133	0xbee9c90c	-0.456612
134	0xbc66e6dd	-0.014093128
135	0x3cf8c44b	0.030367037
136	0x3c3f380f	0.01167108
137	0xbbc9821e	-0.0061495444
138	0xbc3f2dfd	-0.011668679
139	0x3d26eabf	0.040751215
140	0x3c55be1d	0.013045815
141	0xbd1e8fa2	-0.038711198
142	0xbc0316b2	-0.008001016
143	0x3b3761d3	0.0027981892
144	0xbd894d3d	-0.06704185
145	0x3be43ef2	0.0069655115
146	0xbc0b0b47	-0.008486575
147	0xbd0cab7e	-0.034343235
148	0xbe945f0b	-0.28978762
149	0xbbcef163	-0.0063153966
150	0xbc904de2	-0.017615262
151	0x3c2e1738	0.010625653
152	0xbbf3d89c	-0.0074415933
153	0xbdf580af	-0.11987435
154	0xbc82589d	-0.015911395
155	0x3cb11466	0.021616172
156	0x3d019745	0.031638402
157	0xbc8a7ef3	-0.016906237
158	0x3e130b5a	0.14359799
159	0xbc731992	-0.014837639
160	0x3c683870	0.014173612
161	0xbc624ae1	-0.013811798
162	0xba623927	-0.0008629732
163	0xbdd169b6	-0.10225241
164	0x3beb32dd	0.0071776942
165	0x3ccdbbd2	0.025113974
166	0x3bebf1b5	0.0072004446
167	0xbd18f5f2	-0.037343927
168	0xbc34ef60	-0.0110434
169	0x3b818594	0.0039526913
170	0x3d055007	0.032547023
171	0x3e60bbac	0.21946591
172	0xbc24217a	-0.010017747
173	0xbca9fb69	-0.020749765
174	0xbbefe3cc	-0.0073208567
175	0x3ccb26a0	0.024798691
176	0xbbc41bc0	-0.0059847534
177	0xbd806944	-0.06270078
178	0x3e433291	0.19062258
179	0x3aeb54d7	0.0017954361
180	0xbcf418f2	-0.029797051
181	0x3c9424f4	0.018084027
182	0x3e3e07f6	0.18557724
183	0x3ba47ff3	0.0050201355
184	0x3c368c8f	0.01114191
185	0x3c5912b4	0.013249088
186	0xbc0d9910	-0.00864245
187	0xbda95648	-0.0826841
188	0x3cfd5439	0.03092395
189	0xbeb4c045	-0.3530294
190	0xbba4cf02	-0.00502956
191	0x3c8a57fb	0.016887655
192	0xbb229f36	-0.0024814135
193	0x3b5f0dcf	0.003403533
194	0xbc26847d	-0.010163424
195	0xbc2079d2	-0.009794669
196	0xbc26d27a	-0.010182017
197	0xbe051cee	-0.12999317
198	0xbc280d4c	-0.0102570765
199	0x3d301a75	0.04299398
200	0x3b2184cb	0.0024645801
201	0xbcd096b3	-0.025462484
202	0x37df11c4	2.6591944e-05
203	0xbc7683f2	-0.015046107
204	0xbc818b57	-0.015813513
205	0xbb8deca0	-0.0043311864
206	0xbe8f6647	-0.2800772
207	0xbc36bad5	-0.011152943
208	0xbc4292b4	-0.011875797
209	0xbee46aaa	-0.44612628
210	0xbb9be0a8	-0.0047570057
211	0xbc22dac2	-0.009939851
212	0xbbbc9256	-0.0057547493
213	0xbc6f1413	-0.014592188
214	0xbd12742b	-0.035755318
215	0x3b4faace	0.00316875
216	0xbb0591cf	-0.0020381098
217	0x3a86e55e	0.0010291745
218	0x3b889194	0.004167745
219	0xbc42cea0	-0.011890084
220	0xbbac45b4	-0.0052573327
221	0xbb9cb564	-0.0047823656
222	0xbdf7d5b5	-0.12101308
223	0xbc3d5b31	-0.011557386
224	0xbc37d08d	-0.011219156
225	0xbbd8c832	-0.006615662
226	0xbc0a3cf1	-0.008437381
227	0x3c9d4bf1	0.01920125
228	0xbb8bd3aa	-0.0042671757
229	0xbbdcdef1	-0.006740444
230	0x3d3bdda9	0.04586569
231	0xbe4a6551	-0.19765212
232	0xbd3d2e08	-0.046186477
233	0xbb744b86	-0.003727646
234	0x3d9d0cdc	0.07668468
235	0xbc89cefa	-0.016822327
236	0xbcae3d6d	-0.021269524
237	0xbea460e6	-0.32105178
238	0x3e06636e	0.13123867
239	0xbb184155	-0.00232323
240	0xbba2d602	-0.0049693594
241	0xbb553ec1	-0.0032538625
242	0xbeae0638	-0.3398912
243	0xbd2565af	-0.040380176
244	0x3aaa44a5	0.0012990428
245	0xbb0ff67f	-0.0021966991
246	0xbc2c97d6	-0.010534247
247	0xbb2abd32	-0.002605271
248	0xbe166742	-0.14687827
249	0xbc2c4c8a	-0.010516295
250	0x3b28d816	0.0025763563
251	0xbeaa4a37	-0.33259746
252	0x3c689444	0.0141955055
253	0xbe2ba352	-0.1676152
254	0x3cc8584c	0.024456166
255	0xb918ac8f	-0.00014560133

lstm.bias_hh_l0 f4 [256]
0	0xb9994618	-0.00029234658
1	0xbb19c59c	-0.0023463732
2	0xbbca9da6	-0.006183344
3	0x3c6ccbf4	0.014452923
4	0xbc30050b	-0.01074339
5	0x3b122f5f	0.0022306067
6	0x3af18f30	0.0018429514
7	0x3b8c8d28	0.004289288
8	0x3c6c2c3a	0.014414841
9	0xbbb21e7e	-0.005435764
10	0xbc055e8f	-0.00814022
11	0x3c7a4e1c	0.015277412
12	0xbbe22200	-0.006901026
13	0xbca9a076	-0.020706397
14	0x3c5a10ff	0.013309716
15	0xba85476f	-0.0010168384
16	0xbd0cb4e2	-0.03435219
17	0xbbeca454	-0.007221738
18	0xbb789a01	-0.003793359
19	0xbb2c15ce	-0.0026258114
20	0x3c5cdc6a	0.013480285
21	0x3a13c038	0.0005636248
22	0xbaca8eb7	-0.0015453909
23	0xba16a210	-0.0005746195
24	0x39c53b44	0.00037618924
25	0xbb319012	-0.002709393
26	0xbb508c19	-0.0031821786
27	0xbc5f7ed6	-0.01364108
28	0xbc3f1ff4	-0.011665333
29	0xbc400c42	-0.0117216725
30	0xbc494a1c	-0.012285735
31	0xbbf64053	-0.0075149923
32	0x3a1163aa	0.0005546162
33	0xbcb109c4	-0.021611102
34	0xbbbaff73	-0.0057067215
35	0xbbbad110	-0.0057011917
36	0xbc2723f4	-0.010201443
37	0xbcb11e98	-0.021621034
38	0xbb0b6661	-0.002127074
39	0xbc0cfb5e	-0.0086048525
40	0xb9c88e31	-0.00038252914
41	0xba3fd784	-0.0007318186
42	0x3a4145a1	0.0007372741
43	0xbc09b5aa	-0.0084051285
44	0x3ba5920e	0.0050528115
45	0x3c27c75f	0.010240405
46	0x3c14ec5f	0.009089558
47	0x3a64143c	0.0008700525
48	0x3ac65c9b	0.00151338
49	0xba025110	-0.00049711857
50	0xbc4dc85a	-0.012559975
51	0x3a46909b	0.00075746485
52	0xbc619dd4	-0.013770539
53	0x39faab71	0.0004781145
54	0xbb992171	-0.004673176
55	0xbd5596a5	-0.05214562
56	0x3b695cd3	0.0035608306
57	0xbcb4e992	-0.022084031
58	0xbc046ba1	-0.008082301
59	0xbd608cba	-0.054821707
60	0xbaabca2b	-0.0013106515
61	0xbd979538	-0.07401508
62	0xbc16058e	-0.009156598
63	0x3b972948	0.0046130754
64	0x3912cf74	0.00014000927
65	0x3c018fdd	0.007907835
66	0x3ce3a7d3	0.027789986
67	0x3c6cdc1a	0.014456773
68	0xbbcb2008	-0.006198887
69	0xbdef73e5	-0.11692027
70	0x3c7b242d	0.015328449
71	0x3b8d191d	0.0043059723
72	0x3cebd3e1	0.028787555
73	0xb7bb7cca	-2.2350247e-05
74	0x3d2558a8	0.040367752
75	0x3d0e742f	0.03477877
76	0x3b8b3f6e	0.004249505
77	0x3cc66b26	0.024221014
78	0x3c336d82	0.010951402
79	0xba8a205f	-0.0010538212
80	0xbab94069	-0.0014133576
81	0xbd13d12d	-0.036088157
82	0xbc452904	-0.012033705
83	0x3cb04b93	0.021520412
84	0x3c0740c4	0.008255187
85	0xba50573c	-0.0007947569
86	0x3bcdcb41	0.0062803333
87	0x3bfa762b	0.0076434813
88	0x3d24d30b	0.04024033
89	0x3c8e90b8	0.017402992
90	0x3d2dbaf7	0.04241463
91	0xbbcbb869	-0.0062170518
92	0x3af7d9af	0.0018909479
93	0xbaa8bfa3	-0.0012874495
94	0xbd953d51	-0.07287086
95	0x3d072197	0.03299102
96	0x3d1058bb	0.03524087
97	0x3c1f2689	0.009713777
98	0x3b2d8d78	0.0026482027
99	0x3d2bd1de	0.04194819
100	0xbb849cb0	-0.004046999
101	0xbb0aad54	-0.002116044
102	0x3ceefedd	0.029174263
103	0x3bc23a5a	0.005927366
104	0x3cc9a46c	0.024614535
105	0xb9d95845	-0.0004145523
106	0x3bdde811	0.0067720492
107	0xbd3f1270	-0.046648443
108	0xbbb10b7c	-0.0054029804
109	0xbc163c6a	-0.009169677
110	0x3e488f82	0.19585994
111	0x3ac3ccab	0.0014938315
112	0x3cd13def	0.025542228
113	0x3b028b3b	0.0019919414
114	0xbedfe909	-0.4373248
115	0xbaa4c45c	-0.0012570727
116	0x3c929d48	0.017897263
117	0x3c47a514	0.012185354
118	0xbaf28eae	-0.0018505657
119	0x3c8b85ef	0.017031638
120	0xb96761d5	-0.00022066322
121	0x3c84cc9b	0.016210845
122	0x3d04b355	0.032397587
123	0xbdae6097	-0.08514517
124	0x3c81f5d4	0.01586429
125	0xbd88d1c6	-0.06680636
126	0xbc6424c9	-0.013924786
127	0x3b6f694b	0.0036531265
128	0x3c19ba1a	0.009382749
129	0x3cedf232	0.029046152
130	0xbe46f4ab	-0.19429271
131	0xbc82aeb3	-0.015952444
132	0xbd13c0b4	-0.036072448
133	0xbee9c8f9	-0.45661142
134	0xbc66e6a6	-0.014093077
135	0x3cf8c454	0.030367054
136	0x3c3f37e0	0.0116710365
137	0xbbc98358	-0.0061496906
138	0xbc3f2e1c	-0.011668708
139	0x3d26eba5	0.040752072
140	0x3c55be41	0.013045848
141	0xbd1e8f84	-0.038711086
142	0xbc03173c	-0.008001145
143	0x3b376184	0.0027981708
144	0xbd894d4d	-0.06704197
145	0x3be43ef5	0.006965513
146	0xbc0b0b44	-0.008486573
147	0xbd0cab80	-0.034343243
148	0xbe945f1b	-0.2897881
149	0xbbcef16b	-0.0063154004
150	0xbc904de8	-0.017615274
151	0x3c2e173b	0.010625656
152	0xbbf3d859	-0.007441562
153	0xbdf58076	-0.119873926
154	0xbc824ef9	-0.015906798
155	0x3cb1144a	0.02161612
156	0x3d019748	0.031638414
157	0xbc8a7ed8	-0.016906187
158	0x3e1318e5	0.14364965
159	0xbc737eb4	-0.014861751
160	0x3c68387b	0.014173622
161	0xbc624b5f	-0.013811915
162	0xba624a44	-0.0008632282
163	0xbdd08f4c	-0.10183582
164	0x3beb2e3c	0.0071771424
165	0x3ccdbbc2	0.025113944
166	0x3bebf189	0.007200424
167	0xbd18f5f6	-0.03734394
168	0xbc34ee97	-0.011043212
169	0x3b818548	0.003952656
170	0x3d054ce0	0.032544017
171	0x3e60bbc0	0.21946621
172	0xbc242165	-0.0100177275
173	0xbca9fb78	-0.020749792
174	0xbbefe2fc	-0.00732076
175	0x3ccb2695	0.02479867
176	0xbbc41bbf	-0.005984753
177	0xbd8068bb	-0.06269976
178	0x3e4332d4	0.19062358
179	0x3aeb43e7	0.0017949314
180	0xbcf41937	-0.02979718
181	0x3c942523	0.018084114
182	0x3e3e079a	0.18557587
183	0x3ba47fef	0.0050201337
184	0x3c368c7c	0.0111418925
185	0x3c5910c0	0.013248622
186	0xbc0d9910	-0.00864245
187	0xbda95586	-0.082682654
188	0x3cfd54a3	0.030924147
189	0xbeb4c113	-0.35303554
190	0xbba4ce82	-0.0050295005
191	0x3c8a57fe	0.016887661
192	0xbb229db6	-0.0024813241
193	0x3b5f0dd4	0.0034035342
194	0xbc26847d	-0.010163424
195	0xbc207a0a	-0.009794721
196	0xbc26d26a	-0.010182003
197	0xbe051cfc	-0.12999338
198	0xbc280d6a	-0.010257104
199	0x3d3019fc	0.04299353
200	0x3b2184cf	0.002464581
201	0xbcd0970b	-0.025462648
202	0x37df6688	2.6631416e-05
203	0xbc767ff6	-0.015045157
204	0xbc818b57	-0.015813513
205	0xbb8deced	-0.0043312223
206	0xbe8f6648	-0.28007722
207	0xbc36baaa	-0.011152903
208	0xbc4292b8	-0.011875801
209	0xbee46ab3	-0.44612655
210	0xbb9be120	-0.0047570616
211	0xbc22dac5	-0.009939854
212	0xbbbc9225	-0.0057547265
213	0xbc6f13f4	-0.01459216
214	0xbd127403	-0.03575517
215	0x3b4faf3e	0.0031690146
216	0xbb0591ce	-0.0020381096
217	0x3a86e01b	0.0010290177
218	0x3b889192	0.004167744
219	0xbc42cc20	-0.0118894875
220	0xbbac3e11	-0.0052564223
221	0xbb9cb865	-0.0047827237
222	0xbdf7d5b5	-0.12101308
223	0xbc3d5b9e	-0.011557488
224	0xbc37d08e	-0.011219157
225	0xbbd8c7c5	-0.0066156113
226	0xbc0a3cf7	-0.008437387
227	0x3c9d4bf1	0.01920125
228	0xbb8bd4da	-0.0042673172
229	0xbbdcdf01	-0.0067404513
230	0x3d3be48b	0.045872252
231	0xbe4a657c	-0.19765276
232	0xbd3d2dcd	-0.046186257
233	0xbb744b85	-0.0037276458
234	0x3d9d0c8c	0.07668409
235	0xbc89cef8	-0.016822323
236	0xbcae3d63	-0.021269506
237	0xbea460f3	-0.32105216
238	0x3e066383	0.13123898
239	0xbb184482	-0.0023234193
240	0xbba2d4ce	-0.004969216
241	0xbb553aff	-0.0032536385
242	0xbeae06ff	-0.33989713
243	0xbd2565ad	-0.04038017
244	0x3aaa4376	0.0012990076
245	0xbb0ff648	-0.0021966863
246	0xbc2c97c1	-0.010534228
247	0xbb2abbbe	-0.0026051844
248	0xbe166798	-0.14687955
249	0xbc2c4b23	-0.010515961
250	0x3b28d813	0.0025763556
251	0xbeaa48a7	-0.33258554
252	0x3c689433	0.01419549
253	0xbe2ba723	-0.16762976
254	0x3cc86970	0.024464339
255	0xb918ac68	-0.00014560076

fc.weight f4 [50, 64]
0	0x3a24b18b	0.00062825595
1	0xbb23b780	-0.00249812
2	0xbc29282e	-0.010324521
3	0x3cad9e95	0.021193782
4	0xbc2fc3a9	-0.010727801
5	0xbd099390	-0.033587992
6	0xbba0e364	-0.0049099196
7	0xbdcd94e1	-0.10038162
8	0xbcc05d5a	-0.023482013
9	0x3b41550e	0.002950016
10	0x3d03e280	0.03219843
11	0xbc5f30cc	-0.013622474
12	0xbc81d982	-0.015850786
13	0x3c41152c	0.011784833
14	0x3ca630fa	0.020287026
15	0x3ba09b43	0.004901321
16	0xbd3f35d8	-0.04668221
17	0xbcc150f4	-0.023598172
18	0x3ce87647	0.028376712
19	0xbc5731d7	-0.013134441
20	0x3d27b444	0.0409434
21	0x3ce16484	0.02751375
22	0x3d919c1c	0.071098536
23	0xbc744d6c	-0.014911037
24	0x3d0a5eca	0.033781804
25	0x3c9b32ec	0.01894518
26	0x3c812593	0.015764987
27	0x3be60dc1	0.0070206826
28	0xbca74c15	-0.02042202
29	0x3d55f793	0.05223806
30	0x3dc10796	0.09425275
31	0xbd454174	-0.048158124
32	0x3c48af85	0.012248878
33	0x3b6315da	0.0034650476
34	0xbd37b7f1	-0.044853155
35	0x3cbd093b	0.02307569
36	0x3d491381	0.049090866
37	0xbbb0f8e6	-0.0054007648
38	0x3ca51ada	0.020154405
39	0xbc37896c	-0.0112021975
40	0x3cf132b4	0.029443122
41	0x384cff62	4.8875234e-05
42	0x3d0bd146	0.034135126
43	0x3c6aaa16	0.014322778
44	0xbc2a13d3	-0.010380703
45	0x3bbceea9	0.005765755
46	0xbd8d2ffb	-0.06893917
47	0x3bfa10d2	0.0076313997
48	0xbd7dd59c	-0.061971292
49	0xbb9378fe	-0.0045005074
50	0xbbe90f51	-0.0071124216
51	0xbc1718ef	-0.009222253
52	0x3d1b3ebf	0.037901636
53	0xbda99ed0	-0.08282244
54	0x3cd4d834	0.025982
55	0x3ca199f8	0.019726738
56	0xbc50c9dc	-0.0127434395
57	0xbc1010c4	-0.00879306
58	0x3bd99169	0.0066396487
59	0xbaf72611	-0.0018855949
60	0xbd9fe962	-0.07808186
61	0xbd37ea3d	-0.04490112
62	0xbd146aa8	-0.036234528
63	0x3b30d538	0.0026982557
64	0xbb3659ed	-0.0027824596
65	0xbc6ce2db	-0.014458383
66	0xbbb33e63	-0.0054700836
67	0x3c8be16d	0.017075265
68	0xbb7ea5d8	-0.0038856175
69	0xbda0491a	-0.07826443
70	0xbb895cb7	-0.0041919607
71	0xbc8c98f1	-0.017162772
72	0xbdbc86bc	-0.09205386
73	0x3b1a34a8	0.002352992
74	0xbb942a9b	-0.0045216805
75	0xbc71e67e	-0.014764426
76	0xbc5e533a	-0.013569647
77	0x3dca1fa7	0.098693185
78	0x3d91969f	0.07108807
79	0x3beffc3d	0.0073237703
80	0x3a94f8ae	0.0011365616
81	0x3c106df9	0.008815282
82	0x3c28a49f	0.010293155
83	0xbc021fac	-0.0079421215
84	0x3cd8ade6	0.026450109
85	0xbc2c818b	-0.010528932
86	0xbc7e9f3f	-0.015540897
87	0xbc0fe191	-0.008781807
88	0x3c5e722e	0.013577027
89	0x3c5b0ba6	0.013369476
90	0x3c198bdc	0.009371724
91	0x3b970a96	0.0046094162
92	0x3c01105b	0.007877435
93	0x3dfd67c4	0.12373307
94	0x3bc3f69c	0.005980326
95	0xbc2b4aae	-0.010454817
96	0x3bdf238d	0.006809658
97	0x3d8f6c3c	0.07003066
98	0xbc92c693	-0.017916953
99	0xbdd44726	-0.10365133
100	0xbc742669	-0.014901736
101	0xbda3f64a	-0.0800596
102	0xbc90ed69	-0.017691331
103	0x3de56bac	0.112021774
104	0xbb51e187	-0.0032025294
105	0xbba72578	-0.005100902
106	0xbc4e7a99	-0.012602472
107	0x3a2f3748	0.0006683958
108	0xbdbb7328	-0.09152824
109	0x3dbc38dd	0.09190533
110	0x3cccb1a3	0.024987048
111	0xbc159737	-0.009130291
112	0xbd2abaf0	-0.041682184
113	0x3b7bbc00	0.0038411617
114	0x3da395c1	0.07987548
115	0x3bff53f2	0.0077919895
116	0x3c295dae	0.010337276
117	0xbc4891c8	-0.012241788
118	0x3d60214c	0.054719254
119	0x3c5b8528	0.013398446
120	0xbd3c7aa1	-0.046015386
121	0xbd950313	-0.07275977
122	0xbc25be24	-0.010116134
123	0x3cfd0076	0.030884009
124	0xbdca3d45	-0.098749675
125	0x3d219ede	0.03945815
126	0xbc8eeb0e	-0.017446067
127	0xbc8313bb	-0.01600062
128	0xbabc9397	-0.0014387247
129	0xbbd044d2	-0.0063558603
130	0x3cc05239	0.023476707
131	0x3d04d30b	0.03242783
132	0xbd2d4f69	-0.04231206
133	0x3e109763	0.1412025
134	0xbd3eb200	-0.046556473
135	0xbd21b125	-0.03947558
136	0x3e085fa0	0.13317728
137	0x3b3886ef	0.0028156599
138	0x3d5b8024	0.053589
139	0xbcc72e93	-0.0243142
140	0xbc0efe5c	-0.008727636
141	0xbe297ba4	-0.16551071
142	0xbe01fb79	-0.12693585
143	0x3ce550d2	0.02799264
144	0xba84825a	-0.0010109649
145	0xbca80e62	-0.02051467
146	0xbd78ea29	-0.060770188
147	0x3d2618de	0.04055106
148	0xbd0e2e2c	-0.034712
149	0xbcb975d8	-0.0226392
150	0x3d8609ef	0.065448634
151	0xbcf99a8a	-0.030469198
152	0x3c1a4236	0.0094152
153	0x3c92bd4e	0.017912533
154	0x3a0f4af1	0.0005466184
155	0xbda89c7a	-0.082329705
156	0xbda990a5	-0.08279542
157	0xbe6c42a5	-0.23072298
158	0xbccf51f3	-0.025307631
159	0x3d351964	0.044213668
160	0x3da7d5ed	0.081951
161	0xbe170f20	-0.14751863
162	0x3d055b15	0.032557566
163	0x3e405a85	0.1878453
164	0xbc06b4d7	-0.0082218265
165	0x3e0fceb7	0.14043699
166	0x3e0af12f	0.13568567
167	0xbe21a1f2	-0.15784433
168	0xbdc81816	-0.09770219
169	0xbc1bcdd1	-0.00950952
170	0xbd11a5ca	-0.0355585
171	0xbd453fc8	-0.04815653
172	0x3e3625e6	0.17787895
173	0xbe1078d6	-0.14108595
174	0xbdd1f0ff	-0.102510445
175	0x3b18595d	0.0023246624
176	0x3d74262f	0.059606727
177	0xbad42c1b	-0.0016187461
178	0xbe1da2c1	-0.15394117
179	0x3d1bb0d1	0.038010422
180	0x3cfb52b7	0.03067909
181	0x3ca5c73f	0.02023661
182	0xbdef24fc	-0.11676976
183	0x3d1009ef	0.035165723
184	0x3cfd0450	0.030885845
185	0x3e207e21	0.15673114
186	0xbd655821	-0.05599225
187	0xbdb18448	-0.08667809
188	0x3e3d5ec9	0.18493189
189	0xbdca89a9	-0.09889538
190	0x3d8df941	0.06932307
191	0x3b7e0925	0.0038762775
192	0x3a8afec4	0.001060449
193	0xbba79631	-0.0051143398
194	0xbac6b007	-0.0015158661
195	0x38b7d052	8.764923e-05
196	0xb960e1ee	-0.0002144647
197	0x3bad269b	0.005284143
198	0x3be0f2f5	0.0068649002
199	0xbb0430ba	-0.0020170645
200	0xbc5f618d	-0.013634098
201	0xbab51ffe	-0.0013818739
202	0xbc859c7c	-0.01630997
203	0xbbbe198a	-0.0058013843
204	0xbb47fdc7	-0.0030516253
205	0xbbdb0e1f	-0.006685033
206	0x3c95bbbd	0.018277997
207	0xbb6c186d	-0.00360253
208	0xbc52419e	-0.012833027
209	0xbb54ef04	-0.0032491097
210	0x3d43ea24	0.047830716
211	0xbcbba5b5	-0.022906164
212	0x3cf992b4	0.030465461
213	0x3bc94726	0.0061425148
214	0xbd4ab8dc	-0.049492702
215	0x3bac40e9	0.0052567613
216	0x3cadc267	0.021210862
217	0x3c619e36	0.013770631
218	0x3c666794	0.014062781
219	0x3d255796	0.04036673
220	0x3d058de7	0.03260603
221	0xbb9d62bf	-0.004803031
222	0x3cba4755	0.022739092
223	0xbd843a7f	-0.0645647
224	0xbc0ee1ea	-0.008720854
225	0xbbcc27f3	-0.0062303483
226	0xbd6ba66a	-0.05753175
227	0x3d1db311	0.03850085
228	0x3cc7520f	0.02433112
229	0x3b37cec4	0.0028046826
230	0x3d56e1cf	0.05246144
231	0xbc9d9ab0	-0.0192388
232	0x3d3e6b07	0.046488788
233	0x3bc62f86	0.0060481457
234	0x3b9cd649	0.004786287
235	0x3ca1cd7c	0.019751303
236	0x3d009341	0.031390432
237	0xbac01bb8	-0.0014656698
238	0xbd76af3a	-0.060225703
239	0x395063a8	0.0001987355
240	0xbe0d40d0	-0.13794255
241	0x3be67068	0.007032443
242	0xbc7615e7	-0.01501987
243	0x3b86b629	0.0041110707
244	0x3b916fec	0.004438391
245	0xbd166f8c	-0.036727473
246	0xbbe97586	-0.0071246056
247	0xbbaff244	-0.0053694565
248	0xbc2030ff	-0.009777307
249	0x3bacc46a	0.005272438
250	0x3c636cbd	0.013880906
251	0xbb3efc83	-0.0029142208
252	0x3c012d68	0.007884361
253	0xbc286b6a	-0.010279516
254	0xbd460c9f	-0.04835188
255	0xbc6cfe26	-0.014464891

fc.bias f4 [50]
0	0xbe02ae11	-0.12761714
1	0x3e596da9	0.21233238
2	0xbecf5e05	-0.4050142
3	0xbe4552bc	-0.19269842
4	0x3de761df	0.11297964
5	0x3e12bb6b	0.14329307
6	0xbe7e2d11	-0.24821879
7	0x3ea66054	0.32495368
8	0xbead602d	-0.3386244
9	0xbe9af2e7	-0.30263445
10	0xbe220147	-0.158208
11	0xbee01ab2	-0.43770367
12	0xbe944b61	-0.2896376
13	0xbe36d845	-0.17855938
14	0x3e3cb7e1	0.18429519
15	0xbe4195ab	-0.1890475
16	0xbeadef06	-0.33971423
17	0x3df9a2f3	0.12189283
18	0x3ec1b2aa	0.37831622
19	0xbe1e7547	-0.15474425
20	0xbe37de5e	-0.1795592
21	0x3dae12c6	0.084996745
22	0xbecdb49e	-0.40176862
23	0xbe833e06	-0.25633258
24	0x3e9f10c8	0.3106749
25	0x3eea839b	0.45803532
26	0xbe83be92	-0.2573133
27	0x3e3d51e3	0.18488269
28	0x3e16d8a2	0.14731076
29	0x3de0d339	0.109777875
30	0x3e8a6778	0.27032065
31	0xbe040a4c	-0.12894553
32	0xbeaa297e	-0.3323478
33	0x3e5dbf2b	0.21654956
34	0xbe9f0e48	-0.31065583
35	0xbea95157	-0.3306987
36	0xbebb9446	-0.3663656
37	0xbe64fdd3	-0.22362451
38	0x3e940608	0.2891085
39	0x3e254f59	0.1614355
40	0x3e32f392	0.17475727
41	0xbe80825b	-0.25099453
42	0x3bc3e4ea	0.0059782164
43	0xbe93bf98	-0.28857112
44	0x3eddab89	0.43294933
45	0xbe8ef6b4	-0.27922595
46	0xbe800d6d	-0.25010243
47	0xbea74e50	-0.32676935
48	0x3e62fa5f	0.22165821
49	0x3e271693	0.16317205

decoder.0.weight f4 [64, 50]
0	0x9a34917e	-3.7340655e-23
1	0x9b2b6156	-1.417624e-22
2	0x1dcb256d	5.377235e-21
3	0x9bb694d6	-3.0205557e-22
4	0x1b96e506	2.4963421e-22
5	0x1b1decf4	1.3063299e-22
6	0x9b9bd4e4	-2.5780176e-22
7	0x99e6ed09	-2.387718e-23
8	0x9ac815e5	-8.2753434e-23
9	0x9abef729	-7.898147e-23
10	0x1b2c5c5b	1.4257348e-22
11	0x1ad96afe	8.992195e-23
12	0x9aa47677	-6.80202e-23
13	0x9b14528d	-1.2268947e-22
14	0x9b7ea7fa	-2.1064664e-22
15	0x1a38c096	3.8205878e-23
16	0x1baaa61e	2.8231492e-22
17	0x9b72c657	-2.0081858e-22
18	0x98816158	-3.344401e-24
19	0x1b4f9100	1.7169491e-22
20	0x9b8efc47	-2.365496e-22
21	0x9b153615	-1.2342466e-22
22	0x9a9de11b	-6.5297356e-23
23	0x9ac99cd2	-8.338501e-23
24	0x9be7deb8	-3.8359673e-22
25	0x9b025a43	-1.0782513e-22
26	0x9adeff55	-9.222956e-23
27	0x1a7d2ab1	5.235366e-23
28	0x191a4d88	7.977271e-24
29	0x9c6956c0	-7.7205355e-22
30	0x98b00c85	-4.5507575e-24
31	0x1a8f4b3b	5.9264955e-23
32	0x1bb3c3a1	2.9739488e-22
33	0x1b961116	2.482646e-22
34	0x1b618db2	1.8657348e-22
35	0x1aba3d3b	7.702672e-23
36	0x996c2517	-1.2208404e-23
37	0x1e7e04d5	1.3447647e-20
38	0x9af215d4	-1.0012412e-22
39	0x1b04aa81	1.0973877e-22
40	0x1a235c1d	3.378202e-23
41	0x1b14a816	1.2296585e-22
42	0x9c5386ee	-6.9988436e-22
43	0x1a99ba50	6.358032e-23
44	0x1af2848a	1.0030298e-22
45	0x1b962ece	2.4845665e-22
46	0x19ecfca0	2.4503862e-23
47	0x992e82b2	-9.021983e-24
48	0x1c8501f2	8.801705e-22
49	0x1d3c0678	2.4884937e-21
50	0x8bdba6d4	-8.4606747e-32
51	0x8b45305e	-3.7977207e-32
52	0x0c034cf6	1.0115032e-31
53	0x0ca872be	2.5953556e-31
54	0x0af13386	2.3226837e-32
55	0x0ca53513	2.5454218e-31
56	0x8d23dbcf	-5.049284e-31
57	0x0cef62b0	3.6883176e-31
58	0x8d1f92bd	-4.9172288e-31
59	0x8c198893	-1.182779e-31
60	0x8cd5743c	-3.2887802e-31
61	0x0d342345	5.5509237e-31
62	0x8c28c2a2	-1.3000819e-31
63	0x8cf11a91	-3.7147918e-31
64	0x8c241a3d	-1.2641996e-31
65	0x0cdbd54e	3.387067e-31
66	0x0c2a1f1a	1.3105683e-31
67	0x0ce1ba73	3.4778954e-31
68	0x8d2e4d09	-5.3710617e-31
69	0x0c624a79	1.7432817e-31
70	0x0cadee28	2.6798206e-31
71	0x0ccbabb2	3.1380438e-31
72	0x0cce2c1b	3.176587e-31
73	0x0ceff330	3.6970144e-31
74	0x8c4191bf	-1.4912038e-31
75	0x0c4fdc75	1.6013041e-31
76	0x8bb025be	-6.784952e-32
77	0x0bb7d007	7.080204e-32
78	0x085be244	6.616889e-34
79	0x0ca5596a	2.547609e-31
80	0x0c58040a	1.664125e-31
81	0x8c811ecf	-1.989414e-31
82	0x0c8a731c	2.1331546e-31
83	0x8bb0f06f	-6.81545e-32
84	0x0b91c5d6	5.614964e-32
85	0x0c9567e2	2.3019607e-31
86	0x0ca87549	2.5955087e-31
87	0x8c59eeed	-1.6788971e-31
88	0x0d0f76d5	4.4208316e-31
89	0x0c0df454	1.093577e-31
90	0x8a974016	-1.4564878e-32
91	0x0ba09e0a	6.186755e-32
92	0x0c8e428b	2.1918613e-31
93	0x8c252c2a	-1.2724428e-31
94	0x0d3d3251	5.830069e-31
95	0x8ab47456	-1.737713e-32
96	0x8cda1c87	-3.3605388e-31
97	0x8c902540	-2.2209132e-31
98	0x8cdb5846	-3.379542e-31
99	0x0d45402b	6.078255e-31
100	0x3a05fc7f	0.0005111172
101	0xb9919c14	-0.00027772842
102	0x3aaa563e	0.0012995673
103	0x3a63e656	0.00086936855
104	0xb8a44b89	-7.834199e-05
105	0x37d17288	2.4968074e-05
106	0x3a7d8872	0.0009671516
107	0xb9bda632	-0.00036172714
108	0x39a87556	0.0003213088
109	0x3a9d66f4	0.0012008832
110	0x3a25bd65	0.00063224725
111	0x3a084ce0	0.00051994435
112	0x3a1666d7	0.000573737
113	0x38c1f1b9	9.2479815e-05
114	0x397e6cf0	0.0002426391
115	0x3a6b1fc0	0.00089692697
116	0x381bc052	3.7133992e-05
117	0xb9ec44a8	-0.0004506458
118	0x390fd5a9	0.00013717137
119	0x38e9d9c0	0.00011150865
120	0x390d6ccb	0.00013487336
121	0x38ca2df8	9.640673e-05
122	0x3a2173fd	0.0006158946
123	0x39fddeeb	0.00048422007
124	0x394cf43a	0.00019545938
125	0xbaad2fe9	-0.0013213131
126	0xb947f7f3	-0.00019070487
127	0x388a2734	6.587655e-05
128	0x39dfac4e	0.00042662252
129	0xb9942802	-0.00028258568
130	0xba126384	-0.0005584287
131	0x391279be	0.00013968998
132	0x3a64ff72	0.0008735574
133	0x38af5e3c	8.362203e-05
134	0x3a1973dd	0.0005853752
135	0xb9866a33	-0.00025637596
136	0x39a9b8d6	0.00032371905
137	0x390d61eb	0.00013483285
138	0xb92ba1be	-0.00016368084
139	0xba2195fb	-0.00061640114
140	0x3976665b	0.00023498519
141	0xb99efa3e	-0.00030322553
142	0xb85142fa	-4.989186e-05
143	0x39e22649	0.00043134604
144	0xba73ff79	-0.0009307783
145	0xb9870b34	-0.00025757554
146	0x394f4f55	0.00019770612
147	0x3955fe2a	0.00020407946
148	0x38c47232	9.367279e-05
149	0x374c3d98	1.2173688e-05
150	0x3ecbe1ee	0.39820808
151	0xbeb4036a	-0.35158855
152	0x3ecb7c28	0.3974316
153	0x3ee19571	0.44059327
154	0xbea4724d	-0.32118455
155	0xbef6bb36	-0.48189706
156	0x3edfb143	0.43689927
157	0xbedeefbd	-0.4354228
158	0x3edcc552	0.43119293
159	0x3ece2be1	0.40267852
160	0x3eb30b5a	0.34969598
161	0x3edbf02a	0.42956668
162	0x3ee770dc	0.45203292
163	0x3ed0a3ea	0.40750057
164	0xbeb5591b	-0.35419545
165	0x3eaf6d16	0.34262913
166	0x3ed363fb	0.41287217
167	0xbecdd9b8	-0.4020517
168	0xbed26577	-0.41093037
169	0x3ee69774	0.45037425
170	0x3ed87a20	0.42280674
171	0xbeb651c8	-0.3560927
172	0x3edb69a7	0.42854044
173	0x3edd25ba	0.43192846
174	0xbee754c8	-0.4518187
175	0xbeef17b0	-0.4669776
176	0x3ee7dea5	0.45287052
177	0xbec44f7d	-0.38341895
178	0xbec9fa6a	-0.39448863
179	0xbe47c0ac	-0.19507092
180	0xbed14ebb	-0.4088038
181	0x3ed350e3	0.4127265
182	0x3ed85c3e	0.42257875
183	0xbee0d91a	-0.43915635
184	0x3ed86ec9	0.42272022
185	0x3ed81525	0.42203632
186	0x3edd84d8	0.43265414
187	0x3eda5df3	0.42649803
188	0xbed7990d	-0.42108956
189	0xbeab2b62	-0.33431536
190	0xbef8ff7f	-0.48632428
191	0x3ee68719	0.45024946
192	0x3e55c6c1	0.208766
193	0x3ed4b4fb	0.41544327
194	0xbeca4aea	-0.3951028
195	0x3ed2fff2	0.41210896
196	0x3ef12b16	0.47103184
197	0x3ed5cafd	0.4175643
198	0xbecd41b5	-0.40089193
199	0xbecf73ba	-0.4051798
200	0x3c98c007	0.018646253
201	0xbcb051d5	-0.021523396
202	0x3d7ec086	0.062195323
203	0x3cd9d7f1	0.026592227
204	0xbbd29b31	-0.0064271917
205	0x3aa7eec0	0.0012812242
206	0x3d85894a	0.065203264
207	0xbcf9dc44	-0.030500539
208	0x3d5d0ed9	0.053969238
209	0xbd06e0aa	-0.0329291
210	0x3b7be90d	0.003843847
211	0x3dc06f65	0.09396247
212	0x3d907dce	0.07055245
213	0x3cc1f1a4	0.023674794
214	0x3d6139ca	0.054986753
215	0x3d3330aa	0.04374758
216	0x3dc3d450	0.0956198
217	0xbc4def16	-0.01256921
218	0xbcc8ab61	-0.024495782
219	0x3c9c1636	0.01905356
220	0x3d282dee	0.041059427
221	0x3c021592	0.007939713
222	0x3d7e1088	0.062027484
223	0x3d4352f9	0.04768655
224	0xbd3cd9f9	-0.046106312
225	0xbd1f7531	-0.03893012
226	0x3d802a2b	0.06258043
227	0xbbc8a6bd	-0.0061233924
228	0xbb8ac064	-0.0042343605
229	0xb9c63f96	-0.00037812878
230	0xbca518e8	-0.020153478
231	0x3c2e4223	0.010635885
232	0x3d345377	0.04402491
233	0xbc9dc30b	-0.019258043
234	0x3d54ab5b	0.05192123
235	0x3c58aaf8	0.013224356
236	0x3d6937f0	0.05693811
237	0x3cad5f65	0.021163652
238	0xbd484cb3	-0.04890127
239	0x3ce1e14c	0.02757325
240	0xbd161487	-0.03664067
241	0x3cc76d5e	0.024344143
242	0xbc245cbc	-0.010031875
243	0x3d583f91	0.052794997
244	0xbd7836ae	-0.06059902
245	0x3d455318	0.048174948
246	0x3ce641f5	0.028107623
247	0x3de380ce	0.11108552
248	0xbd04ac13	-0.032390665
249	0xbd25829f	-0.040407773
250	0x38446a03	4.6828773e-05
251	0xbaebe141	-0.0017996208
252	0x3b66ea79	0.0035234971
253	0x3919468c	0.00014617498
254	0xb511e72e	-5.435312e-07
255	0x383c71ed	4.4928795e-05

decoder.0.bias f4 [64]
0	0xb9acd06c	-0.00032961683
1	0xa760ef24	-3.1215883e-15
2	0xbaaf1290	-0.0013356972
3	0xbe86a725	-0.26299396
4	0xbdf4d653	-0.119549416
5	0xbd189359	-0.037249897
6	0xbbab02b9	-0.0052188304
7	0xbd876849	-0.06611688
8	0xbc9f8f59	-0.019477533
9	0xbd35ae7a	-0.044355847
10	0xbb70773b	-0.003669216
11	0xb92075f2	-0.00015302727
12	0xaebfe2fe	-8.725996e-11
13	0xbdfd385b	-0.123642646
14	0xbdec4f56	-0.1153857
15	0xbbb26331	-0.0054439534
16	0x3e25a8ec	0.1617772
17	0xbbc07b13	-0.0058740466
18	0xbb7c6787	-0.0038513856
19	0xbb1636df	-0.002292089
20	0xb8e36dcd	-0.000108446555
21	0xbc129dc4	-0.008948747
22	0xbca7e64f	-0.020495562
23	0xbb563615	-0.0032686044
24	0xbebf88a1	-0.37408927
25	0xa1df6194	-1.5136896e-18
26	0xbc6baa11	-0.014383809
27	0xbc26808d	-0.010162485
28	0xbdf7f45c	-0.12107155
29	0xb3c39bbf	-9.108725e-08
30	0xbe0d2784	-0.13784605
31	0xb93c5a03	-0.00017962609
32	0xbd438d8c	-0.04774241
33	0xbe8fcf74	-0.28087962
34	0xbbb3ca84	-0.005486788
35	0xba3a9590	-0.00071176235
36	0xbd3063c9	-0.043063913
37	0xbb866440	-0.004101306
38	0x39c37a11	0.00037284245
39	0xbac872a6	-0.0015292957
40	0xa6aeb997	-1.212398e-15
41	0x3b01a410	0.0019781627
42	0xbd9ddad9	-0.077077575
43	0xbd24045b	-0.040043216
44	0xbbc56930	-0.006024502
45	0xba07735d	-0.0005167032
46	0xbbb83096	-0.0056210263
47	0xb62a029b	-2.533349e-06
48	0xbcc6ff6f	-0.024291722
49	0xbba34748	-0.0049828626
50	0xbb6a9553	-0.003579457
51	0x3df42b90	0.119223714
52	0xbe47927a	-0.1948947
53	0xbb586876	-0.0033021248
54	0xbb8cd000	-0.0042972565
55	0xa4d7ef7b	-9.364708e-17
56	0x3bf6860f	0.0075233052
57	0x37b30b20	2.1343643e-05
58	0x38b6f7a9	8.7245666e-05
59	0xb889ffc0	-6.580306e-05
60	0xb82e3d43	-4.1541887e-05
61	0xbeaa4c9b	-0.3326157
62	0xbde2cbe6	-0.11074047
63	0xb9446d10	-0.00018732646
