checkpoints/checkpoint_epoch_450.pth (torch, 314812 bytes, 30 tensors)

lstm.weight_ih_l0 f4 [256, 2]
00000000: ad55 ecbb 3277 3abb 3d9f b8bc 15f8 de2f
00000010: ce32 a03e 6ecd b43a e708 753b 6a58 5db7
00000020: c0ea 38b5 eb2b c6b0 29d2 2b3c f313 d6ba
00000030: 199a 463b 5666 03ac 6650 a439 b495 4f31
00000040: 49b6 f0bc b2cc 23bb aeb1 0eb6 88f4 1ca9
00000050: 26c2 d839 ad99 ffac 5b82 9fb4 7aa6 81af
00000060: 62a8 41b6 98b1 6fb3 c8b3 99be 9706 163e
00000070: bb5a edbc 811f 16bb 3034 18b7 944f b5b2
00000080: d8fb 16be 6162 91bc 338d 0dbb 7367 b833
00000090: 97e1 1fb8 2666 6e29 7347 463d e001 fe35
000000a0: 48b8 133c bc07 0439 62a0 3839 b0f7 e2a9
000000b0: 8e9a 15bc fded b7af 1bc5 1e38 d56a c9b0
000000c0: 9ed6 a53d 40f7 e1b2 7acb b8b7 62e1 b3ac
000000d0: e0be e7b9 be50 aab2 62da 10ba 97a2 b7a7
000000e0: cec0 3eba 84f2 95ad dd27 053c 8bb5 b0bb
000000f0: 4a68 38be 95d2 46bb fd8b 1fbe 474e 21bb
00000100: 9531 923e 0ba9 dfbd 79e8 1fbc 9c72 0cb9
00000110: 216a 05be 53e3 a5b9 d713 3cbe bc42 123c
00000120: 7be0 09b0 884d 4daf 7060 52bb 6cdd 2db7
00000130: cf51 5dbd 8025 e53b 64e5 0d3d 3d31 47b9
00000140: 9421 8838 5924 8cab 6192 df38 015b b7ae
00000150: 2e4d 10be b8ae d8ba eb57 c33d f25d 3cbc
00000160: 0cbf 05bd e090 9837 7679 1bbd 0be5 aebb
00000170: 121b 0cbd 02b5 ed3c f43e 9cbc aa0c 35ba
00000180: e43a 97bd cd75 7d3a 8d90 6e3c 5893 83ba
00000190: 6375 06b9 4b9b 6139 d383 db3c 0800 d0b7
000001a0: 5fef dab2 f6b0 32a8 947c c73a aa3f ecad
000001b0: 923e 35bd c54c 8aba 31e6 90bc 5ec8 69ba
000001c0: 04c7 2dba 8aa6 52b7 8cb0 87ba 0575 d1b7
000001d0: c685 63bb cd95 6aae 6f6f 063d a9a1 a73a
000001e0: 14ac d6bc 8dd1 913d de29 6b3d 2bdd 88b9
000001f0: 4bd5 6ab9 e683 9f27 9fb0 7cba bd7d cbb3
00000200: 2462 8fbb 55d9 47bb c370 3233 92d3 d72d
00000210: 6017 bc3c 07f6 47ba 5387 c73d d96e a3b7
00000220: 7e79 f4af 2fe2 b5b0 3e0a dfbc 66dd e5bb
00000230: 5605 8cb7 d598 a5ac df08 a735 cab0 1bb2
00000240: 4dd4 a3bd 473a c6bb a9c6 04b2 f8fc 2025
00000250: 7fd9 da38 777e 0dae e709 39b7 6e9f 7baf
00000260: 30b2 83b5 c5e8 77b3 d37d ea3e 871a 713e
00000270: 61ac 91bd a079 89bb 1805 29b0 164f 0ab3
00000280: 5099 99bd f8e0 f1bb 1ea5 cfb9 e5ae a833
00000290: ac52 1ab5 4f92 caaa 0d7b 9db9 b748 deb5
000002a0: f0f2 2f39 e30e 3338 dfbc 1337 ab9b 1baa
000002b0: 7e87 b0b8 7e7c 5bb0 bf82 dab3 2cba 88b0
000002c0: 0b87 c13b a62f 0bb3 e40e 7f34 74e4 f2ac
000002d0: 443b 51b6 6253 84b4 7b60 45b4 fd87 4327
000002e0: 205d 6cb8 2323 18ad a212 2d3c 8b7d 34bc
000002f0: f502 313c 6df3 ab3a 9d51 82bd a5a4 26bb
00000300: 18a1 d6be 6ebb d6bc 0b31 a1bb 2c56 9fb9
00000310: c200 07bd 7324 7fbb 0fe4 fcbd a56b 7b3c
00000320: 3ce9 8ead 919d 6e2e f6d5 2fba f2b5 efb7
00000330: ad93 16be 72ee a63c b636 953b b3c6 a0b9
00000340: 8dac 6c36 b395 95ab 6f6b 87b6 3ec6 ceae
00000350: 26f0 b7bd ab84 2d3a 4612 c63c 6ccf 0cbb
00000360: d601 33ba 3f57 22b9 65ef 6ebd d390 36bb
00000370: a591 22be 65cc 373d 064b 493b b4fb 2b39
00000380: 1c40 7dbc 34d5 b5ba efeb 58bb 35e5 5eba
00000390: 8855 ce3a a622 ceb9 3d6e e03d 4aea be3a
000003a0: b7b6 7fba e0ed a8a7 2379 fc39 4008 17ae
000003b0: b3c8 15bd 7295 03bb b9df 8dbb 26a6 f439
000003c0: fa17 c4b9 d6f1 30b7 6391 7eba ecac 8db8
000003d0: d9f7 b3b9 1b8b faa8 8818 9b3e 2c34 873c
000003e0: 20af 033e 61af 593e b29b 053e 6b95 243c
000003f0: 5097 03ac 2e8b 91a8 d876 0338 1e55 2fb4
-0.007212362 -0.0028452394 -0.022536868 4.0557838e-10 0.3128876 0.0013794133 0.003738934 -1.3193212e-05
-6.888695e-07 -1.4418878e-09 0.010487118 -0.001633285 0.0030304252 -1.8673028e-12 0.0003134042 3.020756e-09
-0.029383795 -0.0024993834 -2.1263072e-06 -3.4851055e-14 0.00041343382 -7.2645973e-12 -2.9710904e-07 -2.3583252e-10
-2.8857253e-06 -5.5808044e-08 -0.30019975 0.14650951 -0.028973928 -0.0022906961 -9.072057e-06 -2.1107361e-08
-0.14744508 -0.017747106 -0.0021599054 8.586985e-08 -3.811865e-05 5.2935216e-14 0.048407983 1.892502e-06
0.009016104 0.00012591382 0.00017607355 -1.0079383e-13 -0.009131087 -3.3456607e-10 3.7853704e-05 -1.4655038e-09
0.080975756 -2.6305884e-08 -2.202926e-05 -5.1125085e-12 -0.00044201966 -1.9827322e-08 -0.00055257056 -5.0968984e-15
-0.0007276655 -1.7047037e-11 0.00812718 -0.0053927354 -0.18008533 -0.003033792 -0.15580745 -0.0024613307
0.28553453 -0.10920914 -0.009760016 -0.00013394136 -0.13028766 -0.00031640622 -0.18366943 0.0089270435
-5.0159316e-10 -1.8672186e-10 -0.0032100938 -1.0363157e-05 -0.054033097 0.0069929957 0.034642592 -0.00018996462
6.49124e-05 -9.957687e-13 0.00010660734 -8.338042e-11 -0.14091942 -0.0016531562 0.095382534 -0.011497008
-0.0326529 1.8187275e-05 -0.03795763 -0.0053373626 -0.034205504 0.029016975 -0.019072987 -0.0006906489
-0.07384279 0.0009668738 0.014560831 -0.0010038419 -0.00012822966 0.00021515523 0.026796257 -2.4795547e-05
-2.5487394e-08 -9.919357e-15 0.0015219622 -2.6858366e-11 -0.044249125 -0.0010551444 -0.017687889 -0.00089181017
-0.0006629082 -1.2555751e-05 -0.0010352298 -2.4969233e-05 -0.0034717186 -5.333849e-11 0.032821115 0.0012789267
-0.0262051 0.07120047 0.057412975 -0.00026104724 -0.00022395437 4.427437e-15 -0.00096393557 -9.475796e-08
-0.004375713 -0.003049453 4.154641e-08 2.4536626e-11 0.022960365 -0.00076279085 0.09742608 -1.9482732e-05
-4.4469667e-10 -1.3233769e-09 -0.027226564 -0.007014918 -1.6691785e-05 -4.70655e-12 1.2445051e-06 -9.062385e-09
-0.079994775 -0.0060494277 -7.728581e-09 1.3963497e-16 0.00010435562 -3.217201e-11 -1.1029165e-05 -2.2884958e-10
-9.81212e-07 -5.772087e-08 0.4579912 0.23545276 -0.07112957 -0.004195407 -6.148908e-10 -3.2202557e-08
-0.07499945 -0.0073815547 -0.0003960514 7.854923e-08 -5.7489774e-07 -3.598393e-13 -0.00030037054 -1.6561452e-06
0.00016779802 4.269079e-05 8.805858e-06 -1.3820774e-13 -8.4175714e-05 -7.984865e-10 -1.01751986e-07 -9.948216e-10
0.005905991 -3.2406795e-08 2.3754143e-07 -6.903417e-12 -3.1177924e-06 -2.4647585e-07 -1.8382154e-07 2.7135406e-15
-5.6353514e-05 -8.648002e-12 0.010563524 -0.01101626 0.010803928 0.0013118811 -0.06363223 -0.0025427726
-0.4191978 -0.02621242 -0.0049191765 -0.00030391046 -0.032959707 -0.0038931638 -0.12348186 0.015345489
-1.6247108e-11 5.4254882e-11 -0.0006707603 -2.8575745e-05 -0.14704771 0.020377371 0.004553641 -0.0003066562
3.5267178e-06 -1.0628637e-12 -4.0358204e-06 -9.40301e-11 -0.089813516 0.00066191953 0.024178635 -0.0021485938
-0.00068285817 -0.00015482026 -0.058333773 -0.0027857318 -0.15875871 0.04487266 0.0030714883 0.00016401598
-0.015457179 -0.0013872744 -0.0033099612 -0.00085027824 0.0015742043 -0.00039317197 0.10958526 0.0014565673
-0.00097547047 -4.688727e-15 0.0004815544 -3.4340752e-11 -0.036568355 -0.002007809 -0.0043296483 0.00046663097
-0.00037401897 -1.0546724e-05 -0.00097109954 -6.755613e-05 -0.000343262 -2.7815903e-14 0.30292153 0.01650437
0.12859774 0.21258308 0.13047674 0.01004539 -1.8700215e-12 -1.6158593e-14 3.1343516e-05 -1.632911e-07

lstm.weight_hh_l0 f4 [256, 64]
00000000: f105 aa39 5ea5 6333 286f b6b8 0c2d 4836
00000010: f883 a333 1c71 10ba fea1 0d32 fe7c 3634
00000020: 51cd 8aba db66 18af e5b0 86b2 1c3c cfb1
00000030: 55f5 bf35 b15e 583a 1679 723a 1d29 5335
00000040: 9a5e 9cba 8599 8cb5 58d1 4131 3442 58b6
00000050: bfe6 1bb8 b8b6 4b31 5784 1db4 5c7c e032
00000060: a8fd 39b5 9655 44b2 fd36 cc36 e578 38ad
00000070: 4cae 89b1 05b3 beb9 460b 1939 04b5 b0ba
00000080: ac13 df39 4685 8b38 82f6 ed39 0cf0 a83a
00000090: 9bc1 74b2 93dd 9ab7 d988 bd3a bf00 2c39
000000a0: 81f9 a8af 6b36 1e33 28b0 eeb9 d13f 283a
000000b0: deaa 7c37 ca5a 9d3a 3c33 c5ba 3188 53b8
000000c0: 48aa a93a e299 a239 3469 e5b7 e789 b5b6
000000d0: 8cea 3230 dee6 30b3 003d 66bb c53c 9f37
000000e0: 8990 0cb8 729e b7b7 f93b 8faf 2c47 7038
000000f0: 1d40 f6b9 400a cdba eb5e a0af 0dee 08b6
00000100: 8f45 802c 4078 a529 30f2 beaf 464f 8fac
00000110: b29c af29 5306 09b0 d836 4a26 5ffb bb29
00000120: 74c8 8e2f 3ca5 64a5 0d83 a327 b20d 4ea7
00000130: a184 f029 6ce0 88af 979c 052f 50d4 0127
00000140: 8e1e 122f 2dc2 722b 35f9 4026 a78a 872c
00000150: 2096 5fad 368b 55a5 0487 f4a7 58de 2d28
00000160: bbf3 6528 20b4 0ca7 3ccf 88ab 55ca 98a4
00000170: 2e52 6ea7 265b 242f 9d4b 222f 2d1b d9ae
00000180: cbc4 8030 c648 ed2d 5a4c 7daf 9e45 ba2c
00000190: 0daf 0ba8 36d5 c82c bbbd 032f 5824 fa2d
000001a0: 882b 6925 267d d227 fac7 8fae 1551 e52f
000001b0: 5af6 4b2d edbf 422f a8e6 1aae 63bb 282c
000001c0: c939 752e a729 bf2d 397a aaae 2961 6bac
000001d0: 51d6 d8a4 719b 9627 a069 0a2f 4e70 0b2e
000001e0: ca01 84ab ba97 1c2d 56b8 c6a4 4398 e7af
000001f0: 98cb 6c2e fe51 03b0 3a9b 08a5 6f2d e42b
00000200: 757e a7ba bf75 ba33 7128 9eba 7d65 2c37
00000210: 120d 6235 9247 203a 0c7d 9832 0988 5a35
00000220: 06e4 c0ba 6fea b7af e8a6 0834 2056 4a34
00000230: f713 ac36 be65 ac3a ddda c33a 2bfe 08b6
00000240: 3c3b b9ba 79f7 35b6 a79d 2bb2 7f59 56b6
00000250: 81c1 2db9 ba4e 6431 fdbb 41b4 2766 1e35
00000260: d105 23b5 183f 4e33 aba7 3c37 d065 3f30
00000270: ce6e d5b2 b1bf 64ba e0b3 05ba 8d87 cb3a
00000280: ec0f c9bb 3226 07b8 963e af3a 9c74 c83a
00000290: 2acd aeb3 629f 1037 1447 013b 3499 a8b8
000002a0: b738 3f32 9d72 fdb3 f828 76ba 919b c6ba
000002b0: 0563 0f38 2c7a ee3a 7ed9 0abb 35ec d5b8
000002c0: bc82 2b3a d4a7 3d3a acac 78b6 7752 e7b7
000002d0: 49c1 d32f ebae 6533 60fc 11ba 19e9 f9b8
000002e0: 24c4 93b8 f375 1d37 8d16 3b30 af9e 4f3a
000002f0: 79ff 65ba 4dfc 113a 2bbf 972f b485 96b5
00000300: dd45 79b5 8cbd c3b0 f415 68b6 88c3 2ab5
00000310: 6b0e 0732 bbdb 89b7 3798 5eac e33d 1eb2
00000320: d3e0 3eb6 1c54 30a9 81e5 23b0 2d04 8db0
00000330: 2b3a 90b2 1b68 8cb7 4dc1 0036 8026 432f
00000340: c826 fe35 90f9 a831 a0cb 20ae f42d 2b34
00000350: e9fe 20b4 42a9 0d2e b896 50b1 1535 f5b0
00000360: 8e20 0b33 7d07 9f2e f45d 3d32 2620 94ac
00000370: eea8 a42e df9e 7037 1aac cdb6 95f4 1c36
00000380: f77d dc35 7aee 0f36 2973 0fb2 5122 a535
00000390: a2af 872f e350 fab3 e294 0335 cb91 2335
000003a0: 3ebb 8c2c b7c9 68b0 5ac4 8034 2d6d 5eb6
000003b0: be1e af35 3f31 7036 f5e4 0235 13b4 2b34
000003c0: 0687 18b6 e69a 9a34 27bd 8eb6 982d f034
000003d0: 4d5b a42c 4283 55b0 7166 4f37 6429 8034
000003e0: 9d36 1e33 4f64 d0b3 4e67 83ac 54bd 9436
000003f0: 03ae 29b8 5294 3fb7 7053 97ab 8829 bab2
0.00032429353 5.3002957e-08 -8.699141e-05 2.9828543e-06 7.614284e-08 -0.00055100187 8.244113e-09 1.6995543e-07
-0.0010589754 -1.3860861e-10 -1.5680095e-08 -6.0313265e-09 1.430201e-06 0.0008253856 0.00092496106 7.8663453e-07
-0.0011930049 -1.0475493e-06 2.8204195e-09 -3.2225043e-06 -3.716978e-05 2.9644251e-09 -1.466991e-07 2.6133584e-08
-6.928699e-07 -1.14281615e-08 6.0860752e-06 -1.0486033e-11 -4.00704e-09 -0.00036373004 0.00014595417 -0.0013481681
0.0004254853 6.6528606e-05 0.00045387825 0.0012888922 -1.424669e-08 -1.846141e-05 0.001446034 0.00016403476
-3.0736305e-10 3.6836735e-08 -0.00045526144 0.0006418201 1.5060154e-05 0.0012005207 -0.0015045176 -5.043316e-05
0.0012944425 0.000310137 -2.7347916e-05 -5.4102743e-06 6.5089334e-10 -4.1188166e-08 -0.0035131574 1.8982575e-05
-3.351321e-05 -2.1889082e-05 -2.6054162e-10 5.7286743e-05 -0.00046968544 -0.0015643314 -2.9171274e-10 -2.0404143e-06
3.6457014e-12 7.348332e-14 -3.4732883e-10 -4.0731056e-12 7.7987435e-14 -4.9849297e-10 7.0157156e-16 8.348074e-14
2.597208e-10 -1.9831831e-16 4.5383674e-15 -2.8595667e-15 1.06811485e-13 -2.4897717e-10 1.2151911e-10 1.8017441e-15
1.3289478e-10 8.6245144e-13 6.695112e-16 3.8523243e-12 -1.2709417e-11 -1.8521972e-16 -6.786999e-15 9.651642e-15
1.2764904e-14 -1.9526549e-15 -9.7209e-13 -6.6262256e-17 -3.3073685e-15 1.4948096e-10 1.4760677e-10 -9.872845e-11
9.369158e-10 2.6976098e-11 -2.3037341e-10 5.294167e-12 -7.754008e-15 5.708013e-12 1.1981786e-10 2.843785e-11
2.0224277e-16 5.8422395e-15 -6.53841e-11 4.171247e-10 1.1593915e-11 1.7712383e-10 -3.522041e-11 2.3978256e-12
5.5757874e-11 2.1732683e-11 -7.752416e-11 -3.3449443e-12 -9.4038134e-17 4.1801893e-15 1.2588552e-10 3.1704687e-11
-9.379661e-13 8.901263e-12 -8.618109e-17 -4.2126844e-10 5.3841015e-11 -4.777404e-10 -1.1848712e-16 1.6212985e-12
-0.0012778776 8.682718e-08 -0.0012066496 1.02756285e-05 8.421058e-07 0.00061141804 1.7751994e-08 8.1409286e-07
-0.0014716394 -3.345408e-10 1.2726707e-07 1.8844048e-07 5.1283237e-06 0.001315288 0.0014942546 -2.0413524e-06
-0.0014132033 -2.711515e-06 -9.989356e-09 -3.1940579e-06 -0.00016570651 3.3223118e-09 -1.8042915e-07 5.900824e-07
-6.0730696e-07 4.8020496e-08 1.12447115e-05 6.963008e-10 -2.4846852e-08 -0.0008726074 -0.0005100351 0.0015528068
-0.0061359312 -3.222208e-05 0.0013370092 0.0015293541 -8.1398255e-08 8.620178e-06 0.0019726204 -8.0394006e-05
1.1130559e-08 -1.18020786e-07 -0.000939026 -0.0015152564 3.4186076e-05 0.0018194369 -0.0021186764 -0.000102006285
0.0006542613 0.0007234786 -3.7055388e-06 -2.7575747e-05 3.8518014e-10 5.3477304e-08 -0.0005568918 -0.00011916663
-7.04604e-05 9.385391e-06 6.806225e-10 0.0007920069 -0.0008773725 0.0005568907 2.7602573e-10 -1.1214784e-06
-9.2861393e-07 -1.424199e-09 -3.4583472e-06 -6.361447e-07 7.8613125e-09 -1.6433993e-05 -3.1632594e-12 -9.210882e-09
-2.8443071e-06 -3.9152804e-14 -5.96252e-10 -1.0260287e-09 -1.6790258e-08 -1.6737778e-05 1.9186002e-06 1.7748825e-10
1.8935762e-06 4.9178155e-09 -3.6560643e-11 1.5942334e-07 -1.4993897e-07 3.221002e-11 -3.0353657e-09 -1.7841183e-09
3.2393068e-08 7.231813e-11 1.102261e-08 -4.209982e-12 7.4878645e-11 1.4342105e-05 -6.1295113e-06 2.3388177e-06
1.6427938e-06 2.1447472e-06 -8.34988e-09 1.2303445e-06 2.4681152e-10 -1.16562454e-07 4.9017956e-07 6.093439e-07
3.9998274e-12 -8.468776e-10 2.3984722e-07 -3.3144127e-06 1.3047463e-06 3.5791452e-06 4.876195e-07 1.5991127e-07
-2.272836e-06 2.879744e-07 -4.25395e-06 4.4736657e-07 4.6712968e-12 -7.7675477e-10 1.2362013e-05 2.3871974e-07
3.6836912e-08 -9.704001e-08 -3.734713e-12 4.4327844e-06 -4.04548e-05 -1.1419021e-05 -1.0752354e-12 -2.1672136e-08

lstm.bias_ih_l0 f4 [256]
00000000: abd7 8dbb b235 5d30 ea67 86bb 267e 84b8
00000010: 710d e8b0 9953 7cbb f8b3 d0ae e395 c5b5
00000020: e1b2 22bb aa34 aeab 6090 dfac 9058 9baf
00000030: 0bf1 35b3 bfdf 743d 61cf aeba 5b02 21b3
00000040: 9f49 c8bc abe7 3a34 def8 faae 55c0 8d35
00000050: 1b87 9439 70b1 a9aa f741 ebaf e3e0 87b4
00000060: fcc0 83b3 154b f8ac cabe 1635 3665 42a9
00000070: 303b c8af b67f cdba da96 09bc 142e c9bc
00000080: fabe cc3c 0923 16ba c864 8fbc 985b cd3c
00000090: e54e baaf 5c3c 81b8 8e71 093d 8304 8fba
000000a0: 0db3 9bab 682d e3ae 82a9 75ba b0b4 86bc
000000b0: f55e dbb7 cb06 c4b9 ff69 a63d d7aa 0aba
000000c0: 4a22 05bc 91ed 2abb 7e3e 28b8 1205 7cba
000000d0: 90ce aaa7 2eb8 0bb0 537f cebb 8c97 2bba
000000e0: 3027 6cb4 3e7e ceb8 1fa0 34b5 6ed8 8dbb
000000f0: a738 e23d 5330 44bb cc23 10b3 5f81 93b4
00000100: 41d5 8cbb d864 8330 dcfe 1dbc 24ba 7db8
00000110: 9a57 3eb1 c44a 1cbc 3efb a8ad 9eee 22b2
00000120: db2c a73a b5e1 c1a9 842f 34ae 4388 2faf
00000130: f7c6 eeb3 80ec 543e 8908 873a 5dcc 46b3
00000140: 567d f9bb 377a 64b7 9fba 75ac 8c53 39b5
00000150: ca58 5638 ebb2 f1aa 8986 f6af c900 c8b0
00000160: aabd 50b3 8be9 1dad 4c19 9838 1242 caa8
00000170: c019 07ae 8b81 4dbc 9d6e b53c afa1 63bc
00000180: 4a63 683e bd7d feb9 7e1d 31bc 776f ad3d
00000190: c687 bbaf 30fe e7b8 a2f4 a23d 114f 1bba
000001a0: 9ad2 dbab 4362 31af ea83 a43b a43e 24bc
000001b0: 10e5 0a38 c4da 123b 3025 263e f72b 54ba
000001c0: f1af a1bb 49ec 08bb 1f48 74bd 59bd 763b
000001d0: 0182 aca7 f8fe efae 2971 b0bb 8d87 3dbb
000001e0: 5778 5eb7 9e28 09b9 9c4a dfa8 0369 463c
000001f0: 4f89 b13e 21da 2f3c b037 db28 7e00 7ab4
00000200: 97d7 08ba 490e 6c38 7b52 e3bc bb89 8e38
00000210: 5e87 35b7 4d9a 87bd 863a 27b4 341f e6b7
00000220: 7d94 7b3b bb56 2633 1fc7 d8b5 0346 f835
00000230: 0a50 cbb8 730f dbbd 2060 2cbc d18d 1536
00000240: 4e21 40bc 8f29 c739 414f 03b3 5697 2238
00000250: 4600 a639 de32 0533 b00a 4937 3e47 17b7
00000260: 192d d638 38b0 7733 b3ed 62ba 87fd 1532
00000270: c690 0535 7e05 883b 824f 1d3d 235e 26bb
00000280: efda 43be c71c c73a 7163 fbbb 7fb7 c53b
00000290: 24d0 2bb5 12b4 b539 bfa5 48bb 405a 853a
000002a0: a9fa 6433 dc3a 7cb4 32d7 5e3c 30fe 8e3c
000002b0: a064 aebb 21f1 5cbc be70 32bc 1b03 f0ba
000002c0: d228 1fbc 87ef 98ba ed04 de3b 391a 873a
000002d0: 85fa 69b3 cbd4 8635 893a 0b3c 7bb3 9cb9
000002e0: 8d24 213b e6e2 5e3a 278b 91b1 d9e8 31bc
000002f0: d5b2 bbbd 209e 97be 3f5d 5eb1 1372 1739
00000300: 9b8d 93bb 0c79 4630 63aa dabc 8d5d 0bba
00000310: afdf 06b1 8da1 26bc 82e6 e4b1 8187 06b8
00000320: 93a4 b3ba 4fce 4bb6 69bc c7b4 c11f a5ae
00000330: c0c9 83b3 353f 953d 7240 a8bc 2b0b f8b2
00000340: 294a 05bd 9217 89bd 6d5c eab1 1590 b535
00000350: b2fd f838 ade1 90af dea5 87b8 4076 44b8
00000360: b927 10b4 24a9 03ad 02fd 7835 16a0 88b5
00000370: edc9 f1b7 90f8 0dbc dd9b a8bb 19f6 f6bc
00000380: ac01 293d 6c13 2eb9 c13c a1bc 2673 383d
00000390: e75d a5af 661b 8eb9 9f0a 223d 144d 09bc
000003a0: d705 edab 8e9b d1ae 97ea 2c3a aa47 c6bc
000003b0: b240 ddb8 167a 33bd fcd5 b53d b97b 83bb
000003c0: 39bc 17bc 6fe1 faba 88f7 edbc 734f a6bb
000003d0: 3497 b7a7 a503 d3b2 a9e4 11bc c3fa cbba
000003e0: 8745 f0bb 879c 23b9 3acf c327 3344 d3bc
000003f0: fef7 5d3e e857 0fbc a9bb db37 c439 54b4
-0.004328688 8.047564e-10 -0.004101743 -6.3177475e-05 -1.6884042e-09 -0.0038501977 -9.490714e-11 -1.4721267e-06
-0.0024825858 -1.2378061e-12 -6.35407e-12 -2.8257263e-10 -4.2361574e-08 0.059783693 -0.001333695 -3.7487876e-08
-0.024449168 1.740688e-07 -1.14128915e-10 1.0561295e-06 0.0002832942 -3.0143553e-13 -4.2793122e-10 -2.5309336e-07
-6.1352665e-08 -7.0569197e-12 5.615699e-07 -4.316444e-14 -3.6421843e-10 -0.001567832 -0.008397782 -0.024558105
0.024993408 -0.00057272665 -0.017504111 0.02506809 -3.388926e-10 -6.162442e-05 0.03355556 -0.0010911379
-1.1063109e-12 -1.03308306e-10 -0.0009371267 -0.01644358 -2.6151052e-05 -0.00037389094 0.08125686 -0.00052897393
-0.008125851 -0.0026081542 -4.011252e-05 -0.00096137926 -4.7408434e-15 -5.082964e-10 -0.0063017993 -0.00065457146
-2.1993469e-07 -9.84636e-05 -6.728823e-07 -0.004328779 0.11045962 -0.002993603 -3.356017e-08 -2.7475014e-07
-0.004297883 9.560166e-10 -0.009643283 -6.0493257e-05 -2.7698435e-09 -0.00953931 -1.9210963e-11 -9.483896e-09
0.0012754457 -8.610076e-14 -4.0969464e-11 -1.5964567e-10 -1.111893e-07 0.20793343 0.0010302226 -4.6286335e-08
-0.007613818 -1.3618314e-05 -3.492019e-12 -6.903945e-07 5.1104267e-05 -4.293435e-13 -4.4842732e-10 -1.4552138e-09
-4.8601272e-08 -8.976274e-12 7.252637e-05 -2.2455159e-14 -3.0718317e-11 -0.0125430925 0.022147471 -0.013893529
0.22694126 -0.00048540338 -0.010810254 0.08468526 -3.4111575e-10 -0.000110622845 0.07956816 -0.00059245626
-1.561934e-12 -1.6132966e-10 0.005020608 -0.0100247 3.3115095e-05 0.0022408227 0.16225123 -0.00080937095
-0.004934304 -0.002089279 -0.059639093 0.003764948 -4.788054e-15 -1.0913753e-10 -0.0053845835 -0.0028919906
-1.326025e-05 -0.00013080469 -2.479033e-14 0.012109998 0.3467507 0.010733158 2.4338035e-14 -2.3283243e-07
-0.00052201137 5.628009e-05 -0.02774929 6.796742e-05 -1.0819958e-05 -0.066212274 -1.5574378e-07 -2.7432667e-05
0.0038388066 3.8728768e-08 -1.6151206e-06 1.8497816e-06 -9.694703e-05 -0.10696306 -0.010520965 2.2285278e-06
-0.01172669 0.000379872 -3.0572895e-08 3.8764752e-05 0.0003166219 3.101274e-08 1.1983022e-05 -9.016889e-06
0.00010212715 5.766944e-08 -0.0008656636 8.730587e-09 4.9757034e-07 0.0041510453 0.038405903 -0.00253857
-0.19126485 0.0015191071 -0.0076717664 0.0060338373 -6.400535e-07 0.00034657173 -0.003061637 0.0010173991
5.331336e-08 -2.3490742e-07 0.013601111 0.01745519 -0.005322054 -0.013485224 -0.010891138 -0.0018311472
-0.009714322 -0.0011668064 0.0067754895 0.0010307498 -5.4477386e-08 1.0045709e-06 0.008497843 -0.00029888362
0.0024588436 0.00085024384 -4.235875e-09 -0.010858738 -0.09164969 -0.29612827 -3.2358256e-09 0.00014442978
-0.0045029647 7.2204e-10 -0.026692575 -0.00053163694 -1.9626716e-09 -0.010170353 -6.661879e-09 -3.2074287e-05
-0.0013705663 -3.0369445e-06 -3.7203725e-07 -7.508972e-11 -6.136861e-08 0.072874464 -0.020538542 -2.8876078e-08
-0.032541428 -0.06693949 -6.820804e-09 1.3527484e-06 0.00011872816 -2.63538e-10 -6.468197e-05 -4.684017e-05
-1.3425496e-07 -7.484045e-12 9.2755374e-07 -1.0179381e-06 -2.8823468e-05 -0.008665219 -0.0051455335 -0.030146645
0.04126136 -0.00016601168 -0.01968229 0.04503169 -3.0080047e-10 -0.00027104764 0.03956091 -0.008380193
-1.6841484e-12 -9.531852e-11 0.0006596236 -0.024204094 -0.00010550152 -0.043817602 0.08878705 -0.0040125516
-0.009261184 -0.0019140671 -0.029048696 -0.005075389 -5.095664e-15 -2.456529e-08 -0.0089046145 -0.0015562404
-0.007332507 -0.00015603202 5.434805e-15 -0.025789356 0.21676633 -0.008748986 2.619422e-05 -1.9765054e-07

lstm.bias_hh_l0 f4 [256]
00000000: b8d7 8dbb ce35 5d30 ea67 86bb 287d 84b8
00000010: 7a0d e8b0 9e53 7cbb 0fae d0ae 4395 c5b5
00000020: e4b2 22bb 5a38 aeab 3b8f dfac 7e5a 9baf
00000030: 10f1 35b3 c9df 743d 2bcf aeba 7002 21b3
00000040: 9f49 c8bc a8e7 3a34 19ee faae 0ac1 8d35
00000050: 1b87 9439 46b1 a9aa 2942 ebaf 8cdf 87b4
00000060: fcc0 83b3 9b4b f8ac bdbe 1635 7a65 42a9
00000070: e13a c8af b37f cdba d596 09bc 132e c9bc
00000080: fdbe cc3c 0923 16ba ca64 8fbc 9b5b cd3c
00000090: 224f baaf 683c 81b8 8b71 093d 8704 8fba
000000a0: dbb2 9bab a82d e3ae 82a9 75ba b1b4 86bc
000000b0: 4a5f dbb7 d406 c4b9 fe69 a63d aaa2 0aba
000000c0: 4822 05bc 88ec 2abb 6c3e 28b8 1205 7cba
000000d0: 4bcf aaa7 1eb7 0bb0 537f cebb 98c8 2bba
000000e0: 577b 6cb4 5a7f ceb8 b5a0 34b5 72d8 8dbb
000000f0: 9738 e23d 6030 44bb 8623 10b3 5981 93b4
00000100: 0dd5 8cbb c864 8330 c8fe 1dbc 17ba 7db8
00000110: 8056 3eb1 d24a 1cbc 2ffb a8ad bfee 22b2
00000120: 062d a73a 03e5 c1a9 a22f 34ae ce88 2faf
00000130: 18c5 eeb3 7fec 543e 8908 873a e3cc 46b3
00000140: 857d f9bb 6d7a 64b7 2cac 75ac 9653 39b5
00000150: 3c59 5638 41b2 f1aa 8986 f6af c400 c8b0
00000160: a0bd 50b3 0ae9 1dad 4219 9838 ab3e caa8
00000170: 0f1b 07ae 7781 4dbc a06e b53c c2a1 63bc
00000180: 4b63 683e d77d feb9 7e1d 31bc 776f ad3d
00000190: b265 bbaf 30fe e7b8 a3f4 a23d 994e 1bba
000001a0: c8d1 dbab 1c65 31af ea83 a43b a43e 24bc
000001b0: 50e5 0a38 c4da 123b ae24 263e ee36 54ba
000001c0: bdaa a1bb 5bed 08bb 3f3d 74bd 59bd 763b
000001d0: 4e82 aca7 b6fe efae 2871 b0bb 3287 3dbb
000001e0: 9178 5eb7 dc28 09b9 c546 dfa8 ee68 463c
000001f0: 5189 b13e 63da 2f3c 1d38 db28 a900 7ab4
00000200: c2d7 08ba 09e7 6b38 7b52 e3bc bb89 8e38
00000210: 3286 35b7 439a 87bd 0f3d 27b4 361f e6b7
00000220: 9e94 7b3b 0957 2633 6ecb d8b5 a346 f835
00000230: 1350 cbb8 780f dbbd 3760 2cbc df8d 1536
00000240: 6321 40bc 8f29 c739 834f 03b3 2a97 2238
00000250: 8dfd a539 e232 0533 a60a 4937 1c47 17b7
00000260: 1e2d d638 f2af 7733 aded 62ba 8bfd 1532
00000270: 4c90 0535 7e05 883b b353 1d3d e763 26bb
00000280: efda 43be 0c1d c73a 6c63 fbbb c235 c63b
00000290: 4fc8 2bb5 09b4 b539 cfa5 48bb 2c5a 853a
000002a0: 14fc 6433 453b 7cb4 a1d7 5e3c 32fe 8e3c
000002b0: 9064 aebb 09f1 5cbc bf70 32bc 0a04 f0ba
000002c0: d228 1fbc 39ee 98ba 9805 de3b 311a 873a
000002d0: 73fa 69b3 12d4 8635 713a 0b3c 9db3 9cb9
000002e0: 8b24 213b 48e2 5e3a 048b 91b1 66e8 31bc
000002f0: d3b2 bbbd d19e 97be 515d 5eb1 1472 1739
00000300: 8e8d 93bb 0f79 4630 63aa dabc 4e5d 0bba
00000310: a5df 06b1 8ea1 26bc 51e2 e4b1 5488 06b8
00000320: 94a4 b3ba 08ce 4bb6 2fbc c7b4 fa21 a5ae
00000330: c0c9 83b3 3a3f 953d 7340 a8bc fe0a f8b2
00000340: 294a 05bd 9717 89bd b553 eab1 0d90 b535
00000350: 54fd f838 99de 90af e3a5 87b8 6276 44b8
00000360: bc27 10b4 c9a9 03ad e4fc 7835 7ba0 88b5
00000370: b0c8 f1b7 83f8 0dbc d89b a8bb 18f6 f6bc
00000380: af01 293d 6d13 2eb9 bb3c a1bc 2673 383d
00000390: b75d a5af 661b 8eb9 150b 223d 3a4d 09bc
000003a0: 5305 edab 909b d1ae 9ae8 2c3a aa47 c6bc
000003b0: 3740 ddb8 217a 33bd fcd5 b53d 327d 83bb
000003c0: 2bbc 17bc 4be0 faba 92f8 edbc 764f a6bb
000003d0: fd97 b7a7 c003 d3b2 a9e4 11bc 1fff cbba
000003e0: f945 f0bb 079c 23b9 4dcf c327 8042 d3bc
000003f0: fff7 5d3e 9b58 0fbc b1d9 db37 bc39 54b4
-0.004328694 8.047579e-10 -0.004101743 -6.317563e-05 -1.6884052e-09 -0.0038501988 -9.489664e-11 -1.4721085e-06
-0.0024825865 -1.2379084e-12 -6.353943e-12 -2.8258634e-10 -4.236159e-08 0.05978373 -0.0013336887 -3.748795e-08
-0.024449168 1.7406876e-07 -1.14109784e-10 1.05615e-06 0.0002832942 -3.014344e-13 -4.279326e-10 -2.530836e-07
-6.1352665e-08 -7.056978e-12 5.6156915e-07 -4.316467e-14 -3.6421624e-10 -0.0015678316 -0.008397778 -0.024558103
0.024993414 -0.00057272665 -0.017504115 0.025068095 -3.388943e-10 -6.162451e-05 0.03355555 -0.0010911383
-1.1063055e-12 -1.0330875e-10 -0.0009371267 -0.016443582 -2.6151207e-05 -0.0003738912 0.08125685 -0.0005288521
-0.008125849 -0.0026080925 -4.0112456e-05 -0.00096137926 -4.7409226e-15 -5.082813e-10 -0.0063017993 -0.0006553023
-2.2024084e-07 -9.8465665e-05 -6.7289085e-07 -0.004328781 0.1104595 -0.002993606 -3.355992e-08 -2.7474997e-07
-0.0042978586 9.560148e-10 -0.009643264 -6.049321e-05 -2.7697808e-09 -0.009539323 -1.9210937e-11 -9.483926e-09
0.0012754507 -8.610649e-14 -4.0969568e-11 -1.596476e-10 -1.111859e-07 0.20793341 0.0010302226 -4.628681e-08
-0.00761384 -1.36183635e-05 -3.4912169e-12 -6.9039504e-07 5.1104682e-05 -4.2933888e-13 -4.4842732e-10 -1.4552133e-09
-4.8601237e-08 -8.976162e-12 7.2526294e-05 -2.2453683e-14 -3.071948e-11 -0.012543074 0.022147477 -0.013893547
0.22694127 -0.00048540413 -0.010810254 0.08468526 -3.408736e-10 -0.000110622845 0.07956817 -0.0005924493
-1.5619112e-12 -1.6133977e-10 0.005020608 -0.0100247 3.3115328e-05 0.0022408227 0.1622493 -0.00080953434
-0.0049336837 -0.0020893428 -0.05962872 0.003764948 -4.7880867e-15 -1.09137074e-10 -0.005384583 -0.0028919694
-1.3260303e-05 -0.0001308056 -2.4788665e-14 0.012109978 0.34675077 0.01073322 2.433822e-14 -2.3283305e-07
-0.00052201387 5.6243534e-05 -0.02774929 6.796742e-05 -1.08196855e-05 -0.0662122 -1.55753e-07 -2.743267e-05
0.0038388143 3.8729045e-08 -1.615246e-06 1.8497998e-06 -9.694709e-05 -0.1069631 -0.010520986 2.228531e-06
-0.01172671 0.000379872 -3.057313e-08 3.8764592e-05 0.00031660162 3.1012753e-08 1.1983013e-05 -9.016858e-06
0.00010212719 5.766919e-08 -0.0008656632 8.7305905e-09 4.975634e-07 0.0041510453 0.0384099 -0.0025389136
-0.19126485 0.0015191152 -0.007671764 0.006048889 -6.399395e-07 0.00034657147 -0.0030616408 0.0010173968
5.331465e-08 -2.3490891e-07 0.013601215 0.017455194 -0.0053220466 -0.013485202 -0.010891139 -0.0018311751
-0.009714322 -0.0011667676 0.006775569 0.0010307488 -5.4477322e-08 1.0045499e-06 0.00849782 -0.0002988846
0.0024588432 0.00085023465 -4.2358597e-09 -0.010858631 -0.091649674 -0.29613355 -3.2358296e-09 0.0001444298
-0.0045029586 7.2204015e-10 -0.026692575 -0.00053163327 -1.9626694e-09 -0.010170354 -6.6614025e-09 -3.2075055e-05
-0.0013705664 -3.0369283e-06 -3.720356e-07 -7.509367e-11 -6.136861e-08 0.0728745 -0.020538544 -2.8875998e-08
-0.032541428 -0.066939525 -6.8198127e-09 1.3527475e-06 0.000118727476 -2.6351613e-10 -6.4682004e-05 -4.6840294e-05
-1.34255e-07 -7.484188e-12 9.2755204e-07 -1.0179496e-06 -2.8822891e-05 -0.008665207 -0.005145531 -0.030146644
0.04126137 -0.0001660117 -0.019682279 0.04503169 -3.0079914e-10 -0.00027104764 0.03956135 -0.008380229
-1.6841341e-12 -9.531853e-11 0.00065959396 -0.024204094 -0.00010550062 -0.043817643 0.08878705 -0.004012727
-0.009261171 -0.0019140331 -0.029049192 -0.0050753905 -5.095749e-15 -2.4565338e-08 -0.0089046145 -0.0015563703
-0.00733256 -0.00015603016 5.434813e-15 -0.025788546 0.21676634 -0.0087491525 2.6208205e-05 -1.9765042e-07

fc.weight f4 [50, 64]
00000000: dfc9 17bc 8599 9136 1a5e 2a3c 617a baba
00000010: a3cf 6d37 0e86 463c fa67 8c35 c5ab de37
00000020: 2241 98bc 6f7d 0b33 ff33 1036 9ab5 9735
00000030: 546f 2239 b395 603c a95c 9a3c 922b 61b7
00000040: 6de3 45bc add5 1b39 1d66 0434 f4f3 04ba
00000050: 81ee 9fbb 2716 8833 92a1 e4b6 a4ac 8137
00000060: 2be8 32b8 4f4e 6934 cbdb 8738 92df e131
00000070: 7a8d b434 525b bbbc 313d 303d 73ff 4bbc
00000080: 6f36 c4bd df43 d23a 3d5d 2ebc 62eb 06bd
00000090: 8122 74b6 dd35 86ba 1adb 98bc bdb0 4dbb
000000a0: 6339 3b34 6e0d 00b6 7fd3 153c e42b 4fbc
000000b0: f571 7a38 4f9e b63c 14d2 773d 2066 18bc
000000c0: b3cd af3b 25ec 223c 68d0 733b aee6 3f3a
000000d0: 70dc bf32 53b0 46b5 deee 22bb 7f4a 7bbc
000000e0: 5d98 43ba 63b5 b5ba a77b 8332 d309 a23c
000000f0: 2469 b5bd 679b 373c 6b01 4231 7ed8 1bb9
00000100: 26b7 6abb df00 05b7 14eb 4fbc 70fb b739
00000110: 1857 5535 1603 923c 3815 c333 e364 0c37
00000120: 76e4 abbb 88a4 08b3 599f b633 e73b 3c36
00000130: ba7f efb7 0646 913d f2ab b33b 7bdc 54b8
00000140: 3f60 21bc 37ab 3138 d9ed 2333 54a3 1fb9
00000150: 4d29 afba 8f68 7933 7f5b af36 1531 f4b5
00000160: ba67 3a37 c475 6934 6460 4738 a412 20b2
00000170: 7936 6d36 b53c 5fbc f2d8 8c3c 9205 9fbb
00000180: 5c7f afbd 01b0 34ba 23aa c8bb a6b1 1abd
00000190: fb3d 8833 4bef 8ab6 39f1 fdbc 4ffc e83b
000001a0: 65a7 6eb2 c396 0934 3f9c 463b d6ab 8e3c
000001b0: 0bfa 9dbb 26b1 a73b 14ca 673d 3850 5f3c
000001c0: 4db7 70bb d4ef 7abb 8f51 e13b d1a6 fd3a
000001d0: d2b9 1fb2 d80f 86b5 6043 35bc 7633 8ebb
000001e0: d7b6 bd39 f0bb cd37 24c3 6931 5f19 41bc
000001f0: e0d9 81bd 6fd3 54bb 96f2 cab2 a4ac d4b6
00000200: 1b44 ae3c 2629 a3b6 2e5d e83c 1c47 81b9
00000210: e8be 46b7 3011 05bc fde9 f333 177d c3b7
00000220: b14a ac3c 5ee2 ff32 5549 94b5 67fd 08b7
00000230: 01f1 80b8 3b9f babd 3ad4 9ebc 7608 b138
00000240: d581 ba3c b465 4ab7 531f bc34 f19d 803a
00000250: 5bd4 ab3b 99d8 60b4 cf3d 28b6 9150 8134
00000260: d5df c738 f95c b4b5 eea7 f5b8 c49d 2db2
00000270: 9d2f b0b6 cd9d 0b3b 1394 fdbc 2750 d63b
00000280: 338f b13c 10b6 72bc b4f7 d1b8 66d3 4e3d
00000290: ecf8 b736 2eae 473c 2a0b 2c3d cb31 aabc
000002a0: d9dc feb4 9498 0936 6085 9fbb d7ce 0fbd
000002b0: bb51 a73c 0011 9dbc 3e2c 63bd b77f 84bb
000002c0: a63e 00bc 7feb cebb 6207 9abc 3c82 31ba
000002d0: 8f2e b2b2 2413 3036 845a 523b 4e03 7d3b
000002e0: 02b5 8fb8 b75a 953c 99d9 c3b2 dff9 1c3c
000002f0: f9a6 9f3d 2ee6 a1bb 339a 92b2 edaa 0239
00000300: 1a90 cbbb 308e 1d36 6e90 82ba 65c5 ad39
00000310: 60cf 22b7 ed0c a23b 2a87 8bb4 8e21 cdb7
00000320: f63e 9f3c f2ff 5332 ce71 afb5 d23b 3736
00000330: 39ad bfb8 6d0f bb3d e53d 8ebc c3b3 cab7
00000340: 1422 053c 31a1 b8b7 f9d4 6bb2 5067 9ab8
00000350: 7c3e aa3a 8496 12b2 b955 3a36 e448 25b7
00000360: 5009 2037 dd7a c334 ab52 cdb8 e488 e1b1
00000370: 4e42 3735 61d2 d03b d754 9d3b 8fea 3c3c
00000380: 7306 c03d fc3f d5ba 80b3 5a3b 378f 8b3c
00000390: 8c6f 41b6 2055 113a f988 033c 152a 3a3b
000003a0: 9dfe 4734 125f b4b5 3544 9bbb f831 ee3b
000003b0: a22f a839 8f3f 88bc 6865 cebc 5fe0 e9bb
000003c0: fe05 d5ba 54df af3a b5b5 dc38 c2a1 9b3a
000003d0: a463 22b2 3f88 6c35 95a1 a8bb 7c4e c33b
000003e0: 55e5 b73a 901a 683a 0938 96b0 1a95 e7bc
000003f0: 23a0 2abb bf19 3bbc cdce a9b2 7698 0238
-0.009264438 4.3392088e-06 0.010398412 -0.0014227146 1.4174645e-05 0.012116922 1.0461074e-06 2.6544449e-05
-0.018585745 3.247754e-08 2.1487938e-06 1.130323e-06 0.00015490997 0.013707566 0.018843012 -1.342119e-05
-0.012078148 0.00014861552 1.2330607e-07 -0.0005071752 -0.004880727 6.337023e-08 -6.8137388e-06 1.545839e-05
-4.265473e-05 2.1728304e-07 6.478241e-05 6.573779e-09 3.363055e-07 -0.022870693 0.043027107 -0.012451041
-0.09580695 0.0016041956 -0.010642347 -0.032939322 -3.6378917e-06 -0.0010239441 -0.018659163 -0.0031385862
1.743661e-07 -1.9081303e-06 0.009144663 -0.012644742 5.9710776e-05 0.022292284 0.06050308 -0.009301692
0.0053650974 0.009943997 0.0037203077 0.0007320446 2.233557e-08 -7.4017333e-07 -0.0024861614 -0.0153375855
-0.00074613636 -0.0013863262 1.5306638e-08 0.019780075 -0.088579446 0.011206484 2.8231522e-09 -0.00014862602
-0.0035814731 -7.927621e-06 -0.012690324 0.00035091816 7.947542e-07 0.017823737 9.084255e-08 8.36814e-06
-0.0052457405 -3.1814608e-08 8.5040206e-08 2.804905e-06 -2.8550498e-05 0.07093434 0.005483144 -5.0750077e-05
-0.009849607 4.2359545e-05 3.8167716e-08 -0.00015224266 -0.0013363749 5.8069926e-08 5.226058e-06 -1.8193701e-06
1.1110615e-05 2.1742659e-07 4.7535068e-05 -9.317464e-09 3.534746e-06 -0.0136253135 0.017193291 -0.004852959
-0.08569214 -0.00068926817 -0.0061237975 -0.037767075 6.344268e-08 -4.140578e-06 -0.030998813 0.0071101557
-1.3891484e-08 1.2813966e-07 0.0030305532 0.017415922 -0.004821067 0.0051175533 0.0565892 0.0136299655
-0.003673035 -0.0038289921 0.0068761776 0.0019352083 -9.297269e-09 -9.988389e-07 -0.011063427 -0.0043396307
0.00036185115 2.452542e-05 3.4016887e-09 -0.011785834 -0.063403845 -0.0032474657 -2.362621e-08 -6.3381904e-06
0.02127271 -4.862569e-06 0.028364744 -0.00024657778 -1.18461685e-05 -0.008121774 1.13581315e-07 -2.3304061e-05
0.02103171 2.9788847e-08 -1.1048202e-06 -8.1652315e-06 -6.148406e-05 -0.09112402 -0.019388307 8.441594e-05
0.022766987 -1.2063818e-05 3.504052e-07 0.0009812695 0.0052438206 -2.0940423e-07 -2.5069928e-06 2.4086742e-07
9.5307514e-05 -1.3438104e-06 -0.0001171379 -1.0105797e-08 -5.2507517e-06 0.0021303773 -0.030954396 0.0065403166
0.021674728 -0.014813915 -0.00010012035 0.050494574 5.4828033e-06 0.012187524 0.042002834 -0.020775696
-4.7471875e-07 2.0503403e-06 -0.0048681945 -0.035109367 0.020424714 -0.019173145 -0.055462115 -0.004043545
-0.007827437 -0.0063146944 -0.018802349 -0.00067714206 -2.07431e-08 2.6237185e-06 0.0032097409 0.0038606706
-6.852487e-05 0.018231733 -2.279994e-08 0.009581058 0.077955194 -0.0049407696 -1.7066759e-08 0.00012461441
-0.0062122466 2.3477587e-06 -0.0009961256 0.00033144202 -9.704236e-06 0.0049453885 -2.5989112e-07 -2.445353e-05
0.019439202 1.2340012e-08 -1.3071638e-06 2.7303945e-06 -9.139855e-05 0.091338016 -0.017363498 -2.4163985e-05
0.008125801 -2.200957e-05 -1.3727225e-08 -7.362536e-05 0.0012988592 -8.532542e-09 2.7766057e-06 -9.851738e-06
9.538911e-06 3.6410975e-07 -9.79056e-05 -6.5639245e-09 6.82693e-07 0.0063727354 0.0048013735 0.0115305325
0.0937623 -0.0016269679 0.003337115 0.017036064 -2.882417e-06 0.00055439956 0.008028262 0.002840643
1.8625947e-07 -1.3438714e-06 -0.0047383555 0.0072691403 0.00032078946 -0.01663187 -0.025194839 -0.007137343
-0.0016252396 0.0013417997 0.00010524263 0.0011873769 -9.452297e-09 8.8115115e-07 -0.005146215 0.005960284
0.0014030138 0.0008854056 -1.0929863e-09 -0.02826934 -0.002603539 -0.011419713 -1.9768231e-08 3.1136406e-05

fc.bias f4 [50]
00000000: 5ea2 1ebd d1f9 e43c 48b2 72bd cdab 373d
00000010: dc82 e2bc 2970 39bb f2af 75bc b7e8 943d
00000020: dca2 60bd 8cf8 43bd c008 29bd 3129 65bc
00000030: b2c3 17bd 57c6 95bc 26a6 4cbc c6cd 133d
00000040: 06e6 863c b0a7 e63c 9c17 6f3d 7897 df3c
00000050: 84d8 52bd 646d 35bd a444 22bd 4b18 2dbd
00000060: 603a c5bb 6add bb3c bcf8 64bd f46a 9f3c
00000070: f701 91bc dc0f 78bc 69ee ba3c 71b6 613d
00000080: 8ea9 23bd 8895 253c 6578 11bd 2f73 06bd
00000090: b87c 92bd 75da 003a 8689 203c 5eab 043d
000000a0: 3ee1 203b fc97 22bd b458 c5bb bc25 11bd
000000b0: 3691 2a3d d79d ba3c 979e c7bc 10e7 69bd
000000c0: 0c29 04bd b5e8 d93c
-0.038729064 0.027951153 -0.059252053 0.044841576 -0.02765029 -0.0028295612 -0.014995562 0.07270949
-0.054842815 -0.047844455 -0.04126811 -0.013986872 -0.037051864 -0.018283052 -0.012490785 0.036084913
0.016467106 0.028156132 0.058372125 0.027293906 -0.051476017 -0.044293776 -0.039616242 -0.042259496
-0.0060189217 0.022932727 -0.055901274 0.019460179 -0.017701132 -0.0151405 0.022818761 0.05510563
-0.03995662 0.010106452 -0.035515208 -0.03282469 -0.071526945 0.0004915365 0.009798413 0.03238999
0.0024548317 -0.039695725 -0.006022537 -0.035436377 0.04164239 0.022780342 -0.024367614 -0.057105124
-0.032265708 0.026600221

decoder.0.weight f4 [64, 50]
00000000: 6f8b 0080 2d89 0080 c98a 0000 d188 0080
00000010: 3b89 0080 8d8a 0000 3689 0000 058a 0000
00000020: af8a 0000 9b89 0000 d08a 0000 158a 0080
00000030: 8789 0000 f588 0080 418a 0000 fc8b 0080
00000040: 398a 0080 4a8a 0000 558b 0000 8c8a 0080
00000050: 438c 0000 0c8a 0080 b78b 0000 3a89 0000
00000060: a18a 0000 338a 0000 e189 0000 9189 0080
00000070: b489 0000 0f89 0000 cc89 0000 9289 0000
00000080: 8e8a 0080 3189 0080 b689 0000 d88a 0000
00000090: 5a8a 0000 f389 0080 6c89 0080 4e8a 0080
000000a0: 028b 0000 0389 0080 188b 0080 9a8b 0000
000000b0: 0a8a 0080 3a9f 0000 208a 0080 018a 0000
000000c0: e888 0080 a68a 0000 284f e899 f031 c519
000000d0: 6424 f799 80dd 169a 710b b319 e002 b018
000000e0: f62f ff98 a82e bc19 effe d799 176a 921a
000000f0: 2488 c299 66ec 9f99 6dce c518 6381 031a
00000100: e9d2 e719 6527 9c99 56f7 111a 302e f699
00000110: aca4 7799 914e 9b19 df7b df19 b598 4917
00000120: 5425 3c99 5b4a 9418 55ed 111a c643 279a
00000130: c614 061a 3143 b998 0b65 f299 60cf 5118
00000140: f285 c399 c01f dc19 ee0d c59c b428 2d99
00000150: d966 c099 f8ec be19 405e ce19 e2a2 121a
00000160: b68d 131a 2847 4d19 dca0 5219 c195 7119
00000170: 99e5 9c99 b82a 8d19 e03a 5019 b62b 8f99
00000180: 2591 ba19 a20e 4d99 dd48 ef19 b41c 099a
00000190: f001 8a2a 10ae d41e f8de 0429 4554 021c
000001a0: 7b53 a71c e8b5 a91a b267 9d9b afa4 b19f
000001b0: ff7d 7a1e 640b f19d ca5c 5f9a b2fa 121c
000001c0: e7c0 ce1c e01a 3a9c 6472 32b4 3545 8c1b
000001d0: ae0e 719c 85c6 719b 2ffd 19a8 96a8 8d9c
000001e0: 1f34 3aa6 44df 3e1b d5a1 cc2c 5011 d528
000001f0: f321 891c 73c4 40ad c164 5f9d 0501 569d
00000200: 2d49 959c c98e 659d 572f 079b a2f7 e71c
00000210: 51a7 1d20 4261 8b1b 017b 029d c404 439c
00000220: 56e2 5f22 a67c 109d 6a98 3e9d ec3e d41c
00000230: 39c8 bc1b c6a9 cf9b 3df8 e09b 51d1 009c
00000240: d594 a4ae 07c3 a21c 62fa 7a9c 0fc9 479d
00000250: 288a 921c f390 0b1f d209 733e decb 0bbe
00000260: 2037 5a3e b9c2 823e 59a8 dfbd 29c8 96be
00000270: d6b3 913e fd72 8ebe f739 903e ba1d 4d3e
00000280: e11e 1e3e 466c 893e 757b 953e c668 683e
00000290: 11a0 06be f8a8 193e 8b9f 813e d422 66be
000002a0: 6e6f 7bbe cf8c 8e3e 3502 8a3e 7390 21be
000002b0: 62c8 8b3e fc05 6e3e fc08 8abe ffe2 86be
000002c0: 6823 8f3e 4726 35be 539c 48be 90d0 9bbc
000002d0: cadf 87be 020c 683e c826 7f3e 4461 8abe
000002e0: 6021 8f3e 9c57 913e 1d38 863e 664e 803e
000002f0: 4b9d 88be 459e 11be 8d5a 91be bcb7 883e
00000300: 50a1 ea3c 716d 7d3e 5698 5ebe 30ee 803e
00000310: d579 8e3e 7900 853e 9404 6dbe 04ea 73be
00000320: 2bf0 c63c 0db8 253d 8149 afbc 08f3 58bd
00000330: 20b4 303d 5f60 cbbc a869 ab3c 6f08 273d
00000340: 856f 88bc 3a11 09bd 1d29 17bd 8a9d 1b3d
00000350: cd07 703d 4a3b 783d 3fc0 103d a5c4 66bd
00000360: 0e54 eabc 4b6a 60bd 7a0b 9cbc bc45 033d
00000370: 3fb6 1a39 8f51 19bc 57b0 1dbb acb4 05bd
00000380: 7db7 8d3b 6c1e 563d 8129 babb 01af 643c
00000390: 0967 313d 4631 913b 8c7c 31bd d28a 0fbd
000003a0: d93b b83c 73be 13bd ca96 83bc c9e1 9a3d
000003b0: 637f bbbc f8b4 273d 23b8 58bd d0e4 6a3c
000003c0: 003b 1ebd f2c3 2cbd b1c7 da3c 6351 3ebd
000003d0: dfd8 af3c 242c 33bd 132e 173d 57c7 f5ba
000003e0: 10ae 88bc ee0c ba3c 7d0b 271f c2a9 f71d
000003f0: 6c6a 0c9d 25c1 3b1d cb9c 4d9f 3f00 4c1e
-5.002e-41 -4.921e-41 4.9787e-41 -4.908e-41 -4.9229e-41 4.9703e-41 4.9222e-41 4.9512e-41
4.975e-41 4.9364e-41 4.9797e-41 -4.9534e-41 4.9336e-41 -4.9131e-41 4.9596e-41 -5.0217e-41
-4.9585e-41 4.9609e-41 4.9983e-41 -4.9701e-41 5.0316e-41 -4.9522e-41 5.012e-41 4.9228e-41
4.973e-41 4.9577e-41 4.9462e-41 -4.935e-41 4.9399e-41 4.9167e-41 4.9432e-41 4.9351e-41
-4.9704e-41 -4.9215e-41 4.9401e-41 4.9808e-41 4.9631e-41 -4.9487e-41 -4.9298e-41 -4.9614e-41
4.9867e-41 -4.915e-41 -4.9897e-41 5.008e-41 -4.9519e-41 5.712e-41 -4.955e-41 4.9506e-41
-4.9113e-41 4.9738e-41 -2.4020209e-23 2.0389492e-23 -2.55539e-23 -3.11982e-23 1.8512787e-23 4.5497837e-24
-6.5964383e-24 1.9457589e-23 -2.2333446e-23 6.055558e-23 -2.0114117e-23 -1.6535695e-23 5.1131743e-24 2.7194683e-23
2.3970026e-23 -1.6145933e-23 3.0185094e-23 -2.5454459e-23 -1.2802856e-23 1.6058357e-23 2.310769e-23 6.5139346e-25
-9.7269106e-24 3.8332183e-24 3.0177012e-23 -3.4589538e-23 2.772733e-23 -4.7889225e-24 -2.5063024e-23 2.7117314e-24
-2.0216628e-23 2.276029e-23 -1.3039967e-21 -8.95211e-24 -1.9893875e-23 1.974125e-23 2.1337968e-23 3.0323668e-23
3.051336e-23 1.06126215e-23 1.0889231e-23 1.24896505e-23 -1.6222756e-23 1.4596312e-23 1.0765238e-23 -1.4803508e-23
1.9290573e-23 -1.0601207e-23 2.474145e-23 -2.8354122e-23 2.451507e-13 2.2518364e-20 2.9503282e-14 4.312231e-22
1.1072712e-21 7.019065e-23 -2.6040483e-22 -7.523486e-20 1.3260945e-20 -6.3803946e-21 -4.6190274e-23 4.8631364e-22
1.3681801e-21 -6.1576973e-22 -1.6619157e-07 2.320578e-22 -7.9759184e-22 -1.9999198e-22 -8.548107e-15 -9.374176e-22
-6.460235e-16 1.5788573e-22 5.8159957e-12 2.3655259e-14 9.074675e-22 -1.0957557e-11 -2.9565893e-21 -2.8323191e-21
-9.878908e-22 -3.0381716e-21 -1.1182235e-22 1.5350309e-21 1.3353778e-19 2.3058472e-22 -1.7268948e-21 -6.4526247e-22
3.0341957e-18 -1.9122683e-21 -2.5225087e-21 1.4045248e-21 3.1231382e-22 -3.435499e-22 -3.7218112e-22 -4.262218e-22
-7.4842944e-11 1.0770674e-21 -8.3041673e-22 -2.6441376e-21 9.697182e-22 2.9554294e-20 0.23734215 -0.13651988
0.21310091 0.25539187 -0.10920782 -0.29449585 0.28457516 -0.27822104 0.28169224 0.20030871
0.15441467 0.2684042 0.29195753 0.22696218 -0.13146998 0.15005863 0.25317034 -0.22474223
-0.24554226 0.27841803 0.2695481 -0.15777759 0.27301317 0.2324447 -0.2695998 -0.2634506
0.279567 -0.17690383 -0.19590883 -0.019020349 -0.26537925 0.2266083 0.24917138 -0.27027333
0.2795515 0.28387153 0.26214686 0.25059813 -0.26682505 -0.14220531 -0.28389397 0.26702678
0.028641373 0.2474878 -0.21737799 0.25181723 0.27827325 0.25976923 -0.23146278 -0.23819739
0.024284443 0.040458728 -0.021397354 -0.052966148 0.04314053 -0.024826227 0.020924404 0.040779527
-0.01665474 -0.033463694 -0.036904443 0.037992038 0.05860119 0.060603417 0.03533959 -0.05633988
-0.028604534 -0.05478887 -0.019048441 0.032048926 0.00014754476 -0.009357824 -0.0024061406 -0.032643005
0.004324852 0.052275106 -0.005681217 0.01395774 0.043311153 0.0044309227 -0.043331668 -0.0350445
0.022489475 -0.0360703 -0.016063113 0.07562596 -0.022887891 0.04094407 -0.05290998 0.01433678
-0.038630486 -0.042179056 0.026706548 -0.046464335 0.021465717 -0.043743268 0.036909174 -0.0018751425
-0.016684562 0.022711243 3.537313e-20 6.555588e-21 -1.8583865e-21 2.4849097e-21 -4.3540135e-20 1.0799721e-20

decoder.0.bias f4 [64]
00000000: ba89 f2b3 63cd bbb4 eb87 53b6 7a73 8dbe
00000010: 5b93 e0bb 5cb9 05af d12f 2324 2d72 7eb5
00000020: 1226 c53c b66f 5bbc 86f0 6eb5 432e 0fb4
00000030: 7d05 18ad 0c6d d43c da17 8eb7 ae0e 97b5
00000040: d004 fd3c aa5c feb9 13b5 d2b8 80b0 2ab6
00000050: bb8f 3ca7 ad15 46b6 9b36 f8aa 6964 87b5
00000060: c9e1 10b0 5ebf 62ae 7cd4 463d fe10 34b6
00000070: b8c3 98bd 58fe 8f29 1135 a53c 5f26 d7b1
00000080: fa5d ad3a 1b9e 3db4 f13c eeb7 ea86 5cbd
00000090: 3389 fdbb 74d3 b5b1 c664 45b8 ff34 1db8
000000a0: 3d30 03bd a0f5 6d3d 6104 ceae a71c baab
000000b0: d742 d0b5 5e33 61b4 3ee3 51b9 05b2 949a
000000c0: f512 7aba 9101 40b5 cf31 f4b5 4169 20bc
000000d0: e22c e2b4 2efc 39b5 7aa8 6e3d acf9 81bd
000000e0: 72a4 753d 95dc 04b9 b19e b4bb 64b4 26b3
000000f0: 87d2 93ba 0707 823c 54e9 3fbb 3032 71bd
-1.12940555e-07 -3.4980903e-07 -3.1520565e-06 -0.27627164 -0.0068535036 -1.2162132e-10 3.5385493e-17 -9.478852e-07
0.024066005 -0.013393333 -8.9011917e-07 -1.3334743e-07 -8.641418e-12 0.025930904 -1.6938826e-05 -1.1254649e-06
0.030886084 -0.00048515695 -0.00010047308 -2.543471e-06 -2.6168158e-15 -2.9516916e-06 -4.409154e-13 -1.0087507e-06
-5.2707755e-10 -5.155642e-11 0.048542485 -2.683198e-06 -0.074592054 6.394597e-14 0.020166906 -6.261686e-09
0.001322686 -1.7659515e-07 -2.8400189e-05 -0.0538396 -0.0077373027 -5.2918327e-09 -4.7062313e-05 -3.7481073e-05
-0.032028425 0.058095574 -9.368573e-11 -1.3224048e-12 -1.5516661e-06 -2.0973445e-07 -0.00020016448 -6.149897e-23
-0.0009539568 -7.1527853e-07 -1.8193913e-06 -0.0097907195 -4.2128437e-07 -6.928484e-07 0.05826614 -0.06346449
0.05997128 -0.00012670674 -0.0055120816 -3.881395e-08 -0.0011277952 0.015872492 -0.0029283362 -0.058885753

decoder.3.weight f4 [20, 64]
00000000: a0ed 7612 f152 9930 c1bf 92a2 5de9 9ebe
00000010: a751 0ebd be45 6f9f 45f3 84a3 a051 f39e
00000020: c181 be3c 2c32 daaf 3cc9 618d b06e 129f
00000030: a9e0 d9a2 e411 b1bd 6c1d 4936 46d6 888f
00000040: a315 86bd 17fc a6b9 4ab3 9336 ebaa 4717
00000050: 9796 fba5 cb9e c6a7 c07a df19 4a68 65b5
00000060: c51e 8c12 431c 14a6 e404 dabd 72f3 e7a7
00000070: e442 183e 7358 c128 690f ad3c 0bfd fd1b
00000080: 4df1 b5bd d0f6 4011 fbf7 0334 cfd5 e73a
00000090: 90fa ab3b 7434 9c84 ef39 4034 2d16 81b2
000000a0: 3855 18ba 8a5f 8abd eeda 55ad 1770 d517
000000b0: 4083 a80c b1e3 a014 0564 3eb7 498a 0000
000000c0: 9a57 549e 83dc a915 f353 02a1 269f 3132
000000d0: 152e 3209 7f6b f699 19bf e8bc 2f4e 08b6
000000e0: 49c3 90bc 0c53 04a8 33c4 e7ba 6c4e d117
000000f0: 5c03 5fa1 7680 883d 537d b737 b2f3 9e3a
00000100: 5c9b 0f91 07d4 459b b766 03ab 6690 afbe
00000110: 7aad 253d 99e0 79a0 7108 7920 25fa 591f
00000120: 0863 363d 9b9c 0f30 0fbb 0790 5e88 df1e
00000130: 3aa8 31a3 fdcd 34bd d790 03b4 33cd dd88
00000140: f6eb e3bc 63ce d938 ffcd 1b37 3d49 0299
00000150: 860a fe24 d3a7 ce92 364e 7018 112b f7a6
00000160: 81c7 d121 63ca 9c24 766a 1c3d c316 2893
00000170: 641b 1db9 73fd fe28 2353 fb3c 24ac 20a6
00000180: 6302 093d f7d6 4a0e f022 59b4 0445 313b
00000190: f960 0dbc 68d0 0080 0e0b 9535 e61a bcb2
000001a0: 743e 8f39 c9fa 6fbd 8726 df2c 6a80 d387
000001b0: ed84 050f 180d 8295 ad23 0738 7d89 0080
000001c0: ebe0 9a20 582d 6f8d fcfe 96a6 71cb f532
000001d0: f57e e20a 6e09 900c 78cb 99bc 1b0c 7437
000001e0: c6f3 b5bd f70c 3927 9bb2 0b3a 9f07 7215
000001f0: 6c6b 5626 6d72 fb3c 561d f439 66e6 0bba
00000200: 0ed3 2d12 4f10 6ab4 294d 7225 3d2c ba3e
00000210: e570 d23d 2a3a d49e 16e8 4224 9db8 b79d
00000220: 5951 3e3d fd77 98b6 9c8b 5f0c 952d de98
00000230: 973b 1da5 38d4 e2bd 2376 1335 199a ae88
00000240: a961 debc 5757 a9b9 be45 eab7 9c5f 9693
00000250: 8c59 d0a4 cd55 bf15 bc8a 8f19 4203 8529
00000260: a6a1 9b8f cace c924 f91e cebd 40ff 6216
00000270: 1e70 8aba f166 0ea9 d87e 9c3b 22a6 4327
00000280: 4691 51bc 1bbb 3f0f b1e2 8f34 7a9b 74bb
00000290: f32e 0c3d b104 9813 c790 05b5 44f2 f032
000002a0: f1f9 fbb9 4c2b b6bd e79c ca2a 8bd2 d98a
000002b0: 8b30 b50a fcca f214 ca0e 52b9 408c 0000
000002c0: 141b 141f 50f7 0189 7d1c a6a7 4997 8132
000002d0: d7a5 168a c776 650e 903c 86bd cc03 fdb7
000002e0: c8ed dbbd 7805 bc27 f2e6 0bba 76df 2016
000002f0: 8000 1ba1 b10c f73c 6e86 8739 773a 013b
00000300: 7452 0e12 7e3f 1baa e8ef 6f2f 86f0 bdbe
00000310: 875f 9abc 28ee 7728 5da1 1324 dc71 50a0
00000320: a5f9 f43b a20d 8934 fc35 c48b 1a24 bd24
00000330: 7cc2 8424 a903 a9bd a662 bb32 27ee 3b0a
00000340: 67b1 25bb 0f4e da38 bcbd a9b8 5f04 db91
00000350: 7cb1 c125 2870 0b12 7850 f918 5344 9e1e
00000360: 98f9 579a c255 e4a4 b259 1c3c fa48 978d
00000370: f0b7 ff39 155f b9a9 8adf b03c 82cb b31c
00000380: 2405 abbc 8abc 4010 9810 1435 1bef 6dbb
00000390: 0947 913a 413f 6f26 284b 07b5 5b5f 03b3
000003a0: 5cec e4b8 c5f8 4abd ebc7 c32c ae85 d48e
000003b0: 5028 908b ee77 1b15 a1fb 5cb9 c68a 0000
000003c0: 9b17 4a1f 3521 a684 162e 65a3 99a0 71b3
000003d0: 5064 ec0a 4fd3 bb8a 15a5 ed3b 403d 26b8
000003e0: ce09 51bd fc55 13a8 a731 22bb 936e 4f15
000003f0: b4fe 7421 be26 2c3d ec13 25b9 f91b 11ba
7.791681e-28 1.1155789e-09 -3.9776407e-18 -0.31037417 -0.03474584 -5.0667908e-20 -1.4414497e-17 -2.5762385e-20
0.02325523 -3.9689618e-10 -6.9575705e-31 -3.100826e-20 -5.9055836e-18 -0.086459905 2.996846e-06 -1.349317e-29
-0.065470956 -0.0003184981 4.4018134e-06 6.4516097e-25 -4.3643603e-16 -5.5128203e-15 2.3107238e-23 -8.546091e-07
8.842827e-28 -5.1386117e-16 -0.10645464 -6.4379324e-15 0.14869267 2.1465663e-14 0.021125512 4.2018864e-22
-0.08883915 1.5222184e-28 1.229054e-07 0.0017687621 0.0052483752 -3.6723594e-36 1.790247e-07 -1.5027661e-08
-0.00058110384 -0.06756504 -1.215626e-11 1.3793098e-24 2.5963492e-31 1.624568e-26 -1.134817e-05 4.9607e-41
-1.1241302e-20 6.860646e-26 -4.415682e-19 1.0338942e-08 2.1447638e-33 -2.5479221e-23 -0.028411435 -2.0311088e-06
-0.017671244 -7.34548e-15 -0.0017682373 1.3526105e-24 -7.5559785e-19 0.06665127 2.1873659e-05 0.001212707
-1.1328585e-28 -1.6363968e-22 -4.6683095e-13 -0.34289855 0.040448643 -2.1165434e-19 2.1093913e-19 4.6158452e-20
0.044528037 5.2245647e-10 -2.676816e-29 2.3667444e-20 -9.630813e-18 -0.04414176 -1.2253018e-07 -1.3349196e-33
-0.027822476 0.00010385809 9.286682e-06 -6.735633e-24 1.1017277e-16 -1.30418e-27 3.105876e-24 -1.7150741e-15
1.4215199e-18 6.799707e-17 0.038187467 -2.1215804e-27 -0.0001498289 2.8309581e-14 0.030679291 -5.5744445e-16
0.03344954 2.5001924e-30 -2.022241e-07 0.0027049193 -0.008629077 -7.4762e-41 1.1104582e-06 -2.1898312e-08
0.00027321617 -0.058588777 6.3423186e-12 -3.1823226e-34 6.583007e-30 -5.252724e-26 3.2219734e-05 -4.9322e-41
2.6237453e-19 -7.370214e-31 -1.0477455e-15 2.8614268e-08 2.1810764e-32 2.2192388e-31 -0.01877378 1.4546352e-05
-0.08884387 2.5680936e-15 0.00053290435 4.8877523e-26 7.439175e-16 0.03069421 0.00046561164 -0.0005336761
5.484932e-28 -2.1798881e-07 2.1016297e-16 0.36361876 0.10275439 -2.247043e-20 4.226363e-17 -4.8630582e-21
0.046464298 -4.5439215e-06 1.7221307e-31 -5.743168e-24 -1.3637769e-16 -0.11075634 5.493368e-07 -1.0508472e-33
-0.027146177 -0.00032299265 -2.792745e-05 -3.79596e-27 -9.035732e-17 7.7279655e-26 1.4841888e-23 5.9069516e-14
-1.5346445e-29 8.752017e-17 -0.10064501 1.8336677e-25 -0.0010561978 -3.161962e-14 0.004775863 2.7151747e-15
-0.012790984 9.453062e-30 2.6800765e-07 -0.0037324117 0.03422446 3.837482e-27 -4.975704e-07 2.8049847e-08
-0.00048060672 -0.08894977 3.599128e-13 -2.0975537e-32 1.7447926e-32 2.4515819e-26 -0.0002003267 5.0312e-41
3.1362618e-20 -1.5644096e-33 -4.6105143e-15 1.5086373e-08 -7.253428e-33 2.8283618e-30 -0.0655452 -3.0161718e-05
-0.107387125 5.218641e-15 -0.0005336843 1.2995209e-25 -5.2516704e-19 0.030157419 0.00025849364 0.0019718686
4.490893e-28 -1.3788794e-13 2.1822155e-10 -0.37097567 -0.01884438 1.3762896e-14 3.2012224e-17 -1.7655958e-19
0.007476049 2.5528158e-07 -7.557768e-32 8.202684e-17 5.7575344e-17 -0.08252651 2.1814525e-08 9.048514e-33
-0.0025282742 0.000104095896 -8.093889e-05 -3.4554802e-28 3.360043e-16 4.399891e-28 6.4446244e-24 1.6757159e-20
-4.4662578e-23 -9.902452e-17 0.009542869 -9.323662e-31 0.00048774434 -8.2321445e-14 0.021590967 1.1897832e-21
-0.020876475 3.801057e-29 5.5158444e-07 -0.0036305848 0.0011083792 8.3005507e-16 -5.0400786e-07 -3.058754e-08
-0.000109159126 -0.04955365 5.5644287e-12 -5.2390764e-30 -5.552744e-32 3.139661e-26 -0.00021074574 4.9783e-41
4.279469e-20 -3.905691e-36 -1.2423874e-17 -5.6258248e-08 2.2763707e-32 -1.808693e-32 0.0072523453 -3.9634528e-05
-0.05103474 -8.178784e-15 -0.0024748833 4.1890545e-26 8.300751e-19 0.042029135 -0.00015743048 -0.0005535479
