checkpoints/checkpoint_epoch_750.pth (torch, 314812 bytes, 30 tensors)

lstm.weight_ih_l0 f4 [256, 2]
000000 59 48 4c ba 73 2a 08 ba c5 d5 62 ba f4 37 d4 b9
       -0.0007792763 -0.00051943137 -0.000865307 -0.0004047748
000010 f1 fe 24 3d ab a8 f8 35 dc cc 48 bc 0c 38 f7 ba
       0.040282194 1.8526529e-06 -0.0122558735 -0.0018861308
000020 f5 0e 7e 33 44 12 13 b3 d5 f7 47 bc da 26 80 39
       5.9152587e-08 -3.4242717e-08 -0.012205084 0.0002444301
000030 c4 51 46 bb ce 4b 4f bb e8 9d 59 3a f9 a5 f8 39
       -0.0030261138 -0.0031630876 0.0008301423 0.00047425905
000040 72 a7 39 b9 c7 ad 52 36 c0 13 7c b9 5d bc af 37
       -0.00017705353 3.139359e-06 -0.0002403995 2.094934e-05
000050 04 56 c2 a8 71 da a3 a8 12 b8 e7 bb a7 67 ac b9
       -2.157563e-14 -1.819137e-14 -0.0070715034 -0.00032883623
000060 f2 72 20 3d f8 00 b9 3a 0d ec 90 be 3e 34 e8 3d
       0.03917212 0.0014114669 -0.28305092 0.113380894
000070 9e 9c ac b9 f7 ef 52 36 f4 fb 82 bb 83 0c eb 38
       -0.00032923085 3.1432116e-06 -0.0039973203 0.00011208004
000080 43 8c 30 be d7 da 40 bc 27 75 68 bb 78 83 9e b9
       -0.17241006 -0.0117709255 -0.003547022 -0.0003023406
000090 04 26 ba b9 88 81 30 b7 9a e8 35 35 72 f9 0f a6
       -0.00035505008 -1.0520576e-05 6.7766234e-07 -4.9951153e-16
0000a0 6f 24 df b3 0c 07 78 b3 8a a8 5d ba 48 ad 73 ba
       -1.0390874e-07 -5.774841e-08 -0.0008455595 -0.0009295535
0000b0 94 e3 9e bb 5b 24 ec b8 27 76 c1 bb 51 02 f1 ba
       -0.004848907 -0.00011260129 -0.0059039774 -0.0018387531
0000c0 0e 97 ee b9 67 65 e4 bb f5 8a 9c b9 04 3d 49 39
       -0.00045507442 -0.006970096 -0.0002985817 0.00019191584
0000d0 9c 7d 94 bc df 27 52 3a 38 e0 23 39 45 db 52 3a
       -0.018126301 0.00080168055 0.0001562842 0.0008043538
0000e0 e0 75 c2 3a 77 97 e7 39 66 46 71 bb 0c 69 e0 b9
       0.0014836155 0.00044172604 -0.0036815642 -0.00042802875
0000f0 26 13 c6 b9 e5 33 42 32 0a f8 9a 9d 23 97 70 9d
       -0.0003777977 1.1304086e-08 -4.1019927e-21 -3.1841871e-21
000100 53 28 7a 3e ab be e4 bd 01 d6 3e 3b e1 7f c0 ba
       0.24429445 -0.111691795 0.0029119255 -0.0014686548
000110 7c 99 4e a2 93 a5 10 21 45 06 a6 bb cf aa d6 35
       -2.799946e-18 4.9008233e-19 -0.0050666654 1.5993954e-06
000120 a2 9f 27 bb 14 1a ea 39 cc e5 e6 3b a3 81 2b bb
       -0.0025577326 0.00044651388 0.007046437 -0.0026169799
000130 11 fe 7b b9 11 8e cf 35 5c f8 8a 3b 2d b4 1d bb
       -0.00024031872 1.5464049e-06 0.0042410325 -0.0024063692
000140 80 a5 6c b9 44 15 57 b9 25 19 07 bb f5 59 5f b9
       -0.00022568367 -0.0002051192 -0.0020614353 -0.00021300449
000150 45 2c 96 bb 76 fc bf b7 e0 84 c5 29 fb 1f 95 a0
       -0.004582914 -2.2886536e-05 8.7716076e-14 -2.5262745e-19
000160 e9 b6 b8 b7 a9 86 90 b7 2c e3 8c b9 48 c4 ab 36
       -2.2019683e-05 -1.7228844e-05 -0.00026872137 5.1190473e-06
000170 28 f9 aa 3c ce e9 49 3d 85 be d2 39 a8 7f 47 39
       0.02087076 0.04929524 0.0004019627 0.00019025675
000180 bc c0 df 9d 3a 37 bf 94 c4 c4 f7 3b 7e 40 1a b9
       -5.922689e-21 -1.9307854e-26 0.007561298 -0.0001471061
000190 3c d7 8c 39 d1 3b 24 37 e2 a4 84 bb 4a 37 4d bb
       0.00026863243 9.789089e-06 -0.004047976 -0.0031313472
0001a0 ff 24 6d bb 90 47 15 39 7a 81 cc ba 8f 6d 27 bb
       -0.0036185381 0.00014236406 -0.0015602552 -0.002554748
0001b0 78 7b 26 b8 ee 32 00 36 88 41 b8 ba 82 62 55 b8
       -3.9692473e-05 1.9103131e-06 -0.0014057616 -5.08749e-05
0001c0 37 f5 84 3b b8 e1 91 3a 40 e4 39 3b 82 ed af ba
       0.004057552 0.0011129891 0.0028364807 -0.0013422223
0001d0 6f 63 c7 b9 e3 29 11 bb 07 59 06 3d 55 39 9f 3a
       -0.00038030322 -0.002215021 0.032799747 0.0012147824
0001e0 a0 29 39 bd 67 13 96 3d 02 54 a0 3a 58 36 95 ba
       -0.045205712 0.073279195 0.0012232068 -0.0011383994
0001f0 f5 0a c2 bb 89 27 29 38 ba 44 01 3c 32 f6 b2 ba
       -0.0059217163 4.032956e-05 0.007889921 -0.0013653694
000200 52 27 4a ba 21 8e dc ba e8 bd af ba fa fc f9 b9
       -0.00077115477 -0.0016827026 -0.0013408037 -0.00047681463
000210 ad bb a8 38 cd a5 d8 b7 5f 3a 3d 3b 7c 54 ab bb
       8.0458216e-05 -2.5826414e-05 0.0028873903 -0.005228577
000220 44 59 53 33 ed 9b 3d b3 21 95 f4 bd a5 f2 a5 bb
       4.9208452e-08 -4.4146805e-08 -0.119425066 -0.005064326
000230 5b fa 33 3b 53 1d ba bb e1 7e 82 bc bb ef dd ba
       0.0027462456 -0.0056797653 -0.015929641 -0.0016932407
000240 8b 3f 31 b9 52 cd b6 b6 8b cd af ba 77 6f 5d bb
       -0.00016903707 -5.447925e-06 -0.0013412697 -0.0033788362
000250 a9 85 fe a8 d4 58 80 a8 25 93 ae bb ed 1a df ba
       -2.825763e-14 -1.4249378e-14 -0.0053275996 -0.0017021574
000260 d5 68 ce ba df 97 8c bb d2 f1 e5 3e 87 11 35 3e
       -0.0015747795 -0.0042905654 0.44911057 0.17682467
000270 e9 eb 9f b9 7c 33 2f b7 1f c9 27 bb dc 64 5f ba
       -0.0003050261 -1.04428e-05 -0.0025602055 -0.0008521804
000280 63 9c 9a bd 38 6a 13 3c f4 5b 02 bb 0b a3 e9 b9
       -0.0754936 0.0089974925 -0.0019891234 -0.000445627
000290 92 e9 98 b9 9d 75 04 b9 ec 8e 5c 26 b6 72 e7 a5
       -0.00029165723 -0.00012632315 7.652153e-16 -4.0149843e-16
0002a0 17 7f fe b4 2e 35 65 b3 72 df d5 39 a4 9a 9f ba
       -4.7403657e-07 -5.3366584e-08 0.00040793006 -0.0012176824
0002b0 24 5b 82 bb 59 55 89 ba a2 4e 04 bc ac 91 5d bb
       -0.00397815 -0.0010477706 -0.008075388 -0.003380875
0002c0 c1 64 5e 3b 75 f9 65 bc d4 80 bf b9 b9 b4 8c b4
       0.0033934566 -0.014036526 -0.00036526343 -2.6208525e-07
0002d0 f4 1b 5f 3c f3 fe 97 3a 1f ab 71 b9 76 bd 93 bb
       0.013617504 0.0011596367 -0.00023047299 -0.0045086695
0002e0 00 df 13 3a 35 3d a0 b9 df 5b 38 bb 66 cd 6b ba
       0.00056408346 -0.0003056318 -0.0028130931 -0.00089951453
0002f0 89 c5 1e ba 78 81 81 30 8b fb 94 1d 6e e1 60 9d
       -0.0006056657 9.422783e-10 3.9435363e-21 -2.9762698e-21
000300 9c ff e5 be ce 62 50 bc 83 4a 81 3b 13 7d 06 bb
       -0.44921577 -0.012718869 0.00394565 -0.0020521327
000310 37 b6 a2 a2 65 ae d4 a0 cc 59 78 b8 bd 9e 87 b6
       -4.4103115e-18 -3.6029602e-19 -5.9211437e-05 -4.041793e-06
000320 85 47 47 ba 83 76 11 3a 27 83 ea 3b 58 ca 8d bb
       -0.0007601905 0.00055489707 0.007156748 -0.0043271
000330 10 f8 46 b9 db bc 1b b7 81 b1 59 3a aa eb 12 bb
       -0.00018975162 -9.282691e-06 0.0008304343 -0.0022418299
000340 54 65 0b b8 1d 38 6e ba 48 6f 0d bb 55 6e e2 b9
       -3.323455e-05 -0.0009087341 -0.0021581221 -0.00043188283
000350 50 50 0a bb e1 a8 14 36 58 a4 f9 ab 47 46 03 a1
       -0.0021105 2.215202e-06 -1.7738129e-12 -4.447754e-19
000360 34 a3 70 b7 ef cd c7 b7 72 63 0e ba 01 b0 48 b7
       -1.4343113e-05 -2.3818544e-05 -0.00054316886 -1.1961908e-05
000370 02 ff 05 be 68 fd d8 3d 0b 50 e0 39 48 1a 06 39
       -0.13085559 0.105952084 0.00042784246 0.00012789026
000380 35 b2 61 95 a7 9f 0c 95 1a e3 8d bb 88 76 96 b8
       -4.557897e-26 -2.8398718e-26 -0.004330051 -7.1746355e-05
000390 13 61 48 39 34 04 af b7 fe 05 11 bb e3 81 2b bb
       0.0001910965 -2.0863583e-05 -0.0022128816 -0.0026169948
0003a0 40 31 4e bb 66 a2 22 b9 1a 6f 7a 3a 46 e1 f9 bb
       -0.003146246 -0.00015510022 0.00095532986 -0.0076257316
0003b0 26 fa 61 b8 0a 9a 1e b6 85 9b a3 ba 62 6e eb b8
       -5.387715e-05 -2.3633497e-06 -0.0012482262 -0.000112262336
0003c0 13 7e 77 3c 68 9f f5 39 28 98 5c 3b ca da f6 ba
       0.015105742 0.00046848808 0.0033660028 -0.0018833515
0003d0 71 1c 30 3a 93 15 d0 ba 7f f9 c0 3d af 41 40 3c
       0.0006718105 -0.001587557 0.094225876 0.01173441
0003e0 c3 f5 04 3e a7 4a 69 3e 56 80 8f 3c a7 3c 52 bc
       0.12984376 0.22782384 0.01751725 -0.012831843
0003f0 d2 49 1c 3b d4 ea 47 b8 d6 55 b6 3b 55 97 96 bb
       0.0023847711 -4.7663998e-05 0.0055644317 -0.004595677

lstm.weight_hh_l0 f4 [256, 64]
000000 18 4a 43 38 b4 9f a2 b5 67 ad 97 b7 81 e1 e8 37
       4.6560628e-05 -1.211642e-06 -1.808135e-05 2.7761564e-05
000010 c1 15 1b b5 a9 40 01 38 99 dd 1c ba 8b 05 dc 38
       -5.7773656e-07 3.0816216e-05 -0.00059839484 0.0001049145
000020 e4 b5 dd 35 cb e0 29 39 bf 16 0a 2f f0 45 31 38
       1.651872e-06 0.00016200838 1.2559108e-10 4.2265223e-05
000030 71 1d d5 b7 ed 27 3c b9 d0 b8 df b5 48 b6 b4 b7
       -2.5405288e-05 -0.0001794395 -1.6668582e-06 -2.1542553e-05
000040 6a 71 9a b8 95 c7 c5 b7 e0 7b 9f 37 c0 8f ce ad
       -7.364417e-05 -2.3577168e-05 1.901196e-05 -2.3483326e-11
000050 da f2 c8 b4 2e d0 d4 38 82 0f 0e b8 e4 29 af b8
       -3.74296e-07 0.00010147724 -3.386988e-05 -8.352453e-05
000060 5e 9c 53 39 93 64 3d b7 53 33 90 b6 f0 b6 2e b8
       0.0002018078 -1.1288695e-05 -4.2975093e-06 -4.1655207e-05
000070 9b 45 ba 37 ef 5d 76 38 fa 11 94 b4 d2 b2 26 29
       2.220534e-05 5.8738453e-05 -2.7580228e-07 3.7014506e-14
000080 7a ff 27 39 9b 4c e2 38 9f eb 39 2b b6 e9 06 36
       0.00016021534 0.00010790789 6.6052193e-13 2.0103594e-06
000090 a0 fd 00 39 61 2e cb b9 24 54 4d 35 b2 dc 1f 39
       0.00012301514 -0.00038753732 7.649089e-07 0.00015245637
0000a0 57 fc 2f b8 90 24 85 b7 fd 3c b7 b6 19 0f 5f 2c
       -4.195826e-05 -1.5871861e-05 -5.460925e-06 3.1698587e-12
0000b0 75 50 38 b6 ca 90 4c 36 84 7e 80 b8 3d 97 d6 36
       -2.7464969e-06 3.0482647e-06 -6.127081e-05 6.3953034e-06
0000c0 95 94 57 a5 2c 56 6c 38 10 90 8a b6 53 ec 0b 39
       -1.8698619e-16 5.634704e-05 -4.1294916e-06 0.0001334411
0000d0 52 94 8e 36 d0 98 f7 b9 0f 1b b7 37 c4 fa 84 37
       4.2491965e-06 -0.00047225365 2.18279e-05 1.5852398e-05
0000e0 38 63 9e b6 fa c4 b8 b8 c2 23 e6 36 a4 e1 3f b9
       -4.7203175e-06 -8.8104935e-05 6.858697e-06 -0.00018299237
0000f0 f4 c0 fe b9 c0 0a 02 39 c8 ce b3 38 bb 87 07 39
       -0.00048590417 0.00012401771 8.573901e-05 0.00012925167
000100 d5 79 d0 37 4f e6 b8 b6 ab b7 88 b7 fb 1b 36 b9
       2.4852265e-05 -5.5104388e-06 -1.629799e-05 -0.00017367296
000110 dd 04 a1 b4 17 38 99 37 7f be 90 b8 78 69 83 b8
       -2.9992125e-07 1.826514e-05 -6.901938e-05 -6.266212e-05
000120 52 80 25 35 dc 12 88 34 a2 83 ba 29 51 db 5f b7
       6.165402e-07 2.5345696e-07 8.282894e-14 -1.3342899e-05
000130 c8 82 85 37 8b e7 91 ba a2 8c 88 b6 75 f4 d9 b7
       1.5915735e-05 -0.0011131627 -4.0694877e-06 -2.598225e-05
000140 17 95 bc b8 50 56 1b b7 0a c4 00 37 c2 cf d0 2c
       -8.992309e-05 -9.258816e-06 7.675038e-06 5.9347813e-12
000150 ed 46 91 32 17 d8 b9 37 9a 16 a0 b7 0c 1f 44 37
       1.6912475e-08 2.2154343e-05 -1.9084011e-05 1.1689739e-05
000160 ed b6 80 36 f0 ac 29 b6 c7 30 6c 38 83 cb b8 37
       3.8359926e-06 -2.5283625e-06 5.6312212e-05 2.2029277e-05
000170 06 8c dd b6 f7 01 05 b8 f7 1a ce b3 eb 98 64 a9
       -6.602614e-06 -3.17115e-05 -9.5975274e-08 -5.0758805e-14
000180 b7 c1 2b b9 f7 5c ab b7 cf 79 8d 2b f3 0b d2 b5
       -0.00016379995 -2.0428079e-05 1.0052461e-12 -1.5649697e-06
000190 f2 f3 8e 37 de d8 7b 36 cb bc fe 36 8f c7 0c b7
       1.7041315e-05 3.7528148e-06 7.5917683e-06 -8.391114e-06
0001a0 6c 21 9b b7 f5 9d 4b 35 68 51 89 b6 27 3e a3 2b
       -1.8493003e-05 7.585325e-07 -4.092395e-06 1.1599097e-12
0001b0 f6 cd 8b b6 9c d7 0e 35 a6 86 f6 39 61 e7 07 38
       -4.1665e-06 5.3212875e-07 0.00047021097 3.2401997e-05
0001c0 90 23 6e a4 9f 17 7b 37 63 92 03 b7 f3 d0 4d b6
       -5.1638146e-17 1.4966266e-05 -7.842292e-06 -3.0669005e-06
0001d0 d1 aa 9f b7 cc 8c 98 b8 ff e7 60 35 ee 70 8e 36
       -1.903382e-05 -7.27415e-05 8.37841e-07 4.2450765e-06
0001e0 f8 15 44 b7 5e 1a f1 b5 8f 59 93 37 65 af e4 b9
       -1.1687625e-05 -1.7963573e-06 1.756547e-05 -0.00043618228
0001f0 87 d6 8b b9 91 87 62 ba c1 11 6d 37 ae 4e a5 37
       -0.0002667198 -0.0008641417 1.41304345e-05 1.970617e-05
000200 2d f5 92 36 5c 14 00 b6 3e 77 d3 b5 79 1b e1 35
       4.3796813e-06 -1.9085337e-06 -1.5755429e-06 1.6771802e-06
000210 a0 35 05 b3 56 92 83 b6 48 f6 1b 38 96 af 30 b7
       -3.1015247e-08 -3.92114e-06 3.7184247e-05 -1.0531299e-05
000220 15 e9 b5 33 ad 78 13 37 5a a8 b7 2d 33 a8 27 36
       8.470867e-08 8.78998e-06 2.0879454e-11 2.4982844e-06
000230 52 6d 32 b6 6d ad bb b6 a5 d7 9c b3 09 11 96 35
       -2.65877e-06 -5.5932237e-06 -7.3035416e-08 1.1180829e-06
000240 7d df a7 36 de da ef b2 da 92 a2 35 5c a2 88 ab
       5.0030053e-06 -2.7922791e-08 1.211268e-06 -9.708445e-13
000250 0f 58 9c b2 1a 20 28 37 72 f9 27 b6 9d bb bc b6
       -1.8200835e-08 1.0021055e-05 -2.5030135e-06 -5.6246777e-06
000260 4b 81 49 37 b1 8e 6d b6 be 7b b4 34 78 a5 14 b7
       1.2010637e-05 -3.539881e-06 3.3617647e-07 -8.860014e-06
000270 27 be a7 36 0e 78 64 35 17 1c 70 b2 7f b9 b1 a6
       4.9991245e-06 8.511132e-07 -1.39762255e-08 -1.2332121e-15
000280 58 98 ef 37 0b f3 96 b5 67 03 a0 28 e4 d7 78 33
       2.856196e-05 -1.1246606e-06 1.7765044e-14 5.793835e-08
000290 39 0d 96 35 bf 82 ba 35 30 f4 9b 33 8a d8 a8 b5
       1.1179719e-06 1.3896132e-06 7.2621674e-08 -1.2579997e-06
0002a0 23 75 e2 33 17 81 b5 35 56 01 6f 33 54 d8 a3 aa
       1.0545252e-07 1.3523121e-06 5.564774e-08 -2.9104724e-13
0002b0 b2 bc 24 34 3e b8 df b3 5b 67 0a 37 eb 85 0b b6
       1.5342337e-07 -1.041776e-07 8.249505e-06 -2.0790565e-06
0002c0 c2 95 02 23 67 52 8e 34 c4 f9 2f b4 6d 94 bc 36
       7.0790266e-18 2.6509517e-07 -1.6389009e-07 5.6201156e-06
0002d0 05 6a a3 35 12 ed 21 b7 c3 0c 48 b3 43 56 27 b4
       1.2175302e-06 -9.651545e-06 -4.6577735e-08 -1.5584469e-07
0002e0 87 ab da b4 3b 13 c6 35 1d 35 5b 37 67 16 d0 b5
       -4.0730467e-07 1.4757746e-06 1.3065784e-05 -1.5503728e-06
0002f0 07 c6 99 36 3a ae b1 b6 33 1f 6f 36 bc 63 a0 35
       4.5828087e-06 -5.2952937e-06 3.5631936e-06 1.1949955e-06
000300 5e 2c 21 3a 12 c9 ce ba 85 7f a5 38 b7 91 3d 3b
       0.0006148274 -0.0015776476 7.8915655e-05 0.0028925964
000310 7c 0b 95 36 52 19 c2 ba 63 54 4f 3b ba 67 35 bb
       4.441883e-06 -0.0014808571 0.0031635992 -0.0027680234
000320 43 c5 8e 38 b5 d9 25 ba 7a 61 98 2f 8e bb 3f ba
       6.8078305e-05 -0.00063266914 2.77179e-10 -0.00073140196
000330 1f 22 12 ba 40 93 40 bb 9c 36 10 b8 33 3b 04 3a
       -0.00055745424 -0.0029384643 -3.4383134e-05 0.0005044222
000340 a1 6d a8 bb b0 fa 05 39 0d 45 84 b9 13 a9 b3 ad
       -0.005140022 0.00012777257 -0.0002522845 -2.0425028e-11
000350 5f 26 c1 35 65 48 36 ba ae b4 a9 39 40 67 d0 3a
       1.4390788e-06 -0.00069535366 0.0003236881 0.0015899912
000360 3b e6 78 3b c6 a9 cd b9 95 65 84 3a 09 f4 8f ba
       0.0037979025 -0.00039227138 0.0010101075 -0.0010982762
000370 fb a0 9a ba 42 88 0e 3a 21 f7 c0 36 c6 29 90 2b
       -0.0011797243 0.0005437174 5.7508155e-06 1.024341e-12
000380 d6 00 9a bb 18 59 78 ba 95 d5 c2 2d 74 aa 49 38
       -0.0046998067 -0.0009473725 2.2150096e-11 4.808088e-05
000390 60 85 0a 39 ba bd 9e 3a 74 cc 06 38 07 c0 17 ba
       0.00013210392 0.0012110986 3.21385e-05 -0.0005788807
0003a0 5d 00 86 b9 84 22 c0 3a 6d a8 80 39 a5 c1 30 ad
       -0.00025558742 0.0014658724 0.0002453955 -1.00474394e-11
0003b0 cb 44 e6 38 0a 7a f3 b8 c2 fa 94 3b d0 9a d1 39
       0.00010980068 -0.000116098745 0.004546494 0.0003997893
0003c0 37 9b d9 26 11 15 b6 b9 4f c8 0d b8 b0 42 5b 3a
       1.5099471e-15 -0.0003472944 -3.380357e-05 0.0008364124
0003d0 bc 82 83 38 af 7b be ba 88 2f 2b b8 0e 58 95 b8
       6.270918e-05 -0.001453271 -4.0813844e-05 -7.121275e-05
0003e0 5e 5b 46 39 e9 3f 39 3a e6 80 1b b9 81 5a ba bb
       0.00018916788 0.00070667133 -0.0001482997 -0.0056870584
0003f0 c2 6f 7c bb 67 b0 39 bb b3 9e b4 39 8b e2 25 3a
       -0.0038518761 -0.0028333904 0.00034450516 0.0006328008

lstm.bias_ih_l0 f4 [256]
000000 86 f6 46 ba 75 ca 83 ba 87 6a 9a 37 04 07 39 3b
       -0.00075898354 -0.0010054844 1.8407836e-05 0.0028232941
000010 c5 67 db b2 cd 76 27 3a 05 67 19 bc ae e8 9a bc
       -2.5542144e-08 0.0006388247 -0.009362941 -0.018909778
000020 d1 ba 0e b7 92 73 b3 bb db 27 bb a8 3f 1a 3d bb
       -8.507356e-06 -0.0054764235 -2.0778455e-14 -0.0028854755
000030 d0 a5 3b 3b 3c 3c f2 3c 81 af 93 b6 60 53 98 ba
       0.0028632767 0.029569738 -4.4013727e-06 -0.0011621527
000040 46 d0 e1 bb 62 39 5b ba 12 d7 d0 b8 19 8c 4b a6
       -0.006891283 -0.0008362738 -9.958273e-05 -7.061964e-16
000050 d7 1f 0a b3 82 e6 13 bb 38 f3 bd b9 b4 83 2a bb
       -3.2159587e-08 -0.0022567813 -0.000362301 -0.0026018443
000060 27 f9 6c bc a3 19 2e ba aa 80 7c ba f2 60 53 bb
       -0.014463699 -0.00066413934 -0.00096322095 -0.0032253829
000070 36 8d 4d ba 54 40 7b 38 4a a0 7c 32 8c df 2d 9d
       -0.00078411715 5.9902974e-05 1.4704776e-08 -2.301193e-21
000080 5c aa 34 3d d1 5a 6a bb fd d5 be a1 79 28 80 35
       0.04410778 -0.0035759697 -1.2931543e-18 9.548522e-07
000090 cb 86 49 ba 08 b7 0b bc 92 9d f8 34 a0 aa 5c bb
       -0.0007687627 -0.008527525 4.6308247e-07 -0.0033671036
0000a0 a0 a7 88 ba e4 54 8b ba 6a da 40 b9 17 b7 29 20
       -0.0010425933 -0.0010630158 -0.00018391912 1.4375436e-19
0000b0 41 e5 7b b8 f4 1f a3 b8 c0 ab 0b 3e ab 79 01 ba
       -6.0056573e-05 -7.7783974e-05 0.13639736 -0.00049390894
0000c0 c7 6c 25 95 b6 37 82 39 3b 6b 33 b8 6a 06 93 bb
       -3.3407295e-26 0.0002483704 -4.277679e-05 -0.0044868486
0000d0 9b de 50 b9 44 5d 4b bc 6b af b6 35 00 f4 9a b9
       -0.00019919353 -0.012412373 1.361111e-06 -0.00029554963
0000e0 97 b6 a1 bb 0d 7e 64 bb b2 a4 ce bb b2 33 0d 3b
       -0.0049350965 -0.0034865171 -0.0063062543 0.0021545705
0000f0 06 98 d2 3d a4 75 a6 3a d7 16 f8 ba 8f ee 02 bc
       0.102829024 0.0012699855 -0.0018927705 -0.007991447
000100 9f a1 ac ba 49 ab 84 ba fe 02 fd b6 85 cf 4b bc
       -0.0013170725 -0.0010121848 -7.540336e-06 -0.012439613
000110 b6 08 30 b3 a3 a8 83 3b 5a 2b 21 bc b1 5f 39 bb
       -4.0986116e-08 0.004017906 -0.009836996 -0.0028285796
000120 c2 45 58 b7 d5 82 a5 bb 9e 80 f4 a8 62 34 0f bb
       -1.2890845e-05 -0.005050997 -2.714522e-14 -0.002185129
000130 7e 6c 06 3c db eb 1d 3e ad f8 33 b7 89 a8 84 ba
       0.0082045775 0.15422003 -1.0727131e-05 -0.0010121028
000140 1f 94 54 3d 53 16 32 ba 6c 2c f9 b8 8e 96 71 a6
       0.05189907 -0.00067934877 -0.000118815195 -8.381771e-16
000150 e2 3a 0d b4 9a a8 32 bb 57 80 82 ba d7 d8 a4 bb
       -1.315307e-07 -0.002726114 -0.0009956461 -0.005030732
000160 2c 03 a0 bc 30 ad 35 ba 3a 4f 18 bc 9c 88 80 bb
       -0.019532762 -0.0006930409 -0.009296233 -0.003922535
000170 63 1e 1a bb ca e1 8a ba a5 de b7 34 bc da d8 a3
       -0.0023516647 -0.0010595855 3.4248401e-07 -2.3511405e-17
000180 b8 7f 57 3e 5d 8b 69 bb b9 44 c1 a1 5a 48 e1 b6
       0.21044815 -0.0035636046 -1.3096379e-18 -6.7139454e-06
000190 91 01 8f 3a aa ce e5 bb 7a 5e 43 b7 2e 96 95 bb
       0.0010910501 -0.0070131617 -1.1644903e-05 -0.004565022
0001a0 56 90 a0 ba b9 1c a9 ba f5 cb a9 b8 c8 c4 f0 a3
       -0.0012250047 -0.0012902237 -8.096538e-05 -2.6104192e-17
0001b0 57 0b 52 b8 c7 d9 84 b8 e3 5c a1 3e 1a 1f 05 ba
       -5.0078463e-05 -6.334815e-05 0.3151618 -0.0005078182
0001c0 92 aa 17 15 d6 94 e1 b9 25 c2 15 b9 7d cc a1 bb
       3.0628763e-26 -0.00043026236 -0.00014282072 -0.004937707
0001d0 53 7a 36 39 26 b9 61 bc cb 65 3f b6 a6 b0 40 b9
       0.00017402442 -0.013777053 -2.852047e-06 -0.00018376354
0001e0 6e 15 e9 bb ab 57 3e bb 66 f4 5c bb 8b 5c 48 3c
       -0.0071131503 -0.0029043953 -0.0033715009 0.012229095
0001f0 95 40 a5 3e 30 7d c9 bc 21 0f ac 3a bf 0b 08 bc
       0.32275835 -0.024595827 0.0013127067 -0.008303582
000200 3a dc c2 3a 20 e8 4c b7 1c 57 ef b9 be 91 55 bc
       0.0014866658 -1.2213393e-05 -0.00045650534 -0.013035236
000210 5e 63 2d b6 95 23 5f 3c 99 5b 03 bc aa 21 84 3c
       -2.5836848e-06 0.013619323 -0.008017444 0.016129334
000220 92 bf b9 3a 81 56 ee 3b ca 8b 66 b2 30 a3 1c bb
       0.0014171472 0.0072734957 -1.3419546e-08 -0.0023900978
000230 11 05 6f 3a 53 39 f2 bd 2b 18 af ba 21 17 48 bb
       0.00091178814 -0.1182734 -0.0013358643 -0.0030531364
000240 4b ef d1 bc fc 25 c2 ba 33 59 a0 3a 09 6b f9 30
       -0.0256268 -0.0014812346 0.0012233615 1.8147556e-09
000250 12 5f df b5 2e 79 50 ba c8 3c df ba ff a8 27 bb
       -1.6642464e-06 -0.00079526275 -0.0017031664 -0.0025582907
000260 77 82 2c 3a 22 80 a8 ba 4a fc 74 ba 82 95 72 bc
       0.000658072 -0.0012855569 -0.00093454553 -0.014806153
000270 6d a8 e2 3b fa 31 46 3b 51 10 2f b7 50 a8 77 ad
       0.0069170506 0.003024219 -1.0434612e-05 -1.4077697e-11
000280 ff 7e 31 be 15 20 c5 3a 42 dc 9e 2e f1 78 37 3a
       -0.17333601 0.0015039468 7.224134e-11 0.00069989177
000290 74 48 84 bb 0b 7a eb bb 98 48 cf 3a f2 2b 28 bc
       -0.0040369574 -0.0071861795 0.0015814481 -0.010264384
0002a0 e7 34 96 bb 0a 72 47 bb d5 b6 dd ba 12 79 5d 2f
       -0.004583943 -0.0030432963 -0.001691545 2.0142846e-10
0002b0 b4 8a 36 3a 63 c1 df b9 bc 91 80 3c e6 39 c9 3b
       0.00069634174 -0.0004267796 0.015694492 0.0061409352
0002c0 1a 43 7c a8 ba 94 07 bb 18 e2 6e b9 63 de c8 3a
       -1.40033604e-14 -0.0020688013 -0.00022781675 0.0015325065
0002d0 59 0b 40 bb ab 2a 15 bb 53 1e 09 ba da fc 64 b9
       -0.0029303639 -0.0022761028 -0.0005230654 -0.00021837969
0002e0 32 18 9e 3c af 0d 88 3a c0 eb 44 bc b1 19 85 3b
       0.019298647 0.0010380055 -0.012019098 0.0040619005
0002f0 01 f2 cd bd 0b b9 ea bd 4d 71 bc bb aa 07 5a 3c
       -0.10055924 -0.114610754 -0.005750811 0.013307491
000300 df ed 42 ba 6f 2c 4e ba 04 2c 9f 37 d8 f0 6a bc
       -0.0007435958 -0.00078648975 1.8974773e-05 -0.014339648
000310 5a 3f df b2 00 9b 08 3c 06 d4 28 bc 60 c3 ff bc
       -2.5989426e-08 0.008337736 -0.010304457 -0.031221092
000320 9a 21 27 b7 8c 9f b0 bb f5 e3 26 a8 b9 7c 93 ba
       -9.961799e-06 -0.005390113 -9.264281e-15 -0.001125238
000330 0d 29 c0 3b 40 0b 82 3d f0 a4 d0 b8 83 88 81 ba
       0.0058642686 0.06349802 -9.948935e-05 -0.0009882603
000340 7f 98 23 3c 3f 5b 89 ba 61 8e da b8 c1 89 73 a6
       0.009985088 -0.0010479464 -0.0001042157 -8.449425e-16
000350 a3 a3 9a b3 50 c8 52 bb 3f 9d df ba 18 6c 48 bb
       -7.200949e-08 -0.0032162853 -0.0017060413 -0.0030582007
000360 bf 32 80 bc 56 76 2e ba d9 7b 13 bc 4e c5 87 bb
       -0.015649198 -0.00066552067 -0.009001696 -0.0041433936
000370 97 69 44 bb 1e ed 16 39 4a 38 46 b6 5b 11 74 9d
       -0.0029970163 0.00014393448 -2.9537064e-06 -3.2302104e-21
000380 d3 3a 93 3d f6 98 42 bb e4 1c a9 a1 20 6f 30 35
       0.07188954 -0.0029693223 -1.1459533e-18 6.572682e-07
000390 b0 7c 2d 39 78 e4 8e bb a6 bf 29 b8 74 48 37 bb
       0.00016545015 -0.0043607317 -4.0471226e-05 -0.002796677
0003a0 8b b1 96 ba 2c 0a 8a ba 1d a5 0a bb 66 ef a1 9f
       -0.0011497004 -0.0010531596 -0.0021155544 -6.8582204e-20
0003b0 6c 1b 50 b8 ef 12 09 b9 85 79 2b 3e ad 5c 8f b7
       -4.9616603e-05 -0.00013072391 0.16745575 -1.7090084e-05
0003c0 67 fd 4c 95 f6 91 a3 38 87 b4 c8 b8 ce f1 93 bb
       -4.139737e-26 7.799633e-05 -9.570369e-05 -0.0045149093
0003d0 00 9c 71 39 17 33 49 bc 2c 81 45 35 68 a8 18 b9
       0.00023041666 -0.012280247 7.357619e-07 -0.00014558586
0003e0 9b ec 43 bc 60 61 2a bb 86 9d 67 bb 64 5a 9b bb
       -0.011958267 -0.0025997981 -0.0035341694 -0.004741
0003f0 d9 63 41 3e 70 fe 31 bc 38 1a 18 bb 8d 0f 01 bc
       0.18885745 -0.010863885 -0.0023208987 -0.007877243

lstm.bias_hh_l0 f4 [256]
000000 5d f6 46 ba 76 ca 83 ba 7e 6a 9a 37 1f f4 38 3b
       -0.00075898116 -0.0010054845 1.840782e-05 0.002822168
000010 c2 67 db b2 fe 75 27 3a fb 66 19 bc a6 e8 9a bc
       -2.5542139e-08 0.00063881266 -0.009362931 -0.018909764
000020 d1 ba 0e b7 92 73 b3 bb be 27 bb a8 2f 1b 3d bb
       -8.507356e-06 -0.0054764235 -2.0778406e-14 -0.0028855314
000030 e7 a5 3b 3b 3a 3c f2 3c 1f b1 93 b6 5c 53 98 ba
       0.002863282 0.029569734 -4.401561e-06 -0.0011621523
000040 46 d0 e1 bb 63 39 5b ba f7 d6 d0 b8 33 8c 4b a6
       -0.006891283 -0.00083627383 -9.958253e-05 -7.061978e-16
000050 d7 1f 0a b3 71 e6 13 bb 6f f3 bd b9 b2 83 2a bb
       -3.2159587e-08 -0.0022567774 -0.0003623026 -0.0026018438
000060 27 f9 6c bc b8 19 2e ba 22 7f 7c ba f0 60 53 bb
       -0.014463699 -0.00066414056 -0.00096319814 -0.0032253824
000070 09 8d 4d ba 54 40 7b 38 5a a0 7c 32 78 df 2d 9d
       -0.0007841145 5.9902974e-05 1.470479e-08 -2.301189e-21
000080 5c aa 34 3d d1 5a 6a bb 03 d6 be a1 25 28 80 35
       0.04410778 -0.0035759697 -1.2931549e-18 9.548427e-07
000090 15 89 49 ba 09 b7 0b bc 72 9d f8 34 99 aa 5c bb
       -0.00076879683 -0.008527526 4.6308156e-07 -0.003367102
0000a0 92 a7 88 ba ec 54 8b ba 6a da 40 b9 4e b7 29 20
       -0.0010425916 -0.0010630167 -0.00018391912 1.4375507e-19
0000b0 3c e5 7b b8 f4 1f a3 b8 c0 ab 0b 3e e9 7b 01 ba
       -6.0056555e-05 -7.7783974e-05 0.13639736 -0.00049394235
0000c0 b9 6c 25 95 93 3a 82 39 3e 6b 33 b8 6a 06 93 bb
       -3.3407252e-26 0.00024839173 -4.2776803e-05 -0.0044868486
0000d0 a7 df 50 b9 4d 5d 4b bc 6b af b6 35 df f5 9a b9
       -0.00019919743 -0.012412381 1.361111e-06 -0.00029556357
0000e0 42 b7 a1 bb 5b 7d 64 bb b2 a4 ce bb b2 33 0d 3b
       -0.004935176 -0.0034864757 -0.0063062543 0.0021545705
0000f0 05 98 d2 3d a4 75 a6 3a d2 16 f8 ba 90 ee 02 bc
       0.10282902 0.0012699855 -0.00189277 -0.007991448
000100 e2 a0 ac ba 39 ab 84 ba f4 03 fd b6 86 cf 4b bc
       -0.0013170505 -0.0010121829 -7.5404478e-06 -0.012439614
000110 63 0a 30 b3 a3 a8 83 3b 59 2b 21 bc cf 60 39 bb
       -4.098764e-08 0.004017906 -0.009836995 -0.0028286462
000120 b9 45 58 b7 0b 85 a5 bb 7c 80 f4 a8 a2 34 0f bb
       -1.2890837e-05 -0.0050512603 -2.7145163e-14 -0.002185144
000130 3f 6d 06 3c db eb 1d 3e a4 f8 33 b7 ca a7 84 ba
       0.008204757 0.15422003 -1.0727123e-05 -0.0010120806
000140 21 94 54 3d 53 16 32 ba 23 3b f9 b8 8d 96 71 a6
       0.05189908 -0.00067934877 -0.0001188426 -8.3817706e-16
000150 e1 3a 0d b4 87 a8 32 bb 57 80 82 ba db d8 a4 bb
       -1.3153068e-07 -0.0027261095 -0.0009956461 -0.005030734
000160 69 03 a0 bc c5 ad 35 ba 3a 4f 18 bc ee 8a 80 bb
       -0.019532876 -0.0006930496 -0.009296233 -0.0039228117
000170 90 1e 1a bb c7 e1 8a ba ed de b7 34 6a dd d8 a3
       -0.0023516752 -0.0010595851 3.4248606e-07 -2.351254e-17
000180 b6 7f 57 3e 77 8b 69 bb b9 44 c1 a1 5a 48 e1 b6
       0.21044812 -0.0035636106 -1.3096379e-18 -6.7139454e-06
000190 f4 fc 8e 3a a9 ce e5 bb 7d 5e 43 b7 4e 96 95 bb
       0.0010909126 -0.007013161 -1.16449055e-05 -0.004565037
0001a0 3a 90 a0 ba 2f 1d a9 ba f5 cb a9 b8 c8 c4 f0 a3
       -0.0012250014 -0.0012902374 -8.096538e-05 -2.6104192e-17
0001b0 57 0b 52 b8 c7 d9 84 b8 e3 5c a1 3e 92 1c 05 ba
       -5.0078463e-05 -6.334815e-05 0.3151618 -0.00050778047
0001c0 54 9d 17 15 bd 9c e1 b9 19 c2 15 b9 7d cc a1 bb
       3.0618317e-26 -0.00043032123 -0.00014282054 -0.004937707
0001d0 ae 7b 36 39 2c b9 61 bc ca 65 3f b6 7a b0 40 b9
       0.00017402947 -0.013777059 -2.8520467e-06 -0.0001837629
0001e0 92 15 e9 bb 4f 57 3e bb 50 f4 5c bb 8b 5c 48 3c
       -0.007113167 -0.002904374 -0.0033714958 0.012229095
0001f0 95 40 a5 3e 30 7d c9 bc 7b 0f ac 3a ca 0b 08 bc
       0.32275835 -0.024595827 0.0013127172 -0.008303592
000200 56 dc c2 3a 39 e6 4c b7 1c 57 ef b9 be 91 55 bc
       0.0014866691 -1.221295e-05 -0.00045650534 -0.013035236
000210 7f 63 2d b6 95 23 5f 3c a5 5b 03 bc aa 21 84 3c
       -2.5836923e-06 0.013619323 -0.008017455 0.016129334
000220 9e bf b9 3a 9e 56 ee 3b b9 8b 66 b2 06 a3 1c bb
       0.0014171486 0.007273509 -1.3419531e-08 -0.002390088
000230 11 05 6f 3a 53 39 f2 bd 33 18 af ba 34 17 48 bb
       0.00091178814 -0.1182734 -0.0013358652 -0.0030531408
000240 4b ef d1 bc fc 25 c2 ba 30 59 a0 3a 09 6b f9 30
       -0.0256268 -0.0014812346 0.0012233611 1.8147556e-09
000250 12 5f df b5 28 79 50 ba da 3c df ba 0e a9 27 bb
       -1.6642464e-06 -0.0007952624 -0.0017031685 -0.0025582942
000260 ce 81 2c 3a 2f 80 a8 ba bb fb 74 ba 8f 95 72 bc
       0.00065806217 -0.0012855585 -0.0009345372 -0.014806165
000270 5d a8 e2 3b fd 31 46 3b f6 10 2f b7 60 a5 77 ad
       0.006917043 0.0030242198 -1.0434762e-05 -1.4077045e-11
000280 ff 7e 31 be 54 21 c5 3a 3b dc 9e 2e f2 78 37 3a
       -0.17333601 0.001503984 7.224129e-11 0.0006998918
000290 42 48 84 bb 05 7a eb bb 97 48 cf 3a fd 2b 28 bc
       -0.004036934 -0.0071861767 0.001581448 -0.010264394
0002a0 13 35 96 bb 41 72 47 bb 1f bb dd ba 08 79 5d 2f
       -0.0045839637 -0.003043309 -0.0016916728 2.0142832e-10
0002b0 b5 8a 36 3a f1 c0 df b9 bd 91 80 3c de 39 c9 3b
       0.0006963418 -0.00042677627 0.015694493 0.0061409315
0002c0 1a 43 7c a8 b1 94 07 bb 18 e2 6e b9 68 de c8 3a
       -1.40033604e-14 -0.0020687992 -0.00022781675 0.0015325071
0002d0 6d 0b 40 bb 3c 2a 15 bb 52 1e 09 ba e2 fc 64 b9
       -0.0029303685 -0.002276077 -0.00052306533 -0.0002183798
0002e0 23 18 9e 3c 8b 10 88 3a be eb 44 bc b1 19 85 3b
       0.019298619 0.0010380907 -0.012019096 0.0040619005
0002f0 01 f2 cd bd 19 ba ea bd 54 71 bc bb aa 07 5a 3c
       -0.10055924 -0.114612766 -0.0057508145 0.013307491
000300 e8 ed 42 ba 6c 2c 4e ba 04 2c 9f 37 e0 f0 6a bc
       -0.00074359635 -0.0007864896 1.8974773e-05 -0.014339656
000310 59 3f df b2 00 9b 08 3c fd d3 28 bc 60 c3 ff bc
       -2.5989424e-08 0.008337736 -0.010304448 -0.031221092
000320 99 21 27 b7 8d 9f b0 bb f8 e3 26 a8 e6 77 93 ba
       -9.961798e-06 -0.0053901137 -9.264284e-15 -0.0011250942
000330 0d 29 c0 3b 3f 0b 82 3d f0 a4 d0 b8 6e 88 81 ba
       0.0058642686 0.06349801 -9.948935e-05 -0.0009882578
000340 78 98 23 3c 3f 5b 89 ba 4c 8e da b8 c5 89 73 a6
       0.009985082 -0.0010479464 -0.00010421555 -8.4494273e-16
000350 cf a3 9a b3 42 c8 52 bb 3f 9d df ba 1a 6c 48 bb
       -7.2009804e-08 -0.003216282 -0.0017060413 -0.0030582012
000360 be 32 80 bc 21 76 2e ba d5 7b 13 bc 4c c5 87 bb
       -0.015649196 -0.0006655176 -0.009001692 -0.0041433927
000370 96 69 44 bb 1e ed 16 39 32 38 46 b6 90 10 74 9d
       -0.002997016 0.00014393448 -2.953701e-06 -3.2301694e-21
000380 d2 3a 93 3d 0f 99 42 bb e9 1c a9 a1 12 6f 30 35
       0.071889535 -0.002969328 -1.1459538e-18 6.572674e-07
000390 bb 85 2d 39 78 e4 8e bb a6 bf 29 b8 75 48 37 bb
       0.00016548384 -0.0043607317 -4.0471226e-05 -0.0027966772
0003a0 7e b1 96 ba 2d 0a 8a ba 1d a5 0a bb d0 ee a1 9f
       -0.0011496989 -0.0010531597 -0.0021155544 -6.8581234e-20
0003b0 7a 1b 50 b8 ef 12 09 b9 85 79 2b 3e f6 52 8f b7
       -4.9616654e-05 -0.00013072391 0.16745575 -1.708556e-05
0003c0 2c fd 4c 95 5d b5 a3 38 87 b4 c8 b8 ca f1 93 bb
       -4.139719e-26 7.806227e-05 -9.570369e-05 -0.0045149075
0003d0 60 9d 71 39 17 33 49 bc 56 81 45 35 5e a8 18 b9
       0.00023042178 -0.012280247 7.357643e-07 -0.00014558571
0003e0 9b ec 43 bc 8a 61 2a bb 7f 9d 67 bb 64 5a 9b bb
       -0.011958267 -0.002599808 -0.0035341678 -0.004741
0003f0 d9 63 41 3e 70 fe 31 bc 38 1a 18 bb 8a 0f 01 bc
       0.18885745 -0.010863885 -0.0023208987 -0.00787724

fc.weight f4 [50, 64]
000000 f3 2b 55 3b 29 12 56 3a 96 94 8f 3a b9 df 6c 3b
       0.0032527416 0.0008166158 0.0010954316 0.0036144091
000010 d9 b7 a0 b7 2a 43 a9 3c 23 a3 4e bc c0 a2 c2 b9
       -1.9159097e-05 0.02066191 -0.012612137 -0.00037123822
000020 74 fa 06 ba aa 48 2d 3b 3f c3 c4 31 a7 42 31 bb
       -0.0005149015 0.0026441016 5.7265477e-09 -0.0027047785
000030 fb 6e 3d ba c4 e9 0d 3c 7c 40 73 39 76 63 16 bb
       -0.0007226315 0.008661691 0.00023198308 -0.0022947467
000040 4f 5d da bc fc a8 9e bb 48 06 8f 3a fd 45 eb b0
       -0.026655821 -0.004841922 0.0010911906 -1.7118392e-09
000050 ad b1 c9 b7 d6 3d 9e 3a fa 94 4e bb a3 58 32 bb
       -2.4043804e-05 0.0012072872 -0.0031521902 -0.0027213476
000060 ca c3 94 3c 12 0b d8 b9 b7 fe 0e ba c7 48 ed bb
       0.018159766 -0.00041206978 -0.00054548256 -0.0072413418
000070 ad 5d 95 3b 6d fb 93 bb 15 7e 17 38 50 ad 62 2d
       0.004558286 -0.0045160563 3.611863e-05 1.2885096e-11
000080 13 f6 32 bd ef f5 c5 3b d3 75 8f ab 00 c0 65 b9
       -0.043691706 0.0060412805 -1.0193464e-12 -0.00021910667
000090 36 b7 3c bb ae ac 0d bc ab f0 a8 b9 a2 6e 33 3b
       -0.0028795726 -0.008647127 -0.0003222277 0.0027379175
0000a0 74 42 36 bb a8 77 84 ba 3a 14 15 bb 93 ac 9a af
       -0.0027810605 -0.0010106461 -0.0022747652 -2.8135058e-10
0000b0 9a 42 21 ba 73 b5 0b 3a 4f 39 64 3d 60 73 73 3b
       -0.0006151587 0.0005329467 0.055718716 0.0037147626
0000c0 12 35 84 28 1e b6 79 3a 4f ad a7 37 0a 2c 0a 3c
       1.467796e-14 0.0009525734 1.9988654e-05 0.008433351
0000d0 04 51 db 3a 39 6f 62 bc 49 b6 84 39 8d 87 1e 3a
       0.0016732519 -0.013820463 0.00025312815 0.00060474203
0000e0 69 c6 9a bb 13 e5 b2 bb 29 a3 be bb be 12 a0 3c
       -0.0047233594 -0.0054594367 -0.00581779 0.019540187
0000f0 1f e4 09 bd 84 71 e1 3c c8 53 bc 3a 44 3c 1d 3c
       -0.03366482 0.027519949 0.001436823 0.009596888
000100 79 1a c3 3b 36 c5 e7 3b bc 0c d9 3a 78 a7 11 bb
       0.0059540835 0.00707307 0.0016559581 -0.0022225063
000110 32 e0 44 b8 6c c6 ae 3c 3b 4a a6 bc ea 32 1f bc
       -4.693884e-05 0.02133485 -0.020299068 -0.009716729
000120 16 e5 e7 b9 c6 88 62 3c f4 3e 14 32 f7 4c d8 3b
       -0.00044230436 0.013826555 8.629048e-09 0.006600972
000130 4f b1 02 bb 8b d2 a7 3d 51 fa 7f 3a 1c 5e 66 bb
       -0.001994211 0.08194455 0.0009764778 -0.0035151308
000140 6a f5 31 bd ea a5 8f bb da 17 3c 3a 94 8e 50 b1
       -0.043446936 -0.004383792 0.0007175185 -3.034903e-09
000150 ff 85 ad b7 16 0c 15 3c 25 4f ab bb 0e b5 86 bb
       -2.0685604e-05 0.00909712 -0.0052279406 -0.004110939
000160 c8 bf f9 3c 9c e6 ed bb 5f ea 37 bc 5b 68 3d bc
       0.030486956 -0.007260157 -0.011225312 -0.011560525
000170 56 2d 31 3c e1 47 1c bc ad 45 26 37 0c f7 ce 2c
       0.010814032 -0.009538622 9.910594e-06 5.8823e-12
000180 ef cb 56 3c 90 db 2c 3b 8d a7 47 2f 63 56 f5 b9
       0.013110145 0.0026375987 1.815847e-10 -0.00046794405
000190 14 d2 62 38 17 f8 64 bb 2c 6c 07 ba fc 84 d2 3b
       5.407825e-05 -0.0034937912 -0.000516596 0.0064245444
0001a0 77 e4 01 bc 68 da 20 39 4f 2f d2 ba a8 9b ca 2d
       -0.007928005 0.00015340152 -0.0016035828 2.3033866e-11
0001b0 0d 2c 05 ba 7a 91 dc 3a 4e 6d f6 3d 6c be 2b bb
       -0.00050801114 0.0016828023 0.12032567 -0.002620603
0001c0 2b 8d be a8 d8 5b c6 3a 0f 66 22 3a 39 db a5 3c
       -2.115546e-14 0.0015133573 0.00061950175 0.020246135
0001d0 d8 6c e2 b9 15 d3 c9 bc 69 45 d4 39 77 03 84 3b
       -0.00043187174 -0.024636785 0.00040487506 0.0040287334
0001e0 bb 32 5e bc 3b d3 0b bb d3 a5 8c bc c9 96 d4 bc
       -0.0135619 -0.002133562 -0.017168915 -0.025950806
0001f0 60 64 4d bd 44 e4 78 3c 38 0b 26 3b 5f 19 15 3c
       -0.050144553 0.0151911415 0.0025336277 0.009100287
000200 a7 3d 16 bc a2 e4 8a bb 84 e1 96 ba 52 19 9a 3b
       -0.0091699725 -0.004238681 -0.0011511301 0.0047027254
000210 ee c8 48 38 07 00 58 bc bf 2c 0f 3d 78 87 10 3d
       4.7870846e-05 -0.0131836 0.034954783 0.035285443
000220 42 3a ab 39 82 be 4b bc fa 53 82 b2 3e 37 15 bc
       0.00032659067 -0.012435557 -1.517218e-08 -0.009107409
000230 87 f1 99 bb fa 59 a9 bd a5 38 3a ba fc f6 cf 3b
       -0.0046979818 -0.08269115 -0.00071037776 0.0063465815
000240 4e 01 f9 3c 4f 7a 09 3c d2 ae 09 bb 10 06 12 31
       0.03039613 0.008390977 -0.0021008742 2.1249242e-09
000250 60 3a f6 37 e9 90 8b bc f1 b2 c2 3b e4 e5 07 3c
       2.9352668e-05 -0.017036872 0.0059417416 0.008294556
000260 88 be bd bc e9 81 91 3b 4f ce b8 bb 12 1a 9a 3c
       -0.023162141 0.0044405353 -0.0056398283 0.01881126
000270 02 de 75 bc ab d4 ad 3b e9 56 8b b7 c3 33 08 ad
       -0.015006544 0.005304893 -1.6610562e-05 -7.742198e-12
000280 68 32 3f bc 7f 91 4c ba ae f0 23 2e 2f 16 ee 39
       -0.011669733 -0.0007803663 3.7275676e-11 0.00045411426
000290 40 41 6d 3b 3b f0 f9 3a 15 2e 0f b8 50 71 64 bb
       0.0036202222 0.0019068787 -3.4136774e-05 -0.0034857579
0002a0 08 a3 23 3c 59 ef 4b 3b aa 3b a4 b9 78 db c0 ae
       0.0099876 0.0031118004 -0.0003132497 -8.7701346e-11
0002b0 27 85 70 39 62 6b 79 ba 76 e4 b3 bd 91 67 4c bb
       0.00022937787 -0.00095145975 -0.0878381 -0.003118966
0002c0 8f c1 09 a9 8f c9 66 bb ed 5f 08 ba 5e 6d c1 bc
       -3.0587996e-14 -0.0035215353 -0.00052022823 -0.02361172
0002d0 07 c1 70 bb 7a 0a 33 3d da 0f ac b9 fe 20 65 bb
       -0.0036736147 0.043711163 -0.00032818207 -0.0034962292
0002e0 23 73 fa bb 11 44 1d 3b 9a 62 a7 3c 6f 68 cd 3c
       -0.00764312 0.002399687 0.02043276 0.025074212
0002f0 6a 13 9a 3d 6c ee b5 39 01 cc 17 3a 83 5e f4 bb
       0.07523234 0.00034700648 0.0005790592 -0.0074575557
000300 eb 95 d2 3a c9 61 f0 3b 26 91 17 bb 36 3f 44 bb
       0.0016066408 0.0073358756 -0.0023127287 -0.0029944903
000310 7e f1 aa b6 8d cd 03 bd 38 fb cb bb 61 20 be b8
       -5.094508e-06 -0.03217845 -0.006225016 -9.065937e-05
000320 12 c0 a4 38 50 31 53 3c 29 df c5 32 64 9d c6 3b
       7.855905e-05 0.012890175 2.30353e-08 0.006061243
000330 52 e0 46 bc 26 e2 bf bd b8 77 df b8 39 88 55 bb
       -0.012138443 -0.09369306 -0.00010655768 -0.0032582416
000340 29 d9 47 3d 7d 7c 18 bb a7 db 54 3a 23 46 c2 b0
       0.048791084 -0.002326756 0.0008119889 -1.4135292e-09
000350 9e bd 86 b7 e6 4d 09 3b ea 2c bc bb b1 40 09 bc
       -1.6062342e-05 0.0020950972 -0.005742659 -0.00837724
000360 3a 25 9a bb 17 8c 4e bb 39 d9 c6 3c 94 3c d4 bb
       -0.004704145 -0.0031516606 0.024273502 -0.006476948
000370 14 ce 28 3b 6a 2d 04 3c 6a 49 86 b8 09 1d c1 ac
       0.0025757598 0.008067468 -6.403292e-05 -5.4886135e-12
000380 af 58 36 3d aa 16 80 3b ce fa 9d ae d9 6d 0e 3a
       0.04451817 0.0039089518 -7.184085e-11 0.00054332387
000390 6e 95 bd ba 91 ca 18 bc cc 0a 45 3a 8a 4f 9a bb
       -0.0014464089 -0.009325639 0.00075165625 -0.004709189
0003a0 86 d8 bd ba b7 7d c8 ba 6a 2a 29 3a 38 e1 a8 2e
       -0.0014484085 -0.0015296255 0.00064531586 7.6797624e-11
0003b0 04 93 aa b9 74 4e 0a 39 b6 2e 68 bd 86 48 ba 39
       -0.00032534462 0.00013189932 -0.056685172 0.0003553072
0003c0 b1 57 6c a9 61 44 d9 39 6e 49 6b ba b5 ec 8b 3b
       -5.2478587e-14 0.00041440412 -0.00089754805 0.004270161
0003d0 77 e6 8c bb 25 ee ee 3b 27 f2 ff b9 fc 78 c3 3a
       -0.0042999345 0.0072915726 -0.00048817808 0.0014913375
0003e0 f3 b5 9c 3c cc 3f 65 bb c7 76 57 bc 24 82 92 bb
       0.019129729 -0.0034980653 -0.013150877 -0.0044710804
0003f0 07 e9 9a 3d 04 80 e2 bc b1 f8 1f b9 b6 9d 12 3c
       0.07563978 -0.027648933 -0.00015256066 0.008948734

fc.bias f4 [50]
000000 90 69 e3 bc bd e2 37 3d 12 b4 85 bd 5b 4a 88 3b
       -0.027760297 0.04489397 -0.06528486 0.0041592545
000010 68 f6 25 3d 0b a5 d1 3c 63 f3 33 3d b5 e5 84 bc
       0.040518194 0.025591394 0.043933284 -0.016222814
000020 83 86 ae bc 33 09 75 bc 97 40 d8 bd b6 00 b9 bb
       -0.021304375 -0.014955807 -0.105591945 -0.0056458367
000030 d7 b6 bc 3c d2 34 5c bc 44 3f 7e 3d e0 e3 be bc
       0.023036404 -0.013440328 0.062072054 -0.023302019
000040 50 f9 56 3c b1 60 d9 3c d4 4a cf 3c ef 1c d5 3c
       0.013120964 0.026535364 0.025304236 0.026014773
000050 e5 6d 39 bd b7 c8 c8 bb c5 07 02 bd 63 12 be bc
       -0.04527082 -0.0061274427 -0.03174569 -0.023202127
000060 18 6b 0e bd 3e dd 2a 3d f2 a9 49 bd 88 b4 35 bc
       -0.0347701 0.0417149 -0.049234338 -0.011090405
000070 cf 00 8f 39 44 8d 2e bd 6e 28 90 bc 01 b9 c6 3c
       0.00027275688 -0.04261519 -0.017597403 0.024258139
000080 89 70 61 bc 9d 68 01 3d 4c 07 39 bd 89 b1 82 bc
       -0.013759741 0.031593908 -0.045172974 -0.015953796
000090 3f 9d 21 bd 88 1b b8 3c c1 47 e1 bc 7f 00 93 3c
       -0.039456602 0.022474065 -0.027500035 0.017944572
0000a0 75 83 00 bd 12 61 b5 3c 38 1f 04 3d 47 4f e1 3c
       -0.031375367 0.022141013 0.032256335 0.027503623
0000b0 7e 10 13 3d 47 aa 18 bd 0a 6d b7 3c fb e6 59 bd
       0.0359044 -0.037271764 0.022390861 -0.053198796
0000c0 40 b7 1f 3d 59 b7 27 3d
       0.03899312 0.04094634

decoder.0.weight f4 [64, 50]
000000 6f 8b 00 80 2d 89 00 80 c9 8a 00 00 d1 88 00 80
       -5.002e-41 -4.921e-41 4.9787e-41 -4.908e-41
000010 3b 89 00 80 8d 8a 00 00 36 89 00 00 05 8a 00 00
       -4.9229e-41 4.9703e-41 4.9222e-41 4.9512e-41
000020 af 8a 00 00 9b 89 00 00 d0 8a 00 00 15 8a 00 80
       4.975e-41 4.9364e-41 4.9797e-41 -4.9534e-41
000030 87 89 00 00 f5 88 00 80 41 8a 00 00 fc 8b 00 80
       4.9336e-41 -4.9131e-41 4.9596e-41 -5.0217e-41
000040 39 8a 00 80 4a 8a 00 00 55 8b 00 00 8c 8a 00 80
       -4.9585e-41 4.9609e-41 4.9983e-41 -4.9701e-41
000050 43 8c 00 00 0c 8a 00 80 b7 8b 00 00 3a 89 00 00
       5.0316e-41 -4.9522e-41 5.012e-41 4.9228e-41
000060 a1 8a 00 00 33 8a 00 00 e1 89 00 00 91 89 00 80
       4.973e-41 4.9577e-41 4.9462e-41 -4.935e-41
000070 b4 89 00 00 0f 89 00 00 cc 89 00 00 92 89 00 00
       4.9399e-41 4.9167e-41 4.9432e-41 4.9351e-41
000080 8e 8a 00 80 31 89 00 80 b6 89 00 00 d8 8a 00 00
       -4.9704e-41 -4.9215e-41 4.9401e-41 4.9808e-41
000090 5a 8a 00 00 f3 89 00 80 6c 89 00 80 4e 8a 00 80
       4.9631e-41 -4.9487e-41 -4.9298e-41 -4.9614e-41
0000a0 02 8b 00 00 03 89 00 80 18 8b 00 80 9a 8b 00 00
       4.9867e-41 -4.915e-41 -4.9897e-41 5.008e-41
0000b0 0a 8a 00 80 3a 9f 00 00 20 8a 00 80 01 8a 00 00
       -4.9519e-41 5.712e-41 -4.955e-41 4.9506e-41
0000c0 e8 88 00 80 a6 8a 00 00 b6 bc 01 b9 fa 5b e0 b7
       -4.9113e-41 4.9738e-41 -0.00012372699 -2.674571e-05
0000d0 d6 b7 65 38 8f b2 ba 38 fd 96 0a b9 98 1e a8 38
       5.4769065e-05 8.90243e-05 -0.00013216953 8.016563e-05
0000e0 d5 53 03 b9 ae 3f 0c b9 72 8d 8b 38 1a 8a 7d 38
       -0.00012524363 -0.00013375163 6.654383e-05 6.0448518e-05
0000f0 42 9e 5c b9 22 16 1d b9 ce a5 ea b8 9c ff 08 b9
       -0.0002103979 -0.00014980932 -0.00011188873 -0.00013065193
000100 f0 77 b3 37 a0 11 8a 39 87 11 46 b7 d6 77 b6 38
       2.1394313e-05 0.00026334543 -1.1805801e-05 8.7007575e-05
000110 19 b8 85 b8 ba 4b 8f 39 b7 95 11 39 ce a4 62 3a
       -6.376225e-05 0.00027331506 0.0001388405 0.00086457736
000120 ac d3 9a 38 3e 7f 0b b7 9a 74 b9 b8 ec ac 8d b8
       7.382719e-05 -8.3146715e-06 -8.843206e-05 -6.755613e-05
000130 6f 32 b0 38 0c 72 3f b8 42 b7 c5 b8 b9 ff cb b9
       8.401728e-05 -4.5644163e-05 -9.4278264e-05 -0.00038909705
000140 00 24 3b 39 25 dc 37 38 bb 4e 13 38 7d 24 08 3a
       0.00017847121 4.3835626e-05 3.5120855e-05 0.00051934255
000150 1e 99 9e 38 41 8f ee b8 fa df 17 38 ba 3a 1a b8
       7.5625474e-05 -0.000113754075 3.62098e-05 -3.6771155e-05
000160 f0 aa 36 39 60 fb 31 ba cd 92 1c 3a 92 23 24 39
       0.00017420552 -0.0006789472 0.0005972803 0.0001565351
000170 4f 5b e1 36 e1 1f 03 39 f7 f7 04 38 8b 84 e9 39
       6.7161523e-06 0.0001250501 3.1702188e-05 0.00044539975
000180 8d f0 5b b8 1c 4b a3 38 5c 42 9d 38 6f cf c5 b8
       -5.24377e-05 7.786436e-05 7.498704e-05 -9.4323295e-05
000190 87 1d c3 38 b6 e8 ed 39 de 71 77 37 bc 40 00 b8
       9.3038245e-05 0.00045377546 1.4748859e-05 -3.0577867e-05
0001a0 85 e6 24 b8 54 da a0 b8 aa 34 9d 39 32 8a 15 b9
       -3.9315335e-05 -7.670061e-05 0.0002998461 -0.00014261229
0001b0 51 ec 5e b9 8b cd 80 b9 f5 bb 04 ba 3e 54 a5 b9
       -0.00021259605 -0.00024567204 -0.0005063408 -0.00031534018
0001c0 cd 1a 2a b9 56 3c 32 39 a5 ad 98 38 4b 86 2b 39
       -0.00016222447 0.0001699788 7.2802686e-05 0.00016357859
0001d0 e8 43 a1 b8 e6 e6 09 b7 0f 2b b0 38 b6 a2 8e b9
       -7.689727e-05 -8.219597e-06 8.400354e-05 -0.0002720558
0001e0 1c 27 8d b9 bb c8 f5 b9 06 18 ee 37 5a 02 cd 38
       -0.00026922754 -0.00046879597 2.8382998e-05 9.7756e-05
0001f0 91 d7 21 b9 62 f7 ed b7 34 2a c8 37 bd 96 b4 38
       -0.00015434461 -2.8367798e-05 2.386151e-05 8.611146e-05
000200 fa f3 8d 39 89 e8 2c b9 35 a0 81 b9 f9 6a 94 36
       0.00027075392 -0.00016489824 -0.0002472416 4.423197e-06
000210 db 8b 20 b8 b8 60 10 b7 b2 54 79 b8 2f 89 57 39
       -3.8277223e-05 -8.605588e-06 -5.9445105e-05 0.00020555103
000220 21 11 8c b8 01 fc 08 38 5b e9 54 38 42 46 f6 38
       -6.678911e-05 3.2659624e-05 5.0762068e-05 0.000117432806
000230 1c 4f 06 b9 bf a1 37 39 1e d9 58 b9 fd 56 45 39
       -0.00012808706 0.00017512495 -0.00020680248 0.0001881979
000240 1e 4a 7d b9 20 f0 3d 38 9e ef 61 39 71 05 d8 37
       -0.00024155571 4.5284745e-05 0.00021546936 2.575174e-05
000250 06 cd b3 b8 ab 7b db b7 8d 07 c7 3b 93 b7 5b bc
       -8.573574e-05 -2.6164422e-05 0.006073898 -0.013410467
000260 5b d7 14 3c 44 85 3f 3c a1 fa 24 3b 92 6c 39 bc
       0.009084548 0.011689488 0.00251738 -0.011317389
000270 86 c8 a0 3c 15 15 b3 bc 83 d3 ee 3c 46 75 3b 3c
       0.019626867 -0.021860639 0.029153591 0.011441534
000280 73 e5 3a 3c 93 05 9e 3c e9 14 95 3c 76 10 2f 3c
       0.011407244 0.019289767 0.018198447 0.010685077
000290 3e 1a 2f bc 9c 66 00 3b b3 fa 94 3c 19 0c 11 bc
       -0.010687409 0.001959241 0.018185949 -0.008852982
0002a0 dd 09 c8 bc dc 22 77 3c 8f 29 d5 3c 3f ab 28 3c
       -0.024418766 0.015083995 0.026020793 0.0102947345
0002b0 06 f6 16 3d 7d 1a 19 3c 75 e9 7e bc 6f 94 bc bc
       0.03685572 0.009344694 -0.01555859 -0.023019997
0002c0 04 c4 b4 3c 11 13 1c bc 91 c5 ce bb 73 73 79 3a
       0.022066124 -0.00952603 -0.006310173 0.00095157995
0002d0 6c 97 ed bc 11 89 c5 3c 06 2b b3 3c 58 17 7e bc
       -0.029002868 0.02411321 0.021871101 -0.015508495
0002e0 22 ff 03 3d 69 58 f2 3c b4 e5 0b 3d d3 09 73 3c
       0.032225735 0.029583173 0.03415461 0.014833885
0002f0 43 fd cb bc 00 50 90 bb ca ac 72 bc 2e 93 59 3c
       -0.024901038 -0.004404068 -0.014811704 0.013279719
000300 15 82 16 3c 33 dd c9 3c de 7b 6e bc b7 81 80 3c
       0.009186287 0.024641609 -0.014555899 0.015686853
000310 56 5e 93 3c bc e2 f7 3c ba 33 72 bc 16 f3 89 bc
       0.017989319 0.030259483 -0.01478284 -0.016839545
000320 f2 a3 13 3d 47 65 d3 3b 9d bc 90 bd c9 7d f2 bc
       0.036045022 0.006451282 -0.07067225 -0.029600995
000330 2b f0 60 3d 4a 75 31 bd 21 1e 8c bc 8d da ac 3d
       0.054916542 -0.043324746 -0.01710421 0.08440123
000340 d4 22 08 bd e0 e4 f4 bb fd 54 57 3c 35 44 19 3d
       -0.03323634 -0.007473573 0.013142821 0.037418563
000350 0a 4d f5 3c ea 28 83 3d b1 2e d2 3c 2d cc 87 3c
       0.029943962 0.06404288 0.02565703 0.01657685
000360 21 2a 62 bd 25 1b a0 bd 6c d3 f1 3c 6a eb bb bd
       -0.05521596 -0.078176774 0.02951976 -0.09175761
000370 7e 02 da bc df ef 92 bd 89 36 78 bc 63 77 b8 3c
       -0.026612516 -0.07174658 -0.015149721 0.022517866
000380 2d c6 cd 3d 2d 99 23 3d 76 4d e5 bc fb 71 db 3d
       0.10047565 0.039941 -0.027991038 0.107150994
000390 f0 1e 00 3d 1d 36 7f bb fa 03 a0 bd 2f 0d 8e bd
       0.031279504 -0.0038942166 -0.078132585 -0.06936108
0003a0 86 25 54 bd f2 ce bc bd 45 7a 58 bd a7 51 b3 3d
       -0.051793598 -0.09219159 -0.05285098 0.08755808
0003b0 d8 47 2f bb da 9e 49 3d 2c ae 33 bd 36 23 7a 3d
       -0.0026745703 0.04922376 -0.043867275 0.061068736
0003c0 62 cf 1a bc 6a c4 db bd c4 a5 47 3d 9f c2 12 ba
       -0.009448858 -0.107308224 0.04874207 -0.0005598459
0003d0 c8 a7 0f 3b 2f c7 97 bc ee 3a 5d 3d ff ff 3e bd
       0.0021920074 -0.018527595 0.054011278 -0.046630856
0003e0 de 32 95 bd 9a 6c ff bb 0f da a8 38 2f 0d 97 3a
       -0.07285093 -0.0077949287 8.051481e-05 0.0011524315
0003f0 00 0a 43 ba f0 39 24 b9 51 d2 ce b9 64 41 10 3a
       -0.000744015 -0.00015661842 -0.0003944808 0.0005502908

decoder.0.bias f4 [64]
000000 42 f8 83 8d cb 01 9d 39 bc 37 a7 bc 1b e2 ce bd
       -8.133264e-31 0.0002994671 -0.020412318 -0.1010172
000010 03 8a d8 3b 5c 58 38 bc d9 48 47 b2 27 15 4c a1
       0.006608249 -0.011251535 -1.1599888e-08 -6.9145883e-19
000020 b9 dc 08 3c aa 02 a1 bb 20 a5 41 0c 0b 87 c2 b9
       0.008353406 -0.0049136477 1.491787e-31 -0.00037103178
000030 4f db d6 ba c1 68 67 3c ab 46 b4 98 06 c9 4b 18
       -0.0016392263 0.014124096 -4.6600266e-24 2.6338626e-24
000040 f5 a5 1c 3d 13 b5 83 b1 c6 15 1f bd f5 32 c4 86
       0.038244206 -3.8331875e-09 -0.038839124 -7.380188e-35
000050 ec 92 05 b6 09 8d 81 8f ef f5 b3 ba 90 02 04 8e
       -1.9904064e-06 -1.2774707e-29 -0.001372991 -1.627149e-30
000060 d4 51 9f 34 64 c5 4d be e4 ba b6 3c b2 46 d1 0b
       2.9675596e-07 -0.2009483 0.022305913 8.061024e-32
000070 86 2c 89 ba 73 40 4a ba 38 39 6d 3c cd 2b fa af
       -0.001046554 -0.0007715292 0.014478974 -4.5505857e-10
000080 93 8b 4d 3d 4e 1c 89 a0 81 01 0d ad f3 2b db a4
       0.050181936 -2.3227433e-19 -8.015256e-12 -9.505056e-17
000090 1e 19 91 3d 06 70 90 a1 f3 89 44 af 2a 5b 3b a9
       0.07084869 -9.787472e-19 -1.7875106e-10 -4.1601413e-14
0000a0 8e c5 42 bc 01 19 39 3d df 5a 7d be 5a 4d c9 a9
       -0.011887921 0.04518986 -0.24741696 -8.9396115e-14
0000b0 fc d9 b6 0c 26 36 64 8f f1 82 96 ad be 36 12 bd
       2.8172735e-31 -1.12516965e-29 -1.7111175e-11 -0.035696737
0000c0 09 24 b9 98 1e 44 c8 89 03 09 9e 92 46 9a e3 93
       -4.7857765e-24 -4.8212306e-33 -9.973423e-28 -5.745498e-27
0000d0 e1 43 8e b4 ba 8a 3c 17 e6 02 2b 3d c7 ea bd b7
       -2.649895e-07 6.0921174e-25 0.04175081 -2.2639882e-05
0000e0 1b b0 35 3d aa 16 a8 a3 21 18 04 bb a0 cf de 90
       0.0443574 -1.8224195e-17 -0.0020155984 -8.788346e-29
0000f0 d1 6a 50 9f 30 e0 8a 3c a1 e6 55 a5 7f 4f 03 be
       -4.413407e-20 0.016952604 -1.8552945e-16 -0.12823294
