checkpoints/checkpoint_epoch_50.pth (torch, 314771 bytes, 30 tensors)

lstm.weight_ih_l0 f4 [256, 2]
000000 bd 0a b3 bb 03 bc 6d ba e0 63 8d be e4 5c 04 3e
       -0.0054639266 -0.00090688484 -0.2761526 0.1292606
000010 8b 4e 7b 34 39 14 46 32 a1 4a 72 39 65 61 26 bb
       2.340477e-07 1.1529715e-08 0.0002310672 -0.0025387642
000020 26 9f 59 b6 bb 1a 41 32 2d b5 0d 3d 7b 32 05 bc
       -3.2428156e-06 1.1240156e-08 0.03459661 -0.008129711
000030 c2 a2 4f bb 92 c1 8e bb 96 1b 7e 3c 78 36 a2 ba
       -0.0031682705 -0.0043565715 0.015509507 -0.0012375852
000040 f1 ab 70 3b d5 6b 82 3b cc e1 32 bb d4 5e bf b9
       0.0036723579 0.0039801397 -0.002729523 -0.0003650101
000050 6b 4d 07 b6 25 3c 95 b4 50 dc 8d bc 2f a3 31 bc
       -2.016163e-06 -2.7797174e-07 -0.017316967 -0.010842129
000060 83 3c b5 b9 01 2b da b3 df 72 96 3c ad fb 42 b8
       -0.00034568095 -1.01592384e-07 0.018365322 -4.6487596e-05
000070 85 ad 27 3a ad ef f0 b5 60 b6 b4 3c 8e 86 f3 b9
       0.0006396401 -1.7951148e-06 0.02205962 -0.00046448823
000080 16 d7 fd 33 a7 fb 78 b1 91 c8 d3 3d 6b d3 af 3c
       1.18203545e-07 -3.6231798e-09 0.103409894 0.021463117
000090 eb d7 04 bc 2e 47 99 b5 8d 32 85 b9 49 1c 27 3c
       -0.0081081195 -1.1420104e-06 -0.000254054 0.010199615
0000a0 29 45 8d 3c cf f3 3a bb 19 32 50 bb 06 6e 8c bb
       0.017244892 -0.002852667 -0.0031768142 -0.0042855768
0000b0 eb f9 03 bc 1f 4d 70 b3 58 05 42 3b 64 f8 8d b9
       -0.008055191 -5.5949496e-08 0.0029605236 -0.0002707868
0000c0 40 a6 d4 b8 e6 a8 ab b3 a8 42 7f ba 0a e1 1d b6
       -0.00010139914 -7.9935305e-08 -0.00097374106 -2.3525813e-06
0000d0 f2 41 25 bd a9 24 df 3d 43 e7 75 bd 0c e3 ef bb
       -0.040346093 0.10895664 -0.060035 -0.0073207673
0000e0 b2 28 44 b9 7d a7 c8 b9 77 3e a5 3b f4 05 0e bb
       -0.00018707177 -0.0003827176 0.005042847 -0.0021671029
0000f0 5a 39 3d bd ba 49 b4 3c 70 ee 84 39 39 b5 0c b6
       -0.046197273 0.022007812 0.00025354652 -2.0967111e-06
000100 e0 87 d8 bc d5 1e 03 bc 89 e3 95 ba cf c7 3b b6
       -0.026431978 -0.008002956 -0.0011435609 -2.7981475e-06
000110 1f 62 57 bc e3 02 8c bb de 0e 64 3e 50 ec 14 be
       -0.0131459525 -0.004272805 0.22271296 -0.14543271
000120 68 61 9f 38 ec ca e1 36 22 2b 9b 3b c9 6f ec b6
       7.599854e-05 6.7291458e-06 0.0047353664 -7.0463616e-06
000130 10 5c 2c bb 24 b9 ad 33 69 30 ee 3b c5 ee a8 39
       -0.002629999 8.089617e-08 0.0072689545 0.00032221354
000140 04 4e de 37 84 15 6d b6 c8 20 8b bc 44 1f 66 ba
       2.6500791e-05 -3.5328276e-06 -0.016983405 -0.00087784627
000150 5d 62 94 3d 09 27 ba 3b 64 98 ca 3c 01 94 1e bb
       0.07245324 0.005680923 0.024730869 -0.0024197104
000160 5e 6a 8d 3c bc 20 a2 38 fa 39 17 3c 60 bf 1c bb
       0.017262634 7.730859e-05 0.009230131 -0.002391778
000170 ba a3 d6 b3 65 1f da b2 26 67 e5 3b 1a 6e 83 ba
       -9.994933e-08 -2.5392817e-08 0.0070008216 -0.001002732
000180 1f 64 74 b8 d4 44 e7 34 c2 7c 0a bd 89 33 d0 bb
       -5.826738e-05 4.3077182e-07 -0.033810385 -0.0063537997
000190 7d da 4a bb a6 db 5f 31 c8 cf 2a bc 50 a3 0f bc
       -0.0030952983 3.2575627e-09 -0.0104255155 -0.008766964
0001a0 68 2a 02 3b 85 9a e3 b9 9f c2 6f ba 3b 50 27 b4
       0.0019861702 -0.0004341194 -0.0009146127 -1.5582275e-07
0001b0 00 23 26 3d 18 23 4e bc 32 34 d3 37 18 8f 21 b8
       0.040560722 -0.012581609 2.5177465e-05 -3.8518658e-05
0001c0 6c 16 84 3c 59 cc 15 bc 24 56 e3 3b 30 63 ba bb
       0.016123973 -0.009142959 0.006937759 -0.0056880936
0001d0 e7 8b 4f 3d 82 9e b4 3b 75 83 07 38 1b 07 78 b7
       0.05067053 0.0055120597 3.2308937e-05 -1.4783606e-05
0001e0 c5 44 93 bb fd b8 0f ba 1c 4f ec ba 1c 4c 33 31
       -0.004494282 -0.00054825825 -0.0018028948 2.6091191e-09
0001f0 f5 b8 14 bc df 62 42 bb c8 c5 e3 bb 8f 78 cf b9
       -0.0090773 -0.0029660983 -0.0069510676 -0.0003957194
000200 af 47 93 bb 4b 47 a5 ba c5 b3 d5 3e 2f 34 38 3e
       -0.0044946293 -0.0012609748 0.41738716 0.17988656
000210 b0 1e c6 31 f5 46 ed 30 de c7 20 bc 49 5f 9c ba
       5.766047e-09 1.7264187e-09 -0.009813277 -0.0011930253
000220 df 0d 79 b9 59 ee 34 31 1a b7 63 bc 6b 79 de bc
       -0.00023751658 2.6328932e-09 -0.013898635 -0.027157506
000230 8f 10 d6 bb 29 66 9a bb dc 76 07 ba 1d 50 26 3b
       -0.0065327357 -0.0047118855 -0.0005167553 0.002537734
000240 43 04 00 bd 50 47 ec 3b 37 8d 95 bb 05 55 95 b8
       -0.031254064 0.0072106495 -0.0045639533 -7.12071e-05
000250 d6 2f 16 38 f2 11 0e b3 70 90 83 bc 9d 35 8c bb
       3.5807338e-05 -3.3078273e-08 -0.016060084 -0.004278852
000260 68 08 cc 33 54 00 32 33 d3 15 e4 b9 b5 58 99 b6
       9.501019e-08 4.1444153e-08 -0.0004350381 -4.570082e-06
000270 3a e5 d7 37 a7 40 09 b6 d1 3c 26 3b 32 ec 7d ba
       2.573674e-05 -2.0452223e-06 0.002536584 -0.000968638
000280 ae 68 a6 b7 b8 ec 22 31 7b 7b 1a 3e ba 2f 81 3d
       -1.9837487e-05 2.3708662e-09 0.15086167 0.06307931
000290 84 07 c2 3a 0f b9 7c b5 3e 0c 2f be 23 d1 cc ba
       0.0014803265 -9.414661e-07 -0.17094514 -0.0015626292
0002a0 bc f5 07 bd 64 b9 25 bc ce 8d a4 bb bd 49 9b bb
       -0.033193335 -0.010115001 -0.0050217872 -0.004739015
0002b0 2a 64 ba ba f8 66 8a b3 66 7a 5f 38 ad 2e 83 b9
       -0.0014220525 -6.444856e-08 5.3281336e-05 -0.00025021043
0002c0 6b 17 84 39 8d d0 1e b4 d7 33 4c b9 4e 1a ba b6
       0.0002519445 -1.4790767e-07 -0.00019474268 -5.5462942e-06
0002d0 d6 43 6c 3e c6 1c 5a 3e 20 9c 4b bd b7 b6 87 3a
       0.23072752 0.21300039 -0.04970944 0.0010354136
0002e0 86 01 bd ba de 37 97 b9 ef e4 d3 3b 7e c6 4d bb
       -0.001442001 -0.0002884259 0.0064665 -0.0031398828
0002f0 ae fe 9c bd a6 b6 e8 3d d0 e8 18 39 00 c5 b9 b6
       -0.07665764 0.113629624 0.00014582579 -5.5363635e-06
000300 77 e4 fe bc c0 05 8a bc 60 be e6 ba d6 a6 38 b8
       -0.0311148 -0.016848445 -0.0017604344 -4.4024397e-05
000310 f7 d3 1b bc 6b b8 7e bb 3f 05 fb be 0b 4f 49 bc
       -0.009510986 -0.0038867246 -0.4902744 -0.012286912
000320 18 f3 d3 b9 18 35 d7 b6 87 89 4a 39 f9 55 7e b6
       -0.00040426175 -6.4136802e-06 0.00019315454 -3.7898992e-06
000330 dd db ad 39 81 72 e9 b3 43 2e c7 bc 25 34 6e bb
       0.00033160942 -1.0870736e-07 -0.024314051 -0.0036346999
000340 01 c8 cf 36 ce 95 52 b6 2a 09 dd 3a 89 96 07 ba
       6.1923643e-06 -3.1379636e-06 0.0016863693 -0.0005172273
000350 2c 52 1c 3d d9 ad 2a bd 57 58 a2 37 98 13 93 ba
       0.038164303 -0.0416697 1.9353041e-05 -0.0011221049
000360 c0 45 fc 3b d7 0a 82 b9 fd 84 04 3a 23 93 82 b9
       0.0076987445 -0.00024803609 0.0005055217 -0.00024905158
000370 2e 02 1b 34 24 83 b5 b2 9d 75 ac ba 4d 1c 41 ba
       1.4436293e-07 -2.1130809e-08 -0.001315761 -0.0007366583
000380 25 5b 2e b7 2b 18 91 34 02 61 79 bc 4a 48 09 bc
       -1.0392429e-05 2.702594e-07 -0.015220882 -0.008379051
000390 47 fa b8 39 93 f2 10 33 f4 83 72 bc be 30 0f bc
       0.00035281686 3.3748233e-08 -0.014801968 -0.008739648
0003a0 29 bc 17 3b 50 95 d7 b9 0f 09 bd b4 f9 b1 3a b4
       0.0023152924 -0.00041119242 -3.5210584e-07 -1.7387346e-07
0003b0 58 16 1b bd 99 c6 c9 bc 54 cf 3a b6 72 ff 14 b8
       -0.037863106 -0.024630832 -2.783684e-06 -3.552385e-05
0003c0 33 a0 83 bc 4c 73 8a bc 94 c2 57 bb 07 4b ff bb
       -0.0160676 -0.016900681 -0.0032922374 -0.0077909264
0003d0 90 8d 27 3c 76 90 12 bb 17 ae 98 37 89 b4 57 b7
       0.010226622 -0.0022363937 1.8200879e-05 -1.2857033e-05
0003e0 ff 15 29 b8 cd 72 00 ba c2 a3 f1 39 fe 77 76 31
       -4.0313225e-05 -0.0004899919 0.0004608911 3.586592e-09
0003f0 3a e0 11 bc f1 93 9c bb fe 2c 61 bc 07 8b 6b 39
       -0.008903557 -0.004778378 -0.013743637 0.00022463138

lstm.weight_hh_l0 f4 [256, 64]
000000 93 1c c8 39 2a 6a 22 3a a6 2f af b2 19 e9 11 b9
       0.00038168262 0.0006195629 -2.039435e-08 -0.00013915113
000010 9f 98 5b 34 48 c1 23 b9 a9 26 08 b9 d9 55 c6 39
       2.0451488e-07 -0.00015616894 -0.00012984373 0.00037829464
000020 b8 38 be b9 07 d5 e0 39 7d fa 3e 35 69 9d b1 39
       -0.00036281883 0.00042883327 7.1145024e-07 0.0003387735
000030 59 70 c6 b4 e9 d9 54 b7 ed 7a 78 37 2c 62 13 b9
       -3.6962118e-07 -1.2686921e-05 1.4810573e-05 -0.00014055584
000040 f0 92 de b3 d1 82 1e ba fe 93 2f b7 9a 8e b4 b9
       -1.0364408e-07 -0.0006046715 -1.046527e-05 -0.00034438522
000050 72 85 6c 39 cb 10 11 ba e5 f4 25 b6 14 69 db b7
       0.00022556426 -0.00055338134 -2.4729463e-06 -2.6155765e-05
000060 0a a7 08 b6 ba ca fa b7 f4 dd 2b bb 72 b7 2f 3a
       -2.0362809e-06 -2.9896724e-05 -0.0026224824 0.00067030557
000070 1e f8 03 39 20 93 10 38 91 45 ca ba 01 bb 94 37
       0.00012585564 3.4469296e-05 -0.0015432109 1.7730055e-05
000080 23 9e 25 ba 81 5a 98 36 ce 05 ec 39 ec 59 4e 3a
       -0.00063178147 4.540489e-06 0.00045017753 0.0007871676
000090 18 22 bb 35 b2 bd 0a b7 08 fc 4b 36 bd e2 09 3a
       1.3942508e-06 -8.269608e-06 3.0396059e-06 0.0005259922
0000a0 ad 17 98 36 e3 de e1 b8 24 3b 71 3a 5e a6 17 b8
       4.532709e-06 -0.00010770352 0.0009202233 -3.6156147e-05
0000b0 d9 a9 ef b8 a6 d3 2b 37 c7 f4 73 b5 18 05 40 b9
       -0.00011428045 1.02416725e-05 -9.088075e-07 -0.00018312444
0000c0 75 0c 89 35 ae 60 f2 39 b6 4d 1a b6 6d c9 28 b9
       1.0210921e-06 0.0004622987 -2.2993022e-06 -0.00016096765
0000d0 f2 10 b6 39 87 05 23 36 79 2a 9e 3a 1b 59 31 b7
       0.0003472637 2.429211e-06 0.0012067101 -1.0570769e-05
0000e0 7d 5a 46 3a 88 ce e3 b9 da ef c4 b9 61 4d 41 37
       0.00075665844 -0.00043450692 -0.00037562737 1.1521713e-05
0000f0 a5 ce 91 38 1c 2a bf 33 56 6a b0 39 5e 6d 07 3a
       6.952629e-05 8.90179e-08 0.00033648562 0.0005166138
000100 16 83 9f bc de 45 30 bd 0c fc 32 37 49 81 b7 ba
       -0.019471686 -0.04303538 1.0668311e-05 -0.0014000322
000110 36 34 c5 b7 39 a1 f6 bc 3e b7 56 3c 11 db 53 3c
       -2.3508543e-05 -0.030106174 0.013105212 0.0129306475
000120 e0 7e 33 3d 06 e5 a7 bc 54 d3 be b9 ca da ff bc
       0.04382217 -0.02049495 -0.00036397076 -0.031232256
000130 c5 f0 e1 b7 7a d4 27 bb b4 7a 85 ba 18 9f 81 3c
       -2.6934207e-05 -0.0025608824 -0.0010183663 0.015822932
000140 1e 15 2f 37 f4 01 08 bb 64 f7 13 3a 1c d2 10 3c
       1.043573e-05 -0.0020753117 0.0005644469 0.0088391565
000150 e3 9e 4a bd 47 88 00 3d 61 ac 66 39 76 01 03 3b
       -0.049467932 0.031379964 0.00021998725 0.0019989884
000160 22 d6 ab 39 32 1c 20 3b 04 25 74 3c f5 e5 2b bc
       0.00032775203 0.0024430868 0.014901403 -0.010491838
000170 71 49 21 bc 57 be d3 bb 2b 3c 59 bb ef ca 4b b9
       -0.00984417 -0.0064618993 -0.0033147435 -0.00019435187
000180 2e 51 cf 3a 7c 66 2b 3b a8 fa b0 bc 81 21 c7 bc
       0.001581704 0.0026153615 -0.021603897 -0.024307968
000190 ef 4b e0 b8 f4 d8 25 ba 42 a0 69 b9 97 8b 29 bd
       -0.00010695296 -0.0006326579 -0.00022280312 -0.04139289
0001a0 12 7c 94 b9 99 7b 94 3a 53 5f b1 3b 02 98 8b bb
       -0.000283212 0.0011328339 0.005412975 -0.004260064
0001b0 1d 73 5d 3c c1 3b f2 bb 8b 03 d3 38 87 e8 c4 3b
       0.013516215 -0.007392377 0.00010061924 0.0060091647
0001c0 a2 38 6a b9 00 aa 85 bd a4 9f 2f 39 e1 a8 3e 3c
       -0.00022337076 -0.065265656 0.00016748771 0.011636944
0001d0 61 3e af bc 48 70 02 b9 ed 84 87 bd 90 d2 5f 3a
       -0.02139205 -0.00012439594 -0.066171505 0.0008538151
0001e0 ef 2d ad bc d5 52 10 3d e9 7e cb bb 38 37 f9 ba
       -0.021140067 0.035235245 -0.006210197 -0.0019013649
0001f0 fa 82 ac bc 7d b7 6a b6 7c 5f d5 bc 9b 85 ea bc
       -0.021058548 -3.4975521e-06 -0.026046507 -0.028628161
000200 3a 90 58 af a3 72 21 31 6d 38 e5 ad 4a 83 11 31
       -1.9696325e-10 2.3493747e-09 -2.6059344e-11 2.1174906e-09
000210 a7 51 20 b0 f2 52 04 30 c0 c8 cd 2f d2 09 1a 30
       -5.8323696e-10 4.813919e-10 3.7431924e-10 5.603883e-10
000220 ad 52 21 ae 4a b3 0f b0 01 2b 48 ae ed 43 82 2f
       -3.6680593e-11 -5.227788e-10 -4.551293e-11 2.3695126e-10
000230 ed 0b 1f 2f 13 3e 07 30 30 2d 4f b0 aa 7a 1e b1
       1.4465203e-10 4.9200927e-10 -7.5370377e-10 -2.3061753e-09
000240 7b 4a 6d af 2d 9f d6 30 2b a3 c4 af cc 3b d4 af
       -2.1581485e-10 1.561579e-09 -3.576813e-10 -3.8605064e-10
000250 01 d8 b7 b0 97 a3 68 2d de 80 06 30 11 9d 51 af
       -1.3376394e-09 1.3223997e-11 4.893205e-10 -1.906424e-10
000260 79 e2 d2 ae 70 10 61 2f dd 99 10 31 c0 14 42 30
       -9.589924e-11 2.046947e-10 2.104222e-09 7.0606276e-10
000270 7c 54 22 30 75 a8 4e af 50 f2 87 b0 d3 59 12 2f
       5.9055316e-10 -1.8795439e-10 -9.891412e-10 1.3310535e-10
000280 94 82 d3 2f 72 65 28 b1 4d 77 df 30 62 9f 0c b0
       3.8473458e-10 -2.4504883e-09 1.6259293e-09 -5.11582e-10
000290 69 2e 32 2f 10 02 11 b0 6f 54 0d 30 bc af fd 30
       1.6205494e-10 -5.2753624e-10 5.141549e-10 1.845812e-09
0002a0 c6 d3 87 2e b7 c5 80 b0 f0 e5 02 31 b2 f9 0f 30
       6.176708e-11 -9.36942e-10 1.9048194e-09 5.2377935e-10
0002b0 9e 2e 99 30 d2 0d 02 b0 55 b9 1d 30 05 df 45 ae
       1.1145465e-09 -4.7313364e-10 5.737964e-10 -4.4990695e-11
0002c0 cb 51 9d 2e d2 e7 e6 2f fc 4d 54 2f 75 cf 9b 2f
       7.154063e-11 4.2001475e-10 1.9308993e-10 2.8341743e-10
0002d0 1d fa 68 b0 13 ae cd 2f 09 ae a0 30 b6 58 86 af
       -8.475654e-10 3.741297e-10 1.1690996e-09 -2.443749e-10
0002e0 3c 8f 74 30 dc 6f ca b0 ac 8f 2c 30 b8 a8 98 2d
       8.897023e-10 -1.4729227e-09 6.2777405e-10 1.7355326e-11
0002f0 d5 5e b2 ae d1 53 bb af b0 80 a2 30 f1 35 f7 b0
       -8.1113484e-11 -3.4074657e-10 1.1823627e-09 -1.7986946e-09
000300 a6 40 71 36 84 29 e1 ba e4 3a 1a b4 af 6f 8f 38
       3.5949429e-06 -0.001717851 -1.4363792e-07 6.839574e-05
000310 90 00 f5 34 bb 2a 83 3a 58 4d 8d b6 ae 0c 05 3a
       4.5635215e-07 0.0010007242 -4.2111315e-06 0.0005075437
000320 67 db 00 3a ab 01 03 b8 05 b6 12 b6 77 94 7f 39
       0.0004915506 -3.1234387e-05 -2.1861645e-06 0.00024374003
000330 5a fd e3 b5 72 5a 58 b7 92 12 e0 b5 e4 3b 7f 39
       -1.6986553e-06 -1.2895662e-05 -1.6694705e-06 0.00024341006
000340 f8 50 9e b3 e7 b8 8e b8 cc 80 d8 b5 c7 d1 24 3a
       -7.3721765e-08 -6.8055284e-05 -1.6130739e-06 0.0006287363
000350 2f 70 36 b9 f3 61 84 b9 83 98 4d 36 ac 62 10 b9
       -0.00017398664 -0.0002524998 3.0636154e-06 -0.00013769668
000360 4d d3 eb b5 88 5d 3f b6 0f 29 63 3a 08 ec 63 39
       -1.7570361e-06 -2.851566e-06 0.0008665481 0.00021736335
000370 52 c7 b7 b8 2f 01 35 b9 85 5a a4 3a 4d 1d 88 b7
       -8.763246e-05 -0.00017261946 0.0012539184 -1.6226108e-05
000380 9f cc 33 3a 7b 25 76 38 0a b4 82 b8 6e dc a7 3a
       0.0006858799 5.8685877e-05 -6.232418e-05 0.0012806782
000390 b2 4e 95 b6 a1 76 8f 37 11 99 e9 b5 e6 fa 0e b9
       -4.4497074e-06 1.710217e-05 -1.7404401e-06 -0.00013635642
0003a0 06 e7 a8 35 05 c7 da b9 33 a5 0e bb 46 f1 c6 39
       1.2584212e-06 -0.0004172848 -0.0021765947 0.00037945266
0003b0 07 56 82 b9 fc c3 96 38 65 14 0c b6 61 dc 78 b9
       -0.00024859628 7.189062e-05 -2.0873497e-06 -0.0002373322
0003c0 1d 13 4f 36 ff 29 32 3a 69 48 53 35 9c ce 8f b9
       3.085653e-06 0.0006796419 7.8708996e-07 -0.0002742902
0003d0 e2 61 bf b9 32 4c 8f b5 f0 2a f6 39 bc d0 0f b7
       -0.00036503287 -1.0676506e-06 0.00046952767 -8.572064e-06
0003e0 2d a4 eb b8 57 42 65 b9 2b 98 e4 38 8e da 0a b6
       -0.00011236253 -0.00021863855 0.00010900231 -2.0690818e-06
0003f0 21 f1 e8 b8 c3 6c 75 33 2f 68 15 b8 3f 55 ce 39
       -0.00011107536 5.7142426e-08 -3.5621397e-05 0.00039354895

lstm.bias_ih_l0 f4 [256]
000000 08 84 58 bb 84 e3 da 3c 4e 9d 81 b2 24 52 a5 ba
       -0.003303768 0.026719816 -1.508911e-08 -0.0012612981
000010 b2 61 64 32 57 b3 67 bc 57 0a dc bb 1d ff a2 bb
       1.329356e-08 -0.014141879 -0.0067151 -0.0049742595
000020 f6 78 42 ba 5b bb 12 bb ae 26 3f 34 88 8c 81 bc
       -0.0007418537 -0.0022389505 1.7802333e-07 -0.01581408
000030 84 7f b1 33 d6 2c 56 b9 7f bc dd b7 7c 3b 15 ba
       8.2654e-08 -0.00020425333 -2.6433028e-05 -0.0005692763
000040 66 60 3c b1 6a c0 05 3c f1 e6 42 b6 bb c7 b4 3c
       -2.7412397e-09 0.008163551 -2.9042678e-06 0.022067895
000050 b3 4f 93 bc 87 29 74 bc d5 41 17 b4 37 63 27 ba
       -0.01798234 -0.014902479 -1.408692e-07 -0.00063853286
000060 09 8a 8e b4 f0 4e 53 b7 09 ec ca 3d 7c 56 52 bc
       -2.6549995e-07 -1.2594959e-05 0.099083014 -0.012838002
000070 13 f1 64 ba d4 d7 cb bb 5e cb bc 3d 7d fc 20 b7
       -0.00087334326 -0.006220797 0.09218477 -9.59553e-06
000080 d6 3a c5 bc fc 56 3a 38 27 0c 15 bc 0d 71 96 bc
       -0.024075907 4.4426866e-05 -0.009097136 -0.018364454
000090 cb 46 3f 36 56 0a c0 b7 0c 2e 39 b4 b1 a7 db bb
       2.8502425e-06 -2.2892997e-05 -1.724622e-07 -0.00670334
0000a0 9d cc f3 b6 21 60 7a bb 42 3c e3 3b 7a 6a 97 3b
       -7.2657845e-06 -0.003820427 0.0069346735 0.0046208473
0000b0 3e 03 15 bb 1d 10 ea ba 2a 18 48 b4 19 65 9d bb
       -0.0022737528 -0.0017857585 -1.8635242e-07 -0.0048033115
0000c0 40 ba b2 34 3b ba 2b bc cf f2 16 b4 9b 29 3b bc
       3.3290598e-07 -0.0104814125 -1.4058172e-07 -0.011423494
0000d0 3a 97 08 bb 78 a7 01 b4 ee 21 6b bb c2 10 99 b8
       -0.0020842091 -1.2074986e-07 -0.0035878378 -7.29873e-05
0000e0 90 18 cf bc d4 e3 32 bc 90 c8 95 bb 5a bb d4 b7
       -0.025280267 -0.010918576 -0.004571028 -2.5359612e-05
0000f0 e8 86 5f ba 40 5b a1 af 71 31 36 b9 37 1a 69 bc
       -0.00085268775 -2.9350566e-10 -0.00017375291 -0.0142274415
000100 53 34 4a bb 93 a6 0e 3e 5a 4a 23 31 f2 66 4b 39
       -0.0030853942 0.1393073 2.3761886e-09 0.00019397939
000110 f3 78 88 32 33 e9 89 bc 32 bd da bb 62 b4 b1 bb
       1.5887485e-08 -0.01683483 -0.006675386 -0.0054231146
000120 4c cb ba bb a0 06 aa ba b3 82 5d b3 d4 19 59 bc
       -0.0057005044 -0.0012971945 -5.1574442e-08 -0.013250787
000130 9f 60 fe 33 c0 e7 13 b9 8c 3d d9 b7 bc 14 28 ba
       1.1845372e-07 -0.00014105346 -2.5897076e-05 -0.0006411781
000140 8a e1 20 b2 25 7d 85 3d 2d 04 1d b6 46 4b da 3c
       -9.364507e-09 0.0651801 -2.3397254e-06 0.026647221
000150 01 a0 cb bc e3 4f 84 bc 4e c2 b6 b4 87 36 1d ba
       -0.02485657 -0.016151374 -3.4041517e-07 -0.00059972
000160 39 ec 0a b5 31 c4 ac b7 38 df 84 3e 28 ff 35 bc
       -5.1752755e-07 -2.0595357e-05 0.25951552 -0.011108197
000170 b8 aa 87 ba 9e 87 cf bb ad d6 cb 3e 47 d0 68 36
       -0.0010350561 -0.0063333055 0.39812222 3.4691927e-06
000180 dd ec cf bc b4 61 b5 b8 5a 6b 0f bc 48 84 36 3e
       -0.0253815 -8.648951e-05 -0.008753622 0.17823899
000190 66 f8 8c b5 5f f1 85 b7 dd b3 8a b4 5a 79 92 bb
       -1.0503106e-06 -1.5967233e-05 -2.583537e-07 -0.0044700326
0001a0 69 ca d4 b6 55 f9 25 bb d0 0e 32 bd 7c f4 32 3b
       -6.341656e-06 -0.0025325615 -0.043471158 0.0027306369
0001b0 bb 15 3b bb d4 21 0f bb da 27 51 b4 d0 72 93 bb
       -0.0028546888 -0.0021840231 -1.947914e-07 -0.0044997707
0001c0 9a 72 01 35 2c b0 1d bc 7b 44 ca b3 aa f7 3e bc
       4.822301e-07 -0.009624522 -9.4188145e-08 -0.011655727
0001d0 ff 23 13 bb ef 25 1b b4 b8 18 51 bc e9 3b 9c b8
       -0.0022451875 -1.44493e-07 -0.012762241 -7.449819e-05
0001e0 4a 08 09 bd 43 5a 3a bc a6 4a 7f bc d3 2d c4 b7
       -0.03345517 -0.011374059 -0.015581762 -2.338636e-05
0001f0 1c 3b 58 ba 51 9d 71 30 c9 fb 1f ba ca be 81 bc
       -0.0008248554 8.789885e-10 -0.00061028876 -0.015838046
000200 87 fe 25 bc a9 b2 d8 3d 63 2b f4 35 39 fa 4a bc
       -0.010131485 0.10580952 1.8192044e-06 -0.012388759
000210 40 be 97 b7 29 ff a8 bc ac 78 9c 3a 00 4a a1 3b
       -1.8089195e-05 -0.020629482 0.0011937818 0.0049221516
000220 f5 a5 ec bb a7 c0 37 bb 8f c1 01 b9 d6 1b fb bc
       -0.007221932 -0.0028038414 -0.00012374505 -0.030652922
000230 71 9f a1 b7 42 45 a5 ba 9c 3a 99 38 6e 8c 54 bb
       -1.9266941e-05 -0.0012609141 7.3065254e-05 -0.0032432335
000240 b4 0b 4f 36 f3 cc 89 bb eb 48 06 3a 39 c8 ba 3c
       3.0852216e-06 -0.00420534 0.000512256 0.022800552
000250 d9 4d 7f 3c e1 0a 84 3c bf d7 92 35 af 3c 7a 3b
       0.015582525 0.016118469 1.0940638e-06 0.0038183143
000260 71 92 24 38 e8 8c 87 38 74 91 0e be 7a 48 0d bd
       3.923703e-05 6.4635475e-05 -0.13922673 -0.034492947
000270 f7 9a 67 bb 7c a7 9c 3a 7d ba 87 bd f6 a2 c9 39
       -0.003534017 0.001195177 -0.06627367 0.00038459123
000280 9a 38 04 3d 6e 2b e0 39 9c 84 6c bc e4 63 46 3e
       0.032280542 0.00042756967 -0.014435913 0.19374043
000290 b0 03 45 39 88 1f 06 ba b9 33 ae b7 40 34 bf 39
       0.00018788758 -0.0005116393 -2.0766502e-05 0.00036469288
0002a0 55 95 f5 b9 e7 49 9a 3c f5 19 66 3c a3 50 3d bb
       -0.00046841303 0.018834068 0.014044275 -0.0028887175
0002b0 f5 ec 6c 3b 75 2b c3 3c 1d 92 17 38 05 76 5c ba
       0.003615198 0.023824433 3.6137284e-05 -0.000840992
0002c0 b0 bd 79 b8 f7 69 90 bc 30 bf 44 b8 7b 0f f2 3c
       -5.9542886e-05 -0.017628653 -4.69081e-05 0.029548397
0002d0 29 3a 7f 39 fa f7 96 38 a3 2e 47 bd 47 78 94 3a
       0.00024340361 7.1987466e-05 -0.04862846 0.0011327349
0002e0 1b 33 a2 b9 a1 11 8d 3c 3c 3c 42 bb 0c c7 46 ba
       -0.00030937124 0.01722032 -0.0029637953 -0.0007582761
0002f0 fe e1 64 3b c5 0c 01 37 3a 09 76 bb a4 c5 f5 bb
       0.003492474 7.691972e-06 -0.003754212 -0.0075003672
000300 b8 de 4e bb ca 13 57 3d e2 8f 6c b1 71 27 fc ba
       -0.0031565856 0.052509107 -3.4424308e-09 -0.0019237829
000310 2d 64 98 32 6f 9d e4 bc d8 32 d1 bb ae 3a 37 bb
       1.7740684e-08 -0.027907101 -0.006384235 -0.002795856
000320 46 fd 9b bc 94 a3 82 bb a5 1c 29 b4 ff e3 96 bc
       -0.019041669 -0.003986785 -1.5749772e-07 -0.018419264
000330 9e 3a 76 34 df 40 74 b9 cc c4 96 b7 89 2b c6 ba
       2.293186e-07 -0.0002329382 -1.7973034e-05 -0.0015119176
000340 4d de 48 31 e5 c4 41 3a c6 b8 77 b6 39 fe c3 3c
       2.9230194e-09 0.00073917053 -3.691342e-06 0.023924934
000350 25 33 15 bd 18 75 7c bc 0f b1 55 b3 76 f7 15 ba
       -0.03642573 -0.015408777 -4.975396e-08 -0.00057207735
000360 b7 cb 10 b5 68 58 9d b7 8d 01 d2 3d 2c 36 8b bc
       -5.3940624e-07 -1.8757026e-05 0.10254202 -0.016993605
000370 1c 66 4c ba 38 33 c1 bb 3a 87 40 3e 10 b7 9a b7
       -0.0007797198 -0.0058959983 0.18801585 -1.8443476e-05
000380 4f 41 2e bd 75 a3 9c b8 08 ea 0f bc 17 21 51 3d
       -0.042542752 -7.469106e-05 -0.008783825 0.051056948
000390 51 d5 46 35 2d a1 e4 b7 76 2e e1 b3 21 0f 3a bc
       7.4071164e-07 -2.7254771e-05 -1.048583e-07 -0.011356146
0003a0 37 7b f4 b6 94 2d 2a bb 5f 14 fc bb 57 38 64 ba
       -7.2861108e-06 -0.0025967108 -0.007692858 -0.0008705905
0003b0 16 a7 7c ba d5 cb 2d bb 02 fc 59 b4 35 bc 87 bb
       -0.0009637935 -0.0026519198 -2.030138e-07 -0.004142309
0003c0 3a bd 4e b4 e9 d9 41 bc b0 34 95 b4 01 98 54 bc
       -1.9254085e-07 -0.011831739 -2.7791748e-07 -0.012975694
0003d0 08 6e 05 bb af 0c 4c b4 09 c4 5d bc f5 09 90 b8
       -0.0020359773 -1.9003595e-07 -0.013535508 -6.86831e-05
0003e0 33 98 fb bc 4e 81 16 bc 4b 31 a5 bc cc b2 cf b7
       -0.030712223 -0.009186102 -0.020165106 -2.4759582e-05
0003f0 ff 8a 78 ba af b8 48 b1 7b df f2 3a 77 5b 84 bc
       -0.0009481161 -2.920881e-09 0.0018529737 -0.016156895

lstm.bias_hh_l0 f4 [256]
000000 a3 7e 56 bb e7 e9 da 3c 3f de 57 b2 f1 7a 9b ba
       -0.003272929 0.026722861 -1.256518e-08 -0.0011862201
000010 75 14 51 32 26 92 67 bc fa 22 dc bb 43 16 aa bb
       1.21700525e-08 -0.014133966 -0.0067180367 -0.005190642
000020 fa ba 8e ba bf 4b 3c bb 8e 3e 3e 34 36 9f 7f bc
       -0.0010889464 -0.0028731672 1.7717886e-07 -0.015601924
000030 65 a1 da 33 86 ee 55 b9 7f 93 d9 b7 7e 8b 14 ba
       1.01807736e-07 -0.0002040212 -2.5937099e-05 -0.0005666538
000040 47 af 3b b1 40 c2 05 3c 43 87 41 b6 a1 66 b6 3c
       -2.7311715e-09 0.008163989 -2.8837974e-06 0.022265734
000050 ec cf 93 bc e3 78 73 bc 7a 38 02 b4 92 ee 27 ba
       -0.01804348 -0.014860365 -1.212774e-07 -0.0006406094
000060 1e 8d 8e b4 de 46 4d b7 05 eb ca 3d a2 ca 56 bc
       -2.6552237e-07 -1.2235452e-05 0.09908108 -0.013109835
000070 55 20 66 ba ef d7 cb bb 2b cb bc 3d 16 02 6d b7
       -0.00087786216 -0.0062208096 0.09218439 -1.41267865e-05
000080 a1 db c4 bc 34 cc 16 38 06 79 14 bc fb 5c 96 bc
       -0.024030508 3.5952966e-05 -0.009062057 -0.018354883
000090 82 4e 2a 36 f8 fc c0 b7 2f e9 36 b4 4f 7a de bb
       2.5377672e-06 -2.3005981e-05 -1.7034903e-07 -0.0067894827
0000a0 dc e7 f4 b6 59 84 79 bb 10 d9 e3 3b cb ed 97 3b
       -7.2987586e-06 -0.003807327 0.006953366 0.0046365014
0000b0 82 0d 0d bb 52 09 ea ba 9c eb 34 b4 9e 3d 9f bb
       -0.0021522944 -0.0017855561 -1.684952e-07 -0.0048596403
0000c0 a9 9e ab 34 5f 02 23 bc dd 2a 15 b4 51 44 3b bc
       3.1966673e-07 -0.009949296 -1.38923e-07 -0.011429862
0000d0 40 51 07 bb 5c 83 03 b4 57 82 6b bb fd c5 97 b8
       -0.0020647794 -1.2248114e-07 -0.0035935843 -7.237119e-05
0000e0 74 ad ce bc cb ae 30 bc 84 50 a0 bb 2a 75 da b7
       -0.025229193 -0.010783861 -0.0048924107 -2.6042184e-05
0000f0 bd ea 62 ba bc 76 a8 af 47 cf 2d b8 04 13 69 bc
       -0.00086561945 -3.0643388e-10 -4.1439456e-05 -0.014225725
000100 f2 9a 48 bb 83 a6 0e 3e 79 27 2b 31 33 20 52 39
       -0.0030609933 0.13930707 2.4906213e-09 0.00020039156
000110 53 ca 53 32 39 7c 87 bc 15 bf da bb b7 fa c0 bb
       1.232782e-08 -0.016538726 -0.006675611 -0.0058892625
000120 d2 e7 63 bb 69 86 d5 ba 76 aa 6a b3 a6 f7 57 bc
       -0.0034775627 -0.0016290668 -5.4637404e-08 -0.013181603
000130 6c 27 fd 33 52 fc 13 b9 65 80 da b7 49 31 2a ba
       1.17884014e-07 -0.00014113009 -2.6047413e-05 -0.00064923294
000140 cf 5b 23 b2 b3 7d 85 3d 82 52 1f b6 bf 4e da 3c
       -9.508724e-09 0.06518116 -2.3740872e-06 0.026648877
000150 d7 8e cb bc 4b 17 85 bc 72 c2 b6 b4 8a 39 1d ba
       -0.024848385 -0.016246459 -3.404162e-07 -0.00059976487
000160 0d 3f 0a b5 79 6c ad b7 bd df 84 3e 65 3f 41 bc
       -5.1500757e-07 -2.0673719e-05 0.2595195 -0.0117949
000170 d8 6f 87 ba 1c c6 ce bb 77 d7 cb 3e a8 ab 63 b6
       -0.0010333015 -0.0063102376 0.39812824 -3.3925553e-06
000180 c6 ff dc bc 62 48 b1 b8 fc 75 0f bc e7 83 36 3e
       -0.026977431 -8.4535e-05 -0.008756157 0.17823754
000190 32 26 39 35 83 37 86 b7 3f bf 88 b4 48 97 9a bb
       6.897345e-07 -1.5999894e-05 -2.5471124e-07 -0.004717741
0001a0 0f 82 d9 b6 86 c9 1e bb 80 0d 32 bd 59 73 33 3b
       -6.4822448e-06 -0.0024229004 -0.043469906 0.0027381985
0001b0 44 d0 3a bb 3e 6a 0f bb 89 20 63 b4 48 f9 92 bb
       -0.0028505484 -0.0021883394 -2.1152859e-07 -0.004485283
0001c0 db b3 05 35 3e ae 1e bc dc 79 c6 b3 cb 5a 3f bc
       4.9808085e-07 -0.009685097 -9.2422596e-08 -0.011679362
0001d0 18 26 13 bb 24 3a 1f b4 da 13 54 bc b1 52 9d b8
       -0.0022453126 -1.482918e-07 -0.012944186 -7.501746e-05
0001e0 f8 27 08 bd b5 60 38 bc 5d c1 7c bc c3 ca c4 b7
       -0.033241242 -0.0112535255 -0.015426961 -2.3459439e-05
0001f0 e6 ce 58 ba 89 69 8d 30 22 a8 83 ba 2c 50 83 bc
       -0.00082705764 1.0289095e-09 -0.0010044614 -0.01602944
000200 21 41 26 bc cf 43 d3 3d 89 31 f3 35 72 fa 4a bc
       -0.010147364 0.10315668 1.8119327e-06 -0.012388812
000210 3f 41 99 b7 48 00 a9 bc 2a 2f 9f 3a a5 3e a1 3b
       -1.8269404e-05 -0.020630017 0.0012144793 0.004920798
000220 08 5a ed bb 4e 24 37 bb 17 8f 01 b9 bd b1 fb bc
       -0.0072433986 -0.0027945223 -0.00012355704 -0.0307244
000230 a0 75 a1 b7 26 43 a5 ba 3f 14 9d 38 86 c2 54 bb
       -1.9247469e-05 -0.0012608513 7.4901145e-05 -0.0032464578
000240 2e a5 87 36 63 76 ce bb 32 45 06 3a f3 68 05 3d
       4.042543e-06 -0.006300734 0.0005122005 0.03257079
000250 ed 8b 7f 3c d5 09 84 3c 11 0b 93 35 50 69 7a 3b
       0.015597326 0.01611797 1.0955574e-06 0.0038209744
000260 38 5f 24 38 de 81 87 38 be a8 09 be ac 55 0d bd
       3.9189326e-05 6.461491e-05 -0.13443276 -0.03450553
000270 d8 44 67 bb fd 53 9c 3a cf c9 85 bd f0 ca cb 39
       -0.0035288837 0.0011926886 -0.065326326 0.00038870377
000280 12 12 04 3d 09 ec e1 39 8f 27 6c bc b6 ca 54 3e
       0.032243796 0.00043091204 -0.014413728 0.20780453
000290 25 87 be 39 24 24 06 ba e6 39 ae b7 0d 7f c3 39
       0.00036340315 -0.00051170797 -2.0769377e-05 0.0003728796
0002a0 d0 f4 f6 b9 43 dc 9a 3c 3f b0 a4 3c 8a a1 3c bb
       -0.00047103176 0.018903857 0.020103572 -0.0028782808
0002b0 e1 21 6d 3b 90 06 c4 3c cb bd 17 38 35 c4 5c ba
       0.0036183523 0.02392891 3.6177964e-05 -0.0008421571
0002c0 40 4a 79 b8 b0 54 90 bc e7 75 44 b8 b8 d8 f2 3c
       -5.9435377e-05 -0.017618507 -4.6839847e-05 0.029644355
0002d0 2d 05 7f 39 a7 b5 96 38 75 1e 47 bd de 83 94 3a
       0.00024320623 7.186393e-05 -0.04861303 0.0011330803
0002e0 99 bf 9c b9 e3 2a 8c 3c 5e 46 42 bb 4c 95 47 ba
       -0.0002989739 0.017110294 -0.0029643993 -0.00076134945
0002f0 44 13 66 3b 7a 3d 97 b5 68 fb 75 bb 3e cc f5 bb
       0.0035106698 -1.1268269e-06 -0.0037533883 -0.007501154
000300 b1 09 53 bb c0 13 57 3d 7a 9a 6c b1 53 f5 f2 ba
       -0.0032201821 0.05250907 -3.443033e-09 -0.0018536247
000310 5d 44 9b 32 c4 c9 e4 bc 92 bc d1 bb 35 67 39 bb
       1.8075463e-08 -0.02792824 -0.006400653 -0.0028290276
000320 61 d1 9b bc 6f 96 82 bb a3 ad 22 b4 6c c4 9a bc
       -0.019020738 -0.0039852182 -1.5150594e-07 -0.01889249
000330 01 9a 76 34 62 4d 74 b9 24 a8 96 b7 96 0a c6 ba
       2.2966562e-07 -0.0002329848 -1.795969e-05 -0.0015109356
000340 6d 6e 4b 31 bb b9 41 3a 0e ec 74 b6 cb 22 c4 3c
       2.9603158e-09 0.0007390042 -3.6496235e-06 0.023942372
000350 e7 32 14 bd f6 28 7f bc ac ea 51 b3 3f 83 15 ba
       -0.036181357 -0.015573731 -4.8875037e-08 -0.0005703456
000360 2f cc 10 b5 5e 3c 9d b7 e8 02 d2 3d c1 39 8a bc
       -5.3941307e-07 -1.874397e-05 0.102544606 -0.016873242
000370 2b bd 4e ba 57 63 be bb 80 92 40 3e b4 fa a0 b7
       -0.00078864646 -0.005810182 0.18805885 -1.9190229e-05
000380 94 db 31 bd d0 84 9f b8 be fb 11 bc 87 20 51 3d
       -0.043422297 -7.606449e-05 -0.008910118 0.05105641
000390 69 bf 17 35 30 a5 e4 b7 6a 8d e4 b3 d7 63 3a bc
       5.653042e-07 -2.725664e-05 -1.06428004e-07 -0.011376343
0003a0 dc 07 f5 b6 a9 b1 29 bb 9e 00 fc bb 65 d2 4e ba
       -7.302484e-06 -0.0025893247 -0.0076905033 -0.00078896276
0003b0 e7 f2 7b ba 37 4c 2d bb 9f 26 59 b4 33 e2 85 bb
       -0.00096110854 -0.0026443133 -2.022375e-07 -0.004085803
0003c0 cf 6e 5c b4 bc 36 47 bc 85 2f 95 b4 01 6a 4f bc
       -2.0529409e-07 -0.012159046 -2.7787988e-07 -0.012659551
0003d0 5f e1 04 bb d0 4e 4c b4 23 42 60 bc 96 5b 8e b8
       -0.0020275933 -1.9027652e-07 -0.013687643 -6.788147e-05
0003e0 27 6e fb bc f9 5e 18 bc 88 31 a5 bc cf 17 d2 b7
       -0.030692173 -0.009299987 -0.02016522 -2.5045038e-05
0003f0 9f 2e 77 ba b0 45 47 b1 17 03 ca 3a 0f 37 84 bc
       -0.00094292493 -2.8997924e-09 0.0015412298 -0.016139535

fc.weight f4 [50, 64]
000000 89 97 92 3b c3 3f 75 3d 5e 7b eb b6 6e a5 94 3c
       0.004473631 0.05987526 -7.0179076e-06 0.01814529
000010 0e fb f4 b7 1d d9 e9 3c 10 7b 8d 3b 3a 9c 58 3b
       -2.9203973e-05 0.02854591 0.0043176487 0.0033052103
000020 b7 07 41 3d 61 60 71 3b 49 88 2c b7 1f 52 11 3b
       0.047126498 0.0036831128 -1.028373e-05 0.0022174192
000030 7d f3 5f b8 b8 e2 70 3b fa 34 91 39 7d 87 1a bc
       -5.339411e-05 0.0036756229 0.00027696026 -0.009431717
000040 51 32 12 37 5b 97 06 3d e9 ca 80 b9 36 e0 27 bd
       8.713993e-06 0.032859188 -0.00024565242 -0.04098531
000050 e7 a7 44 3b a3 6e ec bb 68 e1 88 b8 99 0d 11 bb
       0.0030007304 -0.0072153374 -6.5269705e-05 -0.002213335
000060 ce 21 55 b8 da 0c 62 39 dc ce f5 3c 31 30 63 bb
       -5.081464e-05 0.00021557827 0.030005865 -0.0034666175
000070 3b b1 76 ba 7b e6 1c 3c 36 a9 a2 3d fb 09 9c b9
       -0.00094105647 0.009576435 0.07942431 -0.00029762075
000080 0d 4e 77 3c 6d a3 25 bb 71 a3 03 3c 22 83 56 bc
       0.015094292 -0.0025274411 0.008034573 -0.013092788
000090 e5 de e8 b9 1e 75 c0 3a d1 06 38 37 90 d4 2b 3c
       -0.00044416558 0.0014683341 1.0968842e-05 0.010487691
0000a0 14 8f 17 ba d8 55 83 bb 06 ae 0d 3d 85 86 3e 3b
       -0.0005781513 -0.004008036 0.03458979 0.002907188
0000b0 cf 72 f0 bb 55 44 0c 3a 44 81 34 b8 6c 70 0f bc
       -0.007337905 0.00053507584 -4.3035732e-05 -0.008754831
0000c0 af 0d 93 38 35 e1 bf bb f8 58 b5 b7 d1 e7 af ba
       7.012055e-05 -0.005855704 -2.161831e-05 -0.0013420527
0000d0 59 e3 6e bb 73 47 99 b7 ea 41 e5 ba ff 2f e0 3a
       -0.0036451428 -1.8272292e-05 -0.0017490957 0.0017104148
0000e0 96 6f 1e 3c 22 f9 c3 bb 19 0c be bc 49 73 57 38
       0.009670159 -0.0059806267 -0.023199128 5.1367362e-05
0000f0 46 19 cc 3a 0a 43 16 b7 f2 d7 e4 3b b4 2d c6 3b
       0.0015571497 -8.9563055e-06 0.0069837505 0.0060479287
000100 72 ef 09 3c 01 25 c7 bd b2 e9 d7 36 bd 07 86 bb
       0.008418905 -0.09723855 6.434705e-06 -0.004090278
000110 2e 90 31 37 23 33 72 3b bc 5a 9a 3b b4 52 51 bc
       1.0583592e-05 0.003695675 0.0047105234 -0.012776066
000120 e0 36 02 bc 83 55 88 3c f1 2f 73 b7 4a d1 ab 3c
       -0.0079476535 0.016642338 -1.4495091e-05 0.02097382
000130 52 b1 8b b8 d2 7a 3a bb 3f 99 a0 3a 1b 3b 21 bc
       -6.661065e-05 -0.0028454554 0.0012252702 -0.009840752
000140 9f 47 02 37 e7 23 19 3c 25 2a 07 ba 4d de 32 3c
       7.765279e-06 0.009346939 -0.00051561213 0.010917258
000150 16 b7 19 3b 4c f8 ae bc 8b de 08 b9 35 ca 35 3b
       0.0023455075 -0.021358632 -0.00013052874 0.0027738933
000160 fc 51 0a b9 e0 0f 96 ba 91 b9 e3 bc f7 ab f9 3c
       -0.00013191247 -0.0011448823 -0.027798446 0.030477507
000170 84 51 e9 3b 12 4d 4e 3c 72 ed 47 bd 7c 3f a2 38
       0.007120313 0.012591617 -0.04881043 7.736587e-05
000180 c1 54 88 bc af c1 5e bb ac 97 6c 3c b8 02 a3 3c
       -0.016641976 -0.0033989956 0.014440458 0.019898757
000190 99 cb 8a 39 d8 e1 2f ba 42 4d b2 38 df 85 8e 3c
       0.00026473103 -0.00067093736 8.502092e-05 0.01739782
0001a0 32 81 f0 b9 d5 61 83 3b 22 3d 77 bd a2 a9 67 3b
       -0.00045872625 0.004009465 -0.060361035 0.0035348912
0001b0 99 a0 cb 3a ea 3a 4f b9 8b 17 0d b8 63 61 4c bc
       0.0015535533 -0.00019763006 -3.3638946e-05 -0.012474391
0001c0 9f cf 82 b8 5b b8 db 3c 22 41 be b8 4a c6 98 bc
       -6.2375555e-05 0.026821306 -9.072038e-05 -0.01864924
0001d0 3c a3 81 3c 58 bd 78 38 e8 e4 a5 3c 44 8a a0 3a
       0.015824907 5.9304148e-05 0.020250753 0.0012248238
0001e0 4c 78 14 3c 0c 28 a0 bc 03 9d 31 bc 17 0b 18 3a
       0.009061884 -0.019550346 -0.010840657 0.00057999924
0001f0 0a 89 97 3b 81 63 3e 34 64 3f 94 3c 0c e3 9c 3c
       0.0046244906 1.7731328e-07 0.018096633 0.019151233
000200 04 21 e3 ba a8 b5 05 bb 7a 85 6d 37 25 4b 4e bc
       -0.0017328565 -0.0020402465 1.4157378e-05 -0.012591158
000210 e7 84 7a 37 2c 42 41 bc 5c e2 69 3b c4 8b 39 bc
       1.4932105e-05 -0.011795562 0.00356879 -0.011324827
000220 47 f5 4e bd 14 63 75 3c 4c 80 af b8 fc d2 5f 3a
       -0.050526883 0.014977235 -8.3685474e-05 0.0008538214
000230 11 d6 c9 b8 0f 7a 31 bb d1 0c a3 3a 74 fe 5c bb
       -9.6243e-05 -0.002708081 0.0012439733 -0.0033721002
000240 4b cc 82 37 e1 23 11 3d 4e eb 3d b9 f4 1a 60 3d
       1.5592339e-05 0.035434607 -0.00018112102 0.054713205
000250 93 3a 51 3d 02 0c 9b bc e4 4d 19 b9 3f ae ef 3b
       0.05108125 -0.018926624 -0.00014620234 0.007314473
000260 a9 7c d2 b8 cf cf ba ba 14 1c 4a bd 04 76 4b bc
       -0.000100368 -0.0014252606 -0.049343184 -0.012418274
000270 2c 1e 8a 3b 67 46 90 3c 2f 1e 7c bd 79 85 eb 39
       0.0042150225 0.017611695 -0.061552223 0.00044922138
000280 8d 4a c1 bb e5 ae 9f b8 0a 44 ae b9 47 7e b2 3d
       -0.0058987797 -7.6142875e-05 -0.0003323856 0.08715492
000290 54 59 05 3a 5f 46 b8 ba 35 8d 41 39 3b 78 bc 3c
       0.00050868583 -0.0014059058 0.00018458518 0.02300655
0002a0 76 b3 2c ba 48 a2 b8 3c b7 a5 91 bd a1 b1 65 3a
       -0.0006588021 0.02253832 -0.07111686 0.00087621255
0002b0 c5 fe c4 3b d1 5d b7 3c 09 f8 11 b8 e1 c5 d4 bb
       0.006011816 0.022383602 -3.4801695e-05 -0.0064933156
0002c0 df b0 e3 b8 29 29 9a 3c 20 8f 2a b9 e5 7f 94 3b
       -0.00010857148 0.018818455 -0.00016265782 0.004531848
0002d0 78 c3 97 3c c0 95 68 38 76 0c 4a 3c 2c 66 c7 3a
       0.018525824 5.5452576e-05 0.0123320725 0.0015212945
0002e0 17 9a 8a bc 41 60 86 bc 06 b9 88 3c 63 3e 9d ba
       -0.016919179 -0.01640332 0.016689789 -0.0011996742
0002f0 83 03 fe 3b 1e 33 8a 36 00 89 80 3c c9 7d 8f 3c
       0.0077518835 4.1186713e-06 0.015690327 0.017516034
000300 e1 25 d6 3b 14 a3 c1 3d 99 1e 49 b7 1f e5 ec ba
       0.0065352772 0.09454933 -1.1987658e-05 -0.0018073655
000310 ef 88 f5 b6 60 50 93 bc 63 95 31 bc 7c 01 a9 bb
       -7.31751e-06 -0.017982662 -0.010838839 -0.0051576477
000320 ce 64 8a bb 3d 39 b0 3c 42 5e 02 38 ed c9 99 3b
       -0.0042234426 0.021511668 3.10822e-05 0.004693261
000330 d7 bf 06 b9 56 95 1b 3b 59 8b 6b 3a f3 a8 29 bc
       -0.00012850702 0.0023740134 0.0008985303 -0.010355222
000340 c6 85 4c 37 d0 7a e9 3c 62 91 9b b9 c8 77 42 3d
       1.2190494e-05 0.028500944 -0.00029672222 0.047477514
000350 e3 0f 93 3c 24 4c 7f bc 7c 7a 50 b9 6d 60 50 b7
       0.017951911 -0.015582118 -0.00019882055 -1.2420217e-05
000360 78 d9 96 b9 4e ec 32 ba 28 44 bc 3c e1 f7 44 3c
       -0.00028772256 -0.0006825373 0.022981718 0.01202199
000370 73 c2 ac 3b 8e 12 ca 3b 55 c7 8f bd b7 e4 23 ba
       0.0052722036 0.0061667627 -0.070204414 -0.0006252038
000380 b9 40 35 bc 1f 68 8a b9 c1 87 e8 3b ae c3 0a 3e
       -0.011062794 -0.00026398987 0.0070962613 0.13551208
000390 e9 bb 18 3a e2 82 b7 39 3b 3c 96 38 fa 74 ca 3c
       0.00058263406 0.00035001995 7.163776e-05 0.024713982
0003a0 d8 2c 58 b9 0c 76 a8 3b 91 8d 9d bb 2f 5a 21 bc
       -0.00020616071 0.0051410254 -0.004808136 -0.009848162
0003b0 00 3b 31 bc a9 02 ca 3b ec a0 a4 b8 a0 a5 4f bc
       -0.010817289 0.006164868 -7.8501034e-05 -0.012673765
0003c0 ff 23 09 38 85 1e b6 3c de ff 67 b8 2c c3 30 3b
       3.269687e-05 0.02223135 -5.5312987e-05 0.00269718
0003d0 a1 e6 5c 3c 13 bf b7 38 63 32 1c 3c 32 f2 17 3a
       0.013482721 8.76171e-05 0.0095334975 0.0005796283
0003e0 83 1e 6b 3c 62 c8 30 bc ba fb 42 bc c8 df 26 39
       0.014350536 -0.0107899625 -0.011900837 0.00015914359
0003f0 58 85 bc 3a 6d eb c0 b6 09 1e c6 3b 54 d3 bd 3c
       0.0014383001 -5.749453e-06 0.006046061 0.023172058

fc.bias f4 [50]
000000 42 2f 7e bd 6b 5a e3 bb 17 84 28 bd 23 5b aa bd
       -0.062056787 -0.006938269 -0.041141596 -0.08318164
000010 42 e1 74 3b 8e 93 55 bc 96 ba 3f bd ce 83 16 bd
       0.003736571 -0.013035668 -0.0468088 -0.036746792
000020 50 0f 2d bd 9f 5e 92 3c d2 7f 37 bd 36 10 48 bc
       -0.04225093 0.017867384 -0.044799633 -0.012210896
000030 14 23 1e bd 6c 72 fe 3c e0 3c 78 ba 55 59 56 bb
       -0.03860767 0.03106042 -0.00094695203 -0.0032707055
000040 d9 41 29 3c 76 61 6a bc 8f 5b de bc 7f ea 36 3d
       0.010330641 -0.014305463 -0.027143268 0.044657227
000050 1a 3c 60 3d 18 6c d8 3c bd d0 2f 3d 7a 76 3e bc
       0.054744817 0.02641873 0.042923678 -0.011624927
000060 8c 74 aa bb 4f 35 8e 3c c1 db 0d 3d b0 8a cb bc
       -0.0052018818 0.017359404 0.0346334 -0.024846405
000070 bd 3b 47 3d a5 c5 6c bc 30 71 02 bd 70 b5 a9 bc
       0.048640955 -0.014451419 -0.031846225 -0.020716399
000080 14 4b 42 3c 2e 50 20 3d a8 7d 61 3c e0 3b 90 bc
       0.01185872 0.039138965 0.013762869 -0.017606676
000090 1f 98 72 bd c1 d0 52 bd 19 59 7f 3d 18 eb 11 3d
       -0.059227105 -0.051468614 0.06234083 0.035624593
0000a0 bf f2 82 3d 5b e2 d9 3c 02 e1 49 bc b4 fb 99 3c
       0.063939564 0.026597193 -0.012321712 0.01879678
0000b0 9c e1 46 ba 54 74 92 bd 94 c7 a0 3d e0 f9 1b bd
       -0.0007586719 -0.07151094 0.078505665 -0.038080096
0000c0 9b 79 ab 3c 3a 6f 6d 3d
       0.02093201 0.057967402

decoder.0.weight f4 [64, 50]
000000 36 8f e3 3c 04 56 39 bd c3 d1 f4 3b 71 7e 7e 3d
       0.02777825 -0.045248047 0.0074712946 0.062132303
000010 1d 38 36 3d f4 43 99 3d 6f 53 36 3d 33 03 b5 bd
       0.044487108 0.07483664 0.044513162 -0.08838501
000020 0e 6a 96 3d 05 07 2c bc fb d1 86 3d 46 f7 dc bc
       0.07344447 -0.01049972 0.06583019 -0.026973378
000030 4f 2d dc bc 32 17 38 bc 10 51 89 3d 2c 67 a8 bd
       -0.026877074 -0.011235999 0.067049146 -0.082228035
000040 07 be 14 3d 85 3e 53 3d 74 fe c7 3d de 31 de bc
       0.036314037 0.051573295 0.0976533 -0.027123388
000050 f8 34 39 bd d5 b7 40 bd 46 37 90 bd 85 d9 40 3d
       -0.04521653 -0.047050316 -0.070417926 0.047082443
000060 55 92 17 3d 37 e9 17 bc 0a 94 8a bc bc 70 9d 3d
       0.037004787 -0.009271911 -0.016916294 0.07687518
000070 38 47 3c bd 6c e2 9a bb e3 07 19 bd 95 19 4f bc
       -0.045966357 -0.0047266986 -0.037361037 -0.012640377
000080 cb d6 f5 bd 89 3d 84 bd 07 73 a5 bc 56 35 16 bb
       -0.12003859 -0.064570494 -0.02019645 -0.0022919974
000090 6a 98 8c 3d d7 3f 13 bd 75 5d 18 bd f9 8f 9d bd
       0.06865008 -0.035949554 -0.037198503 -0.07693476
0000a0 4a 86 75 bc 67 1e a7 3c f7 35 8e bb 11 36 1d 3d
       -0.01498563 0.02040024 -0.004339929 0.03838164
0000b0 ed 87 41 bc 9c d3 99 3d c8 db f0 bd 05 6f c9 3d
       -0.011812192 0.075110644 -0.1176067 0.098356284
0000c0 16 ec ef bc 3f 6f c1 bc 09 0a bd 36 e8 70 e0 b6
       -0.02928738 -0.023612617 5.633807e-06 -6.6888642e-06
0000d0 e8 0b 4a 36 81 fe aa 36 36 b0 cb b6 65 50 98 b6
       3.0107276e-06 5.096023e-06 -6.070385e-06 -4.539312e-06
0000e0 61 f1 4d 34 4c d7 9b b5 c0 1c 87 36 a0 60 2d b6
       1.9179926e-07 -1.161106e-06 4.0266605e-06 -2.5835252e-06
0000f0 58 31 a0 b6 f9 bb 90 b5 60 c3 ca 36 48 36 f8 36
       -4.774116e-06 -1.0783543e-06 6.0428138e-06 7.397295e-06
000100 7c a8 21 b6 7d 92 b1 34 e4 d8 33 35 15 cb 46 b6
       -2.408894e-06 3.3075403e-07 6.6998314e-07 -2.9622508e-06
000110 dd 41 2a b5 87 26 21 b6 2a 8b 04 b6 73 7f 8c 35
       -6.342578e-07 -2.4013295e-06 -1.9750537e-06 1.0467905e-06
000120 28 b7 00 37 a1 7c a6 b6 1c a0 77 b5 db 39 eb 35
       7.672039e-06 -4.9616942e-06 -9.224766e-07 1.7525703e-06
000130 57 96 52 b6 ce 09 9a 35 05 ea 05 b6 f0 79 d2 34
       -3.1379948e-06 1.1476748e-06 -1.9954762e-06 3.920427e-07
000140 bc 88 24 b6 85 45 db b4 10 f2 99 36 f7 d3 b6 35
       -2.4517494e-06 -4.084251e-07 4.587935e-06 1.3621747e-06
000150 1f 70 6a 36 fb 0d 82 b6 b9 bd 80 b6 e3 df 44 35
       3.493398e-06 -3.8759295e-06 -3.836784e-06 7.334149e-07
000160 5f c6 e4 b5 79 56 85 36 f4 60 75 37 ef 6d 2f b6
       -1.7045057e-06 3.9737756e-06 1.4625712e-05 -2.6141022e-06
000170 93 cb 01 b6 c9 e6 74 b6 4d 4d 8f 36 49 ab fe 36
       -1.9340994e-06 -3.6493168e-06 4.270731e-06 7.58973e-06
000180 4b 41 15 b7 62 70 84 b6 04 8e 21 b7 54 24 b0 b6
       -8.896294e-06 -3.9469896e-06 -9.629413e-06 -5.249438e-06
000190 9c f8 86 38 32 30 23 38 c2 1d ba b7 c9 ff 6a b6
       6.435925e-05 3.8907114e-05 -2.2186785e-05 -3.5017604e-06
0001a0 54 0e 4d b8 0d cc 2b b7 32 cd 2c 38 7b 38 a2 38
       -4.8889153e-05 -1.02399035e-05 4.11991e-05 7.735282e-05
0001b0 4c 83 ee 36 07 1b 11 39 1f 53 a8 b8 77 2b 0b b7
       7.1082377e-06 0.00013838346 -8.026347e-05 -8.295166e-06
0001c0 e2 23 87 38 17 5d 4f b8 d8 48 f7 b6 c4 cc 54 35
       6.443985e-05 -4.9439343e-05 -7.3696538e-06 7.927413e-07
0001d0 02 07 91 b8 a2 0e 3b b8 5c 74 04 b8 fd c3 72 37
       -6.915444e-05 -4.4597902e-05 -3.157962e-05 1.4469956e-05
0001e0 9a a2 31 b7 75 49 0e b6 36 f1 81 37 b0 89 10 36
       -1.0587881e-05 -2.1202407e-06 1.5490321e-05 2.1537817e-06
0001f0 b5 89 45 36 61 ff a4 b8 83 4a 2a 37 54 e8 ad 38
       2.9435444e-06 -7.8676974e-05 1.0150138e-05 8.292557e-05
000200 ae 88 a8 34 36 22 16 37 f5 e6 e4 b7 ac 76 fb 37
       3.1391886e-07 8.948662e-06 -2.7287266e-05 2.9976793e-05
000210 50 d4 36 b7 83 63 31 38 ef 14 9c 37 6d 9e 47 b7
       -1.0897478e-05 4.2292766e-05 1.8606397e-05 -1.1898211e-05
000220 4f d4 b2 b7 0e 06 cd 38 67 60 1d 38 b0 86 d2 b8
       -2.1318117e-05 9.7762895e-05 3.75215e-05 -0.00010038668
000230 3f e2 81 37 40 a2 8c 38 f4 91 3f 38 08 70 07 38
       1.5483352e-05 6.7059416e-05 4.5673878e-05 3.2290845e-05
000240 e8 71 9c b8 61 81 ba b8 c8 ca f8 37 ab a1 ba b7
       -7.459876e-05 -8.89327e-05 2.9658331e-05 -2.224821e-05
000250 6a 53 aa 38 7f 31 a2 b8 be df 37 b0 4f 4f 57 af
       8.121769e-05 -7.733981e-05 -6.689297e-10 -1.9582312e-10
000260 88 b0 6f 2f 8c 5b 61 af 16 a6 09 b0 73 79 20 30
       2.179964e-10 -2.0496155e-10 -5.007633e-10 5.838025e-10
000270 81 d2 09 b4 0d 26 20 b0 49 42 18 b1 0c 3d 2d 30
       -1.28357e-07 -5.8261734e-10 -2.215659e-09 6.3023786e-10
000280 d7 96 97 b0 78 24 f6 ae b7 f6 a0 30 e8 1e ba b0
       -1.1029567e-09 -1.1193263e-10 1.1711653e-09 -1.3542065e-09
000290 e9 82 b9 31 f0 47 a0 b1 11 5d de 30 5e fa 51 b2
       5.3990914e-09 -4.664791e-09 1.6179077e-09 -1.2222328e-08
0002a0 fe 91 32 30 62 ca f5 b1 d7 56 12 b0 fc f5 9d ae
       6.496349e-10 -7.1534467e-09 -5.32379e-10 -7.183229e-11
0002b0 18 10 1b 32 fc b3 8c 30 9c 2f 98 31 25 c5 9b af
       9.025847e-09 1.0237495e-09 4.429195e-09 -2.8334415e-10
0002c0 26 4d 6c b0 79 a7 b9 2f c7 14 9a b7 54 e2 14 30
       -8.5965934e-10 3.37703e-10 -1.8367906e-05 5.416372e-10
0002d0 d4 09 81 af 57 e6 29 30 5a 35 e4 30 ab 2a f6 30
       -2.3471947e-10 6.1809174e-10 1.6604347e-09 1.7910983e-09
0002e0 85 70 ae 2f be 57 66 b0 00 be 8b 30 c5 22 98 37
       3.1730366e-10 -8.37982e-10 1.0167582e-09 1.8136003e-05
0002f0 41 85 11 af d7 6e df af 15 13 23 30 8b 85 2b 2f
       -1.3235014e-10 -4.064222e-10 5.932617e-10 1.5599803e-10
000300 e7 6d e0 b2 8d fe 5b 30 47 8a b2 2f 75 27 17 2f
       -2.612701e-08 8.0033474e-10 3.2476263e-10 1.3747388e-10
000310 e6 9f 20 2f 55 b9 32 2f 29 f5 b7 ac e3 e0 db ab
       1.4608723e-10 1.6254849e-10 -5.228391e-12 -1.5623305e-12
000320 22 37 00 b0 c1 fe 7a 2f be ae e6 2d 2d b4 f8 2e
       -4.6644477e-10 2.2827874e-10 2.6225574e-11 1.130974e-10
000330 7d 2d 83 2e ea bb 89 2f ec c7 68 30 2b 6f 6b 2f
       5.9652706e-11 2.5053676e-10 8.4685214e-10 2.141262e-10
000340 3e f9 9f af 94 95 7f 2e 7d aa bc af f6 7c 6e b0
       -2.909903e-10 5.811314e-11 -3.431814e-10 -8.6761476e-10
000350 cf a5 fd ae c3 83 21 af 6d 11 0f 2e a7 b7 a4 2f
       -1.15345615e-10 -1.4689676e-10 3.2529913e-11 2.996192e-10
000360 fb b1 7a 2f 7c 23 87 2f ae 58 4a af 57 e0 85 b0
       2.2800599e-10 2.458157e-10 -1.8403298e-10 -9.740785e-10
000370 d9 1f 20 2f 63 1c cd 2e ac ca 8f b1 18 9b 37 b0
       1.456323e-10 9.327363e-11 -4.184889e-09 -6.6795414e-10
000380 e8 80 48 b1 f7 2d 6b af ed 4f ca af db 11 ca b0
       -2.9177105e-09 -2.1389455e-10 -3.6800377e-10 -1.4702509e-09
000390 54 9a c9 30 f6 3a cb ae 74 ea 7b b0 e0 20 f5 ae
       1.4668537e-09 -9.241845e-11 -9.1646446e-10 -1.114715e-10
0003a0 fc c4 69 2f e2 16 e2 af cb e6 fc ae 31 5e 8d 2f
       2.126121e-10 -4.112542e-10 -1.150063e-10 2.5714678e-10
0003b0 a9 72 b4 af 1a 56 7e b0 38 ac 3b ad 6a bc 38 2f
       -3.282328e-10 -9.252702e-10 -1.066796e-11 1.680164e-10
0003c0 6f 1c f6 ae b8 aa e0 2e 7f 54 eb 30 52 37 97 ae
       -1.11918357e-10 1.02166664e-10 1.7122516e-09 -6.876512e-11
0003d0 62 22 fc ae 1f c7 32 2d 62 8c 0c af 2a 6e b6 ae
       -1.1465741e-10 1.0162342e-11 -1.27828e-10 -8.295971e-11
0003e0 6b da bf 2e 09 4b b0 ae bc d9 b5 af 40 03 9b ae
       8.724473e-11 -8.016882e-11 -3.3078418e-10 -7.049161e-11
0003f0 03 99 97 af 42 6f 98 b1 7d 14 37 30 1f 9d fd 2d
       -2.757546e-10 -4.436431e-09 6.660413e-10 2.8832546e-11

decoder.0.bias f4 [64]
000000 0e 77 e3 3c 4c f7 01 b7 70 61 41 ba 42 a6 3a bb
       0.02776673 -7.7465775e-06 -0.0007376885 -0.0028480445
000010 32 81 11 ba e3 b6 80 bc f4 6b 9b b3 6b 49 58 bc
       -0.00055505626 -0.015712207 -7.2373865e-08 -0.013201098
000020 55 69 84 bb ce c1 d4 b7 27 bc 00 3d e5 da 8b b9
       -0.004040877 -2.5362617e-05 0.031429436 -0.00026675235
000030 de 34 7e b7 ed 28 3e b9 ab 88 cb ba e5 80 0c 3d
       -1.5151889e-05 -0.00018135058 -0.0015528401 0.03430261
000040 63 ee dd bb 7d 4c e0 bb 66 ad 99 ba 4d 57 2f bb
       -0.0067728027 -0.0068450556 -0.001172465 -0.0026754916
000050 57 66 c3 ba a6 b9 06 3d 0c 73 cb b8 ef 41 7d 3c
       -0.0014907819 0.032891892 -9.7012235e-05 0.015457614
000060 a1 67 a5 b8 53 42 7b bc df 8f ec b3 33 3a 20 3d
       -7.8871155e-05 -0.015335637 -1.10157764e-07 0.039118003
000070 b3 60 c7 ba d4 8c d2 ba 85 22 4f bc a8 0d e1 37
       -0.0015211314 -0.0016063699 -0.012642507 2.682845e-05
000080 f5 fa 31 bb 77 34 48 b9 d3 58 3f bc 1e 26 3d ba
       -0.0027157639 -0.00019093031 -0.011678892 -0.0007215458
000090 53 d1 b1 b6 92 a2 31 ba 52 1a 7c bb 08 8b d2 bc
       -5.2993796e-06 -0.0006776239 -0.0038467837 -0.02570106
0000a0 06 a7 93 b6 9d 05 37 ba 4a e8 d1 bc 8d 88 48 bc
       -4.4003855e-06 -0.00069817324 -0.02562346 -0.0122395875
0000b0 ef 8e 10 3d 81 42 77 3c 71 eb 0a b8 e4 65 b0 b7
       0.035292562 0.015091539 -3.3121036e-05 -2.1028281e-05
0000c0 d9 41 ca bb 73 96 f9 3c 3e 5f d8 3c 44 a4 ac bb
       -0.0061724004 0.030467248 0.026412603 -0.0052686054
0000d0 92 b7 05 ba df 28 13 3d 51 3b 28 ba cc 85 81 bc
       -0.00051009015 0.03592765 -0.000641753 -0.01581087
0000e0 99 54 39 34 69 de 31 bb 3d d9 45 bb 16 3d cd 3c
       1.7260244e-07 -0.0027140623 -0.0030189299 0.025053542
0000f0 f3 fe 3c bb 7b dc 3c be 15 24 2b bc 5d e6 1b bc
       -0.0028838485 -0.18443482 -0.010445614 -0.009515372
