checkpoints/checkpoint_epoch_1000.pth (torch, 314853 bytes, 30 tensors)

lstm.weight_ih_l0 f4 [256, 2]
00000000: f3b3 f7ba c40d a0bb 602d 2dbb d98c 46bc
00000010: 81e0 9e38 2511 7a9c f28a 96b7 2aab 0ab2
00000020: 120a 95b3 ca99 1baf 529a 5737 a3b1 67b7
00000030: b9ce 1734 bc2d 77b4 e5d8 8438 b812 8db9
00000040: 4574 27bb 4f2f 6bb9 4a5c ed3a 243e f0b9
00000050: 5bef 45ba 0cf2 0fbb 3ff6 06b9 f965 40bb
00000060: 6b65 4c3d 37c7 153b c68b 8dbe 5f65 023e
00000070: 48db 62bb b6fb bcbb ec91 983a 179e d8b9
00000080: 3fca cdaa ab7d 8e9e d7b0 fd3a cb68 76bb
00000090: 6582 49b9 cea8 dbba d9b9 993d 7524 febc
000000a0: cedb 462e 35b3 3daf 9a96 7fb3 9257 b6b2
000000b0: 2891 f23a 7303 573a 0677 1dbd 472d 38bc
000000c0: 1101 d5bb 5ce5 5fb9 ca5e bb3a 7333 cbb9
000000d0: 601f b83c 51b4 2cbc c732 463b 2ebb 88ba
000000e0: ab11 74ba 8957 dfbb 15f5 31b4 2cbb 55b3
000000f0: 1449 0698 bd29 1c82 61f4 3637 af71 93b7
00000100: f8a8 613e 41ac dfbd 7cdc 9bba 3afd 4bbb
00000110: f81f eb3d 5700 813b 72bb b4ba 8fb9 8e38
00000120: 891a ef3b 8117 b6bc 6837 9737 3831 82b9
00000130: 686e e2b8 4595 77b9 fb5a 04ba c357 32b8
00000140: bf75 5cb9 4180 0fba b640 ab39 b6a9 4fba
00000150: e8f6 0bbb 8a41 3abb c00a 47b7 afc3 79b7
00000160: 3c18 7eba 3593 4eb9 6027 923b 0bc0 7dba
00000170: 5cd6 ba3c 3cf6 ef3c 623b 9dbc 5e8e 27bc
00000180: 3458 3dbd 56ad e1bc 4278 37b8 1459 d7b8
00000190: 7618 993b 3795 27bb ca0b 7b3b 8f89 a0bb
000001a0: 702d 8437 8e32 39b8 0d30 0bba c827 d3b9
000001b0: 2a32 8837 5244 7635 90c4 243d 7a48 9aba
000001c0: 7259 013d 3666 84bb d77a f238 d415 8eba
000001d0: f296 af35 9b2d 92b6 fdc5 5133 cc74 76b1
000001e0: e158 1fbd 3cc3 c53d bf43 56bb a42f f6bc
000001f0: 2d77 ba3c 42cf 133b 8bc2 8838 1248 d2b8
00000200: 8bfd e0ba 369d e7bb 5106 9f3c aee8 92bc
00000210: 7ed8 399e 5c73 749c 9089 acb9 6abd 84b2
00000220: a7aa c72e 42ae 15af e95b ae37 ed7f f3b4
00000230: 8fa2 d732 c195 61b2 636a 84b6 efef 64b9
00000240: 0fa5 293a f683 b4b9 1413 cc3a 3fab bab9
00000250: d2d8 18ba 39f4 28bb 67da 4ab9 2276 6ebb
00000260: c8f2 abbc 54b5 0d3c b6ef dd3e 943c 313e
00000270: 1cd0 81ba f1eb 01bc 9f86 773a 71f2 f2b9
00000280: 3e5c a2a3 f943 409f 8c96 c03a acb2 1ebb
00000290: 83f9 063a 9985 e1ba b169 143d 17be e7bc
000002a0: d027 992e 3784 50af ff7c 20b2 2a39 02b2
000002b0: cb73 823b a268 f7ba 7506 99bc eb9a 71bc
000002c0: 9062 bfba 9231 60ba 564f c33a d933 5bb9
000002d0: 6108 603b c54a 94bc 531c e5ba 7f41 03bb
000002e0: d653 413a 7b6b 22bc 9b9e 05b5 1480 0ab4
000002f0: ef37 b8a8 036d fd80 c868 0636 6852 8bb7
00000300: 48a0 e9be 3e93 b43a 5b59 073c c94d a2bb
00000310: 28bc f03c 814d e7b9 c163 16ba 9bfa 39b9
00000320: b2a3 3f3a 6e8d c5bc 3235 003a 5498 d8b9
00000330: 00b4 7cb9 4e5f 79b9 6374 38b9 29d4 d6b9
00000340: 06b4 40b9 3925 54ba 0521 eb3a 6d58 75ba
00000350: c9f1 56ba 2436 57bb 5584 8db6 af99 bc36
00000360: 6017 17ba 61f6 89b9 00ea af3b cd6c 183a
00000370: 1895 07be 9985 b43d 1638 0cbb 762b 62bc
00000380: 3929 19bd 39d5 3fbc 0b42 7738 7b54 a1b8
00000390: 910d 443b 3e10 04ba 86f0 7139 4b90 0bbb
000003a0: b628 7b37 c961 28b8 9304 a2b9 c75b 27b9
000003b0: 94e4 3d37 6807 7b35 a906 20bc 863b 4db7
000003c0: fa1c 193c c012 13bc fcbf ca39 2e03 afba
000003d0: 80bd a435 b8b4 f1b6 be89 8739 dd31 01b2
000003e0: b6e1 273e 567a 7f3e c3e1 933b 319e b6bc
000003f0: 01bf 2bbb 9b56 00bc 1653 2f38 fdf2 21b9
-0.0018898234 -0.0048844535 -0.002642475 -0.012118542 7.575844e-05 -8.274022e-22 -1.7946095e-05 -8.071575e-09
-6.940185e-08 -1.4151805e-10 1.2850929e-05 -1.3810032e-05 1.4138176e-07 -2.3020306e-07 6.33465e-05 -0.00026907562
-0.002555148 -0.0002242897 0.0018109169 -0.00045822666 -0.00075506204 -0.002196434 -0.0001287097 -0.0029357655
0.049901407 0.0022854337 -0.276457 0.12733983 -0.0034615565 -0.005767311 0.0011640168 -0.00041316517
-3.6555652e-13 -1.508681e-20 0.001935507 -0.0037599083 -0.0001921743 -0.0016758682 0.07506151 -0.031023243
4.5215214e-11 -1.7253117e-10 -5.9508785e-08 -2.1227411e-08 0.0018506395 0.0008202113 -0.038443588 -0.011241264
-0.0065003713 -0.0002135238 0.0014295217 -0.0003875751 0.022475898 -0.010541038 0.0030242668 -0.001043176
-0.0009310494 -0.006815855 -1.657357e-07 -4.976316e-08 -1.735599e-24 -1.1473048e-37 1.0904944e-05 -1.7576704e-05
0.22037113 -0.10921527 -0.0011891271 -0.0031126277 0.11480707 0.003936808 -0.0013788773 6.8056506e-05
0.0072968644 -0.022228004 1.8026403e-05 -0.00024832203 -0.000107970845 -0.00023611363 -0.00050489575 -4.252024e-05
-0.00021024699 -0.00054741284 0.00032663875 -0.0007921712 -0.0021356884 -0.0028420412 -1.1863827e-05 -1.4887118e-05
-0.0009692942 -0.0001970053 0.0044602603 -0.0009679801 0.022807293 0.029292218 -0.019193355 -0.010226814
-0.046226695 -0.027548473 -4.37426e-05 -0.00010268591 0.0046721054 -0.0025571117 0.0038306587 -0.0048992108
1.5756785e-05 -4.415452e-05 -0.00053095893 -0.00040274695 1.6235823e-05 9.174156e-07 0.04022652 -0.0011770867
0.031579442 -0.004040505 0.0001156234 -0.0010840246 1.3082447e-06 -4.3564482e-06 4.8841674e-08 -3.5864103e-09
-0.03890312 0.096563786 -0.0032694188 -0.030052014 0.022761906 0.0022553955 6.521222e-05 -0.000100270045
-0.0017165405 -0.0070683016 0.019412192 -0.017933216 -9.838588e-21 -8.0881926e-22 -0.00032908889 -1.5452958e-08
9.079786e-11 -1.361338e-10 2.0785215e-05 -4.5355355e-07 2.5103217e-08 -1.3130774e-08 -3.9462916e-06 -0.00021833157
0.0006471434 -0.00034430594 0.001556965 -0.00035604273 -0.00058306486 -0.0025780334 -0.00019345582 -0.003638633
-0.02098979 0.008649189 0.43346947 0.17308265 -0.000990394 -0.007929788 0.00094423624 -0.0004633847
-1.7603141e-17 -4.0713807e-20 0.0014693304 -0.0024215383 0.00051488745 -0.0017205953 0.036233608 -0.028288884
6.9647066e-11 -1.8964462e-10 -9.341647e-09 -7.5799935e-09 0.0039810888 -0.0018875788 -0.018679837 -0.014746408
-0.0014601517 -0.00085523084 0.0014900963 -0.00020904782 0.0034184682 -0.01810206 -0.0017479755 -0.0020028052
0.0007374858 -0.009913321 -4.977716e-07 -1.2898846e-07 -2.0452361e-14 -2.3273487e-38 2.0028547e-06 -1.6608465e-05
-0.45630097 0.0013776792 0.00826105 -0.0049531204 0.029386595 -0.00044117498 -0.00057369104 -0.00017736333
0.0007310464 -0.02411529 0.0004890739 -0.00041312224 -0.00024099648 -0.00023781994 -0.00017590965 -0.00040975332
-0.00018377611 -0.0008092705 0.0017938918 -0.0009359185 -0.0008199481 -0.0032838667 -4.217533e-06 5.6207277e-06
-0.0005763676 -0.00026314243 0.005368471 0.00058145524 -0.13240469 0.08814544 -0.0021395735 -0.013804307
-0.03739283 -0.011708551 5.8950896e-05 -7.692814e-05 0.0029915313 -0.00050378207 0.00023073153 -0.0021295722
1.4970245e-05 -4.014539e-05 -0.00030902456 -0.00015960551 1.1318498e-05 9.3515564e-07 -0.009767213 -1.2232811e-05
0.009345287 -0.008976638 0.00038671482 -0.0013352388 1.2274104e-06 -7.203398e-06 0.00025851832 -7.520126e-09
0.16394696 0.24949011 0.004512997 -0.022292228 -0.0026206376 -0.007833148 4.180063e-05 -0.00015444677

lstm.weight_hh_l0 f4 [256, 64]
00000000: ee5f 753a 255c 41bb f546 ea26 80e7 14b5
00000010: 8b7b e6b4 b943 00b8 5b35 3637 73aa 3eba
00000020: d89c 4dba d16c 9bb9 c2f4 bcba 80db 8fba
00000030: cbd1 a938 f720 173b b2d0 f339 d4ec 1339
00000040: d99b 0fac 8a47 f639 272d 9439 6d65 353b
00000050: 20d5 1cb4 202f 8836 f8d2 86b9 d4ce f63a
00000060: 3068 8cb9 c88d 95b5 3ee4 32ba 5e0b ea39
00000070: 34d6 52ba 6841 c235 3b84 631c c8f9 1039
00000080: 38f6 8a3a 58a4 a0ba 7c2a 92b9 094a 6d38
00000090: 70b3 55bb 3b45 d1b9 9ba7 a8b8 6c8a 273a
000000a0: 103b cdb9 716b b739 9617 d8b9 3ba6 1ab8
000000b0: b89a 5db8 3c73 2739 e351 d539 f4f1 65ba
000000c0: 5c3e 2e3a 511e 3bb9 1bf9 223a a4b9 763a
000000d0: 58c8 9e38 bf90 25ba bafd 4138 29fa a4b9
000000e0: 5a75 e539 0f05 203a bc41 8ab8 b0fa 96b5
000000f0: 734c 97bb 7b15 0aba db45 69bb 82d9 27b9
00000100: 8ab7 cb3b 5ab1 febb c72a 6b2b fcac eeb6
00000110: 2e55 2fb5 02a3 87b9 971b ee36 744f d3b9
00000120: 7bbc c6bb 6ba3 44ba 4c87 68ba c6a8 a3bb
00000130: b0d0 dbb9 839b 503c 0528 9a3b 7a32 0a3a
00000140: 9653 fcaa 247f b03b f67e 903a 28b2 953c
00000150: c066 69b3 a50e 4436 4b95 2fbb f6eb 913a
00000160: 7643 28ba 3d13 1ab9 adc2 83bb 89f4 cd3a
00000170: 75d7 32bb d22f 2338 be31 a39c 65ad 253a
00000180: 27d6 df3b 6ecd bbbb 33fc 8aba 727f 8a3a
00000190: f616 e9bb 1638 09bb 2174 9aba f147 d83a
000001a0: fa93 b9ba a9c6 3b3a 3744 a7bb 831f c7b9
000001b0: f35a abba 3161 3a3a 4661 86bb 5db8 32bc
000001c0: 1563 d33a 425d 61ba b795 4a3c 18d1 4a3b
000001d0: f181 f439 0d90 adb9 32ac 1b39 616b 7ab9
000001e0: 442d a63b 80ce b73b 7176 0bb9 189b 77b7
000001f0: 60b5 c6bc a3de 28bb 265d 7dbb fcc3 88ba
00000200: ab22 fc9a f26d a19c f941 0b0c 2aa6 d615
00000210: 73f5 a311 45c6 3796 b5ab 6b98 5394 0c1a
00000220: bef3 8819 1e59 a119 8a07 371b 224f 7b19
00000230: 8e89 701b 9f93 619a 049c 2e99 dd4f 319a
00000240: 65c2 690c 91e9 f798 0065 b119 3a74 959a
00000250: cee8 7115 c3c0 3b17 863a 0216 c275 219b
00000260: 1918 d31a 2add fd99 aaeb 8f18 de12 031b
00000270: f09f 419b 53f6 0395 89ea 0080 2d34 0c97
00000280: fb53 369b 096b 3419 9cf3 6299 707d b916
00000290: 06fb c11b d240 a597 51d4 a318 cea0 5198
000002a0: 0644 831a 1bd3 409a 6f36 ca9a 6441 da99
000002b0: a415 9197 93a5 9e17 60c9 311b beb0 b01b
000002c0: 2519 2c1c 1c20 b09a f97e 7d99 8d86 471a
000002d0: 0d7c 9898 0632 f419 74cb 3b16 db48 729b
000002e0: 9eca 921a 4da2 6096 76a4 b017 4703 bd15
000002f0: d12e 1d1b 3d74 b19a c549 f01b cf2a a996
00000300: a0ae cfb0 c509 c9b1 f090 c722 e9a4 d8ae
00000310: 9164 fc2b 2aaf 1aaf d195 06ad ec9c d12e
00000320: 476e 9930 d397 95b0 2833 c130 aeee d8b1
00000330: 5618 dcaf 3fe5 14b2 eab6 36b1 b58a 0731
00000340: 2b8d dfa4 c003 4731 0c84 a12f 74df 2c32
00000350: 4933 192b 8269 4bad 7589 25b1 e09a 8cb2
00000360: b161 d730 882b a631 5466 2c32 e37c 9ab2
00000370: fe38 b531 f60e b72b a6b2 ea97 7eb0 feb0
00000380: 2a98 ea32 eae5 0fb1 ae2b 0ab2 00a8 c12f
00000390: 6ebe c0b1 0e0c 08b0 3514 2ab0 a403 b930
000003a0: 467e 1a30 2fe4 7d30 9d2a af31 f2da 06af
000003b0: 5081 c3af d1e4 2932 ae30 a132 a60b 2b32
000003c0: 26cb 6fb2 734a d9b0 9336 a030 dec0 2eb0
000003d0: a4f3 932e de2c bd30 afdd adae 0bed c832
000003e0: 6513 7b31 29d2 c831 f009 5ead ad56 03af
000003f0: fcac f032 91ed 4d31 6b76 4cb2 b854 02b0
0.0009360303 -0.0029504385 1.6256245e-15 -5.5471173e-07 -4.2930728e-07 -3.058065e-05 1.0860468e-05 -0.0007273324
-0.0007843501 -0.00029644978 -0.0014416205 -0.001097545 8.097625e-05 0.002306042 0.00046504062 0.00014107238
-2.0408035e-12 0.00046974077 0.000282624 0.0027678863 -1.4606167e-07 4.058602e-06 -0.00025715656 0.001882995
-0.00026780507 -1.1142629e-06 -0.0006824172 0.00044640427 -0.0008042783 1.4473162e-06 7.5278903e-22 0.00013825961
0.0010601943 -0.001225601 -0.00027878943 5.6574154e-05 -0.0032608174 -0.00039915167 -8.042083e-05 0.0006391171
-0.00039144652 0.0003498453 -0.00041216303 -3.6871275e-05 -5.28346e-05 0.00015969289 0.00040687536 -0.00087717106
0.00066468655 -0.00017845003 0.0006216929 0.0009411818 7.571344e-05 -0.00063158193 4.6251087e-05 -0.000314669
0.00043765717 0.00061042694 -6.592597e-05 -1.124883e-06 -0.0046172678 -0.0005267483 -0.0035594616 -0.00016007389
0.006216948 -0.007772607 8.3548137e-13 -7.1130908e-06 -6.5316533e-07 -0.00025870657 7.0961646e-06 -0.00040304253
-0.006064949 -0.0007501158 -0.00088702585 -0.0049944846 -0.0004192642 0.012732389 0.0047044777 0.0005271804
-4.4822192e-13 0.00538625 0.0011024165 0.018273428 -5.434299e-08 2.92148e-06 -0.0026791866 0.0011132944
-0.0006418744 -0.00014693751 -0.00402101 0.0015713136 -0.0027289067 3.8906765e-05 -1.0799293e-21 0.0006320088
0.006830949 -0.0057312762 -0.0010603726 0.0010566546 -0.007113333 -0.002093797 -0.0011783877 0.0016500932
-0.001415848 0.00071630866 -0.0051045674 -0.00037979716 -0.001307337 0.00071098196 -0.0041009514 -0.010908213
0.0016127551 -0.00085969653 0.012364796 0.0030947383 0.0004663612 -0.00033104458 0.000148461 -0.0002388186
0.005071314 0.0056093335 -0.00013300196 -1.4758458e-05 -0.024256408 -0.0025767467 -0.0038660257 -0.0010434384
-1.04280766e-22 -1.0682506e-21 1.0728023e-31 8.669607e-26 2.5868135e-28 -1.4845185e-25 -3.0459728e-24 2.9071137e-23
1.4160517e-23 1.6683004e-23 1.5139841e-22 1.29923766e-23 1.9896781e-22 -4.6648157e-23 -9.027096e-24 -3.6667255e-23
1.8008166e-31 -6.4083845e-24 1.8342165e-23 -6.181273e-23 4.8853213e-26 6.066626e-25 1.0519783e-25 -1.3355657e-22
8.7306486e-23 -2.6248914e-23 3.7202594e-24 1.0842162e-22 -1.6016264e-22 -2.6649555e-26 -8.4135e-41 -4.5302295e-25
-1.5081823e-22 9.3273975e-24 -1.1733123e-23 2.9967524e-25 3.2091392e-22 -1.0679238e-24 4.2348897e-24 -2.7093802e-24
5.429023e-23 -3.98752e-23 -8.3633184e-23 -2.2567083e-23 -9.375868e-25 1.02523075e-24 1.4706165e-22 2.9230975e-22
5.6942525e-22 -7.284377e-23 -1.3105435e-23 4.1260925e-23 -3.941634e-24 2.5249213e-23 1.5169938e-25 -2.0041312e-22
6.071153e-23 -1.8145789e-25 1.1415249e-24 7.634166e-26 1.3001863e-22 -7.339328e-23 3.9752342e-22 -2.7330439e-25
-1.5110864e-09 -5.8509806e-09 5.4092517e-18 -9.851837e-11 1.793359e-12 -1.4068449e-10 -7.650284e-12 9.5320946e-11
1.1163558e-09 -1.0884328e-09 1.4057138e-09 -6.313562e-09 -4.0035059e-10 -8.666858e-09 -2.658846e-09 1.9723931e-09
-9.694998e-17 2.8960443e-09 2.9379554e-10 1.0062525e-08 5.442769e-13 -1.15626415e-11 -2.4088795e-09 -1.6368574e-08
1.5671074e-09 4.836185e-09 1.0034984e-08 -1.7984751e-08 5.2742726e-09 1.3007085e-12 -1.5166993e-24 -1.8531094e-09
2.7310382e-08 -2.093993e-09 -8.042589e-09 3.5225867e-10 -5.609585e-09 -4.949364e-10 -6.1874356e-10 1.3461556e-09
5.620432e-10 9.236513e-10 5.098015e-09 -1.2265014e-10 -3.5562175e-10 9.8891215e-09 1.8765004e-08 9.956159e-09
-1.3957822e-08 -1.5809988e-09 1.1657043e-09 -6.357491e-10 6.728065e-11 1.3764312e-09 -7.906508e-11 2.3390859e-08
3.6536332e-09 5.8446585e-09 -1.26214456e-11 -1.1945174e-10 2.8018341e-08 2.9966467e-09 -1.1901288e-08 -4.7414117e-10

lstm.bias_ih_l0 f4 [256]
00000000: dca6 9bbb 5a93 84bc ff7f ac9b dca9 4db3
00000010: 7778 e0ae c1f4 93b6 6b0e 85b3 40da 4fb9
00000020: b78d 13ba ed8b 4db9 885f 2bbb 413b 15bb
00000030: b981 9a3b feb9 b13c 5a40 c2bb 10b8 80b9
00000040: 01b8 fb9e e9b6 1cbb f84b 62ba a147 6bbd
00000050: 20a5 c9ae c841 d6b1 6052 903a b857 fdbb
00000060: 7319 65ba 83be 5538 961f 98bc 3db2 a5ba
00000070: 9ecd 60bb 88b0 bab3 8fae 8482 5dbc 3fb7
00000080: 8368 0f3d 7821 6cbb d2e5 8fba 6a18 bcb8
00000090: 8415 cabc f071 d4b8 6817 9bb9 8869 99b9
000000a0: 7b3a 52ba 82ba eeb9 4d91 e3bb 9ded d7b6
000000b0: 6cfa 3eb7 ee24 0abb ee7e 043e 1eb3 89bc
000000c0: 05b1 eebc c51d 8038 d6ec 47ba a736 91bb
000000d0: fa93 68b8 81c1 0fb9 2e60 98b5 7c81 e1bb
000000e0: 298e 38bc 8638 aaba dd2d ccb6 feeb 4fb1
000000f0: b453 0b3e 95fd 1bbc c926 26bc 1076 24b9
00000100: 3a32 e7bb bca7 a3bc 1849 8f1c 8f7c d132
00000110: f5bf 31af 2a93 30b7 4990 45b3 568f c0b9
00000120: 5cc2 32ba b26e beb9 0526 5abb 912c 30bb
00000130: e914 a8bc 598c 1c3e e375 7bbb 4b0e 03ba
00000140: 3cda 819f 1f6d 68bb 671f d9ba 24f4 00bd
00000150: cfdd 64af 39ae bcb1 fb12 b439 650f 9cbc
00000160: 0fe1 75ba 9c78 60b9 7df7 90bb 52d3 c7ba
00000170: 5621 f4bb e693 89b4 cf33 3602 23e8 b3b6
00000180: 2a16 4b3e f9d5 65bb 52f9 06bc 8912 71b9
00000190: ae59 ddbc 428a a8b8 f397 07b9 6fb4 87b9
000001a0: e764 70ba 21cd 43ba b1b5 f0bb 550d b9b7
000001b0: ea18 ec38 43f7 fcba 45b4 a03e 3c2d 7dbc
000001c0: 3af5 8ebd ed91 04b9 3a4e 20bb c009 9cbb
000001d0: a4d8 5eb8 dbc3 17b9 d6a4 d1b5 d265 ccba
000001e0: da42 23bc fc34 24ba d3a8 64b7 84e6 23b2
000001f0: 733e b93e ce97 fdbc 2538 873b a94d 15b9
00000200: c174 eeba fbdb 0b3c 93c1 14ac b0c3 27b7
00000210: cc62 13b4 ea6c 45b9 2c69 4ab6 0f2f 96ba
00000220: 1762 193c 667f 493b bcd5 4ebb 08f5 3d3c
00000230: 1c37 143c 188e cfbd 7970 9c3b 616f ae3b
00000240: 4cf7 9dac 3189 e7bb 57fe 45bb 943b 413c
00000250: 54b6 27b5 4f51 1837 188b 3e3b 5953 6c3b
00000260: 96b0 97bb 1fb7 b0bb 5b89 a4bb 3d23 2ebc
00000270: 7897 1c3b 2509 cbb7 dd0e 7a9e 085f 2c39
00000280: 0193 23be 43cc b43b 888c a6bc bf8f 7aba
00000290: 16ae 523c b905 44ba ae3d e339 14db 023a
000002a0: ba51 3dbb d1f0 303a 813b 97ba fbb4 3c3a
000002b0: ff91 87b9 4865 de3b 4592 b63c dde0 3abb
000002c0: 3b43 9ebc 3249 2c3b b163 caba 248c 53ba
000002d0: f53f ff39 eef5 2c3a ce6b 51b9 b4e3 66bb
000002e0: 2fe7 e2bb 589f 5dbb 012c bab9 205b de36
000002f0: 1cc6 b8bd 485f 83bc ad1d 353c 2728 85b8
00000300: be0c 91bb 4ea3 9abc c879 511c 4a43 c432
00000310: 67c5 a8ae 6fbe 7db6 9a59 c4b3 5acc 12b9
00000320: ad74 2eba dd04 4ab9 0acd b1ba 9999 96ba
00000330: 64dd 423c be14 4c3d 265d 1dbb 3f44 0cb9
00000340: e880 899e 3d7f 58bb 4eba 50ba 8659 4bbd
00000350: 8b06 11af 7d63 9fb2 8019 b8ba c43c 2abc
00000360: 4a6b 64ba 70c5 4a38 6016 ffbb 69c4 ecba
00000370: 5b94 48bb 1c50 f0b3 0404 be87 a554 35b7
00000380: b834 b23d 23d4 e7ba 4cf5 b1bc dcdd dfb8
00000390: c4a3 7fbc 9629 83b9 b991 66b9 868f 9bb9
000003a0: 7be4 48ba 63c5 bcb9 2e88 b7bb ecb4 28b7
000003b0: 1add d437 5eb0 97bb cea0 363e 1bf1 e4bb
000003c0: 21c6 dcbc ed93 1638 b4fc 0dbb d9f1 94bb
000003d0: 8055 39b8 06b7 6cb9 397a dfb5 4d35 8fbb
000003e0: ac5f 04bc 4697 c8b9 fa14 46b7 18a2 22b2
000003f0: 4f4a 4e3e 9d13 dfbc 2592 3dbc 6351 f4b8
-0.004750116 -0.016183544 -2.8537729e-22 -4.7884768e-08 -1.02077395e-10 -4.4094345e-06 -6.195918e-08 -0.00019822363
-0.0005628722 -0.0001960245 -0.002614947 -0.0022770914 0.004715171 0.021695133 -0.0059280815 -0.000245512
-2.6651761e-20 -0.0023912734 -0.0008632536 -0.057441358 -9.169754e-11 -6.235698e-09 0.0011010878 -0.007731404
-0.0008739449 5.0960585e-05 -0.018569749 -0.001264162 -0.0034302245 -8.693411e-08 -1.9495849e-37 -1.1428344e-05
0.03501178 -0.003603069 -0.0010978526 -8.969086e-05 -0.024668463 -0.0001013017 -0.00029581343 -0.0002926106
-0.00080195785 -0.00045533857 -0.0069448114 -6.435161e-06 -1.1383188e-05 -0.002107914 0.12939045 -0.016809043
-0.029137144 6.1090606e-05 -0.0007626539 -0.004431564 -5.5450924e-05 -0.00013709629 -1.1352874e-06 -0.006881891
-0.011264362 -0.0012986816 -6.085013e-06 -3.025661e-09 0.13606149 -0.009520908 -0.010141083 -0.0001568424
-0.007055548 -0.019977443 9.48184e-22 2.4387445e-08 -1.6166253e-10 -1.0524682e-05 -4.5998863e-08 -0.00036727887
-0.0006819123 -0.00036322098 -0.0033286822 -0.0026882032 -0.020517783 0.15287913 -0.0038369827 -0.0004999383
-5.4994664e-20 -0.0035465432 -0.0016565145 -0.03148283 -2.0815281e-10 -5.491327e-09 0.00034346417 -0.01905031
-0.00093795446 -0.00021407235 -0.004424034 -0.0015245473 -0.007450263 -2.562585e-07 1.3386117e-37 -5.36164e-06
0.19832674 -0.0035070165 -0.0082381535 -0.00022990456 -0.027020302 -8.036617e-05 -0.00012931209 -0.0002588364
-0.0009170309 -0.0007469226 -0.007345878 -2.2059927e-05 0.000112579975 -0.0019299764 0.31387535 -0.015452679
-0.06980367 -0.00012642863 -0.002446069 -0.0047619045 -5.3130687e-05 -0.00014473444 -1.5619687e-06 -0.001559431
-0.009964669 -0.0006263999 -1.36291665e-05 -9.540262e-09 0.36180457 -0.030956175 0.004126566 -0.00014238678
-0.0018192754 0.008536334 -2.113952e-12 -9.999538e-06 -1.3726384e-07 -0.00018827958 -3.0161564e-06 -0.0011458116
0.009361765 0.0030746101 -0.00315605 0.0115940645 0.009046342 -0.10134524 0.00477415 0.005323336
-4.489664e-12 -0.007065915 -0.0030211413 0.01179399 -6.247767e-07 9.078837e-06 0.0029074606 0.0036060421
-0.004629205 -0.0053929235 -0.005021257 -0.010628519 0.0023893993 -2.4203744e-05 -1.32379635e-20 0.000164386
-0.15974046 0.005517514 -0.020330682 -0.0009558163 0.012858888 -0.00074776594 0.0004334277 0.00049917516
-0.0028887824 0.00067497516 -0.0011538119 0.0007198599 -0.00025857982 0.006786976 0.022286544 -0.0028515377
-0.019319167 0.0026288745 -0.0015441087 -0.0008069894 0.00048685042 0.00065979257 -0.00019971954 -0.0035230936
-0.006924532 -0.00338169 -0.0003550947 6.626724e-06 -0.09022161 -0.016036645 0.011054439 -6.349413e-05
-0.004426568 -0.018876698 6.93097e-22 2.2848003e-08 -7.674821e-11 -3.7810785e-06 -9.14326e-08 -0.00013999772
-0.0006654959 -0.00019266033 -0.0013565135 -0.0011489867 0.011893604 0.04982447 -0.002401182 -0.00013376864
-1.4558754e-20 -0.0033034824 -0.0007962332 -0.049645923 -1.3189998e-10 -1.8555278e-08 -0.0014045686 -0.010390464
-0.0008713497 4.834443e-05 -0.0077846497 -0.0018063906 -0.0030606005 -1.1190443e-07 -2.8590383e-34 -1.08081485e-05
0.087014616 -0.0017687123 -0.021723412 -0.00010674793 -0.01560301 -0.0002501725 -0.00021988795 -0.00029670837
-0.0007663441 -0.0003600522 -0.0056009507 -1.00557045e-05 2.5375328e-05 -0.004629179 0.1783478 -0.00698675
-0.026949944 3.5900553e-05 -0.0021665515 -0.004545432 -4.4187065e-05 -0.00022574895 -1.6650366e-06 -0.0043703676
-0.008079451 -0.0003825968 -1.1806604e-05 -9.466497e-09 0.20145534 -0.027231032 -0.011570488 -0.00011649986

lstm.bias_hh_l0 f4 [256]
00000000: b0a6 9bbb 5293 84bc 4f80 ac9b 01aa 4db3
00000010: 7178 e0ae 53f5 93b6 ef0d 85b3 4dda 4fb9
00000020: b68d 13ba 3c8c 4db9 725f 2bbb ae3b 15bb
00000030: c581 9a3b feb9 b13c e440 c2bb 2db8 80b9
00000040: 01b8 fb9e e9b6 1cbb 274c 62ba 9047 6bbd
00000050: 20a5 c9ae ed41 d6b1 7f52 903a b657 fdbb
00000060: 7319 65ba cab9 5538 691f 98bc 55b2 a5ba
00000070: a8cd 60bb 88b0 bab3 82ae 8482 5ebc 3fb7
00000080: 8368 0f3d 7821 6cbb 50e1 8fba b218 bcb8
00000090: 2516 cabc b371 d4b8 6c17 9bb9 8869 99b9
000000a0: 713a 52ba 1cbb eeb9 4d91 e3bb 93ed d7b6
000000b0: d00a 3fb7 ee24 0abb ee7e 043e c5b4 89bc
000000c0: 10b1 eebc ac1e 8038 edec 47ba a736 91bb
000000d0: 4994 68b8 52c1 0fb9 2e60 98b5 cd7f e1bb
000000e0: b68e 38bc e235 aaba dd2d ccb6 feeb 4fb1
000000f0: b553 0b3e 95fd 1bbc c626 26bc 0b76 24b9
00000100: ae31 e7bb d3a7 a3bc 1749 8f1c 977c d132
00000110: 9cbf 31af 2a93 30b7 3590 45b3 258f c0b9
00000120: 60c2 32ba 306d beb9 ec25 5abb a92c 30bb
00000130: b114 a8bc 598c 1c3e eb75 7bbb a10e 03ba
00000140: 39da 819f 1f6d 68bb 6b1d d9ba 24f4 00bd
00000150: dfdd 64af 44ae bcb1 fb12 b439 690f 9cbc
00000160: 20e1 75ba 3075 60b9 7df7 90bb 52d2 c7ba
00000170: 7721 f4bb 8c93 89b4 ad33 3602 22e8 b3b6
00000180: 2a16 4b3e 27d6 65bb 52f9 06bc 8912 71b9
00000190: f65c ddbc 4b8a a8b8 ed97 07b9 61b2 87b9
000001a0: c664 70ba 80cd 43ba b1b5 f0bb 550d b9b7
000001b0: ea18 ec38 43f7 fcba 45b4 a03e d02a 7dbc
000001c0: 4ff5 8ebd d28f 04b9 3a4e 20bb c009 9cbb
000001d0: 7ed8 5eb8 e6c3 17b9 d6a4 d1b5 0e65 ccba
000001e0: d842 23bc e433 24ba 0ea9 64b7 84e6 23b2
000001f0: 733e b93e cd97 fdbc d038 873b c44d 15b9
00000200: cd74 eeba f7db 0b3c 93c1 14ac b0c3 27b7
00000210: e462 13b4 ea6c 45b9 6d68 4ab6 0f2f 96ba
00000220: 1b62 193c 6e7f 493b b9d5 4ebb 0ef5 3d3c
00000230: 1c37 143c 188e cfbd c070 9c3b 686f ae3b
00000240: 4cf7 9dac 3189 e7bb 59fe 45bb 943b 413c
00000250: 54b6 27b5 4f51 1837 1a8b 3e3b 5853 6c3b
00000260: 9ab0 97bb 20b7 b0bb 4889 a4bb 3c23 2ebc
00000270: 7097 1c3b 1f09 cbb7 d20e 7a9e 0a5f 2c39
00000280: 0193 23be 4ecc b43b 898c a6bc cf8f 7aba
00000290: 02ae 523c a705 44ba af3d e339 21db 023a
000002a0: c351 3dbb e7f0 303a 0c3e 97ba fbb4 3c3a
000002b0: 2192 87b9 4b65 de3b 4592 b63c e2e0 3abb
000002c0: 3b43 9ebc 3149 2c3b b163 caba 168c 53ba
000002d0: fd3f ff39 fff5 2c3a cc6b 51b9 b4e3 66bb
000002e0: 30e7 e2bb 149f 5dbb 012c bab9 205b de36
000002f0: 1cc6 b8bd bd5f 83bc ad1d 353c 2728 85b8
00000300: e80c 91bb 4ea3 9abc c879 511c 9043 c432
00000310: 67c5 a8ae 6fbe 7db6 6b59 c4b3 5acc 12b9
00000320: ab74 2eba df04 4ab9 0ccd b1ba 0499 96ba
00000330: 64dd 423c be14 4c3d 265d 1dbb 2d44 0cb9
00000340: e880 899e 3d7f 58bb 67ba 50ba 8159 4bbd
00000350: a006 11af 6963 9fb2 8019 b8ba c63c 2abc
00000360: 4a6b 64ba 66bd 4a38 7016 ffbb 63c4 ecba
00000370: 5b94 48bb a24f f0b3 0ef7 bd87 f654 35b7
00000380: b834 b23d 19d4 e7ba 6af5 b1bc dddd dfb8
00000390: bba3 7fbc 9829 83b9 b991 66b9 898f 9bb9
000003a0: 70e4 48ba 63c5 bcb9 2e88 b7bb e5b4 28b7
000003b0: fedf d437 5eb0 97bb cea0 363e f0f0 e4bb
000003c0: 28c6 dcbc c49a 1638 b4fc 0dbb d8f1 94bb
000003d0: de54 39b8 06b7 6cb9 257a dfb5 5d34 8fbb
000003e0: ac5f 04bc 2297 c8b9 f714 46b7 18a2 22b2
000003f0: 4f4a 4e3e 9d13 dfbc 2a92 3dbc 5851 f4b8
-0.0047500953 -0.016183529 -2.853793e-22 -4.78849e-08 -1.02077354e-10 -4.409501e-06 -6.1958296e-08 -0.00019822382
-0.00056287216 -0.00019602565 -0.002614942 -0.0022771168 0.0047151768 0.021695133 -0.0059281457 -0.00024551284
-2.6651761e-20 -0.0023912734 -0.00086325634 -0.057441294 -9.169754e-11 -6.2357146e-09 0.0011010914 -0.007731403
-0.0008739449 5.0956187e-05 -0.018569665 -0.0012641648 -0.0034302268 -8.693411e-08 -1.949582e-37 -1.1428345e-05
0.03501178 -0.003603069 -0.0010977183 -8.9691384e-05 -0.024668762 -0.00010130126 -0.00029581354 -0.0002926106
-0.00080195727 -0.00045534305 -0.0069448114 -6.4351566e-06 -1.1387005e-05 -0.002107914 0.12939045 -0.01680983
-0.029137164 6.109229e-05 -0.0007626552 -0.004431564 -5.545121e-05 -0.0001370956 -1.1352874e-06 -0.00688169
-0.011264494 -0.0012986029 -6.085013e-06 -3.025661e-09 0.1360615 -0.009520908 -0.01014108 -0.00015684233
-0.007055483 -0.019977486 9.481839e-22 2.438746e-08 -1.616613e-10 -1.0524682e-05 -4.5998792e-08 -0.00036727745
-0.0006819125 -0.00036320975 -0.0033286763 -0.0026882088 -0.020517679 0.15287913 -0.0038369845 -0.00049994333
-5.4994644e-20 -0.0035465432 -0.0016564553 -0.03148283 -2.0815304e-10 -5.491332e-09 0.00034346417 -0.019050317
-0.00093795545 -0.0002140596 -0.004424034 -0.0015245175 -0.0074502784 -2.5625593e-07 1.3386078e-37 -5.3616395e-06
0.19832674 -0.0035070272 -0.0082381535 -0.00022990456 -0.027021866 -8.036623e-05 -0.000129312 -0.0002588211
-0.000917029 -0.00074692816 -0.007345878 -2.2059927e-05 0.000112579975 -0.0019299764 0.31387535 -0.015452102
-0.06980383 -0.00012642078 -0.002446069 -0.0047619045 -5.313055e-05 -0.0001447346 -1.5619687e-06 -0.0015594081
-0.009964667 -0.0006263836 -1.362922e-05 -9.540262e-09 0.36180457 -0.030956173 0.0041266456 -0.00014238717
-0.0018192768 0.00853633 -2.113952e-12 -9.999538e-06 -1.3726418e-07 -0.00018827958 -3.016113e-06 -0.0011458116
0.009361769 0.003074612 -0.0031560494 0.01159407 0.009046342 -0.10134524 0.004774183 0.0053233393
-4.489664e-12 -0.007065915 -0.0030211417 0.01179399 -6.247767e-07 9.078837e-06 0.002907461 0.003606042
-0.004629207 -0.005392924 -0.005021248 -0.010628518 0.0023893975 -2.4203733e-05 -1.32379546e-20 0.00016438603
-0.15974046 0.005517519 -0.020330684 -0.00095581723 0.0128588695 -0.0007477649 0.00043342772 0.0004991759
-0.0028887845 0.00067497644 -0.0011538877 0.0007198599 -0.0002585808 0.0067869774 0.022286544 -0.0028515388
-0.019319167 0.0026288743 -0.0015441087 -0.00080698857 0.00048685065 0.00065979356 -0.0001997195 -0.0035230936
-0.0069245324 -0.0033816742 -0.0003550947 6.626724e-06 -0.09022161 -0.016036863 0.011054439 -6.349413e-05
-0.0044265874 -0.018876698 6.93097e-22 2.2848127e-08 -7.674821e-11 -3.7810785e-06 -9.143226e-08 -0.00013999772
-0.0006654958 -0.00019266036 -0.0013565137 -0.0011489694 0.011893604 0.04982447 -0.002401182 -0.00013376838
-1.4558754e-20 -0.0033034824 -0.00079623464 -0.049645904 -1.3190027e-10 -1.8555243e-08 -0.0014045686 -0.010390466
-0.0008713497 4.8336944e-05 -0.007784657 -0.0018063899 -0.0030606005 -1.1190356e-07 -2.8582765e-34 -1.0808222e-05
0.087014616 -0.0017687111 -0.021723468 -0.00010674794 -0.015603001 -0.00025017257 -0.00021988795 -0.00029670846
-0.00076634344 -0.0003600522 -0.0056009507 -1.0055698e-05 2.5376674e-05 -0.004629179 0.1783478 -0.00698673
-0.026949957 3.5906924e-05 -0.0021665515 -0.0045454316 -4.4186476e-05 -0.00022574895 -1.6650343e-06 -0.004370256
-0.008079451 -0.00038259575 -1.1806601e-05 -9.466497e-09 0.20145534 -0.027231032 -0.011570493 -0.00011649978

fc.weight f4 [50, 64]
00000000: f0bb 1abc 16f1 a939 6fd2 732c 5d52 6436
00000010: e6e7 c434 81b4 cbb9 3542 3fb6 a9ab 273a
00000020: 4d1c 0e38 1947 863a 909e 5d3b 2cf3 bd3b
00000030: 9841 253c ddb2 a2bd 5138 4cbb 8263 f839
00000040: a917 46ac be80 a2bb 8da2 283a 300c 0b3d
00000050: 64c4 a335 a362 74b7 ed07 653b 5a09 3abc
00000060: cd4b 0aba 213b b437 7af2 893b 5669 93bb
00000070: 3d62 bb3a 813c fb37 b276 489e 980a 1839
00000080: 2b0d 083d eb81 403a 8740 a13c 8b79 6339
00000090: dec5 253a 96f8 92b9 e966 963a 7a2c beba
000000a0: ffd2 d63a 5991 e4ba 8376 1a3c 5de8 5d39
000000b0: 993e 0d3a cad7 36bb 6b4b 94bd 6988 2cbb
000000c0: fc43 4fbd 24bd 973a 7cfa 3a3a 2b8f d8ba
000000d0: b553 22ba 0fe3 b53a 3d99 88b8 e406 e5bb
000000e0: 6de9 18bc 094d 55ba 9153 ea38 b48f 4db7
000000f0: ba50 ce3d 24d7 1cbd 720d 75bc fd8d fb39
00000100: e74a 42bc 21d1 8b3c e9b4 0dac 59ef 1c38
00000110: 2e32 0f36 d520 ae38 b3bb 4bb8 8a10 033b
00000120: e864 eab9 8846 a13a d333 cc3b 6613 443c
00000130: 7bde f93c af46 f73d def7 66ba d824 29bb
00000140: 3938 4c2e 9f66 61bc 94e2 75bb 8851 08bc
00000150: ae7f 69b5 3143 19b8 f530 d43b 40fb 03bd
00000160: 4b07 d339 4229 043a 609c 453c 065f 01bc
00000170: 153c 1d3c 733f 2ab8 cb9b 941e 3d17 43ba
00000180: 9b55 853d aa55 193c 92fb 9fbc 08d7 a539
00000190: 0e5f 3dbb b744 583b 4171 cf3a 87f2 2d3a
000001a0: 8d6b 383b b7f6 72bb 0406 763c b11e 4c3a
000001b0: 8986 87ba 5f15 873b 1341 fe3c 0c79 433a
000001c0: 2752 0ebd bf8a dd3a 0e8a 91bb 753f 72bb
000001d0: e6ab 3fba 06b6 4a3b 4af8 4e39 6d4f 0c3c
000001e0: e729 8fbc 1437 95bb 4a22 e939 f48a 1bb7
000001f0: ac3d 5dbd 22b8 963b 5b27 20bc 1d35 dd3a
00000200: cf9e 213b 354d a8bc 5912 a3ac 3f58 f5b7
00000210: 1969 c1b5 8081 b2ba 875e 3938 8ce8 8539
00000220: 1d07 8d3a f1df ff3a 1fbf 4dbb 9f2f 2bbb
00000230: bd47 8cbc b6da 88bd 955e c5bb 4ff0 883b
00000240: abb3 7c2d 62ce 6b3a d8a4 673b ae57 03bd
00000250: e70a 5435 4b02 bb37 0a47 d93a c261 a6bc
00000260: abed 8cbb 74a4 5ebb cf21 0f3c 111d e7bb
00000270: 1461 13bc db28 05b8 2387 5f9e 9ae6 ca39
00000280: 6875 bfbc 6d0a 1e3b 441e 7abc 63c6 04bb
00000290: 16b8 853b 0dc8 f8ba 0692 c839 fbf1 b2ba
000002a0: d24a b5ba abd8 c1ba 3dc1 453c e33a a239
000002b0: 2e13 a23b 839c 143b 081a 8dbd de7c fb3a
000002c0: 4660 973c f53b a83a a3d8 563b 34c5 953b
000002d0: 2df7 80b6 5354 33ba 4cb7 fbb8 5bf1 4f3b
000002e0: d320 163b c5d7 2bba 2812 e4b8 3408 14b8
000002f0: 3199 b43d 4239 e4bc df7e 173d 49a6 27b9
00000300: eb63 92bb 12ba 2e3a 1a54 042b 44b9 ccb7
00000310: 218d f233 9ef8 87ba 2c8e 5538 500e d639
00000320: af17 633a dd65 81ba 31be 033b 1746 8539
00000330: f097 3c3c e28b 4bbd 943d e43a e369 fdba
00000340: 67fa 0e2d 771e c1b9 ad86 5d3b 0de0 f13c
00000350: 7fed 3c35 fd25 15b8 270e 18bb 86f9 66bc
00000360: 3d36 b43a e251 b83a bf1c 9abb fa54 043b
00000370: e095 fc39 e0b6 6a37 f81f 559f 0045 02b9
00000380: b94e 903d d713 573c 8500 3dba 3524 a139
00000390: f674 fcb9 60d8 893b ee5f 833a 2b2b 663b
000003a0: acd5 8c3a 5c9c 81ba c3f1 fc3b 2e7f 62b8
000003b0: de0f 1bbb edaa 173c 52ac 19bc 72e4 8c3b
000003c0: df78 5cbc d1e7 59ba 5e11 64bb 5ecf 883b
000003d0: 6927 bfb9 23ef df39 7174 d638 7947 22bb
000003e0: a2cd ee3b b807 99bb 82a5 3d39 2bbd 1db8
000003f0: f480 e13d 0eba 6abd 3f89 08bd fe01 5b39
-0.009444222 0.00032413815 3.464919e-12 3.402259e-06 3.6676573e-07 -0.00038853663 -2.8499755e-06 0.0006396124
3.3881795e-05 0.0010244577 0.0033816434 0.0057968106 0.01008644 -0.07944272 -0.0031161497 0.00047376385
-2.8150626e-12 -0.004959195 0.00064329134 0.03394717 1.2201604e-06 -1.4566499e-05 0.003494735 -0.011354769
-0.00052755774 2.1485206e-05 0.0042098137 -0.004498641 0.0014296245 2.9949706e-05 -1.06124575e-20 0.00014499796
0.033215683 0.0007343578 0.01968409 0.00021693685 0.0006323735 -0.000280325 0.0011474761 -0.0014509105
0.0016389786 -0.0017438337 0.009427669 0.00021162764 0.0005388051 -0.0027899616 -0.07240947 -0.0026326424
-0.050601944 0.0011576754 0.0007132662 -0.001652216 -0.0006192283 0.0013876873 -6.513528e-05 -0.006989347
-0.009332997 -0.00081367843 0.00011173555 -1.2252411e-05 0.10073991 -0.03829111 -0.014956819 0.0004798024
-0.011858678 0.017067494 -2.013773e-12 3.741621e-05 2.133787e-06 8.303082e-05 -4.857378e-05 0.0019998872
-0.0004470714 0.0012304345 0.006231764 0.011967516 0.030501595 0.12074029 -0.0008810739 -0.0025809314
4.6434166e-11 -0.013757377 -0.0037519084 -0.00832022 -8.698506e-07 -3.654062e-05 0.0064755627 -0.032222033
0.0004025049 0.0005041548 0.0120612085 -0.0078961905 0.009596844 -4.059025e-05 1.5734544e-20 -0.00074421224
0.065104686 0.009358803 -0.019529138 0.00031631463 -0.0028895768 0.0032999942 0.0015826599 0.00066355657
0.0028140277 -0.0037073323 0.015016083 0.0007786556 -0.0010339777 0.0041224207 0.03103689 0.0007456697
-0.034746315 0.0016902311 -0.004441506 -0.0036964093 -0.00073116866 0.0030931248 0.00019738186 0.008563858
-0.017476035 -0.004553685 0.0004446677 -9.2710725e-06 -0.054013893 0.004599587 -0.009775008 0.0016876791
0.0024661308 -0.020544628 -4.6347756e-12 -2.9247369e-05 -1.4410208e-06 -0.0013618916 4.4195473e-05 0.00025540998
0.0010759566 0.0019521696 -0.0031394435 -0.0026120914 -0.017124051 -0.06682341 -0.006023238 0.0041790376
1.4364436e-11 0.0008995292 0.0035346057 -0.03206604 7.899202e-07 2.2293205e-05 0.0016576957 -0.020310286
-0.004300793 -0.0033972533 0.008736088 -0.0070530255 -0.008995313 -3.174772e-05 -1.1833467e-20 0.00038700254
-0.023371413 0.00241151 -0.015266005 -0.002025985 0.0040807826 -0.0018980518 0.0003825577 -0.0013652438
-0.0013831502 -0.0014789304 0.012069997 0.00030942922 0.004946134 0.0022676296 -0.06889731 0.0019186994
0.018478524 0.0012835251 0.0032782934 0.0045706276 -3.8434723e-06 -0.00068408734 -0.000120027544 0.0031729552
0.0022907748 -0.00065552845 -0.00010875269 -3.529359e-05 0.088182814 -0.027859334 0.036986228 -0.00015988307
-0.0044674776 0.00066653 4.7012535e-13 -2.4404966e-05 1.1294674e-07 -0.0010373776 5.0915565e-05 0.00040827924
0.0008662892 -0.0009872277 0.0020102377 0.00025419958 0.011510834 -0.04969395 0.0017413371 -0.0019333925
8.127366e-12 -0.00036834527 0.0033802197 0.029525781 7.038106e-07 -3.5559748e-05 -0.0023201795 -0.014097577
0.0013749074 0.0014062489 -0.004703134 0.0020192252 0.0004817685 1.3990066e-05 -4.5130948e-20 -0.0001242347
0.07046265 0.013127289 -0.0007209855 0.0003073529 -0.00048152328 0.004206702 0.0010023096 0.0035120945
0.0010744832 -0.0009888518 0.00771925 -5.4001044e-05 -0.002366058 0.0092570605 -0.009379463 0.0042996937
-0.013456552 -0.00083124364 -0.003480039 0.0041751107 -0.00036459722 0.00042712045 0.00010226004 -0.002476184
0.007287697 -0.0046701096 0.00018086101 -3.7607893e-05 0.11010924 -0.05730634 -0.033334013 0.0002088621

fc.bias f4 [50]
00000000: ec38 8cbc 6a5a 533d ccee 8abd 9e3f 8d3d
00000010: dfe0 c93c 934f aebc 6002 5bba 2b32 f33a
00000020: 06ca 13bc b176 edbc da8e d5bd 2340 af3d
00000030: 0b5b a23a e143 413d 057e 873d e0ba fbbb
00000040: 9e81 86bc b3ea d8bc 88ed ecbc 068c 3a3c
00000050: 55cb 853d a3c5 73bc 28ef 6fbd 4e23 8e3c
00000060: 7600 86bc 0c8e 333d bf9e cbba 92ce a3b9
00000070: 7888 453d c780 863d 7dbc 04bd 54cb d6bb
00000080: 3143 253c ccd7 8bbd af89 32bd f9a5 b33c
00000090: c83a c9bb acea b33b 5a25 82bd 299b 393d
000000a0: 2253 913d f1cf 833b c8d8 543d 671f 99bc
000000b0: 011e 1a3d 97ac 1abb 81e8 a13c 9bf7 acbc
000000c0: d185 1a3d 13f1 a5bd
-0.017116986 0.051599897 -0.06783828 0.068969 0.02464336 -0.021278178 -0.0008354541 0.001855438
-0.009020334 -0.02898726 -0.104276374 0.08557155 0.0012386752 0.047183875 0.06615833 -0.0076821893
-0.016419228 -0.0264791 -0.028921857 0.011385923 0.06532923 -0.014878663 -0.058577687 0.017350819
-0.016357642 0.04383664 -0.0015534981 -0.0003124369 0.04822585 0.06567531 -0.03240632 -0.0065550003
0.01008682 -0.06828269 -0.043588337 0.021929728 -0.0061410405 0.0054906216 -0.063547805 0.045313988
0.070959345 0.0040225913 0.05196455 -0.018691732 0.03762627 -0.0023601407 0.019764187 -0.021114161
0.037725274 -0.08102622

decoder.0.weight f4 [64, 50]
00000000: 5a74 7d24 f8d6 8ea4 f31f c123 0a0f 52a3
00000010: 3c24 71a3 fb58 27a4 64a0 7da3 21ab a5a3
00000020: a5e9 7aa4 a5ba b7a4 7d29 35a3 5c59 65a2
00000030: 7551 88a3 0950 aba1 808c 6124 9b5d 02a3
00000040: 7f85 13a3 b9b6 0724 cde6 dca4 e10a 9fa4
00000050: e318 6c22 ecd6 29a4 88a3 0fa4 bc44 3e23
00000060: 1b8b 1422 4734 6123 8dc9 0924 eae2 8a24
00000070: e106 8f23 bcd5 6c24 63c0 8723 faaa 0b24
00000080: 9504 40a3 b219 98a2 c15a 82a1 6744 f7a3
00000090: aa66 b723 dfeb 12a4 71a4 58a4 6e1a 65a4
000000a0: 1cdf 1022 788b 3a23 d86e c7a4 9b65 2923
000000b0: 92be dea3 45ef cb22 f98b 72a3 2753 b822
000000c0: 41dd 08a4 a7da 36a3 08d9 1d3c 08da b63c
000000d0: a1e2 d73a 338e c3bd 26a1 91bb 36a0 fa3c
000000e0: ddeb 433d 812b 013e 45a5 5d3d 3a5f 313d
000000f0: 93bb 813d 4b55 d4bc 0936 df3d 1473 49bc
00000100: bea7 c6bc 4218 67bc 2ee0 15bd e1ec 2fbc
00000110: 6836 0d3d 18bb 993c 97f6 8b3d d2ae 91bd
00000120: 8307 22bc 3fae 8d3c 8ff9 4cbd e5cb 1c3b
00000130: 6f7f 9c3c 4b5a 793c bcac 5abd abd6 6cbd
00000140: ea0e 043d 4dbb 4e3d cc9e 70bd 020b fabd
00000150: ce5c 01bd 59f5 123e 929d 98bc 23c5 92bc
00000160: 6e10 44bc dc31 2f3c 3c0b 2ebe 693b a8bd
00000170: c2a1 893d 770b 6cbc 5adf 443d cb87 21bd
00000180: 33e6 86bb 2a26 64bd c68f 7e3d 1421 1ebd
00000190: 10a5 883d 7e91 ef3b 0fa3 8c3c 8e8c 25bd
000001a0: 1ec8 aabc 671f 023e 11bb 6cbd cbe6 aa3d
000001b0: e0f9 42bd 69cd 0f3e 710f 5d3e 10f1 473d
000001c0: 0863 103e 387b ddbd 6fba 1ebd 8956 c8bd
000001d0: 55ce 65bd de5f a4bd d3ce 2f3d b17a 363d
000001e0: 726b 75bd 7a78 a4bd 6cb3 563d 6682 d03d
000001f0: d2b4 02bd 907b 6fbd ef21 48bd 4bd5 b6bd
00000200: 5049 0bbd 772d 5c3d e777 bd3b 3455 a9bd
00000210: bbd6 33bd 28f8 debc 8af2 13bd 39ea 6dbd
00000220: fd3e 2b3d b059 2b3d f71c c1bc b365 76bd
00000230: b158 dd3c 90db b9bd f348 363d 1b23 25bd
00000240: a7f0 dbbb 7636 48bd 0ff9 04bd 67f0 c93c
00000250: 63c2 373d 7c9e f9bc ad3d 493d eda4 79bd
00000260: 92e0 823d c1f2 283d c323 26bd c4f7 093d
00000270: dbb3 21bd 23ff 13bd 70b6 f9bb 06d6 4e3d
00000280: aef8 793d 4e5d dfbc e79c 10bd 95a1 21bd
00000290: 7c23 6bbd f7da 66bc f019 553c 2454 f8bc
000002a0: a15a 1bbd f31d 12bd 2c98 1fbd b3e0 cb3d
000002b0: 12c5 123d e10e 063c dede 393d 89cf 5abd
000002c0: 90d7 303d aa3d 2bbd 8397 a3bd 99ed a43c
000002d0: e992 293c e503 82bb 9658 af3c 6f4f 783d
000002e0: 4ef9 3d3d e3ca b2bc 9763 c4bc 79e6 53bd
000002f0: 3eba 1e3d ad14 90bd 38b7 9e3c 6b23 553d
00000300: 00a0 a5bc bd47 843b 2737 3ebd b853 143d
00000310: 46e1 353d 0a35 153d 0ae3 3fbd 458b 17bb
00000320: 7489 0000 5787 6880 fe70 6388 3889 0080
00000330: 44ae 0080 b58a 0080 4459 0000 2356 0000
00000340: e8fd 0d82 8f0f d71c 1514 d98b 13e6 0000
00000350: 86fe 7b08 ad89 0000 99dc 099e 9289 0080
00000360: fa88 0080 a58a 0000 a78a 0080 0b8b 0080
00000370: ceaa 0a00 6e94 3200 8bad 0600 a389 0000
00000380: c588 0080 14b9 8209 408a 0000 40b2 0000
00000390: d71b 3c80 a689 0080 6589 0080 8d8a 0080
000003a0: 7c9a 0080 a389 0080 cca0 0480 740c 0080
000003b0: 1012 6181 0d8b 0000 de89 0080 3ee2 5b13
000003c0: d3a5 0000 138b 0000 9089 0000 8861 0080
000003d0: ea98 e68c 2644 0080 8089 0080 5272 b502
000003e0: 008b 0000 1089 0080 79e5 3007 978a b088
000003f0: 8fea db07 a9eb 8607 9006 9f86 7bd5 5507
5.4959184e-17 -6.1946855e-17 2.0938633e-17 -1.13873075e-17 -1.3072309e-17 -3.6287722e-17 -1.37491215e-17 -1.7961812e-17
-5.4408013e-17 -7.967979e-17 -9.820815e-18 -3.1082594e-18 -1.4779648e-17 -1.1608596e-18 4.8908106e-17 -7.067136e-18
-7.997155e-18 2.942823e-17 -9.580078e-17 -6.897369e-17 3.199714e-18 -3.682808e-17 -3.11467e-17 1.0314476e-17
2.0131382e-18 1.2208345e-17 2.987786e-17 6.023237e-17 1.5507004e-17 5.1355383e-17 1.4718208e-17 3.0285643e-17
-1.0409311e-17 -4.122689e-18 -8.833165e-19 -2.6808763e-17 1.988438e-17 -3.1858494e-17 -4.697682e-17 -4.9678846e-17
1.9633752e-18 1.0112614e-17 -8.649027e-17 9.183024e-18 -2.4149998e-17 5.5276597e-18 -1.3148487e-17 4.996134e-18
-2.967771e-17 -9.912541e-18 0.009634264 0.022320762 0.0016470739 -0.09548607 -0.004444259 0.030593973
0.04783236 0.12614252 0.05411269 0.043303706 0.06334605 -0.025919577 0.10898978 -0.012295503
-0.024249908 -0.014104905 -0.036590748 -0.010737629 0.034475714 0.018765971 0.06834143 -0.071134225
-0.009889486 0.017295001 -0.050042685 0.0023925242 0.019103734 0.015219281 -0.05338739 -0.05782191
0.032240786 0.050471593 -0.05874519 -0.12209131 -0.031582646 0.14351405 -0.018629823 -0.017916268
-0.011966808 0.01069304 -0.16996473 -0.082144566 0.06720306 -0.01440703 0.048064567 -0.039436143
-0.0041167974 -0.05570046 0.06214883 -0.038605765 0.06672108 0.007311045 0.017167596 -0.040417247
-0.020847376 0.12707292 -0.057795588 0.083448015 -0.04760158 0.14043202 0.21587922 0.04881388
0.14100277 -0.10814518 -0.038752016 -0.0978213 -0.056104977 -0.08026098 0.042921852 0.0445506
-0.05991692 -0.080307916 0.052417204 0.101811215 -0.031910725 -0.058467448 -0.048860487 -0.08927401
-0.034005463 0.053754296 0.0057821157 -0.08268204 -0.043905955 -0.02721794 -0.036119975 -0.0580847
0.041808117 0.04183358 -0.023573382 -0.06015558 0.02701983 -0.09075081 0.044503164 -0.040316682
-0.0067120376 -0.048880063 -0.032464083 0.024650766 0.044863116 -0.030471079 0.049131084 -0.0609483
0.0639049 0.041247133 -0.04056145 0.033683553 -0.039478164 -0.03613199 -0.007620625 0.050497077
0.061028175 -0.02726617 -0.035305884 -0.039460737 -0.057406887 -0.014090291 0.013006672 -0.030313559
-0.037928227 -0.035673093 -0.03896348 0.09954967 0.035832472 0.008182258 0.04537856 -0.053420577
0.043174326 -0.041806854 -0.07987883 0.020132827 0.0103499675 -0.0039677494 0.021404546 0.06062263
0.046380334 -0.02182526 -0.02397327 -0.051733468 0.038751833 -0.070351936 0.019374475 0.05203573
-0.020217896 0.004036872 -0.046439316 0.036212653 0.04440429 0.036427535 -0.04684738 -0.0023123783
4.9309e-41 -9.599442e-39 -6.844315e-34 -4.9225e-41 -6.2515e-41 -4.9759e-41 3.2022e-41 3.09e-41
-1.0431911e-37 1.4231528e-21 -8.3615576e-32 8.2535e-41 7.5831756e-34 4.9389e-41 -7.298338e-21 -4.9351e-41
-4.9138e-41 4.9736e-41 -4.9739e-41 -4.9879e-41 9.79628e-40 4.645021e-39 6.13268e-40 4.9375e-41
-4.9064e-41 3.147041e-33 4.9595e-41 6.3944e-41 -5.520117e-39 -4.9379e-41 -4.9288e-41 -4.9703e-41
-5.5419e-41 -4.9375e-41 -4.25025e-40 -4.467e-42 -4.1338932e-38 4.9882e-41 -4.9457e-41 2.7753232e-27
5.9487e-41 4.989e-41 4.9348e-41 -3.4988e-41 -3.5529143e-31 -2.4447e-41 -4.9326e-41 2.6661176e-37
4.9864e-41 -4.9169e-41 1.3308204e-34 -1.0625197e-33 3.3089319e-34 2.0300588e-34 -5.9818795e-35 1.6087075e-34

decoder.0.bias f4 [64]
00000000: e8a9 d8a5 6417 a6be b5a8 d3be 5acd 8e3d
00000010: ef90 8bb8 bbf0 bfac 3ec5 75a8 61db 95b5
00000020: baca c13c aae4 82be de40 bbbb abcf 78a6
00000030: 97f3 879a 1ae4 a23c ea10 f3bd 71cc 6eaa
00000040: 4781 3bbb dee8 9c9a 73f6 e3b2 1730 36ab
00000050: 73b2 36b9 4196 aa1f 2829 51bd 96c7 4ba5
00000060: 016a 2d2a 88cd ebb6 3256 77bb 8e77 a5be
00000070: 7d95 bf3c ed56 6f9b cbd8 ae3c 5b13 e8bb
00000080: 242f cc3c 4b74 09a9 d282 c520 70c0 b4ac
00000090: 8f89 643d 3fd6 77b7 49d7 9a92 ea44 49b9
000000a0: cc59 acbc ce98 053d 19f9 42a6 366d 94ab
000000b0: b252 bfb7 7727 b731 f485 55b9 1ef0 9ebd
000000c0: 72ac 12b7 c77a 82af 6656 ecbd 4ee0 e9ac
000000d0: 44c9 a1b8 82eb 76b6 257a 243d 8a2c 90ae
000000e0: 8798 b13c 566b 6ab0 fc98 3fb7 289c e7a9
000000f0: 4e96 81bc 9602 9d3c f7ae dcb9 158f 40be
-3.758516e-16 -0.3243972 -0.4133965 0.069727615 -6.6550325e-05 -5.455273e-12 -1.3643002e-14 -1.1165213e-06
0.023656238 -0.25565082 -0.00571452 -8.6323727e-16 -5.622823e-23 0.019884158 -0.118684605 -2.1209576e-13
-0.002861099 -6.4896305e-23 -2.653835e-08 -6.4726127e-13 -0.0001742335 7.2246375e-20 -0.05106464 -1.7675066e-16
1.5402264e-13 -7.0274727e-06 -0.0037740585 -0.32317775 0.023386711 -1.9797704e-22 0.02134361 -0.0070823855
0.024924822 -3.052098e-14 3.3459668e-19 -5.1372726e-12 0.05579525 -1.477223e-05 -9.771838e-28 -0.00019194526
-0.021038912 0.03261643 -6.764486e-16 -1.0546345e-12 -2.2807482e-05 5.3304876e-09 -0.00020363164 -0.077606425
-8.742429e-06 -2.37341e-10 -0.11539917 -6.647161e-12 -7.714567e-05 -3.679394e-06 0.04015555 -6.5562736e-11
0.021679176 -8.528124e-10 -1.1420107e-05 -1.02855495e-13 -0.015818741 0.019166272 -0.0004209203 -0.18804581

decoder.3.weight f4 [20, 64]
00000000: 6b30 a4a3 5e20 503e 9410 e93c 95c5 e0bc
00000010: 3ef0 1127 1236 aa86 df08 9795 b3da 7fb4
00000020: 7c59 463d 6500 39be f6e8 89b9 63e1 471a
00000030: a821 c218 5d59 46bd 917d c4bb 0fc4 f3a2
00000040: 38f9 7e32 017f 5099 006b 8d23 bd0b 5d20
00000050: 36de 0c1c a620 309f 4792 b1b7 9caf 8902
00000060: 2c5b 62a9 b5cc 2035 832b 2133 589c 02bd
00000070: 00f4 6cbc 1862 6519 9199 c43c 3f66 8eb7
00000080: dc9f a4bd 0da6 45a6 46ef eba0 88fc 4522
00000090: 38e8 06bd 7610 02b2 0b21 9a8f 259e 9038
000000a0: 066a 113b 09a9 37bd 2b54 2925 3730 b3a9
000000b0: 1eeb 7f30 0b3a 9633 56e3 ea32 343e cab9
000000c0: 94a4 fca7 4571 fc29 b5f8 a8ba 538d e212
000000d0: 642d e831 6010 7cb0 bfc1 2ebd a0df 9f2c
000000e0: 85c3 683d ede5 ab2d 0a33 16a2 3231 17a3
000000f0: 5e34 1a3a 0795 583c 13f5 5630 811e adba
00000100: b37c 4122 dbc4 bdbc 0e1a 84be 4510 41bc
00000110: 5f89 8ea6 b661 2808 17d5 3715 e620 ff30
00000120: 8d1a aa3d 720d 09be 7ade 4838 bd4f c319
00000130: 4753 be19 0e05 aa3c 605a 5bbb 5103 2222
00000140: a609 0bb3 bb38 0b18 41b2 a924 1337 57a1
00000150: 96c2 571d 2b15 359e a743 81b7 8e2f aa02
00000160: a51f 82a9 61c8 a534 9088 cc33 bd91 963a
00000170: d026 ebbd 7d97 461a ef96 21bd 4c05 adb7
00000180: bbe3 6abd 7d0a 9d27 97ff b0a0 d4ea 1ea1
00000190: cd16 e1bc f996 a6b1 7466 0b91 b523 5936
000001a0: e2f5 f03a a9d0 53bc add8 9b23 a4b3 8aa9
000001b0: ccfc 2131 40f1 a4b2 cfa9 13b4 48d7 9fb9
000001c0: b6d1 8d27 387a e0aa 0c01 8a3a 1458 6f15
000001d0: 61c3 85b2 e251 b231 f2c5 ffbc 1ce8 802b
000001e0: 0331 72ba 4ba7 992e 41cf 11a4 064b 2aa4
000001f0: 5fe4 2a3a 7ad8 823d c905 ddb0 d2a3 70bd
00000200: b3aa 9623 2440 27bd 8917 dd3b 101c 4dbd
00000210: 2595 04a4 6386 3388 fc94 0715 d513 3bb4
00000220: bb2c 493d 16d0 7c3e 14bd f938 74c7 5e1a
00000230: 7131 2b18 0699 12bd 2741 863c de71 8823
00000240: 9419 5933 080c 3919 052f a524 3611 2aa0
00000250: 9d44 0b1e 8b74 db1e 15a0 0cb5 5e23 b102
00000260: d3fa cb29 16f3 56b5 dc6a acb2 18a9 fabd
00000270: fb80 c5bd ae32 5f18 a92a 363d 38f6 eeb6
00000280: 4d3f debd 40da d725 8ed6 df1f 3fd8 07a3
00000290: 7ad5 9ebd ff07 1332 de96 5610 4d2c 65b5
000002a0: 4f68 d338 b84a c9bd 5162 8fa4 2b76 d5a9
000002b0: 8d9a c9b1 a04e 44b3 6e83 3fb5 7285 c23a
000002c0: 22ac faa6 e11b 26aa 8d0e 9dba 6e2f ce14
000002d0: 38e7 f130 b115 8ab0 d874 3cbd 0cf3 5b2c
000002e0: 5865 013d 1d35 272e b90e d423 6d99 2624
000002f0: dc2a 003a d9d0 9a3c 39bb cbb0 3200 0e3d
00000300: f43f 6524 a1b4 ddbd 851d c9b9 592a 18bc
00000310: 702b e3a5 641c 6d08 7f58 2015 7425 20b3
00000320: 885e e83c c750 bcbd 4298 26b8 8f4e 4219
00000330: a3bd 7b19 9360 51bc b673 8b3c 15c5 eea1
00000340: 4e11 a0b3 b788 ab99 6900 99a3 e6de a2a1
00000350: 0a15 921e 2778 ff9c cfe1 d537 64fa af82
00000360: 29fc baa9 5db6 afb5 e4c0 f5af ba19 89bc
00000370: 4fb5 54bc 2c82 3799 7347 4dbd 9337 07b8
00000380: 279c 90bd ce36 bba5 060d 82a1 7ce6 56a3
00000390: bc7f a3bd dfe1 94b1 c255 1592 89df 2837
000003a0: 8ef3 0cbb 2274 18bd aa26 2725 b5ae 9a2a
000003b0: 5efa 1db0 acda 6431 28fd af33 d9a4 d039
000003c0: c53b 9026 2e03 19aa 284c 90ba ef8e 6794
000003d0: 3058 3eb2 62c4 a82f 68f3 a6bd df0a 3eae
000003e0: ee73 a23c 6146 382f 79b0 cb23 d221 c2a1
000003f0: ece9 50b9 8fc8 f33d cb5c f430 3fd9 d1bc
-1.7801421e-17 0.20324847 0.028450288 -0.027437964 2.0253028e-15 -6.402634e-35 -6.100241e-26 -2.3828288e-07
0.048425183 -0.18066557 -0.00026304246 4.13343e-23 5.018181e-24 -0.048425067 -0.005996414 -6.6072867e-18
1.4841412e-08 -1.0778996e-23 1.5332567e-17 1.8723312e-19 4.6609315e-22 -3.7296456e-20 -2.116816e-05 2.0231136e-37
-5.026116e-14 5.990253e-07 3.7525307e-08 -0.031887382 -0.014462471 1.1858832e-23 0.023999007 -1.6975331e-05
-0.08038303 -6.8573146e-16 -3.9968886e-19 2.6832167e-18 -0.032936305 -7.570739e-09 -1.51983e-29 6.895912e-05
0.002218844 -0.04483894 1.468693e-16 -7.957561e-14 9.310258e-10 6.995477e-08 2.7344566e-08 -0.00038574787
-7.0122487e-15 1.1210697e-13 -0.0012891503 1.4297444e-27 6.757249e-09 -9.1700336e-10 -0.04266524 4.543879e-12
0.056827087 1.9542557e-11 -2.035581e-18 -8.196144e-18 0.0005882437 0.013219125 7.820102e-10 -0.0013207943
2.6222393e-18 -0.023165157 -0.25801128 -0.011783664 -9.890464e-16 5.067052e-34 3.7124654e-26 1.8563042e-09
0.083058454 -0.13384035 4.7890913e-05 2.0194733e-23 1.9679175e-23 0.020754363 -0.0033470616 2.195685e-18
-3.2372235e-08 1.799397e-24 7.359404e-17 -7.2917724e-19 2.8555612e-21 -9.586438e-21 -1.5409501e-05 2.500655e-37
-5.778649e-14 3.087944e-07 9.524331e-08 0.0011487525 -0.11482012 4.1067812e-23 -0.039450582 -2.0625674e-05
-0.057346087 4.3587625e-15 -2.9984695e-19 -5.3843275e-19 -0.027476693 -4.8483995e-09 -1.0996737e-28 3.2356304e-06
0.0018383826 -0.012928166 1.68969e-17 -6.159594e-14 2.3572282e-09 -1.920182e-08 -1.3752218e-07 -0.0003048724
3.936273e-15 -3.98752e-13 0.0010528876 4.8335147e-26 -1.5572086e-08 5.189791e-09 -0.031222317 9.15937e-13
-0.00092388707 6.987352e-11 -3.1617414e-17 -3.692642e-17 0.00065190153 0.06388946 -1.6081511e-09 -0.05874998
1.6335327e-17 -0.040832654 0.0067471904 -0.05007559 -2.8749268e-17 -5.4023824e-34 2.738056e-26 -1.7422947e-07
0.049114924 0.24688753 0.00011908464 4.606964e-23 2.2126194e-24 -0.035790466 0.016388489 1.4793374e-17
5.0547513e-08 9.5667055e-24 7.1637e-17 -1.4405255e-19 7.372788e-21 2.3235728e-20 -5.2387014e-07 2.6028112e-37
9.058522e-14 -8.007495e-07 -2.007203e-08 -0.12239283 -0.09643742 2.8847661e-24 0.044474278 -7.1216164e-06
-0.108519174 3.7444447e-16 9.4799125e-20 -7.3641566e-18 -0.07755561 8.558344e-09 4.2320282e-29 -8.5373614e-07
0.00010080693 -0.098287046 -6.218292e-17 -9.479599e-14 -5.8674403e-09 -4.5706315e-08 -7.13443e-07 0.0014840795
-1.7393891e-15 -1.4753434e-13 -0.0011982486 2.0819392e-26 1.7600774e-09 -1.0046987e-09 -0.04600987 3.125669e-12
0.03159079 3.8018578e-11 2.2991321e-17 3.612547e-17 0.0004889199 0.018898414 -1.4823406e-09 0.034668155
4.971063e-17 -0.10825468 -0.000383597 -0.00928744 -3.9407657e-16 7.1352966e-34 3.2381554e-26 -3.7286966e-08
0.028365389 -0.091950946 -3.9719285e-05 1.004543e-23 1.3014693e-23 -0.012779373 0.017022949 -1.6179674e-18
-7.453728e-08 -1.7736204e-23 -1.6588467e-17 -1.1036548e-18 1.5467053e-20 -1.6905543e-21 2.5496729e-05 -2.5857656e-37
-8.303802e-14 -1.3091591e-06 -4.4702297e-10 -0.0167359 -0.01298268 -9.487166e-24 -0.050116967 -3.2238266e-05
-0.07061034 -3.2476466e-16 -8.81259e-19 -1.164977e-17 -0.07983348 -4.3330455e-09 -4.7121815e-28 1.0065626e-05
-0.0021507475 -0.037220128 1.4498041e-16 2.7477123e-13 -5.747206e-10 3.3302667e-09 8.1951214e-08 0.00039795673
1.0008208e-15 -1.3590233e-13 -0.0011009024 -1.1690708e-26 -1.1079507e-08 3.069856e-10 -0.08151895 -4.3210654e-11
0.01983067 1.6759706e-10 2.2084043e-17 -1.3154904e-18 -0.00019923568 0.11903488 1.777971e-09 -0.025616286
