checkpoints/checkpoint_epoch_150.pth (torch, 78474 bytes, 24 tensors)

fc1.weight f4 [64, 2]
00000000: b507 a03e bb0c f3be 9501 ed3e 6fc4 1dbf
00000010: 9247 97bd 4761 1e3d 204a 223e 4345 c23e
00000020: a846 043e a984 ad3d ee33 9b3d fda9 213f
00000030: c5bb a6be 0e27 38bf 255e 0f3e ffe5 c6bd
00000040: 0d43 1cbe 6b27 973e df72 d0be 4378 883e
00000050: 3655 0bbf f535 3d3e a52f 8a3e 2a78 1cbe
00000060: 8bff 93be 6236 98bd 302a cbbe fd31 b43d
00000070: 317b 07bc 32a3 0bbf a3f5 0d3e 1d34 b2be
00000080: 206a 323f 6987 623d 0ea4 83be 442f 063f
00000090: 2c53 d93c c2ea 993e 3f78 f8bd d4e9 86be
000000a0: c236 6dbe e742 ccbe 8976 e53e 12a0 c0be
000000b0: 6443 d13e 25a9 1b3f 6a8a ac3e eb6e 44bf
000000c0: 7e8c f0be 748a 2fbf c7a6 89be bbf6 1bbf
000000d0: 9cb5 7bbe d849 903e a9fe c23e f4d4 2f3e
000000e0: 04e8 983c 4036 203f 9bc9 7ebe a090 edbe
000000f0: 0ead f8be d126 23bf 8fa5 143f ee70 2cbf
00000100: 7145 be3e 6272 75be 9bc8 08bf ae63 b0be
00000110: 919a 43be a085 093f a09d 17be 269c 41bf
00000120: b443 2c3f 0db5 0abf 8db0 6f3e 6f36 443f
00000130: d38a 223e 5d22 1e3f c4c7 2e3c 6728 c6be
00000140: 097a b8be 57ff 9b3e 96a3 b73e 95db c7be
00000150: 554f dc3d 6ad9 233d 1361 f83c 03ba 19be
00000160: 8578 dc3e d8f1 273e f533 a2bd ed0c c4bc
00000170: a947 523e b532 503d 8062 a93c b1ee 56bf
00000180: c950 b03e ba39 bd3e 5a34 1a3f 52af 8cbe
00000190: 4fae 283f c88b 143f edeb eebe f4c9 35bf
000001a0: 8741 e4bd 1230 febd 25d1 cfbe 4eac a5be
000001b0: 0dda eabe e811 b93d b8d7 433c 3ba8 95bd
000001c0: 5af2 8abe 61d1 07bf 8bea 333e caae acbd
000001d0: 4594 4f3e 3568 ca3e dd69 f3be 2bdd 963e
000001e0: f1a1 56bd c5dd adbe fe98 013f c4bf c9bc
000001f0: 61b3 3cbe 61d2 08be 85da f6be a8b8 2a3e
0.3125588 -0.4747065 0.4629027 -0.6162786 -0.07386698 0.03866699 0.15848589 0.37943467
0.12917578 0.084725685 0.07578264 0.63150007 -0.32565132 -0.7193459 0.14000757 -0.09711837
-0.15259953 0.2952226 -0.4071264 0.26654252 -0.54426897 0.18477614 0.26989475 -0.15280214
-0.289059 -0.07432248 -0.39680624 0.08798597 -0.008269117 -0.5454589 0.13863234 -0.34805384
0.69693184 0.05530492 -0.257111 0.5241587 0.026528917 0.30061918 -0.1213231 -0.26350272
-0.2316542 -0.39894792 0.44816998 -0.37622124 0.40871727 0.6080497 0.33699352 -0.7673175
-0.46982187 -0.6857064 -0.26885054 -0.60923356 -0.24580997 0.28181338 0.38084915 0.17171079
0.018665321 0.6258278 -0.24881594 -0.46399403 -0.4856953 -0.63731104 0.5806512 -0.6735982
0.37162355 -0.23969415 -0.534311 -0.3445105 -0.19101931 0.5371952 -0.14806223 -0.7562889
0.67290807 -0.5418251 0.23407193 0.7664556 0.1587327 0.61771184 0.010667745 -0.387027
-0.36030605 0.30468246 0.35866994 -0.39034715 0.10757319 0.040002264 0.030319726 -0.15012364
0.430607 0.1640085 -0.07920066 -0.023931945 0.20535149 0.050829608 0.020676851 -0.83957964
0.34436634 0.36958104 0.6023613 -0.2747751 0.65890974 0.5802579 -0.46664372 -0.7101128
-0.11145311 -0.124115124 -0.40589252 -0.3235802 -0.45869485 0.090366185 0.011953287 -0.07307478
-0.27138025 -0.5305386 0.1756994 -0.08431776 0.20271404 0.3953263 -0.47541705 0.29465613
-0.052400533 -0.3395826 0.5062407 -0.024627574 -0.18427803 -0.13361503 -0.48213592 0.16672003

fc1.bias f4 [64]
00000000: 506a 4b3f 6311 993e 4292 f6be 81f0 2e3f
00000010: d61f f3bd bafb c73e d980 b23d d9f1 2c3f
00000020: 9695 803d 3ef8 fd3e a901 24bf a5a6 853e
00000030: ef92 0bbf 74d8 b03e e760 72be 8a28 153f
00000040: 0898 a4be acb5 73bd 3ac5 cebe 433a 17bf
00000050: 5417 963e 983a c7be 0b10 e6bb 27c6 a3be
00000060: 0c13 5dbd d4a8 133e aade 59be 75e8 03bf
00000070: 638f d5be 8f61 de3e 199a d0be b891 0dbf
00000080: 3590 34bf 19b7 383f 1eb9 c2bd 4a33 d3bd
00000090: 0e68 c3be 7f93 bc3e a690 153f 88c2 a8be
000000a0: 573b 53be 5a5c 9fbe 7418 dabe dcb5 18bf
000000b0: d4a9 98be 05c8 fa3e 6564 32bf 4aba 3a3f
000000c0: d904 5e3d 0eb2 8bbd 0f45 24bf 8d18 b6be
000000d0: 40fa 603f 4f35 50be cc0d 5d3e 0601 f73e
000000e0: 6bc0 76bb 15b2 09bf 2044 d8be f332 283f
000000f0: ed91 373f 0847 e9be 7bb5 17bf c7af a4be
0.79459095 0.29896078 -0.4815846 0.6833573 -0.118713066 0.3905924 0.08715982 0.6755653
0.06278531 0.49603456 -0.64065033 0.26103702 -0.5452108 0.3454014 -0.23669778 0.5826498
-0.3214724 -0.059499428 -0.40384847 -0.59073275 0.29314673 -0.3891189 -0.0070209554 -0.31987116
-0.053973243 0.14419872 -0.21276346 -0.51526576 -0.41710958 0.43433806 -0.40742567 -0.55300474
-0.7053254 0.72154385 -0.095079646 -0.10312517 -0.38165325 0.3683128 0.5842384 -0.32960916
-0.20628105 -0.31125146 -0.4259678 -0.59652495 -0.2981707 0.48980728 -0.6968444 0.72940505
0.05420384 -0.068210706 -0.64167875 -0.35565606 0.8788185 -0.20332836 0.21587294 0.48242968
-0.003765131 -0.53787357 -0.42239475 0.6570274 0.7170704 -0.45562005 -0.5926129 -0.32165357

fc2.weight f4 [32, 64]
00000000: 3775 10be a56a ccbd 024c b3bd 8a34 093e
00000010: 1bcd 14bd 9bee 5fbd 5cb2 e0bd 4f13 13be
00000020: ffee 04be 34a9 9d3d e17b d53c e5c3 dcbc
00000030: 6175 06be 861d a13b 986e ac3c 5825 e6bd
00000040: 85de 2cbc 68ce b4bd fff3 ee3c 1e03 05be
00000050: 4c30 193c 1486 39bd 6ad6 9a3d 9152 b5bd
00000060: 70cf 9b3d 491e 7abd 9c83 b4bd 9475 c73d
00000070: 3c7b 32bc a3e5 dfbd 703b 31bd e053 f8bc
00000080: 4499 95bd 2b86 9c3d d061 14be 0297 20be
00000090: 5ce1 143e 5320 cebd 1bc4 3e3d 40db ab3d
000000a0: f231 fdbd 98e8 31bd 501b a53d 10ca 143c
000000b0: c562 21bd 05fb 07be b05f 40bc 441f bebc
000000c0: b0c6 ce3d af8d dcbd 0833 a1bb a6e8 dcbd
000000d0: 9c55 813d cd5b eabb 2a58 e0bc 8a25 db3b
000000e0: cf3f 723d 7c99 4dbd d26e e7bc 0940 e13a
000000f0: fc80 5cbd d08a 1b3c 0fca 1fbe 672b b2bc
00000100: 54ea d8bd d0a4 a9bd edf8 6f3c 4e7a 613c
00000110: d1fe e6bd 98a2 2cbd cd4d 1d3e 58d6 13bd
00000120: 0ffc cbbd 1e1f 5ebd 91f4 1a3d 87dc e2bd
00000130: 29b6 a63d 8442 06bd 14f0 4c3c 6bb6 b5bd
00000140: edf3 883d ba67 783d cc8c 9f3c a762 dcbc
00000150: 7c90 083e 877b 25bd efba 1cb9 8b44 0ebc
00000160: 8718 003d f4f8 cd3d 5ea5 8dbd 13db abbd
00000170: ddc4 0fbe 4585 ca3c ab40 aabc 93a5 833c
00000180: 0df1 fabd 40c7 a43d 1f81 ea3d d037 df3d
00000190: 8cc2 16bd 8815 873d 9ab8 d43b 555b f93c
000001a0: eaa8 b73c 2eeb cbbd 9778 04be 3896 393d
000001b0: 9e90 fabb 2c8e efbc a9fa 4d3d 61f4 bc3d
000001c0: 3cd2 38ba 9539 e0bd 1c79 29be 447b 033d
000001d0: 3c5c 083e 7f63 02bc 2bab b03d 94f9 98bc
000001e0: d5d2 b23d 0ddb 623c cd5e 0bbe ac9f 6bbc
000001f0: 227c ae3d 38b8 a5bd 92c0 34bd 051f e93d
00000200: 3c2c 27be 8d2e 2c3d 1a19 c73d 46e7 7d3d
00000210: 266e f8bd 20ec f3bd 74a8 f0bd 5c3a 803d
00000220: 18c3 81bd 7895 37be f739 e7bd 148a b7bd
00000230: 807e afba 7ed2 5b3d d875 6e3d 5c5d 2ebd
00000240: d72e 07be d58f b6bd 9c30 073d c4a7 8b3d
00000250: 2fc3 04be ce6a 31be 1e92 0f3d 5a9f 31be
00000260: f13a aebd 52d3 8ebd d4f6 18be 2066 b4bc
00000270: b80a ce3d b012 66bc 23e4 2dbd e2cc 27be
00000280: 68d4 d43c d34e 293d 0e40 9ebd d004 99bc
00000290: 717b 1bbe c89f eabd c6be a8bd 2e0c 813d
000002a0: 1b55 253d 4ba5 3dbd 3688 d5bd 18fc cd3d
000002b0: 17d3 6e3d b16b 21bd c645 99bd 1408 653d
000002c0: c640 e6bd 13cb 28be fef7 54bd 98a0 04be
000002d0: 99b7 1c3d a7ff 84bd 13f5 5dbd fc71 21be
000002e0: c3b9 cb3c b821 1cbd 1876 b7bd 391b 1cbe
000002f0: 2379 2dbe 015a e8bd b0d8 d63d fd84 f5bd
00000300: 530f e9bd 2300 a3bd 839a 85bc f640 5b3c
00000310: a43a 863d d813 053d 738f 96bd a461 983c
00000320: b19f 16be 1049 49bd 06c3 c6bb cc20 8c3d
00000330: e5f2 05be 2371 08be 1d44 43bd ab38 2cbe
00000340: 4e4c 9f3d 3119 cd3c 2c32 c7bd 570d 26bd
00000350: f016 a7bd 1f10 0a3c 9d35 29bc 2ba5 f4bd
00000360: 039f 633c 3062 d4bd e876 8d3d f8af 54bd
00000370: 545d c2bd b30a e1bd a49d 35bd 1718 d2bd
00000380: bf91 de3b 9171 c0bc f579 c93c 2618 d8bd
00000390: a51b 49bc 8c53 e8bc ecd6 a73a c621 a5bd
000003a0: 6b79 a53d 0230 40bc 1713 9fbd f367 f03a
000003b0: efc3 afbc 7348 a8bd 64bc 1d3d 1fd1 a0bd
000003c0: 88be 0cbe a1db 21be 7f6d 2dbe 404a 49bc
000003d0: 8c59 a43b 71cf ddbd adb9 073d e407 d63c
000003e0: 355a 493d f973 eb3c 9d0c 94bd 00dd 0dbd
000003f0: 8902 87bd 680f a0bd a51c f93b 7e8c cbbd
-0.14107214 -0.09981278 -0.08754732 0.13398948 -0.036328416 -0.05467091 -0.10971519 -0.14362834
-0.12981795 0.076982886 0.026060047 -0.026948879 -0.13130714 0.0049168495 0.021048829 -0.112375915
-0.0105511 -0.08828431 0.02916908 -0.1298947 0.009349894 -0.045293882 0.075604275 -0.08853639
0.07607925 -0.06106404 -0.08814165 0.09739223 -0.010893639 -0.109324716 -0.043269575 -0.030313432
-0.07304624 0.07642778 -0.14490438 -0.15682605 0.14539093 -0.10064759 0.04657374 0.08391428
-0.12363042 -0.04343471 0.0806185 0.009081379 -0.039400835 -0.1327935 -0.011741564 -0.023208268
0.100964904 -0.107692115 -0.0049194135 -0.10786562 0.06315157 -0.007152057 -0.02738579 0.0066878246
0.059142884 -0.050195202 -0.028251085 0.0017185222 -0.053833947 0.009493545 -0.15604423 -0.021749211
-0.105915695 -0.082833886 0.014646751 0.01376207 -0.11279071 -0.04214725 0.1536171 -0.036093086
-0.09960186 -0.054228894 0.037830893 -0.110772185 0.08140213 -0.032778278 0.012508411 -0.08872684
0.0668715 0.060645796 0.019476317 -0.02690251 0.13336366 -0.040401008 -0.00014946958 -0.008683334
0.03127339 0.1005725 -0.06916307 -0.083913945 -0.14039941 0.024721751 -0.02078279 0.016070163
-0.12253008 0.080458164 0.11450409 0.10899317 -0.036806628 0.06595904 0.006491733 0.030439058
0.022419412 -0.09956966 -0.12936626 0.045309275 -0.0076466342 -0.029242598 0.050287876 0.09226299
-0.00070503703 -0.10948483 -0.16550106 0.032099977 0.13316435 -0.007958292 0.08626398 -0.018673696
0.08731619 0.013846171 -0.13610382 -0.01438133 0.0851977 -0.080917776 -0.04412896 0.1138287
-0.16325468 0.04203658 0.097215846 0.061988138 -0.12130384 -0.11910272 -0.1175088 0.06261131
-0.06336039 -0.17928112 -0.11290353 -0.08961883 -0.001338914 0.053667538 0.058217853 -0.042569503
-0.13201462 -0.089141525 0.033005342 0.06819108 -0.12965082 -0.17325899 0.035051458 -0.17345944
-0.08507336 -0.069739 -0.14937907 -0.022021353 0.10060638 -0.014042541 -0.042453896 -0.1638675
0.02598019 0.04133494 -0.07727061 -0.018679053 -0.15183808 -0.11456257 -0.08239512 0.06301151
0.040364366 -0.046300214 -0.10426371 0.10057849 0.05830678 -0.039409343 -0.07484011 0.055915907
-0.11242823 -0.16483717 -0.051994316 -0.12951887 0.03826103 -0.06494074 -0.0541888 -0.15766138
0.024868852 -0.038118094 -0.089580715 -0.1524476 -0.16940741 -0.11345292 0.104905486 -0.11988256
-0.11379876 -0.079590105 -0.016309028 0.013382187 0.065541536 0.032489628 -0.073515795 0.018601246
-0.14709355 -0.049141943 -0.006065729 0.06842193 -0.13080938 -0.13324408 -0.04767238 -0.16818492
0.07778226 0.025036426 -0.097263664 -0.040540066 -0.08158672 0.008426695 -0.010327724 -0.11945566
0.013892892 -0.1037029 0.06907445 -0.05192563 -0.09490457 -0.10988369 -0.04433979 -0.10258501
0.0067922766 -0.023491653 0.024594286 -0.10551481 -0.012274657 -0.02836015 0.001280514 -0.080630824
0.08079799 -0.011730196 -0.07767313 0.0018341526 -0.021455733 -0.082169436 0.03850974 -0.07852387
-0.13744557 -0.15806438 -0.169363 -0.012285769 0.0050155576 -0.10830582 0.03313606 0.02612681
0.049158294 0.028741824 -0.07228968 -0.03463459 -0.065922804 -0.078154385 0.0076022916 -0.09938906

fc2.bias f4 [32]
00000000: 19df 51bd 2a75 01be eae9 e2bd 4620 07be
00000010: f35f 5fbd 4a04 e43d 6f9a fabd a43d d33e
00000020: 99f1 04be 602b 17be 7109 83bb e3f9 ba3d
00000030: a19a 723b c408 e3bd 2d67 42be ba8b 18be
00000040: 35c5 fdbc 2cd9 0abd 8e0a 903e 3fc4 113d
00000050: d776 3f3d 1143 91bd 915d 21be 289f f3bd
00000060: d631 7e3b 3aa6 8ebd aa72 81bd 424d c5bd
00000070: 6338 0fbe 22ad 96bd cb78 5c3d 7f5c a33d
-0.051238153 -0.12642351 -0.11079772 -0.13195905 -0.054534864 0.111336306 -0.12236487 0.41257966
-0.12982787 -0.1476264 -0.0039989282 0.09129693 0.0037018436 -0.11085656 -0.18984671 -0.14897051
-0.030977825 -0.033898517 0.28133053 0.035587545 0.046744194 -0.0709287 -0.15758349 -0.11895591
0.0038787029 -0.06965299 -0.063206986 -0.096338764 -0.13986354 -0.07357241 0.053826135 0.079766266

fc1.weight f4 [64, 32]
00000000: ed1b 33be d427 83be f31e 2ebe de98 37be
00000010: 0a26 8c3d a427 0b3d e882 e23d 1d3a ad3d
00000020: e11a 833d b5c6 f7b9 6463 523d 0f9f b1be
00000030: 4408 c2bd 8005 89bd 7574 35be 4deb 7fbd
00000040: 0ad8 743d 861b c13d 9896 bdbd c102 afbd
00000050: 4fe1 c7bd 1a53 a23d a3d8 aa3d d967 c3bd
00000060: 9eb1 8b3d 3cc3 5abe 2924 223d b400 9abd
00000070: 478b 1cbc 5498 29bc d69d 64be 4996 80bd
00000080: d3d8 e33c ed04 13bd 0653 133e 3e01 d93d
00000090: 8c4a 043d 9270 f73d b734 fd3d 6c27 433e
000000a0: e7bf f1bc c3be 23be 040e 2b3b bee3 18be
000000b0: dae6 973d 2dfa 543e ece7 09be 904b 513e
000000c0: 25aa 023e db6e 233e 78d1 5e3d a67e 3cbe
000000d0: e3ec ce3d 9f43 f9ba 7944 5d3e c67b 9a3b
000000e0: 0bb7 58be 30b8 bcbc 4755 5a3e 6a52 9d3c
000000f0: b604 eebd 7e41 a13b 921d a9bd b750 efbd
00000100: 7fcc 563c 2ae5 563d 0c79 af3d d00f 963d
00000110: acdf 9e3d b5e5 e8bd 86e6 8ebc 8dc1 2a3e
00000120: 8c7b 0fbe f5d1 da3d 2c5c 53bd 74e9 0a3d
00000130: 9577 ca3c 1253 3cbe 2295 49be c877 0e3e
00000140: 42fd c7bd 7bee 01be d656 0a3e bf03 4dbe
00000150: 5809 98bd 653d 593d a63e 343d 2647 023e
00000160: efc9 033c c12f 26bc defa 06be 70b3 2bbe
00000170: 2467 76bc 6ee0 ccbd 3476 163e 0ea4 a0bd
00000180: 9204 943d 2803 dfbc c726 03be 1161 2ebe
00000190: 4529 68be e4e7 4abe 5ab0 0fbc 5e18 fcbd
000001a0: f64c 4a3d 8c75 e53d f261 4d3d 9fae e1bd
000001b0: e861 823d 5954 73be 5529 143e d157 2a3d
000001c0: 50f4 31be 353f 81bc 5474 d8bc 7d24 c03d
000001d0: 885f 9ebc f631 8cbd dc5a fbbb b29d f4bd
000001e0: cb19 f43d c063 d83d aca8 e8bd d862 32be
000001f0: 3bf7 1d3e ca57 2dbe fcd8 0f3e adb7 9dbd
00000200: 7c94 183d e89c eebd 33af b8bd 27d6 b83d
00000210: 0690 963d b947 fc3c d64a 1bbe b34f 85bd
00000220: d45f d43d 8abd 43be befc 2e3d d213 293d
00000230: 4352 bcbd da7f c93d 65e3 ebbd 2832 c73d
00000240: 5744 243d e794 0f3e da88 ccbd 41cf 4fbe
00000250: a1e5 0dbe 0d1e 65bd 57b5 c1bd 6f64 c13b
00000260: 2e69 5cbe 5d07 3ebd f718 01be 34dc 0fbe
00000270: 9300 19be 0f49 01be b55a 6abe afa7 a43d
00000280: d8e4 f5bd 835e ba3d cb77 de3a 8eae 5ebd
00000290: bdba c13d 6539 903d 3a0f e5bd 571d 43be
000002a0: 5bee 67be 3649 d43d 9763 1abd 8bb6 8d3d
000002b0: 80a6 68be 4b83 a3bb 7be7 c23d d81e f73d
000002c0: 60ef edbd f606 0fbc 45e7 b8be c536 86be
000002d0: d571 11be be7c 5ebd b705 883d 45a0 c63c
000002e0: 04c2 74be 7e27 84be adb5 1b3e 5256 873d
000002f0: 21d8 e6bd 0091 f53d c892 0ebe a576 09be
00000300: 7144 15be 0182 13be 73ef 54be 2a23 19be
00000310: 7c60 cfbd 966b 4d3f ed0e b43c c9df ed3e
00000320: cec5 e4bd 022e 60bd 1a53 26be a8b5 34bd
00000330: 9f7d 04be 8cb1 5d3d cbaa 41be 2d09 6d3d
00000340: c9e4 02be 5f1f 843d 28a5 a43d 6e16 a03c
00000350: 09e3 72ba 5030 d2bb 0b23 a2bc a484 153e
00000360: 1b75 dcbd 1e6f 8d3d 6481 bdbd 25a1 69bd
00000370: 0764 693d adeb fe3d 0a79 45bd 6b96 fd3d
00000380: 1414 8f3d d2d0 d73d a273 733d 2037 c6bd
00000390: 91ea 443d 23d5 65bb 8c7e db3d ad7e 243f
000003a0: d82b edbd 7754 223e f96e 0cbd f4be 193d
000003b0: 4954 63be 5c7e 3cbe 8d39 27be da32 01be
000003c0: c88c 803c 180d bfbd 2e22 e43e dcba 523d
000003d0: 4162 60bc 06eb 9b3b c73e 18bc 88b5 ef3d
000003e0: bbc8 a8be d8c5 f2bd 0390 443e 05e1 6b3d
000003f0: 2d36 edbd 64c8 b2bd 89af 253d d932 cbbd
-0.17491122 -0.25616324 -0.17003994 -0.17929408 0.06843193 0.03397335 0.11060125 0.0845835
0.06401611 -0.0004725956 0.051364318 -0.34691665 -0.09474233 -0.06690502 -0.17720206 -0.06248026
0.059776343 0.09429078 -0.09257239 -0.08545447 -0.09759771 0.079260066 0.083421014 -0.09541292
0.06820987 -0.21363539 0.039585266 -0.07519665 -0.009554691 -0.010351259 -0.22325835 -0.062786646
0.02781335 -0.03589337 0.1438714 0.1059594 0.032297656 0.12082018 0.1236357 0.19058007
-0.029510451 -0.15990739 0.0026100883 -0.14930627 0.07417078 0.2079856 -0.13467377 0.20438981
0.12760217 0.15960257 0.054398984 -0.18407688 0.10103776 -0.0019017345 0.21608151 0.004714462
-0.21163575 -0.023037046 0.21321593 0.019204337 -0.11621992 0.0049211374 -0.08257593 -0.11685317
0.013110279 0.05246464 0.0856801 0.07327235 0.07757506 -0.11371938 -0.017443907 0.16675396
-0.14011973 0.106845774 -0.051601574 0.033914044 0.024715224 -0.18391064 -0.19685796 0.1391288
-0.09765102 -0.1268863 0.13509688 -0.2002096 -0.07423657 0.053037066 0.04400506 0.12722453
0.00804375 -0.010143221 -0.13181636 -0.16767669 -0.015039239 -0.10003744 0.14693528 -0.07843791
0.07227434 -0.027223185 -0.12807761 -0.17029215 -0.22671993 -0.19815022 -0.008770073 -0.12309335
0.049389802 0.11204061 0.050142236 -0.110196345 0.063663304 -0.23762645 0.14468892 0.041587655
-0.17378354 -0.01577721 -0.026422657 0.093819596 -0.019332662 -0.06845467 -0.0076707434 -0.119441405
0.11918982 0.10565901 -0.113602966 -0.17420518 0.15426342 -0.1692802 0.14047617 -0.07701049
0.03725098 -0.11651021 -0.090177916 0.09025221 0.07351689 0.030795919 -0.15165266 -0.06509342
0.1036984 -0.19115272 0.042721502 0.041278668 -0.09195378 0.09838839 -0.115179814 0.097263634
0.040104236 0.14021645 -0.0998704 -0.20293905 -0.13857128 -0.05593686 -0.09458416 0.005901865
-0.21524498 -0.04639374 -0.1260718 -0.14048845 -0.14941625 -0.12625526 -0.22886164 0.080397956
-0.12006539 0.09100058 0.0016972957 -0.054365687 0.094594456 0.07042197 -0.11184545 -0.19054161
-0.22649519 0.103655264 -0.037692633 0.06919583 -0.22719765 -0.0049900166 0.09516808 0.1206643
-0.11617923 -0.008729687 -0.36113945 -0.2621366 -0.1420358 -0.054318182 0.06641715 0.024246344
-0.23902136 -0.2581138 0.15206023 0.06608261 -0.11271692 0.11990547 -0.1392318 -0.13424166
-0.1457689 -0.14405061 -0.20794468 -0.1495482 -0.10125825 0.8024229 0.021979773 0.46459797
-0.11170541 -0.054731376 -0.16242638 -0.044118553 -0.12938546 0.0541244 -0.18912809 0.05787008
-0.12782587 0.06451296 0.080393136 0.019541945 -0.0009265398 -0.0064144507 -0.0197921 0.1460138
-0.107645236 0.069059595 -0.09253195 -0.057038445 0.05698016 0.12447295 -0.048211135 0.123822056
0.069862515 0.10537876 0.059436448 -0.09678483 0.048075262 -0.0035069666 0.10717496 0.6425579
-0.11580628 0.15852533 -0.03428552 0.037535623 -0.22200121 -0.18407577 -0.16330548 -0.12617055
0.01569213 -0.09328669 0.44557327 0.051447734 -0.013695301 0.0047582416 -0.009292311 0.11704546
-0.32965645 -0.11854142 0.19195561 0.057587642 -0.11582599 -0.08729628 0.040450606 -0.09921808

fc1.bias f4 [64]
00000000: 2a2c b73d 5588 a43c 4b6c 9bbd 85d5 acbd
00000010: 63bf 2abe 6b9e f5be 6b66 383e 3816 68bb
00000020: 077d 5c3c 5197 7bbe 64a5 2a3c 6647 9abe
00000030: be07 ca3c 0e00 083e a9f8 2b3d 2a68 9b3d
00000040: 8815 463e b6a8 61bd 87ff 883c f4d0 cf3d
00000050: 27d1 a33c 311b 0cbe da9e fabb 97b3 0dbd
00000060: 63ac 6bbd 7d83 67bd 6692 f5bc 6551 70be
00000070: b36c 7a3d cb7f efbd 6877 81bd 77e9 82bd
00000080: caf4 ee3d cae6 0b3e c66b 8bbd 8694 58be
00000090: 05e8 a03d c3c9 6ebe e650 193e e672 b63d
000000a0: fe19 6c3d a065 21be af20 e33d 741d 5b3e
000000b0: 9fd9 583e 6137 483e a452 aabe c08b 0bbc
000000c0: 55ba 4f3e c019 393c 49e5 f7bc 521b 68be
000000d0: bcf4 26be d133 dfbd eda5 1abc 9e3c 67be
000000e0: 77ec ac3e ffcf a43d 1819 2bbc 785b 10be
000000f0: 7123 233e be1c 553e fc5b 2ebe c017 de3e
0.089439705 0.02008454 -0.075890146 -0.08439163 -0.1667457 -0.47972426 0.1800782 -0.0035413634
0.013457543 -0.24569441 0.010415409 -0.30132598 0.024661895 0.13281271 0.041985188 0.07588227
0.19344151 -0.055092536 0.016723407 0.101472765 0.019997193 -0.13682248 -0.007648331 -0.0345951
-0.057537448 -0.05652188 -0.029977035 -0.2346855 0.06113882 -0.116942964 -0.06321603 -0.06392186
0.116677836 0.13662258 -0.068076655 -0.21150407 0.07856754 -0.23319153 0.14972267 0.08908634
0.057641976 -0.15761423 0.11090218 0.21397954 0.21176766 0.19552375 -0.33266175 -0.008517206
0.20285924 0.011297643 -0.030260699 -0.22666672 -0.16304296 -0.10898555 -0.009438974 -0.22581717
0.33774158 0.080474846 -0.010442995 -0.14097393 0.15931489 0.20811746 -0.17027277 0.43377495

fc2.weight f4 [20, 64]
00000000: eab0 87bd 03c4 00be 12a2 a23d ef4f 24be
00000010: 4677 003d c1b6 bfbd 351b 193d 0f32 edbd
00000020: c812 713d ee3f 0e3d 233e 9ebd 7fc3 9e3c
00000030: e7d5 43bd 24aa f8bc 00e6 90be 40be 823e
00000040: be64 1ebe 5da7 03bc 8e44 113e e40d a0bd
00000050: 65b8 a1bd d707 143d 7209 a23c b2e8 81bd
00000060: 0cca 1bbc 261c 453d 3ade bfbc cc3a bebc
00000070: fb98 aebd 9ed9 d03d c03a e23d b5f9 e1bc
00000080: a9ba 613e 14c0 143e 54e4 6b3d 1812 003d
00000090: 637f 1bbe 34f0 a7bd 96fb 0ebe 1cb3 383c
000000a0: badc 803c c0e2 0fbd 89e5 c239 8981 6dbe
000000b0: 0303 133e dc76 0ebd 54bc 123f 37c5 81bd
000000c0: cfd0 86bd 5860 21be 4f72 3cbe 14a9 44bd
000000d0: c43f a93c 2e6d 693c 0c46 573d 9209 8cbc
000000e0: ee93 df3d d672 3f3d ef70 b2bd a30d 46bd
000000f0: 456a 26bc e537 9ebc 8b1d 18be 8b6a cf3d
00000100: c870 36bb 5456 1abd a586 123e 51ee 8b3d
00000110: c71b ccbc 82ca 323e c7f3 43be 9f7b 703b
00000120: dd8f 683d a3a7 f23d 8ab3 febc d0b8 be3d
00000130: 069a b73d a28e aebd 013d b5be f891 3dbd
00000140: 146b c4be 0dea 24bc 62a9 1abc d957 f8bd
00000150: 79ab 2ebd de58 dd3d f6c5 4dbc e19c 24bd
00000160: e94a 26bd 1cb6 94bd d9f8 59bd 8935 0f3d
00000170: 3a6b ab3d 8eda f63d a6e3 183d a79b 8ebd
00000180: c0d2 83be ecf3 9dbd 0f05 8c3c 062a 4d3d
00000190: fe06 95be e29b ac3d 2a28 5abd 7cd9 17be
000001a0: 4407 ee3d 3853 d63c e5c1 983c 716c 903b
000001b0: 055d 873d d28f 66bd 82b6 963e f2e6 553d
000001c0: 24cb c93d f433 32be 18a3 523d 63dc 3c3d
000001d0: 10d1 42bc a692 9d3d ad8e e23d a63b 343d
000001e0: b1e5 41be 9d71 9dbd 45aa 6d3d c3c5 f5bc
000001f0: e88b 2f3e 229e 493e 5c1c ab3c 37f3 65be
00000200: 5356 013d acac e53d ad8b 0c3e 0152 823c
00000210: 0b59 1b3d f8cb 593e 522c 16be 0af1 fa3c
00000220: c147 273e 5e8b 1abd b8a8 04be 0323 253e
00000230: b09f af3d 5855 093e d400 82bd 50ce 823e
00000240: 9e37 af3b 0b7b 423e 6064 0f3d fc86 5b3e
00000250: 0c1b a8bd f764 d83d daf9 d23c 88ce 2c3d
00000260: a092 40bc f5e0 c5bd ef08 033e be30 6e3d
00000270: 70a3 bb3d 48f8 093d 2373 08be 10a8 c2bd
00000280: 2048 c03e 1382 a8be 88cc e9bd 5585 a43d
00000290: c4c6 0bbe 1c86 c83b 951e 983d 764d 17be
000002a0: 506f 56bc fa1f f43d df9d b13d 0a85 9e3e
000002b0: cfbf 13bd 7a07 3a3d 805e e93e 4bc9 d7bd
000002c0: 4861 04ba 1a2e 1fbe 3875 01be e9c7 05bd
000002d0: 4244 b2bd 696a 883c 9864 7a3d f144 193c
000002e0: ec8c e2bd 1a47 80bd 1c22 ac3d ba0a b1bc
000002f0: ea3b a9bd 24ce cdbd 3f8f 983d c463 05be
00000300: 520f 513c 6ce2 133e d446 bb3d 2948 8f3d
00000310: b0b9 58bd 8c5a b23e 993b 8a3d 74b8 6a3d
00000320: d829 abbd bb0e ea3c e29e 903d 3a56 9e3d
00000330: 684e 94bd 0e9e b6bd cd32 4b3e c8b1 51be
00000340: ce90 90bd f65b 92bd aeb8 e2bc 1def 9abd
00000350: 1490 c0bc 91fa 4fbd be3b 8c3c 2a20 1bbd
00000360: 10d8 8fbd adb6 953d 4ce3 9a3d efc3 8c3d
00000370: 046b a4bd 4062 44bb d2c8 ff3d daba 0f3e
00000380: d4ad 52be b255 13be a6f6 8d3d 4f2f 0b3b
00000390: c462 d43d ec0c 0a3d c4c6 653d 1834 f43d
000003a0: d4f6 273d 1076 0d3d 483b c6bc 98b8 373c
000003b0: 5495 b4be 99e6 433e dc0f aebd 6885 873d
000003c0: 0f0b 233e 9d43 15bc 07a8 1c3e 3fb0 253d
000003d0: d4b1 023e eb19 2d3e 745a 1f3e df8a ce3d
000003e0: 9446 83be 94b9 60bd 82de 023e ca00 8a3c
000003f0: 7977 6dbd ee4e 8d3e 1814 133e 5317 3cbe
-0.066255406 -0.12574773 0.07941069 -0.16046117 0.031363748 -0.093610294 0.037379462 -0.115818135
0.0588558 0.034728937 -0.077266954 0.01938033 -0.047811415 -0.030354567 -0.28300476 0.25535774
-0.15468118 -0.008035508 0.14186308 -0.078151494 -0.078964986 0.03614029 0.019779895 -0.06343211
-0.009508621 0.048122548 -0.023421396 -0.023221396 -0.085252725 0.10197757 0.11046362 -0.02758489
0.22043861 0.14526397 0.057590798 0.031267256 -0.15185313 -0.08200112 -0.1396316 0.011273172
0.01573025 -0.035128355 0.0003717358 -0.23193945 0.14356618 -0.034781322 0.57318616 -0.06336444
-0.06582796 -0.15759408 -0.1840298 -0.048012808 0.020660289 0.014247222 0.052557036 -0.017094407
0.10916887 0.046740375 -0.087129466 -0.04835285 -0.010157173 -0.019313762 -0.1485502 0.10127743
-0.002783822 -0.037679985 0.14309175 0.068325646 -0.024915589 0.17460063 -0.19135962 0.0036694778
0.056777824 0.118483804 -0.03109147 0.09312594 0.089649245 -0.08523299 -0.35398105 -0.046281785
-0.38362944 -0.010065568 -0.009439798 -0.121261306 -0.042643998 0.10807966 -0.012559405 -0.040188674
-0.040598784 -0.07261297 -0.053215835 0.034963164 0.08370061 0.12053405 0.037326477 -0.06963282
-0.25746727 -0.0771254 0.017092256 0.050088905 -0.29106897 0.0842817 -0.05326096 -0.14829057
0.116224796 0.026162729 0.018647144 0.0044074585 0.06609539 -0.0562895 0.29436117 0.0522222
0.09853199 -0.17402631 0.05142507 0.046108615 -0.011890665 0.076939866 0.110623695 0.044002198
-0.18935277 -0.07687686 0.05802371 -0.030001527 0.17143214 0.19689229 0.020887546 -0.2245606
0.031576466 0.11214575 0.13725157 0.015908243 0.037926715 0.21269214 -0.14665344 0.030632515
0.16335966 -0.037730567 -0.12954986 0.16126637 0.0857538 0.13411462 -0.06347814 0.2554803
0.0053472063 0.1899225 0.035007834 0.21438211 -0.08208284 0.105661325 0.025753904 0.04218915
-0.011753708 -0.09662048 0.12796377 0.058151953 0.091620326 0.033684045 -0.13325171 -0.09504712
0.37555027 -0.3291174 -0.11415964 0.080332436 -0.13650042 0.0061195027 0.07427708 -0.14775643
-0.013088062 0.119201615 0.0867269 0.30960876 -0.036071595 0.045417286 0.4557991 -0.105364405
-0.00050498964 -0.1554493 -0.12642372 -0.032661352 -0.087044254 0.016652303 0.06113109 0.009354816
-0.11062035 -0.062635615 0.08404943 -0.02161156 -0.08263381 -0.10049084 0.07449197 -0.13026339
0.01276 0.14441842 0.09144369 0.06996185 -0.05291146 0.34834707 0.067496486 0.057304814
-0.083575904 0.028571477 0.070615545 0.0773129 -0.07241517 -0.08916865 0.19843598 -0.20477974
-0.07058869 -0.071464464 -0.027675953 -0.075651385 -0.023506202 -0.050776068 0.017118331 -0.03787247
-0.070236325 0.07310233 0.07562885 0.06873309 -0.08028224 -0.0029965788 0.12489475 0.14036122
-0.20574123 -0.14388159 0.0693181 0.0021237915 0.103704005 0.03370373 0.05609776 0.119239986
0.041006878 0.03453642 -0.02419819 0.011213444 -0.35270178 0.19130935 -0.08499119 0.06617242
0.15922187 -0.009110359 0.15298472 0.040451284 0.12763149 0.16904418 0.15561849 0.10085081
-0.25639784 -0.05486448 0.12780192 0.01684608 -0.057975266 0.2759928 0.14363134 -0.18368272

fc2.bias f4 [20]
00000000: 2bf0 a63d bbaf 0e3c 71f5 a1bd 1ede d1bc
00000010: 7382 69bd a654 76bd cefe 18be 0b10 f5bc
00000020: f593 20bd b55b a13d 34bf 70bc 21d7 5fbb
00000030: f774 d0bc c07f 0cbd f958 aabc c536 82bc
00000040: b7e7 8e3d 0613 89bd e872 67bd 5ce1 92bd
0.08151277 0.00870889 -0.07908142 -0.025618609 -0.05700917 -0.06013932 -0.1494095 -0.029914876
-0.039203603 0.0787882 -0.014694024 -0.0034155326 -0.025446398 -0.03430152 -0.020794379 -0.015895257
0.0697779 -0.066930816 -0.056506068 -0.0717189

exp_avg f4 [64, 2]
00000000: db0d 08b8 8234 0537 33e8 55b8 0150 f6b5
00000010: 4843 1838 661f 32b5 f337 8bb8 90c7 2c36
00000020: d05e 9bb8 e785 26b3 1738 5338 d104 a6b4
00000030: 1a96 b536 d99c e736 3c2b b6b8 a193 4137
00000040: 77c1 b736 9a69 46b7 14f6 0db6 f872 1bb7
00000050: be09 0938 07f9 9fb6 878f 18b7 5da4 0c36
00000060: f89e 7d38 82c3 5936 351e 66b8 8a88 c536
00000070: 7c30 8c24 2160 a021 0730 7cb8 823a e237
00000080: dcc3 67b6 73b3 1836 f69e b837 c0bd 36b7
00000090: c090 c038 bd4f 2736 74f9 f836 0adc 69b4
000000a0: 6462 87b5 8539 fe36 4de1 39b8 7320 00b7
000000b0: 0334 3238 8e70 acb6 7338 1e37 2e75 58b5
000000c0: 37ee b6b7 0c66 a936 fae7 12b6 8fb4 7c36
000000d0: 6dc5 1838 f6d0 32b7 6e37 8eb6 959e a2b6
000000e0: f4bb 0737 b0b8 24b5 bdfa 7cb6 dda6 5237
000000f0: c9f3 e737 1fab c136 3d2a 45b8 ce44 09b7
00000100: ece1 80b8 d708 86b6 3adb 6eb7 33df ec36
00000110: b35d ac37 d019 9cb5 7aef a138 072c 3333
00000120: b879 91b8 e37d 38b7 f8bd f7b6 790b 0fb7
00000130: a497 62b8 f5ca c6b6 748b e024 f02b 8821
00000140: bd67 03b6 7871 92b6 2560 7b36 c4c2 5cb6
00000150: 5a2b 8f37 f894 80b6 9ffa 8737 6075 8d1f
00000160: adcd d5b7 de48 3f36 1b1b 21b8 5dc9 9536
00000170: d886 eb37 cd8f 15b6 4ac0 e637 481c b236
00000180: e86a 4f38 c014 c935 5296 e9b7 2424 48b6
00000190: b18e 1238 241d 6235 b75c 2d38 c2ff 3536
000001a0: a5c1 0c37 d01e 0937 bc81 16b8 0257 b836
000001b0: c1b1 8e38 30dd 14b6 4203 4cb8 02e5 9b37
000001c0: fe98 3b38 aaa2 a336 3ae5 55b8 b2ab 23b6
000001d0: d00d c236 2c44 87b5 c1b3 66b8 b9cc f935
000001e0: 1a93 2438 6976 dfb4 712f 75b8 4ff3 33b7
000001f0: c63a 9bb7 6f68 4034 1131 f837 4f4f ffb6
-3.243783e-05 7.939643e-06 -5.099941e-05 -1.8351712e-06 3.6302285e-05 -6.635586e-07 -6.638458e-05 2.5746158e-06
-7.408636e-05 -3.877167e-08 5.0358558e-05 -3.0923414e-07 5.4116945e-06 6.902596e-06 -8.686489e-05 1.1538069e-05
5.4763473e-06 -1.1826307e-05 -2.1153874e-06 -9.265488e-06 3.267242e-05 -4.76756e-06 -9.093324e-06 2.0957298e-06
6.046795e-05 3.244932e-06 -5.4864406e-05 5.8869527e-06 6.079746e-17 1.0867467e-18 -6.012621e-05 2.6968544e-05
-3.4535688e-06 2.2754218e-06 2.2008531e-05 -1.0892225e-05 9.182235e-05 2.4931353e-06 7.420016e-06 -2.1779866e-07
-1.0086919e-06 7.576486e-06 -4.4317265e-05 -7.63695e-06 4.2486947e-05 -5.1391025e-06 9.430677e-06 -8.063679e-07
-2.1807018e-05 5.0484723e-06 -2.1890723e-06 3.7656025e-06 3.642349e-05 -1.0658279e-05 -4.2383826e-06 -4.8464376e-06
8.090388e-06 -6.1363517e-07 -3.7696875e-06 1.2555826e-05 2.7650867e-05 5.7717693e-06 -4.7007798e-05 -8.181856e-06
-6.145597e-05 -3.9945403e-06 -1.4236948e-05 7.059332e-06 2.054763e-05 -1.1630418e-06 7.721684e-05 4.1716728e-08
-6.936811e-05 -1.0996565e-05 -7.383289e-06 -8.526135e-06 -5.4023825e-05 -5.924487e-06 9.738076e-17 9.227349e-19
-1.9580905e-06 -4.3643486e-06 3.7457878e-06 -3.2895923e-06 1.7067116e-05 -3.8320395e-06 1.6209959e-05 5.9910003e-20
-2.5487354e-05 2.8503632e-06 -3.8410635e-05 4.463988e-06 2.8076975e-05 -2.2286433e-06 2.7507678e-05 5.3081058e-06
4.945221e-05 1.4981706e-06 -2.7845763e-05 -2.982336e-06 3.4942004e-05 8.4233966e-07 4.133276e-05 2.7119972e-06
8.389737e-06 8.17301e-06 -3.588361e-05 5.4937564e-06 6.804197e-05 -2.2182467e-06 -4.8640424e-05 1.858408e-05
4.472676e-05 4.876715e-06 -5.099664e-05 -2.4388833e-06 5.7832585e-06 -1.0078124e-06 -5.5003682e-05 1.8611528e-06
3.9237646e-05 -4.1623142e-07 -5.8456735e-05 -1.0725881e-05 -1.8504808e-05 1.7919386e-07 2.9586752e-05 -7.608825e-06

exp_avg_sq f4 [64, 2]
00000000: e907 0c35 33c0 1831 1748 d234 3208 e42f
00000010: d813 e133 2649 a52f 51e8 7a34 44e3 f731
00000020: 2123 eb34 33f5 9b30 4a04 9734 b87e ab31
00000030: f3a0 6034 fb2d 0531 1a10 cc34 ff1e a931
00000040: bf29 f733 6d0e 0a31 21e4 c434 2767 5530
00000050: b9df 9a33 dafa 4c2f 450b 5334 6ff5 7230
00000060: 4839 6e34 0dbf 0e30 9d38 f133 ef5b 1430
00000070: cd53 8a34 9b8c e22e 4843 3634 961b 1731
00000080: c1f9 1034 c1d9 b22f 9e49 ba33 80c1 e22f
00000090: 3b61 d633 53df 172f 3b85 c233 1b2f 612f
000000a0: 3112 d134 0a93 ae30 1239 f733 0f4f 6930
000000b0: c7b7 2935 a03c 6830 5b81 8334 99a2 d82f
000000c0: 36f4 9834 53b3 3230 022b 5a34 4558 a030
000000d0: 0f3b 5234 2125 2f30 f10e 4434 6ff5 3b30
000000e0: 58e3 2f34 c1d2 8531 0b0d a534 8c22 8030
000000f0: 6c69 7834 bbe0 f12f 3b17 2f35 8760 f830
00000100: 6b0e 0335 4fea 8a30 cef0 df34 e87a ab30
00000110: 754e b834 2e6e fe30 08be b234 ab6e 2a30
00000120: af57 c534 4920 f430 f2c1 da33 5af1 4e31
00000130: 2e39 9c34 796d 4032 1b87 a734 d55d 0b2f
00000140: 4b20 a134 f960 c230 441f 8234 0f6a c22f
00000150: 385f 8434 c481 9430 25d4 4b33 1841 b229
00000160: ab70 2133 a03b e92e aed0 f934 9581 0331
00000170: aad0 f434 a6f5 c630 a16e 6934 7a79 db2f
00000180: ca9c 2534 511b e02f 4682 6233 8737 c82e
00000190: 2c3c 6c34 94f8 c92f b893 b134 04c5 2f30
000001a0: 334e 3e35 4b40 5c31 0989 3b35 68c5 b530
000001b0: 88f0 cc33 5feb c42f 001c 1e34 8cdc 5f31
000001c0: 6e84 fc33 3619 c42f 9149 0a35 4b98 9530
000001d0: cf2c 1134 136c 1b30 1357 4734 9397 1630
000001e0: ed9a 8334 c5bc de30 7920 0a35 b6ba fa30
000001f0: 610d c033 ef61 8d2f f8a1 c934 5197 d330
5.2165575e-07 2.2228164e-09 3.9168e-07 4.1478782e-10 1.04809885e-07 3.00653e-10 2.336758e-07 7.2144832e-09
4.379772e-07 1.1347424e-09 2.8129062e-07 4.9911613e-09 2.0920179e-07 1.9380184e-09 3.8009676e-07 4.922071e-09
1.15094274e-07 2.0089843e-09 3.667383e-07 7.7635537e-10 7.211879e-08 1.8642812e-10 1.9655006e-07 8.838787e-10
2.2186316e-07 5.19308e-10 1.1232735e-07 5.397273e-10 2.5765476e-07 1.0302267e-10 1.6974548e-07 2.1989073e-09
1.3501905e-07 3.2532735e-10 8.674691e-08 4.124665e-10 9.982838e-08 1.3812711e-10 9.0580635e-08 2.0480366e-10
3.894252e-07 1.2701957e-09 1.1512215e-07 8.4877255e-10 6.322484e-07 8.448726e-10 2.449477e-07 3.9405704e-10
2.8489893e-07 6.501086e-10 2.0318478e-07 1.166662e-09 1.957926e-07 6.371739e-10 1.8259358e-07 6.8378986e-10
1.6380852e-07 3.8947694e-09 3.0743135e-07 9.323045e-10 2.3135152e-07 4.3997325e-10 6.5226385e-07 1.807181e-09
4.8822284e-07 1.0107416e-09 4.1712195e-07 1.247682e-09 3.4329756e-07 1.8512247e-09 3.329335e-07 6.200291e-10
3.6757908e-07 1.7762513e-09 1.01866945e-07 3.0114138e-09 2.9098868e-07 1.1200762e-08 3.1204476e-07 1.2675312e-10
3.0012083e-07 1.4142919e-09 2.4237136e-07 3.5363754e-10 2.4656197e-07 1.0805299e-09 4.7457565e-08 7.91608e-14
3.7588205e-08 1.0606205e-10 4.65317e-07 1.9136668e-09 4.5600365e-07 1.4476214e-09 2.1740063e-07 3.9922182e-10
1.5423862e-07 4.0764772e-10 5.273821e-08 9.104811e-11 2.2001103e-07 3.6738312e-10 3.30763e-07 6.3944605e-10
7.089431e-07 3.205076e-09 6.986234e-07 1.322559e-09 9.5432426e-08 3.5819434e-10 1.4725083e-07 3.2576137e-09
1.1758753e-07 3.5670106e-10 5.151606e-07 1.0884461e-09 1.3520479e-07 5.6542254e-10 1.8564997e-07 5.478508e-10
2.4513375e-07 1.6206277e-09 5.145626e-07 1.824296e-09 8.94313e-08 2.5717337e-10 3.7557015e-07 1.5395277e-09

exp_avg f4 [64]
00000000: d6a4 30b6 d729 50b7 472b ceb5 13ff 95b4
00000010: 626b 16b7 9ad2 fc36 cee4 4f36 bba7 7037
00000020: aaa5 b1b6 5829 02b7 75fc 87b7 3113 94b5
00000030: 6ec6 5ab7 a3df 2137 27d5 6a22 f1a3 c237
00000040: 01ac abb6 c911 adb6 3a2e f136 57a3 0c35
00000050: 9c99 1637 f996 33b7 4e19 9db6 da70 92b5
00000060: 97e9 e236 0a1c 8436 4a28 a1b7 f1ab c5b6
00000070: c48a 16b5 6c7c 0b37 7ca7 09b7 e078 02b7
00000080: 6770 13b7 8d27 1337 f9b9 f736 9040 d036
00000090: 45bf 88b7 64ef b3b7 f76b 14b7 2b63 ac22
000000a0: 9066 0336 1755 6db6 0359 8f36 25c2 5735
000000b0: b561 73b6 7577 bf36 2698 4536 63dc 7b37
000000c0: ed91 c736 a4c1 86b7 b02b 9736 8ef5 e6b6
000000d0: 38a3 2037 1cb6 4237 c09e 87b6 51d6 ed37
000000e0: 5014 a634 8349 08b6 7a0b 6db5 6c8a 3437
000000f0: 8d06 c4b6 2a74 6bb7 20ee 8236 0932 2db6
-2.632199e-06 -1.2407508e-05 -1.5360791e-06 -2.7939004e-07 -8.965699e-06 7.5347025e-06 3.0978586e-06 1.43441675e-05
-5.294297e-06 -7.75823e-06 -1.6210814e-05 -1.1032445e-06 -1.3040013e-05 9.648417e-06 3.1825755e-18 2.3202943e-05
-5.116221e-06 -5.1578722e-06 7.187741e-06 5.2391755e-07 8.976462e-06 -1.07043825e-05 -4.6819105e-06 -1.0910692e-06
6.7625183e-06 3.9371707e-06 -1.9211457e-05 -5.891074e-06 -5.6081285e-07 8.314015e-06 -8.204832e-06 -7.776747e-06
-8.7880535e-06 8.771091e-06 7.3828237e-06 6.206399e-06 -1.630153e-05 -2.1449938e-05 -8.846625e-06 4.672569e-18
1.958022e-06 -3.536528e-06 4.2720944e-06 8.037626e-07 -3.6266695e-06 5.70615e-06 2.944385e-06 1.5012079e-05
5.94765e-06 -1.6064216e-05 4.5052366e-06 -6.8831205e-06 9.5747455e-06 1.1605702e-05 -4.0417945e-06 2.83524e-05
3.093469e-07 -2.0308369e-06 -8.830608e-07 1.0761065e-05 -5.842018e-06 -1.4034138e-05 3.9020233e-06 -2.5808133e-06

exp_avg_sq f4 [64]
00000000: bbd6 d331 57ef 2f31 4cb2 2530 c678 4e32
00000010: 0819 cf31 413c 6e32 97cb 6a31 fd8c 3d32
00000020: 147d 7431 4df0 1e31 ae70 0f30 7acf 4031
00000030: a450 c130 02b6 9f30 e8d8 8630 09f8 c031
00000040: b3fd c230 c4f4 7630 3d41 d92f 4956 0a30
00000050: 2ef5 4031 1320 6031 9286 8c31 40ec e930
00000060: 8ed6 f430 6704 1031 d651 0331 88e7 0631
00000070: dc57 9231 b3bf 6431 284f 0331 fa85 0332
00000080: 99ee b431 76da 7931 48be 7d31 1377 9a31
00000090: 9a9c f031 67cc 7c31 706f 9c32 6f75 ad30
000000a0: 0a17 4431 ccd5 de30 8ebe 3531 052c c62e
000000b0: 970c 1d30 7660 0532 d800 6731 adf0 2433
000000c0: 7a07 1a31 1839 eb2f b593 bb30 5b96 1731
000000d0: cc60 8532 278f 8d31 ea8c da30 a408 db32
000000e0: 37f0 9d30 f473 bb31 43fd 9530 0022 ba30
000000f0: 097f 0a32 6820 e431 8d26 1b30 a6b3 5a31
6.1653203e-09 2.56019e-09 6.0280025e-10 1.2018239e-08 6.0273386e-09 1.38671234e-08 3.416721e-09 1.1033305e-08
3.5577772e-09 2.3128621e-09 5.2183224e-10 2.8057614e-09 1.4065518e-09 1.1620502e-09 9.811432e-10 5.616134e-09
1.4187463e-09 8.984211e-10 3.9518425e-10 5.0326726e-10 2.8079046e-09 3.2614522e-09 4.089835e-09 1.7020128e-09
1.7814317e-09 2.095726e-09 1.9109527e-09 1.9631177e-09 4.2591477e-09 3.3287335e-09 1.9108004e-09 7.655666e-09
5.265815e-09 3.635845e-09 3.6924508e-09 4.495527e-09 7.002723e-09 3.6787016e-09 1.8211466e-08 1.2620783e-09
2.853485e-09 1.6213391e-09 2.6447284e-09 9.011817e-11 5.713416e-10 7.763552e-09 3.3615404e-09 3.840312e-08
2.24142e-09 4.2786819e-10 1.3648022e-09 2.205886e-09 1.5527256e-08 4.1199146e-09 1.5901638e-09 2.5498885e-08
1.1491527e-09 5.4555986e-09 1.0913158e-09 1.3542945e-09 8.061542e-09 6.6393575e-09 5.6443455e-10 3.1825294e-09

exp_avg f4 [32, 64]
00000000: e0e2 8b1e 16d0 961c 0000 0000 0a00 26a0
00000010: ff1e 661d e3d8 c51d a1be 1024 cd54 a91f
00000020: e90f aa22 fdc9 3824 8b60 5024 46d7 891c
00000030: b654 bb23 9621 3b24 0000 0000 cbe7 f51e
00000040: 8053 5a1c 0237 ba23 8966 8d22 bad8 7623
00000050: 6894 0424 0000 0000 8f70 d39e 1f3a fc1a
00000060: 19bc 5024 67b4 9523 126a ed23 f557 a399
00000070: 10ea 019f cb2b f423 658a 2024 0000 0000
00000080: 0000 0000 cd50 5324 1766 4f23 6053 041e
00000090: 80e5 329a 2484 a19e d140 28a1 0000 0000
000000a0: 35ae 2924 0000 0000 0000 0000 0000 0000
000000b0: fdc5 021d f86f d022 0000 0000 0ab4 1a23
000000c0: c23b 9f9e 005b 1799 0e3c 991d 39f1 2524
000000d0: 82ec 7823 aab1 2424 2707 5c24 ccda e922
000000e0: 98e3 1124 0000 0000 a841 691d 9bfd 5a24
000000f0: 45b0 5922 0000 0000 d665 a223 3f8a 3e24
00000100: e8e5 4336 eb67 e9b4 1613 44b7 6594 9937
00000110: 9178 b629 a6fa c037 0ecb a1b8 1c12 4137
00000120: 0476 1eb8 ec6d cab8 7e77 08b9 6803 bdb4
00000130: d170 86b8 cc01 c8b8 dcac 1223 14ac 9036
00000140: 8a06 0526 e28b 65b8 a49b c5a1 f09b a9b7
00000150: 2720 73b8 37ab a524 9930 8536 c08e 7d24
00000160: c2bc f5b8 0fdf 88b8 93e4 7ab8 1102 8b24
00000170: 2e15 4336 0f9d 86b8 5f1e f7b8 9eb0 d124
00000180: a404 8824 d3d5 09b9 4e23 20b8 841f 0fb8
00000190: 092d e324 c170 6a37 71cc b437 67b3 0923
000001a0: 34ad afb8 9434 8424 bb0c 0623 bdc8 1220
000001b0: 73f4 382d bc72 9bb7 5dd5 2024 0e63 b6b6
000001c0: c256 1d36 77dc 0b2c a6b4 ec24 5bf8 e7b8
000001d0: 90fa ccb7 0592 d2b8 03db e2b8 7ed9 7d36
000001e0: 248d 88b8 0d7f d523 8be9 ac23 eaf3 e6b8
000001f0: a5fd 4cb7 9bf3 b924 4ea3 1bb8 0d2b efb8
00000200: ddff df1f 7ade 371f 0000 0000 758c d31f
00000210: 0000 0000 eb78 a71f c179 731f 6b45 9e1f
00000220: 81d1 151f ae76 2620 9528 851b 454e 791f
00000230: 0000 0000 9eb1 1920 0000 0000 f59a b61f
00000240: e218 0a1d 8636 ee1e 0000 0000 0000 0000
00000250: d21f df1f 9e34 961c 0e32 bd1e 0d98 751d
00000260: 2c63 8c1f 567a 121f af55 d91e 0000 0000
00000270: 0000 0000 9178 0120 1944 0a1a 1f5e fe1a
00000280: 0000 0000 262e 4120 adcc 6f1e 0000 0000
00000290: 4fb2 111d 1f4c b31d da6e 0520 0000 0000
000002a0: be30 211f 497e 6e1c 0000 0000 0000 0000
000002b0: b0f1 a11d 2e07 ac1f 0000 0000 3ec3 0020
000002c0: 13d8 021f d7c0 161d 0f3f ec1b 4ff0 d11d
000002d0: 9b73 1e20 9ef9 051f 259f 2920 e3b4 ae1f
000002e0: 0956 981f 0000 0000 0000 0000 2d1b 4120
000002f0: fd2a a11f 6868 421b 0000 0000 3ff0 cc1e
00000300: 065b 2e23 4eee 5e23 eace 5d20 a01a 1023
00000310: 4b2e 3122 5803 5322 e8c3 2e24 7c1e 7922
00000320: 3cd8 6223 5fd9 6924 9c01 8424 50b6 1923
00000330: 4d6f f923 1e99 6924 a2e6 3721 e3ed c222
00000340: 1a17 9023 caa8 0f24 0660 e721 d62a 8b23
00000350: 052d 1824 897f 4423 60e4 6423 b429 1223
00000360: 4760 8124 df00 f923 9059 0d24 c2c4 2323
00000370: aaf4 8d21 32d5 1024 2039 5324 d28f 7923
00000380: bcaf 2123 466f 9124 7678 b723 894a 8621
00000390: dcdf 8a23 7c43 0323 7542 0e23 cd46 3f21
000003a0: 1144 5024 6645 1a23 9db7 c921 0e04 4820
000003b0: 3b1f 5323 d9a6 4623 05ed b622 680f c922
000003c0: a109 3e23 9cec 7423 00f9 9723 37c5 5b24
000003d0: e318 b723 ddb9 4e24 741b 8a24 74a1 6a22
000003e0: f338 2b24 6143 9022 96a5 8b22 dd4e 8b24
000003f0: a448 0e23 eb72 5e23 7d72 bf23 af52 7524
1.481103e-20 9.979956e-22 0.0 -1.406076e-19 3.0456271e-21 5.236972e-21 3.138649e-17 7.1714575e-20
4.6095438e-18 4.006973e-17 4.5184585e-17 9.121546e-22 2.0310457e-17 4.057761e-17 0.0 2.6036251e-20
7.223807e-22 2.0189457e-17 3.832669e-18 1.338158e-17 2.8748642e-17 0.0 -2.2387047e-20 1.0431866e-22
4.5262135e-17 1.6231016e-17 2.5740514e-17 -1.688933e-23 -2.7510425e-20 2.647308e-17 3.4811694e-17 0.0
0.0 4.5821773e-17 1.1243111e-17 7.005263e-21 -3.6994926e-23 -1.710119e-20 -5.70064e-19 0.0
3.6793593e-17 0.0 0.0 0.0 1.7307714e-21 5.6497064e-18 0.0 8.3864815e-18
-1.6859495e-20 -7.824894e-24 4.0560858e-21 3.5982995e-17 1.34941894e-17 3.571232e-17 4.7710954e-17 6.3386437e-18
3.1634642e-17 0.0 3.0871237e-21 4.7486027e-17 2.95023e-18 0.0 1.7607204e-17 4.131678e-17
2.9191087e-06 -4.3475242e-07 -1.1686954e-05 1.8308123e-05 8.1033386e-14 2.30049e-05 -7.7149e-05 1.1507913e-05
-3.7780046e-05 -9.652585e-05 -0.00013014485 -3.5206472e-07 -6.4106316e-05 -9.537078e-05 7.95128e-18 4.311567e-06
4.6152507e-16 -5.472813e-05 -1.3390437e-18 -2.0218984e-05 -5.796566e-05 7.184739e-17 3.9693664e-06 5.4981544e-17
-0.00011717669 -6.526533e-05 -5.981752e-05 6.028514e-17 2.9069593e-06 -6.418872e-05 -0.00011783535 9.09385e-17
5.898846e-17 -0.00013144994 -3.8179853e-05 -3.4123208e-05 9.852185e-17 1.3973739e-05 2.1552873e-05 7.464775e-18
-8.376912e-05 5.7334946e-17 7.26685e-18 1.24331e-19 1.0513468e-11 -1.8530867e-05 3.4875195e-17 -5.435554e-06
2.3445323e-06 1.987547e-12 1.02654715e-16 -0.00011061198 -2.4435372e-05 -0.000100407786 -0.00010817314 3.7826535e-06
-6.511275e-05 2.3147314e-17 1.8747187e-17 -0.00011012687 -1.2218404e-05 8.0643644e-17 -3.710697e-05 -0.00011404427
9.4867464e-20 3.8935786e-20 0.0 8.959434e-20 0.0 7.092729e-20 5.1557964e-20 6.7030445e-20
3.1725275e-20 1.4100015e-19 2.202923e-22 5.2792544e-20 0.0 1.3018373e-19 0.0 7.733635e-20
1.8277012e-21 2.522178e-20 0.0 0.0 9.4496816e-20 9.939769e-22 2.0031856e-20 3.2504088e-21
5.945637e-20 3.1017896e-20 2.3011207e-20 0.0 0.0 1.0966617e-19 2.859274e-23 1.05204e-22
0.0 1.6363005e-19 1.2694881e-20 0.0 1.9282774e-21 4.7459613e-21 1.1302216e-19 0.0
3.4133395e-20 7.8910814e-22 0.0 0.0 4.2866244e-21 7.285671e-20 0.0 1.0906622e-19
2.7707303e-20 1.995203e-21 3.9083676e-22 5.5570313e-21 1.3421371e-19 2.8370324e-20 1.4367513e-19 7.399112e-20
6.451684e-20 0.0 0.0 1.6356728e-19 6.825727e-20 1.6081039e-22 0.0 2.1698704e-20
9.451834e-18 1.2085107e-17 1.878789e-19 7.811894e-18 2.401248e-18 2.8597602e-18 3.7896175e-17 3.376193e-18
1.2297274e-17 5.0707942e-17 5.72486e-17 8.332753e-18 2.7043772e-17 5.0653517e-17 6.230805e-19 5.2835678e-18
1.5622295e-17 3.1151152e-17 1.5678586e-18 1.5088552e-17 3.299788e-17 1.0652188e-17 1.2408265e-17 7.923507e-18
5.610793e-17 2.6997003e-17 3.0650364e-17 8.877913e-18 9.619294e-19 3.1405606e-17 4.580172e-17 1.3528772e-17
8.765041e-18 6.307223e-17 1.9891917e-17 9.099922e-19 1.5056798e-17 7.115815e-18 7.711908e-18 6.480702e-19
4.5160465e-17 8.3630524e-18 1.3668892e-18 1.6942e-19 1.1444946e-17 1.0768933e-17 4.9582153e-18 5.449747e-18
1.030196e-17 1.32773705e-17 1.6476908e-17 4.7655103e-17 1.985144e-17 4.4826562e-17 5.989447e-17 3.1798386e-18
3.7127952e-17 3.910262e-18 3.7851346e-18 6.041524e-17 7.713218e-18 1.2058979e-17 2.0756749e-17 5.3195942e-17

exp_avg_sq f4 [32, 64]
00000000: f0b0 b729 0e0b 9428 0000 0000 6230 752d
00000010: 1e05 0a28 b8b1 882e 1b35 b334 414c 672a
00000020: 58a8 1c32 7d5d 1435 b933 4135 1692 da2a
00000030: 1314 1a34 f255 1835 0000 0000 549d 672a
00000040: 7ee8 e126 3d80 2434 539d 9531 bd1e 8133
00000050: 265e 9634 0000 0000 7181 cf2c 596a b222
00000060: 6231 3d35 16dc cc33 c220 7634 a161 661f
00000070: a65c 1a2b 2ee2 7c34 022e e034 0000 0000
00000080: 0000 0000 dcae 4835 4c32 5833 4a25 a127
00000090: d42b 8a20 a739 612c 0331 562e 0000 0000
000000a0: fb4b fd34 0000 0000 0000 0000 0000 0000
000000b0: 867c 262b 2051 5632 0000 0000 adba ae32
000000c0: 7d1f 742c 69ce 451e 4012 f02a e93d ee34
000000d0: 062d 8e33 a9c0 eb34 48a4 5435 c326 4d32
000000e0: d07a b734 0000 0000 2583 a528 c928 5135
000000f0: 8cad 6f31 0000 0000 91a8 e233 4e10 2035
00000100: 79c5 5535 a96d ab35 a7fb 3f32 6042 c134
00000110: cba3 c432 cd49 4333 5b07 3535 3a5e 9433
00000120: 4169 3b34 8ca2 e035 3826 e335 7799 1535
00000130: ffba c834 e3d2 c935 c13f 4232 9b52 9934
00000140: d306 e735 d0d1 1a35 6bcc 8331 dc02 9e33
00000150: b4f5 1135 259f 8435 5a24 9e35 408f 1935
00000160: 9d43 cc35 1e93 c934 b280 0c35 6771 3c35
00000170: e2a1 3232 40f1 1a35 bfd1 8c35 a97b d335
00000180: 70f1 3135 bc6e 1f36 8431 9d34 5a88 cf32
00000190: b0ff f835 04d1 8834 68b8 9134 5136 2a32
000001a0: 2132 9235 2c12 2835 4481 2832 b809 3a2c
000001b0: b4e3 6935 a8e0 cb33 20ff 7734 3468 b332
000001c0: ab42 6935 968f b635 7f26 0b36 bc81 9135
000001d0: b151 8334 588d 8d35 86c8 0736 fffc 4832
000001e0: 9c1b 2c35 9318 dc33 8ddb 9533 0491 1736
000001f0: 40cc 1233 544a a835 9689 3934 7020 d235
00000200: bf9f d82b 78f5 912a 0000 0000 3c36 c12b
00000210: 0000 0000 c72c 722b 85ee ff2a 944b 582b
00000220: f8ce 412a 3b44 6f2c 251a 1923 ec2a 062b
00000230: 0000 0000 2ef7 4b2c 0000 0000 9ef5 8f2b
00000240: 63ab 2426 c4fc f429 0000 0000 0000 0000
00000250: 66ef d62b dfcf 4225 a589 9a29 c733 0227
00000260: 272d 2a2b 3b43 392a edec cb29 0000 0000
00000270: 0000 0000 6abd 102c 6812 2520 d6ab 0b22
00000280: 0000 0000 a61d a12c f642 f828 0000 0000
00000290: 8d4a 3726 71ca 8a27 ecbb 192c 0000 0000
000002a0: 0759 602a 8690 f524 0000 0000 0000 0000
000002b0: 4a73 6227 a387 7f2b 0000 0000 1329 0f2c
000002c0: 83d3 132a 273c 4426 88f5 f023 5548 be27
000002d0: d8c9 582c 5efc 1a2a 606e 782c 4dc6 832b
000002e0: af60 482b 0000 0000 0000 0000 20fe a02c
000002f0: 0749 602b 902b a322 0000 0000 7153 b529
00000300: 62d8 0832 1636 6432 17cb 022b bea5 5831
00000310: 807e 0730 eee7 3030 0b18 b233 640b 8530
00000320: bc1a a631 4f85 1c34 a57d 4634 5e79 cf31
00000330: c5da 1c33 3ad6 1f34 54a8 1b2e efa1 2631
00000340: 568c bd32 cc47 5633 b3c4 2130 ab98 5632
00000350: f760 9333 64a6 3132 fa3b 5032 dd8f c431
00000360: 834b 4034 94b3 0633 33ef 7433 94b1 f631
00000370: 22bc 412e 2929 7b33 7c86 e133 1435 8f32
00000380: cf71 f031 5f58 6634 39e6 a032 4934 2e2d
00000390: a36b b132 f812 7031 fcd7 1031 c864 282e
000003a0: 21ea 0134 7ee9 da31 5d47 3b2f f721 382c
000003b0: 35ff 4232 e949 af31 16ec 1931 3165 6531
000003c0: 41fc 1132 ba87 8932 8780 cf32 9c28 f333
000003d0: e9c4 b832 7e8a ef33 8d79 6234 f40b 0a31
000003e0: 2817 b533 4b8c bf30 3d8d aa30 f638 5f34
000003f0: 7176 0e31 5c98 6332 2da7 ce32 44fc 2734
8.157526e-14 1.6436095e-14 0.0 1.3937381e-11 7.6616485e-15 6.216133e-11 3.3379987e-07 2.0543377e-13
9.118672e-09 5.527034e-07 7.197337e-07 3.8825947e-13 1.434967e-07 5.674948e-07 0.0 2.0571506e-13
1.5675528e-15 1.5320343e-07 4.3543564e-09 6.012622e-08 2.800818e-07 0.0 5.8976647e-12 4.8359597e-18
7.047985e-07 9.539524e-08 2.2922453e-07 4.878515e-20 5.4840366e-13 2.3551613e-07 4.1756726e-07 0.0
0.0 7.476026e-07 5.0337164e-08 4.4726906e-15 2.3407112e-19 3.2006427e-12 4.8701498e-11 0.0
4.7180205e-07 0.0 0.0 0.0 5.914786e-13 1.2474885e-08 0.0 2.0341156e-08
3.4691965e-12 1.0471778e-20 4.2645228e-13 4.4376e-07 6.62058e-08 4.391234e-07 7.9215215e-07 1.1941384e-08
3.4175764e-07 0.0 1.8375555e-14 7.791792e-07 3.4877727e-09 0.0 1.0554607e-07 5.962837e-07
7.9636044e-07 1.2772408e-06 1.1174882e-08 3.5997346e-07 2.2891887e-08 4.5469097e-08 6.743846e-07 6.908927e-08
1.7454023e-07 1.6736608e-06 1.6923941e-06 5.5730146e-07 3.738896e-07 1.5037043e-06 1.1306782e-08 2.8558574e-07
1.7212827e-06 5.767479e-07 3.8358414e-09 7.3579685e-08 5.4374254e-07 9.881084e-07 1.1782497e-06 5.72054e-07
1.5218862e-06 3.754621e-07 5.234134e-07 7.020048e-07 1.03977715e-08 5.7720536e-07 1.0491857e-06 1.5756715e-06
6.6288976e-07 2.3757302e-06 2.9279556e-07 2.4159977e-08 1.8551855e-06 2.5484053e-07 2.7142528e-07 9.9076525e-09
1.0892437e-06 6.261132e-07 9.808279e-09 2.6437585e-12 8.7130616e-07 9.493789e-08 2.3096482e-07 2.0885729e-08
8.689628e-07 1.3601846e-06 2.0735022e-06 1.08411e-06 2.446009e-07 1.0546455e-06 2.0233288e-06 1.1699057e-08
6.411517e-07 1.0249018e-07 6.978289e-08 2.2585164e-06 3.417904e-08 1.2538608e-06 1.7279521e-07 1.565566e-06
1.5392062e-12 2.5927502e-13 0.0 1.3728528e-12 0.0 8.603781e-13 4.5462606e-13 7.68435e-13
1.721365e-13 3.4001818e-12 8.299683e-18 4.766593e-13 0.0 2.8985247e-12 0.0 1.0228934e-12
5.71312e-16 1.08796246e-13 0.0 0.0 1.5272061e-12 1.6897247e-16 6.8628514e-14 1.8069193e-15
6.0458794e-13 1.6454626e-13 9.056111e-14 0.0 0.0 2.0568777e-12 1.3982134e-19 1.8928982e-18
0.0 4.579187e-12 2.756257e-14 0.0 6.3591914e-16 3.852218e-15 2.1846925e-12 0.0
1.9926084e-13 1.06496645e-16 0.0 0.0 3.1426299e-15 9.078243e-13 0.0 2.0344323e-12
1.3129606e-13 6.808268e-16 2.6124839e-17 5.2814016e-15 3.0807492e-12 1.3765505e-13 3.530419e-12 9.363149e-13
7.118845e-13 0.0 0.0 4.575687e-12 7.968213e-13 4.4227362e-18 0.0 8.0524895e-14
7.965442e-09 1.3283644e-08 4.646712e-13 3.152635e-09 4.929248e-10 6.435802e-10 8.293144e-08 9.680261e-10
4.834275e-09 1.457713e-07 1.8485896e-07 6.0382908e-09 3.652055e-08 1.4885964e-07 3.5392425e-11 2.4248228e-09
2.2066313e-08 4.9891057e-08 5.8850985e-10 1.2491152e-08 6.862859e-08 1.0340589e-08 1.2120831e-08 5.720706e-09
1.7908864e-07 3.136263e-08 5.7028227e-08 7.1797306e-09 4.4050215e-11 5.8477927e-08 1.05018415e-07 1.6671528e-08
6.997858e-09 2.1452568e-07 1.8731145e-08 9.9023645e-12 2.065446e-08 3.493538e-09 2.107753e-09 3.828829e-11
1.2099237e-07 6.37118e-09 1.7032904e-10 2.6166827e-12 1.1350314e-08 5.101573e-09 2.239863e-09 3.3381407e-09
8.497467e-09 1.601062e-08 2.4156419e-08 1.1322956e-07 2.1509964e-08 1.1154496e-07 2.109211e-07 2.0088438e-09
8.4326814e-08 1.3936953e-09 1.240927e-09 2.0789216e-07 2.0731046e-09 1.32477815e-08 2.4057579e-08 1.564486e-07

exp_avg f4 [32]
00000000: a47d c622 6dd5 1336 857e 6820 51fc 0d23
00000010: 4709 aa22 b691 ab38 4045 ae23 9116 83b7
00000020: 4dde e123 55a8 8523 90d2 8e22 d842 0738
00000030: 28c4 4c34 db3c 4a23 4e43 f625 0097 6823
00000040: 0b06 4c23 0000 0000 3bf2 1738 2400 4d23
00000050: c823 2db7 77e7 a922 db29 c922 0000 0000
00000060: 3f9f 7ab8 8e10 6d23 71c9 ae20 0000 0000
00000070: 4dce 2023 2e25 8c22 a10d e421 0d3c b722
5.3801035e-18 2.2028937e-06 1.9693026e-19 7.697055e-18 4.6088415e-18 8.181056e-05 1.8894446e-17 -1.5626925e-05
2.4488697e-17 1.449118e-17 3.871212e-18 3.224876e-05 1.9070342e-07 1.0963329e-17 4.2719805e-16 1.2608721e-17
1.1060142e-17 0.0 3.62268e-05 1.1113102e-17 -1.03199345e-05 4.6052615e-18 5.4525475e-18 0.0
-5.9752954e-05 1.2851301e-17 2.961005e-19 0.0 8.717303e-18 3.798644e-18 1.5453488e-18 4.966583e-18
