checkpoints/checkpoint_epoch_200.pth (torch, 314812 bytes, 30 tensors)

lstm.weight_ih_l0 f4 [256, 2]
0	0x3f0f8817	0.5606703
1	0xb937aab7	-0.00017515836
2	0xbf16e9f8	-0.5895076
3	0xbc645176	-0.013935437
4	0x3f1b5703	0.60679644
5	0xbefaea51	-0.49006894
6	0x3e8248a7	0.25446054
7	0xbc84d305	-0.016213903
8	0x3e889d5a	0.2668255
9	0x38ae4668	8.310081e-05
10	0xbe3fd443	-0.18733315
11	0xbb1c2334	-0.0023824694
12	0x3f36ddfd	0.7143248
13	0xb936dcf9	-0.00017439191
14	0x3f574d41	0.84102255
15	0x3bb652aa	0.0055640535
16	0xbecd0715	-0.40044466
17	0x39a9aa69	0.00032361157
18	0x3ece4ba1	0.40292075
19	0x39ad373e	0.0003303829
20	0x3e1d18ce	0.15341493
21	0xb97507d5	-0.00023367938
22	0x3ebc429c	0.3676957
23	0xb9416eda	-0.0001844721
24	0x3e749019	0.23883094
25	0x35f2c8de	1.8088865e-06
26	0xbebef157	-0.37293503
27	0xb937b422	-0.00017519345
28	0xbdaa1b90	-0.083060384
29	0x39ac6f82	0.00032889476
30	0x3efcd1a8	0.49378705
31	0xb98b83d6	-0.0002661037
32	0xbf62f7a8	-0.88659143
33	0xbde28731	-0.11060942
34	0xbbe36edd	-0.006940706
35	0xbd2c14da	-0.042012073
36	0x3f24409b	0.6416108
37	0xb90de20c	-0.00013531017
38	0x3f4674c8	0.77521944
39	0xbe769cb1	-0.2408321
40	0x3f433695	0.7625516
41	0x39ba2a07	0.00035507997
42	0x3eb007c4	0.34380925
43	0xba9a859f	-0.001178909
44	0x3ef5fc4a	0.48044044
45	0xbe05374a	-0.13009372
46	0x3f40d78a	0.75328887
47	0xb8681ab9	-5.5337998e-05
48	0x3f15109f	0.58228487
49	0xbd89f8c5	-0.06736902
50	0x3ed11a8a	0.4084056
51	0x39395be5	0.00017677208
52	0xbefaa01e	-0.48950285
53	0x3a6ecb80	0.00091093034
54	0x3f068589	0.5254751
55	0x38d04805	9.9316276e-05
56	0x3f1b4b56	0.6066183
57	0xba2b3fff	-0.00065326685
58	0x3d94a087	0.07257181
59	0x3b067120	0.0020514205
60	0x3e5aaf69	0.21355976
61	0xbe12620b	-0.14295213
62	0xbf214ce5	-0.63007957
63	0xb9166ae7	-0.00014344939
64	0x3ebbdd4b	0.3669227
65	0xb83b6539	-4.4678545e-05
66	0xbf10d4c8	-0.5657468
67	0xbd08e6ef	-0.03342336
68	0xbf14601f	-0.5795917
69	0x3a387613	0.00070366374
70	0xbf16f7ab	-0.5897166
71	0x3e08f0cc	0.13373107
72	0xbddddbd5	-0.10832945
73	0xbabdcb43	-0.0014480132
74	0xbf01ffd6	-0.50781
75	0xbc9df70f	-0.019282846
76	0xbf215890	-0.6302576
77	0xbcadea48	-0.021229878
78	0x3f07e0bc	0.5307729
79	0xbe62758a	-0.2211515
80	0x3ef279a1	0.4735842
81	0xb93bf324	-0.00017924287
82	0x3f066923	0.52504176
83	0x38f6b8dd	0.000117646276
84	0xbee71a32	-0.45137173
85	0x3dbdd55f	0.09269213
86	0x3e01ef70	0.12688994
87	0x3ae821f3	0.0017710313
88	0xbef2132c	-0.47280252
89	0xb9d21cb0	-0.00040075695
90	0xbe7db2ae	-0.24775192
91	0xb9da9fd6	-0.00041699287
92	0xbf4d3211	-0.8015452
93	0x3c9f9c06	0.019483577
94	0x3eb5d543	0.35514268
95	0xb8de1562	-0.00010589768
96	0x3e3590af	0.17730974
97	0x39865147	0.00025619028
98	0x3f228344	0.63481545
99	0xbb001113	-0.0019541427
100	0x3cbfbd3e	0.023405667
101	0xb718ce65	-9.107961e-06
102	0x3f41b6a5	0.7566932
103	0xbb1b19fb	-0.0023666609
104	0x3ed93273	0.42421302
105	0xb9eb30d3	-0.0004485907
106	0x3f34f467	0.7068543
107	0x389bafab	7.423697e-05
108	0xbf27b02c	-0.6550319
109	0xbbc8f33d	-0.006132512
110	0xbec84f82	-0.3912316
111	0x3af5f158	0.0018763943
112	0xbe95e949	-0.29279545
113	0xb9f12796	-0.00045996596
114	0xbed6e8d9	-0.41974524
115	0x3a093d33	0.00052352546
116	0xbf4d7de8	-0.8027024
117	0xbe7ddf47	-0.24792205
118	0x3f171dab	0.59029645
119	0xbeddd97c	-0.4332999
120	0x3db69c22	0.08916499
121	0xb8ca3646	-9.64222e-05
122	0xbe9da00b	-0.30786166
123	0xbd8fd6ff	-0.07023429
124	0x3f2a5bc4	0.66546273
125	0xb8966213	-7.170825e-05
126	0xbee49f0f	-0.44652602
127	0x39f47dbd	0.0004663299
128	0x3e9eda6c	0.31026018
129	0x3943b6a2	0.00018664685
130	0xbe12a7e6	-0.1432186
131	0xbc4eb3e9	-0.012616136
132	0x3ecc8358	0.39943957
133	0xbac7cf7f	-0.0015244334
134	0x3f2fea04	0.68716455
135	0xbe9505bf	-0.29105946
136	0x3d5e6585	0.054296035
137	0x397fa34c	0.00024379528
138	0xbf4c8416	-0.7988905
139	0xba116adf	-0.0005547236
140	0x3f1a9df3	0.6039726
141	0x3dd141fd	0.102176644
142	0x3f0ff100	0.5622711
143	0x3dab63a7	0.083686166
144	0xbe8dfaa3	-0.27730283
145	0xbd61aea2	-0.055098183
146	0x3d9c78ff	0.07640266
147	0xb8b21a8b	-8.4926454e-05
148	0x3e63b038	0.22235191
149	0x3abe5e04	0.0014523868
150	0xbeb67ab6	-0.35640496
151	0xb742b296	-1.1604881e-05
152	0x3d6257b1	0.05525941
153	0x3952394a	0.00020048502
154	0xbe9eb28e	-0.309956
155	0xb9009ce4	-0.00012265478
156	0xbf5d91e7	-0.86550754
157	0xbad80519	-0.0016481011
158	0x3e146563	0.14491801
159	0x39a01731	0.00030534857
160	0xbf1806b3	-0.5938522
161	0xbd19de6e	-0.03756564
162	0xbf0fc6c7	-0.56162685
163	0xbdc8346e	-0.09775625
164	0x3e9517b8	0.29119658
165	0x3913f634	0.0001411073
166	0x3e9d675b	0.30742916
167	0xbd01f046	-0.031723283
168	0x3e0bd3a2	0.1365495
169	0x3a9fb802	0.0012185576
170	0x3f18f114	0.59742856
171	0x3d81d114	0.063387066
172	0xbe8dd707	-0.27703115
173	0x38c18f7a	9.229682e-05
174	0x3e623190	0.22089219
175	0x3b6b00c3	0.0035858608
176	0x3ee81971	0.4533191
177	0xbc205f4d	-0.0097883465
178	0x3ea01bab	0.3127111
179	0xb7018226	-7.719302e-06
180	0x3b24b270	0.002513077
181	0xbaa6db50	-0.0012730155
182	0x3e78f859	0.24313487
183	0xb9a2434b	-0.00030949185
184	0x3eb2f057	0.3494899
185	0x37fcfedf	3.0159425e-05
186	0xbb9cc54f	-0.004784263
187	0x3af57139	0.001872576
188	0x3ec8d2d1	0.3922334
189	0xbe8db76d	-0.27679005
190	0xbbe5f094	-0.0070172045
191	0xba336eb6	-0.00068448053
192	0x3e8c8951	0.27448514
193	0x393a5686	0.00017770575
194	0xbec5c2c7	-0.38625166
195	0xbc761635	-0.015019943
196	0xbe1a4b25	-0.15067728
197	0xbadc0d16	-0.0016788568
198	0xbeefd0f2	-0.468391
199	0x3ce9b3e6	0.028528165
200	0xb9c5efd3	-0.0003775345
201	0xba0bc6ec	-0.0005332071
202	0xbe6c4d72	-0.23076418
203	0xbbb7dbed	-0.005610934
204	0xbeaa3ce5	-0.33249584
205	0xbd6c6ff2	-0.057723947
206	0xbf09bf49	-0.53807503
207	0x3c0e0069	0.00866709
208	0x3e8fdb7e	0.28097147
209	0x39256570	0.00015773415
210	0x3eb35716	0.3502738
211	0xb8c7534e	-9.504576e-05
212	0xbf07744d	-0.52911836
213	0x3d3c6fc9	0.046005044
214	0x3e9b0e9a	0.30284578
215	0xbdf0fd22	-0.11767031
216	0xbf01fe0b	-0.50778264
217	0x3a3dfcb2	0.00072474324
218	0xbf5494ce	-0.8303956
219	0xb9110f90	-0.00013834075
220	0xbe5623b3	-0.20912056
221	0xbaa5ecc8	-0.0012659067
222	0x3e8ea7d1	0.2786241
223	0xb9a03744	-0.00030558754
224	0x3ee53952	0.44770294
225	0xb9ccf69a	-0.00039093645
226	0x3e6e5594	0.23274833
227	0x3982a9d5	0.00024922067
228	0x3ef76f06	0.48326892
229	0xbebdfe7c	-0.3710822
230	0x3f0c4332	0.5479003
231	0xbe8a03ad	-0.2695593
232	0xbef0e040	-0.4704609
233	0x3ba7dc39	0.005122688
234	0x3f0d0adf	0.5509471
235	0x3d825d40	0.06365442
236	0xbf02c6e4	-0.51084733
237	0xbdfab950	-0.12242377
238	0x3f1b1a73	0.60587233
239	0x38085865	3.250725e-05
240	0xbeee937c	-0.46596897
241	0xb9e238a0	-0.00043148268
242	0xbeb803bb	-0.35940346
243	0xbbe6db72	-0.007045203
244	0xbe584f84	-0.21124083
245	0xbe4aab24	-0.19791847
246	0x3f09ba46	0.53799856
247	0xbece6081	-0.40308002
248	0xbdac40a9	-0.084107704
249	0x3a031a99	0.0005001217
250	0x3ea429a1	0.3206301
251	0xbe849b12	-0.2589956
252	0x3dd50acf	0.10402452
253	0xb8f1d950	-0.00011532253
254	0x3ec01110	0.37513018
255	0xb95c6db1	-0.00021021698

lstm.weight_hh_l0 f4 [256, 64]
0	0x39afc642	0.00033526315
1	0x39157b87	0.00014255765
2	0x393591f7	0.00017315881
3	0xbd3fa982	-0.046792515
4	0x39b0b526	0.00033704302
5	0xb721a8d9	-9.635661e-06
6	0x36e11ae9	6.7086553e-06
7	0xb73247ce	-1.0626345e-05
8	0xba9fdeb2	-0.0012197106
9	0x381a99e4	3.6859783e-05
10	0x374d6557	1.2242547e-05
11	0x388610c8	6.392744e-05
12	0xb6a63e0e	-4.9544096e-06
13	0x39ca812f	0.00038624692
14	0xbd8fbdd9	-0.070186324
15	0x392fb83a	0.0001675793
16	0x38e98745	0.00011135502
17	0x3d5fad58	0.054608673
18	0x386d879d	5.6631503e-05
19	0x39b26499	0.00034025757
20	0x3a2b9c27	0.0006546401
21	0x38221edb	3.8652546e-05
22	0xbc23c3a3	-0.009995374
23	0x38d94a53	0.0001036121
24	0xb95ba0aa	-0.0002094532
25	0x39e7b3b4	0.00044193643
26	0xbd94f22c	-0.07272753
27	0x39eab479	0.0004476642
28	0x39f68fde	0.00047027966
29	0x37dedd3c	2.6567483e-05
30	0x3afa217c	0.0019083465
31	0x3727ad92	9.994388e-06
32	0x3a9825f5	0.0011607992
33	0xba0d5ab2	-0.0005392238
34	0x395abd36	0.00020860587
35	0x3c48400a	0.012222299
36	0xb91c0436	-0.00014878888
37	0x3919a156	0.0001465132
38	0xbdad43be	-0.084601864
39	0xb9c06900	-0.00036699325
40	0x39410310	0.00018407055
41	0x39ac2440	0.00032833405
42	0x3dce3659	0.1006896
43	0xb8249a99	-3.9244627e-05
44	0xbb09ed28	-0.0021045897
45	0xbe13a644	-0.14418894
46	0x3d90c421	0.070686586
47	0x39911a89	0.00027676325
48	0x38161382	3.5780955e-05
49	0xb8f5042b	-0.00011683287
50	0xb977c4af	-0.00023629026
51	0xba881875	-0.0010383265
52	0x3a6d1c0a	0.00090450107
53	0x36ab3b23	5.1030815e-06
54	0x370c2341	8.3528585e-06
55	0xb8ec1996	-0.00011258123
56	0x3d8579ca	0.0651737
57	0x399ca359	0.00029876342
58	0x380c2b85	3.341913e-05
59	0x3a3a8f98	0.0007116734
60	0x3c0a304e	0.008434368
61	0x3833183f	4.2699507e-05
62	0xb6f6ba1a	-7.3530364e-06
63	0xb9539769	-0.00020178933
64	0xb9d8e303	-0.00041367867
65	0x39f748d0	0.0004716576
66	0xb897c903	-7.2376824e-05
67	0x3a04fb6a	0.0005072864
68	0xb9352c75	-0.00017278067
69	0xb863308e	-5.4166238e-05
70	0x3d85a71b	0.065260135
71	0xbdc487c5	-0.095962085
72	0xb9461307	-0.0001888984
73	0x390fc1e9	0.0001370978
74	0xbd9ac3e9	-0.07556898
75	0xb6fb3b9d	-7.487323e-06
76	0xb999f5ce	-0.00029365573
77	0xb88fcfb4	-6.857459e-05
78	0x3a5bea14	0.00083890674
79	0xb79b5db9	-1.8521083e-05
80	0x3ae54ee8	0.0017494829
81	0xba958526	-0.0011407479
82	0xb90e0eed	-0.00013547736
83	0x38758cc9	5.854367e-05
84	0xbdbc1e92	-0.09185518
85	0x3da50b65	0.08058814
86	0x3a271a72	0.0006374485
87	0x3aea4014	0.001787188
88	0xbabf02ce	-0.0014572979
89	0xba3827d0	-0.00070249755
90	0xba7c00f3	-0.00096131786
91	0x3abd34d4	0.00144353
92	0x399ed69d	0.00030296008
93	0x3a0a2b7e	0.0005270763
94	0x3a3d66e0	0.00072251074
95	0x39a60def	0.0003167237
96	0x3905ed93	0.00012772372
97	0x39b445f3	0.00034384392
98	0xb92cf4e3	-0.00016494426
99	0x3a4486bd	0.0007496884
100	0xb9f3a9e3	-0.00046475147
101	0xb7b95d7f	-2.2097256e-05
102	0x3a75d079	0.0009377073
103	0xb9afba19	-0.00033517255
104	0xba0fe5f6	-0.0005489284
105	0x3a121bfc	0.0005573628
106	0xba83d90c	-0.0010059192
107	0x380cf42b	3.3606e-05
108	0x39dd437f	0.00042202693
109	0x3a9e574f	0.0012080463
110	0xb9f9daa4	-0.0004765588
111	0xb9727ddb	-0.00023125803
112	0xbdaaa14f	-0.083315484
113	0x38794c94	5.9437545e-05
114	0x3835ce4a	4.3345884e-05
115	0x3936b629	0.00017424733
116	0x3a0703c4	0.00051504024
117	0xbdb63a73	-0.08897867
118	0xb8fc2ccc	-0.000120246405
119	0x3d96452a	0.07337411
120	0xb8e2aa97	-0.000108082946
121	0x3749add2	1.2021004e-05
122	0xbad17bdf	-0.0015982351
123	0xb9a3de96	-0.00031255622
124	0xb98d7ea6	-0.00026987976
125	0xb90403d5	-0.00012589929
126	0x3821ff44	3.8623126e-05
127	0xb9453aa4	-0.0001880923
128	0x38069c0d	3.2093423e-05
129	0x389277c0	6.984128e-05
130	0x383223bb	4.2471784e-05
131	0x3c0e6c16	0.008692762
132	0xb920313c	-0.0001527713
133	0x3e2d8e24	0.16948754
134	0x37b1accd	2.118051e-05
135	0xb942737d	-0.00018544304
136	0x3e196df5	0.14983352
137	0xb86b1404	-5.6047007e-05
138	0x3812c415	3.4991728e-05
139	0xb952e20e	-0.00020111373
140	0x39101225	0.0001373967
141	0xbe819abd	-0.25313368
142	0xbdbafd6e	-0.09130369
143	0x380eb3ae	3.4022778e-05
144	0xb7f981e7	-2.9743604e-05
145	0xbc8f2329	-0.01747282
146	0x37cb6a20	2.4248904e-05
147	0x38cf3602	9.880589e-05
148	0x383ebe3e	4.5476707e-05
149	0xb8c3edab	-9.342594e-05
150	0xba53561c	-0.00080618425
151	0xb69be076	-4.6454907e-06
152	0x3921af67	0.00015419499
153	0xb7ce8fd0	-2.4624082e-05
154	0x3d27ad3c	0.040936694
155	0xb89956dd	-7.311788e-05
156	0x38efe7ce	0.00011439585
157	0xbe2a5075	-0.16632254
158	0xbaaa7bec	-0.0013006902
159	0x39d05200	0.00039733946
160	0x38b11f09	8.4457984e-05
161	0xbe53c4ef	-0.20680593
162	0x39a0bcd0	0.00030658254
163	0x3e784391	0.24244525
164	0x391d5217	0.00015003268
165	0x3e366e77	0.17815576
166	0x3e8fdd9e	0.28098768
167	0xbe3238b6	-0.17404446
168	0xb81cb28e	-3.735959e-05
169	0xb5a0d6b1	-1.1983412e-06
170	0xbdb0099c	-0.08595583
171	0x38c21420	9.2543894e-05
172	0x3e8bb5c8	0.27287126
173	0xbe3fae78	-0.18718898
174	0xbe43a126	-0.19104442
175	0x372e3e06	1.0385649e-05
176	0xb9184d38	-0.00014524616
177	0xb7e613fa	-2.7427439e-05
178	0xbe5ee45f	-0.21766804
179	0xba0fb26f	-0.0005481606
180	0xb9d3150e	-0.00040260743
181	0x39247e07	0.00015687208
182	0xbe119b7d	-0.1421947
183	0xb70b32dc	-8.296887e-06
184	0xbccf451b	-0.025301507
185	0x3e5890e7	0.21149026
186	0x362ed00e	2.6049124e-06
187	0xbd035416	-0.032062612
188	0x3e8adef9	0.2712324
189	0xbdff3765	-0.124617375
190	0xb8978639	-7.225242e-05
191	0xba73efff	-0.00093054766
192	0x3884ea44	6.337886e-05
193	0xb7642ee2	-1.3600775e-05
194	0x39713e77	0.00023006821
195	0x3a10717b	0.0005510074
196	0x37631739	1.3535661e-05
197	0x37cabf70	2.4169422e-05
198	0x3995bb7a	0.00028559176
199	0xba0a263b	-0.0005269979
200	0xb8dc6b00	-0.00010510348
201	0xb959c558	-0.00020768249
202	0x39c467dc	0.00037461414
203	0x39663fa8	0.00021958223
204	0xb7fe08b0	-3.0283205e-05
205	0xb7ba810a	-2.2233016e-05
206	0x38d7904b	0.000102788756
207	0x388f4c83	6.833023e-05
208	0xb9ba51a2	-0.00035537506
209	0x3a7a1dff	0.0009541213
210	0x39813e96	0.00024651428
211	0x389d3db2	7.497835e-05
212	0x39752ba6	0.00023381281
213	0xb9bd8237	-0.00036145907
214	0xb9edbedc	-0.00045346364
215	0x392c5cae	0.00016437724
216	0x392b4a76	0.0001633557
217	0x37230d0a	9.718593e-06
218	0xba0ef484	-0.0005453306
219	0xb914710c	-0.00014156493
220	0xb8fdaf2f	-0.000120966106
221	0x39c7510b	0.0003801662
222	0x38a8d21d	8.050001e-05
223	0x392c8098	0.00016451103
224	0x38390bbd	4.411837e-05
225	0xb9ab9c29	-0.0003273201
226	0x392b0de9	0.00016313013
227	0xb8dda155	-0.000105681516
228	0x37892b05	1.6351705e-05
229	0xb862644b	-5.3976004e-05
230	0xba301c45	-0.00067180797
231	0xb9a6c840	-0.00031811185
232	0xb7989b78	-1.8192208e-05
233	0x397d14fe	0.0002413578
234	0xbadaa112	-0.0016680083
235	0xb89ebaf6	-7.568851e-05
236	0x399064f3	0.00027541033
237	0x39f1434d	0.00046017245
238	0xbac9a7db	-0.0015385108
239	0x38c715b4	9.493102e-05
240	0xb95b4f44	-0.00020914996
241	0xb82824cb	-4.0088587e-05
242	0x3966794b	0.00021979694
243	0x3895f1c7	7.149908e-05
244	0xb8f9ee4c	-0.000119176315
245	0x3960327f	0.00021381116
246	0x382dd1a5	4.144166e-05
247	0x37750509	1.460431e-05
248	0x3a8e0fb5	0.0010838421
249	0x387de683	6.053458e-05
250	0x39243f8d	0.00015663933
251	0x394d74bd	0.00019593812
252	0x3985561a	0.00025431887
253	0x3986ada0	0.00025687832
254	0xb8d08166	-9.942315e-05
255	0x391f34de	0.00015183116

lstm.bias_ih_l0 f4 [256]
0	0x3bd339a8	0.006446082
1	0xbe503088	-0.20331013
2	0xbed1e60f	-0.40995833
3	0xba3f382b	-0.00072944415
4	0xbe7ebaa9	-0.24875893
5	0x3d57dea8	0.052702576
6	0xbd871cab	-0.06597265
7	0x3eb4cde5	0.35313335
8	0xbe808529	-0.25101593
9	0x3e3c0152	0.18359879
10	0xbe13641c	-0.14393657
11	0x39f49dcd	0.00046656877
12	0xbe5234a3	-0.20527892
13	0xbc6aa127	-0.014320648
14	0xbcef442e	-0.029207315
15	0xbba2c2ac	-0.0049670544
16	0xbec0dacd	-0.37666932
17	0xbde4c6d4	-0.11170736
18	0x3d6be7d3	0.05759413
19	0xbdf5c7e3	-0.12001016
20	0x3e18e394	0.14930564
21	0xbe83b9ac	-0.25727594
22	0xbe0164d8	-0.12636125
23	0x3cc999f9	0.024609553
24	0xbef8b666	-0.4857666
25	0xbbfd8980	-0.0077373385
26	0x3c978cfd	0.018499846
27	0x3e020b6f	0.12699674
28	0x3e33b49d	0.17549367
29	0xbf027c4d	-0.5097092
30	0xbe864dba	-0.26231176
31	0xbeb59717	-0.35466835
32	0x3cb6d1fa	0.022316922
33	0xbd563632	-0.05229778
34	0xbe9a5224	-0.30140793
35	0xbeb5a43d	-0.35476866
36	0xbc9d4e2e	-0.019202318
37	0xbca56a5c	-0.020192318
38	0x3d18e23c	0.03732513
39	0xbeb282ba	-0.3486536
40	0xbbf0ae8f	-0.0073450278
41	0x3c9bc1e2	0.019013349
42	0x3e51e907	0.20499049
43	0x3e48228a	0.19544426
44	0xbb32da7a	-0.0027290867
45	0xbc91fa6c	-0.017819606
46	0x3db24007	0.087036185
47	0x3aaf464a	0.0013372388
48	0xbe258937	-0.16165625
49	0xbe111974	-0.14169866
50	0xbeef7bfe	-0.46774286
51	0xbebbdc13	-0.3669134
52	0x395e04a9	0.00021173306
53	0x3d6ed5e2	0.058309443
54	0xbef27cce	-0.47360843
55	0x397307f4	0.00023177249
56	0xbc1c2f9d	-0.009532836
57	0xbc5546a0	-0.013017327
58	0xbed3adae	-0.41343445
59	0xbf024f28	-0.5090203
60	0xbdb0a88a	-0.08625896
61	0xbf47765f	-0.77914995
62	0x3ebc463f	0.36772344
63	0xbd3e55a8	-0.046468407
64	0xbc4ae02a	-0.012382546
65	0x3c430505	0.011903052
66	0xbdf99e09	-0.12188346
67	0xbe954d29	-0.2916043
68	0xb9ed7c32	-0.00045296695
69	0xbf388700	-0.72080994
70	0x3dba7b1f	0.09105515
71	0x3d5cab4f	0.05387431
72	0xbe8c8d76	-0.27451676
73	0x39716b89	0.00023023611
74	0x3bc9593f	0.006144672
75	0xbb5128d3	-0.0031915202
76	0xb9cd95ac	-0.0003921216
77	0x3a1b35bb	0.0005920787
78	0xbef4b2e7	-0.47792742
79	0x3a3e17fa	0.00072514976
80	0x3a26e806	0.00063669716
81	0xbf261ba4	-0.64885926
82	0x361c2c56	2.3271618e-06
83	0xbd14c2d0	-0.0363186
84	0xbac5afbe	-0.0015082282
85	0x3d37beee	0.04485982
86	0xbd21a18d	-0.039460707
87	0x3bce2c30	0.0062918887
88	0xbe13e08b	-0.14441125
89	0xbb1a5edb	-0.0023555073
90	0x3f052a87	0.52018017
91	0x3909e661	0.00013151161
92	0xbb2111bb	-0.0024577219
93	0xbd83124f	-0.063999765
94	0xbeca5807	-0.39520285
95	0x3ecbcc20	0.39804173
96	0x3a4bb305	0.00077705114
97	0x3d96c30b	0.0736142
98	0x3e2ad700	0.16683578
99	0x3e83e9e5	0.25764385
100	0x3a957937	0.0011403923
101	0x3e334a17	0.17508732
102	0x3e1da78e	0.15395948
103	0xbc439fe2	-0.0119399745
104	0xba376f74	-0.0006997504
105	0xbc5129e8	-0.012766339
106	0x3db7795b	0.089586936
107	0xbf0b961f	-0.5452594
108	0x3e1c37c7	0.15255652
109	0xbf137f46	-0.5761608
110	0x3f125958	0.5716758
111	0xbc1e0c6e	-0.009646518
112	0x386a00b0	5.5790588e-05
113	0xb962fbfb	-0.0002164691
114	0xbf734096	-0.95020425
115	0xbecf2124	-0.40454972
116	0x3c3d84a5	0.011567269
117	0x3cbf7abf	0.02337396
118	0xbcf8e336	-0.03038178
119	0x3e1f4a74	0.15555745
120	0xbe9094d0	-0.28238535
121	0x3c4d9a0a	0.012548933
122	0xbe507d94	-0.20360404
123	0xbf2bd0a2	-0.67115223
124	0x3ad0a5d5	0.0015918562
125	0xbf3b703f	-0.7321815
126	0x38cf6e76	9.891104e-05
127	0x3c373894	0.011182923
128	0x3f0d7d77	0.5526957
129	0x3e891bb9	0.26778963
130	0xbf0e77d4	-0.55651593
131	0x3f00bb41	0.50285727
132	0xbec2fdee	-0.38084358
133	0xbf766eb3	-0.96262664
134	0xbf259b96	-0.6469053
135	0x3f337057	0.7009329
136	0x3d66ff19	0.056395624
137	0xbc5b3799	-0.013379955
138	0x3deafb66	0.11473732
139	0xba5cfffd	-0.0008430479
140	0x3f0092d2	0.5022403
141	0x3d13df43	0.03610159
142	0x3e11dc9a	0.14244309
143	0x3eae319a	0.34022218
144	0xbe098c3e	-0.13432404
145	0x3dced8b8	0.100999296
146	0xbf047c67	-0.5175232
147	0xbf3ae162	-0.73000157
148	0xbf6e0111	-0.9297038
149	0xbe7cda4b	-0.24692647
150	0x3ccae638	0.02476798
151	0x3f111d9e	0.5668582
152	0x3e8bd53e	0.27311128
153	0xbcdd1cd8	-0.026991293
154	0xbeb6046c	-0.3555025
155	0x3e2ace11	0.1668017
156	0x3e163e98	0.14672315
157	0xbd76ff3a	-0.060301997
158	0x3ebe4eab	0.37169394
159	0xbdb60f77	-0.088896684
160	0xbe9bd581	-0.30436328
161	0x3e5d5c9c	0.21617359
162	0xbd9c2c7a	-0.07625671
163	0xbef2ad6a	-0.4739793
164	0x3932a556	0.00017036995
165	0xbde7e975	-0.11323825
166	0xbee83ba1	-0.45357993
167	0xbe44124e	-0.19147608
168	0xbd2f8e3a	-0.042860247
169	0x3f074bb8	0.5284991
170	0xbdb01622	-0.085979715
171	0x3f58772c	0.8455684
172	0xbf16c59e	-0.5889529
173	0x3dbea559	0.09308881
174	0x3f4297ea	0.7601305
175	0x3d11d544	0.035603777
176	0x3ed3daa2	0.4137774
177	0x3aac790a	0.0013158631
178	0x3f066c43	0.52508944
179	0x3cd0b0e8	0.02547498
180	0xbdf0b971	-0.1175412
181	0x3f29e175	0.66359645
182	0x3f5817e4	0.84411454
183	0x3e435963	0.19077067
184	0x3dd695de	0.10477804
185	0xbe1b18a9	-0.15146126
186	0x3e831f89	0.25609997
187	0xbe6a04fa	-0.22853461
188	0xbd3b53f9	-0.04573438
189	0xbec160ad	-0.3776907
190	0xbc8555be	-0.016276237
191	0x3dbebf12	0.093137875
192	0x3cac1012	0.021003757
193	0xbc7d4d18	-0.015460275
194	0xbe5e41d9	-0.21704806
195	0xbebae791	-0.36504796
196	0xbeb4eb30	-0.35335684
197	0xbf75c1dd	-0.95998937
198	0x3e2e547c	0.17024416
199	0x3eed76e8	0.4637978
200	0xbe17bb15	-0.1481746
201	0x3e23c54b	0.1599323
202	0xbe9a41db	-0.3012837
203	0xbd02f7e9	-0.031974707
204	0xbea8ab0b	-0.32942995
205	0xbec078cd	-0.37592164
206	0xbf45696e	-0.77114
207	0xbce4bb47	-0.027921332
208	0xbf08bc49	-0.534123
209	0xbf6ab110	-0.91676426
210	0x3e02a16d	0.12756892
211	0xbd8f47ec	-0.0699614
212	0x3ee7753f	0.4520664
213	0xbed8d076	-0.42346543
214	0xbf482810	-0.7818613
215	0x3eb0acb0	0.3450675
216	0xbf0342b4	-0.51273656
217	0xbba62932	-0.005070829
218	0x3f036e54	0.5134022
219	0x3dc785c1	0.097423084
220	0x3de741cf	0.11291849
221	0xbebb1330	-0.36538076
222	0xbed9a432	-0.42508084
223	0xbd49211c	-0.04910384
224	0xbb396454	-0.002828856
225	0xbdcdf099	-0.10055656
226	0xbd9bb7d3	-0.07603421
227	0x3d016292	0.031588145
228	0xbdea7393	-0.11447825
229	0xbd438d45	-0.047742147
230	0x3da9d718	0.08292979
231	0xbf361d57	-0.7113852
232	0xb9511cf3	-0.00019942578
233	0x3db0bb76	0.08629505
234	0x3e86c7a5	0.26324192
235	0xbee6ed05	-0.45102707
236	0xbdd4918a	-0.10379322
237	0xbf30b600	-0.6902771
238	0x3f2fb33d	0.6863287
239	0x3b1d41c6	0.0023995503
240	0xbe95b67b	-0.29240784
241	0xbc301aef	-0.010748609
242	0xbf61ca85	-0.88199645
243	0xbf15912c	-0.5842464
244	0xbd403a8a	-0.046930827
245	0x3e00abca	0.12565532
246	0xbf099bf9	-0.5375362
247	0xbd1c7050	-0.038193047
248	0xbee941c9	-0.45558003
249	0xbe64238e	-0.22279188
250	0xbdc68e71	-0.09695137
251	0xbf685220	-0.9075031
252	0xbee33f8f	-0.4438443
253	0xbf7153d6	-0.9426855
254	0x3ea71466	0.3263275
255	0xbe5382d5	-0.20655377

lstm.bias_hh_l0 f4 [256]
0	0x3bd3377a	0.0064458223
1	0xbe50307c	-0.20330995
2	0xbed1e583	-0.40995416
3	0xba3f4b53	-0.0007297296
4	0xbe7ebadf	-0.24875973
5	0x3d57e72f	0.05271071
6	0xbd871ae7	-0.06596928
7	0x3eb4d5ed	0.35319462
8	0xbe808523	-0.25101575
9	0x3e3c0097	0.183596
10	0xbe13642e	-0.14393684
11	0x39f4bd63	0.0004668041
12	0xbe52341a	-0.20527688
13	0xbc6a9e46	-0.014319962
14	0xbcef4699	-0.029208468
15	0xbba2c155	-0.0049668946
16	0xbec0dad3	-0.3766695
17	0xbde4c6ec	-0.11170754
18	0x3d6bdf3d	0.057585943
19	0xbdf5c195	-0.119998135
20	0x3e18e3a4	0.14930588
21	0xbe83b9cb	-0.25727686
22	0xbe016544	-0.12636286
23	0x3cc99adf	0.024609981
24	0xbef8b664	-0.48576653
25	0xbbfd85f5	-0.007736916
26	0x3c978dca	0.018500227
27	0x3e020bb5	0.12699778
28	0x3e33b47b	0.17549317
29	0xbf027cd1	-0.50971705
30	0xbe864dbd	-0.26231185
31	0xbeb597f0	-0.35467482
32	0x3cb6d21c	0.022316985
33	0xbd561549	-0.052266393
34	0xbe9a5253	-0.30140933
35	0xbeb5a3f5	-0.35476652
36	0xbc9d452f	-0.019198028
37	0xbca57900	-0.020199299
38	0x3d18e350	0.037326157
39	0xbeb282f0	-0.34865522
40	0xbbf0af81	-0.0073451404
41	0x3c9bbf5a	0.019012142
42	0x3e51e821	0.20498706
43	0x3e482190	0.19544053
44	0xbb32d1f4	-0.0027285786
45	0xbc91fa5c	-0.017819576
46	0x3db24071	0.087036975
47	0x3aaf4558	0.0013372106
48	0xbe2595c7	-0.16170417
49	0xbe1135cf	-0.14180683
50	0xbeef7b72	-0.4677387
51	0xbebbdc0c	-0.3669132
52	0x395df75f	0.00021168355
53	0x3d6e3855	0.05815919
54	0xbef27cbe	-0.47360796
55	0x39754b7d	0.00023393142
56	0xbc1c2751	-0.009530858
57	0xbc555c5d	-0.013022509
58	0xbed3b5c7	-0.41349623
59	0xbf024f8c	-0.5090263
60	0xbdb0a613	-0.08625426
61	0xbf477765	-0.77916557
62	0x3ebc454c	0.3677162
63	0xbd3e55da	-0.046468593
64	0xbc4ae588	-0.012383826
65	0x3c4304ce	0.011903001
66	0xbdf99e0a	-0.12188347
67	0xbe955516	-0.29166478
68	0xb9ece427	-0.00045183414
69	0xbf388892	-0.7208339
70	0x3dba7ae7	0.09105473
71	0x3d5cad00	0.053875923
72	0xbe8c8bb7	-0.27450344
73	0x3971565d	0.00023015724
74	0x3bc95ae6	0.006144869
75	0xbb512767	-0.0031914355
76	0xb9cda441	-0.00039223026
77	0x3a1b354c	0.00059207226
78	0xbef4b2e7	-0.47792742
79	0x3a3e19d3	0.0007251773
80	0x3a26f67c	0.00063691265
81	0xbf261bd5	-0.6488622
82	0x3632a3cb	2.6619407e-06
83	0xbd14c2cb	-0.03631858
84	0xbac5b0c0	-0.0015082583
85	0x3d37bce3	0.04485787
86	0xbd21a18d	-0.039460707
87	0x3bce2bf4	0.0062918607
88	0xbe13e2d2	-0.14441994
89	0xbb1a66ee	-0.0023559886
90	0x3f052a90	0.5201807
91	0x390a424b	0.00013185402
92	0xbb210da9	-0.0024574792
93	0xbd831629	-0.06400711
94	0xbeca5743	-0.395197
95	0x3ecbaee9	0.39781883
96	0x3a4bcc31	0.00077742623
97	0x3d96c0de	0.07361005
98	0x3e2ad6ed	0.1668355
99	0x3e83ea0d	0.25764504
100	0x3a95104f	0.0011372658
101	0x3e33491e	0.1750836
102	0x3e1daa36	0.15396962
103	0xbc43a002	-0.011940004
104	0xba37783e	-0.00069988135
105	0xbc510dd8	-0.012759648
106	0x3db77946	0.08958678
107	0xbf0b9624	-0.5452597
108	0x3e1c3730	0.15255427
109	0xbf137f48	-0.5761609
110	0x3f1252df	0.571577
111	0xbc1e161e	-0.009648828
112	0x3868426a	5.5374963e-05
113	0xb9633671	-0.00021668688
114	0xbf73353f	-0.9500312
115	0xbecf20cc	-0.4045471
116	0x3c3d8647	0.011567659
117	0x3cbf123c	0.023324125
118	0xbcf8e100	-0.030380726
119	0x3e1f511d	0.15558286
120	0xbe909466	-0.2823822
121	0x3c4da0bb	0.012550528
122	0xbe507b97	-0.20359646
123	0xbf2bd3e2	-0.6712018
124	0x3ad09c4f	0.0015915724
125	0xbf3b58be	-0.73182285
126	0x38cf8acf	9.896384e-05
127	0x3c3735ac	0.01118223
128	0x3f0d7daf	0.552699
129	0x3e89044f	0.267611
130	0xbf0e77d1	-0.55651575
131	0x3f00bb41	0.50285727
132	0xbec2fdd1	-0.38084272
133	0xbf766e9f	-0.96262544
134	0xbf259ba8	-0.6469064
135	0x3f337055	0.7009328
136	0x3d66ff6f	0.056395944
137	0xbc5b3915	-0.013380309
138	0x3deafa02	0.114734665
139	0xba5d0f7b	-0.0008432788
140	0x3f0092d7	0.5022406
141	0x3d13df8c	0.036101863
142	0x3e11dd08	0.14244473
143	0x3eae318a	0.3402217
144	0xbe098c4d	-0.13432427
145	0x3dced8ca	0.10099943
146	0xbf047c5c	-0.5175226
147	0xbf3ae15b	-0.73000115
148	0xbf6e0127	-0.9297051
149	0xbe7cda51	-0.24692656
150	0x3ccae6c6	0.024768244
151	0x3f111daa	0.5668589
152	0x3e8bd510	0.2731099
153	0xbcdd1dd2	-0.026991758
154	0xbeb5f9b1	-0.35542062
155	0x3e2ace04	0.16680151
156	0x3e163e4e	0.14672205
157	0xbd76fefc	-0.060301766
158	0x3ebe6084	0.3718301
159	0xbdb64e4f	-0.08901655
160	0xbe9bd577	-0.30436298
161	0x3e5d5a9a	0.21616593
162	0xbd9c2e20	-0.07625985
163	0xbef1e8a1	-0.47247794
164	0x39336cf4	0.00017111358
165	0xbde7e9a0	-0.11323857
166	0xbee83bbf	-0.45358083
167	0xbe44125c	-0.19147629
168	0xbd2f8d31	-0.04285926
169	0x3f074be0	0.5285015
170	0xbdb0178e	-0.08598243
171	0x3f587743	0.8455698
172	0xbf16c594	-0.5889523
173	0x3dbea52d	0.093088485
174	0x3f42982d	0.7601345
175	0x3d11d54c	0.035603806
176	0x3ed3daa6	0.41377753
177	0x3aac83a7	0.0013161794
178	0x3f066c69	0.5250917
179	0x3cd0a58a	0.02546956
180	0xbdf0b8b8	-0.11753982
181	0x3f29e143	0.6635935
182	0x3f581788	0.84410906
183	0x3e435965	0.1907707
184	0x3dd695f6	0.104778215
185	0xbe1b1973	-0.15146427
186	0x3e831f8a	0.2561
187	0xbe6a03e4	-0.22853047
188	0xbd3b52c0	-0.045733213
189	0xbec16189	-0.37769726
190	0xbc85557b	-0.016276112
191	0x3dbebef9	0.09313769
192	0x3cac0085	0.020996341
193	0xbc7d4cff	-0.015460252
194	0xbe5e41d9	-0.21704806
195	0xbebae916	-0.36505955
196	0xbeb4eb51	-0.35335782
197	0xbf75c1eb	-0.9599902
198	0x3e2e4c3e	0.17021272
199	0x3eed764b	0.46379313
200	0xbe17bac2	-0.14817336
201	0x3e23c20f	0.15991996
202	0xbe9a4079	-0.30127314
203	0xbd02fd20	-0.03197968
204	0xbea8ab01	-0.32942966
205	0xbec078c8	-0.3759215
206	0xbf456971	-0.77114016
207	0xbce4bbed	-0.027921641
208	0xbf08bc53	-0.5341236
209	0xbf6ab11c	-0.916765
210	0x3e029b6b	0.127546
211	0xbd8f48bb	-0.06996294
212	0x3ee77773	0.4520832
213	0xbed8d125	-0.42347065
214	0xbf4827b6	-0.78185594
215	0x3eb0ada1	0.34507468
216	0xbf0342a5	-0.51273566
217	0xbba62155	-0.0050698915
218	0x3f036e64	0.5134032
219	0x3dc7986d	0.0974587
220	0x3de7498f	0.11293327
221	0xbebb0fe2	-0.36535555
222	0xbed9a432	-0.42508084
223	0xbd49634d	-0.049166966
224	0xbb396ad5	-0.0028292437
225	0xbdcddcb9	-0.10051865
226	0xbd9bbbff	-0.07604217
227	0x3d0163d2	0.031589337
228	0xbdea58b8	-0.11442703
229	0xbd438d73	-0.04774232
230	0x3da9e092	0.082947865
231	0xbf361d77	-0.7113871
232	0xb9510c3a	-0.00019936348
233	0x3db0bb24	0.08629444
234	0x3e86c75c	0.26323974
235	0xbee6ed6a	-0.45103008
236	0xbdd4920a	-0.10379417
237	0xbf30b610	-0.69027805
238	0x3f2fb35f	0.68633074
239	0x3b1d7daa	0.00240312
240	0xbe9573f2	-0.29190022
241	0xbc302a50	-0.010752276
242	0xbf61cb9a	-0.88201296
243	0xbf159120	-0.5842457
244	0xbd403c70	-0.046932638
245	0x3e00acda	0.12565938
246	0xbf099bff	-0.53753656
247	0xbd1c76d0	-0.038199246
248	0xbee94254	-0.45558417
249	0xbe642184	-0.2227841
250	0xbdc68e79	-0.09695143
251	0xbf685003	-0.9074709
252	0xbee34060	-0.44385052
253	0xbf715928	-0.94276667
254	0x3ea71fdf	0.32641503
255	0xbe5382d9	-0.20655383

fc.weight f4 [50, 64]
0	0xbc1c188f	-0.00952734
1	0xbc43b1ee	-0.011944277
2	0xbc4747bf	-0.012163102
3	0xb8bddc87	-9.053299e-05
4	0xbba4050c	-0.0050054844
5	0x3e964b33	0.29354247
6	0x3dcb3629	0.099224396
7	0xbebe45a9	-0.3716252
8	0x3e8f670c	0.28008306
9	0x3c24d703	0.010061028
10	0xbdfe0557	-0.12403362
11	0x3bc7debc	0.00609955
12	0x3b8a62e0	0.0042232126
13	0xbedd5189	-0.4322627
14	0xbdd434bd	-0.103616215
15	0x3b57f77f	0.0032953916
16	0xbcb05081	-0.021522762
17	0x3c8045c9	0.015658276
18	0x3d25f8b3	0.04052038
19	0xbae90b31	-0.0017779825
20	0x3bca727f	0.0061782
21	0x3e2aff40	0.16698933
22	0xbbe6e33f	-0.007046133
23	0xbd306ea3	-0.04307426
24	0x3a44fc1b	0.0007514373
25	0x3cdd23e0	0.026994646
26	0x3d073b8a	0.033015765
27	0xbd11f7b4	-0.03563662
28	0xbd57011a	-0.052491285
29	0xbe3ee771	-0.18642975
30	0x3dcfd590	0.10148156
31	0x3cc8b11c	0.024498515
32	0x3d4a4045	0.0493777
33	0xbec2e929	-0.38068512
34	0x3c64babe	0.013960538
35	0x3ef2d94a	0.47431403
36	0x39594e0e	0.0002072381
37	0x3edaa562	0.42704302
38	0x3f079893	0.52967185
39	0xbea27818	-0.3173225
40	0xba854758	-0.0010168357
41	0x3bafce1b	0.005365146
42	0xbd5a9315	-0.053362925
43	0x3d3cd0f3	0.046097707
44	0x3ef09cb1	0.46994546
45	0xbe9d569c	-0.3073014
46	0xbe5abb22	-0.21360448
47	0xbd43281d	-0.047645677
48	0x3a4acbca	0.00077360554
49	0xbb28f16a	-0.002577866
50	0xbec27fa0	-0.37987995
51	0x3b3caca4	0.0028789425
52	0xbcc331d6	-0.023827475
53	0xbe619e1e	-0.22032973
54	0xbea44019	-0.32080153
55	0xbd2bf2e5	-0.04197969
56	0xbe90a1cd	-0.28248444
57	0x3eb9f42d	0.36319104
58	0xbcdd957c	-0.027048819
59	0xbe3e4f22	-0.18584874
60	0x3ef634eb	0.48087248
61	0xbe20bcf0	-0.15697074
62	0x3d867dcf	0.06566965
63	0xbdc04ae7	-0.093892865
64	0x3b99316f	0.0046750824
65	0xba90202e	-0.0010995918
66	0x3cf480fe	0.029846665
67	0x3c0a4dba	0.008441383
68	0xba0fd0b5	-0.0005486117
69	0xbe8d6cb3	-0.27621993
70	0xbde1b3ce	-0.11020623
71	0x3eb59ddd	0.35472003
72	0xbe7666f7	-0.24062715
73	0xbbe8983c	-0.007098226
74	0x3e0c584b	0.13705556
75	0xbb871d9b	-0.0041234023
76	0x3a4b3f78	0.0007753293
77	0x3ea65bf4	0.3249203
78	0x3e38b491	0.1803763
79	0xb9e21f78	-0.00043129525
80	0x3cf19fb5	0.0294951
81	0x3caeefa9	0.021354513
82	0xbdc3e259	-0.09564657
83	0x3c991201	0.018685343
84	0xbe044da7	-0.12920247
85	0xbe546f3f	-0.20745562
86	0x3cff4345	0.031160006
87	0x3d61b52c	0.05510442
88	0x3d3e7f0c	0.04650788
89	0xbd80d3b1	-0.06290377
90	0xbe46f4ba	-0.19429293
91	0xb9b64375	-0.00034764005
92	0x3a0ffec3	0.00054929795
93	0x3f0f9169	0.56081253
94	0xbead90cb	-0.3389953
95	0xbd7c9bae	-0.061671905
96	0xbacbc29d	-0.001554567
97	0x3e6c022d	0.23047705
98	0xbde1340c	-0.10996255
99	0xbed03ded	-0.40672246
100	0xbcce9826	-0.025219034
101	0xbe845f08	-0.25853753
102	0xbe09b469	-0.13447727
103	0x3ebb2d22	0.3655787
104	0xb8c7c44d	-9.525623e-05
105	0x3d4bb5bf	0.049733873
106	0x3e973199	0.29530028
107	0xbdb03848	-0.08604485
108	0xbeb5f9b6	-0.35542077
109	0x3e70a5e7	0.23500787
110	0x3eaff2c8	0.34364915
111	0xbacbe25d	-0.0015555132
112	0xbc58a3cb	-0.013222645
113	0xbc0aeb63	-0.008478972
114	0x3ea5c2fe	0.3237533
115	0xbaf24802	-0.0018484595
116	0x3cb5ee69	0.02220841
117	0x3e7af077	0.24505793
118	0x3e591588	0.2119962
119	0x3c4afbdf	0.012389152
120	0xbeb572bd	-0.354391
121	0xbe808b39	-0.25106218
122	0x3ada2434	0.001664287
123	0x3e0d7438	0.13813865
124	0xbead5d61	-0.33860305
125	0x3e4587f6	0.19290146
126	0xbda2abae	-0.079429016
127	0x3e561362	0.20905831
128	0xbca20796	-0.019779008
129	0x3a4e21c9	0.0007863311
130	0xbd04d263	-0.032427203
131	0xbb874d87	-0.004129115
132	0x3ca77808	0.020442978
133	0x3eabe891	0.33575872
134	0xba16c5ac	-0.00057515013
135	0xbe37eab0	-0.1796062
136	0x3e9b60ea	0.30347377
137	0x3c03effe	0.008052824
138	0xb8bbcf0a	-8.955419e-05
139	0xbd0c10e7	-0.034195807
140	0xbc163785	-0.00916851
141	0xbeb7f278	-0.35927176
142	0xbe976993	-0.29572734
143	0xbd05dd8a	-0.03268198
144	0xb973bcf2	-0.00023244674
145	0x3d5b22ea	0.053500094
146	0x3d1bc07a	0.038025357
147	0xbca268ae	-0.019825306
148	0x3e499f6f	0.19689725
149	0x38e2169a	0.0001078073
150	0x3bf0f655	0.007353584
151	0xbc8b6231	-0.017014595
152	0xbdeb9440	-0.11502886
153	0x3cc981f2	0.024598096
154	0x3e44a344	0.19202906
155	0xbb0fbee4	-0.0021933848
156	0x3aed6e77	0.0018114586
157	0xbf177fe0	-0.59179497
158	0x3e531feb	0.20617644
159	0x3d9c8da8	0.07644206
160	0xba7633ad	-0.00093918556
161	0xbea6121f	-0.324357
162	0x3e369628	0.17830718
163	0x3eddb883	0.43304834
164	0xbbe3c1ab	-0.0069505773
165	0x3e9e630f	0.3093495
166	0x3e991ebc	0.2990626
167	0xbeaf9a39	-0.3429735
168	0xb9aea675	-0.00033311886
169	0xbd76a6df	-0.060217734
170	0xbee98109	-0.4560626
171	0x3c8bbf0b	0.01705887
172	0x3eccef3b	0.40026268
173	0xbea3ea01	-0.32014468
174	0xbeaf5799	-0.3424652
175	0xba166256	-0.0005736699
176	0x3dea20cc	0.11432037
177	0xbac115c0	-0.0014731213
178	0xbec37a69	-0.3817933
179	0xbaf69922	-0.0018813948
180	0x3d54631c	0.05185233
181	0xbcae7220	-0.021294653
182	0xbe8ff874	-0.28119242
183	0xbd319dbe	-0.043363325
184	0x3e8576fe	0.26067346
185	0x3eaf540d	0.34243813
186	0x3ae012ff	0.0017095505
187	0xbe8f3293	-0.27968273
188	0x3ed2b6b7	0.41155025
189	0xbe937732	-0.28801876
190	0x3bebefc6	0.007200214
191	0xbe78d8fa	-0.2430152
192	0xbd748b7e	-0.059703343
193	0xbca531d8	-0.020165369
194	0xbd188539	-0.037236426
195	0x3c53da23	0.012930426
196	0xba6c366a	-0.0009010794
197	0x3e90f802	0.28314215
198	0x3da9b0ff	0.082857125
199	0xbf013ef4	-0.50486684
200	0x3e6c567e	0.23079869
201	0x3d030942	0.03199125
202	0xbca99732	-0.020701978
203	0xbcc37363	-0.023858732
204	0xbbf18e5f	-0.0073717083
205	0xbee63068	-0.44958806
206	0x3bede8e5	0.007260429
207	0xbcf1acb6	-0.0295013
208	0xbd33c11d	-0.04388534
209	0xbe0eed2b	-0.1395766
210	0x3dd65e0c	0.10467157
211	0x3d6f6a75	0.058451135
212	0x3de1039c	0.109870166
213	0x3e065dd1	0.13121726
214	0x3c198cf2	0.009371983
215	0xbdac5d11	-0.084161885
216	0x3cda4b4b	0.02664723
217	0x3da8f68d	0.08250151
218	0x3e9e0ec4	0.3087064
219	0xbd745a2d	-0.05965631
220	0xbdae22b1	-0.085027106
221	0xbea32c63	-0.31869802
222	0x3e4fd793	0.20297079
223	0x3bde30eb	0.006780734
224	0x3d879abf	0.06621312
225	0xbec9cc99	-0.39413908
226	0x3ca2377e	0.019801851
227	0x3efa95c8	0.489424
228	0x38dbcee8	0.00010481273
229	0x3ec1be53	0.37840518
230	0x3f2392b4	0.63895726
231	0xbea78304	-0.32717144
232	0xb88c88ac	-6.701177e-05
233	0xbd7b3813	-0.061332773
234	0xbea67fe2	-0.32519442
235	0x3d00d863	0.031456362
236	0x3f019e2e	0.5063199
237	0xbe4066c5	-0.18789203
238	0xbeea1b63	-0.4572402
239	0xbd1c8e57	-0.038221683
240	0x3add4507	0.0016881534
241	0xbd2923fc	-0.041294083
242	0xbec5b1f1	-0.3861232
243	0x3bbb2d15	0.0057121613
244	0x3d273a42	0.040827043
245	0xbe8c2b68	-0.27376866
246	0xbe8f4660	-0.2798338
247	0xbd167bfe	-0.036739342
248	0xbedd5119	-0.43225935
249	0x3eb801b1	0.3593879
250	0xbc0eb2cb	-0.00870962
251	0xbe0d671b	-0.13808863
252	0x3f041b34	0.5160401
253	0xbe0314cc	-0.12800902
254	0x3e080454	0.13282901
255	0xbdbe5837	-0.092941694

fc.bias f4 [50]
0	0xbf72ee4c	-0.9489486
1	0x3f207bbf	0.6268882
2	0xbf5fd700	-0.8743744
3	0xbf9c091e	-1.2190282
4	0x3f3ddcea	0.74165213
5	0x3f941764	1.1569638
6	0xbf90f18a	-1.1323712
7	0x3f9b9f66	1.215802
8	0xbf9eafe9	-1.2397434
9	0xbf34b785	-0.7059253
10	0xbf133642	-0.57504666
11	0xbfa3c3e3	-1.2794155
12	0xbf983b01	-1.1893007
13	0xbf8ea4c4	-1.1144032
14	0x3f00f3f2	0.5037223
15	0xbf16780b	-0.5877692
16	0xbf87e323	-1.0616192
17	0x3f6b36de	0.91880596
18	0x3f95de57	1.1708478
19	0xbf8ff035	-1.124518
20	0xbf9d3aa4	-1.2283521
21	0x3f2192c8	0.63114595
22	0xbf8fc9db	-1.1233476
23	0xbf98aeb5	-1.1928316
24	0x3f965d07	1.174714
25	0x3f780e6a	0.96896994
26	0xbf938876	-1.152602
27	0x3f22a906	0.6353916
28	0x3f232a52	0.6373645
29	0x3e0f2ac4	0.13981158
30	0x3f8948e4	1.072537
31	0xbf7d2be8	-0.9889512
32	0xbf7a6964	-0.97817063
33	0x3f90fb9d	1.1326786
34	0xbf7aa104	-0.9790194
35	0xbfa1277e	-1.2590177
36	0xbf9a8759	-1.2072555
37	0xbf727e23	-0.9472372
38	0x3fa1fa03	1.2654423
39	0x3ee62645	0.44951072
40	0x3f983499	1.1891052
41	0xbf826d7b	-1.0189661
42	0xbd6725e3	-0.056432616
43	0xbf9a3c74	-1.2049699
44	0x3f5cef79	0.86302906
45	0xbf9af1b9	-1.2105018
46	0xbfa18b67	-1.2620667
47	0xbf9976e5	-1.1989409
48	0x3f96f436	1.1793277
49	0x3f883c1a	1.0643342

decoder.0.weight f4 [64, 50]
0	0x37821396	1.5506328e-05
1	0xb91c9b0f	-0.00014935083
2	0x3ab14de7	0.0013527245
3	0x39b4e3bc	0.0003450195
4	0xbab60c18	-0.0013889102
5	0xba3e268e	-0.000725367
6	0x39793758	0.00023767108
7	0xb9dab788	-0.00041716942
8	0x3a2f832a	0.0006695265
9	0x392bbb47	0.00016377597
10	0xb92677ed	-0.0001587567
11	0x3a11bd96	0.00055595615
12	0x3a06ff64	0.00051497505
13	0x3ab6929f	0.0013929195
14	0xba154460	-0.00056940876
15	0xb8cfee50	-9.914918e-05
16	0x3a764d34	0.00093956594
17	0xb9d2c6e0	-0.00040202495
18	0x37ac45c9	2.0536494e-05
19	0x39c362e0	0.00037266966
20	0xb959ada5	-0.0002075942
21	0x390e7466	0.00013585537
22	0xb8b03467	-8.402095e-05
23	0x3a757e00	0.0009364784
24	0xba80c996	-0.0009825702
25	0xb9c288da	-0.00037104526
26	0xb8a0d4cc	-7.669031e-05
27	0xb8ee8d69	-0.00011375064
28	0x3847344c	4.7494003e-05
29	0xba9a64fb	-0.0011779362
30	0xb9001ae8	-0.00012217055
31	0x39c45a09	0.00037451115
32	0xb911b971	-0.0001389736
33	0xb9879912	-0.00025863253
34	0x3a16224d	0.0005727157
35	0xb90b3fb5	-0.00013279806
36	0x39e957f3	0.0004450675
37	0x3b4f9def	0.003167983
38	0xb90c6862	-0.00013390326
39	0xb92234cc	-0.00015469192
40	0x385de5ba	5.2904456e-05
41	0x39fedcd8	0.00048611197
42	0x3b29834f	0.002586562
43	0x387083fd	5.7343383e-05
44	0x3883da33	6.2872095e-05
45	0x3a1970f5	0.0005853319
46	0xb8607413	-5.3513864e-05
47	0xb837880e	-4.375731e-05
48	0xbabfb0d6	-0.0014624845
49	0xba8f6af6	-0.0010941911
50	0xa72801bb	-2.3315622e-15
51	0x29cb6954	9.0332825e-14
52	0x2b71d082	8.590976e-13
53	0xab066e2f	-4.7759274e-13
54	0x2ab4e7c9	3.2135256e-13
55	0x2b2106bf	5.720805e-13
56	0xa938a323	-4.0997706e-14
57	0x2b82b04d	9.285989e-13
58	0xab854783	-9.470067e-13
59	0x2a2acae4	1.5169425e-13
60	0xab0c80ba	-4.9916635e-13
61	0xab8a2207	-9.814934e-13
62	0xabc2061c	-1.3786225e-12
63	0xaa628db3	-2.0121994e-13
64	0xaae94c9c	-4.1442273e-13
65	0x2abdc623	3.371063e-13
66	0xab075252	-4.8075877e-13
67	0x2a7eae73	2.2620256e-13
68	0xab24cb70	-5.854683e-13
69	0xab1349b8	-5.2327196e-13
70	0x2b10e77c	5.1480326e-13
71	0xab0b7f20	-4.955914e-13
72	0xabb18317	-1.2612991e-12
73	0x2ad3605c	3.7547992e-13
74	0x28b10798	1.965424e-14
75	0xa9dd2dd9	-9.822325e-14
76	0xaae82adb	-4.1241216e-13
77	0x2a9b28d4	2.756186e-13
78	0x299d809c	6.994511e-14
79	0xab89a096	-9.779007e-13
80	0x2aa442fc	2.9178732e-13
81	0x2b0a8b05	4.9220377e-13
82	0xaae23bbf	-4.0187122e-13
83	0x29b10b7e	7.8623726e-14
84	0xaa290c9e	-1.5014593e-13
85	0xaac2325e	-3.4496272e-13
86	0x2ac6119c	3.5184084e-13
87	0xa9b9bfbe	-8.2489123e-14
88	0x2b06b171	4.7852613e-13
89	0x2b1331a9	5.229381e-13
90	0x2899e6b8	1.708647e-14
91	0x29e5df80	1.0208414e-13
92	0xaaefb062	-4.2577319e-13
93	0x2a94bfc8	2.6423156e-13
94	0x2a8ebcf4	2.535538e-13
95	0x2ae29002	4.024559e-13
96	0x2b148ad5	5.277283e-13
97	0x2b6683ff	8.1895596e-13
98	0x2a95ad32	2.6587895e-13
99	0xaaf7b867	-4.400397e-13
100	0xbc3f89f1	-0.011690603
101	0x3bf7b858	0.0075598173
102	0xbc94400d	-0.018096948
103	0x3d0e4b11	0.034739558
104	0x3c8ed9af	0.017437784
105	0xbd078361	-0.033084277
106	0x3c2f6ff5	0.010707845
107	0xbc9b0305	-0.018922338
108	0x3db69f27	0.08917075
109	0xbc62ad80	-0.013835311
110	0xb859a1ef	-5.1887644e-05
111	0x3c9c11e6	0.019051503
112	0x3d83e406	0.064399764
113	0x3d8a25b4	0.067454726
114	0xbc1c74d3	-0.009549337
115	0x3d37a51f	0.044835206
116	0xbc264ee4	-0.010150645
117	0xbba1bda8	-0.004935939
118	0xbbd9b2be	-0.006643622
119	0x3bdce904	0.006741645
120	0x3d058887	0.032600906
121	0x3c6c71b2	0.014431404
122	0x3da43171	0.08017243
123	0xbc2b3ef1	-0.010452018
124	0xbcecccc7	-0.02890624
125	0xbd2e3aa3	-0.04253639
126	0xbb85d239	-0.0040838984
127	0x3caefe21	0.021361412
128	0x3c14dadb	0.009085382
129	0x3c3e6ff4	0.011623371
130	0x3c2d1c90	0.010565892
131	0x3d97e6a9	0.07417042
132	0x3cc101e6	0.023560476
133	0xbd856cb8	-0.06514877
134	0x3ced6cfb	0.02898263
135	0x3d3aea00	0.045633316
136	0x3dc2b2d3	0.09506764
137	0xbc063746	-0.008191889
138	0xbce7cb67	-0.028295232
139	0x3cb1d8fa	0.021709908
140	0xbc6e593c	-0.014547642
141	0x3d8666d4	0.06562582
142	0xbc064acc	-0.008196544
143	0x3d19a7e5	0.037513632
144	0xbd2cfb12	-0.042231627
145	0x3c38fe91	0.011291162
146	0x3d65e5bf	0.056127306
147	0x3e063a1f	0.13108109
148	0xbdeb1313	-0.114782475
149	0xb86e8547	-5.6867746e-05
150	0x3efacb5e	0.48983282
151	0xbeff29cc	-0.49836576
152	0x3f0112e7	0.5041947
153	0x3f09fce3	0.539015
154	0xbefa45c6	-0.48881358
155	0xbf140e74	-0.57834554
156	0x3f03afdb	0.5144021
157	0xbf031e9d	-0.5121859
158	0x3f00907e	0.5022048
159	0x3f05eec2	0.5231744
160	0x3efa69b1	0.4890876
161	0x3f0194c5	0.5061763
162	0x3f08a342	0.5337411
163	0x3f017b07	0.5057835
164	0xbeffb0ab	-0.49939474
165	0x3efa6aeb	0.48909697
166	0x3efc7a56	0.49312085
167	0xbf00824a	-0.50198805
168	0xbefe0c2e	-0.49618667
169	0x3f0a1f9b	0.53954476
170	0x3eff7ab1	0.49898294
171	0xbefe955e	-0.49723333
172	0x3f0145b2	0.5049697
173	0x3f0a50ff	0.5402984
174	0xbf0c04d5	-0.54694873
175	0xbf14b193	-0.58083457
176	0x3f0af694	0.542825
177	0xbf02edeb	-0.51144284
178	0xbf03dbd8	-0.5150733
179	0xbeecb00d	-0.46228066
180	0xbef70bbc	-0.4825114
181	0x3f0463cd	0.51714784
182	0x3f039684	0.51401544
183	0xbf096cbd	-0.53681546
184	0x3efb16df	0.49040887
185	0x3efa66d4	0.48906577
186	0x3f046d71	0.51729494
187	0x3f07320d	0.52810746
188	0xbefe9181	-0.49720386
189	0xbef8709b	-0.4852341
190	0xbf18693d	-0.5953558
191	0x3f0d34bf	0.5515861
192	0x3ee5366c	0.44768083
193	0x3eff1589	0.49821118
194	0xbefd2ceb	-0.49448332
195	0x3efe8761	0.4971266
196	0x3f11e797	0.56994003
197	0x3efd1a80	0.4943428
198	0xbefa606c	-0.4890169
199	0xbefa73ae	-0.48916382
200	0xbceb07c3	-0.028690225
201	0x3e95a562	0.2922774
202	0xbdbfa202	-0.093570724
203	0x3e5a5200	0.21320343
204	0x3e27c55d	0.16383882
205	0xbf09dd1a	-0.53853
206	0x3ea8b1bf	0.3294811
207	0xbe9e5c33	-0.30929717
208	0x3f090fd0	0.5353975
209	0xbeafd609	-0.34342983
210	0xbeacf184	-0.33778012
211	0x3eb3bd3c	0.35105312
212	0x3ebcfe1c	0.3691262
213	0x3a3bf889	0.00071705185
214	0x3e9b1ad2	0.302939
215	0xbe4e962f	-0.20174478
216	0x3e7a4c9a	0.24443284
217	0x3c3eec7c	0.011653062
218	0xbe09421c	-0.13404125
219	0x3e6266a7	0.22109471
220	0x3e9361c7	0.28785536
221	0x3eb758d8	0.3580997
222	0x3e572491	0.21010043
223	0x3e812073	0.2522007
224	0xbdb85269	-0.090000935
225	0xbda31ada	-0.07964106
226	0x3e88186e	0.26581138
227	0x3ecb5dc5	0.39719978
228	0xbd0f14bb	-0.03493188
229	0x39418285	0.00018454537
230	0xbea45d89	-0.32102612
231	0x3d894cb9	0.06704087
232	0x3cbfb3c4	0.023401149
233	0xbe563367	-0.20918046
234	0x3e9ebe42	0.3100453
235	0x3ea8fe93	0.33006725
236	0x3ec90cd1	0.3926759
237	0x3c842f64	0.016135879
238	0xbe882b92	-0.26595742
239	0x3e91560f	0.2838597
240	0xbe911cf8	-0.28342414
241	0x3cdb0d67	0.02673979
242	0xbe917871	-0.28412202
243	0x3ea29f87	0.31762335
244	0x3e6e742e	0.23286507
245	0x3ea1fd05	0.3163835
246	0x3e509cb0	0.20372272
247	0x3f0e9b9e	0.55706203
248	0xbda3c355	-0.07996241
249	0xbd8647c9	-0.06556661
250	0x0174e236	4.497802e-38
251	0x81a3efc6	-6.02208e-38
252	0x82bce1b9	-2.7753676e-37
253	0x03f58883	1.4431147e-36
254	0x82bb9a21	-2.7565646e-37
255	0x00a76994	1.5374402e-38

decoder.0.bias f4 [64]
0	0xbbcff0bf	-0.006345838
1	0xb90cbea4	-0.0001342246
2	0xbc48e68d	-0.012261999
3	0xbf0371c5	-0.51345474
4	0xbeee7567	-0.46573946
5	0xac3b73d2	-2.6638592e-12
6	0xb6fa6fb0	-7.4635827e-06
7	0xae1356e9	-3.3501122e-11
8	0xbecaf809	-0.3964236
9	0xbed417c4	-0.41424382
10	0xbda3abf2	-0.0799178
11	0xbd23119a	-0.039811708
12	0xbcc6fedd	-0.02429145
13	0xbf54d473	-0.8313667
14	0xbc6684d0	-0.014069751
15	0xbe008add	-0.12552972
16	0xbf4bf1de	-0.79665935
17	0xa1b2bda1	-1.2111944e-18
18	0xb407cb95	-1.2646917e-07
19	0xbd7f86d5	-0.062384445
20	0xbda7d999	-0.081958
21	0xbe32d7b3	-0.17465095
22	0xbdbef614	-0.093242794
23	0xbd85ca1f	-0.06532692
24	0xb5e99781	-1.7403946e-06
25	0xb207863f	-7.888558e-09
26	0xb62bc31b	-2.5594552e-06
27	0xbe5c02fe	-0.21485516
28	0xbef351c2	-0.47523314
29	0xbd7ccc67	-0.06171837
30	0xbf56bc9d	-0.8388155
31	0xbcb400c3	-0.02197302
32	0xbc8b9bed	-0.017042125
33	0xbad9cbcc	-0.0016616522
34	0xa9847c19	-5.883505e-14
35	0xbac21fcc	-0.0014810502
36	0xbec5601e	-0.38549894
37	0xbf0ccd8e	-0.5500115
38	0xbe07912c	-0.13238972
39	0xbb1b39e7	-0.0023685636
40	0xb5e1f5ac	-1.6835306e-06
41	0x311efcde	2.3135764e-09
42	0xae0c2a31	-3.1869788e-11
43	0xa983693b	-5.835823e-14
44	0xbe03870b	-0.12844484
45	0xbc195e18	-0.009360813
46	0xbd685617	-0.056722727
47	0xbe4adb0f	-0.19810127
48	0xbcb2aa86	-0.021809828
49	0xbe05f2b8	-0.13080871
50	0x3b8f89a3	0.0043804212
51	0xbcd3baab	-0.025845846
52	0xb392d78b	-6.837862e-08
53	0xbd9b1e3b	-0.075741254
54	0xbe6a99aa	-0.2291018
55	0xb306505b	-3.127239e-08
56	0xbe507246	-0.20356092
57	0xbd210ed3	-0.039320778
58	0xbea65ba9	-0.32491806
59	0x3a78d7c6	0.0009492602
60	0xbb8a4137	-0.0042192
61	0xbf81d68e	-1.0143602
62	0xab07ea96	-4.828719e-13
63	0xa3d5a759	-2.316438e-17
