checkpoints/checkpoint_epoch_600.pth (torch, 314812 bytes, 30 tensors)

lstm.weight_ih_l0 f4 [256, 2]
0	0xbc69692a	-0.0142462645
1	0xbab69fc4	-0.0013933112
2	0xb9b5d426	-0.00034681073
3	0xb8053191	-3.1755833e-05
4	0x3e10b1c8	0.14130318
5	0xbb3b0a6d	-0.002854015
6	0x32e7c5e8	2.6981937e-08
7	0xa81b4f45	-8.621417e-15
8	0xbb19da31	-0.0023476
9	0xba81bf23	-0.0009898882
10	0xbc54dfe4	-0.012992833
11	0xbb7a764c	-0.0038217483
12	0x37ecc54a	2.8225262e-05
13	0xb848a01a	-4.7832822e-05
14	0x3284471c	1.539916e-08
15	0x9f1250f4	-3.0983665e-20
16	0xbb75eb54	-0.00375243
17	0xb8dc8c2d	-0.00010516527
18	0xbc09a7d1	-0.008401827
19	0xbaf56625	-0.0018722458
20	0x2e32b0f5	4.0629684e-11
21	0x89433e4c	-2.3501563e-33
22	0xbbb6ceb0	-0.0055788383
23	0xb9a3948c	-0.0003120046
24	0xb0cfcf32	-1.5120121e-09
25	0xaf0146e2	-1.1757664e-10
26	0xbe9333f0	-0.28750563
27	0x3dd9a8ee	0.10627924
28	0xbc60ef6a	-0.013728956
29	0xba03593e	-0.00050105515
30	0xbba4df52	-0.0050315047
31	0xbb01d53f	-0.0019810942
32	0xbe20377a	-0.15646163
33	0xbc059b37	-0.008154682
34	0xb5ca28bd	-1.5062029e-06
35	0xb0274d7d	-6.0864364e-10
36	0xbc644e71	-0.0139347175
37	0xb94d2ba6	-0.00019566584
38	0x3a842135	0.0010080697
39	0xa80ec552	-7.9253705e-15
40	0x36a0d70d	4.793407e-06
41	0x307a1744	9.098253e-10
42	0xbc7c082a	-0.015382806
43	0xba5bff4f	-0.0008392231
44	0xb86fe956	-5.719935e-05
45	0xb006c24a	-4.902502e-10
46	0x2e994d1d	6.9713325e-11
47	0x2cf1f343	6.8766394e-12
48	0x3bac5b7d	0.0052599297
49	0xb92c37fb	-0.00016424053
50	0xbc704300	-0.014664412
51	0xbac132ee	-0.001473991
52	0xb2baf9c6	-2.1766834e-08
53	0xaf1c0fd3	-1.4193739e-10
54	0xbbaa3f7c	-0.005195556
55	0xb9ce6f12	-0.00039374136
56	0xb946fd07	-0.00018977011
57	0xb8c12790	-9.210326e-05
58	0xbc929251	-0.017892035
59	0xbb3ebd41	-0.0029104503
60	0xbe0a27ed	-0.13491793
61	0xbb86ba32	-0.0041115517
62	0xb7b2d95f	-2.1320475e-05
63	0x34d0a37b	3.8861967e-07
64	0x3e841ab5	0.25801626
65	0xbdcc0174	-0.09961215
66	0xbc63d7f9	-0.013906472
67	0xb9346ae9	-0.00017205965
68	0xaeaab360	-7.7625684e-11
69	0x29b18ffa	7.885355e-14
70	0xbdc46270	-0.09589088
71	0xba9a2731	-0.0011760948
72	0xbc133103	-0.008983853
73	0xb969376f	-0.00022241262
74	0xb929ca75	-0.00016192517
75	0xb980b367	-0.00024547728
76	0xbd08d1c5	-0.033403177
77	0xba89a3d7	-0.0010501099
78	0xb7224984	-9.673069e-06
79	0xb51bf3ca	-5.809676e-07
80	0xbca7ad32	-0.020468328
81	0xbad53b0d	-0.0016268209
82	0xbc2ed7ac	-0.010671537
83	0xb9849321	-0.00025286622
84	0xbce5191e	-0.027966078
85	0xb29dff4b	-1.83933e-08
86	0x37de67d0	2.6512804e-05
87	0x3367b4e3	5.3948394e-08
88	0xb7bc5e23	-2.2455182e-05
89	0xb1d705d0	-6.2579844e-09
90	0xbcc26551	-0.023729952
91	0xbafa8599	-0.0019113302
92	0x3c963613	0.018336331
93	0x3d10d027	0.03535476
94	0xbd1e3946	-0.03862884
95	0xbb88063a	-0.004151133
96	0xb3af27c9	-8.1563094e-08
97	0x229447dd	4.019157e-18
98	0xbb4810a7	-0.0030527504
99	0xb84823d6	-4.771709e-05
100	0xb5ec815e	-1.7621021e-06
101	0xb4528ece	-1.9609726e-07
102	0x32325968	1.0381292e-08
103	0xaab63d7e	-3.2372363e-13
104	0xb659253a	-3.2357189e-06
105	0xb4c0b856	-3.589691e-07
106	0x366bd07d	3.5139085e-06
107	0xb8229dd0	-3.8770784e-05
108	0x3a6ffabf	0.00091544905
109	0x396d2002	0.00022614005
110	0xbc9f89c4	-0.019474871
111	0xbb3a626a	-0.0028440007
112	0xb79f951d	-1.9023713e-05
113	0xb3f9ee00	-1.1638258e-07
114	0xbb53444d	-0.0032236755
115	0xb9f4942e	-0.0004664971
116	0xbc18a851	-0.0093174735
117	0xba5c1eff	-0.0008396953
118	0x3c9372c3	0.017999059
119	0x3ad9dc94	0.0016621524
120	0xbd7d9ea9	-0.06191889
121	0x3d8a0694	0.06739536
122	0x3cfed34d	0.031106615
123	0xbb25edc6	-0.0025318726
124	0xb982b0df	-0.00024927311
125	0xb89dfb96	-7.533205e-05
126	0xb72bbb20	-1.0235963e-05
127	0xb6046230	-1.9726685e-06
128	0xbb2c7d74	-0.0026319893
129	0xbaedbdc1	-0.0018138216
130	0xb9b62a06	-0.00034745055
131	0xb81ff837	-3.8139722e-05
132	0x3cd65dc4	0.026167758
133	0xb9c6c836	-0.00037914672
134	0x3bf64124	0.0075150896
135	0xa908c5ca	-3.036962e-14
136	0x3b624ad0	0.0034529455
137	0xba251f1f	-0.0006298888
138	0xbcc1c4d0	-0.023653418
139	0xbbe77fee	-0.007064811
140	0x38372728	4.3667067e-05
141	0xb82f2524	-4.175784e-05
142	0x27367640	2.5321677e-15
143	0x9f003c05	-2.71547e-20
144	0xbbeba1d4	-0.0071909223
145	0xb909a3ee	-0.00013126407
146	0xbaea6a2b	-0.0017884424
147	0xbaf6c158	-0.0018825931
148	0x2cd24630	5.9763514e-12
149	0x89f8eb45	-5.9925075e-33
150	0xbb291b15	-0.0025803496
151	0xb9a0741b	-0.00030604083
152	0xb0b7dd2c	-1.3377863e-09
153	0x2da4494a	1.8677188e-11
154	0x3ede44f6	0.43411988
155	0x3e51ab77	0.20475565
156	0xbc983288	-0.018578783
157	0xba69659c	-0.00089033856
158	0xba43368e	-0.0007446789
159	0xbb6f7fe0	-0.0036544725
160	0xbda871bd	-0.08224819
161	0xb954ee89	-0.00020306757
162	0xb2acfa5a	-2.0137282e-08
163	0xb067b049	-8.4287827e-10
164	0xba86b1be	-0.001027636
165	0xba77c639	-0.000945184
166	0xae62b34f	-5.154571e-11
167	0x2871779e	1.3404125e-14
168	0xb201a70c	-7.54677e-09
169	0xb0b78f05	-1.3355651e-09
170	0xbbb497ae	-0.0055112457
171	0xba0e2d8d	-0.0005423658
172	0xb18a3ece	-4.0234687e-09
173	0xb06357e9	-8.2707047e-10
174	0xaf183749	-1.3843961e-10
175	0xade65b8e	-2.6188631e-11
176	0xba1e0ad5	-0.0006028836
177	0xb94f1724	-0.00019749679
178	0xbb7bc0f3	-0.0038414567
179	0xb9e92977	-0.00044472117
180	0xb222124f	-9.433804e-09
181	0xaeb2376e	-8.104349e-11
182	0xbb46533f	-0.003026202
183	0xba851064	-0.001015198
184	0xb92c21ba	-0.00016415762
185	0xb8f3931d	-0.00011614545
186	0xbc6511f4	-0.013981331
187	0xbc39032b	-0.011292259
188	0xbd436a35	-0.04770871
189	0x3bc688b5	0.006058777
190	0xb5a57bfa	-1.232954e-06
191	0x32453df4	1.1480996e-08
192	0xbedf7323	-0.4364253
193	0xbc5cbf37	-0.013473324
194	0xbbafef73	-0.0053691207
195	0xb980baa2	-0.00024553115
196	0xac4e9f80	-2.93629e-12
197	0xa97c8195	-5.6067635e-14
198	0xbc459829	-0.012060204
199	0x3a97722d	0.0011554413
200	0xbb59f4e3	-0.0033257536
201	0xba8b021f	-0.001060549
202	0x3825da0a	3.954213e-05
203	0xb96bc573	-0.00022484902
204	0xbd33e7cf	-0.04392224
205	0xbb3b5386	-0.002858372
206	0xb7c10415	-2.3009294e-05
207	0x348c21b6	2.610156e-07
208	0x3b70b25c	0.0036727404
209	0xbb650bae	-0.0034949589
210	0xbbc1ee53	-0.005918303
211	0x38ef436c	0.000114089664
212	0xbbe8f518	-0.0071092956
213	0xb1e40f51	-6.6374146e-09
214	0xb72d82a9	-1.0342025e-05
215	0xb2b6087a	-2.1191443e-08
216	0xb78fc387	-1.7137978e-05
217	0x34144b3b	1.3810943e-07
218	0xbd1163d0	-0.03549558
219	0xbb7e5cf6	-0.0038812733
220	0xbe17985d	-0.14804216
221	0x3dc6a01b	0.096985064
222	0x3aa0297f	0.0012219398
223	0xbbc264a4	-0.0059324075
224	0xa9e5d3e5	-1.0206401e-13
225	0x223f06b9	2.5888886e-18
226	0xb8d823a1	-0.00010306319
227	0xb867c6ef	-5.5259963e-05
228	0x342c1dff	1.6029661e-07
229	0xb4b804e6	-3.4276235e-07
230	0x3c28dd27	0.010306633
231	0xad4cec1f	-1.1648487e-11
232	0xb588ea39	-1.0200957e-06
233	0xb4a506b0	-3.073851e-07
234	0x370447b7	7.8845105e-06
235	0xb7fe3c90	-3.0307361e-05
236	0xbb9a8e18	-0.004716646
237	0xb96745c4	-0.00022055866
238	0xbba8609e	-0.005138471
239	0xbbfb1521	-0.007662431
240	0xb7607779	-1.3379257e-05
241	0xb556f455	-8.007676e-07
242	0xbaead1a2	-0.0017915259
243	0xba0abb3e	-0.00052921835
244	0xbb6026f6	-0.003420291
245	0xba97bd2a	-0.0011576761
246	0x3e2da2b5	0.16956599
247	0x3cb64422	0.022249285
248	0x3e0efa4f	0.13962673
249	0x3e6d797f	0.23190878
250	0x3d8f23c6	0.06989245
251	0xbb74dc16	-0.0037362627
252	0xb9dff0cd	-0.00042713285
253	0xb900ad61	-0.0001227162
254	0xb6dc72c7	-6.5698728e-06
255	0xb60013c6	-1.9084996e-06

lstm.weight_hh_l0 f4 [256, 64]
0	0x362ffd91	2.6224627e-06
1	0xb759873a	-1.2965693e-05
2	0xb7e188f5	-2.6885866e-05
3	0x2e3a3dc3	4.234636e-11
4	0xb844ab5f	-4.6889643e-05
5	0xb91c1c6e	-0.0001488791
6	0xb8136ff2	-3.515179e-05
7	0x2abbf22a	3.3385908e-13
8	0xb816f6ad	-3.599252e-05
9	0xb7ee53fb	-2.8410917e-05
10	0x20b40d96	3.0502177e-19
11	0x37a45a9e	1.959252e-05
12	0x327e1503	1.4789523e-08
13	0x3a013882	0.000492938
14	0x38687a27	5.5426874e-05
15	0x371c1b3d	9.3046665e-06
16	0xba16631d	-0.0005736815
17	0xb1eb5b0a	-6.84975e-09
18	0x37aa21db	2.0281344e-05
19	0x30406ba5	7.0002165e-10
20	0x340ca8ec	1.309997e-07
21	0xb8afbc47	-8.37972e-05
22	0xb2c296ad	-2.2653092e-08
23	0x32fbef89	2.9329174e-08
24	0x36bc719c	5.6160625e-06
25	0x35f77864	1.8437972e-06
26	0x328cb8d9	1.6382204e-08
27	0x37fdfb9d	3.0277117e-05
28	0xb6d757aa	-6.4177048e-06
29	0x38a7da3d	8.0038306e-05
30	0x38b0830b	8.416743e-05
31	0xb61fe47a	-2.3825837e-06
32	0x3a182991	0.0005804534
33	0x37f84c83	2.9599532e-05
34	0xb04aab2f	-7.373044e-10
35	0x38ca4d45	9.646503e-05
36	0x38e19e9f	0.000107583815
37	0xb687a7dc	-4.042855e-06
38	0x39439fd7	0.00018656194
39	0xb695f0c2	-4.468574e-06
40	0xb90a182f	-0.00013169715
41	0x380e4935	3.3923618e-05
42	0xb4210cfe	-1.499902e-07
43	0x355a09d7	8.122565e-07
44	0x33a00590	7.4515924e-08
45	0x3940c48e	0.00018383769
46	0xb99692ca	-0.00028719596
47	0x398859e2	0.0002600691
48	0x2df65156	2.8003082e-11
49	0x3702b64f	7.791051e-06
50	0x346cb13a	2.2043687e-07
51	0x3199ffcb	4.4819664e-09
52	0x3442db6c	1.8147483e-07
53	0xb8300d1a	-4.197387e-05
54	0x39e052da	0.0004278634
55	0x384380cb	4.661157e-05
56	0x34865289	2.5019497e-07
57	0xb6fc015b	-7.510343e-06
58	0xb804d9f9	-3.1674255e-05
59	0xb91e20bf	-0.00015080253
60	0xba600196	-0.0008545158
61	0xba89c0df	-0.001050975
62	0x39190adc	0.00014595262
63	0x35c760ee	1.4854866e-06
64	0xb60bd991	-2.0839254e-06
65	0x351fd8ff	5.9547887e-07
66	0xb7f6000b	-2.9325505e-05
67	0xae19208c	-3.481708e-11
68	0xb643f321	-2.9198784e-06
69	0xb8250d7c	-3.9351624e-05
70	0xb4cba425	-3.7931127e-07
71	0xa8903195	-1.6008714e-14
72	0x3616744f	2.2419442e-06
73	0x36505bd1	3.104786e-06
74	0x9cf8335e	-1.6424541e-21
75	0xb4581652	-2.0124688e-07
76	0x3068b2f5	8.465542e-10
77	0xb8b76e99	-8.7467204e-05
78	0x32324336	1.0376246e-08
79	0xb6c475cb	-5.854968e-06
80	0xb663f2df	-3.3967005e-06
81	0x316e7a22	3.4702983e-09
82	0x366d5ce2	3.5369817e-06
83	0x2ccce399	5.823297e-12
84	0x30f8d586	1.8105062e-09
85	0x3596c3a4	1.123281e-06
86	0x317bb87c	3.6630174e-09
87	0x2e9b194f	7.0530796e-11
88	0x34624773	2.1073883e-07
89	0xb7040e94	-7.871207e-06
90	0x2ff95ca6	4.5358667e-10
91	0x35e9a345	1.740737e-06
92	0xb4e86d79	-4.329302e-07
93	0x36bc4ce0	5.611786e-06
94	0xb4b007b1	-3.278815e-07
95	0xb40e6196	-1.3260282e-07
96	0x383e5ef6	4.538797e-05
97	0x35124b64	5.4498946e-07
98	0x2e378e5c	4.1735823e-11
99	0x368faf1f	4.282119e-06
100	0x35d43f5f	1.5813674e-06
101	0xb4cf29b6	-3.8587103e-07
102	0x360aa491	2.0659393e-06
103	0xb4446978	-1.8292292e-07
104	0x359c94dc	1.166623e-06
105	0x35265c01	6.19737e-07
106	0x31f7a94c	7.207893e-09
107	0x338e9599	6.639602e-08
108	0x335edda1	5.1889973e-08
109	0x3622d46e	2.4263531e-06
110	0xb70d4a6d	-8.4215835e-06
111	0xb48a3416	-2.57424e-07
112	0xa9445a52	-4.3599083e-14
113	0x3527aed1	6.246674e-07
114	0xb3bf2122	-8.9001574e-08
115	0xaea3fff9	-7.457852e-11
116	0xb407b84a	-1.2639899e-07
117	0xb4ead5bc	-4.374141e-07
118	0x3670e9df	3.5898918e-06
119	0xb4e03082	-4.1758545e-07
120	0x301e09ab	5.7493804e-10
121	0x3677a38e	3.690107e-06
122	0x356af5c8	8.752945e-07
123	0xb81cebd3	-3.7412927e-05
124	0xb8f3f632	-0.000116330004
125	0xb84859c0	-4.7767302e-05
126	0x34ed7e99	4.4236802e-07
127	0xb40c6937	-1.3076793e-07
128	0xbac75b91	-0.0015209784
129	0xb8e6e0a6	-0.00011009099
130	0x3a2463e5	0.0006270989
131	0x3183c991	3.8355172e-09
132	0x39d82666	0.0004122734
133	0x3b4b2f7c	0.0031003645
134	0x37efb282	2.8574144e-05
135	0x2c72922d	3.4471412e-12
136	0xb9ef35da	-0.00045625755
137	0xba137775	-0.00056254055
138	0xa0ad61a2	-2.9371948e-19
139	0xb939f0f7	-0.00017732741
140	0xb496fe1a	-2.812456e-07
141	0x3b5d9fea	0.003381724
142	0x3ab7299b	0.0013974191
143	0x3ac56193	0.0015058987
144	0x3abfea21	0.0014641919
145	0xb3a650d4	-7.74468e-08
146	0x37bcd41a	2.2510114e-05
147	0xaf388021	-1.6780223e-10
148	0xb6149535	-2.2140568e-06
149	0xb9acc4ab	-0.00032952926
150	0xb4cef4d0	-3.8548615e-07
151	0xb40a3f2b	-1.2875232e-07
152	0x3889fb39	6.579463e-05
153	0xbb4dab27	-0.0031382532
154	0x33b80b6e	8.570247e-08
155	0xba91a83e	-0.0011112762
156	0x3a1d9930	0.00060119014
157	0xbb7f485c	-0.0038953042
158	0xbaa64385	-0.0012684917
159	0x360fd6cc	2.1433689e-06
160	0xbc0acc20	-0.008471519
161	0xb6cb3814	-6.0564e-06
162	0x3103dc4e	1.9188238e-09
163	0x3b119613	0.0022214695
164	0xba35a33b	-0.0006928925
165	0xb8051103	-3.1725514e-05
166	0x3b5e6fc5	0.0033941132
167	0x372a4864	1.0149644e-05
168	0xbb98573d	-0.0046490715
169	0xba491a90	-0.00076714996
170	0x3631e2b1	2.6507007e-06
171	0xb730f173	-1.0546634e-05
172	0xb738abf8	-1.1007294e-05
173	0x3b491b8c	0.0030686585
174	0xbbe86a9b	-0.0070927865
175	0xbb1e466a	-0.0024150857
176	0xad1207d4	-8.300877e-12
177	0xb9361c83	-0.00017367494
178	0x36ad876c	5.171567e-06
179	0x323c05a7	1.09443254e-08
180	0x370338c3	7.821424e-06
181	0x39802d92	0.00024448015
182	0xb9be9677	-0.0003635173
183	0xbbac03e6	-0.005249488
184	0x3790a689	1.7243687e-05
185	0x38bf7d37	9.130913e-05
186	0xbab21f5d	-0.0013589669
187	0x3b58c458	0.0033076014
188	0x3a2556f4	0.00063072075
189	0x3b5bffba	0.0033569173
190	0xb9c2c825	-0.00037151683
191	0x36919d95	4.3396817e-06
192	0x281d8756	8.744597e-15
193	0xa6e22442	-1.5691728e-15
194	0xa892393a	-1.6234074e-14
195	0x9e2a3d29	-9.012373e-21
196	0xa80f8083	-7.965961e-15
197	0xa7e16a42	-6.256525e-15
198	0xa730efbe	-2.455487e-15
199	0x99a5a734	-1.7128133e-23
200	0xa5e655e6	-3.9956847e-16
201	0x277fe980	3.551494e-15
202	0x0f1a8644	7.618645e-30
203	0xa74e3714	-2.86181e-15
204	0x218b4628	9.437577e-19
205	0xa8b415ba	-1.9993437e-14
206	0xa663e5ed	-7.9068053e-16
207	0xa7bb3396	-5.1958856e-15
208	0xa937c3a3	-4.080385e-14
209	0xa1907def	-9.791154e-19
210	0x26453231	6.8416127e-16
211	0x9d88fe99	-3.626215e-21
212	0x2384429c	1.4339679e-17
213	0x27996bb3	4.25828e-15
214	0xa2bb1bf9	-5.071607e-18
215	0x21d605c3	1.4502729e-18
216	0x27b7ca4d	5.101204e-15
217	0x280e2cfe	7.89234e-15
218	0xa15e09a5	-7.522929e-19
219	0x281e44d9	8.785691e-15
220	0xa793090b	-4.08105e-15
221	0x2802e444	7.265947e-15
222	0x29260203	3.686115e-14
223	0xa54d7399	-1.7820082e-16
224	0xa9181d71	-3.3776316e-14
225	0xa5d0a068	-3.6190944e-16
226	0x1f175189	3.2042938e-20
227	0xa71723c9	-2.0974859e-15
228	0x26eabf20	1.6288816e-15
229	0xa483b4c6	-5.7118436e-17
230	0x2681533b	8.973733e-16
231	0xa2839c04	-3.567281e-18
232	0x27d09160	5.7889213e-15
233	0x27e5832b	6.370248e-15
234	0x22aaf3b7	4.6336635e-18
235	0x251d6157	1.3650559e-16
236	0x21bbef34	1.2734929e-18
237	0xa5f44318	-4.2372717e-16
238	0x2770ad34	3.3400584e-15
239	0xa82ac721	-9.480075e-15
240	0x1c53f9e3	7.0137015e-22
241	0x2701c3de	1.8008526e-15
242	0x2305a1f2	7.244238e-18
243	0xa1a77955	-1.1348476e-18
244	0xa3ed553b	-2.5731688e-17
245	0xa705379d	-1.8487606e-15
246	0x2697d75a	1.0536101e-15
247	0x279e3d6e	4.392041e-15
248	0xa49d5947	-6.823914e-17
249	0x2680a0d6	8.925379e-16
250	0x27e5d5c8	6.379205e-15
251	0xa97b923a	-5.5860027e-14
252	0xa8eb2fe0	-2.6111004e-14
253	0xa85a79d5	-1.2127849e-14
254	0x27a0b29a	4.460256e-15
255	0x255b95ec	1.9046018e-16

lstm.bias_ih_l0 f4 [256]
0	0xbb2e5e0b	-0.0026606347
1	0xb8803c10	-6.114703e-05
2	0xbc6ae035	-0.014335682
3	0xa939e79e	-4.1279148e-14
4	0x39501198	0.0001984298
5	0xbb9f3448	-0.0048585273
6	0xb878c40a	-5.9310383e-05
7	0xa3609f17	-1.2176753e-17
8	0xb7a1881c	-1.9256076e-05
9	0xba9fd546	-0.0012194298
10	0x8a720ed7	-1.1654667e-32
11	0xba0aad01	-0.0005290062
12	0xafa6e315	-3.0356576e-10
13	0x3cf268f1	0.029591056
14	0xb9a17c89	-0.000308011
15	0xbb67c8a0	-0.0035367385
16	0xbc99c801	-0.018772127
17	0xb11c7f68	-2.277341e-09
18	0xbb06f7e8	-0.002059454
19	0xa94cbb9e	-4.545983e-14
20	0xb0c5c358	-1.4389157e-09
21	0xbacfb53d	-0.001584686
22	0xb0b967bb	-1.3490004e-09
23	0xae01966d	-2.946481e-11
24	0xb9ab0bb0	-0.0003262437
25	0xbb97a15f	-0.004627391
26	0xaf6ac157	-2.1350864e-10
27	0xba84e8b4	-0.0010140152
28	0xb905f2b0	-0.00012774277
29	0xbb78a4fc	-0.0037940135
30	0xbae2ed8d	-0.0017313227
31	0x33ecd554	1.10284105e-07
32	0x3d030255	0.031984646
33	0xba3367f4	-0.00068437983
34	0xaa838fa4	-2.3369945e-13
35	0xbaea86e1	-0.001789298
36	0xb7137818	-8.789844e-06
37	0xb9f05c48	-0.00045845122
38	0x39429922	0.00018558328
39	0xb5ff674c	-1.9029044e-06
40	0xbb1d2bae	-0.0023982334
41	0xb8595812	-5.1818854e-05
42	0xb3c540d9	-9.185323e-08
43	0x330ba578	3.2513952e-08
44	0xb41824bc	-1.4169467e-07
45	0xbae977eb	-0.0017812228
46	0x3df6e532	0.12055434
47	0xbc0bb107	-0.008526093
48	0xa2d7a58d	-5.845115e-18
49	0xb8cd627b	-9.793505e-05
50	0xb55a6719	-8.1361355e-07
51	0xae72772c	-5.5130275e-11
52	0xb531a992	-6.6184396e-07
53	0xb8248b13	-3.923017e-05
54	0x39341dd7	0.00017177254
55	0xbbb13c6f	-0.0054088156
56	0xb5c695ba	-1.4795726e-06
57	0xba7e04d4	-0.00096900505
58	0xbb2cf902	-0.0026393537
59	0x3820d54c	3.834562e-05
60	0x3daa44a4	0.083138734
61	0xbaa307a7	-0.0012438194
62	0xb92f1207	-0.00016696016
63	0xb6c40fc3	-5.84309e-06
64	0xbb263a46	-0.0025364324
65	0xb88b97b4	-6.6562934e-05
66	0xbba95f09	-0.0051688
67	0xaae696ea	-4.0960925e-13
68	0xba44b4a1	-0.00075037224
69	0xbc3b0c6c	-0.011416536
70	0xb88f11dc	-6.822098e-05
71	0x9f9f2be6	-6.741174e-20
72	0xb83ab9d1	-4.451891e-05
73	0xba9c21d0	-0.0011911932
74	0x09b18f1b	4.2745776e-33
75	0xba18ae77	-0.0005824337
76	0xaf21f0d5	-1.4728425e-10
77	0x3e2cb6de	0.16866633
78	0xb932aed9	-0.00017040539
79	0xbb62ac4f	-0.0034587567
80	0x3b78663c	0.0037902733
81	0xb0f81bbb	-1.8052256e-09
82	0xbb5d2f81	-0.0033750238
83	0x283341f3	9.9507965e-15
84	0xb085275d	-9.688211e-10
85	0xbadc6ae3	-0.0016816523
86	0xb0e422d8	-1.6599087e-09
87	0xae627c59	-5.1496894e-11
88	0xb992b5c9	-0.0002798273
89	0xbbaa20e2	-0.005191908
90	0xb0c4357c	-1.4276078e-09
91	0xba5a7b92	-0.00083344535
92	0xb95d21a6	-0.00021088737
93	0xbc547ad9	-0.012968742
94	0x3cf2c1fa	0.02963351
95	0xb8ee08fd	-0.000113503986
96	0x3e4be5cf	0.19911884
97	0xba06903b	-0.00051331864
98	0xb03d4dc3	-6.8868306e-10
99	0x3c5847de	0.013200728
100	0xbac536ac	-0.0015046201
101	0xb9e65cd7	-0.0004393819
102	0x3ab55602	0.0013834836
103	0xb59e546b	-1.1796486e-06
104	0xba2b8d53	-0.0006544191
105	0xb970353c	-0.00022908015
106	0xb366345c	-5.359867e-08
107	0xb58b4962	-1.0377664e-06
108	0xb52d0bf8	-6.446494e-07
109	0xba163994	-0.00057306257
110	0x3e8cb865	0.27484432
111	0xbc10c6a9	-0.008836427
112	0x230385c0	7.129847e-18
113	0xb8974a90	-7.2141294e-05
114	0xbaaab2f2	-0.00130233
115	0xb0589040	-7.8785334e-10
116	0xb508c645	-5.095247e-07
117	0xb84714e1	-4.7464742e-05
118	0xb929bc22	-0.00016187181
119	0xbb6d0c19	-0.003617054
120	0xb6713f64	-3.5948697e-06
121	0xba291925	-0.0006450585
122	0xbb27e9f2	-0.002562162
123	0x3cb65f0a	0.022262115
124	0x3eadcbcf	0.33944556
125	0xbb556c2e	-0.00325657
126	0xb91503e3	-0.00014211195
127	0xb6daa64b	-6.5162653e-06
128	0xbb270705	-0.0025486362
129	0xb9883179	-0.000259768
130	0xbca0704f	-0.019584803
131	0xb3c8ae8d	-9.344976e-08
132	0xbaf98093	-0.001903551
133	0xbc20185d	-0.009771434
134	0xba4ba337	-0.00077681564
135	0xac966bce	-4.275225e-12
136	0x3b9162f0	0.004436843
137	0x396b716a	0.00022453596
138	0xa20ada98	-1.881821e-18
139	0xba4375f6	-0.0007456237
140	0xb50ed1c0	-5.320435e-07
141	0xbddaffba	-0.10693307
142	0xbc52f703	-0.012876275
143	0xba6187fe	-0.0008603333
144	0xbbc7af17	-0.0060938704
145	0x3542949f	7.2486904e-07
146	0x3ba03c12	0.0048899734
147	0xb34eacf8	-4.8120427e-08
148	0x374421f3	1.1690415e-05
149	0xbb4f4cea	-0.0031631538
150	0x36ea6fa8	6.986742e-06
151	0xb490d7c0	-2.697907e-07
152	0xb98c099b	-0.00026710037
153	0xbbd81203	-0.006593944
154	0xb51e212f	-5.8907875e-07
155	0x3a48fef7	0.0007667387
156	0x39493768	0.00019189494
157	0x3bc00a5c	0.00586061
158	0x3d0356cf	0.03206521
159	0xb98e4dc2	-0.00027142285
160	0xbe3a7b38	-0.18211067
161	0x3ae995a0	0.0017821081
162	0xb37b6073	-5.852821e-08
163	0xbc848e28	-0.016181067
164	0x3af2a242	0.0018511491
165	0xbae89153	-0.0017743505
166	0xbc6a8394	-0.014313597
167	0x39caef47	0.00038706718
168	0x3a1dee66	0.0006024599
169	0xbb3be783	-0.0028671927
170	0x38282d2e	4.0096398e-05
171	0x38875a1f	6.454088e-05
172	0xb7ffb869	-3.0484242e-05
173	0xbc9e13ba	-0.019296516
174	0x3c86a7da	0.01643746
175	0xbb565aaf	-0.003270786
176	0xb02d5192	-6.305295e-10
177	0x3af56450	0.0018721912
178	0x37c736e3	2.3748207e-05
179	0x33cb4bb5	9.466695e-08
180	0xb87124ca	-5.749314e-05
181	0xb9d03ec9	-0.0003971963
182	0x3b3f82d5	0.002922227
183	0xb8409f62	-4.5924804e-05
184	0xb9a9c700	-0.00032382458
185	0xbae0a8d8	-0.0017140163
186	0x3ad41f0a	0.0016183567
187	0xbb9d0b5f	-0.0047926153
188	0xbdd87e58	-0.10570973
189	0xbe59b33b	-0.21259777
190	0xba21f309	-0.00061778777
191	0x37a4c14a	1.964033e-05
192	0xbb1da87d	-0.0024056726
193	0xb8979f37	-7.229897e-05
194	0xbc98c39c	-0.018647961
195	0xaa5d0ea8	-1.9633828e-13
196	0xba0d73c8	-0.0005395976
197	0xbc09e3d8	-0.008416139
198	0xb856feb3	-5.1258783e-05
199	0xaf05a370	-1.2154344e-10
200	0xb8399504	-4.424622e-05
201	0xbb6bc8ac	-0.0035977764
202	0x98d4b73a	-5.4985727e-24
203	0xba15c1e0	-0.00057127886
204	0xaf95a202	-2.7218056e-10
205	0x3d93d0ec	0.07217583
206	0xba827a7b	-0.0009954715
207	0xbb5c0bad	-0.0033576295
208	0xbcb169f8	-0.021656975
209	0xbaf54fa8	-0.0018715756
210	0xbb3b415e	-0.0028572897
211	0x280beb6b	7.767098e-15
212	0xaf8bd6f8	-2.5436697e-10
213	0xbb9824b8	-0.004643049
214	0xb043895c	-7.1135786e-10
215	0xadad303c	-1.9689243e-11
216	0xb9ad027b	-0.0003299898
217	0xbb9e4647	-0.004830155
218	0xb0c78af6	-1.4518651e-09
219	0xba733b2f	-0.00092785334
220	0xb83ce34f	-4.503439e-05
221	0xbc01622f	-0.007896944
222	0x3b93a49f	0.0045057083
223	0x33df42e0	1.0396411e-07
224	0x3d4daddb	0.05021463
225	0xb9a708ce	-0.00031859282
226	0xab04772a	-4.7061194e-13
227	0xba9708a3	-0.001152296
228	0xba2c5b75	-0.00065749075
229	0xb9e300a0	-0.0004329728
230	0x3b207c3b	0.002448811
231	0xb777b02b	-1.4763365e-05
232	0xb9ce97de	-0.00039404532
233	0x36822b95	3.8793755e-06
234	0xb68540a3	-3.9712336e-06
235	0x330f2589	3.332892e-08
236	0xb4f9bd44	-4.6517573e-07
237	0xbb2f2a41	-0.0026728066
238	0x3e123f54	0.1428197
239	0xbc80a5e0	-0.015704095
240	0xa2f0ddae	-6.5286843e-18
241	0xb8f8edb3	-0.000118698365
242	0xb9877392	-0.00025835313
243	0xb1b5931b	-5.2845173e-09
244	0xb50366c0	-4.8950824e-07
245	0xb80cec82	-3.3598866e-05
246	0x391dd33d	0.00015051379
247	0xbb797618	-0.0038064774
248	0xb7dafe79	-2.6106123e-05
249	0xba31b4c4	-0.00067789503
250	0xbb2bea90	-0.002623234
251	0xbb25f4d0	-0.0025322922
252	0x3e47bb60	0.19505072
253	0xbc1e13de	-0.009648291
254	0xbb088057	-0.002082845
255	0xb6d2de9c	-6.284403e-06

lstm.bias_hh_l0 f4 [256]
0	0xbb2e5dcb	-0.0026606198
1	0xb8803c0f	-6.1147024e-05
2	0xbc6ae031	-0.014335678
3	0xa939e348	-4.1275387e-14
4	0x39501117	0.00019842792
5	0xbb9f344c	-0.004858529
6	0xb878c453	-5.931065e-05
7	0xa3609b6a	-1.21759745e-17
8	0xb7a18812	-1.9256058e-05
9	0xba9fd5b2	-0.0012194423
10	0x8a721ea4	-1.1657639e-32
11	0xba0aaca2	-0.00052900065
12	0xafa6e313	-3.035657e-10
13	0x3cf268eb	0.029591044
14	0xb9a17cf5	-0.00030801413
15	0xbb67c8a4	-0.0035367394
16	0xbc99c801	-0.018772127
17	0xb11c7f68	-2.277341e-09
18	0xbb06f77c	-0.002059429
19	0xa94cbae6	-4.5459208e-14
20	0xb0c5c358	-1.4389157e-09
21	0xbacfb51f	-0.0015846825
22	0xb0b9679a	-1.3489967e-09
23	0xae01967b	-2.9464858e-11
24	0xb9ab0bb0	-0.0003262437
25	0xbb97a19e	-0.0046274206
26	0xaf6ac242	-2.135119e-10
27	0xba84e8b1	-0.0010140148
28	0xb905f2b8	-0.00012774288
29	0xbb78a4fe	-0.003794014
30	0xbae2ed91	-0.0017313232
31	0x33ecd55d	1.1028417e-07
32	0x3d030254	0.031984642
33	0xba3367f4	-0.00068437983
34	0xaa838f87	-2.3369867e-13
35	0xbaea86e7	-0.0017892987
36	0xb712cbda	-8.749741e-06
37	0xb9f05c48	-0.00045845122
38	0x39429911	0.00018558303
39	0xb5ff675a	-1.902906e-06
40	0xbb1d2c08	-0.0023982543
41	0xb8595c95	-5.1823055e-05
42	0xb3c540d9	-9.185323e-08
43	0x330ba576	3.2513945e-08
44	0xb4182463	-1.416934e-07
45	0xbae977eb	-0.0017812228
46	0x3df6e531	0.120554335
47	0xbc0badf5	-0.008525361
48	0xa2d7a587	-5.8451126e-18
49	0xb8cd6250	-9.793474e-05
50	0xb55a6727	-8.1361435e-07
51	0xae72772c	-5.5130275e-11
52	0xb531aa14	-6.6185135e-07
53	0xb8248b25	-3.9230235e-05
54	0x39341dd7	0.00017177254
55	0xbbb13057	-0.005407374
56	0xb5c69241	-1.4794715e-06
57	0xba7e03a6	-0.0009689875
58	0xbb2cf902	-0.0026393537
59	0x3820d54c	3.834562e-05
60	0x3daa44a0	0.083138704
61	0xbaa307a7	-0.0012438194
62	0xb92f11e7	-0.0001669597
63	0xb6c40fc5	-5.843091e-06
64	0xbb263a33	-0.002536428
65	0xb88b97c5	-6.656306e-05
66	0xbba95f24	-0.0051688123
67	0xaae696a8	-4.0960746e-13
68	0xba44b98b	-0.00075044547
69	0xbc3b0c6c	-0.011416536
70	0xb88f11dc	-6.822098e-05
71	0x9f9f2c38	-6.741227e-20
72	0xb83aba39	-4.451929e-05
73	0xba9c2288	-0.0011912147
74	0x09b1baa1	4.2786705e-33
75	0xba18ae71	-0.00058243336
76	0xaf21eb26	-1.4726406e-10
77	0x3e2cb6df	0.16866635
78	0xb932aebd	-0.00017040498
79	0xbb62ab9b	-0.0034587148
80	0x3b786433	0.003790152
81	0xb0f81bbb	-1.8052256e-09
82	0xbb5d38e3	-0.003375583
83	0x283341e2	9.950782e-15
84	0xb085270b	-9.68812e-10
85	0xbadc6a91	-0.0016816427
86	0xb0e422d8	-1.6599087e-09
87	0xae627c58	-5.149689e-11
88	0xb992b5e2	-0.00027982803
89	0xbbaa20c1	-0.005191893
90	0xb0c43585	-1.4276088e-09
91	0xba5a7ccd	-0.0008334637
92	0xb95d21b5	-0.00021088759
93	0xbc547a9b	-0.012968685
94	0x3cf2c1fe	0.029633518
95	0xb8ee093b	-0.00011350444
96	0x3e4be5d1	0.19911887
97	0xba069075	-0.000513322
98	0xb03d4dc3	-6.8868306e-10
99	0x3c5847de	0.013200728
100	0xbac5ef7d	-0.001510128
101	0xb9e65cd8	-0.00043938193
102	0x3ab5560b	0.0013834847
103	0xb59e557b	-1.1796795e-06
104	0xba2b919d	-0.00065448304
105	0xb9701cdc	-0.00022898935
106	0xb366345c	-5.359867e-08
107	0xb58b4962	-1.0377664e-06
108	0xb52d0bfa	-6.446495e-07
109	0xba163994	-0.00057306257
110	0x3e8cb865	0.27484432
111	0xbc10c93f	-0.008837043
112	0x2303901d	7.132041e-18
113	0xb897478e	-7.213569e-05
114	0xbaaaab40	-0.0013021007
115	0xb0589040	-7.8785334e-10
116	0xb508c62c	-5.0952326e-07
117	0xb84714e9	-4.746477e-05
118	0xb929bc22	-0.00016187181
119	0xbb6d0c1c	-0.0036170548
120	0xb6713f61	-3.594869e-06
121	0xba2918c4	-0.0006450529
122	0xbb27e9e5	-0.002562159
123	0x3cb65f0a	0.022262115
124	0x3eadcbce	0.33944553
125	0xbb556c2b	-0.0032565694
126	0xb915036a	-0.00014211019
127	0xb6daa64e	-6.5162667e-06
128	0xbb270716	-0.0025486401
129	0xb9883172	-0.0002597678
130	0xbca0704f	-0.019584803
131	0xb3c8ae8d	-9.344976e-08
132	0xbaf9808c	-0.0019035502
133	0xbc20185a	-0.009771431
134	0xba4ba349	-0.0007768167
135	0xac966bca	-4.2752234e-12
136	0x3b9162ec	0.0044368412
137	0x396b72c8	0.00022454106
138	0xa20f0898	-1.9384663e-18
139	0xba437410	-0.00074559543
140	0xb50ed1c4	-5.320437e-07
141	0xbddaffba	-0.10693307
142	0xbc52f70e	-0.012876285
143	0xba6187c2	-0.00086032983
144	0xbbc7af19	-0.0060938713
145	0x3542949f	7.2486904e-07
146	0x3ba03c13	0.004889974
147	0xb34eacfa	-4.8120434e-08
148	0x374421ae	1.1690352e-05
149	0xbb4f4cec	-0.0031631542
150	0x36ea6fba	6.98675e-06
151	0xb490d7c7	-2.697909e-07
152	0xb98c0992	-0.0002671001
153	0xbbd8121c	-0.0065939557
154	0xb51e218c	-5.8908404e-07
155	0x3a48ff08	0.0007667397
156	0x394937a0	0.00019189576
157	0x3bc00a5b	0.0058606095
158	0x3d0356d4	0.032065228
159	0xb98e4d75	-0.0002714206
160	0xbe3a7b38	-0.18211067
161	0x3ae99610	0.0017821211
162	0xb37b6082	-5.8528265e-08
163	0xbc848e0e	-0.016181018
164	0x3af2a4da	0.0018512264
165	0xbae89133	-0.0017743468
166	0xbc6a8393	-0.014313596
167	0x39caef51	0.00038706747
168	0x3a1df0aa	0.00060249364
169	0xbb3be7b1	-0.0028672034
170	0x38282f78	4.009853e-05
171	0x38875a1a	6.454084e-05
172	0xb7ffb8ce	-3.0484425e-05
173	0xbc9e13c0	-0.019296527
174	0x3c86a7d8	0.016437456
175	0xbb565b27	-0.003270814
176	0xb02d5192	-6.305295e-10
177	0x3af563b9	0.0018721736
178	0x37c73816	2.3748766e-05
179	0x33cb4b86	9.466662e-08
180	0xb871254c	-5.7493613e-05
181	0xb9d03e8a	-0.00039719447
182	0x3b3f82d5	0.002922227
183	0xb8409dce	-4.5923334e-05
184	0xb9a9c6fd	-0.0003238245
185	0xbae0abee	-0.0017141083
186	0x3ad41f05	0.0016183561
187	0xbb9d0b5f	-0.0047926153
188	0xbdd87e58	-0.10570973
189	0xbe59b440	-0.21260166
190	0xba21f310	-0.0006177882
191	0x37a4c134	1.964029e-05
192	0xbb1da8e1	-0.0024056959
193	0xb8979f38	-7.229898e-05
194	0xbc98c39c	-0.018647961
195	0xaa5d0e39	-1.9633678e-13
196	0xba0d739f	-0.0005395952
197	0xbc09e3d9	-0.0084161395
198	0xb856fee0	-5.1258947e-05
199	0xaf05a44d	-1.2154651e-10
200	0xb8399503	-4.4246215e-05
201	0xbb6bc89a	-0.0035977722
202	0x98d4b4ea	-5.4983392e-24
203	0xba15c0f1	-0.00057126494
204	0xaf95a202	-2.7218056e-10
205	0x3d93d0eb	0.07217582
206	0xba827a7b	-0.0009954715
207	0xbb5c0ba3	-0.0033576272
208	0xbcb169f9	-0.021656977
209	0xbaf54fb3	-0.0018715769
210	0xbb3b40ca	-0.0028572553
211	0x280bebd6	7.767189e-15
212	0xaf8bd6fc	-2.5436708e-10
213	0xbb98246f	-0.004643015
214	0xb043895a	-7.1135775e-10
215	0xadad303d	-1.9689245e-11
216	0xb9ad027b	-0.0003299898
217	0xbb9e46b0	-0.004830204
218	0xb0c78af2	-1.4518646e-09
219	0xba733b46	-0.0009278547
220	0xb83ce354	-4.503441e-05
221	0xbc01622b	-0.00789694
222	0x3b93a4a0	0.004505709
223	0x33df432b	1.03964645e-07
224	0x3d4daddb	0.05021463
225	0xb9a70870	-0.0003185901
226	0xab047707	-4.7061004e-13
227	0xba9708a5	-0.0011522962
228	0xba2c5d0c	-0.00065751444
229	0xb9e3009f	-0.00043297277
230	0x3b207c4c	0.002448815
231	0xb777b08a	-1.4763451e-05
232	0xb9ce9c58	-0.00039407867
233	0x36822b18	3.8793187e-06
234	0xb685414c	-3.9713104e-06
235	0x330f2589	3.332892e-08
236	0xb4f9bcfc	-4.6517368e-07
237	0xbb2f2a44	-0.0026728073
238	0x3e123f54	0.1428197
239	0xbc80a62f	-0.015704243
240	0xa2f0dd78	-6.528662e-18
241	0xb8f8ec28	-0.00011869549
242	0xb9877431	-0.00025835776
243	0xb1b5935f	-5.2845475e-09
244	0xb5036631	-4.895001e-07
245	0xb80cec7f	-3.3598855e-05
246	0x391dd345	0.00015051391
247	0xbb797648	-0.0038064886
248	0xb7dafee0	-2.610631e-05
249	0xba31b439	-0.00067788694
250	0xbb2bea96	-0.0026232353
251	0xbb25f4be	-0.002532288
252	0x3e47bb60	0.19505072
253	0xbc1e13dd	-0.00964829
254	0xbb08805b	-0.002082846
255	0xb6d2de9e	-6.2844038e-06

fc.weight f4 [50, 64]
0	0x39e8730d	0.00044336208
1	0xb9d94ba8	-0.00041445834
2	0xbd09ef1f	-0.03367531
3	0x339e5607	7.3730966e-08
4	0x3988246b	0.00025967075
5	0xbc234bbd	-0.009966788
6	0xb8f5ce32	-0.00011720917
7	0xad844064	-1.5035258e-11
8	0x3a6f0a54	0.00091186655
9	0xbbed66c8	-0.0072449185
10	0xa2a2a380	-4.40833e-18
11	0xbb0dbbd1	-0.002162684
12	0x3614bb37	2.2162692e-06
13	0x3dda5a27	0.106617264
14	0xbb027890	-0.0019908287
15	0x3bc853d1	0.0061135073
16	0xbd1fc6d3	-0.039007973
17	0xb6b145f2	-5.2831538e-06
18	0xbb2666b9	-0.0025390817
19	0xb323e1a0	-3.81566e-08
20	0xb7a99840	-2.0217267e-05
21	0xbada1623	-0.0016638677
22	0xb61d2ec7	-2.342205e-06
23	0x3490afc1	2.6949968e-07
24	0x3a7e6ae2	0.0009705258
25	0x3ac16fe9	0.0014758083
26	0x3602937c	1.9457357e-06
27	0xbb9e98b4	-0.004839981
28	0x389a529d	7.35868e-05
29	0x3c347c35	0.011015941
30	0x3ce82533	0.02833805
31	0x38b28c42	8.5138265e-05
32	0xbcb7cf46	-0.022437703
33	0xb9fe6ae0	-0.00048526283
34	0x3392ee9a	6.842056e-08
35	0xbc36fdee	-0.01116894
36	0xbbb6f2ce	-0.005583144
37	0xbab65fd5	-0.0013914058
38	0xbb910788	-0.0044259466
39	0xb77f8e86	-1.5232368e-05
40	0xbac30e4b	-0.0014881579
41	0x3ade262a	0.001694863
42	0x35c09e62	1.435121e-06
43	0xb84224f2	-4.6287612e-05
44	0x37335d6b	1.0690982e-05
45	0xbba503d7	-0.005035858
46	0x3d853242	0.065037265
47	0x3bdeff1b	0.0068053133
48	0xaf86413b	-2.4420807e-10
49	0xba8ca3b7	-0.0010729943
50	0x37b31f92	2.1353164e-05
51	0x3474a6e3	2.2784984e-07
52	0x3931333c	0.00016899122
53	0x387e5e68	6.064624e-05
54	0xbab2926f	-0.0013623963
55	0xbc2f922a	-0.010716001
56	0x39046fe9	0.00012630191
57	0xb9e5abaa	-0.00043806183
58	0xbb823572	-0.0039736563
59	0xbcc5bf47	-0.02413906
60	0xbdf97bf9	-0.12181849
61	0xbc975562	-0.01847333
62	0xb9f5cbd6	-0.0004688191
63	0xb9c5acec	-0.00037703605
64	0xbc018633	-0.007905531
65	0xb893d710	-7.049565e-05
66	0x3c40e71a	0.011773849
67	0x3387f0fd	6.330263e-08
68	0x3ad643ea	0.0016347144
69	0x3c8c0539	0.017092334
70	0x3a325ac5	0.0006803687
71	0x2dbb0d98	2.1265475e-11
72	0x3a48adf1	0.0007655314
73	0xbc69743d	-0.014248905
74	0x22532d63	2.861986e-18
75	0xbb952199	-0.0045511243
76	0x3605164d	1.9831525e-06
77	0x3d695bc8	0.056972295
78	0x3a22c995	0.00062098476
79	0x3ca5887f	0.020206688
80	0xbc3458fe	-0.0110075455
81	0xb624e6f0	-2.4572328e-06
82	0xbb8573d1	-0.0040726443
83	0xb34ad26d	-4.722317e-08
84	0xb74e698d	-1.2303132e-05
85	0xba7d6db0	-0.0009667529
86	0x35b31134	1.3341546e-06
87	0xb4c61fa9	-3.690341e-07
88	0xb91ae924	-0.00014773436
89	0x3a2f4a40	0.00066867843
90	0x34ae3119	3.244575e-07
91	0xbc59e236	-0.013298562
92	0x3b2b0e5e	0.0026101093
93	0xbcb52b86	-0.02211548
94	0x3c9d61dc	0.019211702
95	0x396b9570	0.00022467016
96	0xbd194868	-0.037422568
97	0xbb066239	-0.0020505323
98	0x319f93e6	4.644323e-09
99	0xbb8d5ed5	-0.0043142834
100	0xbb8cfe6b	-0.00430279
101	0x3ad661ce	0.0016356052
102	0x3a9bc092	0.0011882952
103	0x3913f2be	0.00014109441
104	0xbc5abc40	-0.013350546
105	0xba920e36	-0.0011143151
106	0x37baf78d	2.2288203e-05
107	0xb8cd9fef	-9.804952e-05
108	0xb70f6f94	-8.549443e-06
109	0x3b364240	0.0027810484
110	0x3d7d250e	0.061802916
111	0xbc9f75c0	-0.019465327
112	0xb020b1d0	-5.846035e-10
113	0xbb57ce70	-0.0032929443
114	0x380049d1	3.0586325e-05
115	0x3514cea0	5.5434975e-07
116	0x39942b93	0.00028261225
117	0x3a2afb0b	0.00065223937
118	0xbb90ee95	-0.0044229724
119	0xbced4d82	-0.028967623
120	0x37a64b0f	1.9823694e-05
121	0x389a839d	7.367807e-05
122	0xbc2a61b4	-0.010399271
123	0xbbe6c279	-0.007042226
124	0xbdda3d92	-0.10656275
125	0x3c06c8b3	0.008226561
126	0xbb06b3c7	-0.0020553933
127	0xb9316fbb	-0.00016921658
128	0xbb39dac6	-0.002835916
129	0xbb021fe8	-0.0019855443
130	0x3cdc40e5	0.026886413
131	0x32ed2e1a	2.7611396e-08
132	0xbb4412a7	-0.0029918344
133	0xbb7c0d77	-0.0038460174
134	0xbb29ef2d	-0.0025929913
135	0x2d3744be	1.04176095e-11
136	0xbb1880f3	-0.002327022
137	0xbbdc7367	-0.006727624
138	0xa3728a5e	-1.3148147e-17
139	0xbb8fd0a1	-0.004388884
140	0x35f3dc5e	1.8169046e-06
141	0xbd627d94	-0.055295542
142	0x3b356ac3	0.0027682043
143	0x3bfc3173	0.0076963245
144	0xbc5e9e65	-0.013587569
145	0xb72fdef0	-1.04827195e-05
146	0xbb1452c1	-0.0022632333
147	0x314174b7	2.815154e-09
148	0x36912eb7	4.326775e-06
149	0xba5ae4c3	-0.0008350128
150	0x3565e13d	8.563691e-07
151	0x35904b82	1.0750812e-06
152	0xba254e4f	-0.00063059194
153	0x3ad168b3	0.0015976637
154	0x3701b9a0	7.732218e-06
155	0xbbad6b23	-0.0052923127
156	0xbb01d663	-0.0019811622
157	0x3be9b205	0.0071318173
158	0xbc448136	-0.011993697
159	0xb84a1f8b	-4.818993e-05
160	0x3c5e0975	0.013552059
161	0x3ad43976	0.0016191441
162	0x3372e1a3	5.655023e-08
163	0x3c466fa5	0.012111579
164	0xb972f30c	-0.0002316946
165	0x39ef1954	0.00045604503
166	0x3c220efb	0.009891267
167	0xb91bb30c	-0.00014848652
168	0xbc9047b0	-0.017612308
169	0xb9cefb3d	-0.0003947857
170	0x37f5a6d3	2.928396e-05
171	0x37cfa6e6	2.4754041e-05
172	0x3978ebee	0.00023739014
173	0x3ba06e5b	0.004895968
174	0xbdc19470	-0.0945214
175	0xbc240b23	-0.010012421
176	0xafc90f6f	-3.6572653e-10
177	0xbb48b38f	-0.0030624603
178	0xb94a777a	-0.0001930873
179	0x34f32f04	4.5296485e-07
180	0x388ee4e2	6.8137204e-05
181	0xbb01066f	-0.0019687673
182	0x3b1a8296	0.002357637
183	0xbc7e9743	-0.015538993
184	0xba316c00	-0.00067681074
185	0xbb15e6ee	-0.002287324
186	0xbbfbba6b	-0.007682135
187	0x3c829f3e	0.015945073
188	0x3dc89767	0.09794503
189	0xbb4cb847	-0.0031237768
190	0xb9cc1d9c	-0.00038931973
191	0x39341a73	0.00017175991
192	0xbb6e6353	-0.003637512
193	0xb9526b9c	-0.00020067248
194	0xbc341ead	-0.010993642
195	0x33e3c621	1.0606551e-07
196	0xb99253ca	-0.00027909718
197	0xbc152ba7	-0.009104646
198	0x39a049a6	0.0003057245
199	0xadbf4497	-2.1744646e-11
200	0x3b37ccb8	0.0028045606
201	0xbc560961	-0.01306376
202	0xa20ade14	-1.8820055e-18
203	0xbb86c1f5	-0.004112477
204	0x352ab4ea	6.35932e-07
205	0x3dd980ab	0.106202446
206	0xbbb4d3ce	-0.005518413
207	0x3bebb187	0.007192794
208	0x3c13f5c2	0.009030761
209	0xb4a4e820	-3.0716274e-07
210	0xbb7046dd	-0.0036663332
211	0xb2cb3e89	-2.3660748e-08
212	0xb71a3eba	-9.19372e-06
213	0xbadfd1d1	-0.001707608
214	0x35c191dc	1.4422071e-06
215	0xb5337621	-6.6854597e-07
216	0xb8882674	-6.492148e-05
217	0xbb12ee92	-0.002242003
218	0x363f576f	2.851211e-06
219	0xbc0b2c1d	-0.008494404
220	0x3b07522e	0.0020648348
221	0x3bada341	0.0052990024
222	0xbb996cb7	-0.0046821493
223	0x38f933cc	0.00011882893
224	0x3ddad018	0.10684222
225	0x3a27f55d	0.00064071064
226	0x340cd08e	1.3114388e-07
227	0x397baadf	0.0002400088
228	0xbc5fa230	-0.013649508
229	0xbab18a90	-0.0013545323
230	0xbc5c5022	-0.0134468395
231	0xb8accce1	-8.239761e-05
232	0xbc694a7d	-0.014238951
233	0xba20f4be	-0.0006139985
234	0xb7e7463b	-2.757005e-05
235	0xb82cf91c	-4.1239997e-05
236	0x38c5d4b1	9.433309e-05
237	0xbc139601	-0.009007932
238	0xbbc36d33	-0.0059639453
239	0x3b418aed	0.002953227
240	0x2f4795bb	1.815214e-10
241	0xbb28a540	-0.0025733262
242	0xb8822d67	-6.20734e-05
243	0x34f8b276	4.6323447e-07
244	0x393b08a4	0.00017836929
245	0x3a5bdb93	0.0008386906
246	0x3b21b16d	0.0024672404
247	0xbcb0abf6	-0.021566372
248	0xb713e7d9	-8.815864e-06
249	0x3aa69d76	0.0012711722
250	0xbbd4296a	-0.0064746635
251	0xbd363f6a	-0.04449407
252	0xbd3a6686	-0.04550793
253	0xbc4fd21d	-0.012684372
254	0xbadbfce3	-0.001678374
255	0xb9c9ab38	-0.00038465275

fc.bias f4 [50]
0	0x3b7e52ee	0.0038806754
1	0x3d6cd0a5	0.057816166
2	0xbd3bb490	-0.045826495
3	0x3ce6274f	0.028094916
4	0xbd2d34b7	-0.0422866
5	0xbcb38e97	-0.021918578
6	0x3abd4bb3	0.0014442116
7	0x3ca00203	0.01953221
8	0xbd23f0ba	-0.040024497
9	0xbd9686a9	-0.07349903
10	0xbd41cff5	-0.047317464
11	0xbc3cb059	-0.011516654
12	0x3d043c1b	0.032283884
13	0xbd24552d	-0.040120292
14	0x3c184efc	0.009296175
15	0x3d15d6b0	0.036581695
16	0x3d2f3bc1	0.042781595
17	0x3c89a141	0.016800525
18	0x3c947185	0.018120537
19	0x3cdd9a21	0.027051033
20	0xbd1d58e8	-0.038414866
21	0xbd31ca81	-0.043406013
22	0xbd5604e6	-0.052250765
23	0xbd354140	-0.04425168
24	0xbb89643a	-0.004192856
25	0x3ce66549	0.028124468
26	0xbbfa8aed	-0.007645956
27	0xbc65f559	-0.014035546
28	0x3c7352aa	0.014851252
29	0xbd70cf92	-0.058791704
30	0xbc2a3bde	-0.01039025
31	0x3d8c6923	0.06855991
32	0xbc88b39a	-0.016687203
33	0xbba62b77	-0.0050710994
34	0xbd51ea3d	-0.051248778
35	0x3c11898f	0.008882894
36	0xbd070f65	-0.032973666
37	0xbcc1b538	-0.023645982
38	0xbb07785a	-0.00206711
39	0x3d10b569	0.035329256
40	0xbbb0cb77	-0.0053953486
41	0xbbb09e67	-0.005389977
42	0xbcadebda	-0.021230627
43	0xbd23a36f	-0.039950784
44	0x3d3d4ac6	0.046213888
45	0x3d12c5b4	0.035833076
46	0xbccb94f6	-0.024851304
47	0xbc793ea8	-0.015212692
48	0x3cd25a03	0.025677687
49	0xbcf361de	-0.029709753

decoder.0.weight f4 [64, 50]
0	0x80008b6f	-5.002e-41
1	0x8000892d	-4.921e-41
2	0x00008ac9	4.9787e-41
3	0x800088d1	-4.908e-41
4	0x8000893b	-4.9229e-41
5	0x00008a8d	4.9703e-41
6	0x00008936	4.9222e-41
7	0x00008a05	4.9512e-41
8	0x00008aaf	4.975e-41
9	0x0000899b	4.9364e-41
10	0x00008ad0	4.9797e-41
11	0x80008a15	-4.9534e-41
12	0x00008987	4.9336e-41
13	0x800088f5	-4.9131e-41
14	0x00008a41	4.9596e-41
15	0x80008bfc	-5.0217e-41
16	0x80008a39	-4.9585e-41
17	0x00008a4a	4.9609e-41
18	0x00008b55	4.9983e-41
19	0x80008a8c	-4.9701e-41
20	0x00008c43	5.0316e-41
21	0x80008a0c	-4.9522e-41
22	0x00008bb7	5.012e-41
23	0x0000893a	4.9228e-41
24	0x00008aa1	4.973e-41
25	0x00008a33	4.9577e-41
26	0x000089e1	4.9462e-41
27	0x80008991	-4.935e-41
28	0x000089b4	4.9399e-41
29	0x0000890f	4.9167e-41
30	0x000089cc	4.9432e-41
31	0x00008992	4.9351e-41
32	0x80008a8e	-4.9704e-41
33	0x80008931	-4.9215e-41
34	0x000089b6	4.9401e-41
35	0x00008ad8	4.9808e-41
36	0x00008a5a	4.9631e-41
37	0x800089f3	-4.9487e-41
38	0x8000896c	-4.9298e-41
39	0x80008a4e	-4.9614e-41
40	0x00008b02	4.9867e-41
41	0x80008903	-4.915e-41
42	0x80008b18	-4.9897e-41
43	0x00008b9a	5.008e-41
44	0x80008a0a	-4.9519e-41
45	0x00009f3a	5.712e-41
46	0x80008a20	-4.955e-41
47	0x00008a01	4.9506e-41
48	0x800088e8	-4.9113e-41
49	0x00008aa6	4.9738e-41
50	0x2857e526	1.1984586e-14
51	0xa88e4c50	-1.5798262e-14
52	0x286619d3	1.27731645e-14
53	0xa814e72f	-8.26578e-15
54	0x292a9824	3.7879544e-14
55	0x290018e1	2.844329e-14
56	0x2994aeb3	6.602826e-14
57	0xa71bbe9e	-2.1613905e-15
58	0x285c429f	1.2226899e-14
59	0x28e142a8	2.5008926e-14
60	0x2919ef24	3.4180246e-14
61	0x28e4b737	2.5392542e-14
62	0xa7a54350	-4.586968e-15
63	0x2792cc8e	4.074492e-15
64	0x279aaa1a	4.292801e-15
65	0xa99aad7c	-6.8690686e-14
66	0xa9bcde8b	-8.387482e-14
67	0xa7159019	-2.075602e-15
68	0x278ac646	3.8517663e-15
69	0xa7ad55d9	-4.811022e-15
70	0x2971ccc0	5.3690342e-14
71	0x29d67e48	9.5254154e-14
72	0x28b64415	2.0235585e-14
73	0x2933d162	3.9927595e-14
74	0x26986348	1.0574029e-15
75	0xa6df3fc7	-1.549102e-15
76	0x27b63d9e	5.0581953e-15
77	0x29268607	3.6975655e-14
78	0xa785dd2c	-3.715471e-15
79	0x29b409fb	7.995337e-14
80	0xa92d9a20	-3.85474e-14
81	0xa9185eb6	-3.383293e-14
82	0xa8c5ed05	-2.1974184e-14
83	0xa919e9db	-3.4175662e-14
84	0x27274968	2.32157e-15
85	0x29907cc2	6.4165267e-14
86	0x28ac86dd	1.9154324e-14
87	0xa89298b0	-1.6275474e-14
88	0x2765454a	3.1817696e-15
89	0x26140c4b	5.1364475e-16
90	0xa8974d0e	-1.6797785e-14
91	0x274f30b1	2.8753416e-15
92	0x290084ae	2.853679e-14
93	0x28780762	1.3768366e-14
94	0xa7bfecb5	-5.3269788e-15
95	0xa9d1c1f3	-9.315109e-14
96	0x28dcbee4	2.4507692e-14
97	0x28c19d84	2.1495616e-14
98	0xa81de57f	-8.765015e-15
99	0x29205158	3.559769e-14
100	0x800099d3	-5.5182e-41
101	0x80008959	-4.9271e-41
102	0x80003b20	-2.121e-41
103	0x00008953	4.9263e-41
104	0x000088f7	4.9134e-41
105	0x00008be4	5.0183e-41
106	0x8000904b	-5.1763e-41
107	0x8000aed7	-6.2721e-41
108	0x800088f5	-4.9131e-41
109	0x000089f1	4.9484e-41
110	0x800099b1	-5.5134e-41
111	0x00009818	5.4561e-41
112	0x80008a71	-4.9663e-41
113	0x00008a1b	4.9543e-41
114	0x93347e6c	-2.2781525e-27
115	0x00008b29	4.9921e-41
116	0x00008943	4.924e-41
117	0x800088ba	-4.9048e-41
118	0x80008939	-4.9226e-41
119	0x80008dfa	-5.0932e-41
120	0x800089a2	-4.9373e-41
121	0x80008b80	-5.0043e-41
122	0x800ff267	-1.46449e-39
123	0x000069c7	3.7946e-41
124	0x80008a2c	-4.9567e-41
125	0x803394ed	-4.737035e-39
126	0x800088e5	-4.9109e-41
127	0x000089a2	4.9373e-41
128	0x80008923	-4.9195e-41
129	0x00008ae2	4.9822e-41
130	0x00009002	5.166e-41
131	0x000089c0	4.9415e-41
132	0x80008aea	-4.9833e-41
133	0x00008e0e	5.096e-41
134	0x80008b24	-4.9914e-41
135	0x00008d0c	5.0598e-41
136	0x000089d3	4.9442e-41
137	0x800089e3	-4.9464e-41
138	0x0000894b	4.9251e-41
139	0x80008aa9	-4.9742e-41
140	0x80008c37	-5.03e-41
141	0x00008924	4.9197e-41
142	0x00008ebb	5.1202e-41
143	0x000089f9	4.9495e-41
144	0x02853ec2	1.9578615e-37
145	0x80008e9e	-5.1161e-41
146	0x00008b11	4.9888e-41
147	0x80008a50	-4.9617e-41
148	0x00008915	4.9176e-41
149	0x00008a23	4.9554e-41
150	0x3db2746c	0.08713612
151	0xbc8c0e26	-0.01709659
152	0x3d869dfd	0.065731026
153	0x3dc1dc14	0.09465805
154	0xbc3e23c0	-0.011605203
155	0xbdf44cdd	-0.11928723
156	0x3e01e490	0.12684846
157	0xbdf7ca36	-0.120991156
158	0x3dff1e9a	0.12457009
159	0x3d4ccaa1	0.04999793
160	0x3d1c89e8	0.038217455
161	0x3ddf713d	0.1091027
162	0x3e006191	0.12537219
163	0x3d9889f4	0.074481875
164	0xbcaaa6e2	-0.020831529
165	0x3ce17b6d	0.027524674
166	0x3dc991fd	0.09842298
167	0xbd9f9058	-0.07791203
168	0xbdc573fa	-0.096412614
169	0x3de8414a	0.11340578
170	0x3deb93f3	0.115028284
171	0xbd116779	-0.03549907
172	0x3df3ffb6	0.11914007
173	0x3d95ae42	0.07308628
174	0xbdca8c98	-0.098900974
175	0xbdb73487	-0.08945566
176	0x3ddb1e12	0.10699095
177	0xbd2a96a6	-0.041647576
178	0xbd4b7085	-0.049667854
179	0x3ab91f07	0.0014123627
180	0xbdf43542	-0.119242206
181	0x3d9a040a	0.07520302
182	0x3dc27ad3	0.09496083
183	0xbdd72600	-0.10505295
184	0x3e0b634c	0.13612098
185	0x3e09742a	0.1342322
186	0x3dd54433	0.104133986
187	0x3dbec795	0.09315411
188	0xbde77b10	-0.11302769
189	0xbcb855e6	-0.022501897
190	0xbdd8c072	-0.10583581
191	0x3dcda137	0.10040515
192	0x3bd3c155	0.006462256
193	0x3dbfdeeb	0.0936869
194	0xbd92732f	-0.07150876
195	0x3dceb7d9	0.1009366
196	0x3dd0e9ea	0.102008656
197	0x3ddcf508	0.107889235
198	0xbdadc07d	-0.0848398
199	0xbdb506ef	-0.08839213
200	0x3d4cc049	0.049988065
201	0x3cb2c568	0.021822646
202	0xbc981703	-0.01856566
203	0x39858826	0.00025469175
204	0x3c8f37fb	0.017482748
205	0xbbc5e413	-0.0060391515
206	0x3d2be470	0.0419659
207	0xbbacbe6c	-0.0052717235
208	0xbbad9207	-0.005296949
209	0xbc1044c8	-0.008805461
210	0xbca09f8b	-0.019607326
211	0x3d9f51d3	0.077792786
212	0x3b2c8af4	0.002632794
213	0x3d123811	0.035698
214	0x3ce9d1af	0.028542368
215	0xbd475ef0	-0.048674524
216	0xbd7ef6c0	-0.062247038
217	0xbcc30497	-0.0238059
218	0x3ccbbb48	0.024869576
219	0x3d0e7782	0.03478194
220	0xbc44c0af	-0.01200883
221	0xbc9c3770	-0.019069403
222	0xbca719cf	-0.020398049
223	0x3cb65a4b	0.022259852
224	0xbd157814	-0.03649147
225	0x3cf5450e	0.029940154
226	0x3bb68c6e	0.0055709397
227	0x3d84a329	0.06476433
228	0x3d694b28	0.05695644
229	0x3c76d846	0.015066212
230	0xbc207e79	-0.009795778
231	0xbb7a0abe	-0.0038153375
232	0xbcbc096c	-0.022953711
233	0xbd34f3ff	-0.044178005
234	0x3c5fe8c6	0.013666337
235	0x3c08042b	0.008301775
236	0x3bb5492b	0.005532404
237	0x3d0671e6	0.032823466
238	0xbcde8336	-0.027162176
239	0x3cffaf3e	0.031211492
240	0xbcada431	-0.021196457
241	0xbd7dfa1a	-0.062006094
242	0x3d615e73	0.055021714
243	0xbaf93846	-0.0019013963
244	0x3d1ab2ec	0.03776829
245	0xbdb6e140	-0.08929682
246	0x3c0e4ece	0.008685781
247	0x3ba019f7	0.0048859078
248	0xbd7d570e	-0.0618506
249	0x3c9b9963	0.018994039
250	0x25ad6f5e	3.0086181e-16
251	0xa39ac0b7	-1.6778331e-17
252	0xa541a420	-1.6795689e-16
253	0xa5bab3aa	-3.2387602e-16
254	0xa301d909	-7.039063e-18
255	0xa3133108	-7.979269e-18

decoder.0.bias f4 [64]
0	0xa878c310	-1.3809063e-14
1	0xa9bc482e	-8.361398e-14
2	0x9d45446e	-2.610811e-21
3	0xbe0bb668	-0.13643801
4	0x3c50ff1b	0.012756134
5	0x25875a37	2.34799e-16
6	0xaa5c969c	-1.9592178e-13
7	0x97e6d21d	-1.4916442e-24
8	0x3ce66c67	0.028127862
9	0xb303d43b	-3.0693837e-08
10	0xa96554e9	-5.0921862e-14
11	0x1b43e84c	1.6205081e-22
12	0xb51dc03b	-5.876679e-07
13	0x3d209f9d	0.03921472
14	0xb79d0ec8	-1.8722742e-05
15	0xa94b613b	-4.515939e-14
16	0x3d45210a	0.04812721
17	0xb9f38e1f	-0.0004645446
18	0xb5b39a73	-1.338149e-06
19	0xa4b8afa2	-8.0094813e-17
20	0xa39db85d	-1.7100055e-17
21	0xaabaec50	-3.3204212e-13
22	0xb813d9d9	-3.5250418e-05
23	0xa9dcdb20	-9.807975e-14
24	0xa832500a	-9.898341e-15
25	0xb550e7c9	-7.782333e-07
26	0x3c53c548	0.0129254535
27	0xaa505eda	-1.850702e-13
28	0xbd5ebdb4	-0.054380134
29	0xb64f7b32	-3.0917113e-06
30	0x3b53cc07	0.0032317655
31	0x992ceff4	-8.94065e-24
32	0x3d28f64e	0.04125052
33	0x9c1ed710	-5.2555776e-22
34	0xb25f2c7c	-1.2990423e-08
35	0xb7c5f1bc	-2.3596796e-05
36	0x3d415492	0.047199793
37	0xbb0871f1	-0.0020819867
38	0xba0c46ac	-0.0005351107
39	0xb6cfe159	-6.1953147e-06
40	0xbe1ad305	-0.1511956
41	0x3d4dd3d3	0.05025084
42	0xbe2e4497	-0.17018352
43	0x90b8cd73	-7.289175e-29
44	0xa9e428b8	-1.01322976e-13
45	0xa927259f	-3.711408e-14
46	0xa96acb04	-5.2134526e-14
47	0x9e078e46	-7.176262e-21
48	0xaffb0dc8	-4.5666426e-10
49	0xa8649529	-1.26888864e-14
50	0xab13994d	-5.243764e-13
51	0xb0676389	-8.417876e-10
52	0xa08289bf	-2.211401e-19
53	0xa9016433	-2.8730663e-14
54	0x3d3a789f	0.04552519
55	0xa5a5091b	-2.8629107e-16
56	0x3d0ac144	0.03387572
57	0xa1f5585f	-1.6625237e-18
58	0xb9c9039b	-0.00038340394
59	0xa88ae56c	-1.5420574e-14
60	0xb1bf4ca4	-5.5675446e-09
61	0x3d176f0c	0.036971137
62	0xbe43814e	-0.19092295
63	0x32d9e551	2.5366406e-08
