checkpoints/checkpoint_epoch_950.pth (torch, 314812 bytes, 30 tensors)

lstm.weight_ih_l0 f4 [256, 2]
-0.006455353 -0.006509105 -0.00019810999 -0.00013614446 0.00046806555 -2.0556964e-18 -0.1606416 -0.0053418986
-0.00039531343 -2.6677617e-08 0.0018925451 0.00046655737 2.8361686e-08 -7.1078865e-08 0.0009039754 -0.0050926707
-0.0011203878 -0.00042976512 -0.0017470508 -0.0042224 -0.0014462456 -0.0010195288 -0.0058319643 -0.0031458281
-6.2433806e-05 -8.2843704e-05 -0.274808 0.13383561 0.0006020458 -0.000112500595 -0.029735714 0.0003010216
-2.6745977e-09 1.0774888e-15 -0.0029994813 -0.0023140728 -0.0011032716 -0.0031333505 0.0010380377 -0.00031500973
-4.2593496e-05 -6.500507e-10 -2.30025e-06 -1.2942144e-07 -0.0033670336 -7.276382e-05 0.00023210778 -1.14244995e-05
0.0021240872 -0.002313561 0.0066192127 -0.0030785012 -0.0007993337 -0.00018590811 0.0030038836 -0.0015927315
-0.00085054355 -5.0687973e-05 -4.392469e-06 9.72353e-07 -1.619291e-17 1.5662657e-32 -0.17625521 0.0050951433
0.22110622 -0.11994766 0.0042654714 -0.002680649 0.0007825478 2.8208677e-05 -5.380909e-06 -6.601417e-07
0.001160337 0.00011908409 -0.033607524 -0.0077415253 -0.00027730418 -0.000323358 0.003550477 -0.00040157535
1.6455716e-07 -8.042111e-08 0.0010468775 -0.0014175377 -0.0053615943 -0.0049771997 -0.0056907414 -0.015382535
-0.0040232185 0.00043637026 0.00012215642 2.8138567e-05 0.047108892 0.0041374876 -0.0005180181 -0.0002540035
-0.00024770224 -6.1128936e-05 -0.0071719307 -0.0072475993 0.005576028 0.00014508623 0.0005045935 -0.0022951253
-2.8702994e-05 -1.6990307e-05 0.0017802226 -0.0033148911 3.328247e-06 -3.5742776e-06 -0.0020528117 -0.0015464567
0.0020338634 -0.0051723504 1.9893323e-05 1.2238e-05 -1.9350327e-05 -8.51369e-06 4.9792374e-07 -4.6857775e-08
-0.04312416 0.063211866 -0.027976409 0.014654048 -0.0012500653 -0.0008401814 -0.028718956 -0.011494032
-0.015117994 -0.0069238716 -0.0002768295 -0.00014538178 -3.0273627e-15 -8.963438e-19 -0.06869801 0.0017681057
-1.3938586e-09 -1.67724e-08 0.0006609141 0.0002081135 -1.4556696e-07 -4.9163784e-08 -0.014265663 -0.005590245
-0.002363442 -0.0008642028 -0.014243751 0.0024770808 -0.0017794882 -0.00092217786 -0.008170489 -0.003890869
-0.0002709399 -9.192145e-05 0.45219657 0.17948775 -0.00038113826 -0.00070725405 -0.024679266 -0.00049635454
-2.721101e-12 7.724517e-16 -0.0039694854 -0.0030136793 -0.006909474 -0.004023546 -0.0012798394 -0.00030072793
6.8320254e-08 3.5606305e-09 -4.6946496e-07 -2.2510987e-07 -0.00078740134 -0.00011829469 -2.9490604e-06 -0.00015729616
-0.00067815924 -0.0033846064 -0.019768445 -0.0017494776 -0.00089779973 -0.00027583746 -0.0037448194 -0.005408736
-0.00023688642 -0.00010025011 -7.737853e-06 4.911721e-07 -3.0584965e-11 -1.4903217e-32 -0.00045710758 0.017022245
-0.44570363 -0.058738958 -0.0027225837 -0.0035265419 -0.00034094803 -0.00048539398 -5.906618e-06 -2.0979728e-07
0.00037424592 -5.5826225e-05 -0.048690505 -0.010067856 -0.0012919116 -0.00026998442 0.0018846049 -0.00052425626
-1.4739511e-07 -1.6805397e-07 -0.0006890118 -0.0020459048 -0.000837971 -0.00584408 -0.0085748825 -0.013241283
-0.02386617 -0.0038696087 -4.3183336e-05 -4.253615e-05 -0.10585832 0.144078 -0.0007904484 -0.00020230547
-0.00025396215 -3.704246e-05 -0.031143904 -0.009060066 0.0026261255 -0.00031878107 -0.00012459968 -0.0019965584
-1.0171741e-05 -1.31533325e-05 -0.005099466 -0.004469205 -1.6849189e-06 -3.6203014e-06 -0.0074576787 -0.002958478
-0.011492287 -0.00515722 -0.00029558086 -7.48721e-05 3.1097293e-06 -5.888489e-06 0.0013122044 -2.4388842e-07
0.15317927 0.20748742 0.0071380897 -0.01435683 -0.0028850054 -0.0010447426 -0.0338555 -0.009151228
00000000: 6d87 d3bb 554a d5bb bfbb 4fb9 00c2 0eb9
00000010: b266 f539 02af 17a2 3b7f 24be 180b afbb
00000020: 1242 cfb9 b328 e5b2 470f f83a 459c f439
00000030: 02a0 f332 05a4 98b3 c3f8 6c3a 6be0 a6bb
00000040: fad9 92ba 1952 e1b9 4cfd e4ba 0f5c 8abb
00000050: f38f bdba b6a1 85ba 101a bfbb 3d2a 4ebb
00000060: e5ee 82b8 60bc adb8 a2b3 8cbe 340c 093e
00000070: 9cd2 1d3a 4cee ebb8 5098 f3bc 6fd2 9d39
00000080: 05cc 37b1 5248 9b26 f292 44bb b3a7 17bb
00000090: a79b 90ba e658 4dbb c40e 883a e427 a5b9
000000a0: 6ba6 32b8 40af 32b0 fe5d 1ab6 18f7 0ab4
000000b0: 73a9 5cbb c798 98b8 f561 7339 daab 3fb7
000000c0: 4534 0b3b 1d9f 17bb fbe5 d83b aec0 49bb
000000d0: 608a 51ba 54f0 42b9 cedc 443b 33c3 d0ba
000000e0: 03f7 5eba cc99 54b8 0563 93b6 cb81 8235
000000f0: 6d5a 95a3 7ca6 a20a 3f7c 34be 29f5 a63b
00000100: ab69 623e 1ea7 f5bd 5ec5 8b3b d4ad 2fbb
00000110: e523 4d3a aca1 ec37 a88d b4b6 9834 31b5
00000120: 7316 983a c9bc f938 0ba8 09bd 9fac fdbb
00000130: 2363 91b9 6088 a9b9 1faf 683b 888a d2b9
00000140: 21b1 3034 f9b3 acb3 6137 893a accc b9ba
00000150: 50b0 afbb c717 a3bb 6679 babb 0707 7cbc
00000160: 34d5 83bb a0c8 e439 1d17 0039 1d0b ec37
00000170: 41f5 403d c393 873b 9bcb 07ba c62b 85b9
00000180: 08de 81b9 5932 80b8 8402 ebbb 457d edbb
00000190: 1db7 b63b 4a22 1839 b246 043a d069 16bb
000001a0: 36c7 f0b7 6886 8eb7 5c56 e93a a53e 59bb
000001b0: d95a 5f36 9fdd 6fb6 7788 06bb 7ab2 caba
000001c0: 914a 053b d27c a9bb 96e0 a637 cf51 4d37
000001d0: 8352 a2b7 05d6 0eb7 0fa9 0535 ab40 49b3
000001e0: f6a2 30bd 3975 813d c82e e5bc 8817 703c
000001f0: 3bd9 a3ba 9f3f 5cba 0444 ebbc 7751 3cbc
00000200: 76b1 77bc a5e1 e2bb 6d23 91b9 a071 18b9
00000210: fc24 5aa7 e946 84a1 8bb1 8cbd c8bf e73a
00000220: 0a92 bfb0 e612 90b2 3241 2d3a 0b39 5a39
00000230: 244d 1cb4 2728 53b3 87ba 69bc 602e b7bb
00000240: fae3 1abb ab8b 62ba 9f5e 69bc 8556 223b
00000250: b73d e9ba 4fbe 71ba 84dd 05bc f3fd 7ebb
00000260: f00c 8eb9 f4c5 c0b8 4f86 e73e a3cb 373e
00000270: 83d3 c7b9 0467 39ba 2c2c cabc ca1d 02ba
00000280: ff7a 3fac e0a4 5e26 7512 82bb 2681 45bb
00000290: de68 e2bb f3d7 83bb 49c0 a7ba 05ab 9db9
000002a0: 75b7 9233 46af 7431 c60a fcb4 bbb5 71b4
000002b0: 9c69 4eba fa14 f8b8 79e8 45b6 deef 24b9
000002c0: 7fc6 31ba 46d0 5dbb 6ff1 a1bc ba4e e5ba
000002d0: 525a 6bba 479e 90b9 a56b 75bb c43b b1bb
000002e0: b764 78b9 5e3d d2b8 d3d1 01b7 17d9 0335
000002f0: 9c83 06ae 8cc3 9a8a f1a7 efb9 3c72 8b3c
00000300: 4433 e4be 4398 70bd 606d 32bb 8e1d 67bb
00000310: 45c1 b2b9 7a7c feb9 7631 c6b6 a344 61b4
00000320: 7036 c439 f426 6ab8 b26f 47bd a6f3 24bc
00000330: 5c55 a9ba b28c 8db9 d904 f73a 3e6e 09ba
00000340: a943 1eb4 5372 34b4 cd9e 34ba 9614 06bb
00000350: 48ab 5bba b27f bfbb aa7d 0cbc f7f1 58bc
00000360: fc82 c3bc 4399 7dbb c11f 35b8 d868 32b8
00000370: 3fcc d8bd 2f89 133e 1836 4fba f621 54b9
00000380: 3926 85b9 0a5e 1bb8 8021 ffbc ac70 14bc
00000390: 131b 2c3b 1222 a7b9 f9a6 02b9 b1d8 02bb
000003a0: 4ca7 2ab7 22ad 5cb7 6c19 a7bb 6972 92bb
000003b0: 5f25 e2b5 4ef4 72b6 8b5f f4bb 06e3 41bb
000003c0: 254a 3cbc e6fd a8bb 31f8 9ab9 a704 9db8
000003d0: beb0 5036 bc95 c5b6 46fe ab3a c5ef 82b4
000003e0: 07db 1c3e 9577 543e a3e6 e93b e938 6bbc
000003f0: 5c12 3dbb bfef 88ba 11ac 0abd 08ef 15bc

lstm.weight_hh_l0 f4 [256, 64]
0.0007908625 0.00028100781 1.8981173e-11 0.00019789638 3.804163e-06 -0.0006640589 -7.863155e-06 -0.002550623
-0.0005188083 0.0015018828 0.0008175292 0.0012646609 0.00022392895 -0.0032729323 9.091322e-05 -0.00028410836
1.612508e-09 0.00021420616 0.0011294648 -0.00047683698 2.4622398e-07 9.1485e-06 0.0001639504 -0.0001896368
0.0006394686 -0.0012164838 0.00013223871 0.00065147044 -8.247951e-05 -2.2696591e-05 1.4959749e-18 -0.0056277793
0.0006902272 0.00036206175 -0.00024656244 3.924488e-06 3.9422022e-05 0.0011472042 0.00034057486 -0.00039509806
3.9049596e-06 0.00026398723 -0.00037995534 -0.0010771359 0.0010043405 1.9225052e-05 0.0005461779 -0.00021848752
0.00025391695 0.0022899355 -0.000828167 -0.0002121999 4.543497e-05 -0.0013910297 0.00015161445 4.653397e-05
0.0006999434 0.0002400087 -9.832523e-06 -1.4512243e-05 -0.0031948544 -0.002360363 -0.00057921646 -0.0009996991
5.521344e-05 8.6147675e-06 -1.2000502e-12 3.4745022e-05 1.2619674e-07 -2.6987213e-05 -7.8638195e-08 -1.8574148e-05
3.452552e-06 6.90579e-05 1.0572374e-05 4.8840866e-05 8.74522e-06 -0.00020583069 8.184727e-06 -1.7887765e-05
3.705877e-11 1.2131924e-05 4.519672e-05 -1.0648162e-05 7.667508e-09 5.9989446e-08 1.2970237e-05 1.7093893e-06
2.6921856e-05 -6.578993e-05 5.636397e-06 2.2994338e-05 -3.2368264e-06 -9.312056e-07 5.5799956e-20 -7.909339e-05
6.300098e-05 -1.0716921e-05 -4.130778e-06 2.576304e-07 9.8682785e-06 7.712376e-05 2.0511483e-05 -7.908404e-06
2.7762133e-07 1.2705882e-05 -3.7373793e-05 5.4067295e-05 4.4520853e-05 2.8789715e-09 -8.0959435e-06 -1.05055e-05
-7.849929e-07 6.626151e-05 4.657747e-05 -1.841963e-05 2.8717202e-06 -1.1514104e-05 -8.712267e-07 9.402041e-06
4.3429165e-05 3.7552002e-06 3.105576e-07 -8.870176e-07 -0.00021988482 -4.396664e-05 -1.5748583e-05 -6.616509e-05
1.7345822e-19 1.7692034e-19 -6.3393867e-26 5.655144e-19 -4.10047e-21 3.3694375e-20 -1.0046203e-21 1.0558724e-18
4.483314e-20 -9.685356e-19 -2.3499736e-19 1.1149235e-19 2.1996066e-19 1.2731406e-18 -6.960975e-20 -6.7820637e-19
9.478088e-25 1.1453397e-19 -1.176916e-18 5.6424335e-20 1.6439043e-21 -4.265765e-21 -4.087991e-21 2.9805905e-19
-1.4076962e-19 7.147604e-19 -4.9990004e-20 9.219616e-19 1.2584074e-19 5.628146e-22 -2.0622875e-33 6.56966e-19
-8.57992e-18 -1.9634281e-19 8.002441e-21 -2.478691e-21 -2.0518099e-19 2.842691e-19 7.7532905e-20 -1.6572557e-19
-1.6175352e-22 -4.0733806e-19 2.1871478e-20 -5.4116063e-19 -1.2657431e-19 4.752468e-20 1.6144856e-18 2.8180357e-20
-9.099435e-20 2.0537158e-19 1.6144796e-19 6.2952725e-19 -4.3214242e-20 -1.1384006e-19 1.8916865e-21 8.0247645e-19
-1.1833541e-19 -3.6393352e-20 -1.3830145e-20 -3.7860957e-21 1.0926047e-18 -1.9291551e-19 3.5921564e-19 -3.9845352e-19
0.0038440633 0.0007266557 7.097016e-11 0.0023934436 1.0853687e-05 0.00022674425 -1.3306219e-05 -0.0044396413
-0.001488274 0.005690919 0.001779385 0.004417357 0.00040130876 -0.0060754423 2.5410192e-05 -0.0015531365
-6.442845e-09 0.00061545963 0.0028793414 0.0009018754 4.2581624e-07 1.5497053e-05 0.0010574238 -0.00036661673
0.002575016 -0.0043875887 0.00018127217 -0.0047056135 -0.00051135116 -7.840093e-06 -1.23462364e-17 -0.017297208
-0.005337149 -0.00038114042 0.0013964911 5.5445236e-07 0.0007129066 0.009196238 0.0018074372 -0.000667897
1.2029372e-05 0.0012270159 -0.002306771 0.017993797 0.0058206893 0.00033571606 0.010446402 -5.4018295e-05
0.00034205645 0.0034961845 -0.0019926466 -0.0029634195 0.00018445868 -0.0026664285 -5.2928233e-05 0.003494491
0.0033235701 0.0001667605 8.407744e-05 -2.1309805e-05 -0.0064694285 0.0027567765 -0.0021659224 -0.0060471157
00000000: e251 4f3a 3b54 9339 cdf5 a62d 6882 4f39
00000010: 064b 7f36 3d14 2eba feeb 03b7 5a28 27bb
00000020: a300 08ba d3da c43a 754f 563a fac2 a53a
00000030: 78ce 6a39 b17e 56bb aaa8 be38 61f4 94b9
00000040: 159f dd30 879c 6039 8d0a 943a faff f9b9
00000050: c430 8434 827c 1937 1aea 2b39 3ed9 46b9
00000060: 03a2 273a 6c72 9fba 8fa9 0a39 71c7 2a3a
00000070: daf8 acb8 8f64 beb7 55c4 dc21 3c69 b8bb
00000080: 5df0 343a 1bd3 bd39 0d45 81b9 18af 8336
00000090: 1359 2538 c95d 963a 2f8f b239 2a25 cfb9
000000a0: 5907 8336 c467 8a39 be34 c7b9 af2e 8dba
000000b0: 13a4 833a 7c45 a137 612d 0f3a cc19 65b9
000000c0: 2820 8539 be12 163b 5919 59ba fa81 5eb9
000000d0: 6d91 3e38 3653 b6ba b2fa 1e39 782d 4338
000000e0: 687c 373a d8aa 7b39 5df6 24b7 9c79 73b7
000000f0: c360 51bb 52b0 1abb 8fd6 17ba 5608 83ba
00000100: fb94 6738 2588 1037 5de4 a8ab 2fbb 1138
00000110: b280 0734 9962 e2b7 cedf a8b3 aecf 9bb7
00000120: 64b2 6736 2ed3 9038 0060 3137 7bda 4c38
00000130: 6fb8 1237 41d4 57b9 2351 0937 af0d 96b7
00000140: 77fc 222e 388a 4b37 9c91 3d38 82a5 32b7
00000150: 0fba 0332 8cd3 8033 be9a 5937 2b6e e535
00000160: 3fd6 e137 b3f8 89b8 4820 bd36 f7e3 c037
00000170: 4138 59b6 f6f7 79b5 01c1 831f f1de a5b8
00000180: 651f 8438 d3cc 33b7 1d9b 8ab6 7450 8a34
00000190: ef8f 2537 81bd a138 1310 ac37 56ae 04b7
000001a0: fc0b 9534 592b 5537 cec1 1cb8 51c6 6238
000001b0: e7bb 3a38 67d7 4531 d0d3 07b7 c740 30b7
000001c0: 4db8 52b5 e1f5 8a38 2d5c 4338 db83 9ab7
000001d0: c7b7 4036 b32c 41b7 3ede 69b5 75bd 1d37
000001e0: b627 3638 d901 7c36 b6ba a634 631b 6eb5
000001f0: e290 66b9 d268 38b8 d31b 84b7 1dc2 8ab8
00000200: 88c8 4c20 e4de 5020 a3f4 9c95 0fe9 2621
00000210: 50e9 9a9d 001e 1f1f 5ed0 979c bbd1 9b21
00000220: f1b7 531f 3eee 8ea1 ccb7 8aa0 7fa0 0320
00000230: 84d7 8120 e4e1 bb21 835c a49f d32b 48a1
00000240: 93aa 9217 c537 0720 a1ae ada1 6b3a 851f
00000250: 786b f81c f327 a19d 9f70 9a9d 69f1 af20
00000260: 0231 26a0 c5f5 5221 3512 6c9f b90e 8821
00000270: 0891 1420 ac19 2a1c 0154 2b89 f3e6 4121
00000280: 8745 1ea3 f9cc 67a0 6e29 171e db48 3b9d
00000290: 263c 72a0 88cd a720 c411 b71f 7ba7 43a0
000002a0: 4a8c 439b 3073 f0a0 fd91 ce1e f1b8 1fa1
000002b0: bd6e 15a0 d06d 601f 8b41 ee21 f613 051f
000002c0: b6da d69f c075 7220 a79a 3e20 bccd 3921
000002d0: d012 4c9f 0c66 06a0 8aee 0e1d 68d9 6c21
000002e0: afb4 0ba0 dddc 2b9f 3d9f 829e df08 8f9d
000002f0: 703d a121 23c1 63a0 220b d420 9834 eba0
00000300: aeec 7b3b 0a7d 3e3a a610 9c2e 52db 1c3b
00000310: 3b18 3637 32c2 6d39 c73d 5fb7 697a 91bb
00000320: 3012 c3ba e37a ba3b 413a e93a 7abf 903b
00000330: c066 d239 8114 c7bb f927 d537 9d92 cbba
00000340: dd5f ddb1 cc56 213a 55b3 3c3b d56b 6c3a
00000350: bd9b e434 abff 8137 4199 8a3a 7736 c0b9
00000360: 9ac1 283b c3c5 8fbb e113 3e39 8c31 9abb
00000370: 320c 06ba f188 03b7 74bf 63a3 e0b2 8dbc
00000380: 40e3 aebb cdd3 c7b9 770a b73a add5 1435
00000390: 5ae2 3a3a d1ab 163c 87e7 ec3a cf15 2fba
000003a0: c2d1 4937 d2d3 a03a 322d 17bb ba67 933c
000003b0: 7bbb be3b 0c03 b039 6327 2b3c b491 62b8
000003c0: 0a56 b339 3e20 653b 1097 02bb ee35 42bb
000003d0: 406b 4139 3fbf 2ebb 42ff 5db8 d503 653b
000003e0: 41d0 593b 6edc 2e39 bb52 b038 75c2 b2b7
000003f0: 80fd d3bb 09ab 343b 26f2 0dbb e226 c6bb

lstm.bias_ih_l0 f4 [256]
-0.0037199808 -0.00015191495 -5.165856e-19 -0.006755156 -2.3011728e-08 -5.3158394e-05 -7.832014e-08 -0.006471807
-0.0011933314 -0.004047052 -0.00084553106 -0.0032225384 -0.00020725664 0.034573343 -0.0015562169 -0.0038014334
-9.837888e-18 -0.004392619 -0.0032364118 -0.0005881956 6.316536e-09 -3.9973875e-07 -0.00018927114 -0.00029956337
-0.0035540336 -0.0016657483 -0.000102362916 -0.010797571 -7.300643e-05 -7.371979e-07 -2.9990755e-32 -0.04746517
0.018359728 -0.005819475 -0.0008892008 -1.247446e-06 -0.00035471626 -0.016629077 -0.00038663225 -0.00079305464
-1.8837595e-07 -0.0029762452 -0.006188347 -0.012062303 -0.012066174 -7.492304e-05 0.12458001 -0.00019811865
-1.3188272e-05 -0.010782711 -0.0007027194 -0.0032853074 -1.0510534e-05 -0.0064435727 -6.176131e-06 -0.00067126006
-0.00531126 -0.00017686684 -1.0681287e-05 -3.5610623e-09 0.11057937 0.0065902835 -0.00057540304 -0.0073412443
-0.0035279158 -0.00015276064 -9.499e-19 0.031238416 -1.9607452e-08 -0.00048079272 -7.900895e-08 -0.008750638
-0.0013020748 -0.018013757 -0.00093083247 -0.0040954114 -0.00026730663 0.15689577 -0.0011445638 -0.0041808886
5.1854214e-16 -0.002622772 -0.0046099015 -0.00039692243 -1.2179167e-08 -4.0243833e-07 -0.00017964093 -0.00034325436
-0.0042305905 -0.00563933 -0.00018193692 -0.013145968 -0.0001517376 -9.772098e-07 -7.4333396e-32 -0.06570888
0.18122603 -0.0064777313 -0.00051110453 -1.0525483e-06 -0.00047299598 -0.0143555645 -0.00061286154 -0.00079889694
-2.5123214e-07 -0.0032282935 -0.008505253 -0.0055299923 -0.01279879 -9.659673e-05 0.35616106 -0.0001969786
-4.59737e-05 -0.014381089 -0.002880969 -0.0027550512 -8.52626e-06 -0.007279054 -6.049191e-06 -0.0025468783
-0.0026547143 -0.00020690108 -1.125298e-05 -3.3306478e-07 0.30516466 -0.035987377 -0.0011928958 -0.002800515
0.007898801 0.00024050535 -9.012279e-11 0.013549008 -6.9754747e-06 0.0007189656 -8.594375e-06 -0.014832061
-0.0024031908 -0.02047936 -0.0009761899 0.0035493383 8.0117126e-05 -0.102885135 -0.00680424 0.0063582826
2.1724829e-09 0.0049628974 -0.00014602968 0.0012287712 3.8049956e-07 6.085219e-05 -0.0012168005 -0.0005399025
0.001456752 0.007725042 0.0010872802 0.0005894443 0.0008308034 2.5116882e-05 -2.73567e-18 -0.043803822
-0.16598378 -0.019019328 -0.00089105027 -0.000110232155 -0.0007598328 -0.032580435 -0.000117571704 -0.007362976
6.1799806e-06 0.0015594896 -0.006586215 -0.015611538 -0.03599366 0.0024959787 0.021562805 0.0005111529
0.000100895835 -0.004246734 0.004623874 -0.0053396667 -0.00027914753 -0.011166491 0.00031304077 -0.0012927724
0.0065926304 -0.001892169 -0.00018562796 2.8586144e-05 -0.10205005 -0.023291357 0.0022331527 0.022556145
-0.004838429 -0.00015399819 4.883243e-19 -0.009291049 -1.6109095e-08 -1.3449753e-05 -7.3292405e-08 -0.0054520867
-0.0019846591 -0.007526889 -0.000563133 -0.0036985218 -0.00020857944 0.06533186 -0.000596592 -0.0026298498
1.5577583e-17 -0.0027745476 -0.0029404655 -0.00047121244 7.4287154e-10 -2.9262443e-07 -0.00022219437 -0.00022464893
-0.0034221215 -0.0034157701 -0.00036006278 -0.0070166327 5.8197356e-06 -7.8600397e-07 -4.7668234e-24 -0.12554884
0.08677301 -0.0052599222 -0.00072206254 -1.2475924e-06 -0.00065325305 -0.009969132 -0.0009443058 -0.00094356446
-1.9797773e-07 -0.0028338905 -0.0034036722 -0.011118962 -0.0130718015 -0.00016470642 0.19641913 -0.00019133971
-4.0120172e-05 -0.013544184 -0.0026368897 -0.0025452506 -9.584498e-06 -0.0052365344 -5.587106e-06 -0.001748385
-0.0049897484 -0.00019816846 -1.2424024e-05 1.6463826e-08 0.18901478 -0.007472722 -0.00022549083 -0.006011125
00000000: ecca 73bb 5c4b 1fb9 1b78 18a1 5b5a ddbb
00000010: 53ab c5b2 64f6 5eb8 f430 a8b3 7411 d4bb
00000020: 8f69 9cba 229d 84bb a1a6 5dba 3931 53bb
00000030: 0853 59b9 c79c 0d3d f9f9 cbba 7821 79bb
00000040: 1d7a 35a3 f5ef 8fbb fb19 54bb 2331 1aba
00000050: d708 d931 ad9b d6b4 1677 46b9 b70e 9db9
00000060: caea 68bb 3d55 daba acab d6b8 4ce8 30bc
00000070: 071b 99b8 dbe3 45b5 8db8 1b8b d76a 42bd
00000080: 2467 963c 4bb1 bebb 4119 69ba eb6d a7b5
00000090: 36f9 b9b9 b439 88bc e7b4 cab9 ffe4 4fba
000000a0: 6344 4ab4 1c0d 43bb 9ec7 cabb f7a0 45bc
000000b0: 34b1 45bc 0020 9db8 ce23 ff3d 12be 4fb9
000000c0: 3243 5db7 f8a9 30bc b336 38ba 504e 57bb
000000d0: 6656 30b7 9b24 d3bb 903c cfb6 80f7 2fba
000000e0: 140a aebb 5575 39b9 c733 33b7 dfb6 74b1
000000f0: 7077 e23d 4ef3 d73b a5d6 16ba d28e f0bb
00000100: 9b34 67bb 5f2e 20b9 352e 8ca1 b5e7 ff3c
00000110: 3e6d a8b2 e812 fcb9 a1ab a9b3 d65e 0fbc
00000120: 61aa aaba 9691 93bc 1c03 74ba cd32 86bb
00000130: 4a25 8cb9 49a9 203e 3005 96ba d6ff 88bb
00000140: a875 1526 d0e2 2bbb a80e 97bb 071a d0b9
00000150: 8b3c 51b2 b40e d8b4 ff5d 3cb9 d2f6 b3b9
00000160: c4a0 8abb 21ca b8bb 52c6 3eb9 3062 57bc
00000170: c01b 1fb9 ac28 83b5 04fb c08b 6192 86bd
00000180: 5193 393e 2643 d4bb a5fb 05ba 4945 8db5
00000190: 72fc f7b9 9a33 6bbc 71a8 20ba 116d 51ba
000001a0: 15e1 86b4 c791 53bb 9e59 0bbc f034 b5bb
000001b0: 04b2 51bc f993 cab8 be5a b63e 0a8c 4eb9
000001c0: e2d3 40b8 a99e 6bbc a4ce 3cbb 178e 34bb
000001d0: 020c 0fb7 2185 eebb 28fa cab6 87e9 26bb
000001e0: b7fa 2dbb 96f3 58b9 2ecb 3cb7 13d0 b2b4
000001f0: 8b3e 9c3e 8067 13bd f15a 9cba d888 37bb
00000200: f969 013c 2a30 7c39 9f2e c6ae a9fc 5d3c
00000210: df0e eab6 f778 3c3a 8f30 10b7 2c02 73bc
00000220: da7e 1dbb 55c4 a7bc ffe6 7fba 049c 683b
00000230: 8e04 a838 71b5 d2bd 1af6 debb 2459 d03b
00000240: b94a 1531 cd9f a23b 8b1f 19b9 b80e a13a
00000250: 7647 cc34 8b3b 7f38 0d7d 9fba 3e88 0dba
00000260: 7cf0 be3a 5922 fd3b 1283 8e3a f084 1a3a
00000270: 46ca 593a 18b2 d237 58db 49a2 a36b 33bd
00000280: a7f7 29be 6cce 9bbc 5f95 69ba 702c e7b8
00000290: 842f 47ba 1073 05bd d490 f6b8 1f45 f1bb
000002a0: a15d cf36 ca67 cc3a 2dd1 d7bb 89c7 7fbc
000002b0: 176e 13bd 9393 233b 7ba4 b03c e4fe 053a
000002c0: 0a98 d338 3028 8bbb de83 973b 5ff8 aebb
000002d0: 8c5a 92b9 a8f3 36bc 9f1f a439 3e72 a9ba
000002e0: fe06 d83b a802 f8ba 20a5 42b9 47cc ef37
000002f0: 9eff d0bd 84cd bebc 165a 123b aac7 b83c
00000300: af8b 9ebb 937a 21b9 be20 1021 7c39 18bc
00000310: 4660 8ab2 40a6 61b7 ed64 9db3 6ba7 b2bb
00000320: 0e11 02bb 1fa4 f6bb 379f 13ba e662 72bb
00000330: 1eb6 5ab9 b6cc 853d 9d64 1cba 8f59 2cbb
00000340: 87ad 8f23 2fd5 35bb d3b4 40bb 100d f7b9
00000350: f032 4c30 ff19 9db4 d9fc 68b9 bd8f 6bb9
00000360: ac45 60bb 1ddb 5fbb cfc6 bcb9 c8eb e5bb
00000370: 2647 c336 c8fd 52b5 5568 b898 e08f 00be
00000380: 0cb6 b13d 6d5b acbb cc48 3dba f372 a7b5
00000390: 123f 2bba 9255 23bc 4a8b 77ba 8a59 77ba
000003a0: b493 54b4 cbb8 39bb 2510 5fbb 4f2c 36bc
000003b0: 1c2b 56bc 0bb5 2cb9 1922 493e 5da2 48b9
000003c0: b546 28b8 6de8 5dbc abcf 2cbb 38ce 26bb
000003d0: 1bcd 20b7 3c97 abbb e078 bbb6 112a e5ba
000003e0: 0b81 a3bb 71cb 4fb9 c770 50b7 566c 8d32
000003f0: 178d 413e bcdd f4bb bc71 6cb9 f9f8 c4bb

lstm.bias_hh_l0 f4 [256]
-0.0037200223 -0.00015191492 -5.165889e-19 -0.0067551536 -2.301172e-08 -5.3157917e-05 -7.8320234e-08 -0.006471811
-0.0011933314 -0.004047086 -0.00084553007 -0.0032225426 -0.00020725661 0.034573343 -0.0015562159 -0.0038014369
-9.837888e-18 -0.004392619 -0.003236424 -0.0005881956 6.316536e-09 -3.9973884e-07 -0.00018927183 -0.00029956366
-0.0035540336 -0.0016658871 -0.0001023603 -0.010797569 -7.300627e-05 -7.371979e-07 -2.9990728e-32 -0.047465157
0.018359728 -0.005819475 -0.0008892013 -1.2474463e-06 -0.00035471006 -0.016629074 -0.000386632 -0.0007930542
-1.8837606e-07 -0.0029762485 -0.006188347 -0.012062306 -0.012066133 -7.492304e-05 0.12458001 -0.00019812405
-1.318812e-05 -0.010782858 -0.00070271885 -0.0032853074 -1.0510048e-05 -0.00644358 -6.176131e-06 -0.0006712317
-0.0053114835 -0.00017687063 -1.0681288e-05 -3.5610623e-09 0.110579364 0.0065902835 -0.0005754032 -0.0073412233
-0.0035278385 -0.00015276077 -9.4994e-19 0.031238414 -1.9607533e-08 -0.00048079272 -7.900895e-08 -0.008750628
-0.0013020651 -0.018013522 -0.00093083066 -0.004095413 -0.00026730812 0.15689577 -0.0011445647 -0.004180913
5.185437e-16 -0.002622772 -0.004609676 -0.0003969224 -1.21791075e-08 -4.0243862e-07 -0.00017964093 -0.00034325433
-0.004230593 -0.005639239 -0.0001819369 -0.013146011 -0.00015173777 -9.77222e-07 -7.43338e-32 -0.06570884
0.18122603 -0.0064777345 -0.00051110453 -1.0525483e-06 -0.00047297325 -0.014355564 -0.00061286177 -0.0007988889
-2.512319e-07 -0.0032282975 -0.008505253 -0.0055299923 -0.01279879 -9.659673e-05 0.35616103 -0.00019697915
-4.597558e-05 -0.014380998 -0.002880969 -0.0027550512 -8.526056e-06 -0.0072790547 -6.049191e-06 -0.0025468613
-0.00265472 -0.00020690038 -1.1252955e-05 -3.3306478e-07 0.30516466 -0.03598738 -0.0011929004 -0.0028005072
0.007898796 0.00024050559 -9.012279e-11 0.013549008 -6.975486e-06 0.0007189656 -8.59436e-06 -0.014832061
-0.0024031918 -0.020479383 -0.0009761885 0.0035493358 8.0117126e-05 -0.102885135 -0.0068042516 0.006358287
2.1724829e-09 0.0049628974 -0.00014602812 0.0012287712 3.8049956e-07 6.0852173e-05 -0.0012168007 -0.0005399022
0.0014567545 0.007725042 0.0010872786 0.0005894435 0.0008308036 2.5116875e-05 -2.735989e-18 -0.04380386
-0.16598378 -0.01901936 -0.0008910499 -0.000110231944 -0.00075983576 -0.032580435 -0.00011757005 -0.007362976
6.1799383e-06 0.0015594889 -0.006586203 -0.015611538 -0.035993665 0.0024959797 0.021562805 0.00051115255
0.000100895835 -0.004246734 0.004623874 -0.0053396667 -0.0002791479 -0.011166484 0.0003130408 -0.0012927724
0.006592631 -0.0018921682 -0.00018562796 2.8586144e-05 -0.10205005 -0.023291782 0.0022331527 0.022556145
-0.004838383 -0.00015399819 4.883243e-19 -0.009291051 -1.610909e-08 -1.3449753e-05 -7.3292476e-08 -0.0054520867
-0.001984659 -0.0075268857 -0.00056313304 -0.0036985711 -0.00020857944 0.06533186 -0.000596592 -0.0026298459
1.5577169e-17 -0.0027745476 -0.0029404731 -0.00047121206 7.4360557e-10 -2.9262466e-07 -0.00022219437 -0.00022464892
-0.0034221213 -0.003415981 -0.00036006278 -0.0070166285 5.8197143e-06 -7.8600306e-07 -4.7666407e-24 -0.12554887
0.08677301 -0.0052599334 -0.0007220637 -1.2475925e-06 -0.00065325317 -0.00996913 -0.0009443058 -0.00094356446
-1.9797794e-07 -0.0028338905 -0.0034036722 -0.011118967 -0.013071809 -0.00016470642 0.19641913 -0.00019134108
-4.011972e-05 -0.013544027 -0.0026368897 -0.0025452499 -9.585217e-06 -0.0052365344 -5.5871083e-06 -0.0017484449
-0.0049897484 -0.00019816874 -1.2424024e-05 1.6463826e-08 0.18901478 -0.007472722 -0.00022549093 -0.006011133
00000000: 9ecb 73bb 5a4b 1fb9 5b78 18a1 565a ddbb
00000010: 4fab c5b2 e1f5 5eb8 0131 a8b3 7c11 d4bb
00000020: 8f69 9cba 6b9d 84bb 90a6 5dba 4b31 53bb
00000030: 0653 59b9 c79c 0d3d f1f9 cbba 8721 79bb
00000040: 1d7a 35a3 f5ef 8fbb 2f1a 54bb 2331 1aba
00000050: d708 d931 b09b d6b4 4577 46b9 c10e 9db9
00000060: caea 68bb e559 daba 45aa d6b8 49e8 30bc
00000070: f11a 99b8 dbe3 45b5 84b8 1b8b d36a 42bd
00000080: 2467 963c 4bb1 bebb 4a19 69ba ee6d a7b5
00000090: 61f8 b9b9 b239 88bc deb4 cab9 f7e4 4fba
000000a0: 6b44 4ab4 2a0d 43bb 9ec7 cabb faa0 45bc
000000b0: 08b1 45bc 0020 9db8 ce23 ff3d 85bf 4fb9
000000c0: 8b42 5db7 96aa 30bc aa36 38ba 504e 57bb
000000d0: 5054 30b7 ab24 d3bb 903c cfb6 99f5 2fba
000000e0: f40b aebb 5976 39b9 c833 33b7 dfb6 74b1
000000f0: 6f77 e23d 4ef3 d73b a8d6 16ba a58e f0bb
00000100: 4f33 67bb 682e 20b9 b82f 8ca1 b4e7 ff3c
00000110: 6c6d a8b2 e812 fcb9 a1ab a9b3 cb5e 0fbc
00000120: 0eaa aaba 1891 93bc fd02 74ba d032 86bb
00000130: 7d25 8cb9 49a9 203e 3805 96ba 0a00 89bb
00000140: c675 1526 d0e2 2bbb c40c 97bb 061a d0b9
00000150: 483c 51b2 be0e d8b4 ff5d 3cb9 d1f6 b3b9
00000160: c9a0 8abb 5ec9 b8bb 51c6 3eb9 5e62 57bc
00000170: cc1b 1fb9 1829 83b5 49fb c08b 5b92 86bd
00000180: 5193 393e 2d43 d4bb a5fb 05ba 4945 8db5
00000190: 65f9 f7b9 9933 6bbc 75a8 20ba 876c 51ba
000001a0: 0de1 86b4 d891 53bb 9e59 0bbc f034 b5bb
000001b0: 04b2 51bc f993 cab8 bd5a b63e 308c 4eb9
000001c0: e7d5 40b8 479e 6bbc a4ce 3cbb 178e 34bb
000001d0: 220b 0fb7 2385 eebb 28fa cab6 3ee9 26bb
000001e0: d0fa 2dbb 66f3 58b9 13cb 3cb7 13d0 b2b4
000001f0: 8b3e 9c3e 8167 13bd 185b 9cba b788 37bb
00000200: f469 013c 3a30 7c39 9f2e c6ae a9fc 5d3c
00000210: f80e eab6 f778 3c3a 7f30 10b7 2c02 73bc
00000220: de7e 1dbb 61c4 a7bc e7e6 7fba f99b 683b
00000230: 8e04 a838 71b5 d2bd 33f6 debb 2d59 d03b
00000240: b94a 1531 cd9f a23b 201f 19b9 b80e a13a
00000250: 7647 cc34 863b 7f38 0e7d 9fba 3988 0dba
00000260: 92f0 be3a 5922 fd3b 0483 8e3a e284 1a3a
00000270: 49ca 593a 14b2 d237 5fe1 49a2 ad6b 33bd
00000280: a7f7 29be 7dce 9bbc 5995 69ba 532c e7b8
00000290: b72f 47ba 1073 05bd f18f f6b8 1f45 f1bb
000002a0: 445d cf36 c467 cc3a 13d1 d7bb 89c7 7fbc
000002b0: 186e 13bd 9793 233b 7ba4 b03c defe 053a
000002c0: 0a98 d338 3028 8bbb de83 973b 5ff8 aebb
000002d0: 995a 92b9 a1f3 36bc a01f a439 3e72 a9ba
000002e0: ff06 d83b a102 f8ba 20a5 42b9 47cc ef37
000002f0: 9eff d0bd 68ce bebc 165a 123b aac7 b83c
00000300: 4c8b 9ebb 937a 21b9 be20 1021 7e39 18bc
00000310: 4360 8ab2 40a6 61b7 f764 9db3 6ba7 b2bb
00000320: 0d11 02bb 18a4 f6bb 389f 13ba ba63 72bb
00000330: 1eb6 5ab9 b6cc 853d 9d64 1cba 7e59 2cbb
00000340: 8dac 8f23 2fd5 35bb f4b4 40bb 030d f7b9
00000350: 9766 4c30 071a 9db4 d9fc 68b9 bc8f 6bb9
00000360: ab45 60bb a7de 5fbb cfc6 bcb9 bfeb e5bb
00000370: f746 c336 b8fd 52b5 8666 b898 e28f 00be
00000380: 0cb6 b13d 855b acbb e048 3dba f472 a7b5
00000390: 143f 2bba 9055 23bc 4a8b 77ba 8a59 77ba
000003a0: c393 54b4 cbb8 39bb 2510 5fbb 542c 36bc
000003b0: 242b 56bc 0bb5 2cb9 1922 493e bba2 48b9
000003c0: 3946 28b8 c4e7 5dbc abcf 2cbb 35ce 26bb
000003d0: 32d0 20b7 3c97 abbb e578 bbb6 132c e5ba
000003e0: 0b81 a3bb 84cb 4fb9 c770 50b7 566c 8d32
000003f0: 178d 413e bcdd f4bb c371 6cb9 0af9 c4bb

fc.weight f4 [50, 64]
0.0015765682 -0.000577006 3.2064804e-10 -0.039899785 -3.4184409e-06 -0.0014384368 3.7020413e-06 0.0011479586
0.002879362 -0.022326563 -0.0014514588 0.000939322 0.00016091557 -0.11729735 0.0003214292 0.010536628
1.1240133e-08 -0.0031887481 -0.0023033675 -0.00045876822 5.5925584e-06 1.5132566e-05 -0.0010972078 0.00031460798
-0.0007555774 0.011723472 0.00051857205 0.0052633313 0.0008621356 3.4333385e-05 -9.733063e-19 -0.000884334
0.034564495 0.0021284546 -0.0022177415 -5.5812336e-05 -0.0014735212 0.002668515 0.0018791379 -0.0014356246
1.3856152e-05 -0.0015297642 0.0027152444 -0.009492952 0.0062413337 0.00062465115 -0.0752916 0.0017701215
-0.00070585724 -0.0017183464 0.0016237906 0.002482639 -0.000103545055 0.0009919629 5.327948e-05 0.00042774365
0.002495637 8.749361e-05 9.433921e-05 -1.5108102e-05 0.11410861 -0.007384703 0.0029329965 0.012266137
0.015988713 0.0015956546 -1.6140048e-10 -0.008643497 1.1074246e-05 -0.00040027956 -4.9204384e-05 -0.018575441
-0.0009457829 0.0010878039 0.0022304372 0.016110165 -0.0027820037 0.072135136 -0.0030263003 -0.010231762
-1.0881026e-08 0.015758386 0.009979425 0.0038036949 -6.205667e-06 0.0001360121 -0.004145014 -0.0048875753
0.012176478 0.0052491575 0.0022460946 -0.029937847 -0.0015465876 -2.1923004e-05 -3.6308e-18 0.054036967
-0.038433123 -0.0076299887 0.008210405 8.530628e-06 -0.0052283 0.0042536277 0.0036816588 -0.0040074387
0.00012361267 0.01267641 -0.015864464 0.034275264 -0.0011175931 0.0010368223 0.03513852 0.0019952478
0.0010354146 -0.01528573 0.0034921982 -0.015855147 0.00060507545 -0.01761496 2.0109333e-05 0.013299032
0.012746407 -0.0008023564 0.0009515573 4.715688e-06 -0.06395764 0.0015870441 -0.0019834084 -0.015197785
-0.015027872 -0.0020487455 -1.12155174e-10 -0.0017069769 -1.3153666e-05 -0.005784208 5.3166386e-05 0.018208496
0.004272001 -0.00696969 -0.0041514104 -0.015780168 0.000915642 -0.12036857 0.0008880717 0.009166276
-1.41643985e-08 -0.014641131 -0.011285586 -0.0054818 -4.6635205e-07 -6.82086e-05 0.002066454 0.003911138
-0.0101764435 0.0063870098 -0.002284498 0.019351942 0.0015931319 -0.00015026615 -2.8458388e-17 -0.04739184
-0.017937778 0.0015878128 -0.0049502268 0.00012336993 0.003179749 0.007860518 0.0014568933 -0.00027159418
-0.00010809053 -0.010163745 0.013081077 -0.02742774 0.006927843 -0.0007818809 -0.09473234 -0.00077011506
-0.00079136505 0.004148326 0.0017832028 0.0133826295 -0.0006308117 0.014696269 -0.00013776399 -0.011276296
-0.009378733 0.0015970217 -0.0004887071 -0.000113564165 0.055965506 -0.025665466 0.0032570246 0.017283786
0.0037957036 0.00055973546 2.4206903e-10 -0.041461546 5.444846e-06 -0.0060290108 -3.9924766e-06 -0.0026030312
0.0003265047 0.0016716889 0.0007422495 -0.0011347476 0.0010008671 0.0052542184 0.0009442625 0.012063385
6.862948e-09 -0.0011215853 -0.00028354776 -0.0005122696 3.3114288e-06 1.3950824e-05 -0.00021211515 0.0015009512
4.3518732e-05 0.0061192107 -0.0006309686 0.0047468767 0.0002981089 -0.0001635846 8.650443e-18 -0.044252895
0.12714544 0.00068582944 -0.0034049496 2.4384433e-05 0.0009278913 0.0107404785 0.00277713 -0.00041033083
1.981308e-07 -0.0009963585 1.9416893e-05 -0.039957035 0.008388335 0.00017256883 -0.077808976 -0.001238318
0.00048185594 0.0049413713 -0.0011111605 0.0008334125 0.0001817961 -0.0001991259 -0.0002645888 -0.0010226349
0.0068509085 0.0007580117 -0.00014147545 -0.00016112538 0.092868894 -0.06849304 0.0005424583 0.0029837238
00000000: daa4 ce3a 3842 17ba 3347 b02f f56d 23bd
00000010: 5e68 65b6 ee89 bcba 9670 7836 1977 963a
00000020: aeb3 3c3b 32e6 b6bc e03e beba d53c 763a
00000030: 72bb 2839 9839 f0bd 7f85 a839 d2a1 2c3c
00000040: a11a 4132 51fa 50bb 18f4 16bb d486 f0b9
00000050: b6a7 bb36 e0e1 7d37 2fd0 8fba f8f1 a439
00000060: f111 46ba ce13 403c c8f0 073a 0678 ac3b
00000070: f100 623a 3101 1038 79a2 8fa1 a6d2 67ba
00000080: 8093 0d3d 8b7d 0b3b 8757 11bb 0a18 6ab8
00000090: 2b23 c1ba 41e2 2e3b 684d f63a 912b bcba
000000a0: b877 6837 5e82 c8ba 3ef2 313b 5488 1bbc
000000b0: 1a84 cc3b a1bf 233a 7b32 9abd 6c03 e83a
000000c0: 4709 39ba 233a e1ba 5fd5 d43a c5b3 223b
000000d0: 5426 d9b8 c004 823a 6878 5f38 c842 e039
000000e0: d78d 233b c67c b738 fad7 c538 ce78 7db7
000000f0: c6b1 e93d 61fb f1bb 8437 403b e8f7 483c
00000100: c3fa 823c 4925 d13a 3276 31af 749d 0dbc
00000110: 86cb 3937 9ddc d1b9 ce60 4eb8 862b 98bc
00000120: 6aee 77ba a494 8e3a 872c 123b 77f9 833c
00000130: 4752 36bb 96bb 933d e554 46bb 1fa3 27bc
00000140: 42ef 3ab2 bb17 813c be80 233c 6947 793b
00000150: 463a d0b6 789e 0e39 e6d2 87bb f427 a0bb
00000160: da7f 473c 2001 ac3b 3733 133b 3740 f5bc
00000170: deb6 caba 4be7 b7b7 f0f3 85a2 de55 5d3d
00000180: 0d6c 1dbd fc04 fabb ef84 063c c51e 0f37
00000190: 2952 abbb 0462 8b3b fc47 713b d550 83bb
000001a0: 069e 0139 b8b0 4f3c 31f6 81bc 3864 0c3d
000001b0: 347c 92ba fce5 873a 69ed 0f3d b4c2 023b
000001c0: c0b6 873a 0071 7abc 5ddd 643b a7e2 81bc
000001d0: ed9d 1e3a 404d 90bc 77b0 a837 2fe4 593c
000001e0: 4ed6 503c 3a55 52ba ee71 793a 743b 9e36
000001f0: 39fc 82bd 5d04 d03a 12fc 01bb 2100 79bc
00000200: 7737 76bc 3f44 06bb c0a1 f6ae a4bc dfba
00000210: 91ae 5cb7 7489 bdbb f9fe 5e38 fc29 953c
00000220: 24fc 8b3b ff61 e4bb 8e08 88bb 6945 81bc
00000230: b207 703a cc83 f6bd 7ccd 683a 262e 163c
00000240: af57 73b2 5be1 6fbc 2ee7 38bc aca0 b3bb
00000250: f05e fab4 370b 8fb8 586d 073b 0129 803b
00000260: 19bb 26bc 1f4a d13b 84b7 15bb f787 9e3c
00000270: a3d0 d03a c390 1db9 bc3d 03a4 f21d 42bd
00000280: 3ff2 92bc 281e d03a 8335 a2bb dd5c 0139
00000290: 5663 503b 67c9 003c 3af5 be3a c164 8eb9
000002a0: a9ae e2b8 d685 26bc 0352 563c 24b0 e0bc
000002b0: f602 e33b 24f7 4cba 0703 c2bd 8ce1 49ba
000002c0: 9c73 4fba aeee 873b 5bba e93a d142 5b3c
000002d0: 0e5d 25ba 9fc8 703c bd74 10b9 37c0 38bc
000002e0: 42a9 19bc 2853 d13a 941c 00ba 4c29 eeb8
000002f0: 163c 653d 6240 d2bc ce73 553b ba96 8d3c
00000300: 57c1 783b 36bb 123a 3014 852f 95d3 29bd
00000310: dfb2 b636 028f c5bb 1df7 85b6 9e97 2abb
00000320: b82e ab39 921c db3a 8593 423a d0bb 94ba
00000330: 872f 833a 942b ac3b 6288 773a 81a5 453c
00000340: 21cf eb31 2802 93ba 23a9 94b9 d549 06ba
00000350: ea39 5e36 550e 6a37 3a6b 5eb9 91bb c43a
00000360: e287 3638 a983 c83b 9667 25ba b08b 9b3b
00000370: 804b 9c39 e887 2bb9 9092 1f23 8642 35bd
00000380: 6a32 023e 3cc9 333a 9325 5fbb 2c8d cc37
00000390: bb3d 733a d5f8 2f3c 8300 363b ac21 d7b9
000003a0: c8bd 5434 3e98 82ba 76e1 a237 fda9 23bd
000003b0: 3a6f 093c 98f3 3439 505a 9fbd 0f4f a2ba
000003c0: 9ca1 fc39 3aeb a13b 5ca4 91ba 5e79 5a3a
000003d0: 85a0 3e39 74cc 50b9 82b8 8ab9 ef09 86ba
000003e0: 967d e03b 4eb5 463a 0759 14b9 c4f3 28b9
000003f0: 0c32 be3d 1446 8cbd c333 0e3a 948a 433b

fc.bias f4 [50]
-0.04701807 0.006881649 -0.057248425 0.013014976 0.012382152 -0.026981646 0.017578993 0.057853635
-0.03086407 0.02037522 -0.037402015 0.019475091 0.039736144 0.028778365 0.03129514 -0.048728663
0.041178692 -0.01005271 0.03065 -0.030631095 0.032927964 -0.042565733 -0.06836798 -0.026449468
-0.08301833 0.033750765 -0.011772042 0.029613182 0.034644812 0.001991345 0.061660405 -0.030706044
-0.00044226763 0.03875538 -0.021607328 -0.03668121 0.03409735 -0.0155667765 -0.03917524 0.0117538655
0.050374813 -0.05347429 0.03427093 -0.028281154 0.048564587 -0.046102934 -0.025419923 -0.068982475
-0.018144056 0.00052893505
00000000: 0596 40bd 757f e13b 537d 6abd c43c 553c
00000010: 82de 4a3c 9d08 ddbc d201 903c eff7 6c3d
00000020: a5d6 fcbc efe9 a63c db32 19bd 3a8a 9f3c
00000030: 5ec2 223d 9bc0 eb3c 552f 003d b597 47bd
00000040: fdaa 283d 1fb4 24bc b515 fb3c 10ee fabc
00000050: 79df 063d 6859 2ebd 8304 8cbd 8eac d8bc
00000060: 8405 aabd 3e3e 0a3d 86df 40bc 5897 f23c
00000070: b8e7 0d3d 3a81 023b 9f8f 7c3d 3e8b fbbc
00000080: 28e0 e7b9 f6bd 1e3d da01 b1bc 093f 16bd
00000090: aaa9 0b3d cb0b 7fbc 3776 20bd 4993 403c
000000a0: d255 4e3d db07 5bbd ad5f 0c3d e1ad e7bc
000000b0: a9eb 463d 6ed6 3cbd 713d d0bc af46 8dbd
000000c0: d8a2 94bc 3ba8 0a3a

decoder.0.weight f4 [64, 50]
2.189027e-31 5.0182406e-32 5.9003334e-32 -2.0301584e-31 1.8204398e-31 -8.5315975e-32 -1.4593657e-31 1.0288186e-31
-3.8044496e-32 7.7919906e-32 -2.2591934e-31 2.2325887e-31 -1.4134025e-31 -2.6332634e-32 -1.2406272e-31 -3.6379464e-32
5.799038e-32 9.924577e-32 2.3282636e-31 8.311201e-32 -6.325084e-32 9.730411e-32 -3.6495262e-32 -9.6822525e-32
3.6570149e-31 7.62919e-32 -2.1861045e-31 1.3829272e-32 -4.581016e-32 1.2874078e-31 2.2304128e-31 5.0553316e-32
-3.8811185e-32 -5.8119277e-33 9.2512363e-32 -1.8421633e-31 -1.0370987e-31 1.2516116e-31 -7.4257436e-32 -3.9417525e-31
-3.661439e-32 4.5068418e-32 -7.5842854e-32 -1.1567479e-31 -1.6511216e-31 -1.9617524e-31 3.3935637e-32 1.0322343e-31
-2.5487348e-32 -2.4718093e-31 0.00033071122 -0.006154957 0.0007126792 0.00012936271 -1.5970625e-05 0.0006951583
-0.00070054544 0.00041091494 0.0015601282 0.0007490356 -0.00018485426 -0.0011383967 0.00042552807 0.00023168077
-0.00011399367 0.00026390838 0.000543191 -0.0017158703 -0.002233126 0.0008922182 0.007977237 -0.0058945687
0.002045086 0.00038379926 -0.0018989209 0.0013208659 0.0013197744 -0.0064842976 -0.001112458 -0.00034782823
0.004096073 -0.0024291037 0.00630211 -0.0009078232 0.0020267337 -0.0016331206 0.00025113393 0.00045288246
0.0016049352 0.007365273 -0.00039705698 -0.0005209569 0.00041567063 -0.0009826358 0.0038106006 0.002113098
0.002656708 -0.0018015059 -0.0035544382 0.0018568817 -7.478647e-19 -8.3598145e-19 1.8031503e-19 3.116937e-19
4.9375295e-19 4.313113e-19 7.315804e-19 -4.1888015e-19 -8.3758587e-19 2.4812492e-19 1.0061038e-18 -3.964742e-20
1.1896959e-18 1.9123268e-18 8.300529e-19 1.0819858e-18 -1.6713122e-18 -1.0809904e-18 -3.148248e-19 -2.3407503e-19
-1.4201806e-18 8.3139944e-19 -7.070499e-19 4.0184346e-19 1.3894532e-18 3.085914e-19 -1.2814864e-19 -3.6306234e-19
-1.2066324e-19 -7.168636e-19 5.454971e-19 6.8036555e-20 1.05664446e-19 -1.8172287e-18 7.8764593e-19 -1.2017969e-19
-1.888568e-19 -1.2380011e-18 1.7985382e-18 -1.0932411e-18 8.6108106e-19 -1.0230968e-18 -1.470728e-18 -9.203911e-19
-4.815286e-19 3.8695478e-19 -2.7748196e-18 -2.2684782e-19 3.3100925e-19 -6.071084e-19 0.00020261707 -6.0805123e-05
4.4485663e-05 -0.00043449542 0.00016310805 -0.00023073501 0.000118821095 -0.00024014975 0.00074695615 -0.00022700711
0.0003672004 -0.00052329595 0.00041336828 -0.00012251933 -5.6319575e-05 -0.000111767455 -0.00022006736 0.0004099447
-0.00017155206 0.0004797943 -2.9328337e-05 -0.0002510605 0.0007399796 0.0004991328 0.00021352524 -0.00038162142
3.9603525e-05 -0.00021538214 -0.00018048433 -8.241331e-05 0.00016091505 -0.00022634593 -0.00041810315 -0.00028276234
0.0004318466 0.00039325852 0.0005886143 8.745257e-05 -0.00034917096 -0.00015817882 1.820264e-05 7.9852885e-05
-4.590846e-05 -8.259094e-05 -0.0001998853 0.00034913528 0.00023841119 0.00015080134 -0.00037711297 -3.657082e-05
4.0464726e-34 -2.871886e-29 -3.482708e-25 -8.662862e-35 -2.5997722e-34 -4.118476e-34 1.0055288e-31 -8.1541435e-33
1.600907e-28 5.112567e-15 -8.186045e-23 -3.4849005e-32 -3.0559954e-26 -5.1331235e-34 -2.3278886e-14 -6.9510755e-34
-2.5023848e-34 7.6661414e-35 -1.7378846e-34 -2.6143495e-34 -1.9337418e-30 1.8391294e-30 2.343447e-31 1.5522872e-34
4.919382e-34 9.0927334e-24 -6.921225e-35 -3.9289844e-30 -7.75107e-31 -1.884207e-35 2.4085397e-35 1.034282e-34
-2.0762768e-32 -1.4508099e-34 -4.136461e-30 8.526348e-34 -2.33776e-29 4.350625e-34 -1.1598693e-35 1.8051281e-17
1.1480509e-32 4.117379e-34 3.946926e-34 1.1028628e-32 2.6443254e-22 -2.7591224e-32 -1.0834929e-34 -2.736602e-28
-4.244566e-34 -3.4077464e-33 7.5299405e-26 -1.3711443e-24 -4.4560637e-25 -2.4272427e-25 -2.8830472e-25 -6.166112e-25
00000000: 7313 8e0c ee47 820b 712e 990b cbc3 838c
00000010: 7d4e 6c0c 317e dd8b be6f 3d8c 5d8c 050c
00000020: cf89 458b a94a ca0b 4aa1 928c 3ee7 900c
00000030: 5b78 378c 13ba 088b e90a 218c 9ae4 3c8b
00000040: 388d 960b 10d4 000c ea1c 970c 68c5 d70b
00000050: 6535 a48b ac9d fc0b 867e 3d8b 9b5d fb8b
00000060: 955a ed0c aa10 c60b e4e2 8d8c 839c 8f0a
00000070: 26dc 6d8b 761d 270c 17c3 900c 713e 830b
00000080: ea84 498b 046b f189 032d f00b 6020 6f8c
00000090: 849f 068c ee77 220c 88c8 c08b 99d5 ff8c
000000a0: df1c 3e8b 3402 6a0b 39e6 c48b 8b27 168c
000000b0: ed53 568c 68a6 7e8c 3334 300b defd 050c
000000c0: 7f56 048b fa6d a08c 4f63 ad39 86af c9bb
000000d0: 17d3 3a3a 8aa5 0739 a8f8 85b7 493b 363a
000000e0: cfa4 37ba 1270 d739 377d cc3a ee5a 443a
000000f0: 70d5 41b9 4136 95ba 6919 df39 55ef 7239
00000100: e30f efb8 2f5d 8a39 ee64 0e3a 0ee7 e0ba
00000110: a359 12bb c0e3 693a f5b2 023c 3a27 c1bb
00000120: d906 063b aa38 c939 36e5 f8ba e820 ad3a
00000130: 48fc ac3a 3b7a d4bb e5cf 91ba b75c b6b9
00000140: 5a38 863b 9931 1fbb ee81 ce3b fcfa 6dba
00000150: f3d2 043b 6f0e d6ba a0aa 8339 db70 ed39
00000160: b05c d23a 6358 f13b 162c d0b9 d390 08ba
00000170: 5eee d939 c9cb 80ba 45bb 793b e77b 0a3b
00000180: 2a1c 2e3b 8220 ecba 94f1 68bb 9c62 f33a
00000190: 0fbb 5ca1 f9bc 76a1 e0e0 5420 d2fd b720
000001a0: ebba 1121 ec99 fe20 a7ec 5721 6143 f7a0
000001b0: 3336 77a1 9477 9220 8779 9421 ca3a 3b9f
000001c0: 7191 af21 d51a 0d22 06fd 7421 45ac 9f21
000001d0: 64a4 f6a1 aa86 9fa1 fbd6 b9a0 6b2c 8aa0
000001e0: e894 d1a1 c462 7521 2eaf 50a1 de34 ed20
000001f0: 0f0c cd21 0429 b620 8d4a 17a0 6e50 d6a0
00000200: 3a74 0ea0 af94 53a1 9800 2121 93a5 a01f
00000210: 3d7e f91f 7b16 06a2 d878 6821 15e2 0da0
00000220: 77f6 5ea0 5cb2 b6a1 6db5 0422 7b55 a1a1
00000230: 7225 7e21 81fb 96a1 880a d9a1 65d3 87a1
00000240: 461f 0ea1 f46a e420 dcbe 4ca2 46e8 85a0
00000250: b464 c320 d02f 33a1 9b75 5439 0109 7fb8
00000260: 1e96 3a38 fdcc e3b9 fc07 2b39 75f1 71b9
00000270: 972f f938 b5d0 7bb9 61cf 433a c208 6eb9
00000280: ce84 c039 cc2d 09ba 5ab9 d839 8878 00b9
00000290: af38 6cb8 b264 eab8 e2c1 66b9 d9ed d639
000002a0: a8e2 33b9 e78c fb39 2006 f6b7 c5a0 83b9
000002b0: 31fb 413a 3cd8 023a bfe5 5f39 5c14 c8b9
000002c0: f61b 2638 34d8 61b9 6540 3db9 4fd5 acb8
000002d0: 4ebb 2839 4657 6db9 db34 dbb9 b83f 94b9
000002e0: 7869 e239 442e ce39 3d4d 1a3a be66 b738
000002f0: ef10 b7b9 cedc 25b9 dfb1 9837 b176 a738
00000300: d58d 40b8 ac34 adb8 4d98 51b9 250c b739
00000310: 04fe 7939 6d20 1e39 3fb7 c5b9 9e63 19b8
00000320: 9577 0608 369f 1190 b691 d796 624c e686
00000330: d5c8 ac87 1edc 0888 6d86 020c dd5a 298a
00000340: 67f0 4a11 1c33 b827 2aed c59a 46f2 348b
00000350: 5853 1795 c993 2a88 75ad d1a8 36fd 6688
00000360: df4f a687 0ecd cb06 2601 6787 dac0 ad87
00000370: 3fe2 1c8e 3935 150e 3119 980c 9955 4e07
00000380: 7979 2308 09e1 2f19 6bff b786 e860 9f8e
00000390: 5f89 7b8d fe5c c885 580f 0006 cb7a 0907
000003a0: e89c d78a 81d8 4087 78cb a78e 13ab 8d08
000003b0: b813 ed8f 0693 1008 4bad 7685 627e a623
000003c0: db70 6e0a c9d2 0808 bc28 0308 3f0e 650a
000003d0: f4d6 9f1b 0743 0f8b 5a05 1087 e873 ad91
000003e0: c60c 0d88 608d 8d89 ab6e ba15 9f2c d497
000003f0: 93e8 0997 323d 9696 b573 b296 f9d4 3e97

decoder.0.bias f4 [64]
-1.5832311e-14 -0.098317154 -1.6058544e-17 -0.0018945371 -0.0006962112 -7.7204675e-08 -4.881966e-08 -3.5881828e-06
0.035395537 -0.015426901 -9.676259e-10 -1.6213879e-07 -9.971797e-14 0.033391703 -1.1209355e-06 -9.2331065e-05
-0.014649615 -6.9571184e-26 -0.0018356101 -1.7438946e-05 -0.014900434 -1.5079e-10 -0.3239204 -1.3661876e-10
-9.853e-05 -1.9936622e-06 -0.017368391 2.4057147e-11 0.052996427 -1.0112623e-14 0.023540948 -3.3794099e-15
0.034692906 -3.6278936e-07 -3.891481e-11 -0.00016802618 0.05325641 -3.771501e-07 -1.9819343e-29 3.9404587e-20
-5.377642e-10 0.03135177 -1.6321583e-07 -1.3711994e-07 -3.930467e-05 -2.6827522e-05 -2.0862275e-15 -0.02050251
-0.023581143 -0.02514571 1.9914077e-15 -8.3853524e-07 -4.363648e-07 7.7943305e-09 0.043961097 -0.0010621906
0.016559374 -0.011645204 -0.0048795133 -0.000105462255 -1.6575374e-09 0.013924354 4.087606e-08 -0.13854474
00000000: d39a 8ea8 815a c9bd 2a1d 94a3 1e52 f8ba
00000010: f181 36ba b8cb a5b3 c9ad 51b3 83cc 70b6
00000020: e9fa 103d 1dc1 7cbc 4ffd 84b0 5f18 2eb4
00000030: 7f8b e0a9 bdc5 083d 0d73 96b5 dda1 c1b8
00000040: f004 70bc fa3f ac95 db98 f0ba da49 92b7
00000050: f320 74bc 9dcb 25af e5d8 a5be c336 16af
00000060: e4a1 ceb8 dbca 05b6 2848 8ebc e19b d32d
00000070: c812 593d 3e2c 36a8 f2d8 c03c 1c83 73a7
00000080: 261a 0e3d 64c5 c2b4 2e26 2bae 2f30 30b9
00000090: 6523 5a3d 1d7b cab4 f5fd c88f 3915 3a1f
000000a0: cbd1 13b0 b76a 003d 6d40 2fb4 3e3b 13b4
000000b0: 11db 24b8 aa0b e1b7 1b54 16a7 e1f4 a7bc
000000c0: 3e2d c1bc 60fe cdbc fd7e 0f27 b417 61b5
000000d0: 8545 eab4 d4e7 0532 8d10 343d 3439 8bba
000000e0: 86a7 873c 87cb 3ebc 53e4 9fbb 9e2b ddb8
000000f0: 6acf e3b0 f922 643c b48f 2f33 acde 0dbe

decoder.3.weight f4 [20, 64]
1.5805256e-31 -0.0029985865 1.579795e-18 -0.0014496897 6.846908e-11 -1.7248998e-25 8.002398e-17 -3.115081e-08
0.062459484 -0.0020486382 -5.577803e-15 -3.6692888e-14 1.5430799e-26 -0.045125335 9.9543115e-08 -8.581871e-09
2.294173e-05 -4.9314e-41 2.2073264e-08 -2.0649892e-10 4.7009627e-12 -1.7908814e-21 0.016148124 -1.6627823e-28
-1.7038563e-07 4.5932244e-10 3.4541372e-05 1.9029873e-11 -0.05063327 -8.3294376e-35 0.009316511 -3.990765e-17
-0.13650523 -1.831603e-12 -2.5812583e-20 1.0944963e-09 -0.052811068 6.9217196e-09 -1.9473083e-30 2.3018965e-20
1.1256675e-13 -0.057042036 1.1620872e-12 -5.2448472e-09 -3.863579e-06 1.3709895e-09 2.8065644e-22 -0.00014550674
-1.03227685e-05 -0.00029548936 4.508659e-16 -4.928436e-17 2.7449362e-08 -1.2702968e-08 -0.10254128 4.8124464e-05
0.062765606 -3.902837e-05 -6.7404194e-08 9.2292126e-08 -6.198806e-14 0.016536223 6.891288e-08 -0.041246027
-3.2620394e-33 0.0008218107 4.357315e-18 -0.0058111697 -2.8399096e-11 -8.599162e-25 -3.8655076e-17 -2.145185e-08
0.024356425 -0.00086299074 -8.67836e-16 -2.3148553e-14 5.693699e-27 0.0058194003 4.8886585e-07 2.1251996e-09
-5.5091536e-05 -4.9173e-41 1.2713295e-07 9.945699e-10 3.9698973e-12 -7.4992495e-22 0.0019467447 4.1227944e-28
1.1439652e-07 -2.2988155e-11 0.00012190905 3.760754e-10 -0.008026215 5.791996e-35 0.08507359 -1.818705e-16
-0.036954336 7.1625223e-12 -1.2233064e-19 -8.81511e-09 -0.014270312 6.0939915e-09 3.968487e-30 -5.8121355e-20
2.5260696e-13 0.009845102 4.156264e-13 -2.1188752e-08 3.2800592e-06 -1.00686876e-07 -5.668849e-23 -4.3214186e-05
-7.330716e-06 -0.0008838756 -3.0052521e-15 -5.4716188e-17 -1.12800166e-07 -1.881917e-08 -0.05226518 -2.1633143e-05
0.0028867484 3.9086975e-05 -2.0183515e-08 -3.0920855e-08 -4.704957e-13 -0.060631033 -1.7030014e-07 -0.014471787
1.8658742e-31 -0.0040732212 7.9716876e-20 0.012995749 -1.689803e-12 -3.5775513e-25 7.263909e-17 1.1508426e-08
0.058848694 0.000652354 5.699218e-16 3.1795785e-15 -3.1702382e-27 -0.028296249 5.1653615e-08 5.3678754e-08
6.6412314e-05 -4.9658e-41 1.000969e-07 1.1532389e-10 -9.608634e-12 8.286799e-22 0.014186554 2.0169791e-28
-6.256218e-08 1.3282753e-11 -2.089998e-05 7.701828e-12 -0.12998319 1.0114675e-35 0.0028383292 8.850692e-18
-0.05210573 1.6608288e-11 -2.9425397e-19 -4.296243e-09 -0.051768303 -5.4320864e-08 2.0873624e-30 -6.7722194e-20
-5.0230783e-13 -0.105186775 -7.71486e-13 5.548646e-08 -5.635856e-06 7.1061116e-08 -4.4374546e-23 -0.0002417834
7.4219424e-06 0.00011017102 -1.8097028e-15 5.1653472e-17 -1.2288764e-07 2.1080782e-08 -0.11052433 -2.3703182e-05
0.03528604 0.00028962633 1.0165618e-08 -4.157295e-08 7.513439e-13 0.050688073 2.3918089e-08 -0.012150808
1.8127519e-31 -0.030417081 -1.127219e-18 -0.018054368 -1.464908e-11 -3.7984533e-25 5.4529662e-17 3.9716685e-08
-0.005047714 -0.0014822687 -2.8210078e-16 3.981891e-14 -1.145047e-27 -0.06986791 5.876218e-07 6.435248e-09
-0.00015966262 -4.9396e-41 -1.2887935e-08 8.126306e-10 4.1392276e-12 -7.002179e-22 -0.004283341 -1.4022836e-28
-1.09966386e-07 -2.8901806e-10 -4.923785e-07 -2.9110417e-10 -0.031136056 5.70872e-35 0.048036017 -1.7292204e-16
0.02828761 2.7883774e-12 -3.1009768e-19 1.9048429e-08 -0.056598894 -3.124111e-08 2.2622522e-30 1.4706884e-20
-2.6761455e-14 -0.10041597 -5.6230595e-13 -4.608712e-09 4.3829664e-06 -4.3747804e-08 2.3529575e-23 -0.0012874671
-1.274566e-06 4.4614455e-05 4.467642e-17 -4.7363753e-17 -1.01448485e-08 1.1754938e-08 -0.008064587 -2.5761907e-05
0.020790782 -0.0003581944 5.3644986e-09 6.2356627e-09 -8.982561e-14 0.059108805 -9.291315e-09 0.017589608
00000000: f929 4d0c ef83 44bb f822 e921 8403 beba
00000010: aa90 962e 4288 5596 d285 b824 aeca 05b3
00000020: 84d5 7f3d 7242 06bb 27f6 c8a7 0540 25a9
00000030: b9d1 9814 58d5 38bd 68c4 d533 786f 13b2
00000040: fd72 c037 7889 0080 9f9b bd32 470c 63af
00000050: 8266 a52c af50 079d 1249 843c 5fc8 5291
00000060: 3ff3 36b4 e383 fc2f 84e0 1038 7763 a72d
00000070: d564 4fbd 376f dd86 48a4 183c a30a 38a4
00000080: 07c8 0bbe 3ae3 00ac ffca f39e 2a6d 9630
00000090: 6b50 58bd 17d4 ed31 03fc 1d8e 7168 d91e
000000a0: 507a fd29 e9a4 69bd 9b8c a32b 2a36 b4b1
000000b0: e4a3 81b6 686d bc30 7ba5 a91b 2b93 18b9
000000c0: f42f 2db7 e9eb 9ab9 08f4 0126 b448 63a4
000000d0: c9c9 eb32 3e3c 5ab2 2a01 d2bd 40d9 4938
000000e0: 418b 803d 65b2 23b8 d9bf 90b3 2232 c633
000000f0: af95 8ba9 f976 873c 42fd 9333 98f1 28bd
00000100: f47f 8789 c86e 573a adc1 a022 a06b bebb
00000110: 14cd f9ad ca10 8597 dc43 32a4 1e45 b8b2
00000120: 2087 c73c 543a 62ba ff22 7aa6 ee80 d0a8
00000130: f88c e113 abb0 be3b 9b3a 0335 e80a 1231
00000140: 1612 67b8 1389 0080 0a82 0834 51b1 8830
00000150: a8ad 8b2c a2a6 629c ea29 ff3a 15a8 0212
00000160: 27aa f533 b934 caad 6ca9 ff38 e8bf ce2f
00000170: 6380 03bc 48fa 9906 103b ae3d b2ae 51a5
00000180: 6e5d 17bd 4402 fc2c 2b6c 10a0 4471 17b2
00000190: 07ce 69bc 5163 d131 20fb a00e 343c 899f
000001a0: 8034 8e2a 5a4d 213c 14fa e92a 8f02 b6b2
000001b0: fd1e 5c36 3239 d8b3 7a10 899a e140 35b8
000001c0: 5ffa f5b6 e3b3 67ba 1e8d 58a7 7955 7ca4
000001d0: 8c3c f2b3 cba7 a1b2 0314 56bd d278 b5b7
000001e0: 9a2f 3d3b 52f1 2338 0560 adb2 d7cd 04b3
000001f0: ca6e 04ab 3f58 78bd bfdb 36b4 131b 6dbc
00000200: 4e34 720c a878 85bb e539 bc1f 1fec 543c
00000210: 92d1 edab 9070 dd96 8d7e a724 98b6 4532
00000220: 540b 713d bc02 2b3a ce44 2426 df1c 6527
00000230: 122c 7b93 89cd e7bc c0d9 5d33 6a8c 6633
00000240: d746 8b38 6d8a 0080 daf4 d633 9499 fd2e
00000250: 7109 29ad 0074 7a1c b86e 683c b7ae 7f11
00000260: ec59 86b3 34ac 692d 5e52 afb7 f37d 072d
00000270: 501a 05be 871d 5705 4303 3a3b 3644 2323
00000280: d16c 55bd 8a16 922d 67b2 ada0 279e 93b1
00000290: 000b 54bd 6c4e 69b3 d258 290e 8ee7 9f9f
000002a0: 1863 0dab 2a6c d7bd 6d27 59ab 0250 6e33
000002b0: a21b bdb6 439a 9833 0795 569a 3d87 7db9
000002c0: 000a f936 9e0b e738 2067 02a7 a835 6e24
000002d0: 19f3 03b4 2115 b532 945a e2bd 32d6 c6b7
000002e0: 1888 103d fdd8 9739 dca4 2e32 f18d 32b3
000002f0: 097c 532b 4c9e 4f3d 6f74 cd32 2f14 47bc
00000300: 044f 6b0c 3e2d f9bc 2159 a6a1 c1e6 93bc
00000310: ccda 80ad e51c eb96 4379 7b24 f594 2a33
00000320: 4b67 a5bb af48 c2ba ba9e a2a5 1454 3329
00000330: a070 b592 e816 8fbd 10bd 1d35 0a1d dd31
00000340: 1c6b 27b9 b289 0080 bd69 5db2 cb5f 5f30
00000350: d9a2 912c bca0 539c 455b 8cbb b4c2 3191
00000360: a926 ecb3 ade3 9eaf fe2b 04b5 4509 a0af
00000370: 0b11 ffbc 89c3 9706 6ac1 443d 945d 47a5
00000380: 6bbb e73c f136 442c a30c b7a0 f09f a332
00000390: 3ed4 67bd f72d 06b3 2489 370e 10e7 8a1e
000003a0: b70b f1a8 e3a6 cdbd 6a46 1eab a95a 9eb1
000003b0: 6511 9336 38e5 3bb3 6890 e319 3ac0 a8ba
000003c0: c111 abb5 6820 3b38 9b08 4e24 406d 5aa4
000003d0: 8449 2eb2 c4f2 4932 5421 04bc 461b d8b7
000003e0: 6e51 aa3c 0acc bbb9 a152 b831 7841 d631
000003f0: f044 caa9 131c 723d a39f 1fb2 1518 903c
