checkpoints/checkpoint_epoch_800.pth (torch, 314812 bytes, 30 tensors)

lstm.weight_ih_l0 f4 [256, 2]
0	0xbbaacde0	-0.0052125305
1	0xb93816f7	-0.00017556162
2	0xbd8990d4	-0.06717077
3	0xb8ff0adf	-0.000121613724
4	0x3c94b8a8	0.018154457
5	0x32dce264	2.5714321e-08
6	0xbc810ef6	-0.015754204
7	0xba0605fa	-0.0005112585
8	0xbc8d1f3c	-0.017226808
9	0xbb0d22ca	-0.0021535628
10	0xbd0e0077	-0.034668412
11	0xbb9b73b9	-0.00474402
12	0xbc714bd0	-0.014727548
13	0xb8b83868	-8.78431e-05
14	0xbb55f62a	-0.0032647946
15	0xb9c36169	-0.00037265875
16	0xba2a45a8	-0.0006495365
17	0xb81507e1	-3.5531706e-05
18	0xbbd65bfa	-0.006541726
19	0xbad8c15c	-0.0016537118
20	0xbc7caabe	-0.0154215675
21	0xbb2036b5	-0.002444667
22	0xbba05780	-0.0048932433
23	0xb9bf968e	-0.0003654253
24	0xbb7e398a	-0.003879162
25	0xb9b68bf9	-0.00034818033
26	0xbe8d48a7	-0.27594492
27	0x3df2335b	0.118262015
28	0xbadc7d73	-0.0016822055
29	0xb99a8de8	-0.00029478897
30	0xbd987477	-0.07444089
31	0xba27f9a5	-0.00064077444
32	0xbd27745f	-0.040882464
33	0x36da83c2	6.512245e-06
34	0xbce61b75	-0.028089264
35	0xbad08b7d	-0.0015910711
36	0xba7d90a8	-0.00096727395
37	0xb94f40f0	-0.0001976525
38	0x33015323	3.0110765e-08
39	0xb389f6af	-6.424431e-08
40	0xbb99fe0a	-0.0046994733
41	0xb58079d6	-9.572202e-07
42	0xbca83c4b	-0.020536562
43	0xbb0645a0	-0.0020488277
44	0xbd01195d	-0.03151833
45	0xb94f7c43	-0.0001978735
46	0xbc49345b	-0.012280549
47	0xb987c5bc	-0.0002589653
48	0xbcb0e9e3	-0.0215959
49	0xba1e201f	-0.0006032008
50	0xbdd77d71	-0.10521973
51	0xbb5f7f75	-0.003410307
52	0xbc73249f	-0.014840274
53	0xba5381bd	-0.0008068344
54	0xbd0bae29	-0.03410164
55	0x364ff6f0	3.098914e-06
56	0xbbf21e65	-0.007388877
57	0xba2f0384	-0.0006676244
58	0xb937f833	-0.00017544701
59	0x3738a3c3	1.1005383e-05
60	0xb61fcd60	-2.381239e-06
61	0x2a19147a	1.3596234e-13
62	0x98a7de3c	-4.3392888e-24
63	0x97d4be51	-1.3748222e-24
64	0x3e7afb5b	0.24509947
65	0xbdda4fba	-0.10659738
66	0xbbd5ef92	-0.006528803
67	0xbb51e11b	-0.0032025042
68	0xafc5ae0c	-3.595776e-10
69	0xae830025	-5.957216e-11
70	0xba9ce880	-0.0011971146
71	0x34f1245c	4.4916203e-07
72	0x3a661511	0.0008776943
73	0xba68c3b2	-0.00088792585
74	0xbc424f3f	-0.011859714
75	0xbb6dee21	-0.0036305266
76	0xb98d81d3	-0.00026990342
77	0xb6a489c3	-4.9036184e-06
78	0xb9f5c8b3	-0.00046879574
79	0xb88031af	-6.11277e-05
80	0xbb8ea39e	-0.004353001
81	0xbaa2d175	-0.0012422042
82	0xbc8d02b8	-0.01721321
83	0xb8668865	-5.49633e-05
84	0xbc05d3c0	-0.008168161
85	0xb9ce8d3c	-0.0003939661
86	0x21d8eea2	1.4699895e-18
87	0x9bd94e30	-3.5950166e-22
88	0x39c6da1f	0.00037928016
89	0xbbc11d5f	-0.005893394
90	0xbc13c925	-0.009020125
91	0xbaaa2af4	-0.0012982772
92	0x3cacf208	0.021111503
93	0x3d377546	0.044789575
94	0xbc0bd5ea	-0.008534888
95	0xba5b62eb	-0.0008368927
96	0xa952e07a	-4.682407e-14
97	0xa9f8d683	-1.1050624e-13
98	0xbc75e6ad	-0.015008611
99	0xba14bbbf	-0.00056737283
100	0x3c074ba7	0.008257783
101	0xbbaf1497	-0.0053430307
102	0xbce9e862	-0.028553192
103	0xbb5706a6	-0.003281036
104	0xbb9476c1	-0.004530758
105	0xb9f5940a	-0.0004684034
106	0x3b831358	0.0040001087
107	0xbb4e0a06	-0.003143908
108	0xb84b1037	-4.8414073e-05
109	0x357ce911	9.421647e-07
110	0xbc9ed7a6	-0.019389939
111	0xbbe58c39	-0.0070052412
112	0xbc245f33	-0.010032463
113	0xbb68dc80	-0.003553182
114	0xbcf7977d	-0.030223602
115	0xbb95fc81	-0.00457722
116	0xbbd38300	-0.0064548254
117	0xb7606f50	-1.3377357e-05
118	0xbcd0abdd	-0.025472576
119	0x3a7ca132	0.0009637057
120	0xbd8aa3e4	-0.06769541
121	0x3d8870af	0.06662118
122	0xbd172b85	-0.036906738
123	0x3a9e25e1	0.0012065732
124	0xbcb5921e	-0.0221644
125	0xbabfc8d6	-0.0014631997
126	0xbb5fd2cf	-0.0034152751
127	0x36d92df3	6.472453e-06
128	0xba2ade14	-0.00065180776
129	0xb97ec671	-0.00024297253
130	0x3b9052cc	0.0044044014
131	0x37633a06	1.3543764e-05
132	0xb7003620	-7.6419965e-06
133	0x33ea6604	1.0915031e-07
134	0xbc15176f	-0.009099825
135	0xb97ae45a	-0.00023926925
136	0xbc057b5c	-0.008147087
137	0xbab1add6	-0.0013555835
138	0xbe03b911	-0.12863566
139	0xbc13e704	-0.009027246
140	0xbba2a446	-0.0049634306
141	0xbaa243d7	-0.0012379837
142	0xb9fd1ae0	-0.00048275944
143	0xb9904c25	-0.00027522552
144	0xb9ca6a0c	-0.00038607453
145	0xb888127d	-6.488429e-05
146	0xbb1dc1e9	-0.0024071878
147	0xbae72dd5	-0.001763756
148	0xbba7162b	-0.005099078
149	0xbb49b9aa	-0.003078083
150	0xbb2a475a	-0.002598247
151	0xb9cc57fb	-0.00038975463
152	0xbaf2985d	-0.0018508543
153	0xb929f576	-0.00016208537
154	0x3ee1c4b0	0.44095373
155	0x3e3717d0	0.17880177
156	0xba971b1e	-0.0011528467
157	0xb9e9c6d5	-0.00044589365
158	0xbc03f142	-0.008053126
159	0xbb54a81e	-0.0032448838
160	0xbb768150	-0.0037613697
161	0x3518b6a9	5.689022e-07
162	0xbc9a1379	-0.018808113
163	0xbae26ff2	-0.0017275794
164	0xba785777	-0.00094734825
165	0xb897c6b6	-7.237254e-05
166	0x340d86ec	1.3180733e-07
167	0xb401afa4	-1.2077959e-07
168	0x35d18c4e	1.5612547e-06
169	0xb57c69b4	-9.4031134e-07
170	0xbc3df4e0	-0.011594027
171	0xbb1e05b0	-0.0024112277
172	0xbb85357b	-0.0040652133
173	0xbab56253	-0.0013838507
174	0xbb516078	-0.003194837
175	0xb960d831	-0.00021442842
176	0x3b2e7581	0.002662033
177	0xba27b11e	-0.0006396937
178	0xbcae859f	-0.02130395
179	0xba9a30a3	-0.0011763762
180	0xbc309b87	-0.010779268
181	0xb9eab699	-0.00044768004
182	0xbc1d6b1d	-0.009608057
183	0xb8ba5971	-8.885831e-05
184	0xbb9eff87	-0.0048522386
185	0xbaa18812	-0.0012323877
186	0xb8c987f1	-9.609748e-05
187	0x361caca3	2.33463e-06
188	0xb809e4dc	-3.2876487e-05
189	0x28f54d5b	2.7234012e-14
190	0x9a155bfd	-3.0886785e-23
191	0x97cad20b	-1.3106966e-24
192	0xbef6fddd	-0.48240557
193	0xbc04e310	-0.008110777
194	0x3a0c10f2	0.0005343101
195	0xbbc2a578	-0.0059401356
196	0xafe75413	-4.2078394e-10
197	0xae2c56cf	-3.9185374e-11
198	0xb863e4e5	-5.4334192e-05
199	0x3646e833	2.9639457e-06
200	0x3ad83e9a	0.0016498149
201	0xbad21483	-0.0016027841
202	0xbb8a7b9f	-0.0042261626
203	0xbbaf2592	-0.005345055
204	0xb9837dfe	-0.0002508014
205	0xb6df0e75	-6.647601e-06
206	0x382fc837	4.1909716e-05
207	0xb8862f09	-6.398379e-05
208	0xbad41449	-0.0016180362
209	0xbad2d4a1	-0.0016085097
210	0xbb24db3c	-0.0025155088
211	0xb81e588b	-3.7752598e-05
212	0xbb5e2b1a	-0.0033900202
213	0xba481649	-0.0007632715
214	0xa5f4075e	-4.2332245e-16
215	0x9a07d079	-2.808575e-23
216	0x3c78cbfd	0.015185353
217	0xbbea0332	-0.007141494
218	0xbb8b22dd	-0.0042460994
219	0xbb231736	-0.002488566
220	0xbdc19840	-0.094528675
221	0x3dddb27d	0.108250596
222	0x3bd6c250	0.0065539256
223	0xbad72bfe	-0.0016416309
224	0xaa3c03ad	-1.669903e-13
225	0xaa21eb59	-1.4381325e-13
226	0x3a64ad73	0.0008723356
227	0xba2a43ab	-0.00064950687
228	0x3bd57d24	0.006515162
229	0xbb10e96b	-0.0022111784
230	0xbbbe7f80	-0.005813539
231	0xbb18755d	-0.0023263313
232	0xbb1548aa	-0.0022778907
233	0xb9c15cc8	-0.00036880956
234	0x3c026670	0.007958993
235	0x3a48b89f	0.0007656905
236	0xb8656ced	-5.46993e-05
237	0xb5958ed1	-1.114293e-06
238	0xbb9bfbff	-0.004760265
239	0xbb8a70fb	-0.004224894
240	0xbba07058	-0.004896205
241	0xbb94c32b	-0.0045398674
242	0xbc85c474	-0.016329028
243	0xbbcb4aef	-0.006204001
244	0x37fdd590	3.0259398e-05
245	0xb71d6c74	-9.38318e-06
246	0x3d24dfb9	0.04025242
247	0xbab29559	-0.0013624831
248	0x3e1fb6c8	0.1559707
249	0x3e51bbcc	0.20481795
250	0x3b40f059	0.0029440133
251	0xbc0f0520	-0.008729249
252	0x3a6ef787	0.0009115864
253	0xbafa8476	-0.0019112963
254	0xba02e307	-0.0004992936
255	0xb7eedbb9	-2.8474127e-05

lstm.weight_hh_l0 f4 [256, 64]
0	0xb63078a2	-2.6296261e-06
1	0x36113aa6	2.1640822e-06
2	0xb2f76f3a	-2.8805164e-08
3	0x3721aa42	9.635989e-06
4	0x377a7b9a	1.4929939e-05
5	0x378f5375	1.7085791e-05
6	0xb7f7303c	-2.9467155e-05
7	0x37c375f6	2.3300741e-05
8	0xb6514032	-3.1180793e-06
9	0x380f11f0	3.4110562e-05
10	0x381834eb	3.6288908e-05
11	0xb707d49e	-8.096131e-06
12	0x379b760a	1.8532406e-05
13	0xb79c9db3	-1.8670084e-05
14	0x3631239e	2.6395787e-06
15	0xb70fbd4e	-8.56754e-06
16	0x3595ecb4	1.1170255e-06
17	0xb6eaecb6	-7.0013e-06
18	0xb6a5e330	-4.9438313e-06
19	0xb4211a14	-1.500378e-07
20	0x34b5601d	3.378381e-07
21	0xb71f91b6	-9.5110645e-06
22	0x370788c5	8.078471e-06
23	0x378d2ca6	1.68293e-05
24	0xb5bae555	-1.3924824e-06
25	0x3771909b	1.4398388e-05
26	0xb582eb2f	-9.754202e-07
27	0xb63a58db	-2.776788e-06
28	0x362428f5	2.4461744e-06
29	0xb61df718	-2.353865e-06
30	0xafa515d6	-3.002884e-10
31	0xa5bac4df	-3.2399262e-16
32	0x3884a673	6.325254e-05
33	0xb556b671	-7.99867e-07
34	0xaff80b9d	-4.511919e-10
35	0xb35cdffb	-5.142645e-08
36	0xb7e743ba	-2.7568884e-05
37	0x385d36aa	5.2741416e-05
38	0x35058426	4.973866e-07
39	0x370dab4c	8.444138e-06
40	0x37149bac	8.857733e-06
41	0xb6054716	-1.9859922e-06
42	0xb68301a9	-3.9042975e-06
43	0x267b09a3	8.709618e-16
44	0x37bb889a	2.2355747e-05
45	0xb71f46bd	-9.493609e-06
46	0x37b4716d	2.151049e-05
47	0xb5245a09	-6.122578e-07
48	0xafbcb1ff	-3.4323475e-10
49	0xb793c23b	-1.7614211e-05
50	0x35c06fc4	1.4337643e-06
51	0xb6c12fee	-5.757428e-06
52	0x35e0a93c	1.6738554e-06
53	0xb73db4ff	-1.1307419e-05
54	0x3582ec38	9.754503e-07
55	0xb74762a0	-1.1884287e-05
56	0x36ee17ae	7.0957094e-06
57	0xb7bb82da	-2.235307e-05
58	0xb595b23e	-1.115324e-06
59	0xb6fffd07	-7.6290485e-06
60	0xb943138a	-0.00018603928
61	0x36c38abe	5.8276046e-06
62	0xb83c0739	-4.482942e-05
63	0xb585e9cd	-9.977317e-07
64	0xb60b6be5	-2.0775417e-06
65	0x34ba2b03	3.4676495e-07
66	0x347bebda	2.3461999e-07
67	0xb74ee2b9	-1.2331345e-05
68	0x38119e4c	3.471812e-05
69	0xb88d59d3	-6.740135e-05
70	0x36a09987	4.7862445e-06
71	0xb6dc3cea	-6.5636023e-06
72	0xb6820899	-3.875303e-06
73	0x36f209e4	7.2133134e-06
74	0xb656238f	-3.1909183e-06
75	0xb66dabe8	-3.5415815e-06
76	0xb6ae4fec	-5.194908e-06
77	0xb886b1ed	-6.422759e-05
78	0x354dfb7a	7.67344e-07
79	0x37cc1f21	2.433319e-05
80	0xb535d755	-6.7741104e-07
81	0xb6f78827	-7.377024e-06
82	0x37678d68	1.3801597e-05
83	0x33b91326	8.618217e-08
84	0xb56dd12f	-8.859378e-07
85	0x33d4fd5c	9.918105e-08
86	0xb6fad2cf	-7.475122e-06
87	0xb6ce2220	-6.143251e-06
88	0x36bd614b	5.6439653e-06
89	0xb74ac56d	-1.2086105e-05
90	0x36abac78	5.116275e-06
91	0x3623fa01	2.4434414e-06
92	0xb61ce326	-2.337803e-06
93	0xb646837c	-2.9580833e-06
94	0xaf4b6893	-1.8499895e-10
95	0xa7a94062	-4.6976727e-15
96	0xb8a847fb	-8.024272e-05
97	0x3745a022	1.1779399e-05
98	0xb0897519	-1.0001343e-09
99	0xb57de5d1	-9.458427e-07
100	0x37d30f31	2.5160234e-05
101	0x36f25059	7.2215157e-06
102	0x3578e8c2	9.2725907e-07
103	0x362365ab	2.4348071e-06
104	0x36509a93	3.108439e-06
105	0x36602437	3.339968e-06
106	0xb756eb1e	-1.28101365e-05
107	0xa6cc8496	-1.4191281e-15
108	0xb7f09cb9	-2.868321e-05
109	0xb7208184	-9.566898e-06
110	0xb8c035f3	-9.165322e-05
111	0xb80d51aa	-3.3693075e-05
112	0xadfa6399	-2.846594e-11
113	0xb6e43286	-6.800811e-06
114	0x3610c35b	2.1571384e-06
115	0x37c67c16	2.3661221e-05
116	0x379eb880	1.8920982e-05
117	0x373152fa	1.0569342e-05
118	0xb5abeb86	-1.2809039e-06
119	0x369dbf9e	4.701272e-06
120	0x37923ed2	1.743381e-05
121	0x369112ce	4.323526e-06
122	0x359f851f	1.1885166e-06
123	0x37175389	9.019751e-06
124	0x3740f93b	1.150212e-05
125	0xb87f0ba7	-6.080759e-05
126	0xb7415c1e	-1.1525144e-05
127	0xb70596cb	-7.962527e-06
128	0xb200ebab	-7.504165e-09
129	0xb279f322	-1.454899e-08
130	0xb09f3390	-1.1583428e-09
131	0xb27b9cd5	-1.4645782e-08
132	0x33f1cb00	1.12593625e-07
133	0xb19762b0	-4.405898e-09
134	0xb39f8c41	-7.4295265e-08
135	0x32aa8307	1.9850189e-08
136	0xb0603d08	-8.1577456e-10
137	0xb3d3a770	-9.85591e-08
138	0xb3310aa3	-4.1220698e-08
139	0xb2fa8b2a	-2.9167115e-08
140	0xb38484c2	-6.1708775e-08
141	0x3317160d	3.5177482e-08
142	0xb1227f82	-2.3646582e-09
143	0xb34fcd86	-4.8382866e-08
144	0x3245c4f0	1.1511688e-08
145	0x3293793b	1.7168182e-08
146	0xb3420dc6	-4.518167e-08
147	0xafb943a2	-3.369936e-10
148	0x306fe66b	8.7275137e-10
149	0xb46ed4ec	-2.2242938e-07
150	0xb319c67a	-3.5803602e-08
151	0xb32053c8	-3.73291e-08
152	0xb30bc230	-3.2540072e-08
153	0x34a644e2	3.0970028e-07
154	0x31dfb87f	6.511129e-09
155	0x31ef99b3	6.973289e-09
156	0x33bfca8a	8.930972e-08
157	0x2f635cf0	2.0678548e-10
158	0xaa988bcc	-2.7097628e-13
159	0xa0d61cb4	-3.6272004e-19
160	0x351573b6	5.5675207e-07
161	0xb23b4f4e	-1.0902864e-08
162	0xab88b589	-9.713767e-13
163	0x2f11d76c	1.3264206e-10
164	0xb3938eeb	-6.8712176e-08
165	0x32647bef	1.3299526e-08
166	0x2f99221d	2.7854777e-10
167	0xaeb72eb1	-8.3301706e-11
168	0x31238cfa	2.3799758e-09
169	0xb32793f2	-3.9017273e-08
170	0x3227550c	9.740017e-09
171	0x236d9b33	1.28806605e-17
172	0xb0f2407c	-1.7626145e-09
173	0x322cebb4	1.006531e-08
174	0x33d1acb4	9.7637354e-08
175	0xb1a628ff	-4.8358966e-09
176	0x2a462ee0	1.7602196e-13
177	0xb0ea77e9	-1.7059821e-09
178	0xb20f859a	-8.354073e-09
179	0xb3f6fa66	-1.1500815e-07
180	0xaf774e11	-2.2492254e-10
181	0xb339b9c7	-4.3242633e-08
182	0x2d36a58b	1.038226e-11
183	0xb46f773e	-2.230199e-07
184	0xb205198a	-7.747426e-09
185	0xb2b3dafb	-2.0937923e-08
186	0x30ccbb4a	1.4896184e-09
187	0x317d2ebd	3.6842913e-09
188	0x33b8981c	8.595836e-08
189	0xb37eaebc	-5.9297903e-08
190	0xb41dc668	-1.4693944e-07
191	0x2f65fe1e	2.0917709e-10
192	0x3894e582	7.099939e-05
193	0x38143747	3.533743e-05
194	0x35a2a378	1.2117516e-06
195	0x38f2a958	0.00011571002
196	0xb844f451	-4.695758e-05
197	0xb83e38f1	-4.535256e-05
198	0xb98e8347	-0.0002718216
199	0x38ad598a	8.265961e-05
200	0x382e02bc	4.148738e-05
201	0x39a7d64f	0.00032012395
202	0x39a5d153	0.0003162721
203	0xb802c3a0	-3.1176605e-05
204	0x390b660c	0.00013294088
205	0xba8e654b	-0.0010863928
206	0xb802dfde	-3.1202908e-05
207	0x39154466	0.00014235228
208	0xb70f1559	-8.528435e-06
209	0xb8fa997c	-0.00011949518
210	0x35878e66	1.0099727e-06
211	0xb52d1587	-6.447885e-07
212	0x35568251	7.991085e-07
213	0x38a811eb	8.014202e-05
214	0xb7f05ffa	-2.8654922e-05
215	0x38d8dc6e	0.00010340741
216	0xb841c4a3	-4.6197918e-05
217	0xb898d8fd	-7.288342e-05
218	0xb89f823f	-7.605971e-05
219	0x38468d29	4.7338344e-05
220	0x374572e3	1.1768864e-05
221	0xb7dbd678	-2.6206704e-05
222	0xb10bea82	-2.0360464e-09
223	0x27407d22	2.6713187e-15
224	0x38915420	6.929808e-05
225	0x3701770f	7.71672e-06
226	0xb2d96499	-2.5307871e-08
227	0x36d67035	6.3907596e-06
228	0xb8bc30a7	-8.973601e-05
229	0x38c0473d	9.1685426e-05
230	0x3782c446	1.5588605e-05
231	0xb809648a	-3.275698e-05
232	0x3978aae7	0.00023714789
233	0x380accc0	3.3092452e-05
234	0x380edd5b	3.406159e-05
235	0x2697ccfa	1.0533289e-15
236	0x38f24ec1	0.00011554128
237	0xb788e99b	-1.6321244e-05
238	0x3686e7c5	4.0204927e-06
239	0x3990f776	0.00027650193
240	0x2f6aa60d	2.1341169e-10
241	0xb8ebbdd8	-0.000112410344
242	0x388054a1	6.119279e-05
243	0xb89f4276	-7.59409e-05
244	0x379bfb34	1.8594415e-05
245	0x38f21674	0.000115436414
246	0xb6cea910	-6.15896e-06
247	0x3a00f68f	0.00049195526
248	0xb9036a75	-0.00012532792
249	0x38c267ec	9.269998e-05
250	0x378c97a5	1.6759916e-05
251	0x38864ab1	6.40353e-05
252	0xbad6d9cb	-0.0016391812
253	0xb8e58eeb	-0.000109461915
254	0xb94b13b2	-0.00019366926
255	0x3797b357	1.8084114e-05

lstm.bias_ih_l0 f4 [256]
0	0xb9bf43f4	-0.00036480988
1	0x3904cbca	0.00012664418
2	0x3459749c	2.0252122e-07
3	0xbaf4d739	-0.0018679864
4	0xbabfaadc	-0.0014623064
5	0x3a84ccdb	0.0010131852
6	0xbb32aff5	-0.0027265523
7	0xbabbe05e	-0.0014333834
8	0xb9051cb1	-0.00012694557
9	0xbb28e73c	-0.0025772592
10	0xbbaa3f4a	-0.005195533
11	0xb9da83bc	-0.0004167835
12	0xba445b7d	-0.00074904395
13	0x3d26f22e	0.040758304
14	0xba110aa8	-0.0005532899
15	0xbb156024	-0.00227929
16	0xb9c6a75e	-0.000378902
17	0xbbb0d8f0	-0.0053969547
18	0xb963cc9c	-0.0002172463
19	0xb3dd6578	-1.03095715e-07
20	0xb6ddc43a	-6.609157e-06
21	0xbbceb985	-0.0063087367
22	0xba86ecc6	-0.0010293953
23	0xb9f1ae8e	-0.00046097155
24	0xba92b5df	-0.0011193118
25	0xbbb7d1b8	-0.005609717
26	0xbb4ccf60	-0.0031251535
27	0xba85b7fb	-0.0010201925
28	0xbaac8d2e	-0.0013164633
29	0x374db0d9	1.2260128e-05
30	0x2aac3fd7	3.0597635e-13
31	0x978bb18a	-9.027482e-25
32	0x3cf43e91	0.02981499
33	0xbc0330a4	-0.008007202
34	0xaec00faf	-8.733935e-11
35	0xb5f5369e	-1.8269818e-06
36	0xbb168f17	-0.0022973472
37	0xbbf050d5	-0.0073338547
38	0xb76c5f72	-1.4088919e-05
39	0xb8d5e693	-0.00010199579
40	0xbb3e50e5	-0.0029039916
41	0xb9e5a48e	-0.00043800886
42	0xbaef763c	-0.001826949
43	0x9bdc84fc	-3.6481886e-22
44	0xbc4d8689	-0.012544283
45	0xbb9604e8	-0.0045782216
46	0x3e06df34	0.13171083
47	0xbad4fde1	-0.0016249978
48	0xaa0cec87	-1.251656e-13
49	0xba861220	-0.001022879
50	0xbb86a292	-0.0041087354
51	0xbbad59c7	-0.0052902433
52	0xba3bf3a3	-0.00071697886
53	0xbb19ae2b	-0.002344976
54	0xb62bb049	-2.5583597e-06
55	0xbc8be5c8	-0.017077342
56	0xbbeb05f0	-0.0071723387
57	0xbc5e92fd	-0.013584849
58	0xb89f8b03	-7.607604e-05
59	0xba1f8244	-0.000608478
60	0x3db9a31f	0.09064316
61	0xbb073119	-0.002062863
62	0xbafa2c75	-0.0019086736
63	0xb892d30a	-7.0011316e-05
64	0xb9fb2edf	-0.00047909372
65	0x39dd858b	0.00042251902
66	0x33359c90	4.228474e-08
67	0xba408570	-0.00073441025
68	0xbaf5e5d4	-0.0018760511
69	0xba5b15b6	-0.0008357422
70	0xbb2560a9	-0.0025234616
71	0xba0eee78	-0.0005452405
72	0xb8fc5ca4	-0.00012033552
73	0xbb8b777f	-0.0042561884
74	0xbbbf382b	-0.005835553
75	0xb9cb1604	-0.0003873558
76	0xba5cbaa2	-0.00084201444
77	0x3e1d33c0	0.15351772
78	0xb9c8d776	-0.00038307504
79	0xbbdb997e	-0.0067016473
80	0x379bc196	1.8567585e-05
81	0xbb3500f2	-0.0027618972
82	0xb9dc00a0	-0.00041962136
83	0xb467c49d	-2.1585079e-07
84	0xb484bb9d	-2.4723423e-07
85	0xbba39fa1	-0.0049933945
86	0xba9a7d8e	-0.0011786686
87	0xba246a75	-0.0006271967
88	0xba9e5386	-0.0012079335
89	0xbbe292f8	-0.0069144927
90	0xbb2aca8d	-0.002606067
91	0x392cd58f	0.00016482755
92	0xbada2bd8	-0.0016645147
93	0xb4bcbcab	-3.5155003e-07
94	0xae70531d	-5.46435e-11
95	0x999819aa	-1.5726797e-23
96	0x3e592e08	0.21208966
97	0xbbfa2929	-0.007634301
98	0xae8889bb	-6.20903e-11
99	0xb6b50678	-5.3949734e-06
100	0xbb52dac0	-0.0032173842
101	0xbbc1e1b2	-0.0059167976
102	0xb7e0de33	-2.680635e-05
103	0xb90edc42	-0.00013624228
104	0xbb3ee93e	-0.0029130722
105	0xb9ada95b	-0.0003312331
106	0xbad26771	-0.0016052556
107	0x9e11145a	-7.680445e-21
108	0xbc1e3890	-0.00965704
109	0xbb32e1d1	-0.0027295242
110	0x3ea7cfb5	0.32775655
111	0xbac119cc	-0.001473242
112	0xaaa58c20	-2.940712e-13
113	0xbac0a2ff	-0.0014697014
114	0xba754784	-0.0009356665
115	0xbba5bb6f	-0.005057744
116	0xb95036dc	-0.00019856862
117	0xba82786b	-0.00099541
118	0xb6cf2fd1	-6.1746473e-06
119	0xbc10eec4	-0.008845989
120	0xbb91a837	-0.0044451016
121	0xbc93abc5	-0.018026242
122	0xb7c43672	-2.3390374e-05
123	0xbb5864a2	-0.0033018966
124	0x3e9a6896	0.30157918
125	0xbd1b3b04	-0.03789808
126	0xbbba6303	-0.0056880726
127	0xb6efabf9	-7.1427753e-06
128	0xbae9c8e3	-0.0017836358
129	0xba067d2b	-0.0005130346
130	0xb8254ca4	-3.9410443e-05
131	0x3b858987	0.0040752324
132	0x3b76b463	0.003764414
133	0x3b8f5bf7	0.0043749767
134	0x3be2ca3c	0.006921081
135	0xb9be3ab1	-0.00036283353
136	0x3b4dd203	0.0031405694
137	0xbbc62f3e	-0.006048112
138	0xbc241e49	-0.010016986
139	0x3b6abbcf	0.003581751
140	0xba8c61df	-0.001071032
141	0xbdde8938	-0.10866016
142	0x3b89c874	0.004204804
143	0x3c20c43c	0.009812411
144	0xbb4b7013	-0.0031042143
145	0xbb89f2dc	-0.0042098593
146	0x38ad8364	8.273756e-05
147	0xb625de39	-2.4716267e-06
148	0x36cf0835	6.170036e-06
149	0xba49fd24	-0.00077052624
150	0x3b8123fb	0.003941057
151	0xbb277da6	-0.002555707
152	0xbb1bdd98	-0.0023783203
153	0xbc218bfd	-0.009860036
154	0xbb2652b8	-0.0025378894
155	0x3b25a3ae	0.0025274563
156	0xba92da6f	-0.0011204014
157	0xbaabd91b	-0.0013110967
158	0xb3eb8bb4	-1.0968452e-07
159	0x2ab18e9f	3.154048e-13
160	0xbe28079b	-0.16409151
161	0x3cc37d02	0.02386332
162	0x352fbabd	6.546432e-07
163	0x3a302e04	0.0006720724
164	0x3b3357ec	0.0027365638
165	0xbccf2399	-0.025285529
166	0x3adf82c0	0.0017052516
167	0xba9ce318	-0.0011969535
168	0xbc02736a	-0.007962087
169	0xbab88b30	-0.0014079567
170	0xbaf78de3	-0.001888689
171	0xab8a233e	-9.815271e-13
172	0x3c54d83b	0.0129910065
173	0xbc95ace7	-0.018270923
174	0x3c51e82e	0.012811704
175	0xbc1209c0	-0.008913457
176	0xb2d99bec	-2.533303e-08
177	0x3bc989b8	0.0061504506
178	0x3b3cc3bc	0.002880319
179	0xbbb02469	-0.005375434
180	0xbb1c3f03	-0.002384127
181	0xba628e83	-0.0008642452
182	0xb9c33cc1	-0.00037238564
183	0xbc36f1db	-0.011166061
184	0x3c618932	0.01376562
185	0x3d32e0b5	0.04367133
186	0xba07f983	-0.00051870215
187	0xbbd29f4f	-0.0064276825
188	0xbdd0e405	-0.10199741
189	0xbda94d1f	-0.08266663
190	0x3c05c4f2	0.008164631
191	0xbb01d8b3	-0.0019813
192	0xb9a2251d	-0.000309267
193	0x3a12b86d	0.00055969396
194	0x344d626c	1.9127918e-07
195	0xba6141ad	-0.00085928553
196	0xba5a9189	-0.00083377265
197	0x3bbe66fe	0.0058106175
198	0xbb27c22f	-0.002559792
199	0xbaf7883a	-0.0018885203
200	0xb8f7e345	-0.0001182021
201	0xbad17827	-0.0015981243
202	0xbb490b42	-0.0030676876
203	0xb99ddb9c	-0.00030108995
204	0xba19cc8c	-0.00058669667
205	0x3d5c593b	0.053796034
206	0xb9f0aaed	-0.00045903717
207	0xbb53dd46	-0.0032327934
208	0x37fd52ed	3.0198566e-05
209	0xbbcea98e	-0.0063068336
210	0xb9a7a6b5	-0.0003197693
211	0xb41deff1	-1.4709055e-07
212	0xb418d72f	-1.4234386e-07
213	0xbbafa017	-0.0053596604
214	0xba9acfb5	-0.0011811169
215	0xba0edf11	-0.00054501096
216	0xba8f85d8	-0.0010949923
217	0xbc5ad977	-0.013357512
218	0xbb507e4d	-0.0031813562
219	0xba81c27f	-0.0009899883
220	0xba1e36b8	-0.00060353754
221	0x3760cd64	1.3399262e-05
222	0xb1bcf015	-5.4988143e-09
223	0x982d75b4	-2.241915e-24
224	0x3d4a0c03	0.04932786
225	0xbbc8bd00	-0.006126046
226	0xaeaf375a	-7.967911e-11
227	0xb5fce10d	-1.8840962e-06
228	0xbadd8bfc	-0.001690268
229	0xbbb10858	-0.005402606
230	0xb75d42dd	-1.3188194e-05
231	0xba32e9fc	-0.00068250275
232	0xbb40023e	-0.0029298211
233	0xb9b2ea84	-0.00034125533
234	0xbbe2172f	-0.0068997364
235	0x9c28cbd2	-5.584997e-22
236	0xbc1db6b9	-0.009626084
237	0xbb07099f	-0.00206051
238	0x3e3c59e1	0.18393661
239	0xba113b98	-0.0005540191
240	0xaa001e83	-1.137927e-13
241	0xbab8bb93	-0.0014093987
242	0xba9962bf	-0.0011702402
243	0xbbb227ea	-0.005436887
244	0x39ab79f6	0.0003270653
245	0xbb710d97	-0.0036781782
246	0xb635f1b8	-2.71118e-06
247	0xbc60de2a	-0.013724843
248	0xbb865876	-0.004099901
249	0xbcb37dd0	-0.021910578
250	0xb7ebd416	-2.8112943e-05
251	0xbb64c741	-0.0034908804
252	0x3e405764	0.18783337
253	0xbc856af6	-0.016286355
254	0xbb634bfe	-0.0034682746
255	0x370c4d2c	8.362618e-06

lstm.bias_hh_l0 f4 [256]
0	0xb9bf43a4	-0.00036480755
1	0x3904cb55	0.00012664248
2	0x34597494	2.0252111e-07
3	0xbaf4d709	-0.0018679808
4	0xbabfaad6	-0.0014623057
5	0x3a84cc8d	0.0010131762
6	0xbb32b008	-0.0027265567
7	0xbabbe04f	-0.0014333817
8	0xb9051cb0	-0.00012694555
9	0xbb28e712	-0.0025772494
10	0xbbaa3f2b	-0.0051955185
11	0xb9da845a	-0.0004167881
12	0xba445b74	-0.0007490434
13	0x3d26f22f	0.040758308
14	0xba110ae1	-0.0005532932
15	0xbb156028	-0.002279291
16	0xb9c6a75e	-0.000378902
17	0xbbb0d8f0	-0.0053969547
18	0xb963cc0a	-0.00021724417
19	0xb3dd65a3	-1.0309602e-07
20	0xb6ddc43a	-6.609157e-06
21	0xbbceb988	-0.006308738
22	0xba86ec98	-0.0010293899
23	0xb9f1ae7b	-0.000460971
24	0xba92b5df	-0.0011193118
25	0xbbb7d2fc	-0.005609868
26	0xbb4ccf8f	-0.0031251644
27	0xba85b809	-0.0010201941
28	0xbaac8d36	-0.0013164643
29	0x374db0d9	1.2260128e-05
30	0x2aac3fec	3.0597692e-13
31	0x978bb137	-9.0274e-25
32	0x3cf43e91	0.02981499
33	0xbc0330a4	-0.008007202
34	0xaec00fb3	-8.733938e-11
35	0xb5f536bc	-1.8269852e-06
36	0xbb168f6c	-0.002297367
37	0xbbf050d0	-0.0073338524
38	0xb76c5f63	-1.4088905e-05
39	0xb8d5e688	-0.00010199571
40	0xbb3e50e2	-0.002903991
41	0xb9e5a4aa	-0.00043800968
42	0xbaef763c	-0.001826949
43	0x9bdc84ec	-3.6481846e-22
44	0xbc4d869f	-0.012544303
45	0xbb9604e8	-0.0045782216
46	0x3e06df34	0.13171083
47	0xbad4f9de	-0.0016248783
48	0xaa0cec8b	-1.2516565e-13
49	0xba8612dc	-0.0010229009
50	0xbb86a28c	-0.0041087326
51	0xbbad59c7	-0.0052902433
52	0xba3bf4a2	-0.0007169937
53	0xbb19adfb	-0.0023449648
54	0xb62bb049	-2.5583597e-06
55	0xbc8be57f	-0.017077206
56	0xbbeb06cb	-0.0071724406
57	0xbc5e945c	-0.013585176
58	0xb89f8b05	-7.607605e-05
59	0xba1f8244	-0.000608478
60	0x3db9a31e	0.09064315
61	0xbb073119	-0.002062863
62	0xbafa2c61	-0.0019086712
63	0xb892d301	-7.001125e-05
64	0xb9fb2e9d	-0.0004790918
65	0x39dd8592	0.00042251922
66	0x33359c1f	4.2284338e-08
67	0xba40856f	-0.0007344102
68	0xbaf5e77e	-0.0018761007
69	0xba5b15b6	-0.0008357422
70	0xbb2560a9	-0.0025234616
71	0xba0eee88	-0.0005452414
72	0xb8fc5cb0	-0.00012033561
73	0xbb8b773a	-0.0042561563
74	0xbbbf3820	-0.005835548
75	0xb9cb1614	-0.00038735627
76	0xba5cbaea	-0.00084201864
77	0x3e1d33c0	0.15351772
78	0xb9c8d777	-0.00038307506
79	0xbbdb9959	-0.00670163
80	0x379bc218	1.8567822e-05
81	0xbb3500f2	-0.0027618972
82	0xb9dc0310	-0.00041963952
83	0xb467c4a0	-2.1585083e-07
84	0xb484bb96	-2.4723403e-07
85	0xbba39fa5	-0.0049933963
86	0xba9a7d8e	-0.0011786686
87	0xba246a76	-0.00062719674
88	0xba9e53c4	-0.0012079407
89	0xbbe293d0	-0.0069145933
90	0xbb2aca8d	-0.002606067
91	0x392ccf80	0.00016480498
92	0xbada2bf2	-0.0016645177
93	0xb4bcf9e4	-3.5199548e-07
94	0xae705309	-5.4643432e-11
95	0x99981a00	-1.5726933e-23
96	0x3e592e08	0.21208966
97	0xbbfa2959	-0.0076343236
98	0xae8889bb	-6.20903e-11
99	0xb6b50678	-5.3949734e-06
100	0xbb52e80f	-0.0032181775
101	0xbbc1e1b2	-0.0059167976
102	0xb7e0de2f	-2.6806343e-05
103	0xb90edc01	-0.00013624133
104	0xbb3ee92e	-0.0029130685
105	0xb9ada85d	-0.00033122572
106	0xbad26771	-0.0016052556
107	0x9e11145a	-7.680445e-21
108	0xbc1e388f	-0.009657039
109	0xbb32e1d1	-0.0027295242
110	0x3ea7cfb5	0.32775655
111	0xbac11a24	-0.0014732522
112	0xaaa58fe1	-2.9409724e-13
113	0xbac0a34a	-0.0014697101
114	0xba754784	-0.0009356665
115	0xbba5bb6f	-0.005057744
116	0xb95033fb	-0.0001985579
117	0xba827849	-0.0009954061
118	0xb6cf2fd1	-6.1746473e-06
119	0xbc10eeea	-0.008846024
120	0xbb91a832	-0.0044450993
121	0xbc93ac05	-0.018026361
122	0xb7c436aa	-2.3390476e-05
123	0xbb5864a2	-0.0033018966
124	0x3e9a6896	0.30157918
125	0xbd1b3b05	-0.037898082
126	0xbbba6439	-0.005688217
127	0xb6efaf92	-7.143194e-06
128	0xbae9c90c	-0.0017836406
129	0xba067d26	-0.0005130343
130	0xb8254ca4	-3.9410443e-05
131	0x3b858987	0.0040752324
132	0x3b76b484	0.0037644217
133	0x3b8f5bf7	0.0043749767
134	0x3be2ca59	0.0069210944
135	0xb9be3ab1	-0.00036283353
136	0x3b4dd22c	0.003140579
137	0xbbc62f51	-0.006048121
138	0xbc241e3c	-0.010016974
139	0x3b6abc13	0.0035817667
140	0xba8c61df	-0.001071032
141	0xbdde8938	-0.10866016
142	0x3b89c8fc	0.0042048674
143	0x3c20c43d	0.009812412
144	0xbb4b7013	-0.0031042143
145	0xbb89f2dc	-0.0042098593
146	0x38ad829d	8.2736115e-05
147	0xb625de39	-2.4716267e-06
148	0x36cf0835	6.170036e-06
149	0xba49fd2d	-0.00077052676
150	0x3b812410	0.0039410666
151	0xbb277dac	-0.0025557084
152	0xbb1bdd94	-0.0023783194
153	0xbc218bee	-0.009860022
154	0xbb2652be	-0.0025378908
155	0x3b25a3b5	0.002527458
156	0xba92da5c	-0.0011203992
157	0xbaabd918	-0.0013110964
158	0xb3eb8c8c	-1.09686056e-07
159	0x2ab18ea9	3.1540506e-13
160	0xbe28079b	-0.16409151
161	0x3cc37d4e	0.02386346
162	0x352fbabb	6.546431e-07
163	0x3a302dfe	0.00067207206
164	0x3b3357be	0.002736553
165	0xbccf2393	-0.025285518
166	0x3adf82c1	0.0017052518
167	0xba9ce315	-0.0011969531
168	0xbc027393	-0.007962125
169	0xbab88b45	-0.0014079591
170	0xbaf79563	-0.0018889125
171	0xab8a233e	-9.815271e-13
172	0x3c54d83e	0.012991009
173	0xbc95ad0a	-0.018270988
174	0x3c51e82e	0.012811704
175	0xbc1209bc	-0.008913454
176	0xb2d99bec	-2.533303e-08
177	0x3bc989ae	0.006150446
178	0x3b3cc3bc	0.002880319
179	0xbbb0246f	-0.005375437
180	0xbb1c3f2c	-0.0023841364
181	0xba628fbc	-0.0008642634
182	0xb9c33cc0	-0.0003723856
183	0xbc36f1db	-0.011166061
184	0x3c618911	0.013765589
185	0x3d32dfaa	0.043670334
186	0xba07f983	-0.00051870215
187	0xbbd29f4f	-0.0064276825
188	0xbdd0e405	-0.10199741
189	0xbda94dec	-0.082668155
190	0x3c05c4f5	0.008164634
191	0xbb01d8b3	-0.0019813
192	0xb9a2256f	-0.00030926938
193	0x3a12b872	0.00055969425
194	0x344d626c	1.9127918e-07
195	0xba6141b6	-0.00085928605
196	0xba5a918e	-0.00083377294
197	0x3bbe66fe	0.0058106175
198	0xbb27c232	-0.0025597927
199	0xbaf7883a	-0.0018885203
200	0xb8f7e347	-0.000118202115
201	0xbad1782d	-0.001598125
202	0xbb490b41	-0.0030676874
203	0xb99ddb79	-0.00030108893
204	0xba19cc8c	-0.00058669667
205	0x3d5c593a	0.05379603
206	0xb9f0aaed	-0.00045903717
207	0xbb53dd14	-0.0032327818
208	0x37fd52df	3.019854e-05
209	0xbbcea98e	-0.0063068336
210	0xb9a7a662	-0.00031976687
211	0xb41deff9	-1.4709066e-07
212	0xb418d45e	-1.4233362e-07
213	0xbbafa028	-0.0053596683
214	0xba9acfb5	-0.0011811169
215	0xba0edf11	-0.00054501096
216	0xba8f85d8	-0.0010949923
217	0xbc5adcf7	-0.013358346
218	0xbb507e4e	-0.0031813565
219	0xba81c27a	-0.0009899877
220	0xba1e36b6	-0.0006035374
221	0x3760cd49	1.3399237e-05
222	0xb1bcefd0	-5.4987837e-09
223	0x982d7473	-2.2418518e-24
224	0x3d4a0c03	0.04932786
225	0xbbc8bd20	-0.006126061
226	0xaeaf3762	-7.9679166e-11
227	0xb5fce10e	-1.8840963e-06
228	0xbadd8b31	-0.0016902444
229	0xbbb10857	-0.0054026055
230	0xb75d42dd	-1.3188194e-05
231	0xba32e9fc	-0.00068250275
232	0xbb400236	-0.0029298193
233	0xb9b2ea84	-0.00034125533
234	0xbbe2172f	-0.0068997364
235	0x9c28cbb9	-5.5849843e-22
236	0xbc1db6cb	-0.009626101
237	0xbb07099f	-0.00206051
238	0x3e3c59e0	0.1839366
239	0xba11386e	-0.000553972
240	0xaa001e95	-1.1379294e-13
241	0xbab8bb01	-0.0014093817
242	0xba9962bf	-0.0011702402
243	0xbbb227e9	-0.0054368866
244	0x39ab7f76	0.00032710627
245	0xbb710d97	-0.0036781782
246	0xb635f1b5	-2.7111794e-06
247	0xbc60dd7f	-0.013724684
248	0xbb865876	-0.004099901
249	0xbcb37da9	-0.021910505
250	0xb7ebd414	-2.811294e-05
251	0xbb64c741	-0.0034908804
252	0x3e405764	0.18783337
253	0xbc856af6	-0.016286355
254	0xbb634bfe	-0.0034682746
255	0x370c4d8b	8.362705e-06

fc.weight f4 [50, 64]
0	0x397606fa	0.00023462987
1	0xb9a388b7	-0.00031191643
2	0x393c01eb	0.00017929792
3	0x3b36559d	0.0027822026
4	0x3b8c2a73	0.0042775213
5	0x3db3507b	0.08755585
6	0x3bfbe228	0.007686872
7	0xbc193ba3	-0.009352597
8	0xbacb2ecb	-0.0015501616
9	0x3a7f86b4	0.00097475504
10	0xb8bb4d34	-8.931235e-05
11	0xbafc46ca	-0.0019247171
12	0xba53ae3c	-0.0008074974
13	0xbd4f7e8a	-0.050657786
14	0xbb1760f0	-0.002309855
15	0x3b5c76bc	0.0033640107
16	0xbb1ced93	-0.0023945316
17	0xbc9bc347	-0.019014014
18	0x3a9fe8f8	0.0012200167
19	0x380dc4af	3.3800196e-05
20	0xb95c36f0	-0.00021001301
21	0xbcba21b6	-0.022721153
22	0xb90a9e74	-0.00013219734
23	0xbac16458	-0.0014754636
24	0xbc0c1630	-0.008550212
25	0x3bb499b2	0.005511486
26	0xbcb64c8c	-0.022253297
27	0x3b19e45c	0.002348206
28	0xba243c65	-0.0006265103
29	0x3b5f5aa1	0.0034081119
30	0x34b687a0	3.3998822e-07
31	0xa9902103	-6.400611e-14
32	0xbe2bb312	-0.16767529
33	0xbc4175d5	-0.0118078785
34	0xb47898cc	-2.3152387e-07
35	0xba879c04	-0.0010346179
36	0xbbbf8d98	-0.0058457367
37	0x3b106f16	0.0022038869
38	0xbad07740	-0.001590468
39	0x3b8ea8ae	0.0043536043
40	0x3b7de944	0.0038743773
41	0xbb875b64	-0.0041307677
42	0x3c1a896a	0.009432176
43	0x2c1a8d46	2.1963139e-12
44	0xbcc3b14f	-0.023888258
45	0x3c27b4a2	0.010235937
46	0x3c565ec7	0.01308412
47	0xbbc3e93e	-0.0059787324
48	0xb13737cf	-2.6661728e-09
49	0xbb7b35b7	-0.0038331577
50	0xbcb17c8d	-0.021665836
51	0xbc8c714f	-0.017143873
52	0x3b0d3425	0.0021545973
53	0x3c95f13b	0.018303504
54	0x3a738806	0.00092899834
55	0x3b85ef5a	0.004087371
56	0xbc5add33	-0.013358402
57	0x3cd5baac	0.026089989
58	0xbadfea8d	-0.0017083451
59	0x3d2a99be	0.041650526
60	0x3d536f34	0.051619723
61	0x3d562813	0.05228431
62	0x3c012009	0.007881173
63	0xb914c1c5	-0.00014186565
64	0x3b45dda0	0.0030191913
65	0xbb8d8e23	-0.0043199225
66	0xb7966015	-1.7926135e-05
67	0x3b3387f5	0.002739427
68	0x3bef124c	0.0072958823
69	0x3cb8895d	0.022526437
70	0xbb1d972f	-0.0024046411
71	0x3bf80d06	0.007569912
72	0xbab543b6	-0.0013829384
73	0xbabdece8	-0.0014490159
74	0x3bb9768a	0.005659883
75	0xbbe8f7d1	-0.00710962
76	0x3b0fd1b1	0.0021945054
77	0x3d4e1e3c	0.050321802
78	0xbb2f7538	-0.0026772749
79	0xbc16d385	-0.009205704
80	0xb9d8d26c	-0.00041355507
81	0xbae93970	-0.0017793607
82	0xbb8ed398	-0.00435872
83	0xb65e1efa	-3.3098609e-06
84	0x397fee90	0.00024407567
85	0xba11dda3	-0.00055643375
86	0xbc25b44c	-0.010113787
87	0x3b0ceeaa	0.002150456
88	0xbb04fe28	-0.002029309
89	0x3ca84f3e	0.020545598
90	0x3b30766a	0.002692605
91	0x3aca2e89	0.0015425246
92	0x3be61afc	0.0070222598
93	0x3aa4f0b2	0.001258394
94	0x340c3bc1	1.3060254e-07
95	0xa88d6d6b	-1.5701597e-14
96	0xbd2114f8	-0.039326638
97	0xbc04bb4b	-0.008101295
98	0xb476ddb2	-2.2991188e-07
99	0xba1d2b25	-0.0005995504
100	0xbb992e02	-0.004674674
101	0x3c441989	0.011968979
102	0xbaa8d2cc	-0.0012880205
103	0xba044412	-0.00050455437
104	0x3b771cd2	0.0037706387
105	0xba8a6df0	-0.0010561328
106	0xba44bafb	-0.0007504669
107	0x2bc69989	1.4111361e-12
108	0x3a532c50	0.00080556143
109	0x3c1af2bf	0.009457289
110	0x3dbb1d4d	0.09136448
111	0x3ac531f1	0.0015044791
112	0x3329e235	3.9554113e-08
113	0xbb67c039	-0.0035362376
114	0xba63fd0f	-0.00086970715
115	0xbc3a2410	-0.011361137
116	0x3bc1a784	0.005909862
117	0xbc575854	-0.013143618
118	0x3a13cc39	0.00056380365
119	0xbab60171	-0.0013885928
120	0xbc28ddf9	-0.010306829
121	0xbb71a9ca	-0.0036874884
122	0x38011ae7	3.078105e-05
123	0x3caa9766	0.020824146
124	0xbd961536	-0.073282644
125	0x3d1bb7ae	0.038016967
126	0xbc8dd418	-0.017313048
127	0x3b06b1ba	0.002055271
128	0x383b7ad0	4.4698652e-05
129	0xb910c597	-0.00013806518
130	0xb90c8d3a	-0.00013404051
131	0xbac074e9	-0.001468328
132	0x39c54ecf	0.00037633485
133	0xba2986cf	-0.00064669264
134	0xba96a5f2	-0.0011493547
135	0x3b0b0bb4	0.0021216692
136	0x39d283c9	0.0004015251
137	0x3a871f86	0.0010309077
138	0x3b554313	0.00325412
139	0x3b81ccee	0.003961197
140	0xb8b5f50c	-8.676396e-05
141	0xbd2bccb5	-0.04194327
142	0xba568b1e	-0.0008184182
143	0xbba0cf2d	-0.00490751
144	0x3aba7a96	0.0014227207
145	0x3c0c7027	0.008571661
146	0x3ae1770d	0.0017201618
147	0x37878331	1.6154345e-05
148	0x39286725	0.00016060153
149	0x3c3cc393	0.011521238
150	0xba1e722a	-0.00060442335
151	0x3a6c352a	0.00090106076
152	0x3b5af869	0.0033412224
153	0x3c5c77a0	0.013456255
154	0x3c27759e	0.010220913
155	0xbc04dc1c	-0.008109119
156	0xbb5efddf	-0.003402583
157	0x398a650e	0.00026396703
158	0xb423dae4	-1.526019e-07
159	0xaaa25670	-2.883696e-13
160	0x3c83e06f	0.01609823
161	0x3b81e406	0.00396395
162	0xb5a80c69	-1.2520587e-06
163	0xb743982c	-1.1658336e-05
164	0xbab00547	-0.0013429307
165	0xbaa2a572	-0.0012408926
166	0xb966ad33	-0.00021999031
167	0xbb12a19d	-0.002237416
168	0xbaa72ebd	-0.0012755018
169	0x3aa5b909	0.0012643646
170	0xbab41625	-0.001373951
171	0x2bce750c	1.4669667e-12
172	0x3c15edc8	0.00915093
173	0x39928584	0.00027946767
174	0xbe1ac981	-0.1511593
175	0x3be807fd	0.0070810304
176	0x3303a6dc	3.0652572e-08
177	0xba84f0e6	-0.0010142594
178	0x3b9d714a	0.004804765
179	0x3bf19940	0.007373005
180	0xbb9c226d	-0.004764846
181	0x3b9a4a5f	0.0047085728
182	0xb868eeb5	-5.5535424e-05
183	0x3c638855	0.013887485
184	0x3be0d26e	0.0068610227
185	0x3af6a2f6	0.0018816877
186	0x39f74e44	0.00047169824
187	0x3bc4c991	0.006005474
188	0x3d9fddd9	0.07805986
189	0xbc0b1f43	-0.00849134
190	0xb9f806da	-0.0004730735
191	0xbafe2802	-0.0019390585
192	0xbaef2e1a	-0.0018247992
193	0xbaf99d85	-0.0019044137
194	0xb8a86c68	-8.0310565e-05
195	0x3b013f76	0.0019721664
196	0xbc032d92	-0.00800647
197	0xbc60d88d	-0.013723505
198	0x3a9f4959	0.0012152597
199	0x3a1674d4	0.00057394546
200	0xb816072c	-3.5769466e-05
201	0xbbe76c19	-0.007062447
202	0xbba33c5a	-0.0049815597
203	0x3b83d161	0.0040227626
204	0xbb2e6f82	-0.0026616757
205	0xbd76aa3e	-0.06022095
206	0x3aa121a9	0.0012293357
207	0xbc9c7ff0	-0.019103974
208	0x3aaa353e	0.0012985838
209	0x3c22422f	0.009903475
210	0x3b12ba89	0.0022389016
211	0x387f47f6	6.0863757e-05
212	0x37c7fc9e	2.3840283e-05
213	0x3c1db369	0.009625294
214	0x3b6f4b0e	0.0036513242
215	0xbb1e09f3	-0.0024114817
216	0x3be2895f	0.0069133486
217	0xbaadf203	-0.0013270978
218	0x3c3272dc	0.010891642
219	0xbbf97703	-0.0076130643
220	0xbb591eb3	-0.003312987
221	0xba815445	-0.0009867033
222	0xb34599f7	-4.6007667e-08
223	0x2a10231d	1.2801952e-13
224	0x3d36c104	0.044617668
225	0x3bd74f32	0.00657072
226	0x3586f6a9	1.0055566e-06
227	0x3918c6bb	0.00014569882
228	0x3b961af7	0.004580851
229	0xbb60c98f	-0.0034299826
230	0xb987c1d3	-0.00025893617
231	0xba4899ef	-0.00076523324
232	0xbb968621	-0.004593626
233	0x3b0c4bcd	0.0021407485
234	0xbbea3b06	-0.0071481494
235	0xac492565	-2.8584576e-12
236	0x3c4b4c91	0.012408392
237	0xbb18228f	-0.0023213958
238	0xbd641325	-0.05568232
239	0xbb01b450	-0.0019791313
240	0xb35b91ed	-5.112263e-08
241	0x3b0dc2d2	0.0021631015
242	0x3c6d6cf5	0.014491309
243	0x3c751cd8	0.01496049
244	0xbb461bef	-0.0030229052
245	0xbaf7b419	-0.0018898278
246	0xb8f84441	-0.00011838275
247	0xbb972ec7	-0.0046137306
248	0x3bf9c3f7	0.007622238
249	0xbbe1d398	-0.006891679
250	0x39e62498	0.00043896283
251	0xbbc1a6a8	-0.0059097596
252	0x3c5cab90	0.013468638
253	0xbc73e297	-0.014885566
254	0x3be789b6	0.007065977
255	0xbad4f0ea	-0.0016246114

fc.bias f4 [50]
0	0xbd3c410d	-0.045960475
1	0x3beffc77	0.0073237973
2	0xbd679e12	-0.056547232
3	0xbcff3e93	-0.031157767
4	0x3d2724f4	0.040806726
5	0x3d6af46f	0.057362016
6	0x3d4942df	0.04913604
7	0x3d3a33f8	0.045459718
8	0xb9f6f2da	-0.00047101715
9	0xbc15c28e	-0.009140624
10	0xbcde9bc1	-0.027173879
11	0x3cbbeb0b	0.022939226
12	0xbb951ec4	-0.0045507867
13	0xbd747a58	-0.05968699
14	0xb7313145	-1.0561494e-05
15	0x3cb71c14	0.022352256
16	0x3d85d642	0.06535007
17	0xbcb949c3	-0.02261818
18	0x3c51c1ef	0.012802585
19	0xbd0d098d	-0.034432936
20	0x3b7b443c	0.0038340231
21	0xbda9561e	-0.08268379
22	0xbaf367ac	-0.0018570325
23	0xbd21af4f	-0.039473828
24	0xbc95eec9	-0.018302338
25	0x3d37f5f6	0.0449123
26	0xbca00bc2	-0.019536857
27	0x3cd46655	0.025927702
28	0x3cc44a4b	0.023961207
29	0x3c9628a7	0.018329931
30	0x3aa2acd8	0.0012411131
31	0x3adc2322	0.0016795138
32	0xbbc40644	-0.0059821922
33	0x3ac38dd7	0.0014919591
34	0xbdab9b5a	-0.0837924
35	0xbcf7ae3e	-0.030234452
36	0xbd745ba3	-0.059657704
37	0x3d0da283	0.03457881
38	0xbcd54630	-0.026034445
39	0x3d4eca80	0.050486088
40	0x3a988160	0.0011635236
41	0x3d11e308	0.035616904
42	0x3d12086e	0.03565257
43	0xbc8d64e6	-0.017260026
44	0x3d87ea67	0.066365056
45	0xbd43d9c0	-0.047815084
46	0xbcb2490e	-0.02176335
47	0xbcc52ee7	-0.024070216
48	0xbbd4065f	-0.006470486
49	0x3c6cec1f	0.0144605925

decoder.0.weight f4 [64, 50]
0	0x39cad675	0.00038688225
1	0x38d5e2cb	0.00010198875
2	0x398626b2	0.00025587302
3	0xb8253eeb	-3.9397662e-05
4	0xb94b0f96	-0.00019365395
5	0xba4c1e8d	-0.0007786535
6	0x3842fad7	4.6486817e-05
7	0x3a233838	0.0006226334
8	0xb8ce658e	-9.8417615e-05
9	0xb9e0310f	-0.0004276116
10	0x39d70aa3	0.0004101592
11	0x3a2c657e	0.0006576403
12	0x39780c39	0.00023655676
13	0xb8c83b4a	-9.5477866e-05
14	0x370fec89	8.578537e-06
15	0x394b9ef3	0.00019418802
16	0x396fa430	0.00022853981
17	0xb97edbd5	-0.00024305221
18	0xb962f95c	-0.00021645933
19	0x38ffa928	0.00012190855
20	0x3a044e5e	0.0005047078
21	0x3a086b50	0.0005203979
22	0x38b4bf3b	8.618688e-05
23	0x397a581e	0.00023874684
24	0x3a003cd3	0.0004891876
25	0x38b371b8	8.556567e-05
26	0x3948688f	0.00019112437
27	0x388cb55a	6.7094996e-05
28	0xb991d45b	-0.00027814772
29	0xb9bd0dc0	-0.00036059134
30	0xba1e0687	-0.00060281943
31	0xb919b3da	-0.00014658217
32	0x392b7f26	0.00016355197
33	0xb7e5e653	-2.740618e-05
34	0x3a0514f8	0.0005076672
35	0xb9ab1961	-0.0003263457
36	0x3992f471	0.00028029413
37	0xb77d7988	-1.5108271e-05
38	0x39373b68	0.0001747437
39	0x3a4b08ef	0.00077451667
40	0xb8b55ab7	-8.6476495e-05
41	0x38b92a2c	8.8293426e-05
42	0x38ee1598	0.000113527465
43	0x39be9277	0.0003634875
44	0x3929b538	0.00016184605
45	0x39ae05ad	0.00033192095
46	0x393aa814	0.00017800956
47	0xba6b5a9e	-0.00089780416
48	0x36225850	2.4191286e-06
49	0xba14f23f	-0.00056818494
50	0xb5678d62	-8.6259945e-07
51	0x34a3fc75	3.0544803e-07
52	0xb592a1b4	-1.092491e-06
53	0xb456d687	-2.0008348e-07
54	0x3580a693	9.585223e-07
55	0xb9b9cb41	-0.00035437386
56	0xb4d53fa4	-3.9720646e-07
57	0xb5639ace	-8.478936e-07
58	0xb4aa7518	-3.1750164e-07
59	0xb42e5bd3	-1.6238418e-07
60	0x352ec324	6.510402e-07
61	0x357b3b19	9.3590785e-07
62	0xb4d56d35	-3.97538e-07
63	0x34d3d005	3.9453167e-07
64	0xb4d5c13a	-3.9814933e-07
65	0xb5899bdd	-1.0252658e-06
66	0xb78f38f3	-1.7073447e-05
67	0xb48671e8	-2.5042323e-07
68	0x342d9bb8	1.616853e-07
69	0x344372de	1.8202579e-07
70	0x33cf0a89	9.641105e-08
71	0xb35cac77	-5.1379597e-08
72	0x35336a29	6.683718e-07
73	0x36043d90	1.9705367e-06
74	0xb525e368	-6.179821e-07
75	0x347dd18c	2.3638694e-07
76	0x348a6994	2.578132e-07
77	0x35a3b9c0	1.2198507e-06
78	0x3583f213	9.830713e-07
79	0x382c7f4c	4.112655e-05
80	0xb415de1f	-1.3957514e-07
81	0xb9684b69	-0.00022153337
82	0x349977c4	2.8585612e-07
83	0x3441502c	1.8003692e-07
84	0x33813056	6.015823e-08
85	0xb6081026	-2.0274979e-06
86	0x34e2ab39	4.222036e-07
87	0xb596a0b8	-1.1222646e-06
88	0xb317031a	-3.5160248e-08
89	0xb5353fe6	-6.752074e-07
90	0xb3925edc	-6.8159096e-08
91	0xb69a538e	-4.5992847e-06
92	0x3408dc52	1.2746139e-07
93	0x3408fbf8	1.2757653e-07
94	0xb5bc9991	-1.4051785e-06
95	0x349efe2c	2.9614728e-07
96	0x34232697	1.5194597e-07
97	0xb4bd0081	-3.520436e-07
98	0x352b39e9	6.3786734e-07
99	0xb57ea769	-9.486599e-07
100	0xa810272e	-8.0021015e-15
101	0xa934a10c	-4.0107715e-14
102	0x2991bba8	6.471847e-14
103	0x2a1658aa	1.3353438e-13
104	0xa973b1a2	-5.411091e-14
105	0xa92d4c15	-3.8479707e-14
106	0xaa5f0959	-1.9809622e-13
107	0xa9b6f899	-8.1255484e-14
108	0x2a324f22	1.583703e-13
109	0xa9b7a865	-8.156044e-14
110	0x2805ed53	7.434445e-15
111	0x2a16c3d4	1.3390618e-13
112	0x2a393f02	1.6453161e-13
113	0x2900a942	2.8568517e-14
114	0x29c7e758	8.877507e-14
115	0xaa748e0f	-2.172084e-13
116	0x29ccfd44	9.1033545e-14
117	0x29315372	3.9374272e-14
118	0xa9f54032	-1.0891322e-13
119	0x2a5c2519	1.9552796e-13
120	0x2a631629	2.0169338e-13
121	0xaa98c81e	-2.7139483e-13
122	0xaabd2eac	-3.360553e-13
123	0xa4ec4339	-1.02462565e-16
124	0x29647fbc	5.0736962e-14
125	0xa9ba0707	-8.2612784e-14
126	0xa9e07717	-9.968257e-14
127	0xaa09f985	-1.2254614e-13
128	0x29911c55	6.4442084e-14
129	0x29961df6	6.6665355e-14
130	0xaa29a59f	-1.5067677e-13
131	0xa9aecd46	-7.7627615e-14
132	0x27154252	2.0713856e-15
133	0xa99dcde0	-7.007914e-14
134	0x282e62d5	9.680371e-15
135	0x2a35c696	1.6144928e-13
136	0xa92c4042	-3.8247407e-14
137	0x291d7bf8	3.496853e-14
138	0x291ec23b	3.5251516e-14
139	0xab02e922	-4.6508815e-13
140	0xa9f6dd1d	-1.09629516e-13
141	0xaa28b32d	-1.4983562e-13
142	0x29a9a39c	7.5334893e-14
143	0x2a2e0932	1.5457495e-13
144	0xaa9cf23c	-2.787925e-13
145	0x2a0b7607	1.2386629e-13
146	0x29e9bfe5	1.0380567e-13
147	0xa79d9a82	-4.374377e-15
148	0x29c2e406	8.6548864e-14
149	0xa88632fe	-1.4899103e-14
150	0x3b8fd767	0.0043896916
151	0x39e07218	0.00042809616
152	0x3b435b32	0.0029808995
153	0x3b60bafb	0.0034291137
154	0x3acd63a2	0.0015669952
155	0xbbdc0e8c	-0.0067156013
156	0x3c40a102	0.011757137
157	0xbbcfdb6a	-0.006343295
158	0x3c4efb75	0.012633194
159	0x3b563e2b	0.0032690864
160	0x3ae928e6	0.0017788678
161	0x3c0de265	0.008659934
162	0x3c1a1d01	0.009406329
163	0x3b4cacf5	0.003123102
164	0xb8122c70	-3.48505e-05
165	0x39921901	0.0002786592
166	0x3bcae14d	0.0061914087
167	0xbbaf769d	-0.005354716
168	0xbc0ea3b9	-0.008706027
169	0x3bd6637d	0.0065426216
170	0x3c1da9b7	0.009622983
171	0x3abab331	0.0014244077
172	0x3c81f8cc	0.015865706
173	0x3b8bbf9d	0.0042647854
174	0xbba27dd3	-0.004958847
175	0xbc0abc45	-0.0084677385
176	0x3c0528c1	0.008127392
177	0x3af7e13c	0.001891173
178	0xb9f8c7fe	-0.00047451252
179	0x3b4690a2	0.003029861
180	0xbc76f2d0	-0.015072539
181	0x3be0a607	0.0068557295
182	0x3be3aa0e	0.0069477623
183	0xbc13ca4a	-0.009020397
184	0x3c8268e5	0.015919158
185	0x3c731f80	0.014839053
186	0x3c5d0963	0.0134910075
187	0x3be355b1	0.0069377054
188	0xbc44995e	-0.011999456
189	0x3aec5027	0.0018029258
190	0xbbd5456d	-0.0065085203
191	0x3b364336	0.0027811057
192	0x3ba2cedd	0.0049685077
193	0x3bf48adc	0.0074628424
194	0xbb74aecc	-0.0037335632
195	0x3ba2cdea	0.0049683945
196	0x3c0ff329	0.008786001
197	0x3c497cca	0.012297818
198	0xbb633a36	-0.0034672148
199	0xbbb00800	-0.0053720474
200	0xb5cf766b	-1.5457166e-06
201	0x3898ce04	7.286298e-05
202	0x3a8b2e28	0.0010618614
203	0x3532952b	6.6527235e-07
204	0xb54cb8f8	-7.6265087e-07
205	0xb4596a16	-2.0248294e-07
206	0x38fa8933	0.00011946484
207	0x37bdd225	2.2628412e-05
208	0xb8c82ec1	-9.545452e-05
209	0x39a53536	0.00031510898
210	0x3a5db8c9	0.0008458016
211	0xb8d7d487	-0.00010291585
212	0xba90c1b7	-0.001104406
213	0x35a0a491	1.1968824e-06
214	0xbaa72357	-0.0012751621
215	0x360397c2	1.9608856e-06
216	0xb50fee4f	-5.3618436e-07
217	0xb434744b	-1.6806113e-07
218	0x374d2118	1.2226657e-05
219	0x3563d668	8.487609e-07
220	0x3874f50a	5.8402344e-05
221	0x389a3b35	7.3543204e-05
222	0xb8be950e	-9.0876696e-05
223	0xb46b9c4b	-2.194294e-07
224	0x3566f94b	8.6044446e-07
225	0x3a112e6b	0.0005538228
226	0xb4f3c046	-4.5402174e-07
227	0x38d78636	0.00010276998
228	0x379fb0c9	1.9036599e-05
229	0xb393e0c6	-6.886107e-08
230	0x378c2a7b	1.6709082e-05
231	0x351b1b35	5.778159e-07
232	0xb7d61d78	-2.552451e-05
233	0x34da7dcc	4.0697194e-07
234	0x38e193a3	0.000107563355
235	0x35e1a854	1.6812796e-06
236	0x3927b080	0.00015992112
237	0xb51877ac	-5.679856e-07
238	0xb4b2dc87	-3.3315538e-07
239	0x3a4c7da1	0.00078007026
240	0xb8003345	-3.0565327e-05
241	0x35c0ee47	1.4374463e-06
242	0xb625eb50	-2.4723886e-06
243	0x37bc7d44	2.2469678e-05
244	0xb9185630	-0.00014527957
245	0xb66e21b0	-3.5484372e-06
246	0x34b96a88	3.4536447e-07
247	0xb9d7cf34	-0.00041162374
248	0x34f3eb1c	4.5433342e-07
249	0x3717c2ed	9.045686e-06
250	0xbb08dddf	-0.0020884199
251	0xb9a3f67b	-0.00031273425
252	0x38790ada	5.9376333e-05
253	0xba374956	-0.0006991824
254	0xb9213baa	-0.00015376383
255	0x38e84b94	0.000110766996

decoder.0.bias f4 [64]
0	0xbe206ed5	-0.15667279
1	0xbc0daa67	-0.008646584
2	0x2ca0d217	4.570798e-12
3	0xbca5803e	-0.020202752
4	0xbd9c07ab	-0.0761865
5	0xbce162cc	-0.02751293
6	0xbaaef45f	-0.0013347975
7	0xbba90db8	-0.005159106
8	0xbb817e02	-0.003951789
9	0xb2f206ca	-2.8175595e-08
10	0xbd673f55	-0.056456883
11	0xba6e0238	-0.000907931
12	0xba00253c	-0.0004888361
13	0x3d1dad1f	0.03849518
14	0xa06bbc4c	-1.9967576e-19
15	0xba218966	-0.00061621366
16	0xbd410068	-0.047119528
17	0xad1aa374	-8.79018e-12
18	0xae6b8fff	-5.3560708e-11
19	0x8b13f220	-2.8493325e-32
20	0xbe844d43	-0.25840196
21	0x0d139e97	4.548877e-31
22	0xb27e1de7	-1.4791545e-08
23	0x33699f38	5.439435e-08
24	0xbeb31e27	-0.34983942
25	0xb794f532	-1.7757153e-05
26	0x3cf7ade4	0.030234285
27	0x8c294f6f	-1.304319e-31
28	0xbaa22109	-0.0012369464
29	0xbcc82c21	-0.024435105
30	0xbc1dcf6b	-0.009631972
31	0xbc7511a3	-0.014957818
32	0x3d2b44e8	0.04181376
33	0x9c303cde	-5.8312184e-22
34	0xb7599316	-1.2968454e-05
35	0xbc8a9ece	-0.016921427
36	0x3d88b431	0.06674994
37	0x9c8206da	-8.604449e-22
38	0xa9923ef5	-6.494624e-14
39	0xbc93a01e	-0.018020686
40	0xafeb93fa	-4.2851395e-10
41	0x3ce5bfa8	0.02804549
42	0xb427359b	-1.5572589e-07
43	0xbde2f437	-0.110817365
44	0x9ab5d26b	-7.5199794e-23
45	0xa7cdfe3b	-5.7174567e-15
46	0xb93711b7	-0.0001745884
47	0x3d7a2dbd	0.061078776
48	0x969ef0e9	-2.5678312e-25
49	0xb1db77bc	-6.387351e-09
50	0x1f484d40	4.2415547e-20
51	0x9af6942e	-1.0198261e-22
52	0xbaf72876	-0.0018856663
53	0xbc652103	-0.013984921
54	0x3cc214a3	0.023691481
55	0xbaaac058	-0.0013027294
56	0x3d836431	0.06415594
57	0xbeaee61d	-0.34159938
58	0xb7557d0c	-1.2724904e-05
59	0x3d2299ec	0.039697573
60	0x93d81359	-5.4545144e-27
61	0x3c57b53e	0.01316577
62	0xbc052c53	-0.0081282435
63	0xb5ceafd7	-1.5399372e-06
