checkpoints/checkpoint_epoch_550.pth (torch, 314812 bytes, 30 tensors)

lstm.weight_ih_l0 f4 [256, 2]
0	0xbb4ac988	-0.0030942876
1	0xb9251806	-0.00015744576
2	0xbabdfe03	-0.0014495257
3	0xabbb9105	-1.33274e-12
4	0x3e3c9202	0.18415073
5	0x3897d6d3	7.240255e-05
6	0x365533c7	3.1769612e-06
7	0xadc1412b	-2.19705e-11
8	0x30b1eddf	1.2946052e-09
9	0xb049c7ca	-7.340729e-10
10	0xbb4edceb	-0.0031564783
11	0xbb153306	-0.0022766008
12	0x37faa87e	2.9880783e-05
13	0xa334b093	-9.795211e-18
14	0x3570a6bd	8.9649603e-07
15	0xa5eb9673	-4.086795e-16
16	0xbce282dd	-0.027650291
17	0xba3ea218	-0.00072720787
18	0xbb2346c7	-0.0024914013
19	0xbb71bef8	-0.0036887508
20	0x330e8a62	3.318781e-08
21	0x191f640b	8.240311e-24
22	0xbc798a92	-0.015230792
23	0xbbd45626	-0.0064799963
24	0xac9f14f7	-4.5213794e-12
25	0xa8bef995	-2.1202476e-14
26	0xbe909d6c	-0.28245103
27	0x3df1a077	0.11798184
28	0xbcf5efd4	-0.030021586
29	0xba574fc3	-0.00082134845
30	0xbb56f103	-0.0032797463
31	0xba266095	-0.00063467893
32	0xbe180814	-0.14846832
33	0xbc14286a	-0.009042839
34	0xb7f338a9	-2.8994242e-05
35	0xadbbb5d1	-2.1340181e-11
36	0xbb4d87f0	-0.0031361543
37	0xba107c22	-0.00055116613
38	0x3b9e91fb	0.0048391796
39	0x2f1ffc28	1.455055e-10
40	0x38d110c8	9.969022e-05
41	0x3350692b	4.8524424e-08
42	0x351ef360	5.9213744e-07
43	0xae1385ae	-3.354266e-11
44	0xb9eb2fcf	-0.00044858313
45	0xaceb53a1	-6.6883864e-12
46	0x32e93e0f	2.7152991e-08
47	0xa210472a	-1.9553313e-18
48	0x3c889dcd	0.016676808
49	0xb10311a5	-1.9073039e-09
50	0xbc3f16e6	-0.011663174
51	0xb9dbc0eb	-0.0004191467
52	0xb53f0a0f	-7.116768e-07
53	0xb021c5af	-5.8852384e-10
54	0xb5d72d79	-1.6031983e-06
55	0xb610567d	-2.1508015e-06
56	0xb4a50535	-3.0737434e-07
57	0xa80b3f5e	-7.729791e-15
58	0xbbf39e22	-0.0074346224
59	0xbb2fadee	-0.002680655
60	0xbe0b9ceb	-0.13634078
61	0xbbc403f8	-0.0059819184
62	0xbde208c1	-0.11036826
63	0xbbad489c	-0.0052881967
64	0x3e8783fd	0.26467887
65	0xbdb82563	-0.08991506
66	0xbb879979	-0.0041381684
67	0xb9b50fe2	-0.00034534844
68	0xb59c76da	-1.1657496e-06
69	0x2e4d71dc	4.671273e-11
70	0xbddc92b3	-0.10770168
71	0xbac4e64d	-0.0015022248
72	0x3b9781a9	0.004623611
73	0xbaeccf40	-0.0018067136
74	0xb728edef	-1.0068979e-05
75	0xb6999c9b	-4.5779866e-06
76	0xbd86b7bf	-0.065780155
77	0x3a8c7b8b	0.0010717971
78	0x39b12bd3	0.00033792722
79	0xb55ded1b	-8.267395e-07
80	0xbb86c863	-0.0041132434
81	0xb8ef1241	-0.00011399808
82	0xba5c1790	-0.0008395845
83	0xb8ea0ec0	-0.00011160737
84	0xbd5cab37	-0.05387422
85	0xb34afcaa	-4.7261587e-08
86	0x3abe9e25	0.001454298
87	0x3714a01d	8.858767e-06
88	0xb8f56e67	-0.000117030744
89	0xb43bfc47	-1.750751e-07
90	0xbd210cae	-0.039318733
91	0xbb01c8c7	-0.001980351
92	0x3ca403b5	0.020021299
93	0x3c5d4654	0.013505537
94	0xbd03143e	-0.032001726
95	0xbb8b843e	-0.004257708
96	0xb7d80506	-2.5751546e-05
97	0x264407d7	6.8011785e-16
98	0xbb8ac980	-0.0042354465
99	0xbc3e938d	-0.011631859
100	0xb80e01ed	-3.385723e-05
101	0xb4ca6be6	-3.7703938e-07
102	0x3694559c	4.42071e-06
103	0xb3894e13	-6.393761e-08
104	0xa3a9ccae	-1.8409702e-17
105	0xa2d9d1d2	-5.9040124e-18
106	0x37474b3e	1.1878843e-05
107	0xab112b35	-5.157431e-13
108	0xbb0fe02a	-0.002195368
109	0x39f42c3b	0.0004657226
110	0xbc4ec014	-0.012619037
111	0xbafc4974	-0.0019247965
112	0xb414fb34	-1.3874961e-07
113	0xb1fe7d02	-7.4065847e-09
114	0xb8900030	-6.86649e-05
115	0xb6b1fd9f	-5.3045364e-06
116	0xbc18177c	-0.009282943
117	0xbb3d3d45	-0.002887563
118	0x3c7ecdb8	0.015551977
119	0x3b216447	0.002462642
120	0xbd1fcd7c	-0.039014325
121	0x3d6719cf	0.056421097
122	0x3d6346c5	0.055487413
123	0xba7f10f8	-0.00097300066
124	0x322ee1f9	1.0179513e-08
125	0xb20de2ec	-8.258876e-09
126	0x32cbacf8	2.3710967e-08
127	0x3201feb9	7.5667055e-09
128	0xba73fe4a	-0.00093076064
129	0xb8e33de2	-0.0001083573
130	0x2c476bdb	2.8339473e-12
131	0xab9b38d2	-1.1029183e-12
132	0x3c9ce21a	0.019150782
133	0xbc813493	-0.01577214
134	0x3cad5d6c	0.021162711
135	0xae1ca970	-3.5620784e-11
136	0x30a45f3a	1.1959636e-09
137	0xafd1bca3	-3.8150913e-10
138	0xbcd3046d	-0.025758946
139	0xbb94a599	-0.0045363423
140	0xb13ff4e8	-2.7933371e-09
141	0xa312e730	-7.963632e-18
142	0x2d3e5bb7	1.0820614e-11
143	0xa5c5628e	-3.4240836e-16
144	0xbd458c9d	-0.048229802
145	0xbac3f994	-0.0014951699
146	0xbb03a256	-0.0020085773
147	0xbb3f10c0	-0.002915427
148	0x31d407c2	6.170894e-09
149	0x998e769d	-1.4730363e-23
150	0xbb6536bb	-0.003497525
151	0xbb9a30ec	-0.004705539
152	0xaabc273c	-3.3422733e-13
153	0xa8fb9d56	-2.7934832e-14
154	0x3edd7d00	0.4325943
155	0x3e436246	0.19080457
156	0xbd3e14e3	-0.046406638
157	0xba740742	-0.0009308943
158	0xba303e7b	-0.00067231775
159	0xb9b20c48	-0.00033959956
160	0xbd9e6d83	-0.077357315
161	0xbb9aecdc	-0.004727943
162	0xb51b577c	-5.7869306e-07
163	0xadec335e	-2.6852905e-11
164	0xba6022af	-0.000855009
165	0xb9bd0de5	-0.0003605924
166	0xb30fb1c6	-3.3456466e-08
167	0x2df94778	2.8339761e-11
168	0x33388255	4.2959375e-08
169	0xb3513f70	-4.87193e-08
170	0x317ba3e3	3.6618466e-09
171	0xad667f9d	-1.3102322e-11
172	0xaf9ad807	-2.8165933e-10
173	0xad59c7ae	-1.237936e-11
174	0xa3865f10	-1.456857e-17
175	0xa1eb61d4	-1.5950114e-18
176	0x395e7cfa	0.00021218127
177	0xb0c9c1e4	-1.4679782e-09
178	0xbb0d0987	-0.0021520571
179	0x3a114e3e	0.000554297
180	0xb20003c0	-7.451433e-09
181	0xb0396ea0	-6.7459816e-10
182	0xb6063616	-1.9999038e-06
183	0xb5d8c77a	-1.6151309e-06
184	0xb099022c	-1.1132832e-09
185	0xa7f60d80	-6.8293353e-15
186	0xbce93785	-0.028468857
187	0xbc11191c	-0.008856084
188	0xbd078293	-0.03308351
189	0x3b797c7f	0.003806859
190	0xbcc3c11e	-0.023895796
191	0xbb4e8de5	-0.0031517681
192	0xbee327ff	-0.44366452
193	0xbcb7beed	-0.022429908
194	0xbb135fa7	-0.0022487433
195	0xba1efead	-0.00060651713
196	0x2f3df5c5	1.7276765e-10
197	0xac9938b9	-4.354819e-12
198	0xbdc48655	-0.09595934
199	0x3c009f07	0.007850415
200	0x3b8281b2	0.003982746
201	0xba93036d	-0.0011216231
202	0xb5a8f89a	-1.2589328e-06
203	0xb6a81048	-5.0086855e-06
204	0xbdaaa973	-0.08333101
205	0x3c0da10f	0.008644356
206	0x35fff73e	1.9070937e-06
207	0xb52fd7b6	-6.550648e-07
208	0xba1aa5c1	-0.0005899333
209	0xb89269d1	-6.981532e-05
210	0xb97d4186	-0.0002415237
211	0xb88af646	-6.626225e-05
212	0xbca2f0b0	-0.01989016
213	0xb41f4248	-1.4832142e-07
214	0xb94609cc	-0.00018886401
215	0x35c7ad1c	1.4877037e-06
216	0xb7082d63	-8.116799e-06
217	0xb44dcee1	-1.9167375e-07
218	0xbd3dcdc0	-0.046338797
219	0xba01b4a0	-0.00049478747
220	0xbe1532c1	-0.14570142
221	0x3d71882e	0.05896776
222	0x3b856082	0.0040703425
223	0xbb84d63f	-0.0040538604
224	0xb258c0b4	-1.261667e-08
225	0xa63d30f9	-6.563892e-16
226	0x3b982c82	0.0046439776
227	0xbc41c802	-0.011827471
228	0x38001187	3.05339e-05
229	0xb57b4f44	-9.3620133e-07
230	0x3cdabff7	0.026702864
231	0xb38959e3	-6.39591e-08
232	0xb684b2a7	-3.9547044e-06
233	0xa2debf8d	-6.0376033e-18
234	0x35a6941c	1.2411069e-06
235	0xaa4359dd	-1.7350657e-13
236	0xbca5db37	-0.020246131
237	0xba8cd0a7	-0.0010743336
238	0xbbc3d954	-0.0059768353
239	0xbb09e9f9	-0.0021044
240	0xb39d78fd	-7.33289e-08
241	0xb1dbf34e	-6.4013994e-09
242	0xb838bf9a	-4.404746e-05
243	0xb6ce58ca	-6.149615e-06
244	0xbac423a2	-0.0014964233
245	0xbab8c9a3	-0.0014098178
246	0x3e52fe18	0.20604742
247	0x3c9f8eb4	0.019477226
248	0x3e009abc	0.12559026
249	0x3e4e6d1c	0.2015881
250	0x3db44dd8	0.0880391
251	0x3aafdec2	0.0013417827
252	0x32f2afe9	2.8252503e-08
253	0xb12b9a20	-2.4971385e-09
254	0x341f8f56	1.4860174e-07
255	0xb28a95de	-1.6133466e-08

lstm.weight_hh_l0 f4 [256, 64]
0	0x35611ceb	8.3861113e-07
1	0x2ee4820a	1.0391339e-10
2	0xb6e1d1d4	-6.7299497e-06
3	0x2f8bcffd	2.5431737e-10
4	0x31b7cd97	5.349374e-09
5	0xb74d21aa	-1.222679e-05
6	0xab5ecf47	-7.91579e-13
7	0xae1b285b	-3.5278763e-11
8	0xb7aeec7a	-2.0852534e-05
9	0xb724dd73	-9.826722e-06
10	0xa648a50b	-6.9612614e-16
11	0xb7b1a607	-2.1177357e-05
12	0xacedb25f	-6.7557483e-12
13	0x37e40174	2.7180395e-05
14	0x37811863	1.5389354e-05
15	0x35c3f86a	1.460093e-06
16	0xb79f33f5	-1.8978471e-05
17	0x2e8a5c13	6.291869e-11
18	0xb6900f27	-4.2932984e-06
19	0x310b560a	2.027607e-09
20	0x33ddca4f	1.0327914e-07
21	0x30e58ba4	1.6701631e-09
22	0x2dcb5dfc	2.3120166e-11
23	0x2b44fa77	6.998078e-13
24	0xb0f69ca2	-1.7943373e-09
25	0x358851dc	1.0156614e-06
26	0x31714450	3.5108947e-09
27	0xb33ec554	-4.441729e-08
28	0x2c2da9d2	2.4679048e-12
29	0xb69d6f8a	-4.6919495e-06
30	0x36b26c22	5.3174017e-06
31	0xb7d2ec18	-2.514389e-05
32	0xb7e61c96	-2.7431448e-05
33	0x33efcbbb	1.1166363e-07
34	0xafd7f241	-3.9280404e-10
35	0x376ab291	1.3989063e-05
36	0xb806e9da	-3.216588e-05
37	0x353c98c5	7.0257767e-07
38	0x38133d95	3.5104884e-05
39	0x33d0e99f	9.72825e-08
40	0xb4c6a030	-3.6996926e-07
41	0xb542af73	-7.2525944e-07
42	0xb39bc753	-7.254007e-08
43	0x35182ad0	5.6686713e-07
44	0xb3049f06	-3.0878276e-08
45	0x37d3b9bb	2.5239648e-05
46	0xb812e050	-3.501802e-05
47	0xb6f44f51	-7.2810003e-06
48	0xaca115b2	-4.578304e-12
49	0xb775b400	-1.46450475e-05
50	0xb3be26eb	-8.8546436e-08
51	0xb3404173	-4.476301e-08
52	0x2a1f69be	1.4158724e-13
53	0xaf75dcb1	-2.2361026e-10
54	0x38e89514	0.0001109039
55	0xb684f1bc	-3.962048e-06
56	0xb25b1641	-1.2752538e-08
57	0x338c5c01	6.5359934e-08
58	0x3624bcce	2.4547803e-06
59	0xb6a338e1	-4.8644e-06
60	0xb8953a42	-7.115725e-05
61	0xb814e8c3	-3.5502726e-05
62	0xb3cba371	-9.482654e-08
63	0x32349ca0	1.0512991e-08
64	0x294d3ee6	4.55737e-14
65	0x22458fa6	2.6774525e-18
66	0xa5424e36	-1.6853317e-16
67	0xa37014ab	-1.3014803e-17
68	0xa4e8286b	-1.0068243e-16
69	0x2a55e1a0	1.899648e-13
70	0x9d6478cc	-3.0238e-21
71	0x9e21dcd9	-8.568939e-21
72	0x28db5fc8	2.4355423e-14
73	0x2a7650a5	2.1877168e-13
74	0x170a91d2	4.4774256e-25
75	0x2b365e30	6.47901e-13
76	0xa08dca6d	-2.4020283e-19
77	0x2a2f6af7	1.5580233e-13
78	0x2b01759f	4.599324e-13
79	0x289f1181	1.7660137e-14
80	0x2ac3d9de	3.4790134e-13
81	0xa2e0202a	-6.0749377e-18
82	0xa933541b	-3.9818934e-14
83	0x2387b9f0	1.4715477e-17
84	0x25734291	2.1099444e-16
85	0xa23db1b0	-2.5708343e-18
86	0xa38108de	-1.3989963e-17
87	0x9d09f9a9	-1.826087e-21
88	0xa31e60a3	-8.585661e-18
89	0xa99fa9c1	-7.090466e-14
90	0x250a6412	1.2003497e-16
91	0xa7333654	-2.4870692e-15
92	0x9f921fff	-6.188634e-20
93	0x28de50b9	2.4681959e-14
94	0xaa2c5b1a	-1.5308276e-13
95	0xa9475138	-4.4257322e-14
96	0x2baf865c	1.247179e-12
97	0x2938590e	4.093345e-14
98	0xa3c245cf	-2.1063087e-17
99	0x2a8d47c2	2.5096423e-13
100	0x293525fa	4.0223013e-14
101	0xa80d209c	-7.834143e-15
102	0x2b87ec35	9.657888e-13
103	0x26d23f34	1.4588808e-15
104	0xa92ed741	-3.8822464e-14
105	0xa7611eb1	-3.124166e-15
106	0xa6bb3bb2	-1.2991912e-15
107	0x27727cbc	3.3651865e-15
108	0x24fa528f	1.0856008e-16
109	0x2b3a1332	6.6107113e-13
110	0xaba067bc	-1.1397476e-12
111	0xaac3f2f9	-3.4807555e-13
112	0x1ec5789e	2.0908072e-20
113	0x2b322906	6.3295235e-13
114	0xa7911589	-4.0268933e-15
115	0x25aeaae9	3.0300002e-16
116	0x1e1665d3	7.961991e-21
117	0x2122d579	5.5170264e-19
118	0x296c50cf	5.2472617e-14
119	0xa9a730d2	-7.424759e-14
120	0xa5c593bd	-3.4274164e-16
121	0xa81e9ec8	-8.805192e-15
122	0xa8a89150	-1.8714766e-14
123	0x2802783a	7.24252e-15
124	0xab11d9fb	-5.1816857e-13
125	0x2a0a3c54	1.2277793e-13
126	0x25119a3b	1.2629e-16
127	0xa58c0df7	-2.4295592e-16
128	0xb890423e	-6.878794e-05
129	0xb332fe9b	-4.1675417e-08
130	0xba28a9e1	-0.00064340053
131	0x32c49a65	2.2887614e-08
132	0xb4932633	-2.7408677e-07
133	0x3ac0e6f3	0.0014717266
134	0x2f26a78d	1.5157138e-10
135	0x2fb95c46	3.3716868e-10
136	0xbacd69bb	-0.0015671769
137	0x392fd253	0.00016767652
138	0xa91f1c7e	-3.5329805e-14
139	0xba768b72	-0.0009404934
140	0xaf2cf4fc	-1.5730345e-10
141	0x3ac899e3	0.0015304651
142	0x3ad82555	0.0016490618
143	0x392bd630	0.00016387622
144	0x3ac1ca97	0.0014785108
145	0xb1b59dc9	-5.2857314e-09
146	0x39d4794e	0.0004052617
147	0x331cd945	3.6519186e-08
148	0x36fc61cf	7.5215717e-06
149	0x3402f565	1.2196467e-07
150	0xb29e8e2e	-1.8458277e-08
151	0x2dab3fd6	1.9468798e-11
152	0xb39832bc	-7.08728e-08
153	0xb919440a	-0.00014616564
154	0x3495e050	2.7916622e-07
155	0x37e7a6fc	2.7615104e-05
156	0x306fc555	8.722812e-10
157	0xbaed9017	-0.0018124607
158	0xb79e7f75	-1.889442e-05
159	0x391919ad	0.00014600782
160	0xbaaa09b0	-0.0012972858
161	0x38267dd0	3.9694656e-05
162	0xb397c32e	-7.0669884e-08
163	0x3ad12751	0.0015957152
164	0x39b517da	0.0003454078
165	0xb605f33e	-1.996013e-06
166	0x3b4dca30	0.003140103
167	0x358f7a22	1.0689876e-06
168	0x39a01ec6	0.00030540506
169	0x37d9cbe3	2.5963358e-05
170	0xb6e516f6	-6.827405e-06
171	0xb651fe8e	-3.1291597e-06
172	0xb6875bc3	-4.033996e-06
173	0x3b18ef3c	0.0023335954
174	0xbb433701	-0.0029787424
175	0x39a87158	0.00032127905
176	0xb018b31d	-5.5551813e-10
177	0x3b2b74f4	0.0026162239
178	0xb58baba5	-1.0406262e-06
179	0x35a94daf	1.261409e-06
180	0x2e2d57ef	3.9413747e-11
181	0x31e7fa97	6.7514736e-09
182	0xba31dc61	-0.0006784853
183	0x3a3ada87	0.00071279
184	0xb57cb447	-9.4139654e-07
185	0xb48ec54e	-2.659312e-07
186	0xba0372d6	-0.00050143653
187	0x3a9771ec	0.0011554337
188	0xba19fe32	-0.0005874365
189	0x3aa06e73	0.0012239948
190	0x353892b9	6.875885e-07
191	0x3483429f	2.4449125e-07
192	0xab879224	-9.632889e-13
193	0x24cc9f63	8.874091e-17
194	0xacafb5db	-4.993989e-12
195	0xa5a94909	-2.9366317e-16
196	0x26aca163	1.1978641e-15
197	0xac6bb976	-3.349846e-12
198	0xa0bc1be4	-3.1866895e-19
199	0xa210a623	-1.9603591e-18
200	0xab82ec3a	-9.302622e-13
201	0x2bf13f3d	1.7141632e-12
202	0x9b82089d	-2.1512262e-22
203	0x2aecbc63	4.205274e-13
204	0xa3d53423	-2.3115587e-17
205	0x2c8c0d17	3.9804926e-12
206	0x2b9a7d6b	1.0977169e-12
207	0x2abd97a7	3.3678374e-13
208	0xac8e300a	-4.041216e-12
209	0x2572bd31	2.1054255e-16
210	0x2a890e97	2.4346212e-13
211	0x2629582a	5.875314e-16
212	0x29a9f539	7.547647e-14
213	0x258ce2bd	2.4439772e-16
214	0x2616879b	5.2225484e-16
215	0x1d2c1b2f	2.2778064e-21
216	0xa5adc985	-3.014727e-16
217	0x2cb66c44	5.184771e-12
218	0xa53937ad	-1.6065056e-16
219	0x2a5f4f91	1.9833984e-13
220	0x221de3b7	2.1398019e-18
221	0x2c0f5678	2.0369522e-12
222	0x2c2d2c4b	2.4609366e-12
223	0xac63f0db	-3.2392342e-12
224	0xad8e73ea	-1.6195007e-11
225	0xac00b55c	-1.8290569e-12
226	0xa6c4f709	-1.3667191e-15
227	0xaa4ad436	-1.801483e-13
228	0xac4df0e7	-2.926598e-12
229	0xa8472405	-1.105453e-14
230	0x2c9d1069	4.4640303e-12
231	0x2886cb3f	1.4965132e-14
232	0x2c1b61de	2.2081152e-12
233	0xab43dfe3	-6.958862e-13
234	0xa897c111	-1.6848097e-14
235	0x2a616fd8	2.0022818e-13
236	0xa88ad316	-1.5412622e-14
237	0x2c2ce4fb	2.456978e-12
238	0x2b097dae	4.8846593e-13
239	0x2d32fb14	1.0173879e-11
240	0xa26c7ea6	-3.2051011e-18
241	0x2c7d369c	3.5983777e-12
242	0xa97144b9	-5.3572357e-14
243	0xa9b6caf1	-8.1176283e-14
244	0xa03d3698	-1.6026986e-19
245	0xa3b0c8ab	-1.9166944e-17
246	0x2bd20fcf	1.4925785e-12
247	0x2cbb3e8f	5.321805e-12
248	0x25ab47ae	2.9712343e-16
249	0xa98a0901	-6.129993e-14
250	0xaa501630	-1.8481809e-13
251	0xacde9c36	-6.3269624e-12
252	0xada1b5bc	-1.8384287e-11
253	0x2c94d91b	4.2305165e-12
254	0xa500dcdf	-1.1177064e-16
255	0xa73ee154	-2.6489947e-15

lstm.bias_ih_l0 f4 [256]
0	0xb93aefb6	-0.00017827642
1	0xabd71433	-1.5282275e-12
2	0xbbe3c841	-0.0069513624
3	0xae422093	-4.4139425e-11
4	0xafb4fcc2	-3.2921404e-10
5	0xbb654727	-0.0034985037
6	0xa3c4d3ff	-2.1340146e-17
7	0xab3f8e25	-6.8054096e-13
8	0xba43e3ea	-0.00074726215
9	0xbb7a4713	-0.0038189336
10	0x99deaf88	-2.3025159e-23
11	0xbc1f9f21	-0.009742529
12	0xa958b463	-4.8118095e-14
13	0x3d27e476	0.04098936
14	0xba350f9a	-0.0006906927
15	0x38ef760c	0.00011418396
16	0xbca3707d	-0.0199511
17	0xae306588	-4.0107945e-11
18	0xba72640e	-0.00092464767
19	0x2f3326f8	1.62938e-10
20	0x35044aef	4.9282875e-07
21	0xadcd5fe6	-2.334839e-11
22	0xad822735	-1.47967e-11
23	0xa3155d00	-8.097e-18
24	0xb20eaf1d	-8.305304e-09
25	0xba988b15	-0.0011638129
26	0xb0427619	-7.0744616e-10
27	0xb605a13e	-1.99124e-06
28	0xa81c3d04	-8.67297e-15
29	0xbab46683	-0.0013763461
30	0xba4be398	-0.00077777496
31	0xbc3b590c	-0.011434805
32	0x3d3206d0	0.04346353
33	0xba91333d	-0.0011077892
34	0x2ebb585e	8.5194726e-11
35	0x3bf6d37b	0.0075325347
36	0xba4b45b7	-0.0007754224
37	0xb6eafb12	-7.002972e-06
38	0x3bfd31b2	0.0077268714
39	0xb5f57a92	-1.8289595e-06
40	0xb909abe1	-0.00013129368
41	0xb9119dac	-0.00013887015
42	0xb4c65e6d	-3.6949078e-07
43	0x372213bf	9.66055e-06
44	0xb4d6ce17	-4.0010556e-07
45	0xb9f2adaf	-0.0004628724
46	0x3dce5634	0.10075036
47	0xbb9c620a	-0.0047724294
48	0xa687d278	-9.424554e-16
49	0xbc3cb564	-0.011517856
50	0xb5a9ccca	-1.2651083e-06
51	0xb414345d	-1.3802624e-07
52	0xa369dd84	-1.2677863e-17
53	0xaa93dff6	-2.626785e-13
54	0xb8fc184e	-0.000120208235
55	0xbab32c56	-0.0013669829
56	0xb1cc0d27	-5.9386767e-09
57	0xb71e6523	-9.441082e-06
58	0xbc0a81c0	-0.008453786
59	0xbb0b7397	-0.0021278614
60	0x3dbc9db4	0.09209767
61	0xbb4a320a	-0.003085258
62	0xb21c4c17	-9.097696e-09
63	0x32a5c611	1.9298598e-08
64	0xb947649f	-0.00019015603
65	0xac0c83c5	-1.9968343e-12
66	0xbc85e080	-0.016342402
67	0xb0869a55	-9.793647e-10
68	0xb05ce16f	-8.0355894e-10
69	0xbc5296b2	-0.012853311
70	0xa3ac4087	-1.8675606e-17
71	0xa5b374ab	-3.1130608e-16
72	0x3a28fb46	0.0006446134
73	0xbbc04441	-0.0058675115
74	0x192b7917	8.864947e-24
75	0xbc09b1ef	-0.008404239
76	0xa90bda4c	-3.1053542e-14
77	0x3e322d37	0.1740006
78	0x394b8f09	0.00019412873
79	0x38d9233a	0.00010353928
80	0xbc83140b	-0.016000768
81	0xb102d195	-1.9036623e-09
82	0xb9155a93	-0.00014243489
83	0x2f53ed86	1.9274723e-10
84	0x34367f5d	1.6996405e-07
85	0xadbf1851	-2.1724985e-11
86	0xad73b503	-1.38531435e-11
87	0xa269986e	-3.1658084e-18
88	0xb1784f1a	-3.6133714e-09
89	0xbaaf9e36	-0.0013398591
90	0x32f73018	2.8776455e-08
91	0xb67cdc15	-3.767903e-06
92	0xa85fea74	-1.2429826e-14
93	0xbc663298	-0.014050148
94	0x3cfcf052	0.030876312
95	0xbbf36d47	-0.0074287984
96	0x3e77afc4	0.24188143
97	0xba8108c5	-0.0009844532
98	0xb5b13fb5	-1.3206069e-06
99	0x3d436402	0.047702797
100	0xbb0bec3d	-0.0021350526
101	0xb70e8d5a	-8.4967705e-06
102	0x3cfcd97e	0.030865427
103	0xb50f09fe	-5.328619e-07
104	0xb8df93cd	-0.00010660999
105	0xb94e8153	-0.00019693868
106	0xb35d098d	-5.146426e-08
107	0xb9142c54	-0.00014130893
108	0xb51651aa	-5.599819e-07
109	0x39f654a5	0.00046983841
110	0x3e711adf	0.23545407
111	0xbb9ed09a	-0.0048466446
112	0xa3ecc6a1	-2.5671294e-17
113	0xbcc2c200	-0.023774147
114	0xbbc93a5f	-0.0061409916
115	0xb46ef40c	-2.2254261e-07
116	0xa35b96a0	-1.190391e-17
117	0xaaad1db9	-3.0751598e-13
118	0xbaef3696	-0.0018250521
119	0xbb1ef79d	-0.0024256476
120	0xaeae39b9	-7.9228575e-11
121	0xb7046fcf	-7.893846e-06
122	0xbb065ec1	-0.0020503255
123	0x3c9a3369	0.018823342
124	0x3ea39288	0.31947732
125	0x3b4caad3	0.003122975
126	0xb27ecbe6	-1.4831107e-08
127	0xb2d61423	-2.4922036e-08
128	0xba463f8e	-0.0007562571
129	0xb3d735e9	-1.0021524e-07
130	0xbcaa618f	-0.020798473
131	0xb4fb6c0c	-4.6831008e-07
132	0xb49c4697	-2.9108625e-07
133	0xbc3313ec	-0.010930043
134	0xaf2ef5b2	-1.5912496e-10
135	0xb1a5ac9f	-4.8217568e-09
136	0x3bc7ee12	0.0061013782
137	0xba63efba	-0.0008695085
138	0xa958fa7e	-4.8178902e-14
139	0xba289848	-0.0006431383
140	0x3219e5e3	8.958042e-09
141	0xbdc28c7b	-0.09499451
142	0xbc31b2ee	-0.010845883
143	0x3a9e2caa	0.0012067754
144	0xbb4b0b3e	-0.0030982043
145	0x3692d4db	4.3759187e-06
146	0x3ad5ea01	0.0016320349
147	0x346daf38	2.2136089e-07
148	0x38fd1db6	0.00012069514
149	0x34b927d6	3.448792e-07
150	0x348faf3b	2.6763323e-07
151	0x2d8769ed	1.5394764e-11
152	0x36fbc763	7.5035946e-06
153	0x3b67e9b6	0.0035387105
154	0xb78ab103	-1.653331e-05
155	0x379df6b3	1.8830737e-05
156	0x31b4d3d9	5.2627738e-09
157	0x3937d836	0.00017532785
158	0x3d222903	0.039589893
159	0xbc19eb6a	-0.009394506
160	0xbe389cc9	-0.18028559
161	0x3a6ff0e6	0.0009153023
162	0xb687264d	-4.0277723e-06
163	0xbc34fff0	-0.011047348
164	0xba5d3517	-0.0008438392
165	0xb96231c0	-0.00021571573
166	0xbc509bfd	-0.012732503
167	0xb869692c	-5.5649478e-05
168	0xb84bbc3d	-4.8574282e-05
169	0x39b0c54b	0.0003371633
170	0x394aa44d	0.00019325428
171	0x3a8b6d4d	0.0010637433
172	0x38575b90	5.134527e-05
173	0xbc560b69	-0.013064244
174	0xbc1f78d4	-0.0097333975
175	0x3c338df0	0.0109591335
176	0xb08d344c	-1.0273964e-09
177	0xbb83544c	-0.0040078517
178	0xb8e8738d	-0.00011084145
179	0xb708943d	-8.140746e-06
180	0xaf0e9470	-1.296756e-10
181	0xb333e9d5	-4.1889354e-08
182	0x3bbaacfc	0.005696891
183	0xbbcb90ff	-0.0062123532
184	0x38420c55	4.626469e-05
185	0xb92bcb01	-0.00016383456
186	0xbb0942aa	-0.0020944276
187	0xbbe4e6de	-0.0069855293
188	0xbdd27d59	-0.102778144
189	0xbe792151	-0.24329115
190	0x3615142b	2.221447e-06
191	0x37185345	9.079294e-06
192	0xb93b560b	-0.00017865763
193	0xac19bacf	-2.1846307e-12
194	0xbcacfb2f	-0.021115867
195	0xaf20f747	-1.4639766e-10
196	0xafa3e8ec	-2.9815028e-10
197	0xbc0fea0f	-0.008783831
198	0xa3e21418	-2.4511479e-17
199	0xb2b295a3	-2.0789974e-08
200	0xba9b539e	-0.0011850481
201	0xbb932b38	-0.004491236
202	0xa61f51d8	-5.5275126e-16
203	0xbc0d6eb3	-0.00863235
204	0xa97138d2	-5.3562034e-14
205	0x3d8c9198	0.06863707
206	0xbb098ba8	-0.0020987783
207	0x38efb02b	0.00011429222
208	0xbcad58af	-0.021160452
209	0xbc028c94	-0.007968087
210	0xbab4ebab	-0.0013803145
211	0x2f4a6af2	1.8409788e-10
212	0x33fcb40f	1.1767417e-07
213	0xad79d976	-1.4202297e-11
214	0xb0deadc3	-1.6202012e-09
215	0xb09f9327	-1.1610596e-09
216	0xb20eee98	-8.319738e-09
217	0xbaa088d2	-0.0012247807
218	0xb07bc620	-9.159482e-10
219	0xb574f467	-9.1252736e-07
220	0xb1b8654f	-5.3666223e-09
221	0xbbb380cb	-0.005478
222	0x3ba37d7f	0.0049893255
223	0xbc440116	-0.0119631495
224	0x3d7dd66c	0.061972067
225	0xba0e6326	-0.00054316444
226	0xadf7776e	-2.8133686e-11
227	0x3c3f70d2	0.011684613
228	0xb9837988	-0.00025076815
229	0xb73cd7c6	-1.1255912e-05
230	0x3c896a46	0.016774308
231	0xb936e974	-0.0001744384
232	0xb9120e71	-0.00013929025
233	0xb90e4e1c	-0.00013571273
234	0xb8347585	-4.3024793e-05
235	0x37162f69	8.951735e-06
236	0xb51ad04a	-5.767257e-07
237	0xbbc6a8db	-0.0060626096
238	0x3e05ab86	0.13053712
239	0xbbbffcd7	-0.0058589983
240	0xa740dd36	-2.6765271e-15
241	0xbc816b6d	-0.015798295
242	0xbae60752	-0.0017549789
243	0xb5e0457f	-1.6709527e-06
244	0xa3528954	-1.1413203e-17
245	0xaa807009	-2.2815108e-13
246	0xb96049ac	-0.0002138975
247	0xbac1b522	-0.0014778713
248	0xb9837c7b	-0.00025079012
249	0xb70c84ce	-8.375571e-06
250	0xba1678f3	-0.0005740069
251	0xbb0b146a	-0.0021221885
252	0x3e429c4a	0.19004932
253	0xbc029cb6	-0.007971933
254	0x324b42bb	1.1831328e-08
255	0xb3137554	-3.4332814e-08

lstm.bias_hh_l0 f4 [256]
0	0xb93aefc1	-0.00017827658
1	0xabd71423	-1.5282258e-12
2	0xbbe3c846	-0.0069513647
3	0xae42249d	-4.4143012e-11
4	0xafb4fcbb	-3.2921385e-10
5	0xbb654721	-0.0034985023
6	0xa3c4d3bb	-2.1340034e-17
7	0xab3f8c48	-6.805151e-13
8	0xba43e3ea	-0.00074726215
9	0xbb7a4718	-0.0038189348
10	0x99dead11	-2.3024163e-23
11	0xbc1f9f75	-0.009742607
12	0xa958b465	-4.8118102e-14
13	0x3d27e475	0.040989358
14	0xba350fb9	-0.0006906945
15	0x38ef7593	0.00011418308
16	0xbca3707d	-0.0199511
17	0xae306589	-4.0107948e-11
18	0xba7262b1	-0.00092462735
19	0x2f3326ff	1.629381e-10
20	0x35044aef	4.9282875e-07
21	0xadcd5ffb	-2.3348426e-11
22	0xad822737	-1.4796704e-11
23	0xa3155a66	-8.096449e-18
24	0xb20eaf1d	-8.305304e-09
25	0xba988c6d	-0.001163853
26	0xb042757e	-7.0743755e-10
27	0xb605a133	-1.9912375e-06
28	0xa81c3d0c	-8.672977e-15
29	0xbab46684	-0.0013763462
30	0xba4be396	-0.00077777484
31	0xbc3b590a	-0.011434803
32	0x3d3206d1	0.043463532
33	0xba91333d	-0.0011077892
34	0x2ebb5882	8.5194976e-11
35	0x3bf6d389	0.007532541
36	0xba4b456e	-0.0007754181
37	0xb6eafb10	-7.002971e-06
38	0x3bfd31ad	0.007726869
39	0xb5f57a9e	-1.8289609e-06
40	0xb909abe3	-0.00013129371
41	0xb9119dba	-0.00013887035
42	0xb4c65e6d	-3.6949078e-07
43	0x372213c3	9.660554e-06
44	0xb4d6ce22	-4.0010588e-07
45	0xb9f2ad90	-0.0004628715
46	0x3dce5631	0.100750335
47	0xbb9c6181	-0.0047723656
48	0xa687d275	-9.424551e-16
49	0xbc3cb5a4	-0.011517916
50	0xb5a9cccd	-1.2651086e-06
51	0xb414345d	-1.3802624e-07
52	0xa369dd8b	-1.2677869e-17
53	0xaa93e004	-2.6267888e-13
54	0xb8fc1857	-0.0001202083
55	0xbab344e9	-0.0013677153
56	0xb1cc0f29	-5.938905e-09
57	0xb71e64a7	-9.440969e-06
58	0xbc0a81bf	-0.008453785
59	0xbb0b7397	-0.0021278614
60	0x3dbc9dad	0.09209762
61	0xbb4a320a	-0.003085258
62	0xb21c4c1a	-9.097699e-09
63	0x32a5c5f7	1.9298552e-08
64	0xb947646f	-0.00019015533
65	0xac0c83de	-1.9968398e-12
66	0xbc85e0a0	-0.016342461
67	0xb08699fa	-9.793546e-10
68	0xb05cdeb3	-8.035201e-10
69	0xbc5296b2	-0.012853311
70	0xa3ac4083	-1.8675599e-17
71	0xa5b375b1	-3.11313e-16
72	0x3a28fb8a	0.00064461736
73	0xbbc042e9	-0.0058673513
74	0x192b8104	8.866547e-24
75	0xbc09b1fe	-0.008404253
76	0xa90bdac6	-3.1053956e-14
77	0x3e322d37	0.1740006
78	0x394b8f36	0.00019412939
79	0x38d91552	0.000103513376
80	0xbc831372	-0.016000483
81	0xb102d1a7	-1.9036663e-09
82	0xb9155861	-0.00014242671
83	0x2f53ed88	1.9274726e-10
84	0x34367f57	1.6996397e-07
85	0xadbf1873	-2.1725044e-11
86	0xad73b503	-1.38531435e-11
87	0xa2699874	-3.1658096e-18
88	0xb1784db3	-3.6132917e-09
89	0xbaaf9e38	-0.0013398593
90	0x32f72fb3	2.8776276e-08
91	0xb67cdae1	-3.767833e-06
92	0xa85fea8d	-1.2429847e-14
93	0xbc66325b	-0.014050092
94	0x3cfcf054	0.030876316
95	0xbbf36d46	-0.007428798
96	0x3e77afc3	0.24188142
97	0xba8108e0	-0.0009844564
98	0xb5b13fb5	-1.3206069e-06
99	0x3d436402	0.047702797
100	0xbb0b7772	-0.0021280912
101	0xb70e8d5b	-8.496771e-06
102	0x3cfcd986	0.030865442
103	0xb50f0a02	-5.3286215e-07
104	0xb8df93b2	-0.00010660979
105	0xb94e83af	-0.00019694747
106	0xb35d098d	-5.146426e-08
107	0xb9142c54	-0.00014130893
108	0xb51651ab	-5.5998197e-07
109	0x39f654a5	0.00046983841
110	0x3e711ad5	0.23545392
111	0xbb9ed0f4	-0.0048466865
112	0xa3e2c3d1	-2.45859e-17
113	0xbcc2bfa7	-0.023773028
114	0xbbc93158	-0.0061399154
115	0xb46ef40c	-2.2254261e-07
116	0xa35b968e	-1.1903895e-17
117	0xaaad1dbf	-3.0751614e-13
118	0xbaef3694	-0.0018250518
119	0xbb1ef726	-0.0024256199
120	0xaeae3e08	-7.923623e-11
121	0xb7046fc0	-7.893832e-06
122	0xbb065de9	-0.0020502752
123	0x3c9a3369	0.018823342
124	0x3ea39289	0.31947735
125	0x3b4caae3	0.0031229786
126	0xb27ecb40	-1.483096e-08
127	0xb2d6129a	-2.4921338e-08
128	0xba463f8c	-0.000756257
129	0xb3d7464c	-1.00245046e-07
130	0xbcaa618f	-0.020798473
131	0xb4fb6c0c	-4.6831008e-07
132	0xb49c468e	-2.91086e-07
133	0xbc3313df	-0.010930031
134	0xaf2ef5d5	-1.5912545e-10
135	0xb1a5aca5	-4.8217594e-09
136	0x3bc7ee21	0.006101385
137	0xba63f127	-0.00086952973
138	0xa95b5990	-4.870545e-14
139	0xba289e55	-0.0006432285
140	0x3219e5d4	8.958029e-09
141	0xbdc28c7c	-0.094994515
142	0xbc31b2fd	-0.010845897
143	0x3a9e2cb8	0.0012067771
144	0xbb4b0b48	-0.0030982066
145	0x3692d4db	4.3759187e-06
146	0x3ad5ea00	0.0016320348
147	0x346daf3b	2.2136093e-07
148	0x38fd1d61	0.00012069452
149	0x34b927d3	3.448791e-07
150	0x348faf5b	2.6763414e-07
151	0x2d8769fb	1.5394788e-11
152	0x36fbc767	7.5035964e-06
153	0x3b67e9ab	0.003538708
154	0xb78ab10a	-1.6533322e-05
155	0x379df69c	1.8830695e-05
156	0x31b4d3e4	5.2627787e-09
157	0x3937d82a	0.00017532767
158	0x3d222946	0.039590143
159	0xbc19eb74	-0.009394515
160	0xbe389cc9	-0.18028559
161	0x3a6ff0ad	0.000915299
162	0xb6872687	-4.0277987e-06
163	0xbc34fdfd	-0.011046884
164	0xba5d35f8	-0.0008438523
165	0xb96231c3	-0.00021571577
166	0xbc509c02	-0.012732508
167	0xb8696944	-5.5649565e-05
168	0xb84bbe36	-4.857612e-05
169	0x39b0c56f	0.00033716435
170	0x394aa3e1	0.00019325271
171	0x3a8b6d4d	0.0010637433
172	0x38575b95	5.1345287e-05
173	0xbc560b6c	-0.013064247
174	0xbc1f78d2	-0.009733396
175	0x3c338de3	0.010959121
176	0xb08d344c	-1.0273964e-09
177	0xbb83536b	-0.004007747
178	0xb8e87145	-0.0001108372
179	0xb708943c	-8.140745e-06
180	0xaf0e9418	-1.2967438e-10
181	0xb333e9b5	-4.188924e-08
182	0x3bbaacfc	0.005696891
183	0xbbcb9101	-0.006212354
184	0x38420c5d	4.626472e-05
185	0xb92bca68	-0.00016383233
186	0xbb0942a8	-0.0020944271
187	0xbbe4e6d8	-0.0069855265
188	0xbdd27d59	-0.102778144
189	0xbe79227e	-0.24329564
190	0x3615143f	2.2214515e-06
191	0x37185343	9.079292e-06
192	0xb93b561c	-0.00017865788
193	0xac19bad1	-2.1846312e-12
194	0xbcacfb2f	-0.021115867
195	0xaf20f66a	-1.4639459e-10
196	0xafa3e8ee	-2.9815034e-10
197	0xbc0fea10	-0.008783832
198	0xa3e213ee	-2.451141e-17
199	0xb2b296c8	-2.0790495e-08
200	0xba9b539d	-0.001185048
201	0xbb932b33	-0.0044912337
202	0xa61f5156	-5.5274437e-16
203	0xbc0d6e32	-0.00863223
204	0xa97138d2	-5.3562034e-14
205	0x3d8c9199	0.06863708
206	0xbb098ba9	-0.0020987785
207	0x38efaf3e	0.000114290495
208	0xbcad58af	-0.021160452
209	0xbc028c9c	-0.007968094
210	0xbab4eb20	-0.0013802983
211	0x2f4a6af4	1.840979e-10
212	0x33fcb4b1	1.1767532e-07
213	0xad79d9ae	-1.4202346e-11
214	0xb0deadd4	-1.6202031e-09
215	0xb09f9394	-1.1610717e-09
216	0xb20eee98	-8.319738e-09
217	0xbaa08b8b	-0.0012248618
218	0xb07bc61a	-9.159479e-10
219	0xb574f451	-9.125261e-07
220	0xb1b86447	-5.366505e-09
221	0xbbb380ed	-0.0054780156
222	0x3ba37d7e	0.004989325
223	0xbc440100	-0.011963129
224	0x3d7dd66b	0.061972063
225	0xba0e6346	-0.0005431663
226	0xadf77417	-2.8132203e-11
227	0x3c3f70d3	0.011684614
228	0xb9837721	-0.00025075025
229	0xb73cd7c6	-1.1255912e-05
230	0x3c896a52	0.01677433
231	0xb936e9bb	-0.00017443944
232	0xb9120e5a	-0.00013928991
233	0xb90e4e1e	-0.00013571276
234	0xb8347672	-4.3025655e-05
235	0x37162f6f	8.951741e-06
236	0xb51ad025	-5.767236e-07
237	0xbbc6a8e3	-0.0060626133
238	0x3e05ab86	0.13053712
239	0xbbbffcf2	-0.005859011
240	0xa740db9b	-2.67644e-15
241	0xbc816a6d	-0.015797818
242	0xbae60862	-0.0017550106
243	0xb5e045b3	-1.6709586e-06
244	0xa35288eb	-1.1413116e-17
245	0xaa807008	-2.2815105e-13
246	0xb9604974	-0.00021389668
247	0xbac1b5a5	-0.0014778866
248	0xb9837cb4	-0.00025079178
249	0xb70c84a6	-8.375535e-06
250	0xba167909	-0.00057400815
251	0xbb0b13be	-0.0021221484
252	0x3e429c4a	0.19004932
253	0xbc029cb7	-0.007971934
254	0x324b6a67	1.1840348e-08
255	0xb3137582	-3.4332977e-08

fc.weight f4 [50, 64]
0	0xba209b25	-0.0006126634
1	0xb3b117bf	-8.246524e-08
2	0x3b95564f	0.004557408
3	0x353a22ec	6.934122e-07
4	0xb36d7d73	-5.5294958e-08
5	0x3c7ba9f6	0.015360346
6	0xafda3536	-3.9691778e-10
7	0xaf164f8e	-1.3670684e-10
8	0xbbfc96be	-0.0077083996
9	0x3b730e17	0.0037087256
10	0x2a65ebc6	2.0421086e-13
11	0x3c1390eb	0.009006719
12	0x32fb2164	2.923543e-08
13	0x3d69645a	0.05698047
14	0x3bf57991	0.0074912985
15	0x39e5b720	0.00043814722
16	0xbc7e421f	-0.015518694
17	0xb3deaf03	-1.0369515e-07
18	0xb93d5de8	-0.00018059427
19	0xb5bae09b	-1.3923449e-06
20	0xb88c021f	-6.676115e-05
21	0x33c4729a	9.147807e-08
22	0xb4964972	-2.7993116e-07
23	0xad9e5329	-1.7999451e-11
24	0x3648cf2e	2.9922917e-06
25	0x3a1a104d	0.0005877063
26	0x367d3554	3.773098e-06
27	0xb7c4604f	-2.3409868e-05
28	0x31a0d5d5	4.6809228e-09
29	0xbc962911	-0.018330129
30	0x3cae5b7b	0.021283856
31	0xbba2b3f2	-0.004965299
32	0xbcea16dc	-0.028575353
33	0x3ae7f2e0	0.0017696284
34	0x361bcacb	2.321484e-06
35	0xbbdbac55	-0.006703893
36	0x3ad91f13	0.0016565047
37	0xb9091f23	-0.00013076937
38	0x3c0711ef	0.008244022
39	0x388eb0de	6.804032e-05
40	0x3a4abc26	0.0007733725
41	0x3a6edadd	0.00091115927
42	0xb72ee730	-1.0425036e-05
43	0xba1b54a4	-0.0005925393
44	0xb7a3e4e9	-1.9537709e-05
45	0x3c217bd7	0.009856186
46	0x3cd1fdde	0.025633749
47	0xbab64a87	-0.0013907709
48	0x31db8688	6.3890333e-09
49	0x3c26d781	0.010183216
50	0x38950efa	7.107663e-05
51	0xb7aa229e	-2.02817e-05
52	0xafa3acaa	-2.9772212e-10
53	0x32bad8ea	2.1751891e-08
54	0xbc344a33	-0.011004019
55	0xb9f2d32d	-0.00046315175
56	0x330ffc9d	3.3524532e-08
57	0xb71b91a4	-9.2726295e-06
58	0x3aaf695e	0.0013382842
59	0x3b50b62b	0.0031846862
60	0xbd81a045	-0.06329397
61	0x3bd04658	0.006356042
62	0x37277272	9.980622e-06
63	0xb58b52a8	-1.0380363e-06
64	0x3aa0a71c	0.0012256834
65	0x33372d1c	4.2649035e-08
66	0xbc848467	-0.016176416
67	0x34d56c69	3.975322e-07
68	0x35ee2116	1.7742011e-06
69	0x3c473580	0.0121587515
70	0xaf804f15	-2.3339256e-10
71	0x31850675	3.8715435e-09
72	0x3b9dbfe7	0.0048141363
73	0x3b172a8a	0.0023066127
74	0x2abeb9b2	3.3879632e-13
75	0x3bdb67fc	0.0066957455
76	0x31744b9b	3.554965e-09
77	0x3d8e1beb	0.06938919
78	0xbb6c5275	-0.003605989
79	0xbabdd466	-0.0014482855
80	0x3be24bf7	0.0069060284
81	0xb5c26e23	-1.448618e-06
82	0x39d27d09	0.0004014748
83	0xb6533061	-3.146961e-06
84	0xb8d6c08d	-0.000102401806
85	0xb3dcdcd3	-1.0284716e-07
86	0xb484458b	-2.4637515e-07
87	0x2cb4dc6b	5.140379e-12
88	0x36a6b03a	4.967701e-06
89	0x3b0a47ed	0.00211
90	0x3696cb50	4.494017e-06
91	0xb902a287	-0.00012458312
92	0xb1f31ffa	-7.075866e-09
93	0xbc759f59	-0.014991605
94	0x3c3ae19c	0.0114063285
95	0xbb24f880	-0.0025172532
96	0x3d072fd3	0.033004593
97	0xbab66a1c	-0.0013917121
98	0x366abb0b	3.497759e-06
99	0xbc9505fe	-0.018191334
100	0x3b1efbfa	0.0024259076
101	0x38aa34f7	8.116097e-05
102	0xbc967c8b	-0.018369934
103	0xb88c38ff	-6.6863366e-05
104	0x3a27a2c6	0.00063947996
105	0xba32b20d	-0.0006816693
106	0xb74fb391	-1.237997e-05
107	0xba52833d	-0.000803042
108	0x38886d3d	6.5053326e-05
109	0xbbbcfa77	-0.0057671624
110	0x3d9e6363	0.077338
111	0x3b6c6b76	0.0036074794
112	0x3100d970	1.875005e-09
113	0x3aebc0c8	0.001798653
114	0x38700d03	5.7232577e-05
115	0x338e2e0f	6.620768e-08
116	0x2f06a000	1.2244072e-10
117	0xb1632765	-3.305524e-09
118	0xbbe5b836	-0.007010485
119	0x3b6697f2	0.0035185781
120	0xb4efb3a6	-4.464793e-07
121	0x3887c97d	6.474832e-05
122	0xbb0e4720	-0.0021709874
123	0xbc3ad306	-0.011402851
124	0xbd865dfb	-0.06560894
125	0x397c3795	0.00024053299
126	0x36ae3442	5.1916877e-06
127	0x37e450fa	2.7217426e-05
128	0x39e422c1	0.00043513443
129	0xb3ccaa6b	-9.530489e-08
130	0x3990d2d9	0.00027622914
131	0x34b03a6b	3.282506e-07
132	0xb4421441	-1.8075026e-07
133	0xbca1321e	-0.019677218
134	0xb0418213	-7.039784e-10
135	0xb2011510	-7.513577e-09
136	0x3b9decad	0.0048194737
137	0x3ad2d4e0	0.001608517
138	0x2a4042bc	1.7076179e-13
139	0x3be193e3	0.0068840845
140	0x32da668d	2.5425175e-08
141	0xbd824688	-0.06361109
142	0xbbab163b	-0.005221156
143	0xbb61d72f	-0.0034460535
144	0xbcd52e0b	-0.026022932
145	0x33d7744d	1.0032873e-07
146	0xb82c0f74	-4.1022387e-05
147	0x369e6e8d	4.7216367e-06
148	0x39267628	0.0001587501
149	0x3538b356	6.880631e-07
150	0xb428dd8a	-1.5726815e-07
151	0xaedca4fb	-1.0033748e-10
152	0x36b444e1	5.3724366e-06
153	0xbae504cd	-0.0017472744
154	0xb648e68a	-2.9936514e-06
155	0xb8bb49ae	-8.930579e-05
156	0x31afbe72	5.1148215e-09
157	0x3cc546d4	0.024081625
158	0xbc1664a3	-0.009179267
159	0xbc86b8c4	-0.016445525
160	0x3d934e92	0.071927205
161	0xbab4a521	-0.0013782122
162	0xb6abc4f2	-5.1191246e-06
163	0x3caa8e1c	0.020819716
164	0x3b15141c	0.0022747582
165	0x3a44d5bf	0.0007508657
166	0x3c843f95	0.0161436
167	0xbac5286b	-0.0015041953
168	0xbabc8f51	-0.0014385973
169	0x3a6f02cd	0.0009117544
170	0x38e8876c	0.00011087846
171	0x3a9b0d90	0.0011829603
172	0x3ae70bfb	0.0017627472
173	0xbb843436	-0.0040345443
174	0xbda7103b	-0.081573926
175	0xb96830ea	-0.00022143466
176	0xb166856d	-3.3545249e-09
177	0x3c1fa05e	0.009742824
178	0xbac91cfd	-0.0015343722
179	0xb699aa1a	-4.5795578e-06
180	0xafc4c91f	-3.5795097e-10
181	0xb35d2669	-5.1490506e-08
182	0x3c3122b7	0.010811499
183	0xbbb4ae99	-0.0055139777
184	0x3706a622	8.025703e-06
185	0x3aaf6921	0.0013382771
186	0xbade559e	-0.0016962772
187	0x3bf614cd	0.007509804
188	0x3d99af2c	0.075041145
189	0xbbb8ecfb	-0.0056434846
190	0x37914d42	1.7321323e-05
191	0x37d247a5	2.5067313e-05
192	0xbb0bdc5d	-0.0021341064
193	0xb2fa1005	-2.9111115e-08
194	0x3c605402	0.013691904
195	0x35be5718	1.4181451e-06
196	0xb58cee9d	-1.0500258e-06
197	0x3c940c71	0.018072339
198	0x30585464	7.870027e-10
199	0xafeb382f	-4.2786172e-10
200	0x3bc2a9a3	0.0059406324
201	0x3c49cf15	0.012317439
202	0xa98499bd	-5.888647e-14
203	0x3c4d1ec0	0.012519538
204	0xb3747a56	-5.692194e-08
205	0x3dbb4976	0.09144871
206	0xbb8b567e	-0.004252254
207	0x3aea6552	0.0017882979
208	0x3d0371fc	0.032091126
209	0x34ad0a9e	3.2231486e-07
210	0x3b18bcd7	0.0023305917
211	0xb61f3de0	-2.3728862e-06
212	0xb4e58751	-4.275303e-07
213	0x3448f8d3	1.8716973e-07
214	0x35defcb3	1.6613834e-06
215	0x2fe0f557	4.0919687e-10
216	0xb6e923ad	-6.9480943e-06
217	0x3bf0695c	0.0073367786
218	0x35e148fb	1.6785046e-06
219	0x39bd005c	0.00036049157
220	0x3276670c	1.4342515e-08
221	0xbccb2769	-0.024799066
222	0xbbe5c7f9	-0.007012364
223	0x3c399910	0.011327997
224	0x3db9678a	0.09052952
225	0xba506270	-0.00079492386
226	0x35e1557d	1.6788687e-06
227	0x3c731595	0.0148366885
228	0xbc39d059	-0.011341178
229	0x39894d89	0.00026188444
230	0x3bb8d204	0.00564027
231	0xb9868a29	-0.0002566141
232	0x3b75e4a1	0.0037520307
233	0xb8ca79d2	-9.6548014e-05
234	0xb8c84ca8	-9.5510215e-05
235	0xb9d0bf47	-0.00039815364
236	0x38b73d45	8.737532e-05
237	0xbb248f53	-0.0025109842
238	0xbc6771db	-0.014126266
239	0x3ba9d2dd	0.0051826076
240	0xb103c946	-1.917742e-09
241	0x3c6ba70e	0.014383091
242	0xb924b4d8	-0.00015707628
243	0xb8d12985	-9.97363e-05
244	0xae83cf70	-5.9940386e-11
245	0xb39ff698	-7.4488696e-08
246	0xbba2932e	-0.004961393
247	0x3caa96ce	0.020823862
248	0x36171651	2.2513743e-06
249	0x388b4ea4	6.6426845e-05
250	0x3b299c3b	0.0025880474
251	0xbc9cd2d1	-0.019143494
252	0xbd0f4050	-0.034973443
253	0x3c5156e5	0.012777065
254	0xb7e8b88b	-2.774249e-05
255	0xb850c9ee	-4.9779126e-05

fc.bias f4 [50]
0	0x3ca01722	0.01954228
1	0x3d0d6fe8	0.03453055
2	0xbd026d8a	-0.031842746
3	0x3d222199	0.039582822
4	0xbd02e01a	-0.031952
5	0xbc8041c6	-0.015656363
6	0xbcc29975	-0.023754815
7	0x3d69e8a1	0.057106618
8	0xbc9e9ce7	-0.019361926
9	0xbd5a4384	-0.053287044
10	0xbc7645d4	-0.015031297
11	0xb9886961	-0.00026018455
12	0x3a8c4224	0.0010700864
13	0xbbb8e938	-0.005643036
14	0xbc679e70	-0.014136896
15	0x3c52215a	0.012825334
16	0x3d6640b0	0.056214035
17	0x3c152e8d	0.009105337
18	0x3d1b8976	0.03797289
19	0xbcaaaff1	-0.020835849
20	0xbc42640c	-0.011864673
21	0xbd45e402	-0.04831315
22	0xbd74a165	-0.05972423
23	0xbd17c67e	-0.03705453
24	0x3d08039d	0.03320657
25	0x3d34730c	0.04405503
26	0xbbb54f87	-0.005533162
27	0x3bea6d54	0.007154146
28	0xbc9b2634	-0.018939115
29	0xbccb8276	-0.024842482
30	0x3d349a37	0.044092383
31	0x3cfaeef8	0.030631527
32	0xbd4c6eb9	-0.04991028
33	0xbbd8368c	-0.0065982994
34	0xbd3571e4	-0.044298068
35	0xbc36a319	-0.011147284
36	0xbda10c5c	-0.078636855
37	0x3c0733ad	0.008252067
38	0x3ccd5b6a	0.025068004
39	0x3c8070fe	0.015678879
40	0xbca6caad	-0.020360315
41	0x3c7b88ff	0.015352487
42	0xbd0c2b52	-0.034221
43	0xbd477463	-0.04869498
44	0x3d548414	0.051883772
45	0x3d25a672	0.040441938
46	0xbd6455c1	-0.055745844
47	0xbc8518ca	-0.016247172
48	0xbcd7a3df	-0.026323257
49	0xbb30a3fe	-0.0026953216

decoder.0.weight f4 [64, 50]
0	0x80008b6f	-5.002e-41
1	0x8000892d	-4.921e-41
2	0x00008ac9	4.9787e-41
3	0x800088d1	-4.908e-41
4	0x8000893b	-4.9229e-41
5	0x00008a8d	4.9703e-41
6	0x00008936	4.9222e-41
7	0x00008a05	4.9512e-41
8	0x00008aaf	4.975e-41
9	0x0000899b	4.9364e-41
10	0x00008ad0	4.9797e-41
11	0x80008a15	-4.9534e-41
12	0x00008987	4.9336e-41
13	0x800088f5	-4.9131e-41
14	0x00008a41	4.9596e-41
15	0x80008bfc	-5.0217e-41
16	0x80008a39	-4.9585e-41
17	0x00008a4a	4.9609e-41
18	0x00008b55	4.9983e-41
19	0x80008a8c	-4.9701e-41
20	0x00008c43	5.0316e-41
21	0x80008a0c	-4.9522e-41
22	0x00008bb7	5.012e-41
23	0x0000893a	4.9228e-41
24	0x00008aa1	4.973e-41
25	0x00008a33	4.9577e-41
26	0x000089e1	4.9462e-41
27	0x80008991	-4.935e-41
28	0x000089b4	4.9399e-41
29	0x0000890f	4.9167e-41
30	0x000089cc	4.9432e-41
31	0x00008992	4.9351e-41
32	0x80008a8e	-4.9704e-41
33	0x80008931	-4.9215e-41
34	0x000089b6	4.9401e-41
35	0x00008ad8	4.9808e-41
36	0x00008a5a	4.9631e-41
37	0x800089f3	-4.9487e-41
38	0x8000896c	-4.9298e-41
39	0x80008a4e	-4.9614e-41
40	0x00008b02	4.9867e-41
41	0x80008903	-4.915e-41
42	0x80008b18	-4.9897e-41
43	0x00008b9a	5.008e-41
44	0x80008a0a	-4.9519e-41
45	0x00009f3a	5.712e-41
46	0x80008a20	-4.955e-41
47	0x00008a01	4.9506e-41
48	0x800088e8	-4.9113e-41
49	0x00008aa6	4.9738e-41
50	0x80000b25	-3.998e-42
51	0x800088bb	-4.905e-41
52	0x800089f7	-4.9492e-41
53	0x000057ba	3.147e-41
54	0x8000909c	-5.1876e-41
55	0x00008b3e	4.995e-41
56	0x8000927a	-5.2546e-41
57	0x800089f6	-4.9491e-41
58	0x800089a4	-4.9376e-41
59	0x800048bd	-2.6094e-41
60	0x800088df	-4.91e-41
61	0x00008bbb	5.0126e-41
62	0x80008a7e	-4.9682e-41
63	0x8000802d	-4.5981e-41
64	0x00004ff7	2.8686e-41
65	0x80008a5f	-4.9638e-41
66	0x80008a2b	-4.9565e-41
67	0x000089b0	4.9393e-41
68	0x80008cd5	-5.0521e-41
69	0x00008cb6	5.0478e-41
70	0x00008bde	5.0175e-41
71	0x8000ad8d	-6.2258e-41
72	0x80008ad0	-4.9797e-41
73	0x00008bf2	5.0203e-41
74	0x00008bd9	5.0168e-41
75	0x0000831e	4.7036e-41
76	0x00008bb3	5.0115e-41
77	0x00008f80	5.1478e-41
78	0x00008b66	5.0007e-41
79	0x8000afbc	-6.3042e-41
80	0x80008ccc	-5.0508e-41
81	0x000089a5	4.9378e-41
82	0x00017ce2	1.36635e-40
83	0x80009a9b	-5.5462e-41
84	0x80002960	-1.4843e-41
85	0x80008c06	-5.0231e-41
86	0x000054f1	3.0471e-41
87	0x000063bc	3.5778e-41
88	0x000089bf	4.9414e-41
89	0x00009cce	5.6251e-41
90	0x8000918e	-5.2215e-41
91	0x00008a27	4.956e-41
92	0x80008d59	-5.0706e-41
93	0x000079e1	4.3722e-41
94	0x0000c3fd	7.0307e-41
95	0x80009852	-5.4642e-41
96	0x80008b95	-5.0073e-41
97	0x800088cc	-4.9073e-41
98	0x8000a122	-5.7804e-41
99	0x80008a71	-4.9663e-41
100	0x8bd7cd75	-8.3124125e-32
101	0x007d21ff	1.1491633e-38
102	0x09cb355f	4.8920662e-33
103	0x0002907f	2.35506e-40
104	0x001638e9	2.040796e-39
105	0x00004aa8	2.6782e-41
106	0x80009b05	-5.561e-41
107	0x80733c7c	-1.058278e-38
108	0x00234920	3.240475e-39
109	0x0012fde8	1.744123e-39
110	0x8002a0d4	-2.41365e-40
111	0x800292e3	-2.36364e-40
112	0x80010a27	-9.5477e-41
113	0x80033e3a	-2.97829e-40
114	0xa2698c05	-3.1651514e-18
115	0x8000fd53	-9.0876e-41
116	0x00027573	2.25804e-40
117	0x8004fe15	-4.5849e-40
118	0x89f2d3e2	-5.8458634e-33
119	0x80027ef2	-2.2921e-40
120	0x06f68e6d	9.274419e-35
121	0x80063b99	-5.72393e-40
122	0x8e1c2faf	-1.9251443e-30
123	0x0a49bb21	9.712993e-33
124	0x8005c762	-5.30703e-40
125	0x0f5e049b	1.0946332e-29
126	0x8010c51d	-1.540079e-39
127	0x0021288e	3.04512e-39
128	0x8003ad8c	-3.37763e-40
129	0x000bb28b	1.07424e-39
130	0x000042d9	2.398e-41
131	0x00097568	8.68637e-40
132	0x8073ea38	-1.0645104e-38
133	0x8000eeee	-8.5712e-41
134	0x8022e4be	-3.204464e-39
135	0x00009e3e	5.6767e-41
136	0x0424f510	1.9390635e-36
137	0x80088a45	-7.84286e-40
138	0x0006339c	5.69527e-40
139	0x0008cb0c	8.07523e-40
140	0x800078da	-4.3353e-41
141	0x0006568a	5.82057e-40
142	0x00067a12	5.94804e-40
143	0x000f2042	1.389104e-39
144	0x91ca50d7	-3.1919802e-28
145	0x800675d4	-5.93282e-40
146	0x00039a4f	3.30862e-40
147	0x80055237	-4.8867e-40
148	0x00019d69	1.48304e-40
149	0x805b1cf2	-8.367414e-39
150	0x3e0ad273	0.13556843
151	0xbd4cafd2	-0.049972363
152	0x3dd77741	0.10520793
153	0x3e12b47a	0.14326659
154	0xbd0bad29	-0.034100685
155	0xbe2e7c81	-0.17039682
156	0x3e34d268	0.17658389
157	0xbe2ce36b	-0.16883628
158	0x3e32558b	0.17415445
159	0x3dbb06a9	0.0913213
160	0x3d66c45a	0.0563396
161	0x3e25cd77	0.1619166
162	0x3e37e49d	0.17958303
163	0x3df1d753	0.11808648
164	0xbd1d0930	-0.03833884
165	0x3d7407ff	0.05957794
166	0x3e162770	0.14663482
167	0xbdf54b9c	-0.11977312
168	0xbe0ca83d	-0.13736053
169	0x3e27b792	0.1637862
170	0x3e27f46c	0.16401833
171	0xbd85601b	-0.06512471
172	0x3e284647	0.16433059
173	0x3def9cbf	0.11699819
174	0xbe19362f	-0.14962076
175	0xbe0d14ca	-0.13777462
176	0x3e22805a	0.15869275
177	0xbd9a63c0	-0.07538557
178	0xbda88aac	-0.082295746
179	0xbb18735a	-0.0023262114
180	0xbe2708b1	-0.1631191
181	0x3df32b11	0.11873449
182	0x3e0e550e	0.13899633
183	0xbe21bf4f	-0.15795635
184	0x3e39019b	0.18067019
185	0x3e38c323	0.18043189
186	0x3e158092	0.14599827
187	0x3e0f98dc	0.14023155
188	0xbe245470	-0.16047835
189	0xbd45401f	-0.048156854
190	0xbe21264c	-0.15737265
191	0x3e171027	0.14752255
192	0xbb14b6e5	-0.0022692021
193	0x3e0d85e1	0.13820602
194	0xbddfe8ea	-0.10933097
195	0x3e18f6d3	0.14937906
196	0x3e1ecea6	0.15508518
197	0x3e197055	0.14984258
198	0xbe013c7d	-0.1262073
199	0xbe07b7f0	-0.1325376
200	0x3cee59d1	0.029095562
201	0x3bcf7d45	0.006332072
202	0xbce416c1	-0.027842881
203	0xbcfdfd77	-0.03100465
204	0x3d20c011	0.03924567
205	0xbd279689	-0.040915046
206	0x3d541a7d	0.051783074
207	0x3d6f7788	0.058463603
208	0xbb5240d8	-0.0032082107
209	0x3b0c4eda	0.0021409304
210	0xba9d92ef	-0.0012021939
211	0x3d861eb1	0.06548823
212	0x3d054fc5	0.032546777
213	0x3d3b0cd9	0.04566655
214	0x3d437034	0.047714427
215	0xbd8218b5	-0.06352369
216	0xbbdbf63f	-0.0067127044
217	0xbd8649d7	-0.065570526
218	0x3da31284	0.07962516
219	0x3d319774	0.043357328
220	0xbc5b2dc6	-0.013377612
221	0xbd845e31	-0.06463278
222	0xbbb09aea	-0.005389561
223	0xbccbd7d3	-0.024883186
224	0xbd770a3c	-0.060312495
225	0x3c04c704	0.00810409
226	0xbdbfb8f4	-0.09361449
227	0x3d0458eb	0.03231136
228	0x3d623c32	0.055233188
229	0x3cf75434	0.030191518
230	0xbdaa680b	-0.08320626
231	0xbcf57e6d	-0.029967511
232	0xbd0bd3f1	-0.03413767
233	0xbc10adfb	-0.008830543
234	0xbd108097	-0.035278883
235	0x3d3d36da	0.04619489
236	0x3bc6a139	0.0060616997
237	0x3dd3a97b	0.1033506
238	0xbd5712fd	-0.052508343
239	0x3d4fc3fc	0.050724015
240	0xbd09e2a8	-0.033663422
241	0xbd97e7a3	-0.07417228
242	0x3db10bf6	0.086448595
243	0xbd2e059f	-0.04248583
244	0x3d2102a4	0.03930916
245	0xbd42a72b	-0.047522705
246	0x3dd0f19e	0.10202335
247	0xbd0c7477	-0.034290757
248	0xbd31f19f	-0.04344332
249	0x3d57dbda	0.0526999
250	0xaaa85c12	-2.9906682e-13
251	0x2a28e0ed	1.4999434e-13
252	0xa988ec0b	-6.08056e-14
253	0x2a45b152	1.7558635e-13
254	0xab154845	-5.303573e-13
255	0xa70da63d	-1.9657799e-15

decoder.0.bias f4 [64]
0	0xad348829	-1.0262049e-11
1	0xa4ab26c2	-7.422509e-17
2	0xa8a29cb8	-1.8053579e-14
3	0xbe410b37	-0.18851934
4	0x3d0ed291	0.03486878
5	0xab8a85d6	-9.842637e-13
6	0xb2aaefd3	-1.9899664e-08
7	0xa4b5f0d6	-7.890423e-17
8	0x3c87a3c7	0.016557587
9	0xb6da0920	-6.4979686e-06
10	0xae675aca	-5.2603956e-11
11	0xa47255bb	-5.2548002e-17
12	0xbc6a6ce0	-0.014308184
13	0x3d3a3a01	0.045465473
14	0xbd82ff97	-0.06396406
15	0xae6f6fa6	-5.4441472e-11
16	0x3d40fb86	0.04711487
17	0xbbb45f0e	-0.0055044955
18	0xb8574094	-5.1320138e-05
19	0xac299cb8	-2.410334e-12
20	0x96d4c047	-3.4371791e-25
21	0xaf8ca24d	-2.5581173e-10
22	0xb226377c	-9.675087e-09
23	0xaeb0fe27	-8.0487e-11
24	0x9a3a7ee9	-3.8566416e-23
25	0xbde41491	-0.11136735
26	0x3d63d88a	0.05562643
27	0xaf41cd06	-1.7626087e-10
28	0xbcd2fa94	-0.02575425
29	0x3833211f	4.2707772e-05
30	0x3c36d914	0.011160154
31	0xa44f0bbd	-4.4895913e-17
32	0x3cbc28af	0.022968618
33	0xa6f9a198	-1.7321646e-15
34	0xbd14bbf3	-0.036312055
35	0x2a33ce8f	1.5970058e-13
36	0x3d29db2a	0.041468777
37	0xa5a4a319	-2.8559984e-16
38	0xbc440351	-0.011963681
39	0x3d6d271e	0.057898633
40	0xa739036b	-2.567576e-15
41	0x3d009882	0.031395443
42	0xb7296311	-1.0096251e-05
43	0x93195629	-1.9353795e-27
44	0xaed94f9c	-9.882159e-11
45	0xadcecbf2	-2.3510058e-11
46	0xaa8bde94	-2.4845805e-13
47	0x16d9274d	3.5083043e-25
48	0xb44a77da	-1.8856318e-07
49	0xadc04424	-2.1858133e-11
50	0xaf940191	-2.6922156e-10
51	0xb54395a4	-7.2860917e-07
52	0xa956c629	-4.7689422e-14
53	0xae162937	-3.4142657e-11
54	0x3cdceb43	0.02696765
55	0xb04d5018	-7.4692386e-10
56	0x3d77910d	0.060441066
57	0xac29da10	-2.4137393e-12
58	0xbd043542	-0.032277353
59	0xacf2adfe	-6.8973707e-12
60	0xb564910c	-8.514769e-07
61	0x3cea0ed0	0.028571516
62	0xaeb487b7	-8.20956e-11
63	0xace4554d	-6.48962e-12
