checkpoints/checkpoint_epoch_200.pth (torch, 78474 bytes, 24 tensors)

fc1.weight f4 [64, 2]
0.3006462 -0.58359224 0.46368256 -0.67133707 -0.08742856 -0.038576875 0.1692403 0.37331122
0.13597357 0.057404373 0.06860101 0.6388862 -0.3354275 -0.7570634 0.14800152 -0.08592227
-0.15455386 0.3336588 -0.4013367 0.32735252 -0.5797194 0.34306923 0.2766384 -0.2680758
-0.3088851 -0.20399748 -0.38989326 0.07358543 -0.008269117 -0.5454589 0.13772064 -0.49434346
0.70564574 -0.10427446 -0.25582263 0.5948081 0.0325638 0.32284865 -0.12573591 -0.2828662
-0.22644414 -0.4756787 0.47064608 -0.20477699 0.39899644 0.6505543 0.3350112 -0.70484596
-0.46880496 -0.7113138 -0.27540264 -0.6150498 -0.27016 0.2950346 0.39046025 0.30626807
0.02614532 0.6207777 -0.24592204 -0.6248328 -0.50957114 -0.74452776 0.5807418 -0.56961465
0.3693179 -0.16777587 -0.5267503 -0.33785668 -0.19912706 0.5046071 -0.18124463 -0.87823033
0.6788287 -0.45814428 0.24076869 0.75051033 0.19443823 0.60076445 0.010667745 -0.387027
-0.37073866 0.33397347 0.36976975 -0.19368027 0.10745918 0.136684 0.034803774 -0.15012364
0.44040835 0.01452357 -0.06785767 -0.0065043583 0.19637313 0.13506757 0.03845304 -0.98075783
0.3374566 0.33264557 0.6192093 -0.3894519 0.6573838 0.5381768 -0.48891044 -0.74848515
-0.11705553 -0.1196059 -0.405626 -0.3333416 -0.46688467 0.018042522 0.00011099334 -0.054657165
-0.282555 -0.6341981 0.15915269 -0.06727933 0.207938 0.49700102 -0.47609702 0.41298229
-0.06804905 -0.33919114 0.51398 0.064754635 -0.17202039 -0.15898682 -0.49452385 0.24340905
00000000: 4cee 993e 4d66 15bf cd67 ed3e bfdc 2bbf
00000010: bf0d b3bd c902 1ebd 544d 2d3e a622 bf3e
00000020: a83c 0b3e d920 6b3d b07e 8c3d 0c8e 233f
00000030: 27bd abbe e8ce 41bf b68d 173e 04f8 afbd
00000040: 5e43 1ebe 54d5 aa3e 017c cdbe c09a a73e
00000050: 7e68 14bf c5a6 af3e 8ca3 8d3e 3b41 89be
00000060: 3026 9ebe b7e4 50be 17a0 c7be f5b3 963d
00000070: 317b 07bc 32a3 0bbf a406 0d3e 961a fdbe
00000080: 33a5 343f d98d d5bd 2ffb 82be 5845 183f
00000090: 9f61 053d 6b4c a53e eac0 00be d7d3 90be
000000a0: f9e0 67be 298c f3be 86f8 f03e 0fb1 51be
000000b0: 4349 cc3e ba8a 263f 9786 ab3e c970 34bf
000000c0: 3407 f0be a918 36bf 9301 8dbe e773 1dbf
000000d0: 6952 8abe c60e 973e 68ea c73e 2bcf 9c3e
000000e0: b62e d63c 4aeb 1e3f fdd2 7bbe 0bf5 1fbf
000000f0: 4173 02bf 5f99 3ebf 7fab 143f 44d2 11bf
00000100: 3c17 bd3e 70cd 2bbe 1cd9 06bf 8dfb acbe
00000110: f7e7 4bbe ee2d 013f 3198 39be b4d3 60bf
00000120: b8c7 2d3f e391 eabe 118c 763e 7221 403f
00000130: d11a 473e b3cb 193f c4c7 2e3c 6728 c6be
00000140: 75d1 bdbe 92fe aa3e 7652 bd3e 1f54 46be
00000150: 8f13 dc3d e4f6 0b3e 678e 0e3d 03ba 19be
00000160: 347d e13e 45f4 6d3c f6f8 8abd 8322 d5bb
00000170: 0a16 493e 274f 0a3e ef80 1d3d f212 7bbf
00000180: 1dc7 ac3e 8550 aa3e 8084 1e3f 3d66 c7be
00000190: 4e4a 283f f4c5 093f 7852 fabe b99c 3fbf
000001a0: cfba efbd f0f3 f4bd 36ae cfbe c0ab aabe
000001b0: 820b efbe e9cd 933c 18c5 e838 31e0 5fbd
000001c0: 0dab 90be cf5a 22bf ecf8 223e bfc9 89bd
000001d0: b3ed 543e eb76 fe3e fdc2 f3be 6a72 d33e
000001e0: 4d5d 8bbd 76aa adbe 3194 033f 149e 843d
000001f0: 1d26 30be 71cd 22be 3b32 fdbe 3940 793e

fc1.bias f4 [64]
0.8910029 0.3735458 -0.49526355 0.7569911 -0.11598873 0.40094206 0.09001046 0.7723254
0.020139879 0.47872272 -0.46879056 0.2228534 -0.47160438 0.33687115 -0.23669778 0.65589714
-0.32493952 -0.1729886 -0.43532184 -0.60478854 0.27645314 -0.3324369 -0.012301924 -0.32021865
-0.08228172 0.12664321 -0.2175569 -0.5288863 -0.4223843 0.36550215 -0.39184344 -0.5396127
-0.69985 0.752365 -0.1612959 -0.13842277 -0.34861675 0.44947848 0.61137533 -0.32960916
-0.2664383 -0.27102572 -0.44717443 -0.60447663 -0.28412613 0.562317 -0.74095243 0.7617682
0.00466857 0.0051168418 -0.7410582 -0.37243918 0.95053834 -0.27388385 0.08437017 0.52992463
-0.062576704 -0.57450354 -0.42515668 0.6779859 0.8193679 -0.4324702 -0.62955636 -0.34578207
00000000: c418 643f 6541 bf3e 2f93 fdbe 2bca 413f
00000010: 808b edbd 4748 cd3e 6757 b83d 1eb7 453f
00000020: 63fc a43c 251b f53e 5105 f0be af33 643e
00000030: 2176 f1be 607a ac3e e760 72be e0e8 273f
00000040: 795e a6be ec23 31be 81e2 debe 6cd3 1abf
00000050: 448b 8d3e 2b35 aabe 028e 49bc b3f3 a3be
00000060: 5283 a8bd c2ae 013e 3cc7 5ebe 1865 07bf
00000070: c142 d8be 1923 bb3e b49f c8be 0f24 0abf
00000080: 5f29 33bf fe9a 403f c12a 25be b3be 0dbe
00000090: e57d b2be 0b22 e63e 1883 1c3f 88c2 a8be
000000a0: 9a6a 88be e2c3 8abe 0cf4 e4be fbbe 1abf
000000b0: fb78 91be 02f4 0f3f 0faf 3dbf 3e03 433f
000000c0: cefa 983b 2eab a73b fdb5 3dbf 59b0 bebe
000000d0: 7b56 733f 813a 8cbe 45ca ac3d 24a9 073f
000000e0: 3728 80bd aa12 13bf 23ae d9be 7c90 2d3f
000000f0: 18c2 513f bc6c ddbe 9b2a 21bf 590a b1be

fc2.weight f4 [32, 64]
-0.14107214 -0.09981278 -0.08754732 0.13398948 -0.036328416 -0.05467091 -0.10971519 -0.14362834
-0.12981795 0.076982886 0.026060047 -0.026948879 -0.13130714 0.0049168495 0.021048829 -0.112375915
-0.0105511 -0.08828431 0.02916908 -0.1298947 0.009349894 -0.045293882 0.075604275 -0.08853639
0.07607925 -0.06106404 -0.08814165 0.09739223 -0.010893639 -0.109324716 -0.043269575 -0.030313432
-0.07304624 0.07642778 -0.14490438 -0.15682605 0.14539093 -0.10064759 0.04657374 0.08391428
-0.12363042 -0.04343471 0.0806185 0.009081379 -0.039400835 -0.1327935 -0.011741564 -0.023208268
0.100964904 -0.107692115 -0.0049194135 -0.10786562 0.06315157 -0.007152057 -0.02738579 0.0066878246
0.059142884 -0.050195202 -0.028251085 0.0017185222 -0.053833947 0.009493545 -0.15604423 -0.021749211
-0.10919249 -0.082782716 0.030404432 0.00020775078 -0.11279071 -0.08749717 0.15922299 -0.060397338
-0.0938098 -0.053276848 0.04610795 -0.11068363 0.0911864 -0.029835243 0.012508411 -0.094993286
0.0668715 0.059493493 0.019476317 -0.011235607 0.13693947 -0.040401008 -0.0011904349 -0.008683334
0.040679634 0.10672273 -0.062205374 -0.083913945 -0.14505531 0.02916156 -0.00815489 0.016070163
-0.12253008 0.083117336 0.1119309 0.14007422 -0.036806628 0.05589821 -0.008729452 0.030439058
0.026968667 -0.09956966 -0.12936626 0.045309275 -0.0076466342 -0.03745612 0.050287876 0.07908751
-0.0012077003 -0.10948483 -0.16550106 0.042567566 0.12076536 0.0022425984 0.08863461 -0.049552947
0.0925547 0.013846171 -0.13610382 -0.014572131 0.06768511 -0.080917776 -0.03156307 0.11985736
-0.16325468 0.04203658 0.097215846 0.061988138 -0.12130384 -0.11910272 -0.1175088 0.06261131
-0.06336039 -0.17928112 -0.11290353 -0.08961883 -0.001338914 0.053667538 0.058217853 -0.042569503
-0.13201462 -0.089141525 0.033005342 0.06819108 -0.12965082 -0.17325899 0.035051458 -0.17345944
-0.08507336 -0.069739 -0.14937907 -0.022021353 0.10060638 -0.014042541 -0.042453896 -0.1638675
0.02598019 0.04133494 -0.07727061 -0.018679053 -0.15183808 -0.11456257 -0.08239512 0.06301151
0.040364366 -0.046300214 -0.10426371 0.10057849 0.05830678 -0.039409343 -0.07484011 0.055915907
-0.11242823 -0.16483717 -0.051994316 -0.12951887 0.03826103 -0.06494074 -0.0541888 -0.15766138
0.024868852 -0.038118094 -0.089580715 -0.1524476 -0.16940741 -0.11345292 0.104905486 -0.11988256
-0.11379876 -0.079590105 -0.016309028 0.013382187 0.065541536 0.032489628 -0.073515795 0.018601246
-0.14709355 -0.049141943 -0.006065729 0.06842193 -0.13080938 -0.13324408 -0.04767238 -0.16818492
0.07778226 0.025036426 -0.097263664 -0.040540066 -0.08158672 0.008426695 -0.010327724 -0.11945566
0.013892892 -0.1037029 0.06907445 -0.05192563 -0.09490457 -0.10988369 -0.04433979 -0.10258501
0.0067922766 -0.023491653 0.024594286 -0.10551481 -0.012274657 -0.02836015 0.001280514 -0.080630824
0.08079799 -0.011730196 -0.07767313 0.0018341526 -0.021455733 -0.082169436 0.03850974 -0.07852387
-0.13744557 -0.15806438 -0.169363 -0.012285769 0.0050155576 -0.10830582 0.03313606 0.02612681
0.049158294 0.028741824 -0.07228968 -0.03463459 -0.065922804 -0.078154385 0.0076022916 -0.09938906
00000000: 3775 10be a56a ccbd 024c b3bd 8a34 093e
00000010: 1bcd 14bd 9bee 5fbd 5cb2 e0bd 4f13 13be
00000020: ffee 04be 34a9 9d3d e17b d53c e5c3 dcbc
00000030: 6175 06be 861d a13b 986e ac3c 5825 e6bd
00000040: 85de 2cbc 68ce b4bd fff3 ee3c 1e03 05be
00000050: 4c30 193c 1486 39bd 6ad6 9a3d 9152 b5bd
00000060: 70cf 9b3d 491e 7abd 9c83 b4bd 9475 c73d
00000070: 3c7b 32bc a3e5 dfbd 703b 31bd e053 f8bc
00000080: 4499 95bd 2b86 9c3d d061 14be 0297 20be
00000090: 5ce1 143e 5320 cebd 1bc4 3e3d 40db ab3d
000000a0: f231 fdbd 98e8 31bd 501b a53d 10ca 143c
000000b0: c562 21bd 05fb 07be b05f 40bc 441f bebc
000000c0: b0c6 ce3d af8d dcbd 0833 a1bb a6e8 dcbd
000000d0: 9c55 813d cd5b eabb 2a58 e0bc 8a25 db3b
000000e0: cf3f 723d 7c99 4dbd d26e e7bc 0940 e13a
000000f0: fc80 5cbd d08a 1b3c 0fca 1fbe 672b b2bc
00000100: 50a0 dfbd fc89 a9bd b712 f93c add7 5939
00000110: d1fe e6bd b731 b3bd 5a0b 233e 3363 77bd
00000120: 5a1f c0bd d338 5abd b1db 3c3d 19ae e2bd
00000130: efbf ba3d 0a69 f4bc 14f0 4c3c d78b c2bd
00000140: edf3 883d 73af 733d cc8c 9f3c 8d15 38bc
00000150: dc39 0c3e 877b 25bd 5e08 9cba 8b44 0ebc
00000160: b09f 263d 7291 da3d 10cb 7ebd 13db abbd
00000170: 6189 14be 39e4 ee3c 169c 05bc 93a5 833c
00000180: 0df1 fabd 6c39 aa3d 073c e53d 9e6f 0f3e
00000190: 8cc2 16bd 85f5 643d fa05 0fbc 555b f93c
000001a0: 65ed dc3c 2eeb cbbd 9778 04be 3896 393d
000001b0: 9e90 fabb 976b 19bd a9fa 4d3d a2f8 a13d
000001c0: b34b 9eba 9539 e0bd 1c79 29be 545b 2e3d
000001d0: d453 f73d 8ff8 123b 1086 b53d 08f8 4abd
000001e0: 528d bd3d 0ddb 623c cd5e 0bbe f3bf 6ebc
000001f0: 7e9e 8a3d 38b8 a5bd 4748 01bd c777 f53d
00000200: 3c2c 27be 8d2e 2c3d 1a19 c73d 46e7 7d3d
00000210: 266e f8bd 20ec f3bd 74a8 f0bd 5c3a 803d
00000220: 18c3 81bd 7895 37be f739 e7bd 148a b7bd
00000230: 807e afba 7ed2 5b3d d875 6e3d 5c5d 2ebd
00000240: d72e 07be d58f b6bd 9c30 073d c4a7 8b3d
00000250: 2fc3 04be ce6a 31be 1e92 0f3d 5a9f 31be
00000260: f13a aebd 52d3 8ebd d4f6 18be 2066 b4bc
00000270: b80a ce3d b012 66bc 23e4 2dbd e2cc 27be
00000280: 68d4 d43c d34e 293d 0e40 9ebd d004 99bc
00000290: 717b 1bbe c89f eabd c6be a8bd 2e0c 813d
000002a0: 1b55 253d 4ba5 3dbd 3688 d5bd 18fc cd3d
000002b0: 17d3 6e3d b16b 21bd c645 99bd 1408 653d
000002c0: c640 e6bd 13cb 28be fef7 54bd 98a0 04be
000002d0: 99b7 1c3d a7ff 84bd 13f5 5dbd fc71 21be
000002e0: c3b9 cb3c b821 1cbd 1876 b7bd 391b 1cbe
000002f0: 2379 2dbe 015a e8bd b0d8 d63d fd84 f5bd
00000300: 530f e9bd 2300 a3bd 839a 85bc f640 5b3c
00000310: a43a 863d d813 053d 738f 96bd a461 983c
00000320: b19f 16be 1049 49bd 06c3 c6bb cc20 8c3d
00000330: e5f2 05be 2371 08be 1d44 43bd ab38 2cbe
00000340: 4e4c 9f3d 3119 cd3c 2c32 c7bd 570d 26bd
00000350: f016 a7bd 1f10 0a3c 9d35 29bc 2ba5 f4bd
00000360: 039f 633c 3062 d4bd e876 8d3d f8af 54bd
00000370: 545d c2bd b30a e1bd a49d 35bd 1718 d2bd
00000380: bf91 de3b 9171 c0bc f579 c93c 2618 d8bd
00000390: a51b 49bc 8c53 e8bc ecd6 a73a c621 a5bd
000003a0: 6b79 a53d 0230 40bc 1713 9fbd f367 f03a
000003b0: efc3 afbc 7348 a8bd 64bc 1d3d 1fd1 a0bd
000003c0: 88be 0cbe a1db 21be 7f6d 2dbe 404a 49bc
000003d0: 8c59 a43b 71cf ddbd adb9 073d e407 d63c
000003e0: 355a 493d f973 eb3c 9d0c 94bd 00dd 0dbd
000003f0: 8902 87bd 680f a0bd a51c f93b 7e8c cbbd

fc2.bias f4 [32]
-0.051238153 -0.1581448 -0.11079772 -0.13195905 -0.054534864 0.17833398 -0.12236487 0.45487192
-0.12982787 -0.1476264 -0.0039989282 0.11178057 0.0036396622 -0.11085656 -0.18984671 -0.14897051
-0.030977825 -0.033898517 0.3046547 0.035587545 0.055755176 -0.0709287 -0.15758349 -0.11895591
0.04202084 -0.06965299 -0.063206986 -0.096338764 -0.13986354 -0.07357241 0.053826135 0.079766266
00000000: 19df 51bd b6f0 21be eae9 e2bd 4620 07be
00000010: f35f 5fbd 2f9d 363e 6f9a fabd f9e4 e83e
00000020: 99f1 04be 602b 17be 7109 83bb 36ed e43d
00000030: 6687 6e3b c408 e3bd 2d67 42be ba8b 18be
00000040: 35c5 fdbc 2cd9 0abd b3fb 9b3e 3fc4 113d
00000050: 8a5f 643d 1143 91bd 915d 21be 289f f3bd
00000060: 0b1e 2c3d 3aa6 8ebd aa72 81bd 424d c5bd
00000070: 6338 0fbe 22ad 96bd cb78 5c3d 7f5c a33d

fc1.weight f4 [64, 32]
-0.17491122 -0.2801624 -0.17003994 -0.17929408 0.06843193 0.07333197 0.11060125 0.07340203
0.06401611 -0.0004725956 0.051364318 -0.4316319 -0.09474233 -0.06690502 -0.17720206 -0.06248026
0.059776343 0.09429078 -0.085831665 -0.08545447 -0.09760199 0.079260066 0.083421014 -0.09541292
0.0705666 -0.21363539 0.039585266 -0.07519665 -0.009554691 -0.010351259 -0.22325835 -0.062786646
0.02781335 -0.03543439 0.1438714 0.1059594 0.032297656 0.119805805 0.1236357 0.13571766
-0.029510451 -0.15990739 0.0026100883 -0.1488218 0.07417078 0.2079856 -0.13467377 0.20438981
0.12760217 0.15960257 0.054472 -0.18407688 0.10104824 -0.0019017345 0.21608151 0.004714462
-0.21560718 -0.023037046 0.21321593 0.019204337 -0.11621992 0.0049211374 -0.08257593 -0.11685317
0.013110279 0.053260457 0.0856801 0.07327235 0.07757506 -0.27454063 -0.017443907 0.2164053
-0.14011973 0.106845774 -0.051601574 0.03160242 0.024711858 -0.18391064 -0.19685796 0.1391288
-0.09765102 -0.1268863 0.17043473 -0.2002096 -0.080146946 0.053037066 0.04400506 0.12722453
-0.008241191 -0.010143221 -0.13181636 -0.16767669 -0.015039239 -0.10003744 0.14693528 -0.07843791
0.07227434 -0.032199696 -0.12807761 -0.17029215 -0.22671993 -0.26764712 -0.008770073 -0.14417775
0.049389802 0.11204061 0.050142236 -0.19484197 0.063663304 -0.23762645 0.14468892 0.041587655
-0.17378354 -0.01577721 -0.030673904 0.093819596 -0.019347697 -0.06845467 -0.0076707434 -0.119441405
0.121160574 0.10565901 -0.113602966 -0.17420518 0.15426342 -0.1692802 0.14047617 -0.07701049
0.03725098 -0.11651021 -0.090177916 0.09025221 0.07351689 0.030795919 -0.15165266 -0.06509342
0.1036984 -0.19115272 0.042721502 0.041278668 -0.09195378 0.09838839 -0.115179814 0.097263634
0.040104236 0.14021645 -0.0998704 -0.20293905 -0.13857128 -0.05593686 -0.09458416 0.005901865
-0.21524498 -0.04639374 -0.1260718 -0.14048845 -0.14941625 -0.12625526 -0.22886164 0.080397956
-0.12006539 0.10092421 0.0016972957 -0.054365687 0.094594456 0.042851645 -0.11184545 -0.34433967
-0.22649519 0.103655264 -0.037692633 0.07240599 -0.22719765 -0.0049900166 0.09516808 0.1206643
-0.11617923 -0.008729687 -0.63175267 -0.2621366 -0.14396822 -0.054318182 0.06641715 0.024246344
-0.2551986 -0.2581138 0.15206023 0.06608261 -0.11271692 0.11990547 -0.1392318 -0.13424166
-0.1457689 -0.16478008 -0.20794468 -0.1495482 -0.10125825 1.0700042 0.021979773 0.43062714
-0.11170541 -0.054731376 -0.16242638 -0.075538024 -0.12938546 0.0541244 -0.18912809 0.05787008
-0.12782587 0.06451296 0.09119649 0.019541945 0.007451805 -0.0064144507 -0.0197921 0.1460138
-0.09604295 0.069059595 -0.09253195 -0.057038445 0.05698016 0.12447295 -0.048211135 0.123822056
0.069862515 0.08900317 0.059436448 -0.09678483 0.048075262 0.016347546 0.10717496 0.7031271
-0.11580628 0.15852533 -0.03428552 0.007786928 -0.22200191 -0.18407577 -0.16330548 -0.12617055
0.01569213 -0.09328669 0.56907475 0.051447734 -0.011835548 0.0047582416 -0.009292311 0.11704546
-0.38599336 -0.11854142 0.19195561 0.057587642 -0.11582599 -0.08729628 0.040450606 -0.09921808
00000000: ed1b 33be 7271 8fbe f31e 2ebe de98 37be
00000010: 0a26 8c3d 122f 963d e882 e23d ce53 963d
00000020: e11a 833d b5c6 f7b9 6463 523d dbfe dcbe
00000030: 4408 c2bd 8005 89bd 7574 35be 4deb 7fbd
00000040: 0ad8 743d 861b c13d 83c8 afbd c102 afbd
00000050: 8de3 c7bd 1a53 a23d a3d8 aa3d d967 c3bd
00000060: 3985 903d 3cc3 5abe 2924 223d b400 9abd
00000070: 478b 1cbc 5498 29bc d69d 64be 4996 80bd
00000080: d3d8 e33c a723 11bd 0653 133e 3e01 d93d
00000090: 8c4a 043d bf5c f53d b734 fd3d 92f9 0a3e
000000a0: e7bf f1bc c3be 23be 040e 2b3b be64 18be
000000b0: dae6 973d 2dfa 543e ece7 09be 904b 513e
000000c0: 25aa 023e db6e 233e 081e 5f3d a67e 3cbe
000000d0: 61f2 ce3d 9f43 f9ba 7944 5d3e c67b 9a3b
000000e0: 21c8 5cbe 30b8 bcbc 4755 5a3e 6a52 9d3c
000000f0: b604 eebd 7e41 a13b 921d a9bd b750 efbd
00000100: 7fcc 563c a327 5a3d 0c79 af3d d00f 963d
00000110: acdf 9e3d 9790 8cbe 86e6 8ebc 5a99 5d3e
00000120: 8c7b 0fbe f5d1 da3d 2c5c 53bd 8a71 013d
00000130: 8670 ca3c 1253 3cbe 2295 49be c877 0e3e
00000140: 42fd c7bd 7bee 01be 7186 2e3e bf03 4dbe
00000150: 1524 a4bd 653d 593d a63e 343d 2647 023e
00000160: 0f06 07bc c12f 26bc defa 06be 70b3 2bbe
00000170: 2467 76bc 6ee0 ccbd 3476 163e 0ea4 a0bd
00000180: 9204 943d d4e3 03bd c726 03be 1161 2ebe
00000190: 4529 68be 0b09 89be 5ab0 0fbc 55a3 13be
000001a0: f64c 4a3d 8c75 e53d f261 4d3d a784 47be
000001b0: e861 823d 5954 73be 5529 143e d157 2a3d
000001c0: 50f4 31be 353f 81bc d747 fbbc 7d24 c03d
000001d0: 107f 9ebc f631 8cbd dc5a fbbb b29d f4bd
000001e0: 0923 f83d c063 d83d aca8 e8bd d862 32be
000001f0: 3bf7 1d3e ca57 2dbe fcd8 0f3e adb7 9dbd
00000200: 7c94 183d e89c eebd 33af b8bd 27d6 b83d
00000210: 0690 963d b947 fc3c d64a 1bbe b34f 85bd
00000220: d45f d43d 8abd 43be befc 2e3d d213 293d
00000230: 4352 bcbd da7f c93d 65e3 ebbd 2832 c73d
00000240: 5744 243d e794 0f3e da88 ccbd 41cf 4fbe
00000250: a1e5 0dbe 0d1e 65bd 57b5 c1bd 6f64 c13b
00000260: 2e69 5cbe 5d07 3ebd f718 01be 34dc 0fbe
00000270: 9300 19be 0f49 01be b55a 6abe afa7 a43d
00000280: d8e4 f5bd 5ab1 ce3d cb77 de3a 8eae 5ebd
00000290: bdba c13d 3585 2f3d 3a0f e5bd 4a4d b0be
000002a0: 5bee 67be 3649 d43d 9763 1abd 9749 943d
000002b0: 80a6 68be 4b83 a3bb 7be7 c23d d81e f73d
000002c0: 60ef edbd f606 0fbc 8bba 21bf c536 86be
000002d0: 686c 13be be7c 5ebd b705 883d 45a0 c63c
000002e0: 64a9 82be 7e27 84be adb5 1b3e 5256 873d
000002f0: 21d8 e6bd 0091 f53d c892 0ebe a576 09be
00000300: 7144 15be 1cbc 28be 73ef 54be 2a23 19be
00000310: 7c60 cfbd e6f5 883f ed0e b43c 297b dc3e
00000320: cec5 e4bd 022e 60bd 1a53 26be aeb3 9abd
00000330: 9f7d 04be 8cb1 5d3d cbaa 41be 2d09 6d3d
00000340: c9e4 02be 5f1f 843d 3ac5 ba3d 6e16 a03c
00000350: 452e f43b 5030 d2bb 0b23 a2bc a484 153e
00000360: 2bb2 c4bd 1e6f 8d3d 6481 bdbd 25a1 69bd
00000370: 0764 693d adeb fe3d 0a79 45bd 6b96 fd3d
00000380: 1414 8f3d 4b47 b63d a273 733d 2037 c6bd
00000390: 91ea 443d 4aeb 853c 8c7e db3d 2300 343f
000003a0: d82b edbd 7754 223e f96e 0cbd 7d29 ff3b
000003b0: 7854 63be 5c7e 3cbe 8d39 27be da32 01be
000003c0: c88c 803c 180d bfbd e2ae 113f dcba 523d
000003d0: e3e9 41bc 06eb 9b3b c73e 18bc 88b5 ef3d
000003e0: eca0 c5be d8c5 f2bd 0390 443e 05e1 6b3d
000003f0: 2d36 edbd 64c8 b2bd 89af 253d d932 cbbd

fc1.bias f4 [64]
0.10062033 0.017311959 -0.08040031 -0.052495763 -0.1667457 -0.5169787 0.18014877 -0.01400411
0.013457543 -0.24681605 0.013392545 -0.34075892 0.030816237 0.18467431 0.11408887 0.08354824
0.19750774 -0.055092536 0.016723407 0.14004295 0.019997193 -0.15055455 -0.007648331 -0.0345951
-0.057537448 -0.05652188 -0.0115127275 -0.2346855 0.058145173 -0.116942964 -0.06030541 -0.026036834
0.13273418 0.16065925 -0.068076655 -0.21150407 0.09625991 -0.23319153 0.1609697 0.09655272
0.057641976 -0.15761423 0.1095215 0.24565165 0.22673704 0.1970095 -0.34086534 -0.008517206
0.19420023 0.011297643 -0.030260699 -0.22666672 -0.16304296 -0.10898555 -0.045570087 -0.22581717
0.33845818 0.080474846 -0.021371568 -0.14097393 0.17241108 0.2069362 -0.17044356 0.449506
00000000: 0812 ce3d cfd1 8d3c eba8 a4bd cc05 57bd
00000010: 63bf 2abe b758 04bf eb78 383e 7f71 65bc
00000020: 077d 5c3c 59bd 7cbe 686c 5b3c f477 aebe
00000030: 5572 fc3c 431b 3d3e 6da7 e93d 571b ab3d
00000040: 783f 4a3e b6a8 61bd 87ff 883c 6b67 0f3e
00000050: 27d1 a33c f92a 1abe da9e fabb 97b3 0dbd
00000060: 63ac 6bbd 7d83 67bd e19f 3cbc 6551 70be
00000070: a229 6e3d cb7f efbd ce02 77bd 334b d5bc
00000080: 78eb 073e dc83 243e c66b 8bbd 8694 58be
00000090: ea23 c53d c3c9 6ebe 3ed5 243e 6fbd c53d
000000a0: fe19 6c3d a065 21be cf4c e03d 1b8c 7b3e
000000b0: c12d 683e dcbc 493e e785 aebe c08b 0bbc
000000c0: 6ddc 463e c019 393c 49e5 f7bc 521b 68be
000000d0: bcf4 26be d133 dfbd b3a7 3abd 9e3c 67be
000000e0: 644a ad3e ffcf a43d 6d13 afbc 785b 10be
000000f0: 888c 303e 15e7 533e c288 2ebe a725 e63e

fc2.weight f4 [20, 64]
-0.07681432 -0.12573847 0.09618332 -0.17510188 0.031363748 -0.13807142 0.069921546 -0.16912638
0.0588558 0.034770552 -0.085444495 0.02816012 -0.045631766 -0.05635528 -0.3733111 0.29451627
-0.26298407 -0.008035508 0.14186308 -0.11492372 -0.078964986 0.02919667 0.019779895 -0.06343211
-0.009508621 0.048122548 -0.035424832 -0.023221396 -0.08156113 0.10197757 0.092479974 -0.03194422
0.20195122 0.18521288 0.057590798 0.031267256 -0.1260463 -0.08200112 -0.118880644 -0.0046110786
0.01573025 -0.035128355 0.010929922 -0.36257398 0.23198488 -0.02409546 0.55817145 -0.06336444
-0.062153734 -0.15759408 -0.1840298 -0.048012808 0.020660289 0.014247222 0.049415197 -0.017094407
0.10240025 0.046740375 -0.076735795 -0.04835285 -0.003513178 0.023590516 -0.14854592 0.28261173
-0.029982643 -0.037569482 0.1912111 0.016516326 -0.024915589 0.2500906 -0.16305268 -0.027702134
0.056777824 0.11773832 0.049490407 0.11421298 0.104237944 -0.11946876 -0.4339562 -0.029910473
-0.46278688 -0.010065568 -0.009439798 -0.09316609 -0.042643998 0.11859119 -0.012559405 -0.040188674
-0.040598784 -0.07261297 -0.08673906 0.034963164 0.0999856 0.12053405 0.06385354 -0.023517609
-0.4579044 -0.1439386 0.017092256 0.050088905 -0.25661102 0.0842817 -0.058548983 -0.16616204
0.116224796 0.026162729 0.034299534 0.03735387 0.06673068 -0.0073714866 0.3470894 0.0522222
0.12242768 -0.17402631 0.05142507 0.046108615 -0.011890665 0.076939866 0.06688825 0.044002198
-0.10024609 -0.07687686 0.07689674 -0.030001512 0.18867064 0.25638455 0.020926643 -0.2064868
0.03734025 0.11212984 0.13649903 0.013619998 0.037926715 0.26188856 -0.22215576 0.045144934
0.16335966 -0.03779058 -0.16134107 0.17934461 0.095698796 0.1558732 -0.06495967 0.2947656
0.04268796 0.1899225 0.035007834 0.2876599 -0.08208284 0.1216542 0.025753904 0.04218915
-0.011753708 -0.09662048 0.13198043 0.058151953 0.06886221 0.033684045 -0.19751413 -0.12084076
0.2893923 -0.40893427 -0.11415964 0.080332436 -0.15916835 0.0061195027 0.08625662 -0.17169753
-0.013088062 0.119201615 0.09505997 0.44242686 -0.10640883 0.03324705 0.5311587 -0.105364405
0.0038482998 -0.1554493 -0.12642372 -0.032661352 -0.087044254 0.016652303 0.076666094 0.009354816
-0.19638973 -0.062635615 0.08235958 -0.02161156 -0.083505295 -0.08838135 0.07448122 -0.19511063
3.7426886e-05 0.1443983 0.09119555 0.09025983 -0.05291146 0.32652804 0.036148522 0.084337346
-0.083575904 0.02858101 0.05274704 0.07170005 -0.076425955 -0.16193777 0.21409908 -0.21732537
-0.020149196 -0.071464464 -0.027675953 -0.0543948 -0.023506202 -0.08940571 0.017118331 -0.03787247
-0.070236325 0.07310233 0.098526716 0.06873309 -0.0700991 -0.0029965788 0.22273089 0.14326644
-0.31927347 -0.16055796 0.0693181 0.0021237915 0.12923715 0.03370373 0.048318833 0.12261142
0.041006878 0.03453642 -0.0021369366 0.022421109 -0.37725958 0.18866815 -0.13989946 0.06617242
0.15657489 -0.009110359 0.15298472 0.040451284 0.12763149 0.16904418 0.14692372 0.10085081
-0.18364657 -0.05486448 0.11852903 0.01684608 -0.053799093 0.26237905 0.14363581 -0.26603544
00000000: d450 9dbd 96c1 00be c3fb c43d e84d 33be
00000010: 4677 003d 9862 0dbe 0733 8f3d 772f 2dbe
00000020: c812 713d 916b 0e3d 86fd aebd 0db0 e63c
00000030: 60e8 3abd cbd4 66bd a222 bfbe d6ca 963e
00000040: d9a5 86be 5da7 03bc 8e44 113e 215d ebbd
00000050: 65b8 a1bd db2d ef3c 7209 a23c b2e8 81bd
00000060: 0cca 1bbc 261c 453d a119 11bd cc3a bebc
00000070: 8609 a7bd 9ed9 d03d 2466 bd3d f1d7 02bd
00000080: 4dcc 4e3e 72a8 3d3e 54e4 6b3d 1812 003d
00000090: 4812 01be 34f0 a7bd b277 f3bd 8818 97bb
000000a0: badc 803c c0e2 0fbd 6a13 333c 4ca3 b9be
000000b0: 728d 6d3e d863 c5bc 53e4 0e3f 37c5 81bd
000000c0: ea94 7ebd 5860 21be 4f72 3cbe 14a9 44bd
000000d0: c43f a93c 2e6d 693c 9767 4a3d 9209 8cbc
000000e0: 39b7 d13d d672 3f3d a827 9dbd a30d 46bd
000000f0: 593d 66bb e640 c13c 6c1c 18be 7cb2 903e
00000100: 299e f5bc 75e2 19bd d8cc 433e 3f4d 873c
00000110: c71b ccbc e00b 803e 48f7 26be 96ef e2bc
00000120: dd8f 683d ca20 f13d 74b6 4a3d 7fe8 e93d
00000130: b47a d53d 0aac f4bd 822f debe cf06 f5bc
00000140: 67f2 ecbe 0dea 24bc 62a9 1abc ddcd bebd
00000150: 79ab 2ebd f0df f23d f6c5 4dbc e19c 24bd
00000160: e94a 26bd 1cb6 94bd 40a4 b1bd 8935 0f3d
00000170: 40c5 cc3d 8eda f63d a5c5 823d 00a8 c0bc
00000180: 7272 eabe a464 13be 0f05 8c3c 062a 4d3d
00000190: 8562 83be e29b ac3d 0fd1 6fbd 6226 2abe
000001a0: 4407 ee3d 3853 d63c ab7d 0c3d 5f00 193d
000001b0: 18aa 883d 838c f1bb b4b5 b13e f2e6 553d
000001c0: 5dbb fa3d f433 32be 18a3 523d 63dc 3c3d
000001d0: 10d1 42bc a692 9d3d b5fc 883d a63b 343d
000001e0: d24d cdbd 9d71 9dbd 0a7c 9d3d bbc5 f5bc
000001f0: e032 413e d644 833e 5a6e ab3c 4771 53be
00000200: 17f2 183d 54a4 e53d 67c6 0b3e 6926 5f3c
00000210: 0b59 1b3d 4216 863e cd7c 63be e5e9 383d
00000220: c147 273e 4cca 1abd 9836 25be 1da6 373e
00000230: bbfd c33d 399d 1f3e 9309 85bd 84eb 963e
00000240: 92d9 2e3d 0b7b 423e 6064 0f3d 2948 933e
00000250: 0c1b a8bd d625 f93d daf9 d23c 88ce 2c3d
00000260: a092 40bc f5e0 c5bd e125 073e be30 6e3d
00000270: a107 8d3d 48f8 093d 2541 4abe 5c7b f7bd
00000280: 3a2b 943e d55f d1be 88cc e9bd 5585 a43d
00000290: 07fd 22be 1c86 c83b 50a7 b03d 7ad1 2fbe
000002a0: 506f 56bc fa1f f43d cdae c23d c685 e23e
000002b0: dfec d9bd 0f2e 083d 04fa 073f 4bc9 d7bd
000002c0: c233 7c3b 1a2e 1fbe 3875 01be e9c7 05bd
000002d0: 4244 b2bd 696a 883c 1d03 9d3d f144 193c
000002e0: 641a 49be 1a47 80bd 24ac a83d ba0a b1bc
000002f0: d304 abbd 4801 b5bd 9c89 983d 15cb 47be
00000300: d0fa 1c38 26dd 133e bcc4 ba3d 25da b83d
00000310: b0b9 58bd af2e a73e 7910 143d 0fb9 ac3d
00000320: d829 abbd b922 ea3c 480d 583d 7ad7 923d
00000330: 3685 9cbd 04d3 25be ca3c 5b3e 8b8a 5ebe
00000340: ed0f a5bc f65b 92bd aeb8 e2bc 15cd 5ebd
00000350: 1490 c0bc 571a b7bd be3b 8c3c 2a20 1bbd
00000360: 10d8 8fbd adb6 953d 60c8 c93d efc3 8c3d
00000370: 1e90 8fbd 4062 44bb 9113 643e 70b4 123e
00000380: d077 a3be 4e69 24be a6f6 8d3d 4f2f 0b3b
00000390: be56 043e ec0c 0a3d f8e9 453d b21b fb3d
000003a0: d4f6 273d 1076 0d3d d90b 0cbb 79ac b73c
000003b0: 2b28 c1be 3932 413e ce41 0fbe 6885 873d
000003c0: 2b55 203e 9d43 15bc 07a8 1c3e 3fb0 253d
000003d0: d4b1 023e eb19 2d3e 2c73 163e df8a ce3d
000003e0: d90d 3cbe 94b9 60bd 59bf f23d ca00 8a3c
000003f0: 705c 5cbd 8c56 863e 4415 133e cc35 88be

fc2.bias f4 [20]
0.09334602 0.021430068 -0.064633474 -0.020311361 -0.061611902 -0.035027135 -0.15434971 -0.03718216
-0.03577498 0.10298624 -0.02814816 -0.025998507 -0.023189727 -0.05391708 -0.03131815 -0.023579746
0.08527806 -0.07889268 -0.04121466 -0.08561927
00000000: 332c bf3d 1c8e af3c 8e5e 84bd 0364 a6bc
00000010: c35c 7cbd 9d78 0fbd da0d 1ebe 524c 18bd
00000020: c988 12bd 73ea d23d f896 e6bc d2fa d4bc
00000030: 62f8 bdbc 28d8 5cbd 7647 00bd 502a c1bc
00000040: 43a6 ae3d 7c92 a1bd b4d0 28bd 2859 afbd

exp_avg f4 [64, 2]
8.546554e-05 1.9743975e-05 -1.6913675e-06 6.8852046e-06 2.348739e-06 3.4659138e-06 1.9158366e-05 2.874899e-05
-3.3538516e-05 7.943849e-06 7.728419e-05 6.610728e-06 -7.821393e-05 2.2602217e-06 4.195922e-05 2.7480053e-05
5.271214e-05 5.30229e-06 1.16291785e-05 -1.953768e-06 -5.9050776e-06 -8.131864e-06 1.6319793e-05 1.3657643e-05
-4.007996e-05 1.7710374e-06 2.2763314e-05 3.4586258e-06 1.6148651e-21 2.886551e-23 0.0001155452 2.8831826e-05
1.4679237e-06 8.3780815e-06 -3.6673442e-05 9.905121e-06 -6.544388e-05 -3.3064762e-06 1.9014213e-05 2.382114e-07
-7.4926225e-05 7.196848e-06 -3.8120677e-05 6.138315e-07 2.4545581e-05 -2.4086282e-06 -1.1957509e-05 -2.688927e-06
-9.016404e-06 -1.652648e-06 -5.5402434e-05 -7.440264e-07 4.9612874e-05 -3.9175957e-06 -2.9261098e-05 -1.9372076e-06
-3.2816966e-05 1.45743215e-05 -3.6009505e-06 1.177737e-06 3.5979097e-05 -3.4823643e-06 -4.5265886e-05 -6.6669263e-06
-3.577126e-05 -4.045516e-06 -4.211755e-05 -1.0950587e-06 -4.680352e-05 1.7083114e-05 -4.7097117e-05 1.2006113e-05
-4.8126996e-05 1.2507219e-06 9.193547e-06 1.1376563e-05 -4.3357738e-07 3.1337288e-05 2.5865693e-21 2.4509112e-23
-2.1867488e-06 -4.3506666e-06 -2.0458394e-05 -4.858021e-06 -7.842643e-05 -7.780695e-06 -2.9149887e-05 1.5912927e-24
-7.0193782e-06 5.6663935e-06 -5.8520858e-05 -3.004884e-06 -4.422551e-05 -8.608013e-06 9.6658856e-05 9.537463e-06
1.8255701e-05 6.3674693e-06 6.8822266e-07 8.4472085e-06 -4.239978e-06 2.2219558e-07 -4.0861696e-06 -6.2875006e-06
-0.00016591662 4.8703246e-06 1.627517e-05 -3.5348291e-06 -5.9285827e-05 -2.5455352e-06 5.6111367e-05 -1.0801138e-05
-4.373343e-05 -1.2800683e-06 -2.9584573e-05 -8.2155617e-07 -2.9594772e-05 -6.802496e-06 1.0752757e-05 -1.2825027e-06
-0.00031329322 7.963708e-06 -5.0919512e-05 -4.3885353e-07 2.6894026e-05 3.5808918e-07 -5.9569422e-05 -1.0262392e-05
00000000: f63b b338 dd9f a537 f202 e3b5 7507 e736
00000010: 079f 1d36 f297 6836 47b6 a037 fc29 f137
00000020: b5ab 0cb8 9246 0537 a213 a238 b9d1 dd36
00000030: c906 a4b8 50ae 1736 5ffd 2f38 f784 e637
00000040: 3b17 5d38 53ea b136 f11a 4337 7b1d 03b6
00000050: 3b24 c6b6 176e 08b7 7de6 8837 2123 6537
00000060: 881b 28b8 62b4 ed35 d8f3 be37 bd1a 6836
00000070: 1108 f41c c595 0b1a db50 f238 e0db f137
00000080: 7905 c535 968f 0c37 cfd1 19b8 2c2e 2637
00000090: ea3e 89b8 d4e4 5db6 b680 9f37 0dc7 7f34
000000a0: b621 9db8 747c f136 c4e3 1fb8 2ec6 2435
000000b0: 3ce7 cd37 eba3 21b6 1c9d 48b7 6a73 34b6
000000c0: 2945 17b7 8ed0 ddb5 e95f 68b8 1bb9 47b5
000000d0: 6b17 5038 e473 83b6 bb75 f5b7 f900 02b6
000000e0: f3a4 09b8 3c84 7437 dca7 71b6 bc12 9e35
000000f0: 43e8 1638 90b2 69b6 e0db 3db8 76b4 dfb6
00000100: 1909 16b8 b8be 87b6 60a7 30b8 eef9 92b5
00000110: e64e 44b8 b54d 8f37 258a 45b8 dd6d 4937
00000120: f8db 49b8 7ade a735 fc3d 1a37 f7dd 3e37
00000130: 6cc6 e8b4 2870 0338 876f 431d 9f09 ed19
00000140: 0fc0 12b6 f1fb 91b6 119e abb7 1502 a3b6
00000150: de78 a4b8 d589 02b7 e886 f4b7 993d f617
00000160: 0088 ebb6 f321 be36 4b74 75b8 84a7 49b6
00000170: c87e 39b8 226b 10b7 54b5 ca38 1703 2037
00000180: d223 9937 25a8 d536 4dbe 3835 7cb8 0d37
00000190: 2245 8eb6 a894 6e34 ee1b 89b6 38f9 d2b6
000001a0: e7f9 2db9 c56b a336 a986 8837 e737 6db6
000001b0: aca9 78b8 f6d3 2ab6 1f59 6b38 8936 35b7
000001c0: 6a6e 37b8 d0ce abb5 632c f8b7 e988 5cb5
000001d0: 4a42 f8b7 ff40 e4b6 bd66 3437 7522 acb5
000001e0: 8141 a4b9 de9b 0537 6992 55b8 929b ebb4
000001f0: 7b9a e137 673f c034 2eda 79b8 a32c 2cb7

exp_avg_sq f4 [64, 2]
5.020325e-07 4.057235e-09 4.1567316e-07 5.523661e-10 1.05589294e-07 3.4077638e-10 2.6008232e-07 1.4297761e-08
5.0505645e-07 1.5359671e-09 3.104881e-07 7.510268e-09 3.4446398e-07 3.9538124e-09 4.341203e-07 1.9498163e-08
1.3291111e-07 4.4614814e-09 3.360919e-07 1.5409672e-09 7.944264e-08 5.210268e-10 1.810584e-07 1.2175893e-09
2.3182045e-07 7.427104e-10 1.1011092e-07 8.997311e-10 2.3312427e-07 9.321422e-11 1.8949666e-07 7.145547e-09
1.2542044e-07 9.700072e-10 1.0311471e-07 1.9319157e-09 1.2025664e-07 2.0336606e-10 8.923682e-08 2.1519808e-10
4.1049574e-07 1.9416502e-09 1.5241841e-07 1.1431542e-09 5.930498e-07 1.0189698e-09 2.2711168e-07 4.0351333e-10
2.7047625e-07 9.3023e-10 2.6747168e-07 2.2245519e-09 1.8619295e-07 2.1173896e-09 1.7876872e-07 1.0303887e-09
1.624006e-07 5.749339e-09 2.8670058e-07 1.1876217e-09 2.1586672e-07 5.311709e-10 6.8422327e-07 2.1653916e-09
5.479915e-07 1.2544106e-09 3.9836405e-07 2.0996362e-09 3.8540622e-07 3.5141812e-09 3.6192122e-07 7.6844986e-10
4.6401382e-07 2.3234439e-09 1.16591856e-07 6.630882e-09 2.8053657e-07 1.8065762e-08 2.8233592e-07 1.1468542e-10
3.0320066e-07 2.553528e-09 2.2607935e-07 4.139214e-10 2.6505842e-07 1.8332357e-09 4.5513115e-08 7.162418e-14
4.537175e-08 4.248975e-10 4.427558e-07 3.0655367e-09 4.4091868e-07 1.9383677e-09 2.4899674e-07 4.766573e-10
1.8101935e-07 5.942513e-10 5.512585e-08 1.1026752e-09 2.2328321e-07 5.166485e-10 3.286923e-07 1.0317769e-09
7.09415e-07 6.387513e-09 6.415209e-07 1.5518129e-09 1.2648879e-07 1.1844562e-09 1.6125122e-07 9.845149e-09
1.4428208e-07 5.93178e-10 5.976112e-07 1.2979379e-09 1.3017267e-07 1.0097844e-09 1.8290064e-07 9.333225e-10
3.7712925e-07 3.8595065e-09 5.562539e-07 2.5453588e-09 9.1133856e-08 3.0031116e-10 4.4438167e-07 3.0358105e-09
00000000: 69c3 0635 d167 8b31 af29 df34 4fd5 1730
00000010: 54c0 e233 0358 bb2f 71a1 8b34 38a2 7532
00000020: 3793 0735 0a1a d330 29b1 a634 8206 0132
00000030: c5ee b834 1ada 8731 0a11 e934 ea7c a732
00000040: 54b6 0e34 9b4b 9931 1e70 b434 f7c9 d330
00000050: 0e9a aa33 0038 0f30 f468 4234 1d58 a730
00000060: 52ea 7834 9927 4c30 1e76 ec33 f350 7730
00000070: b650 7a34 f1fa cc2e 7278 4b34 e584 f531
00000080: 4fab 0634 1851 8530 e96f dd33 9fc2 0431
00000090: e51f 0134 759a 5f2f 76a2 bf33 e09c 6c2f
000000a0: 1b62 dc34 df6d 0531 74a8 2334 2a1d 9d30
000000b0: 1232 1f35 d00b 8c30 fcdb 7334 74d5 dd2f
000000c0: f935 9134 1eb3 7f30 0799 8f34 bbde 1831
000000d0: 54ec 4734 8381 1131 92f3 3f34 949d 8d30
000000e0: 5660 2e34 b88b c531 d4eb 9934 b939 a330
000000f0: fec8 6734 d401 1230 77ab 3735 f9cd 1431
00000100: b019 1335 a667 ac30 bdde d534 3149 1031
00000110: d4e9 ce34 217e 7131 134e c234 da3a 5330
00000120: 931d f934 75aa 1f31 0d61 fa33 dbd5 e331
00000130: a79c 9634 082f 9b32 f493 9734 2732 fc2e
00000140: 95c7 a234 247a 2f31 38c0 7234 428e e32f
00000150: 5a4d 8e34 3ff5 fb30 337a 4333 8748 a129
00000160: c4de 4233 0297 e92f e5b3 ed34 7ea9 5231
00000170: 67b7 ec34 2034 0531 daad 8534 c705 0330
00000180: 385e 4234 b858 2330 83c3 6c33 ef8c 9730
00000190: 9fbf 6f34 e803 0e30 2077 b034 6cce 8d30
000001a0: a16e 3e35 2979 db31 fb34 2c35 9047 d530
000001b0: f9d0 0734 59ca a230 6624 2d34 6c23 2932
000001c0: f5eb 1a34 310d 2330 876b 2035 2163 b230
000001d0: 97c5 0b34 a1c8 8a30 5863 4434 5e46 8030
000001e0: 4078 ca34 949c 8431 7a51 1535 6dea 2e31
000001f0: 5eb5 c333 0a19 a52f 5a93 ee34 8b9e 5031

exp_avg f4 [64]
-2.7310887e-05 -1.2012207e-05 1.1089518e-06 -8.137363e-06 -7.3551178e-06 1.0780473e-05 6.6501498e-06 -3.100703e-05
1.4390431e-05 6.131543e-06 -5.472801e-06 9.520718e-06 2.0747711e-06 -1.0128783e-06 8.4533584e-23 -3.9317976e-05
-7.3179723e-07 2.2402717e-05 -2.419625e-06 -6.198089e-07 1.9258575e-06 -1.0916722e-05 5.812191e-06 -3.2747755e-06
-2.5583222e-06 7.55633e-06 5.094009e-06 3.3191134e-06 1.4548734e-05 7.3589836e-06 -2.2701802e-06 -1.3998752e-05
-1.1830876e-05 -9.0455524e-07 2.2230135e-05 1.7022361e-05 -1.6161845e-05 -4.647865e-06 1.0435778e-05 1.2410992e-22
4.3212763e-06 -4.4897647e-06 -9.775062e-06 -1.0256935e-06 -2.6833256e-06 -3.3583834e-05 -8.031561e-07 1.34611e-06
1.591462e-05 -2.5877514e-06 8.701642e-06 7.113558e-06 -3.9595892e-05 1.0784253e-06 1.6494154e-05 -2.9230445e-05
8.948033e-06 -7.432268e-06 -1.7388177e-06 1.8041047e-06 -5.6350756e-05 -1.2304531e-05 -1.8848688e-06 7.4530467e-06
00000000: af19 e5b7 0988 49b7 4bd7 9435 b585 08b7
00000010: fbcb f6b6 c7dd 3437 5a24 df36 8c0d 02b8
00000020: 6e6e 7137 8ebd cd36 01a3 b7b6 2cbb 1f37
00000030: 4c3c 0b36 3cf2 87b5 c163 cc1a 5be9 24b8
00000040: b970 44b5 78ed bb37 d760 22b6 f160 26b5
00000050: fb3d 0136 f726 37b7 5706 c336 37c4 5bb6
00000060: a4af 2bb6 618c fd36 34ed aa36 efbd 5e36
00000070: 5616 7437 30ed f636 6659 18b6 2fdc 6ab7
00000080: 3a7d 46b7 90d0 72b5 da7a ba37 3ecb 8e37
00000090: 4c93 87b7 dbf4 9bb6 5315 2f37 290a 161b
000000a0: 7bff 9036 c9a6 96b6 92ff 23b7 8faa 89b5
000000b0: 2f13 34b6 5edc 0cb8 7898 57b5 fdab b435
000000c0: 6380 8537 3ba9 2db6 45fd 1137 ffb0 ee36
000000d0: c413 26b8 69be 9035 ed5c 8a37 e733 f5b7
000000e0: 821f 1637 b262 f9b6 5261 e9b5 9124 f235
000000f0: 2a5a 6cb8 8f6f 4eb7 99fb fcb5 2f15 fa36

exp_avg_sq f4 [64]
1.503906e-08 3.6755767e-09 6.3048616e-10 3.213421e-08 9.919193e-09 2.7485e-08 7.248975e-09 4.9499015e-08
6.6267907e-09 3.1280178e-09 1.6268451e-09 3.825019e-09 2.090224e-09 1.8847017e-09 8.8773133e-10 2.5768921e-08
2.7383193e-09 2.7397746e-09 5.7374133e-10 5.085532e-10 3.181242e-09 6.5210384e-09 4.1449484e-09 2.1856665e-09
2.2777165e-09 3.9896952e-09 4.622317e-09 3.4526142e-09 6.1147776e-09 4.7293294e-09 3.5136059e-09 1.0884383e-08
7.557845e-09 5.232818e-09 6.193279e-09 8.981285e-09 1.2569415e-08 8.661542e-09 3.3701646e-08 1.1419199e-09
5.0522533e-09 2.4385551e-09 4.4663246e-09 8.7168425e-11 1.6744618e-09 1.3115906e-08 4.4980495e-09 8.964052e-08
3.1679195e-09 2.9673861e-09 1.6451007e-09 4.293823e-09 2.9132881e-08 4.4959894e-09 4.081892e-09 6.384149e-08
2.4950955e-09 7.3757285e-09 1.9645026e-09 3.1087355e-09 1.6628583e-08 1.1559302e-08 6.380148e-10 6.4005694e-09
00000000: 3e2f 8132 6e95 7c31 854e 2d30 f003 0a33
00000010: 1269 2a32 2718 ec32 a912 f931 be98 5433
00000020: deb1 e331 acf4 5631 8697 df30 396d 8331
00000030: 9ca3 0f31 0684 0131 8a04 7430 755a dd32
00000040: 062d 3c31 a046 3c31 75b5 1d30 40ca 0b30
00000050: 009d 5a31 a90f e031 5a6b 8e31 a732 1631
00000060: 0386 1c31 bb15 8931 55d2 9e31 0843 6d31
00000070: 271a d231 9f7f a231 0274 7131 06fe 3a32
00000080: c1d7 0132 5bcc b331 a8cc d431 1c4c 1a32
00000090: dff0 5732 ddcd 1432 5abf 1033 bcf1 9c30
000000a0: 1798 ad31 8493 2731 3576 9931 76af bf2e
000000b0: e322 e630 5d54 6132 438d 9a31 6680 c033
000000c0: a1b2 5931 cfea 4b31 d619 e230 de88 9331
000000d0: e23f fa32 247b 9a31 b440 8c31 3b19 8933
000000e0: 2f76 2b31 986d fd31 e5ff 0631 74a1 5531
000000f0: a4d6 8e32 5996 4632 4d60 2f30 01ec db31

exp_avg f4 [32, 64]
3.934016e-25 2.650814e-26 0.0 -3.7347326e-24 8.089608e-26 1.391013e-25 8.3366846e-22 1.9048384e-24
1.2243595e-22 1.0643081e-21 1.2001655e-21 2.4228095e-26 5.394738e-22 1.0777978e-21 0.0 6.915587e-25
1.9187435e-26 5.3626e-22 1.0180099e-22 3.5543333e-22 7.6360403e-22 0.0 -5.94631e-25 2.7708481e-27
1.2022248e-21 4.3111827e-22 6.8370375e-22 -4.48604e-28 -7.3071515e-25 7.0316163e-22 9.246474e-22 0.0
0.0 1.2170901e-21 2.9863275e-22 1.860695e-25 -9.826365e-28 -4.542314e-25 -1.514169e-23 0.0
9.772889e-22 0.0 0.0 0.0 4.5971704e-26 1.5006408e-22 0.0 2.227566e-22
-4.478115e-25 -2.0784008e-28 1.0773531e-25 9.557582e-22 3.5842452e-22 9.485685e-22 1.2672692e-21 1.683632e-22
8.4025985e-22 0.0 8.199834e-26 1.2612944e-21 7.83622e-23 0.0 4.676719e-22 1.0974311e-21
9.815076e-06 3.7302073e-08 2.491957e-05 8.422318e-06 2.152358e-18 1.0382292e-05 0.00018391164 1.3291193e-05
9.374896e-05 0.00026456622 0.00031220954 1.0068925e-09 0.00014748245 0.0002443623 2.1119709e-22 1.1039464e-05
1.2258743e-20 0.00015424285 -3.5566848e-23 3.1934018e-05 0.00013635878 1.9083667e-21 5.366076e-07 1.4603865e-21
0.00024497067 0.00015392413 0.00014648205 1.6012565e-21 -1.2571605e-06 0.00014760281 0.00024953327 2.4154528e-21
1.5668152e-21 0.0003379801 0.000120550605 6.9542904e-05 2.6168778e-21 -1.0400305e-07 3.6354822e-06 1.9827467e-22
0.00020574777 1.5228963e-21 1.9301767e-22 3.3024039e-24 2.7925234e-16 7.178172e-05 9.263337e-22 2.1087391e-05
6.032049e-08 5.2792007e-17 2.7266514e-21 0.00024151895 0.00012357463 0.00020592254 0.0002749183 2.9745102e-05
0.00014639262 6.14825e-22 4.979514e-22 0.00032392077 8.046074e-05 2.142008e-21 6.096618e-05 0.00027004545
2.519811e-24 1.0341884e-24 0.0 2.3797496e-24 0.0 1.883927e-24 1.3694516e-24 1.7804216e-24
8.426676e-25 3.7451597e-24 5.8512706e-27 1.4022432e-24 0.0 3.4578598e-24 0.0 2.05416e-24
4.8546275e-26 6.699256e-25 0.0 0.0 2.5099673e-24 2.6401396e-26 5.320738e-25 8.6335396e-26
1.579244e-24 8.2387795e-25 6.112097e-25 0.0 0.0 2.9128859e-24 7.59463e-28 2.7943649e-27
0.0 4.346242e-24 3.371937e-25 0.0 5.1217734e-26 1.260593e-25 3.002026e-24 0.0
9.066305e-25 2.0959811e-26 0.0 0.0 1.1385871e-25 1.9351752e-24 0.0 2.8969503e-24
7.359442e-25 5.299536e-26 1.0381166e-26 1.4760248e-25 3.5649027e-24 7.5355484e-25 3.816212e-24 1.9653067e-24
1.7136573e-24 0.0 0.0 4.3445757e-24 1.8130083e-24 4.2713486e-27 0.0 5.7634764e-25
2.510537e-22 3.2099715e-22 4.990325e-24 2.0749471e-22 6.378049e-23 7.5959177e-23 1.0065752e-21 8.967639e-23
3.2663274e-22 1.3468736e-21 1.5206023e-21 2.2132945e-22 7.1831973e-22 1.3454271e-21 1.6549887e-23 1.4033887e-22
4.1494982e-22 8.2741785e-22 4.1644497e-23 4.0077284e-22 8.764697e-22 2.8293692e-22 3.2958063e-22 2.1045934e-22
1.4903049e-21 7.1707795e-22 8.1411597e-22 2.358097e-22 2.5550176e-23 8.341761e-22 1.2165581e-21 3.5934295e-22
2.3281166e-22 1.6752856e-21 5.283569e-22 2.4170674e-23 3.9992933e-22 1.8900587e-22 2.0483903e-22 1.7213645e-23
1.1995254e-21 2.2213424e-22 3.630647e-23 4.5000314e-24 3.039936e-22 2.8603778e-22 1.3169705e-22 1.447528e-22
2.7363432e-22 3.5266535e-22 4.3764963e-22 1.2657865e-21 5.2728185e-22 1.1906561e-21 1.5908805e-21 8.446091e-23
9.861699e-22 1.03861976e-22 1.00538454e-22 1.604713e-21 2.048738e-22 3.2030325e-22 5.5132794e-22 1.4129576e-21
00000000: f980 f316 0f43 0315 0000 0000 007b 9098
00000010: fb49 c815 f632 2c16 f9f5 7b1c 3661 1318
00000020: 1704 141b 6dd5 a01c 275d b51c 85f1 ef14
00000030: c30b 231c 48df a21c 0000 0000 ed06 5617
00000040: ed05 be14 1c13 221c c323 f61a a5d8 d61b
00000050: 00c9 661c 0000 0000 8607 3897 7a87 5b13
00000060: d2ac b51c 294c 021c 04a3 4e1c 152b 0e92
00000070: 3825 6297 7f84 541c 90ba 8b1c 0000 0000
00000080: 0000 0000 e5eb b71c 2e83 b41b c757 6616
00000090: 79b4 9b92 eb93 0c97 0271 9299 0000 0000
000000a0: 08af 931c 0000 0000 0000 0000 0000 0000
000000b0: 0fa4 6315 956a 351b 0000 0000 eaa5 861b
000000c0: 4897 0a97 fbbb 8391 af5e 0516 1b6e 901c
000000d0: 82a7 d81b f757 8f1c 1a81 bf1c e389 4b1b
000000e0: f5f3 7d1c 0000 0000 9f04 cb15 f799 be1c
000000f0: da77 bd1a 0000 0000 5c58 0d1c cfd6 a51c
00000100: 6eab 2437 1036 2033 5e0a d137 954d 0d37
00000110: e5d0 1e22 9b2f 2e37 68d8 4039 3dfd 5e37
00000120: 179b c438 7ab5 8a39 0eb0 a339 e162 8a30
00000130: 85a5 1a39 c11d 8039 5552 7f1b 2336 3937
00000140: a58f 671e 40bc 2139 a0fd 2b9a e4f0 0538
00000150: 88fb 0e39 2e31 101d 650b 1035 f7af dc1c
00000160: 686f 8039 b266 2139 fa98 1939 9cf9 f11c
00000170: b5bb a8b5 d4c5 1a39 cad3 8239 a781 361d
00000180: 3ac5 ec1c ec32 b139 1dd0 fc38 90d7 9138
00000190: c7b9 451d 4858 dfb3 1cf9 7336 0ab3 6f1b
000001a0: ffbd 5739 3222 e61c 1358 691b d982 7f18
000001b0: 5ffa a025 8489 9638 cdfb 8b1c d4e4 b037
000001c0: 8a89 8133 cd75 7324 1c05 4e1d 4040 7d39
000001d0: d093 0139 e9ec 5739 e922 9039 1f85 f937
000001e0: f880 1939 c8d1 391c 207f 161c e9d3 a939
000001f0: 08bd a838 76d8 211d f0b5 7f38 e394 8d39
00000200: 00f6 4218 6c08 a017 0000 0000 cc1f 3818
00000210: 0000 0000 05c3 1118 91e9 d317 e2c0 0918
00000220: 8165 8217 44e2 9018 efca e713 93fc d817
00000230: 0000 0000 fcc4 8518 0000 0000 d5ee 1e18
00000240: b763 7015 f954 4f17 0000 0000 0000 0000
00000250: 0633 4218 bfbb 0215 3bab 2417 8fc1 d515
00000260: 4d60 f417 56fa 7e17 0529 3d17 0000 0000
00000270: 0000 0000 a65f 6118 f5ae 7012 7464 5d13
00000280: 0000 0000 1923 a818 79b6 d016 0000 0000
00000290: 319e 7d15 c90d 1c16 4045 6818 0000 0000
000002a0: 564b 8c17 6f93 cf14 0000 0000 0000 0000
000002b0: 44f3 0c16 18ba 1518 0000 0000 0324 6018
000002c0: 82c3 6317 cd35 8315 c49e 4d14 18b9 3616
000002d0: 16e9 8918 c436 6917 efa1 9318 e90e 1818
000002e0: 7b96 0418 0000 0000 0000 0000 9812 a818
000002f0: 5446 0c18 9f34 a913 0000 0000 f75e 3217
00000300: aec0 971b e707 c21b c90d c118 81d8 7a1b
00000310: 3636 9a1a 74a8 b71a fe1b 981c ffd2 d81a
00000320: f86f c51b a688 cb1c 74c9 e51c 13c9 851b
00000330: 4c19 591c b150 cb1c 890f a019 c7a8 291b
00000340: 60d2 fa1b 5b12 7a1c 6461 491a 9840 f21b
00000350: c772 841c 5e06 ab1b 2238 c71b 036e 7e1b
00000360: 6135 e11c 38b9 581c 2c0d 761c c989 8e1b
00000370: 2c1b f719 401d 7c1c 50d7 b71c a135 d91b
00000380: dcb9 8c1b 7929 fd1c a3af 1f1c b1c3 e919
00000390: 11be f11b 7c7e 641b 9ca2 771b ec7a a619
000003a0: 6444 b51c 9c45 861b 3c91 2f1a 2716 ae18
000003b0: bbc0 b71b 34e6 ac1b 4336 1f1b d2fe 2e1b
000003c0: dc66 a51b 522c d51b 8045 041c be47 bf1c
000003d0: 755c 1f1c 47ed b31c 3568 f01c c536 cc1a
000003e0: 9a06 951c 731f fb1a 4a16 f31a 547f f21c
000003f0: 5fad 771b 879c c11b efa0 261c 2685 d51c

exp_avg_sq f4 [32, 64]
7.380873e-14 1.4871266e-14 0.0 1.2610447e-11 6.9322087e-15 5.624317e-11 3.020199e-07 1.8587513e-13
8.250517e-09 5.0008254e-07 6.5121003e-07 3.5129462e-13 1.2983489e-07 5.1346564e-07 0.0 1.8612961e-13
1.4183112e-15 1.3861748e-07 3.9397907e-09 5.440179e-08 2.5341615e-07 0.0 5.3361677e-12 4.375545e-18
6.376971e-07 8.631295e-08 2.0740084e-07 4.414047e-20 4.96192e-13 2.130934e-07 3.7781203e-07 0.0
0.0 6.764259e-07 4.554474e-08 4.0468613e-15 2.1178604e-19 2.8959203e-12 4.40648e-11 0.0
4.268832e-07 0.0 0.0 0.0 5.351658e-13 1.1287194e-08 0.0 1.840454e-08
3.1389054e-12 9.474797e-21 3.8585124e-13 4.0151096e-07 5.990257e-08 3.9731594e-07 7.1673406e-07 1.0804485e-08
3.0922007e-07 0.0 1.6626068e-14 7.0499607e-07 3.1557135e-09 0.0 9.549737e-08 5.395135e-07
7.2065507e-07 1.1556393e-06 1.4799283e-08 3.2916702e-07 2.071243e-08 5.0613888e-08 9.06535e-07 6.34283e-08
2.872676e-07 2.4132241e-06 2.5520578e-06 5.042429e-07 5.38056e-07 2.0955536e-06 1.0230301e-08 2.5857784e-07
1.5574049e-06 8.3523315e-07 3.4706442e-09 7.516121e-08 6.852194e-07 8.940336e-07 1.0660783e-06 5.175908e-07
1.9840181e-06 5.501216e-07 7.2021527e-07 6.351692e-07 9.590246e-09 7.5350226e-07 1.5352049e-06 1.4256569e-06
5.9977833e-07 3.4610769e-06 4.4993556e-07 5.5396313e-08 1.6785597e-06 2.3215355e-07 2.492587e-07 8.964379e-09
1.4761944e-06 5.665028e-07 8.874465e-09 2.3920553e-12 7.883523e-07 1.5593648e-07 2.0897545e-07 2.0848987e-08
7.8623236e-07 1.230686e-06 1.8760911e-06 1.5067251e-06 3.9706947e-07 1.4097202e-06 2.7129217e-06 2.1685393e-08
7.6422526e-07 9.273242e-08 6.313911e-08 3.3376514e-06 9.474274e-08 1.1344848e-06 1.9511553e-07 2.2223064e-06
1.3926637e-12 2.3459034e-13 0.0 1.2421479e-12 0.0 7.784645e-13 4.1134262e-13 6.95275e-13
1.5574796e-13 3.076462e-12 7.509495e-18 4.312781e-13 0.0 2.6225654e-12 0.0 9.255073e-13
5.169189e-16 9.843816e-14 0.0 0.0 1.3818056e-12 1.528852e-16 6.20946e-14 1.634889e-15
5.470272e-13 1.4888039e-13 8.1939115e-14 0.0 0.0 1.8610484e-12 1.265094e-19 1.7126821e-18
0.0 4.143216e-12 2.4938427e-14 0.0 5.7537524e-16 3.4854624e-15 1.9766946e-12 0.0
1.8028987e-13 9.6357416e-17 0.0 0.0 2.843431e-15 8.213933e-13 0.0 1.8407409e-12
1.1879579e-13 6.1600736e-16 2.3637583e-17 4.778578e-15 2.7874404e-12 1.2454934e-13 3.194299e-12 8.471717e-13
6.4410846e-13 0.0 0.0 4.1400503e-12 7.2095867e-13 4.0016624e-18 0.0 7.2858406e-14
7.2070763e-09 1.2018956e-08 4.2043127e-13 2.8524827e-09 4.4599513e-10 5.823071e-10 7.5035814e-08 8.7586327e-10
4.37402e-09 1.318929e-07 1.6725913e-07 5.463406e-09 3.3043538e-08 1.3468717e-07 3.2022832e-11 2.1939643e-09
1.9965446e-08 4.5141086e-08 5.3247984e-10 1.1301914e-08 6.209471e-08 9.356098e-09 1.0966844e-08 5.176058e-09
1.6203828e-07 2.8376702e-08 5.159876e-08 6.4961734e-09 3.9856337e-11 5.2910444e-08 9.501993e-08 1.5084286e-08
6.331614e-09 1.9410142e-07 1.6947816e-08 8.959591e-12 1.8688013e-08 3.1609289e-09 1.9070818e-09 3.4642983e-11
1.09473085e-07 5.7646012e-09 1.541126e-10 2.3675578e-12 1.0269685e-08 4.61587e-09 2.0266135e-09 3.020327e-09
7.688451e-09 1.4486303e-08 2.1856568e-08 1.02449356e-07 1.946207e-08 1.00925135e-07 1.9084008e-07 1.8175883e-09
7.629835e-08 1.2610056e-09 1.1227824e-09 1.8809945e-07 1.875732e-09 1.1986507e-08 2.1767143e-08 1.4155364e-07
00000000: d633 a629 cef2 8528 0000 0000 68d8 5d2d
00000010: 57c2 f927 2e5c 772e 4d25 a234 dc46 512a
00000020: 28be 0d32 693d 0635 d0ce 2e35 e4c2 c52a
00000030: be68 0b34 17d5 0935 0000 0000 3590 512a
00000040: 7366 cc26 e2d6 1434 c45e 8731 67a7 6933
00000050: 400d 8834 0000 0000 edbf bb2c db6d a122
00000060: 362e 2b35 0c5b b933 e9b1 5e34 8e72 501f
00000070: 67aa 0b2b abce 6434 17d6 ca34 0000 0000
00000080: 0000 0000 a293 3535 f99c 4333 b5cd 9127
00000090: 6708 7a20 43c8 4b2c 8ecc 412e 0000 0000
000000a0: 612e e534 0000 0000 0000 0000 0000 0000
000000b0: c3a2 162b 9be9 4132 0000 0000 0318 9e32
000000c0: 7ee1 5c2c 4ff9 321e 0637 d92a 3f8f d734
000000d0: c9a3 8033 b04e d534 9765 4035 a19e 3932
000000e0: e202 a634 0000 0000 1ac1 9528 f63e 3d35
000000f0: e6db 5831 0000 0000 3c14 cd33 16d3 1035
00000100: 0a73 4135 771b 9b35 ef3f 7e32 5fb8 b034
00000110: 1eeb b132 8f62 5933 9c58 7335 1436 8833
00000120: c239 9a34 e0f2 2136 0544 2b36 4f5b 0735
00000130: ed6e 1035 56a1 0c36 57c1 2f32 abd2 8a34
00000140: 0608 d135 c934 6035 3880 6e31 5068 a133
00000150: ebef 3735 85fd 6f35 2c16 8f35 92f0 0a35
00000160: 2c25 0536 12ac 1335 d154 4135 7f80 2a35
00000170: 59c2 2432 4844 4a35 3d0d ce35 3359 bf35
00000180: 7400 2135 d944 6836 ac8e f134 e4ec 6d33
00000190: df4a e135 e245 7934 dbd1 8534 c101 1a32
000001a0: a721 c635 c711 1835 4f76 1832 7053 282c
000001b0: 289f 5335 7e6f 2734 bc62 6034 6817 b332
000001c0: 7a0d 5335 0d2e a535 00ce fb35 ae3a ca35
000001d0: d02c d534 9e35 bd35 a40f 3636 af46 ba32
000001e0: 2925 4d35 3024 c733 1897 8733 6afc 5f36
000001f0: 5f75 cb33 9a44 9835 f380 5134 ef22 1536
00000200: ffff c32b 0810 842a 0000 0000 18d1 ae2b
00000210: 0000 0000 471e 5b2b b890 e72a d8b3 432b
00000220: 4b5b 2f2a 9d7c 582c 9686 0a23 b9c9 f22a
00000230: 0000 0000 f08b 382c 0000 0000 ea40 822b
00000240: e2fd 1426 bca9 dd29 0000 0000 0000 0000
00000250: cb78 c22b bf43 3025 1ad3 8b29 c29c eb26
00000260: 77f9 192b da9f 272a af82 b829 0000 0000
00000270: 0000 0000 abf5 022c 1f5b 1520 4dbf fc21
00000280: 0000 0000 c6c6 912c 19a0 e028 0000 0000
00000290: 33d7 2526 6f27 7b27 f718 0b2c 0000 0000
000002a0: 04fd 4a2a 612f de24 0000 0000 0000 0000
000002b0: 0be4 4c27 a033 672b 0000 0000 d787 012c
000002c0: 8ec0 052a 528d 3126 aa04 da23 9a2a ac27
000002d0: 1026 442c e73a 0c2a 60c7 602c 2875 6e2b
000002e0: e84c 352b 0000 0000 0000 0000 42aa 912c
000002f0: 8cee 4a2b a2a2 9322 0000 0000 0310 a429
00000300: 1da2 f731 ed7b 4e32 88ae ec2a 6805 4431
00000310: 3c30 f52f 3810 2030 6023 a133 66c1 7030
00000320: 494a 9631 729e 0d34 d797 3334 a1b8 bb31
00000330: c1eb 0d33 879e 1034 81d6 0c2e a1c4 1631
00000340: 7b80 ab32 26e1 4133 f05d 1230 582a 4232
00000350: ee58 8533 8ebc 2032 b168 3c32 16d9 b131
00000360: befc 2d34 07c1 f332 709d 5d33 f234 df31
00000370: 3f4a 2f2e a63f 6333 c20d cc33 b292 8132
00000380: 778d d931 316a 5034 a494 9132 699e 1d2d
00000390: 6087 a032 a637 5931 bd0d 0331 885c 182e
000003a0: 7717 eb33 f811 c631 d772 292f 219a 262c
000003b0: 8d6e 3032 9f99 9e31 9044 0b31 288e 4f31
000003c0: 2a16 0432 6fdf 7832 1abf bb32 2102 dc33
000003d0: 8b2d a732 2ebc d833 b9e9 4c34 b4ce f930
000003e0: 76d9 a333 b14f ad30 6550 9a30 62f8 4934
000003f0: 3ae6 0031 37ed 4d32 74fa ba32 f8fd 1734

exp_avg f4 [32]
1.4290301e-22 6.156743e-05 5.2307414e-24 2.0444457e-22 1.2241724e-22 -6.684606e-05 5.018628e-22 3.0767715e-05
6.5045376e-22 3.8490596e-22 1.02824756e-22 -8.395218e-06 5.065349e-12 2.9120133e-22 1.1346973e-20 3.349051e-22
2.9377274e-22 0.0 -4.2974083e-05 2.9517953e-22 -1.2627942e-06 1.223221e-22 1.448272e-22 0.0
-0.000103466045 3.4134837e-22 7.864842e-24 0.0 2.3154373e-22 1.0089725e-22 4.1046607e-23 1.3191937e-22
00000000: 57c2 2c1b c31d 8138 c15a ca18 8828 771b
00000010: 4dfe 131b b52f 8cb8 c1ad 171c 950c 0138
00000020: 6c96 441c 50a9 e81b 719d f81a 30d9 0cb7
00000030: 9c38 b22c 3905 b01b 9856 561e 0e70 ca1b
00000040: 2193 b11b 0000 0000 123f 34b8 d26c b21b
00000050: 477d a9b5 dbe0 131b d915 2f1b 0000 0000
00000060: e9fb d8b8 1a55 ce1b d020 1819 0000 0000
00000070: a8f5 8b1b 5ff4 f31a 3d7d 461a 117b 1f1b
