checkpoints/checkpoint_epoch_900.pth (torch, 314812 bytes, 30 tensors)

lstm.weight_ih_l0 f4 [256, 2]
-0.049486 7.75429e-05 0.077023245 -0.008350237 0.0020522974 -7.117285e-14 -0.21284066 0.0026637386
-0.22995844 -0.010032614 -0.0015968531 0.0012737692 0.1173225 -0.009024496 0.0747648 -0.004628197
-0.03636423 -0.004751855 -0.15709752 -0.0036811414 -0.08564878 -0.004931654 -0.08847749 -0.007891737
-0.058124717 -0.005882392 -0.2964118 0.07841922 -0.014535137 0.00017663024 -0.017166719 0.00020509982
-2.5623158e-06 -5.091645e-12 -0.054247137 -0.0014589699 -0.087838106 -0.0030720646 0.003234381 -0.0027193872
-0.18557578 -0.025707258 0.0019250456 -0.005613897 -0.073777 0.00036308522 -0.1351569 -0.0150356395
0.12153646 -0.0037338708 -0.069882385 0.0047054924 -0.03867094 -0.0007446604 1.7919217e-05 -1.3068634e-05
-0.08738184 -0.0041296943 -2.4653718e-06 -1.329584e-07 -9.706684e-13 -5.4399706e-26 -1.0482367e-15 -1.3128309e-16
0.28038844 -0.15788832 -0.031843867 -8.028436e-05 0.100483894 -0.0028387408 -2.672079e-05 -6.793616e-07
0.10011096 -0.023426736 -0.011156029 -0.00027421754 -0.0075253863 -0.0025314228 -0.07897772 -0.0009262125
-0.04395751 -9.901171e-05 -0.07924594 -0.019751646 -0.046161152 0.0021137616 -2.1503624e-22 -5.650711e-23
-0.012562327 -0.0060670036 -0.051612083 -0.0037370154 0.007032314 0.056273594 -0.0038270752 -0.0028067585
-0.00836515 -0.0043601315 0.0197267 -0.00059564185 -0.00034718815 -0.00016249582 -0.21364331 -0.02573879
-0.20595756 -0.011497768 0.09558685 -0.019070275 -5.798041e-05 -4.899807e-07 -0.03357017 -0.0010617261
0.009886833 -0.0076795826 -0.075198404 -0.017379435 0.10612897 -0.00023374073 -4.9050774e-05 -9.756445e-07
-0.1107509 0.09261741 -0.025678119 0.014078614 0.035289295 0.00048690647 -0.059337936 -0.000733702
-0.0006635881 0.0015803934 0.047821846 -0.047198758 -3.1451876e-11 -3.4480516e-13 -0.023664778 -0.0046689804
-0.104656994 0.008204664 -0.019915672 -5.550197e-05 -0.019760622 -0.010612453 -0.009081746 -0.007751263
-0.0163727 -0.0029385935 -0.03370055 -0.0048834034 -0.028469147 -0.010307418 0.0105426535 -0.005026818
-0.015438055 -0.006547284 0.49905023 0.20824748 0.004306589 -0.00059191557 -0.00065189233 -0.0006804657
-2.0022522e-08 1.6624351e-11 0.017278973 -0.0015913129 0.010531548 -0.0058704703 0.0018126804 -0.003845924
-0.04025136 -0.01737019 0.12210829 -0.010686707 0.0036963585 0.0014035841 -0.05310108 -0.021047538
0.039640676 -0.028466456 -0.004917383 -0.00062171614 0.0034031563 -0.00028507275 1.1860103e-05 -1.8654815e-05
-0.009922867 -0.0037262025 -1.6669957e-06 6.526007e-08 -9.361595e-09 -2.0132641e-25 -1.3396408e-15 -2.762645e-16
-0.44661304 -0.005478097 0.0007204776 -0.002559916 -0.025447508 0.0053226952 -3.9278425e-06 -1.2335263e-07
0.038838655 -0.014306059 -0.0066499608 -0.0016295009 -0.015271254 -0.0017932572 -0.017427769 -0.0011767483
0.0024138326 0.0009668448 0.0053363326 -0.024330216 -0.015329086 -0.0015687939 -1.168789e-22 -5.0125803e-23
-0.009746991 -0.0041834135 -0.026690679 -0.0010998843 -0.054963835 0.14389884 -0.003407955 -0.0033923285
-0.0071264715 -0.0054024756 -0.022304395 -0.0023171634 -0.00041596804 -0.00010062577 0.0056632 0.0019122409
-0.060011137 -0.019012975 0.04201325 -0.010406708 -4.388461e-05 -1.5586949e-06 0.0028984896 0.00015541792
-0.019963138 -0.0049411203 -0.027330311 -0.015785849 0.060559973 -0.0007156054 0.0049065477 3.6816647e-07
0.17476991 0.20479243 0.029806329 -0.016642563 0.0034983128 0.000938326 -0.0074581224 -0.00018608912
00000000: d5b1 4abd 879e a238 5dbe 9d3d 6fcf 08bc
00000010: d67f 063b 5b44 a0a9 e7f2 59be 1e92 2e3b
00000020: 3a7a 6bbe d55f 24bc 804d d1ba 9af4 a63a
00000030: c746 f03d 7bdb 13bc 4a1e 993d 21a8 97bb
00000040: a9f2 14bd 73b5 9bbb 2cde 20be 4e3f 71bb
00000050: a168 afbd b699 a1bb b033 b5bd 584c 01bc
00000060: 2f14 6ebd 15c1 c0bb 4ac3 97be 429a a03d
00000070: c924 6ebc d235 3939 38a1 8cbc 1010 5739
00000080: 40f4 2bb6 7625 b3ac 3f32 5ebd e83a bfba
00000090: 77e4 b3bd b154 49bb e9f7 533b bf37 32bb
000000a0: 9407 3ebe 0798 d2bc d051 fc3a c8f4 b7bb
000000b0: 6518 97bd 795c be39 9266 0abe 0b58 76bc
000000c0: 1ce8 f83d f5b3 74bb 7f1e 8fbd 8830 9a3b
000000d0: 6b65 1ebd 5035 43ba 3a51 9637 5b41 5bb7
000000e0: 40f5 b2bd 6352 87bb c472 25b6 54c3 0eb4
000000f0: 049c 88ab e9af 8695 1c11 97a6 ee5b 17a5
00000100: 138f 8f3e 7aad 21be b76e 02bd 565e a8b8
00000110: 80ca cd3d 2b0a 3abb 7626 e0b7 605d 36b5
00000120: fa06 cd3d 6de9 bfbc c7c7 36bc dbc4 8fb9
00000130: 8497 f6bb 3ae6 25bb 12bf a1bd 12cd 72ba
00000140: ca0c 34bd 82a4 cfb8 b24b a2bd 34ce a1bc
00000150: 7a13 3dbd 0987 0a3b 3ffb 819b 35a0 889a
00000160: 38d2 4dbc b7cd c6bb 3167 53bd b7e8 74bb
00000170: 536f e63b 247f 663d abcf 7abb 98f1 37bb
00000180: fb0d 09bc 6fdf 8ebb e399 a13c d924 1cba
00000190: ce06 b6b9 a463 2ab9 50c5 5abe 28da d2bc
000001a0: 8ae6 52be 2261 3cbc 0ac3 c33d 4439 9cbc
000001b0: fe2f 73b8 3887 03b5 e080 09bd 9e29 8bba
000001c0: 62fc 213c 02a5 fbbb 9f01 9abd 515f 8ebc
000001d0: 255a d93d 4d18 75b9 debb 4db8 e4f2 82b5
000001e0: 5ed1 e2bd 32ae bd3d eb5a d2bc fda9 663c
000001f0: 828b 103d 7b47 ff39 560c 73bd e855 40ba
00000200: a5f4 2dba 3425 cf3a d7e0 433d 7c53 41bd
00000210: aa53 0aae a91b c2aa a3dc c1bc 3ffe 98bb
00000220: 6856 d6bd db6c 063c 3126 a3bc c9ca 68b8
00000230: 07e1 a1bc dbdf 2dbc 9bcb 14bc 4ffe fdbb
00000240: 0a20 86bc 6b95 40bb 9709 0abd f504 a0bb
00000250: 2138 e9bc 72e0 28bc 18bb 2c3c 01b8 a4bb
00000260: e5ef 7cbc 998a d6bb 8383 ff3e d43e 553e
00000270: 491e 8d3b c82a 1bba c1e3 2aba 4861 32ba
00000280: fefd abb2 b63a 922d a28c 8d3c 9a93 d0ba
00000290: 848c 2c3c 135d c0bb 7697 ed3a e60b 7cbb
000002a0: 9cde 24bd ee4b 8ebc e913 fa3d 4c17 2fbc
000002b0: 9b3e 723b 78f8 b73a 8580 59bd e36b acbc
000002c0: 435e 223d 7c32 e9bc 0022 a1bb aafa 22ba
000002d0: 7d07 5f3b d175 95b9 c1fa 4637 e97c 9cb7
000002e0: 8593 22bc 4e33 74bb 89bd dfb5 1a25 8c33
000002f0: bbd4 20b2 e33a 7996 0610 c1a6 7241 9fa5
00000300: 77aa e4be 9c81 b3bb 6fde 3c3a 44c4 27bb
00000310: 4b77 d0bc 016a ae3b e9cb 83b6 ea72 04b4
00000320: 4815 1f3d f663 6abc eae7 d9bb fa94 d5ba
00000330: 4834 7abc ba0b ebba aec4 8ebc 1f3d 9aba
00000340: 6431 1e3b db73 7d3a 67dc ae3b 2950 c7bc
00000350: d926 7bbc fd9f cdba 444c 0d9b bd64 729a
00000360: d8b1 1fbc 0415 89bb 69a6 dabc fe29 90ba
00000370: c221 61bd 385a 133e ff57 5fbb d451 5ebb
00000380: 2d85 e9bb 4007 b1bb b5b7 b6bc 8ddb 17bb
00000390: 4916 dab9 0d07 d3b8 5d92 b93b 28a4 fa3a
000003a0: 3dce 75bd 19c1 9bbc 1616 2c3d e680 2abc
000003b0: be10 38b8 5934 d1b5 96f4 3d3b aef7 2239
000003c0: bc89 a3bc 1fe9 a1bb d1e3 dfbc 5351 81bc
000003d0: bc0d 783d 7797 3bba 1bc7 a03b 6aa8 c534
000003e0: e2f6 323e 1bb5 513e 672c f43c fc55 88bc
000003f0: f343 653b fef9 753a 4463 f4bb eb20 43b9

lstm.weight_hh_l0 f4 [256, 64]
0.0014689956 -0.0027521977 1.8055959e-08 0.002245004 0.0006759906 -0.0005154786 -0.007628347 0.0018776611
0.0021619631 -0.0048701004 0.0048770364 -0.0042417264 -0.0008086957 0.0077213407 -0.0008331098 0.0011580281
-5.123063e-07 0.0025453547 -0.002035123 -0.00094853673 -0.010564679 -0.0063606612 -0.0011207862 -0.004370169
-0.009009913 -0.0009196469 0.0010980114 -6.366141e-05 0.0025063348 -1.4585552e-05 -7.185718e-15 -4.4141976e-10
-0.006851704 -0.0025836069 0.00041694843 6.915247e-06 -0.00011852715 -0.0006519384 0.00084566243 -0.0011429184
-0.0006726985 0.0009382713 -0.0011503544 -1.1111213e-13 0.0014179939 -0.00033349605 0.0034420372 0.00041503643
-0.0020251742 0.004079298 -4.2565684e-05 0.0073974296 3.591771e-05 -0.0012967186 0.00010627939 -0.0018115636
0.001341786 -0.0098297745 0.0048912247 1.5083732e-06 -0.00599726 -0.01381804 -0.00077605457 -2.3805113e-05
-0.005770511 -0.0056802533 1.4620998e-09 -0.0029062051 -0.003151464 0.00092582934 0.0035636292 -0.0020985897
-0.007222061 0.0046132426 -0.00050336786 0.003464033 -0.0015693275 0.0079297125 -0.000104619976 -0.00016029897
-1.0994393e-08 0.0012631163 -0.0014894183 -0.0026440856 0.0013818945 0.0015284506 0.004780566 0.009328672
0.00826483 -0.0029004342 -0.0025062899 4.288942e-05 0.003044593 -2.4445305e-06 5.3638366e-15 1.7466778e-11
0.033894476 0.001023396 0.0016685502 -9.681053e-06 0.007292201 0.0013142194 -0.0034357023 0.00091794296
-0.0043024067 0.0019198552 -0.0034206756 -1.8304905e-13 -0.0064955708 0.0055922205 -0.0149751995 0.00027844895
-0.0013924734 0.00096735265 0.0026872174 -0.0018732393 0.004950326 0.0032479218 -8.220286e-05 0.00014110855
-0.0041203173 0.015377838 -0.0065354244 1.8321467e-05 -0.0018933561 0.0128689315 0.0011614953 -0.00016036192
-4.21707e-14 -8.9812055e-14 2.2956234e-19 -5.794278e-14 -3.6172893e-13 5.774343e-15 -2.8379087e-13 -3.1095935e-14
-2.1314173e-14 1.3802635e-13 -1.5933642e-13 -1.2856198e-13 -3.188234e-16 -1.9388602e-13 3.5187887e-15 -2.4279405e-15
1.466668e-17 -3.392021e-14 2.0083541e-13 2.233584e-17 -5.707514e-14 2.9356893e-13 8.0832944e-14 2.3580622e-13
-7.905803e-14 8.1357996e-14 -6.5268285e-15 -1.103444e-15 1.11633474e-13 5.1526666e-16 2.660776e-25 -2.75651e-21
4.5056344e-13 1.1281379e-14 2.2531282e-15 4.0776656e-16 -6.695844e-14 1.32698545e-14 -3.5103305e-14 1.6219943e-15
-5.965039e-16 -1.2254786e-13 5.5413597e-14 -4.584656e-24 -1.8425062e-14 -2.4946284e-14 -7.10303e-14 3.9648782e-14
1.5143567e-14 1.2076836e-13 -1.9689992e-15 -2.4013037e-14 -1.2342846e-13 -3.427515e-14 -1.1517544e-15 -5.228265e-14
2.6021369e-14 -4.198473e-14 -1.8722812e-13 -1.2856727e-15 -2.4494466e-13 3.0202288e-14 -1.550601e-13 -1.5949578e-14
0.0005175995 -0.0008962506 -1.1877985e-08 -0.00029949303 0.0007463994 0.00033261057 -0.0028979757 -0.0010014598
-2.0787968e-05 0.00092402106 -0.00039179777 0.0010104548 0.002248175 0.00047131078 0.00046010155 0.0009093843
3.4950283e-08 0.0006583696 -0.002748832 0.0006932575 -0.000979938 -0.004191011 0.00012441278 0.0012663094
-0.00025593428 0.0010426005 0.00039217138 2.858914e-05 -0.00076151645 5.019868e-06 -1.946991e-14 -2.5157282e-10
0.000734454 -0.0006586124 -0.0017009723 7.5528683e-06 -0.0023556505 -0.00027905017 0.00025584296 0.0024371839
-0.0014110198 0.0014862854 -0.00025395866 2.1631632e-13 0.00021524446 -0.0015997485 0.0035814387 -0.0001868984
0.00011847379 -0.0040062643 4.6109213e-05 -0.00044350786 0.00386514 -0.0012687221 -4.9781807e-05 0.0001623809
-0.00048759757 -0.004052715 0.00025320036 0.00011758952 -0.005489565 -0.0026085023 -0.0013246952 -0.0011106768
00000000: 508b c03a 375e 34bb 7919 9b32 eb20 133b
00000010: f634 313a 2f21 07ba 36f7 f9bb da1b f63a
00000020: b9af 0d3b 5d95 9fbb 8ccf 9f3b 2efe 8abb
00000030: a6fe 53ba 4d03 fd3b 0d65 5aba fac8 973a
00000040: 6c85 09b5 f7cf 263b b35f 05bb 39a7 78ba
00000050: 7a17 2dbc 186d d0bb 58e7 92ba a233 8fbb
00000060: 509e 13bc 7514 71ba 26eb 8f3a f681 85b8
00000070: 5241 243b 78b4 74b7 4672 01a8 4fac f2af
00000080: 4284 e0bb bb51 29bb df99 da39 8509 e836
00000090: c791 f8b8 d8e6 2aba 72af 5d3a facd 95ba
000000a0: 0858 30ba 52f6 753a 7dc7 96ba c833 faa9
000000b0: fbdb b93a 15d9 aeb9 cd93 613b 3f99 d939
000000c0: c9b8 04bb a2ab 853b 8e88 32b8 2366 f23b
000000d0: 59a6 1638 a8f6 a9ba 50e2 de38 fd71 edba
000000e0: dede af3a 100d 21bc 9146 a03b 4f73 ca35
000000f0: aa84 c4bb 0f65 62bc 2470 4bba 17b1 c7b7
00000100: 8e16 bdbb 6b21 babb 10f3 c830 0876 3ebb
00000110: cb88 4ebb 5bb3 723a c78b 693b 7e88 09bb
00000120: 0aa7 ecbb af2a 973b 72f4 03ba d404 633b
00000130: e5b1 cdba a0eb 013c 6c67 dbb8 ed15 28b9
00000140: dae1 3cb2 268f a53a 9638 c3ba 6548 2dbb
00000150: af20 b53a 4b56 c83a 4ba6 9c3b 49d7 183c
00000160: 3669 073c 3615 3ebb 9140 24bb 2ae4 3338
00000170: cb87 473b b70c 24b6 a940 c127 b0a3 992d
00000180: efd4 0a3d 7923 863a 41b3 da3a ce6b 22b7
00000190: 6af3 ee3b e341 ac3a 8529 61bb 1ca2 703a
000001a0: 34fb 8cbb a7a3 fb3a 6a2d 60bb 4c18 4eaa
000001b0: ccd8 d4bb f23e b73b 8a5a 75bc c9fc 9139
000001c0: a783 b6ba f095 7d3a 071c 303b 7b87 f5ba
000001d0: 5836 a23b 16db 543b 5364 acb8 8af6 1339
000001e0: ba03 87bb 54f3 7b3c 1d27 d6bb 0db1 9937
000001f0: 7d2a f8ba 36d8 523c 513d 983a d326 28b9
00000200: 82eb 3da9 203d caa9 7b82 8720 bd79 82a9
00000210: a2a2 cbaa ea0a d027 93c2 9faa 2c0b 0ca9
00000220: 23fb bfa8 6367 1b2a 9965 33aa 78bf 10aa
00000230: 08ca b7a5 d74b 5aaa 328e 7d27 99f3 2ea7
00000240: b846 8723 57c3 18a9 de1e 622a 0303 ce23
00000250: 9485 80a9 be43 a52a 0505 b629 42bf 842a
00000260: da05 b2a9 b133 b729 5e27 eba7 e605 9fa6
00000270: 5160 fb29 f883 1426 aeb1 a416 a846 509d
00000280: 09a5 fd2a 2e3a 4b28 e15a 2227 b90f eb25
00000290: eac6 96a9 670c 6f28 5b17 1ea9 07c1 e926
000002a0: 38ee 2ba6 04fa 09aa 878f 7929 3c5c b198
000002b0: 4df5 a5a8 37b2 e0a8 2ef2 9fa9 ef8f 3229
000002c0: b066 8828 1cf9 072a a0e1 0da7 4b4a d8a8
000002d0: d5f7 0aaa 8f5c 1aa9 3dfc a5a6 cb75 6ba9
000002e0: 3161 ea28 1915 3da9 d5cc 52aa f348 b9a6
000002f0: 3fe4 89aa de04 0829 0895 2eaa 39a9 8fa8
00000300: 84af 073a 5cf2 6aba ee0f 4cb2 4605 9db9
00000310: 04aa 433a 3c62 ae39 f7eb 3dbb 6a43 83ba
00000320: d261 aeb7 013a 723a 356a cdb9 3d71 843a
00000330: 1e56 133b 431a f739 c939 f139 bf63 6e3a
00000340: 3e1c 1633 7096 2c3a c025 34bb b9bb 353a
00000350: 4371 80ba c054 89bb cd74 0239 4bfa a53a
00000360: eb2e 86b9 dea7 883a 5a9c cd39 b6d2 ef37
00000370: 81a0 47ba 5670 a836 8e5e afa8 ba4d 8aaf
00000380: 6088 403a bba6 2cba 29f3 deba a56e fd36
00000390: 4261 1abb 7b4d 92b9 a922 8639 29b9 1f3b
000003a0: f8f1 b8ba 76cf c23a c125 85b9 ef8c 732a
000003b0: 3fb3 6139 a7ae d1ba 92b6 6a3b 28fa 43b9
000003c0: 2275 f838 fb46 83bb 6465 4138 9e86 e8b9
000003d0: 4a4e 7d3b 404b a6ba cfcc 50b8 ca44 2a39
000003e0: 3da4 ffb9 a3cc 84bb fabf 8439 659a f638
000003f0: cfe1 b3bb 68f3 2abb 65a1 adba 2194 91ba

lstm.bias_ih_l0 f4 [256]
-0.015708538 -0.017607188 -2.8753166e-13 0.0067629614 -0.010670446 0.00067293417 -0.012170229 -0.009824484
-0.009644619 -0.011157938 -0.021184513 0.0016852682 -0.011116602 0.026744202 -0.0011218237 9.3214345e-05
-5.7120576e-11 -0.007324634 -0.009406015 -0.007160199 -0.03009807 -0.030708473 -0.002429101 -0.025893072
-0.015099364 -0.0034782276 -0.0043312884 -1.0310371e-05 -0.0036582865 -5.0647304e-07 -3.709516e-25 -1.9744765e-16
0.028401667 0.0005376542 0.00024698986 -2.977944e-06 -0.01872819 -0.0025585936 -0.008386346 -0.0032334568
-0.00714294 -0.030205028 -0.018771974 -6.021535e-23 -0.00875677 -0.008284166 0.1357506 -0.0034264529
-0.003462536 -0.0050022476 -0.00019053166 -0.015388903 -0.0462876 -0.016250776 -1.0831367e-05 -0.00261478
0.00074487616 -0.048682913 -0.0076859146 -3.3781305e-06 0.031020353 0.0028905456 -0.00201287 -0.00022707503
-0.013558394 -0.053672034 -6.428232e-14 -0.0074123205 0.04458433 -0.0015429957 -0.023647692 -0.013715496
-0.008250407 0.001048042 -0.025387289 -0.0007705774 -0.01162664 0.142651 -0.000415984 -0.00026473214
-1.45142865e-11 -0.0024838783 -0.0049182763 -0.008301974 -0.023909949 -0.02122961 -0.00030727914 -0.015326371
-0.033878673 -0.004791947 -0.004347573 -1.2887031e-05 6.922152e-05 -6.3069064e-07 -4.4306205e-25 -9.924687e-17
0.24130033 0.00078396493 -0.016079623 -2.9146534e-06 -0.013116169 -0.0027466288 -0.0055781025 -0.0037104127
-0.0052619763 -0.026336204 -0.004649311 -5.4834965e-23 -0.0072845966 -0.003698031 0.34273812 -0.0034606738
-0.0071579963 -0.010824266 -0.00017703671 1.9421777e-05 -0.043922026 -0.022940934 -9.35352e-06 -0.00039006915
0.0010416695 -0.00906539 -0.0060914215 -3.5167236e-06 0.33460203 -0.022276713 -0.004530031 -0.00087462255
0.000243365 0.022699386 -4.367001e-08 0.0025347853 -0.0031836762 6.7471956e-05 -0.053698067 0.03475258
-0.021634541 -0.020125302 0.016199851 0.00040236773 -0.010102368 -0.11525758 -0.0001974229 -0.0050992714
1.09730976e-07 0.007023448 0.0038857036 0.008326472 0.0084452145 -0.03092702 -0.011727951 -0.020239262
-0.036354482 -0.0026915586 0.009349143 0.0006398248 -0.021371815 0.00026938942 -1.4960083e-13 -4.4770693e-10
-0.17127945 -0.008972059 0.02323637 -0.00027016358 -0.051355634 -0.005359178 -0.0053819157 0.016568867
0.020833528 -0.029997347 -0.02542956 4.3114226e-13 -0.015413776 -0.035496365 0.05249713 -0.019274825
-0.002828217 0.0043102177 -7.707776e-05 0.0055649905 -0.011880141 -0.03988666 8.857683e-06 -0.0015188365
0.011621507 -0.03193735 0.030673826 -5.8439975e-05 -0.07797005 -0.036718518 0.011378185 0.008369287
-0.008307357 -0.07736246 -4.3181273e-13 -0.016469343 -0.006559997 -0.00019155174 -0.038955268 -0.022305733
-0.010550945 -0.008322281 -0.008688297 -0.0029828232 -0.012382398 0.03360137 -0.010392401 9.1324895e-05
5.1159438e-11 -0.02288963 -0.0016115201 -0.007884392 -0.03555158 -0.038508732 0.0016355751 -0.04927888
-0.045572948 -0.0021499463 -0.0021356533 -7.874816e-06 -0.017418232 -1.6497054e-07 -3.0182636e-17 -1.8956331e-16
0.06893817 -0.0012607491 -0.0035195865 -3.1405414e-06 -0.03874864 -0.004306727 -0.004178518 -0.02153213
-0.0050465073 -0.029476916 -0.031140523 -5.967779e-23 -0.0091275545 -0.015253477 0.20370656 -0.002463465
-0.002966363 -0.014729457 -0.00019375405 -0.019529095 -0.025915753 -0.024100205 -1.0908433e-05 0.000858864
-0.013974863 -0.04193593 -0.02992722 -8.765575e-06 0.15665567 -0.008459723 -0.004967533 -0.0009656549
00000000: 31af 80bc f33c 90bc aedd a1aa d59b dd3b
00000010: 18d3 2ebc d967 303a a465 47bc dff6 20bc
00000020: 7704 1ebc c9cf 36bc 258b adbc 38e4 dc3a
00000030: 6922 36bc a816 db3c 280a 93ba 127c c338
00000040: 0d38 7bae 7c03 f0bb b01b 1abc 1aa0 eabb
00000050: 3a90 f6bc 5690 fbbc 8d31 1fbb b51d d4bc
00000060: 5363 77bc faf2 63bb 7bed 8dbb b5fa 2cb7
00000070: ddbf 6fbb 90f4 07b5 a19b e596 43a4 63a5
00000080: 9daa e83c 5df1 0c3a 6b7e 8139 b0d8 47b6
00000090: dc6b 99bc 14ae 27bb e266 09bc 67e8 53bb
000000a0: 530f eabb 8970 f7bc afc7 99bc 7f97 919a
000000b0: 8e78 0fbc 50ba 07bc 3502 0b3e 578e 60bb
000000c0: b7eb 62bb e5e9 a3bb 74c9 47b9 bd21 7cbc
000000d0: 1198 3dbd 5920 85bc 5eb8 35b7 bb5c 2bbb
000000e0: cb43 433a bc67 47bd 20da fbbb d7b3 62b6
000000f0: 651e fe3c 4f6f 3d3b 5bea 03bb fd1a 6eb9
00000100: 0724 5ebc 35d7 5bbd 3cc0 90a9 0de3 f2bb
00000110: 0f9e 363d 583e caba ceb8 c1bc f6b6 60bc
00000120: b72c 07bc 745e 893a 01f9 cfbc 9300 4aba
00000130: aa7d 3ebc 1b13 123e 6d18 dab9 bfcb 8ab9
00000140: 8956 7fad 90c8 22bb 7e29 a1bb 0105 08bc
00000150: ccde c3bc b8e9 adbc 4f1a a1b9 761b 7bbc
00000160: 5dc4 0abd c405 9dbb 1676 8ebb 6035 58b7
00000170: 052b 9138 bb4c 29b5 fe1e 0997 03d9 e4a4
00000180: 6f17 773e ff82 4d3a 6ab9 83bc 5d99 43b6
00000190: 33e5 56bc c900 34bb 84c8 b6bb 652a 73bb
000001a0: a86c acbb 06bf d7bc 3f59 98bb 3395 849a
000001b0: a0b3 eebb aa5a 72bb 5f7b af3e 79cc 62bb
000001c0: a08d eabb 4358 31bc eea2 39b9 f3eb a237
000001d0: 95e7 33bd a0ee bbbc 10ed 1cb7 3282 ccb9
000001e0: a188 883a 0087 14bc 8c9a c7bb da00 6cb6
000001f0: f550 ab3e a77d b6bc a770 94bb ed46 65ba
00000200: cb2f 7f39 10f4 b93c af8f 3bb3 a41e 263b
00000210: 39a5 50bb bb7f 8d38 81f2 5bbd b958 0e3d
00000220: ec3a b1bc d1dd a4bc 8db5 843c e2f4 d239
00000230: 6784 25bc 2b0c ecbd 4e03 4fb9 ca17 a7bb
00000240: 3ea5 eb33 f424 e63b 4aa7 7e3b c16b 083c
00000250: cc5d 0a3c a95a fdbc 9726 40bc cfcc a5bc
00000260: 70e8 14bd dc64 30bb 262d 193c eab9 273a
00000270: f213 afbc d63c 8d39 816f 28aa 2621 f6af
00000280: e163 2fbe 8bff 12bc 335a be3c bea4 8db9
00000290: 495a 52bd 0b9c afbb c85a b0bb 6fbb 873c
000002a0: 13ab aa3c ffbc f5bc a751 d0bc 26b6 f22a
000002b0: 108a 7cbc a364 11bd 3b07 573d 3de6 9dbc
000002c0: 9c59 39bb ba3c 8d3b cfa4 a1b8 865a b63b
000002d0: eca4 42bc 3260 23bd 759b 1437 b213 c7ba
000002e0: 2268 3e3c bdd0 02bd ad47 fb3c 721d 75b8
000002f0: c3ae 9fbd 2866 16bd 916b 3a3c 551f 093c
00000300: 951b 08bc 3670 9ebd c616 f3aa b7ea 86bc
00000310: 3ef5 d6bb 47db 48b9 8f8f 1fbd 83ba b6bc
00000320: dfdd 2cbc 2d5a 08bc 5c59 0ebc 787b 43bb
00000330: 8bdf 4abc 97a1 093d e444 2abc ae85 bf38
00000340: 6800 612e 0983 bbbc a439 d3ba 892d 01bc
00000350: 899e 11bd 55bb 1dbd cb60 d63a a7d8 49bd
00000360: b3aa 3abd 1de6 0cbb 51f6 0bbb 141e 04b7
00000370: aeb0 8ebc c222 31b4 5e31 0ba4 378d 5aa5
00000380: 752f 8d3d b83f a5ba dda8 66bb 17c2 52b6
00000390: e5b6 1ebd 721f 8dbb f3eb 88bb 2664 b0bc
000003a0: 2c5d a5bb 9379 f1bc 691a ffbc c34a 909a
000003b0: bd8b 15bc b8e9 79bc 7498 503e 1672 21bb
000003c0: 5067 42bb d253 71bc 752a 4bb9 7bfb 9fbc
000003d0: 464d d4bc cb6d c5bc 5d03 37b7 6325 613a
000003e0: d3f6 64bc 02c5 2bbd ee29 f5bc dc0f 13b7
000003f0: 586a 203e a69a 0abc b0c6 a2bb 0124 7dba

lstm.bias_hh_l0 f4 [256]
-0.01570823 -0.017607205 -2.8753066e-13 0.0067627756 -0.0106704505 0.0006729376 -0.012170244 -0.009824486
-0.009644621 -0.011158069 -0.021184452 0.0016852721 -0.011116605 0.026744202 -0.0011218471 9.322405e-05
-5.7120576e-11 -0.007324634 -0.009406047 -0.007160206 -0.03009807 -0.030708471 -0.0024291829 -0.025893057
-0.015099364 -0.0034780945 -0.0043312293 -1.0310368e-05 -0.003658245 -5.0647304e-07 -3.7095156e-25 -1.974477e-16
0.028401667 0.0005376542 0.0002469829 -2.97795e-06 -0.018728359 -0.0025585934 -0.008386343 -0.003233452
-0.0071429336 -0.03020507 -0.018771974 -6.021535e-23 -0.008756765 -0.008284166 0.1357506 -0.003426593
-0.0034625398 -0.005002703 -0.00019053173 -0.015388903 -0.04628756 -0.016250815 -1.0831367e-05 -0.0026146097
0.00074480416 -0.048681766 -0.0076859146 -3.3781305e-06 0.031020338 0.0028905456 -0.0020128845 -0.00022707853
-0.013558842 -0.05367206 -6.4272243e-14 -0.0074123433 0.044584416 -0.0015429957 -0.02364769 -0.013715549
-0.008250406 0.0010477966 -0.025387255 -0.0007705786 -0.011626701 0.142651 -0.00041598536 -0.00026477978
-1.4514487e-11 -0.0024838783 -0.0049188524 -0.008301976 -0.023909962 -0.021229628 -0.00030727914 -0.015326386
-0.033878654 -0.0047918768 -0.0043475726 -1.2886762e-05 6.922589e-05 -6.306751e-07 -4.4305885e-25 -9.924678e-17
0.24130033 0.0007839326 -0.016079623 -2.9146534e-06 -0.0131152915 -0.002746629 -0.005578101 -0.0037101947
-0.0052620103 -0.026336769 -0.004649311 -5.4834965e-23 -0.007284596 -0.003698031 0.34273815 -0.003460501
-0.007158141 -0.010824128 -0.00017703671 1.9421777e-05 -0.043922026 -0.022940932 -9.35352e-06 -0.0003900698
0.0010416693 -0.009065068 -0.006091336 -3.5167236e-06 0.334602 -0.022276713 -0.0045301425 -0.00087462115
0.00024337662 0.022699375 -4.367001e-08 0.0025347853 -0.0031837216 6.7471956e-05 -0.053698078 0.03475258
-0.021634625 -0.020125303 0.016199846 0.00040236063 -0.010102368 -0.11525758 -0.00019743296 -0.005099271
1.09730976e-07 0.007023448 0.003885699 0.008326472 0.0084452145 -0.030927015 -0.0117279515 -0.020239253
-0.03635447 -0.002691556 0.009349137 0.00063982495 -0.0213718 0.00026938922 -1.4960423e-13 -4.4770798e-10
-0.17127945 -0.008972088 0.023236366 -0.00027016312 -0.051355623 -0.00535918 -0.005381896 0.016568873
0.020833543 -0.029997341 -0.025429653 4.3114226e-13 -0.015413788 -0.035496373 0.05249713 -0.019274825
-0.002828217 0.0043102168 -7.707776e-05 0.005564995 -0.0118801575 -0.03988663 8.8579745e-06 -0.0015188365
0.011621521 -0.031937655 0.030673826 -5.8439975e-05 -0.07797005 -0.03671925 0.011378185 0.008369287
-0.008307918 -0.07736246 -4.3181273e-13 -0.016469294 -0.00656 -0.00019155174 -0.038955357 -0.022305733
-0.010550946 -0.008322279 -0.008688297 -0.0029830323 -0.012382398 0.03360137 -0.010392401 9.1327754e-05
5.115944e-11 -0.02288963 -0.0016115551 -0.0078843925 -0.03555159 -0.038508777 0.0016355743 -0.04927889
-0.045572937 -0.0021495258 -0.0021356542 -7.874816e-06 -0.017418226 -1.6498265e-07 -3.0182087e-17 -1.8956376e-16
0.06893817 -0.0012607505 -0.0035195558 -3.1405427e-06 -0.03874869 -0.0043067276 -0.004178518 -0.021532126
-0.0050464966 -0.029476918 -0.031140523 -5.967779e-23 -0.009127558 -0.015253477 0.20370655 -0.0024634488
-0.0029663714 -0.014729557 -0.00019375405 -0.01952911 -0.025915686 -0.024100205 -1.0908434e-05 0.0008586851
-0.013974863 -0.04193601 -0.02992723 -8.765575e-06 0.15665567 -0.008459723 -0.0049675396 -0.000965653
00000000: 8cae 80bc fc3c 90bc 89dd a1aa 469a dd3b
00000010: 1dd3 2ebc 1468 303a b465 47bc e2f6 20bc
00000020: 7904 1ebc 55d0 36bc 048b adbc 59e4 dc3a
00000030: 6c22 36bc a816 db3c f10a 93ba 4881 c338
00000040: 0d38 7bae 7c03 f0bb d21b 1abc 29a0 eabb
00000050: 3a90 f6bc 5590 fbbc ed32 1fbb ad1d d4bc
00000060: 5363 77bc bef0 63bb fcec 8dbb b2fa 2cb7
00000070: 2bbf 6fbb 90f4 07b5 9f9b e596 46a4 63a5
00000080: 9daa e83c 5df1 0c3a 7c7d 8139 cbd8 47b6
00000090: 376c 99bc 13ae 27bb df66 09bc 53e8 53bb
000000a0: 450f eabb 9f70 f7bc afc7 99bc 7f97 919a
000000b0: 8978 0fbc 50ba 07bc 3502 0b3e b190 60bb
000000c0: c7eb 62bb b7ed a3bb 79c9 47b9 bd21 7cbc
000000d0: 0698 3dbd 6e20 85bc 5eb8 35b7 df59 2bbb
000000e0: f63e 433a 8866 47bd 20da fbbb d7b3 62b6
000000f0: 5d1e fe3c 4f6f 3d3b 99ea 03bb ee1b 6eb9
00000100: e825 5ebc 3cd7 5bbd 6dba 90a9 3ee3 f2bb
00000110: 269e 363d 583e caba cdb8 c1bc 2fb7 60bc
00000120: b62c 07bc 3856 893a eff8 cfbc a800 4aba
00000130: eb7d 3ebc 1b13 123e 9c18 dab9 24d2 8ab9
00000140: 7057 7fad 90c8 22bb 532e a1bb 0305 08bc
00000150: d3de c3bc c2e9 adbc 4f1a a1b9 861b 7bbc
00000160: 58c4 0abd 2d05 9dbb 1576 8ebb 3934 58b7
00000170: 5e2d 9138 aa4b 29b5 bd1e 0997 f5d8 e4a4
00000180: 6f17 773e d480 4d3a 6ab9 83bc 5d99 43b6
00000190: 85e1 56bc ca00 34bb 81c8 b6bb bd26 73bb
000001a0: f16c acbb 35c0 d7bc 3f59 98bb 3395 849a
000001b0: 9fb3 eebb aa5a 72bb 607b af3e 93c9 62bb
000001c0: d78e eabb af57 31bc eea2 39b9 f3eb a237
000001d0: 95e7 33bd 9fee bbbc 10ed 1cb7 4882 ccb9
000001e0: 9f88 883a a785 14bc d499 c7bb da00 6cb6
000001f0: f450 ab3e a77d b6bc 9771 94bb d546 65ba
00000200: ea32 7f39 0af4 b93c af8f 3bb3 a41e 263b
00000210: fca5 50bb bb7f 8d38 84f2 5bbd b958 0e3d
00000220: 193b b1bc d2dd a4bc 8ab5 843c eef3 d239
00000230: 6784 25bc 2b0c ecbd 0206 4fb9 c917 a7bb
00000240: 3ea5 eb33 f424 e63b 36a7 7e3b c16b 083c
00000250: cc5d 0a3c a75a fdbc 9826 40bc cacc a5bc
00000260: 6de8 14bd d164 30bb 1f2d 193c edb9 273a
00000270: ea13 afbc cf3c 8d39 7c70 28aa 4c21 f6af
00000280: e163 2fbe aaff 12bc 315a be3c aea4 8db9
00000290: 465a 52bd 0f9c afbb 9e5a b0bb 72bb 873c
000002a0: 1bab aa3c fcbc f5bc d951 d0bc 26b6 f22a
000002b0: 1d8a 7cbc a564 11bd 3b07 573d 3de6 9dbc
000002c0: 9c59 39bb b83c 8d3b cfa4 a1b8 905a b63b
000002d0: fea4 42bc 2a60 23bd b69c 1437 b213 c7ba
000002e0: 3168 3e3c 0fd1 02bd ad47 fb3c 721d 75b8
000002f0: c3ae 9fbd ed66 16bd 916b 3a3c 551f 093c
00000300: ef1d 08bc 3670 9ebd c616 f3aa 9dea 86bc
00000310: 45f5 d6bb 47db 48b9 a78f 1fbd 83ba b6bc
00000320: e0dd 2cbc 2b5a 08bc 5c59 0ebc fa7e 43bb
00000330: 8bdf 4abc 97a1 093d e444 2abc 3787 bf38
00000340: 6900 612e 0983 bbbc d13a d3ba 8a2d 01bc
00000350: 8b9e 11bd 61bb 1dbd c460 d63a a9d8 49bd
00000360: b0aa 3abd 0fdf 0cbb 55f6 0bbb 141e 04b7
00000370: abb0 8ebc 1626 31b4 b830 0ba4 598d 5aa5
00000380: 752f 8d3d c43f a5ba 59a8 66bb 1dc2 52b6
00000390: f2b6 1ebd 731f 8dbb f3eb 88bb 2464 b0bc
000003a0: 155d a5bb 9479 f1bc 691a ffbc c34a 909a
000003b0: c18b 15bc b8e9 79bc 7398 503e d071 21bb
000003c0: 7467 42bb 3d54 71bc 752a 4bb9 83fb 9fbc
000003d0: 224d d4bc cb6d c5bc 5e03 37b7 6219 613a
000003e0: d3f6 64bc 18c5 2bbd f329 f5bc dc0f 13b7
000003f0: 586a 203e a69a 0abc bec6 a2bb e023 7dba

fc.weight f4 [50, 64]
0.05986277 0.016154096 1.193405e-07 0.011768932 -0.04464483 -0.010948712 -0.004590795 -0.0010685866
0.03215664 0.005382419 0.007191705 -0.0009190784 -0.016975166 -0.05608215 -0.014805744 -0.0009453426
-8.332426e-08 0.024263252 -0.0020115867 0.035448074 0.016247135 -0.033889834 -0.020297222 -0.011549324
0.020430095 -0.011024678 0.0097550405 0.0011661917 0.01016014 -0.00014593876 -1.6133713e-13 -3.0081386e-09
0.037655875 -0.015697507 -0.009026095 -4.669898e-05 0.009565028 0.0053584334 0.02393675 -0.013308618
0.010235649 0.024549332 0.038527146 5.9581826e-13 0.026645713 0.004189501 -0.05604069 -0.019751865
0.008322181 -0.018356128 -0.005355373 -0.028236195 -0.05035747 0.0129614435 0.00032426804 0.00052047544
-0.016324202 -0.010542799 0.0011338261 -0.00018876056 0.08930199 -0.030433618 -0.01680183 -0.009019937
0.0074350704 -0.022618063 -1.5376247e-07 -0.06658986 0.00310257 0.02240638 0.005432366 -0.0011600022
-0.0045613716 -0.0064129787 -0.023193575 0.013061489 0.016337957 0.07341959 0.002449349 -0.0064905016
-6.416876e-07 -0.013910345 0.012729285 0.0034020701 0.037001822 0.080509454 0.0056639016 0.01546882
0.019833006 0.017909948 0.006896404 -3.258395e-06 0.00082192244 1.720929e-05 9.3087735e-14 5.5766685e-09
-0.06530642 0.003405731 -0.018228276 8.474894e-05 0.010040233 -0.0011898346 -0.006220431 -0.0174353
0.010785684 0.028659774 0.00028052676 9.529273e-13 -0.005345005 0.0045775343 0.13425666 -0.0005534797
-0.008486879 -0.0106446985 -0.0005710308 -0.0396586 0.0052652224 0.013688089 -0.00013314893 -0.005709298
-0.008701151 0.061322078 -0.019335844 6.0063954e-05 -0.07370994 0.06944786 0.005458465 0.011820839
0.02143663 -0.00018667278 -1.600544e-07 -0.0037626035 -0.03410869 -0.018472208 0.014279887 -0.011816536
-0.012262556 -0.003487219 -0.03360631 0.013145603 0.030981144 -0.10943953 -0.010323038 0.0009358753
8.016048e-07 -0.024708813 0.0108375 -0.01759241 0.0081876805 0.0064239055 0.015091332 0.018270042
0.025675913 0.011181193 -0.015269292 -0.000374586 -0.009019157 -1.8539875e-07 2.6143326e-13 -3.2177319e-09
0.08513049 0.005234113 0.013495634 0.00048628758 0.023161463 0.009538015 -0.015574563 -0.0017643606
-0.0079185655 0.02745328 -0.03444439 -7.2623927e-13 -0.0129629355 0.003032261 -0.11257166 0.008940483
0.004938714 -0.011084113 0.0007106384 -0.0009866686 0.016618144 0.03292693 -0.0005986253 -0.00801168
-0.0051399237 0.009267108 -0.027021829 -0.0002052329 0.05273311 -0.03286218 0.0048604645 0.009845979
-0.020198423 0.0026145268 -1.0556729e-07 0.0081357 -0.0035733373 -0.010389492 0.0018892147 0.005917571
-0.027363775 -0.007837241 -0.03216744 0.0031437753 0.029452858 -0.058684547 0.002542956 0.0031415338
5.5843566e-07 -0.01962906 0.004270056 -0.021268183 0.00010696839 -0.030760773 0.011872027 0.0032805689
0.0015112137 0.005353267 -0.006264545 -0.00064050267 0.00017300398 -1.999152e-05 1.6698722e-13 -2.8599405e-09
0.08033811 0.018479751 -0.00966039 0.00044407602 -0.0020008099 0.01517454 -0.022502597 -0.00090330903
-0.027459247 0.018743852 -0.033145145 -1.4732463e-12 -0.02643726 0.0041812058 -0.11458437 0.013927635
0.013602557 0.011338118 0.0042727203 0.0084833475 0.030956844 -6.4061045e-05 -0.00057260296 -0.0034291737
0.0005326238 -0.011990023 -0.0005618987 -7.827269e-05 0.0442315 -0.010074555 -0.0026948052 0.0026300505
00000000: aa32 753d 9855 843c 1124 0034 7bd2 403c
00000010: 7fdd 36bd 3a62 33bc 616e 96bb d10f 8cba
00000020: aeb6 033d 015f b03b 65a8 eb3b 4fee 70ba
00000030: 810f 8bbc 66b6 65bd cb93 72bc ded0 77ba
00000040: ffef b2b3 bac3 c63c d3d4 03bb 0032 113d
00000050: b618 853c 11d0 0abd 5c46 a6bc 6039 3dbc
00000060: 045d a73c daa0 34bc 9bd3 1f3c e6da 983a
00000070: b776 263c 2307 19b9 43a6 35aa bcb7 4eb1
00000080: 0c3d 1a3d 0f98 80bc 30e2 13bc a6de 43b8
00000090: a3b6 1c3c cc95 af3b 0117 c43c 640c 5abc
000000a0: 6cb3 273c ae1b c93c a4ce 1d3d 3bb5 272b
000000b0: 1c48 da3c 1548 893b ec8a 65bd aace a1bc
000000c0: c259 083c 975f 96bc 207c afbb 984f e7bc
000000d0: a243 4ebd 3c5c 543c 8502 aa39 8470 083a
000000e0: 55ba 85bc b4bb 2cbc e49c 943a 07ee 45b9
000000f0: f6e3 b63d ec4f f9bc fea3 89bc 5cc8 13bc
00000100: e4a1 f33b 8449 b9bc e819 25b4 4460 88bd
00000110: 7d54 4b3b 968d b73c fd01 b23b 370b 98ba
00000120: 8f77 95bb f723 d2bb 7400 bebc dbff 553c
00000130: 2ed7 853c 035d 963d 4285 203b 46ae d4bb
00000140: 7040 2cb5 37e8 63bc 7e8e 503c 44f5 5e3b
00000150: 398f 173d 24e2 a43d 4098 b93b ef70 7d3c
00000160: d478 a23c e2b7 923c 3bfb e13b cdaa 5ab6
00000170: 4876 573a ab5c 9037 6d9d d129 e59c bf31
00000180: 5fbf 85bd af32 5f3b 7753 95bc 3ebb b138
00000190: ca7f 243c 39f4 9bba c2d4 cbbb 79d4 8ebc
000001a0: 70b6 303c e7c7 ea3c aa13 9339 d31c 862b
000001b0: 2725 afbb 24ff 953b 947a 093e 6517 11ba
000001c0: 8d0c 0bbc 1a67 2ebc 3ab1 15ba 0e71 22bd
000001d0: e387 ac3b 0244 603c e59d 0bb9 1015 bbbb
000001e0: 468f 0ebc dc2c 7b3d 3466 9ebc 2eed 7b38
000001f0: 3df5 96bd ae3a 8e3d ecdc b23b 31ac 413c
00000200: df9b af3c 98bd 43b9 6bdb 2bb4 0396 76bb
00000210: 8eb5 0bbd 0753 97bc 30f6 693c 259a 41bc
00000220: e3e8 48bc d489 64bb c5a6 09bd a860 573c
00000230: 2bcc fd3c d521 e0bd f621 29bc 8755 753a
00000240: dd2d 5735 236a cabc c58f 313c f51d 90bc
00000250: 9f25 063c a07f d23b a241 773c 0eab 953c
00000260: 4b56 d23c 5331 373c 0d2c 7abc 1564 c4b9
00000270: 16c5 13bc 0512 47b4 812c 932a f01e 5db1
00000280: e558 ae3d ec82 ab3b cb1c 5d3c 6af4 fe39
00000290: 1cbd bd3c 5645 1c3c 742c 7fbc 1e42 e7ba
000002a0: dfbc 01bc b3e5 e03c 9015 0dbd 0e6b 4cab
000002b0: 7e62 54bc e6b8 463b f88b e6bd 1b7b 123c
000002c0: f0d4 a13b 249a 35bc 234a 3a3a 1b53 81ba
000002d0: c622 883c 63de 063d 10ed 1cba 6c43 03bc
000002e0: ce6c a8bb 11d5 173c e25c ddbc c933 57b9
000002f0: acfe 573d 7e9a 06bd 8844 9f3b 0751 213c
00000300: 2a77 a5bc 7b58 2b3b 3bb4 e2b3 994b 053c
00000310: a72e 6abb b038 2abc 879f f73a 2fe8 c13b
00000320: ff29 e0bc c567 00bc 01c2 03bd cc07 4e3b
00000330: 1f47 f13c 355f 70bd b9a7 263b 31e2 4d3b
00000340: 68e7 1535 1fcd a0bc d3eb 8b3b 9d3a aebc
00000350: 3854 e038 04fe fbbc e482 423c d0fe 563b
00000360: eb13 c63a 756a af3b d046 cdbb 68e7 27ba
00000370: 6768 3539 76b3 a7b7 ca02 3c2a 9b88 44b1
00000380: 4f88 a43d d962 973c 9d46 1ebc e0d2 e839
00000390: 0520 03bb a29e 783c 5e57 b8bc 0bcc 6cba
000003a0: 37f2 e0bc b58c 993c 34c3 07bd 4b57 cfab
000003b0: f492 d8bc 7f02 893b 36ab eabd bc30 643c
000003c0: 42dd 5e3c 84c3 393c 2d02 8c3b bdfd 0a3c
000003d0: 3599 fd3c 8358 86b8 bc1a 16ba fdbb 60bb
000003e0: c79f 0b3a cd71 44bc 624c 13ba 5526 a4b8
000003f0: 172c 353d bf0f 25bc 549b 30bb ed5c 2c3b

fc.bias f4 [50]
-0.016279625 0.0038923493 -0.046965115 0.02776787 -0.037659306 0.022386441 0.010990382 0.0056110593
-0.055091854 -0.011480459 -0.0014906873 0.009315388 0.021231452 0.045591656 0.09130079 -0.01064007
0.027655862 0.03392122 0.023491956 -0.042312652 -0.015436359 0.0014534972 -0.065166146 0.08119889
-0.044121075 0.09170806 -0.007423824 0.028969374 -0.0037538032 -0.090350665 -0.015295293 -0.007847049
-0.023388851 0.029665157 -0.048606616 -0.040189773 0.026520569 -0.06388633 -0.036694147 0.053906087
0.03917898 0.026566202 0.055529013 -0.014386414 0.024348546 -0.0047885347 0.00019052348 -0.025712702
-0.034074 -0.01297443
00000000: d95c 85bc c916 7f3b 7e5e 40bd 7279 e33c
00000010: a540 1abd c563 b73c 0111 343c fadc b73b
00000020: ffa7 61bd 8918 3cbc 2a63 c3ba 929f 183c
00000030: 95ed ad3c 51be 3a3d e9fb ba3d b053 2ebc
00000040: 8c8e e23c faf0 0a3d 3472 c03c 0850 2dbd
00000050: c8e8 7cbc 4683 be3a d475 85bd 9b4b a63d
00000060: 4db8 34bd 6fd1 bb3d 8d43 f3bb 2e51 ed3c
00000070: 5e02 76bb c509 b9bd 1c99 7abc e990 00bc
00000080: fa99 bfbc 5804 f33c bb17 47bd 089e 24bd
00000090: aa41 d93c d6d6 82bd 9a4c 16bd a1cc 5c3d
000000a0: 237a 203d 5da1 d93c 6472 633d feb4 6bbc
000000b0: 9a76 c73c 24e9 9cbb 42c7 4739 72a3 d2bc
000000c0: 2e91 0bbd b492 54bc

decoder.0.weight f4 [64, 50]
-2.5464587e-22 -8.665127e-23 -1.8070919e-22 5.780118e-23 -9.6066364e-23 5.032301e-22 -2.1574298e-22 -1.7679553e-22
6.7111363e-23 1.7854742e-22 -1.903833e-22 -3.5007958e-22 7.6076484e-23 1.8288778e-23 -1.2059785e-22 -5.121989e-23
8.276979e-23 2.6857726e-23 -3.408704e-22 7.307492e-23 -1.3491372e-22 -2.637493e-22 1.0911033e-23 -1.1563814e-22
4.939167e-22 -1.1443556e-22 1.8732474e-24 4.4382858e-23 -4.0463614e-23 -1.8681406e-22 -3.327375e-23 2.5402187e-22
-8.713105e-23 6.783916e-24 -2.602187e-22 -1.8260339e-22 1.5087472e-22 -1.9406872e-22 -7.9379854e-23 4.164073e-22
5.2513483e-23 1.4843721e-23 -2.5750404e-24 -2.217294e-23 4.588297e-22 -2.1899804e-22 9.6751714e-23 4.1706266e-22
-3.999339e-23 -3.3271858e-22 3.8449463e-25 -7.5722185e-26 -3.5064692e-25 1.785962e-25 6.2657e-25 1.0708203e-20
-7.1026645e-26 4.985575e-25 -3.234157e-26 1.3919984e-25 -4.796359e-25 4.1913225e-25 -2.117937e-25 -4.473563e-25
-1.8030466e-25 1.1062909e-26 -7.895552e-25 1.7933682e-26 2.6673468e-25 -7.8780075e-26 -6.9230094e-26 -2.4234936e-27
3.5777933e-25 -7.210958e-25 3.4518364e-25 -5.9522627e-25 7.9126484e-26 -5.494452e-25 -1.5799618e-25 1.6708014e-23
2.238847e-25 6.3630687e-21 5.4105194e-25 1.2631103e-25 5.3552544e-26 -1.0652412e-24 3.1145187e-25 -1.6404619e-25
1.4680934e-25 -1.3727049e-25 -2.449237e-25 -3.0504025e-24 3.0280485e-25 -6.786627e-26 1.8208273e-25 -1.9049027e-25
-7.673908e-26 -1.540061e-25 -2.7246316e-26 5.342818e-25 -1.0099701e-14 2.4324988e-15 3.6881953e-15 3.580394e-15
1.23754e-15 -2.9785822e-14 7.553642e-15 -2.6507822e-14 1.5282124e-14 2.0909286e-14 1.09955914e-16 3.3526235e-15
-1.8559394e-15 7.321725e-15 5.145598e-15 -5.0403737e-15 6.078322e-15 -2.8842163e-14 -2.9384725e-14 -2.3173066e-14
-5.0918556e-15 4.1974355e-14 8.792779e-15 -1.0963296e-15 -1.19624794e-14 -5.359425e-15 7.346421e-15 1.8532776e-14
-4.177981e-15 -4.9029642e-15 -1.9293518e-14 -7.6028746e-15 -1.3084127e-14 -6.6446426e-16 1.35127395e-14 -1.6315394e-14
-3.898236e-15 -5.421635e-15 -1.22803015e-14 -9.887596e-15 -6.523194e-15 -2.1506294e-14 -9.5341995e-15 -1.7359969e-14
4.6891477e-15 1.7301749e-14 -1.5231304e-14 -1.7852748e-15 -1.20590226e-14 -6.522698e-15 0.001648548 -0.00056727574
0.0012957593 -0.0019489438 0.00011301317 -0.0012148799 0.0010907988 -0.0010032837 0.0023715056 -0.000290111
0.001790678 -0.0006621894 0.00054364756 0.00056776905 -0.0020661948 0.00013974325 -0.00077269675 0.0011534189
-0.00019410202 0.0015994932 0.0012341449 -0.0012707959 0.0023292515 0.0009872431 9.123747e-05 -0.00038628274
0.00085121585 -0.00013456092 -0.0013129748 0.0010294879 -0.000106164276 -0.00062510004 0.0005991351 -0.00028755248
0.0017353349 0.0025236963 0.001078138 0.000813872 -0.0012368765 -0.00093984895 -0.00086439116 0.00021254341
-0.00029905207 -0.0005992945 -0.00039527548 0.0006121709 0.0011475735 0.0014557207 0.0013043566 -0.00062796246
-9.589583e-25 6.6846246e-21 2.0908367e-15 2.4355592e-25 2.3082354e-25 -5.444531e-25 -1.2950318e-22 7.692832e-24
1.60975e-19 2.0330852e-10 7.800807e-14 -4.2300312e-22 -3.1101525e-15 7.245998e-25 -8.7592517e-10 4.8430104e-25
-4.89548e-25 2.5366564e-25 -6.424465e-24 -1.9630439e-25 5.8851573e-22 7.1804164e-21 2.2876053e-21 -2.1110233e-25
-7.4138883e-25 1.6022267e-14 8.4744535e-26 -8.604208e-22 6.294699e-21 -3.446476e-26 -9.01039e-24 2.6376735e-25
2.5360791e-23 8.70104e-26 -1.4356671e-21 1.358224e-24 4.294293e-20 -2.3379702e-25 -9.8666815e-26 1.8417672e-11
-1.0535675e-24 -4.991803e-25 1.803248e-25 -2.1566146e-23 -8.105628e-14 4.3328425e-23 1.5668964e-25 3.615311e-18
-5.3471467e-25 2.8113326e-24 -2.4872545e-16 -2.00636e-15 5.1737297e-16 2.6192043e-16 -3.9464178e-16 7.4063486e-16
00000000: 8aec 999b 8a82 d19a c976 5a9b 33c1 8b1a
00000010: 3346 e89a 8b17 181c 9c68 829b 91bb 559b
00000020: ec43 a21a c0d9 571b c728 669b 319c d39b
00000030: 10f1 b71a d2e0 b019 3acb 119b 27af 779a
00000040: 0520 c81a 41e0 011a 240b ce9b 2faf b01a
00000050: c619 239b 3a6d 9f9b d20c 5319 45cc 0b9b
00000060: f446 151c 1758 0a9b 7def 1018 519f 561a
00000070: 87ab 439a 27d8 619b e8e6 209a fb8b 991b
00000080: 82ab d29a 5338 0319 e54a 9d9b 03c1 5c9b
00000090: 7765 361b 5c9d 6a9b c0ed bf9a e9b3 fb1b
000000a0: 8bf0 7d1a 468f 8f19 ee3b 4798 8a71 d699
000000b0: 3bac 0a1c 4e60 849b 69ee e91a 5219 fc1b
000000c0: 6b65 419a b51d c99b 9bfd ed16 a37a bb95
000000d0: 390a d996 6517 5d16 fde9 4117 b145 4a1e
000000e0: 7cda af95 cb4b 1a17 d025 2095 3152 2c16
000000f0: ac70 1497 14b7 0117 0d18 8396 3873 0a97
00000100: d434 5f96 9d1f 5b14 025b 7497 499b b114
00000110: cc19 a516 ce0c c395 c967 ab95 4a02 4093
00000120: 6674 dd16 182b 5f97 88a8 d516 af36 3897
00000130: 5ee8 c315 890b 2a97 fd96 4396 0a97 a119
00000140: f293 8a16 d363 f01d 8d72 2717 905d 1c16
00000150: f596 8415 8dd6 a497 85c7 c016 5014 4b96
00000160: bdbd 3516 c1ee 2996 b699 9796 7203 6c98
00000170: 586d bb16 5c07 a895 5268 6116 c7d0 6b96
00000180: 2cff bd95 7ba6 3e96 cfea 0695 2a5a 2517
00000190: a6f0 35a8 af47 2f27 99e1 8427 4eff 8027
000001a0: 2b59 b226 b724 06a9 0613 0828 e0c2 eea8
000001b0: 2ea6 8928 8855 bc28 848a fd24 fd94 7127
000001c0: 0abc 05a7 7fe5 0328 c463 b927 3e99 b5a7
000001d0: a0fe da27 c0e4 01a9 4856 04a9 74b9 d0a8
000001e0: 1474 b7a7 2309 3d29 8965 1e28 6cff 9da6
000001f0: 337f 57a8 f817 c1a7 6357 0428 aced a628
00000200: 1387 96a7 dda5 b0a7 d3c7 ada8 12f6 08a8
00000210: e3b3 6ba8 cf84 3fa6 836c 7328 bdf4 92a8
00000220: e272 8ca7 c255 c3a7 e538 5da8 7d1e 32a8
00000230: d805 eba7 23b6 c1a8 bcc0 2ba8 5d5d 9ca8
00000240: c1f1 a827 1ed7 9b28 ff30 89a8 82a4 00a7
00000250: 6d3c 59a8 4501 eba7 1714 d83a 3bb5 14ba
00000260: 78d6 a93a b473 ffba 7c01 ed38 9b3c 9fba
00000270: 22f9 8e3a 9d80 83ba 436b 1b3b 0a1a 98b9
00000280: 2fb5 ea3a c796 2dba 9283 0e3a 56d6 143a
00000290: ff68 07bb 0b88 1239 cd8e 4aba 512e 973a
000002a0: dd87 4bb9 16a6 d13a 08c3 a13a d690 a6ba
000002b0: 5ba6 183b 6266 813a be56 bf38 fe85 cab9
000002c0: 2124 5f3a ec18 0db9 2018 acba e2ef 863a
000002d0: 83a4 deb8 c1dd 23ba 470f 1d3a a4c2 96b9
000002e0: 2d74 e33a 9964 253b 4f50 8d3a 065a 553a
000002f0: b01e a2ba 3260 76ba 4f98 62ba 30de 5e39
00000300: 17ca 9cb9 f919 1dba fa3c cfb9 187a 203a
00000310: 2d6a 963a e2cd be3a f2f6 aa3a d99d 24ba
00000320: 4164 9497 b989 fc1d 21a9 1627 fac0 9616
00000330: 73df 8e16 0580 2897 4b8f 1c9b 0fcd 1419
00000340: b50b 3e20 438a 5f2f 97a8 af29 90b0 ff9b
00000350: 301c 60a7 b640 6017 c1c5 70b0 48e2 1517
00000360: fd81 1797 ed02 9d16 d288 f898 5803 7396
00000370: 33de 311c 5da2 071e b9d8 2c1d 80aa 8296
00000380: e072 6597 d550 9028 3bd1 d115 eb05 829c
00000390: 98ce ed1d 46a9 2a95 4a49 2e99 9b43 a316
000003a0: 4746 f519 656d d715 aef3 d89c cc2c d217
000003b0: d1ca 4a1f 9eb6 9096 8649 f495 e900 a22d
000003c0: 1c08 a397 237d 1a97 363b 5f16 3193 d099
000003d0: c485 b6a9 fe85 511a eef8 4116 a661 8522
000003e0: 767c 2597 2e84 5918 6661 8fa5 cf92 10a7
000003f0: 631f 1526 a2fc 9625 d97e e3a5 3579 5526

decoder.0.bias f4 [64]
-7.508798e-09 -2.5202266e-13 -7.780683e-10 -0.0052654687 -0.0046567535 -0.00011691894 -0.001937881 -2.768106e-09
-0.020100808 -1.9016813e-08 -0.003020597 -0.021998106 -9.1085234e-08 0.034006085 -1.082645e-09 3.2352262e-16
-0.053459108 -1.2624822e-19 -2.3181692e-05 8.658736e-06 -0.52207685 -2.5213532e-05 3.3062036e-11 -2.5006927e-06
-0.00053312373 1.0702098e-08 -0.06001642 -0.10322566 0.026325274 -2.3576463e-09 -0.0011401603 -2.442254e-16
0.029532304 -0.17876057 -4.6223562e-05 1.08744446e-16 0.044006895 -0.0059408895 -7.0882056e-25 -6.033285e-13
-0.03371928 0.042536456 -0.13866073 -0.32017377 -0.02395755 -0.000959237 -3.7020175e-07 -2.0350575e-11
-4.1614963e-05 -6.7446435e-09 -5.754208e-09 -0.005320394 -7.291837e-05 -2.682071e-12 0.06020636 -0.006903632
-0.008740353 -3.732751e-12 -1.6555672e-09 -9.56304e-15 -0.074926816 0.01342519 -3.9785363e-08 1.3665999e-18
00000000: 0b00 01b2 4be0 8daa b0df 55b0 f489 acbb
00000010: ae97 98bb 6132 f5b8 7f00 feba 0939 3eb1
00000020: 73aa a4bc 6a5a a3b2 35f5 45bb 5f35 b4bc
00000030: a39a c3b3 f749 0b3d 2fcc 94b0 837f ba25
00000040: f0f7 5abd 2f0c 15a0 4e76 c2b7 fd44 1137
00000050: d4a6 05bf a681 d3b7 8b68 112e 93d1 27b6
00000060: 54c1 0bba 53dc 3732 c7d3 75bd fa67 d3bd
00000070: 1aa8 d73c 2704 22b1 6e71 95ba 4fc9 8ca5
00000080: bbed f13c 030d 37be 2ce0 41b8 64bf fa24
00000090: 9340 343d cbab c2bb 8d5e 5b97 66d2 29ab
000000a0: 3a1d 0abd b53a 2e3d 14fd 0dbe d1ed a3be
000000b0: a042 c4bc 4e75 7bba 24c0 c6b4 6c01 b3ad
000000c0: ba8b 2eb8 83be e7b1 8db6 c5b1 b356 aebb
000000d0: c0eb 98b8 e5bb 3cac f29a 763d dd37 e2bb
000000e0: b333 0fbc a255 83ac 188a e3b0 bd45 2ca8
000000f0: 3b73 99bd 54f5 5b3c 78e0 2ab3 afac c921

decoder.3.weight f4 [20, 64]
2.0698498e-22 1.3050634e-25 3.1535497e-14 -0.004459083 1.86547e-07 -3.9654078e-16 1.0573725e-07 2.0833656e-10
0.010130793 3.832562e-10 7.814412e-06 -0.00010712201 -4.787879e-17 -0.08330642 -3.68156e-11 -1.1675831e-15
0.0074273837 -4.9314e-41 -3.5131498e-07 -1.4209555e-05 0.0055369833 -7.1380716e-13 -9.239573e-12 -3.23199e-19
4.9711758e-05 6.6684244e-08 0.007376514 0.0012781807 -0.016637955 1.0358127e-25 -0.019278422 -4.9515008e-17
-0.06877316 0.0021062728 5.6366033e-11 -1.4845072e-16 -0.010394744 -0.027751345 4.9242e-41 1.2485992e-24
0.00061595667 -0.102429196 -0.0013801476 0.048887704 -0.0020360008 1.7265066e-06 3.9569715e-13 -1.1471399e-19
4.2817023e-06 -1.1869274e-10 4.7856326e-17 -1.9123567e-08 1.6572387e-05 4.1249078e-25 -0.06184013 -0.00028181687
0.07803393 1.9576229e-21 -1.06551025e-10 -1.044607e-15 -0.000106287975 0.07233678 1.5162391e-09 -5.846502e-18
-1.412598e-22 -1.0505512e-22 9.76356e-15 -0.013904218 -6.9415876e-08 -1.3169696e-15 -3.3897592e-08 9.957019e-11
-0.04567742 5.661469e-10 -8.609988e-07 -4.0921437e-05 -5.2010292e-18 -0.049939778 -8.479779e-11 9.497805e-16
-0.018438276 -4.9173e-41 -5.3545017e-07 -1.6224924e-06 -0.004615586 -1.6532666e-13 -4.695827e-11 -1.3611954e-19
-4.1934996e-05 2.1370498e-07 0.033301666 0.0022368445 -0.034930404 9.14211e-26 0.07799434 3.3232947e-17
-0.060985498 0.0057377866 5.397762e-10 2.1051478e-16 0.025964469 -0.0051380238 4.9215e-41 3.8932483e-24
-0.0003690503 -0.034676455 -0.00091687246 -0.0066758087 0.019788945 -1.1713374e-06 -9.5501284e-14 -3.9969357e-19
-1.0222268e-05 1.0042119e-11 4.0041815e-17 2.3181782e-08 -1.1117963e-08 -1.8699168e-25 -0.0617898 -4.2052226e-05
0.088293016 -4.9454213e-21 8.6518764e-11 -1.9733836e-16 0.0005351518 0.030458845 -8.667056e-11 1.6712319e-18
1.4126325e-22 -2.054572e-24 6.213108e-15 0.025688462 -6.610878e-09 7.7967593e-16 -5.6990984e-08 4.939505e-10
-0.011656842 -1.34958e-09 -5.5007285e-07 -7.9800775e-06 4.484121e-18 -0.08751199 2.8753647e-10 5.340458e-16
0.018942496 -4.9658e-41 -8.903514e-07 2.268443e-05 -0.015549499 3.047768e-12 4.6304783e-12 -1.2341748e-19
9.624316e-06 2.7660653e-07 -0.004880606 -0.009101371 -0.03748735 -1.5761776e-25 0.058847006 -5.926821e-17
-0.00025126187 -0.016361995 2.372191e-10 -6.6711964e-17 -0.123037376 0.026375663 4.941e-41 -5.0811253e-24
-0.0010965547 -0.10465471 0.0006600848 0.029618539 0.0032225894 2.610006e-05 -1.3459253e-13 4.510563e-19
-7.345694e-06 1.4531701e-09 2.9586642e-17 6.657028e-08 -6.8900345e-06 1.2234878e-24 -0.098564535 -6.180493e-05
0.060893785 -2.7934067e-21 -1.1796342e-10 1.6195535e-16 0.00090289896 0.01929291 -3.283625e-09 -2.6338554e-18
-3.9489968e-22 2.6607416e-15 3.5041675e-14 -0.03369974 -4.2496367e-08 -4.7113105e-16 -7.963702e-08 6.9649536e-11
0.014589719 -1.4166505e-10 -3.2334467e-06 3.4028755e-05 -2.2796696e-18 -0.0856338 -6.753807e-10 -1.3192861e-15
-0.06411684 -4.9396e-41 -6.3662844e-07 -2.4042646e-07 0.034432027 1.0323577e-12 1.3250945e-10 3.5491456e-19
0.000114276154 1.767364e-07 -0.00020466345 0.0019236726 -0.009670796 -8.470622e-26 0.04767208 1.2132591e-18
0.059199538 0.0073921597 -4.1008877e-10 -1.569829e-16 -0.06841002 -0.10350999 4.9844e-41 2.2714366e-24
0.00049347774 0.008995761 0.000509487 0.0038017933 0.0043368177 -3.7267902e-05 -4.2425214e-14 1.3583338e-19
1.9523181e-06 -1.6633203e-10 5.2469472e-18 -4.6288026e-08 -1.0493042e-05 1.5599233e-26 -0.061808914 -0.0002480086
0.015742494 1.6935546e-22 7.3985186e-11 -3.926609e-16 0.0005526314 -0.025358608 9.475477e-10 -4.5991077e-18
00000000: c03a 7a1b 1c8f 2116 f405 0e29 801d 92bb
00000010: a64d 4834 1797 e4a5 ab11 e333 8711 652f
00000020: a0fb 253c 84b2 d22f a51a 0337 b1a6 e0b8
00000030: 4ccd 5ca4 8e9c aabd aeea 21ae 3744 a8a6
00000040: 6961 f33b 7889 0080 5d9c bcb4 9365 6eb7
00000050: 956f b53b 3aeb 48ab 568b 22ad 74c8 bea0
00000060: 9881 5038 0d34 8f33 afb6 f13b a188 a73a
00000070: 524c 88bc 373a 0016 c8ed 9dbc 0159 64a4
00000080: f1d8 8cbd 6509 0a3b 83e6 772e eb26 2ba5
00000090: b74e 2abc ca56 e3bc 4489 0000 1c36 c117
000000a0: 2778 213a 66c6 d1bd 12e6 b4ba 793e 483d
000000b0: 6d6e 05bb 51ba e735 f8c1 de2a 2d6e 07a0
000000c0: 8bab 8f36 0981 02af c7b2 5c24 2b45 a4b2
000000d0: ee04 8b37 c651 ff16 134c 7dbd d2c0 93b9
000000e0: 41d0 9f3d efe9 131d e54e eaae 328b 96a6
000000f0: ece6 deb8 4e25 943d ec63 d030 a6b2 d7a2
00000100: cac5 2a9b f801 fe9a 79e2 2f28 84ce 63bc
00000110: c811 95b3 9acb bda6 cc96 11b3 09f5 da2e
00000120: 3f18 3bbd 0c9f 1b30 631f 67b5 0fa3 2bb8
00000130: 55e2 bfa2 a78d 4cbd e978 baae b7e0 8826
00000140: de0b 97bc 1389 0080 dbbb 0fb5 6ac4 d9b5
00000150: 573e 97bb 2a24 3aaa 5086 4eae 9bb3 20a0
00000160: 5ce3 2fb8 c776 6534 5467 083d 0698 123b
00000170: 2f13 0fbd 0259 e215 7fbb 9f3d 8a42 1924
00000180: eecb 79bd 0b04 bc3b 605f 1430 ffb4 7225
00000190: 70b3 d43c de5c a8bb 3189 0000 dd9c 9618
000001a0: 187d c1b9 e608 0ebd 455a 70ba bec0 dabb
000001b0: 6d1c a23c d936 9db5 be0c d7a9 fcef eba0
000001c0: 4f80 2bb7 afa9 302d 08a9 3824 4721 c732
000001d0: 5201 3fb2 077c 6796 4d17 7dbd 3c61 30b8
000001e0: f8d2 b43d 2ed5 ba9d bc41 be2e 0184 63a5
000001f0: 6e49 0c3a d484 f93c 3097 beae 5ba1 f621
00000200: dcc6 2a1b fef6 1e98 ced9 df27 9c70 d23c
00000210: e625 e3b1 eeb9 6026 40c6 74b3 adc6 0730
00000220: 57fc 3ebc 207c b9b0 b8a8 13b5 2ce2 05b7
00000230: 536f a522 7c39 b3bd 2913 9e2f a0ed 1926
00000240: 4b2d 9b3c 6d8a 0080 7b00 6fb5 714a be37
00000250: 53c3 7ebc b577 562c a4eb a22c a5b4 11a0
00000260: 1f78 2137 8380 9434 7eed 9fbb eb1d 15bc
00000270: 568c 19bd 101f 4396 8f09 713d c7a9 88a4
00000280: ccbb 83b9 9709 86bc 9f69 822f cbd3 99a4
00000290: 05fb fbbd c611 d83c bc89 0000 0791 c498
000002a0: 45ba 8fba 3555 d6bd 8b09 2d3a 94a2 f23c
000002b0: 1432 533b 74f1 da37 a889 17aa da20 0521
000002c0: 087b f6b6 e1b8 c730 be71 0824 66f5 8e33
000002d0: f230 e7b6 5853 bd17 34dc c9bd 459d 81b8
000002e0: c36b 793d 5810 539d c0b3 01af c8b8 3a25
000002f0: 86b0 6c3a 2a0c 9e3c 24a6 61b1 1f58 42a2
00000300: c4b3 ee9b 05ba 3f27 4dd0 1d29 bd08 0abd
00000310: 4085 36b3 56cb 07a6 ea04 abb3 3429 992e
00000320: b709 6f3c 2bc3 1baf 31fe 58b6 19ba 0e38
00000330: be35 28a2 c660 afbd b1a5 39b0 1121 bea6
00000340: b14f 83bd b289 0080 c6e4 2ab5 f613 81b4
00000350: 9908 0d3d 9b4a 912b 18b2 112f 2c81 d120
00000360: 8ba7 ef38 efc4 3d34 ed9a 56b9 be23 fc3a
00000370: 4272 1ebc f2b8 d195 cd43 433d a20b b321
00000380: 377b 723d ee39 f23b dd72 e1af 2dfd 34a5
00000390: 8d1a 8cbd 0cfd d3bd f28a 0000 70be 2f18
000003a0: bb5c 013a f562 133c 188f 053a 8227 793b
000003b0: dd1b 8e3b 1b50 1cb8 f110 3fa9 1f5d 2020
000003c0: 9204 0336 4ee2 36af 0494 c122 39ce 46b3
000003d0: 460b 30b7 c17c 9a14 582b 7dbd 2707 82b9
000003e0: 67f6 803c fabc 4c1b f5b1 a22e 855a e2a5
000003f0: 77de 103a dbbc cfbc df3a 8230 58ad a9a2

decoder.3.bias f4 [20]
-0.0006548005 0.003731563 -0.0031893135 -0.0004796122 -0.010196166 -0.00026574536 -0.012584822 0.00161158
0.021470068 0.0117722405 0.004917605 0.00055480737 0.011325649 0.00051503035 -0.00090750854 -0.006264811
-0.0026796362 -0.0061638616 -0.0066262376 -0.01582929
00000000: eba6 2bba 3d8d 743b cd03 51bb 7674 fbb9
00000010: d20d 27bc bd53 8bb9 9230 4ebc a73b d33a
00000020: ffe1 af3c 5be0 403c dc23 a13b 7e70 113a
00000030: 378f 393c 1a03 073a dee5 6dba 0b49 cdbb
00000040: d69c 2fbb 38fa c9bb e920 d9bb 6dac 81bc
