checkpoints/checkpoint_epoch_650.pth (torch, 314812 bytes, 30 tensors)

lstm.weight_ih_l0 f4 [256, 2]
00000000: 8d8d 45bc 4587 563a 5a8f 2239 564c 55b9
00000010: 1eb2 ec3d 2750 b4bb 5965 8d2e bf7d 0ca4
00000020: 2278 7a3b f445 06bc 8c7e 173b ab0f 123b
00000030: a93f 3cb7 13cd 13bb 3eb6 cb2e ab2d a797
00000040: 43f2 ceb9 3e3d aeb7 c2a7 1bbc 0f87 3fbc
00000050: bb56 f627 991d 4d81 98e2 60bc 4156 02bc
00000060: e0c7 dbba c2f5 02bc c815 92be 85a3 033e
00000070: d1fb 7bba 0193 b7b7 bfff 82ba 3f4e c536
00000080: 8121 23be 1cd3 a1bc 9589 83b5 7555 84b2
00000090: 1a97 c6bb b63c 553a c75c 1839 b570 46a7
000000a0: 2107 ef33 2368 c42b e619 4cb9 3827 dfb4
000000b0: 9bd3 c33b 2e0a 28bc f51a 05bc c9de b0bb
000000c0: 237b 763a 689b 23ba cf50 8e3b 7104 80bc
000000d0: 75b2 2fb6 8cec afb3 4410 9ebc 2471 bbba
000000e0: 9d69 39bb 0e40 39ba f494 35bc fbaa fa3b
000000f0: 1f3d f0bd 349e a3bb 0a54 16b0 5411 9f2f
00000100: a2bf 8d3e 9fd5 0ebe a2cd acbb 36b4 e3b9
00000110: 3516 c1aa 7245 cda9 a13b 38bd 14a2 fa35
00000120: f77a 87bb dc74 a2bc 1730 7e3c bdfd d5bb
00000130: 9317 c9bc 146a 0839 3e28 2e37 4dc0 25b7
00000140: 4a41 17bc b08f 91bb 99c6 b639 2233 70bb
00000150: 62d5 4cbc eb4b 6bb2 b418 4334 eedf b22e
00000160: 7529 1fb8 8b98 9bb6 7d86 feba 4d6c ddb9
00000170: 7e9e 023d fb13 823b 064c e9bb e40b 67bb
00000180: 759d 62ae 2329 869e 82c9 85bb 53d7 f0ba
00000190: 563d 2139 9b4d c6b8 97dc 44af 219d e5ae
000001a0: ed9b 01bd 493b fdb8 997a 91b7 1d9a 7fb9
000001b0: 97af 8c3a a762 9438 13f5 cdbb eddb 00bb
000001c0: 40ad d83a f9ab 59b9 1f0f 5c3c 0524 cebb
000001d0: f9b3 31bb 1976 43bb 38ae e53c 1f88 11ba
000001e0: 8020 44bd a6b9 503d 100d 5d3c 647b f53b
000001f0: b362 803c 4fb1 70bc 4316 2a3b ecfe c7b7
00000200: c146 6bbc d72b 9a39 20fd feb9 d3f5 3cb9
00000210: 4bbd c03c e9c9 813b 38bc 093b ec3d 00a6
00000220: 952d ec3b 1d53 91bb a643 0fbd 0375 e4bb
00000230: 52c4 633a 73ab 47ba 2ba2 2c1f 5bd6 2297
00000240: dc4c d9b9 4dd0 8eb7 96ee 8f39 aa2f 45bc
00000250: 0d81 4f26 405a e780 e276 8ebc 6ba7 d7bb
00000260: 4caa 71bc 9778 fbba 1d4c dd3e 0b29 473e
00000270: 5840 7bba a24a 64b8 1b22 41ba d8f1 3438
00000280: f99f a5bd 6fba bb3a 0adb 6fb5 c4f6 5fb3
00000290: d189 6bbc 77c0 4d3a f323 7da8 eacd 63a7
000002a0: 5d01 8fae 4a12 6dad a068 3bb8 59df b134
000002b0: c3bf 093d cfd1 4cbc 54b9 fdbc 7e6e 81bb
000002c0: 5584 9cba b87d 8db9 30ee d93b 160f 5abc
000002d0: 93e2 2ab6 1a24 29b3 aa4b 1dbd 0376 983b
000002e0: 6ac3 efbb 334f 023a 8260 bbbc b118 67bc
000002f0: 8dd1 03bd 9e9c 6d3b 7b45 f530 8ad5 82af
00000300: ccbd f3be 5a02 a3bc c66c e2ba dcd9 e9b8
00000310: 1c58 b3aa 47c3 f2a9 78f9 12b9 c93a 9db6
00000320: 9bea a33c 1a12 39bd 5d4c 363c d175 6cbb
00000330: 06e4 76bd 27f1 45bb 5f72 0db7 8e39 2bb7
00000340: e8ee bfbb 8bb9 8dbb 77e9 cfbb acbe d1b8
00000350: 5665 03bb 40b7 3ab3 fc9a 45b4 d1ad fbae
00000360: db1a 20b8 51dc 7fb6 a36d 8abb 6ad9 15ba
00000370: 524f e3bd 1617 b23d 54aa 14bc cf35 06bb
00000380: fa8f ec9f 26af ca9e 4e22 ecbc 0f1f 1f3b
00000390: 7d36 a538 9088 87b7 d26c 513b 90c6 15ae
000003a0: 36dc 75bb e671 afb9 7bf5 78b9 05ed 2cba
000003b0: 1792 c439 89ff 5fb8 58f3 dc3b cff2 02bb
000003c0: ee44 683b af5d 99b8 c5c3 653c aba6 5abb
000003d0: 1e8a c6ba b15a 26bb 6745 0e3e c6f2 953c
000003e0: fa2f 1e3e 5d66 433e f7c0 2d3d 8a39 62bc
000003f0: 520e 303d 73f8 4abc 747f 3dbb 0f60 9439
-0.012057674 0.0008183609 0.00015502927 -0.000203417 0.11557411 -0.005502719 6.4299406e-11 -3.0464172e-17
0.0038218577 -0.008195389 0.00231162 0.002228717 -1.1220495e-05 -0.0022552654 9.263744e-11 -1.080365e-24
-0.0003947188 -2.0770934e-05 -0.009500446 -0.011689915 6.837275e-15 -3.767379e-38 -0.013725899 -0.007955135
-0.0016767941 -0.007993164 -0.28532243 0.12855347 -0.00096124137 -2.1883754e-05 -0.0009994431 5.8801666e-06
-0.1593075 -0.019753985 -9.800302e-07 -1.5405684e-08 -0.006060493 0.0008134352 0.00014530412 -2.7539118e-15
1.11306015e-07 1.3955541e-12 -0.00019464604 -4.1565522e-07 0.005976153 -0.010256333 -0.008124103 -0.005397652
0.0009402504 -0.0006241114 0.004343129 -0.015627118 -2.6180908e-06 -8.1921e-08 -0.019294865 -0.0014300686
-0.002829171 -0.0007066735 -0.0110828765 0.007649777 -0.11730408 -0.0049932245 -5.468911e-10 2.8934244e-10
0.27685267 -0.13948677 -0.005273537 -0.00043431082 -3.4299096e-13 -9.1158756e-14 -0.04497874 1.8673622e-06
-0.0041345316 -0.019831114 0.015514395 -0.006530492 -0.024547374 0.00013009488 1.0380578e-05 -9.87954e-06
-0.009231875 -0.0044421777 0.00034861712 -0.0036651571 -0.012502046 -1.3696062e-08 1.8169777e-07 8.134281e-11
-3.7947164e-05 -4.6371183e-06 -0.0019418743 -0.00042233095 0.03188943 0.003969667 -0.0071196584 -0.003525489
-5.15263e-11 -1.4204816e-20 -0.0040828595 -0.0018374718 0.00015377006 -9.455831e-05 -1.7904465e-10 -1.0441626e-10
-0.031642843 -0.00012075023 -1.7342436e-05 -0.00024376107 0.0010733482 7.0755654e-05 -0.0062853186 -0.0019662336
0.0016531125 -0.00020758797 0.0134313395 -0.006290915 -0.0027115329 -0.002982503 0.028037176 -0.00055515947
-0.047882557 0.0509583 0.013491884 0.007491516 0.015672063 -0.014690711 0.002595321 -2.3841356e-05
-0.014360131 0.00029405832 -0.00048635248 -0.00018020654 0.023527762 0.003960837 0.0021016728 -4.449284e-16
0.0072075822 -0.0044349567 -0.034976624 -0.0069719567 0.0008688617 -0.00076167955 3.655656e-20 -5.261558e-25
-0.0004144673 -1.7024717e-05 0.00027452846 -0.01203529 7.199245e-16 -2.1246375e-38 -0.017390672 -0.006581237
-0.014750075 -0.0019185719 0.43222132 0.1944925 -0.0009584478 -5.4428943e-05 -0.0007367448 4.314058e-05
-0.08087153 0.0014322529 -8.935318e-07 -5.2145666e-08 -0.01437612 0.0007848809 -1.40521165e-14 -3.1614205e-15
-6.503129e-11 -1.3475951e-11 -4.4681714e-05 3.3131326e-07 0.033630144 -0.012501194 -0.03097216 -0.0039499393
-0.0011941293 -0.00026987283 0.0066507086 -0.013309261 -2.5463858e-06 -3.9381213e-08 -0.038402237 0.00465274
-0.0073169963 0.0004970908 -0.022873167 -0.014105008 -0.032182265 0.0036256681 1.7845844e-09 -2.379859e-10
-0.4760574 -0.019898582 -0.0017274849 -0.00011150885 -3.1857926e-13 -1.0780834e-13 -0.0001401658 -4.685808e-06
0.02000933 -0.04518328 0.011126605 -0.0036080966 -0.060276054 -0.0030203552 -8.430884e-06 -1.0205795e-05
-0.0058573373 -0.004325097 -0.00634497 -0.00010001412 -0.0020049415 -4.3473165e-08 -1.8403438e-07 -1.14450345e-10
-3.8171984e-05 -3.8126202e-06 -0.0042244955 -0.0005716296 -0.110991135 0.086958095 -0.0090738125 -0.002047885
-1.0018808e-19 -2.1460022e-20 -0.028824951 0.0024279987 7.877962e-05 -1.6156846e-05 0.003195573 -3.4055037e-11
-0.003751529 -0.00033463462 -0.00023742572 -0.0006596598 0.0003749288 -5.340533e-05 0.006742876 -0.001998115
0.0035441476 -7.3130584e-05 0.014023726 -0.0033363502 -0.0015147363 -0.0025383646 0.13893662 0.01830424
0.15447989 0.19082017 0.042420354 -0.013807664 0.042982407 -0.0123883365 -0.002891508 0.0002830033

lstm.weight_hh_l0 f4 [256, 64]
00000000: 3002 f939 462e f4b7 f1a3 133a 4c40 0d2e
00000010: 602b b138 af16 3639 2f3c b4b9 7ee8 8128
00000020: 9808 45b8 c701 8dba 73b1 109d 3d7c 8a39
00000030: 1d23 4d3a ba9e b93a e948 77b8 4bff 8a37
00000040: f0f0 f638 ee58 8b35 84c9 c439 c6f3 342f
00000050: 5456 7bb2 fbeb cdb6 3b1f eab9 7635 393a
00000060: 0bb9 3539 221c 10ba 96e8 beb4 3e6a a9b9
00000070: 0089 e1b9 3ddf 9fba 4091 13ba cd20 3534
00000080: bcc7 4bb8 fda3 c1b9 5bc0 00b1 24f3 a436
00000090: 8148 de39 1e09 81ba d494 00ba 4e4a 81b7
000000a0: 10ac 7639 ec3a 9d39 7124 16b6 12e5 0a33
000000b0: eda4 ee36 8e51 d4b8 b4ab dc3a 9a47 1ab9
000000c0: ea4d 93ac ff9e 9fb9 5b72 70b7 b7f1 8fb2
000000d0: 8588 c938 0b86 4638 7750 c6b9 3d09 51b9
000000e0: d1d7 8e38 e182 20ba cbfc 16ba 645c 1c3a
000000f0: 0c43 bbba 4ade 5139 41ba 153a 1796 b939
00000100: 8910 82b6 ccea c834 1704 0cb9 6e4c 812d
00000110: 3210 8db7 a4cd 6cb9 0ed6 b3b7 e6ac c3a5
00000120: 07d6 24b7 ffdc f138 fca0 281a c616 a6b8
00000130: 4c27 21b7 9c8c 83b9 4252 6a37 c267 a4b6
00000140: 907e 6438 c04f 15b3 278e 68b7 90b1 952e
00000150: cc1f 822f c8b0 1434 ec1f c236 3de2 8236
00000160: 866a 3037 a1c1 1f39 f159 1334 4b3d f2b7
00000170: cf8d 5cb7 5ccb 98b9 d8ef 96b8 3389 4131
00000180: 5864 a838 db3f 11b7 81ee 2b30 96c3 45b7
00000190: 0123 8239 f693 11b9 897d 1d39 f01f 87b6
000001a0: b0d4 5d38 d94f 2437 ebd3 9f34 8d5b 3d32
000001b0: 8c4d 3fb6 ab2b 1438 a60f cab9 f462 61b8
000001c0: 3ac1 f128 3b6b ddb8 6eef 06b7 c8da 3431
000001d0: a615 9fb6 7250 6eb7 b6e6 4bb7 94a0 dc37
000001e0: f33f 1437 97b3 0c39 e7b3 5937 c830 cfb8
000001f0: fa3f 65b9 1087 84b9 fa5d 4fb8 c243 af37
00000200: 6339 af39 f9a6 6d39 ccb0 59b8 6dfc e7ae
00000210: ba7b 443b 3668 c53a b0ff 1e3b 5db9 0da9
00000220: 69a6 d5b8 a82c 61bb f7d2 3e1d 99b7 75bb
00000230: afef aaba 47e1 b73a ccba 2439 6ce6 2db9
00000240: 80fe 0dbb d0b6 3d35 ee51 07bb 3f2f 4eb0
00000250: f834 f233 8157 abb7 12fb 14ba fb63 27bb
00000260: 9f74 8834 db09 d93b e802 68b6 ddb0 ccba
00000270: a286 1fbb cbdb 31bb b727 0bbb a882 3f34
00000280: c5e6 71ba 1f73 6c39 9250 0fb2 c8a9 90b8
00000290: 6f5f da3b 08d4 8639 4de4 ee3a 1ea1 0438
000002a0: fd24 5e3b a3bc 313b f0c7 9b35 797b 1e35
000002b0: f5d8 c9b7 3f2a d239 8db0 a7bb 9411 14bb
000002c0: dd9d 442c 1afd 20bb f063 1d38 5e15 2234
000002d0: 78b9 63ba 884a f737 eee7 8cb8 e8ef ca3a
000002e0: b5ea 11ba e259 d4b9 ac78 c03a 89ba c539
000002f0: c6aa 643a ef5b 153b a996 a3bb 9ebc d839
00000300: b51c 27a3 54e4 22a3 2bd2 1124 976a b697
00000310: 9dbe 2724 2655 1fa2 a36a 1ca4 5ec6 8c11
00000320: e65d 5322 2047 2225 195b ad84 2ada 5e22
00000330: 1083 46a4 8a2c ab24 ff92 b9a2 6db4 26a3
00000340: c572 8aa5 c095 00a0 6bc5 0aa4 2748 e41a
00000350: 80ed 991d e272 d420 8a90 d9a3 4d3d 09a4
00000360: af54 31a3 31eb b923 57f5 3ea0 dcc5 4525
00000370: 6461 07a5 75e1 8822 cf94 73a4 1f6c c99e
00000380: a60f 86a6 ce85 ef20 568c 621c b3fb 1d22
00000390: c1ad d9a4 7531 3c23 ea75 6aa4 f630 c6a1
000003a0: fc8d 99a3 383f 75a4 eee7 329f 1260 2b9f
000003b0: aa80 e720 6392 daa2 58a8 8624 f688 3e25
000003c0: 86ab c816 e387 b225 7b63 f520 661f ac1d
000003d0: a25c d2a3 8a3a 32a4 6219 1b21 1861 8822
000003e0: 52bf 3224 d8ce aba3 c095 1f24 41ff f9a5
000003f0: d5f3 2b1f 4a9a 97a4 6a08 31a4 ac19 1524
0.0004749461 -2.9108614e-05 0.0005632034 3.2116795e-11 8.448097e-05 0.00017365323 -0.00034377116 1.4422704e-14
-4.6976464e-05 -0.0010757976 -1.914998e-21 0.00026413976 0.00078253617 0.0014161684 -5.8957292e-05 1.6569762e-05
0.00011775072 1.0382189e-06 0.00037534174 1.645751e-10 -1.4629752e-08 -6.136948e-06 -0.00044655227 0.0007065156
0.00017330439 -0.0005497356 -3.5559486e-07 -0.00032313348 -0.00043017417 -0.0012197267 -0.0005629249 1.6868871e-07
-4.858499e-05 -0.0003693401 -1.8735793e-09 4.915886e-06 0.0004239716 -0.0009844636 -0.00049049896 -1.54126e-05
0.00023524486 0.00029989274 -2.2372953e-06 3.2338967e-08 7.1121526e-06 -0.000101241385 0.001683584 -0.00014713258
-4.1866415e-12 -0.00030445305 -1.433174e-05 -1.675731e-08 9.6098556e-05 4.7331716e-05 -0.00037825454 -0.00019935235
6.8112866e-05 -0.0006123018 -0.0005759715 0.0005964695 -0.0014286949 0.00020014602 0.0005711653 0.00035397775
-3.876227e-06 3.742374e-07 -0.00013352964 1.4699544e-11 -1.6816051e-05 -0.00022583321 -2.143814e-05 -3.3944268e-16
-9.824994e-06 0.00011532939 3.4871628e-23 -7.919739e-05 -9.605497e-06 -0.0002509103 1.3966639e-05 -4.89966e-06
5.4477307e-05 -3.4764298e-08 -1.3861375e-05 6.807277e-11 2.3669455e-10 1.3847887e-07 5.7853667e-06 3.9006395e-06
1.0515219e-05 0.00015235554 1.3723162e-07 -2.887719e-05 -1.3146039e-05 -0.00029143214 -7.197232e-05 2.8163185e-09
8.029555e-05 -8.657541e-06 6.254837e-10 -1.1787653e-05 0.00024821612 -0.00013883397 0.00015019452 -4.0270315e-06
5.2888587e-05 9.793753e-06 2.9770248e-07 1.1022064e-08 -2.8506356e-06 3.532662e-05 -0.000385401 -5.3736338e-05
2.6840174e-14 -0.000105580744 -8.042769e-06 2.631781e-09 -4.7410895e-06 -1.4204636e-05 -1.21534595e-05 2.6300819e-05
8.836377e-06 0.00013418343 1.2976095e-05 -9.8796154e-05 -0.00021862975 -0.0002527763 -4.944017e-05 2.0893178e-05
0.00033421358 0.00022664283 -5.1901487e-05 -1.05495036e-10 0.0029980973 0.0015060965 0.0024261288 -3.1469066e-14
-0.00010187628 -0.0034358893 2.5255357e-21 -0.0037493466 -0.0013041402 0.001402893 0.00015709846 -0.00016584405
-0.0021666586 7.0674014e-07 -0.00206482 -7.5009504e-10 1.1278638e-07 -2.0425536e-05 -0.00056831643 -0.002554177
2.5416827e-07 0.0066234893 -3.4572386e-06 -0.0015616674 -0.0024341722 -0.0027139063 -0.0021233389 1.7835794e-07
-0.0009227808 0.000225496 -8.342015e-09 -6.898079e-05 0.0066642086 0.00025716447 0.0018225998 3.1621305e-05
0.0033896558 0.0027120493 1.1606589e-06 5.9039263e-07 -2.4062096e-05 0.00040085797 -0.005117482 -0.0022593485
2.7940907e-12 -0.0024564923 3.752479e-05 1.5095199e-07 -0.0008687 2.94794e-05 -6.7189205e-05 0.0015482875
-0.0005566285 -0.0004050276 0.00146844 0.00037713748 0.0008722957 0.0022790392 -0.0049923253 0.0004133926
-9.059167e-18 -8.830388e-18 3.1619882e-17 -1.1788381e-24 3.6373808e-17 -2.1593595e-18 -3.3917433e-17 2.2210359e-28
2.8645542e-18 1.4075358e-16 -4.0755765e-36 3.0202105e-18 -4.304542e-17 7.423488e-17 -5.029999e-18 -9.037085e-18
-2.4016955e-16 -1.089157e-19 -3.00912e-17 9.441516e-23 4.0744332e-21 3.599022e-19 -2.3588402e-17 -2.9759063e-17
-9.613122e-18 2.0157348e-17 -1.6174802e-19 1.7154064e-16 -1.1742381e-16 3.7101586e-18 -5.281827e-17 -2.132642e-20
-9.302359e-16 4.057672e-19 7.4958507e-22 2.1410716e-18 -9.44031e-17 1.0201973e-17 -5.084054e-17 -1.3429962e-18
-1.6648426e-17 -5.3179455e-17 -3.7884814e-20 -3.6290126e-20 3.9218065e-19 -5.924401e-18 5.839842e-17 1.6526277e-16
3.241999e-25 3.0970158e-16 4.1570445e-19 4.5560486e-21 -2.2807477e-17 -3.8647182e-17 5.2549637e-19 3.6965676e-18
3.8759652e-17 -1.8627459e-17 3.4604472e-17 -4.3367581e-16 3.6412352e-20 -6.574719e-17 -3.8387884e-17 3.233097e-17

lstm.bias_ih_l0 f4 [256]
00000000: ec7b 55bb 5cea e2b9 359b 3abc 70f6 8ca3
00000010: 1540 b5bb 2939 20ba eb3e ccba 9bc1 2698
00000020: 6895 21b7 7e6b a5bc b0b9 7681 2d22 20bc
00000030: 1258 53bb d157 f73c 4bfc 92b7 137b 2fb9
00000040: 19ae 8fbc 9333 04b4 2ce1 31bb fae6 4ea7
00000050: faea d6ad ee6a 9634 0ee9 cabc f55d 31bc
00000060: 6ba4 7aba c710 66bc 891e 94b4 4f10 f7bb
00000070: 872b a5bb 94c1 88bb a6e3 0cba 693d b52c
00000080: 45dc c03c 792f beba adae 5da9 9970 26b4
00000090: 5809 e9bc 835c 0bbc a424 adb9 642f 51b7
000000a0: 1c74 09bc 38a1 92bb 14dc 8db3 27bb 952f
000000b0: 1fd7 ceb6 1080 4eb9 c46b e73d efa6 45bb
000000c0: 6045 c79e 5a8c 18bc 2833 18b8 5841 acae
000000d0: 5f09 ceba ed14 d8ba f6f1 4a38 abb3 aabb
000000e0: b954 bbb8 d654 fabb 8fb8 0ebc 2c07 43b9
000000f0: e704 c83d 529f 873a 8a55 5cbc 6a56 eeba
00000100: b70e 3bb9 5e31 deb9 7304 41ba 87e6 a4a6
00000110: b49c 26bc d2c6 13bc 3468 d1ba d8b6 b697
00000120: 1fd3 a2b7 62e3 f6bc 5b60 7e81 c7f7 15bc
00000130: 458a 26bc 702f 283e 3a7d 01b8 a504 eab8
00000140: 9767 9f3c c32f 25b4 ae9b edb9 f4af d9a7
00000150: a0d6 d9ac 6f35 84b4 fb3b cbbc 879e febb
00000160: 478b 8bba c035 8dbc f9ea b1b4 8f8d abbb
00000170: 886f 3aba 9c3c 49bc 36f6 a73c e618 bfb3
00000180: 4b68 643e 2503 b3ba 3133 c7a9 cdba 1839
00000190: 852a 87bd 7a92 dfbb dcbd 33ba 4cd5 acb7
000001a0: e3e3 1cbc f0d0 eaba 429e bdb3 c590 fdb0
000001b0: e232 90b6 6c6f 9ab9 6daf 9d3e 2e12 85bb
000001c0: 8a25 6e9f 74ce 403a 25dc 55b9 8e84 62ae
000001d0: 93a2 24ba 8640 cfba e31d 41b8 1e90 4fbb
000001e0: 055d acba 776c fcbb 7b7d b9bb 4bd4 983c
000001f0: 4b6b 983e f5a5 9bbc e6de 97bc 6caf 68bb
00000200: 812a dfbb c627 5bb9 54c1 36bc 95c4 64b1
00000210: f9de 2cbb 2378 aabb 8ff8 d73b 0f7c 392a
00000220: 4ea9 613a b430 2b3d 53a0 2d9f 775a f23c
00000230: e427 193c da91 d4bd 1d24 feba bb20 01ba
00000240: b62a d6bb 8d1b 2837 7249 0e3b d62b 1ab2
00000250: 46bf 6d33 49ed ab38 8edf a4bb 052b 8b3c
00000260: 0612 ffba 3a40 fdbc 4888 9ab7 e0a2 dabc
00000270: 17ae bb3a 4b53 973a d31b e83c 1853 e1b5
00000280: 74de 4dbe 64d6 92bb 664f 9c32 89cc c5b9
00000290: eddc 5abd c4df 903c 4821 cdbb 7ed7 1739
000002a0: 9762 3bbc cd31 24bc 13ee 6cb8 3767 bf35
000002b0: b8bc 8639 3fd1 83bb 8519 8b3c 4541 2bbc
000002c0: aaa3 b1ad 0b11 c4bc 177f 033a 9c9d 18b5
000002d0: cc44 13ba d810 a3ba e4d7 84b9 b47b 3abb
000002e0: 1073 08bc 8be9 5cbc cfd1 d23b 5544 a8ba
000002f0: 1ecf d9bd 3104 38be 1aa3 4e3d e1c1 3e3c
00000300: d7e6 8fbb 0712 ecb9 6619 5dbc 6a2e 9ea6
00000310: 48f1 a7bb 98ae 51bb 5b3e b1ba db2a 46aa
00000320: ace2 1eb7 c1d6 93bc 73b8 4709 6aa0 bcbb
00000330: a2b6 c6bb e537 6c3d 1705 20b9 9179 2bb9
00000340: a434 a8bc 8c49 a4b9 87ba 3cbb 639e 8aa7
00000350: a7ad ca2c 1ca5 56b6 b63d e8bc cbbb 52bc
00000360: 929f 80ba 80dc 75bc 64b0 deb4 c69e 40bc
00000370: 4265 1dbc 5fbe 11bc 25f9 e039 87e4 d4aa
00000380: 69d1 733d 9947 e6ba 7984 10a9 0e07 a336
00000390: f85f 14bd 6396 e0bb 6d18 f6b8 3f93 71b7
000003a0: 3f49 02bc 428d acbb ada9 97b4 f536 942f
000003b0: 72d5 4bb6 5151 8aba 5f43 303e 83ad cabb
000003c0: 0b81 979e 9083 d5bb 6680 1db8 cbf5 66ae
000003d0: a236 423a b097 ebba 47af 3a38 f6f5 71bb
000003e0: 61ab d3ba da13 07bc 0639 80bb 9d3f 73bb
000003f0: 51dc 3d3e 09f9 30bc 2e41 36bc f8e4 86bb
-0.0032575084 -0.0004328069 -0.011389543 -1.52832e-17 -0.005531321 -0.0006112033 -0.0015582716 -2.1552743e-24
-9.631134e-06 -0.020192858 -4.5316288e-38 -0.009773773 -0.003224854 0.030193241 -1.752204e-05 -0.00016735149
-0.01753907 -1.231222e-07 -0.002714227 -2.8713456e-15 -2.4433334e-11 2.801748e-07 -0.024769332 -0.010825624
-0.00095612434 -0.014042086 -2.7589365e-07 -0.007539786 -0.0050405893 -0.004173467 -0.00053744984 5.1511473e-12
0.023542533 -0.0014509998 -4.9223365e-14 -1.5500918e-07 -0.028446838 -0.008505943 -0.0003302443 -1.2468405e-05
-0.008389499 -0.004474785 -6.605856e-08 2.7235922e-10 -6.164322e-06 -0.00019693398 0.112998515 -0.0030159315
-2.1098637e-20 -0.009310806 -3.6287267e-05 -7.833262e-11 -0.0015719346 -0.0016485729 4.8385897e-05 -0.0052094064
-8.932636e-05 -0.0076395078 -0.008710994 -0.00018599321 0.0976656 0.0010347164 -0.0134481285 -0.0018183712
-0.00017839191 -0.0004237992 -0.00073630287 -1.1442271e-15 -0.010169197 -0.00901957 -0.001597649 -1.1807631e-24
-1.9410216e-05 -0.030137721 -4.6721564e-38 -0.009153313 -0.010164802 0.16424346 -3.0872623e-05 -0.000111588546
0.019458575 -1.5384198e-07 -0.00045320153 -6.0420368e-15 -6.191339e-12 -2.4625794e-07 -0.024808874 -0.007770363
-0.0010646366 -0.017237544 -3.3139784e-07 -0.005235381 -0.00071119564 -0.012282517 0.020503145 -8.8986596e-08
0.2230541 -0.0013657553 -8.8462556e-14 0.00014565438 -0.06599907 -0.0068228813 -0.00068565994 -2.0603322e-05
-0.009575817 -0.0017915051 -8.829785e-08 -1.8449319e-09 -4.297458e-06 -0.00029456185 0.30797902 -0.004061005
-5.0429512e-20 0.00073549827 -0.00020395273 -5.1504183e-11 -0.0006280329 -0.0015812076 -4.604262e-05 -0.0031671594
-0.001315028 -0.0077033597 -0.0056607104 0.018655917 0.29769358 -0.019000033 -0.018538903 -0.003550495
-0.006810487 -0.00020900284 -0.011154491 -3.329011e-09 -0.002637802 -0.0052023097 0.00659091 1.6474342e-13
0.0008608297 0.041794494 -3.6766792e-20 0.029584153 0.00934789 -0.103793815 -0.0019389425 -0.00049258367
-0.0065358533 1.0019995e-05 0.0021711257 -8.973947e-09 5.5354825e-08 8.198113e-05 -0.0050315326 0.016988287
-0.0019460327 -0.030914415 -1.8421691e-05 -0.026688993 0.0014318851 0.0011545209 0.02833358 -1.678799e-06
-0.2010439 -0.0044811238 1.8196896e-08 -0.0003772716 -0.053433347 0.017684825 -0.006260071 0.0001448076
-0.01143708 -0.010021639 -5.648851e-05 1.4260648e-06 0.00025699078 -0.004022747 0.016979942 -0.010452573
-2.0195252e-11 -0.023933908 0.0005016191 -5.6853764e-07 -0.00056178565 -0.0012440933 -0.00025337853 -0.002845508
-0.008328214 -0.013483415 0.0064337025 -0.0012837747 -0.106352076 -0.17970349 0.050448515 0.011642904
-0.004391532 -0.0004502686 -0.013494825 -1.0976033e-15 -0.0051251985 -0.0031994935 -0.0013522612 -1.7600801e-13
-9.47031e-06 -0.018046739 2.4040481e-33 -0.0057564275 -0.006064252 0.057670493 -0.00015260685 -0.00016353118
-0.020532914 -0.00031335314 -0.0028797702 -3.8474418e-15 5.7604646e-12 -3.1984591e-06 -0.028349739 -0.012862156
-0.0009813181 -0.015006185 -4.1479063e-07 -0.011756605 -0.009606661 -0.008895486 0.00042910237 -3.7817338e-13
0.05952588 -0.0017568945 -3.2089325e-14 4.8586e-06 -0.036224335 -0.006853865 -0.00011734744 -1.4399003e-05
-0.007952034 -0.0052658627 -2.8249397e-07 2.6960092e-10 -3.0373599e-06 -0.0010552799 0.172132 -0.006185235
-1.6041118e-20 -0.0065159276 -3.7551297e-05 -5.2514253e-11 0.00074086536 -0.0017974284 4.4509095e-05 -0.0036920286
-0.0016149097 -0.008244479 -0.0039130477 -0.0037116774 0.18541075 -0.010801562 -0.0111239385 -0.0041166507

lstm.bias_hh_l0 f4 [256]
00000000: fe7c 55bb 52ea e2b9 399b 3abc 6426 8da3
00000010: 1140 b5bb b438 20ba 2b3f ccba 5cbe 2698
00000020: 6595 21b7 696b a5bc 2bb8 7681 0923 20bc
00000030: 2658 53bb ca57 f73c c2fc 92b7 217b 2fb9
00000040: 19ae 8fbc 9333 04b4 1be1 31bb 05e7 4ea7
00000050: faea d6ad d66b 9634 26e9 cabc eb5d 31bc
00000060: 6ba4 7aba e310 66bc b81e 94b4 7010 f7bb
00000070: 702b a5bb 92c1 88bb a7e3 0cba 9d3d b52c
00000080: 44dc c03c 792f beba d2ae 5da9 c46f 26b4
00000090: 320a e9bc 835c 0bbc 9824 adb9 672f 51b7
000000a0: 2374 09bc e4a0 92bb 14dc 8db3 27bb 952f
000000b0: 50d7 ceb6 1080 4eb9 c36b e73d 16a8 45bb
000000c0: 7445 c79e 558c 18bc 2133 18b8 5841 acae
000000d0: a60a ceba e314 d8ba f6f1 4a38 a4a7 aabb
000000e0: fe4b bbb8 d054 fabb 8fb8 0ebc 2c07 43b9
000000f0: e004 c83d 529f 873a 8f55 5cbc 9456 eeba
00000100: 1e22 3bb9 6031 deb9 b501 41ba 81e6 a4a6
00000110: 7c9b 26bc d2c6 13bc 3768 d1ba bdb6 b697
00000120: 37d3 a2b7 d4e2 f6bc 4657 7e81 e7f7 15bc
00000130: e685 26bc 702f 283e 377d 01b8 b002 eab8
00000140: 5767 9f3c c32f 25b4 1d00 eeb9 f6af d9a7
00000150: e9d6 d9ac ba33 84b4 fb3b cbbc a09e febb
00000160: 358b 8bba 4a35 8dbc fbea b1b4 528f abbb
00000170: 9170 3aba d53c 49bc 36f6 a73c 8619 bfb3
00000180: 4968 643e 0103 b3ba 3133 c7a9 cdba 1839
00000190: 903d 87bd 7a92 dfbb dabd 33ba cfd4 acb7
000001a0: e1e3 1cbc 6ad8 eaba 429e bdb3 c590 fdb0
000001b0: e032 90b6 6c6f 9ab9 6daf 9d3e 2712 85bb
000001c0: 031f 6e9f b595 403a 12d3 55b9 8e84 62ae
000001d0: dda3 24ba 7e40 cfba e31d 41b8 2490 4fbb
000001e0: 0e5d acba 5c6c fcbb 377d b9bb 4bd4 983c
000001f0: 4b6b 983e f1a5 9bbc b1df 97bc 32af 68bb
00000200: 8b2a dfbb de27 5bb9 54c1 36bc 95c4 64b1
00000210: 0ddf 2cbb 2378 aabb 9ef8 d73b 0f7c 392a
00000220: 37a9 613a f930 2b3d 95a0 2d9f dc5a f23c
00000230: e427 193c da91 d4bd 0524 feba c420 01ba
00000240: b72a d6bb 8d1b 2837 8249 0e3b d62b 1ab2
00000250: 15bc 6d33 3eed ab38 5cdf a4bb 082b 8b3c
00000260: 1112 ffba 1640 fdbc 5c88 9ab7 eca2 dabc
00000270: 70ae bb3a 4d53 973a d31b e83c f850 e1b5
00000280: 74de 4dbe 27d7 92bb 6e4f 9c32 e9cc c5b9
00000290: 81dc 5abd c1df 903c 4b21 cdbb 76d7 1739
000002a0: 3a63 3bbc e231 24bc 67ec 6cb8 2067 bf35
000002b0: b2bc 8639 46d1 83bb 8b19 8b3c 3a41 2bbc
000002c0: aaa3 b1ad d610 c4bc 177f 033a 9b9d 18b5
000002d0: ed45 13ba aa10 a3ba ddd7 84b9 ba7b 3abb
000002e0: e872 08bc 79e7 5cbc cdd1 d23b 5544 a8ba
000002f0: 1ecf d9bd 1205 38be 2ba3 4e3d dec1 3e3c
00000300: 26e6 8fbb 0612 ecb9 6619 5dbc 622e 9ea6
00000310: 4cf1 a7bb 98ae 51bb 7d3e b1ba 272c 46aa
00000320: ace2 1eb7 c3d6 93bc 30b5 4709 a49f bcbb
00000330: a2b6 c6bb e437 6c3d 1705 20b9 ad79 2bb9
00000340: a534 a8bc 9b49 a4b9 7dba 3cbb 6c9e 8aa7
00000350: 73ae ca2c 7aa4 56b6 b53d e8bc cdbb 52bc
00000360: 919f 80ba e0dc 75bc 64b0 deb4 c49e 40bc
00000370: 4265 1dbc 7fbe 11bc 04f9 e039 d2b4 d4aa
00000380: 6ad1 733d 8f47 e6ba 8c84 10a9 0b07 a336
00000390: ae5f 14bd 6296 e0bb 4318 f6b8 4293 71b7
000003a0: 4549 02bc 3e8d acbb 30aa 97b4 f636 942f
000003b0: 96d5 4bb6 5251 8aba 5e43 303e 9fae cabb
000003c0: 3f81 979e 3387 d5bb d880 1db8 cef5 66ae
000003d0: d42a 423a b297 ebba 4aaf 3a38 0df6 71bb
000003e0: 61ab d3ba f313 07bc 0c39 80bb 9d3f 73bb
000003f0: 51dc 3d3e 09f9 30bc 2e41 36bc ffe4 86bb
-0.0032575722 -0.0004328066 -0.011389547 -1.530351e-17 -0.005531319 -0.0006111965 -0.001558279 -2.1551104e-24
-9.631131e-06 -0.020192819 -4.5315198e-38 -0.009773978 -0.0032248585 0.030193228 -1.7522256e-05 -0.0001673517
-0.01753907 -1.231222e-07 -0.002714223 -2.8713479e-15 -2.4433334e-11 2.8018138e-07 -0.024769377 -0.010825614
-0.00095612434 -0.014042112 -2.75895e-07 -0.0075398013 -0.0050405785 -0.004173466 -0.0005374499 5.15117e-12
0.02354253 -0.0014509998 -4.922349e-14 -1.5500615e-07 -0.028447244 -0.008505943 -0.00033024396 -1.24684075e-05
-0.008389506 -0.004474746 -6.605856e-08 2.7235922e-10 -6.164344e-06 -0.00019693398 0.11299851 -0.0030160001
-2.109867e-20 -0.0093108015 -3.628724e-05 -7.833262e-11 -0.0015719726 -0.0016485717 4.8385897e-05 -0.0052079726
-8.9310095e-05 -0.007639505 -0.008710994 -0.00018599321 0.09766555 0.0010347164 -0.013448133 -0.0018183761
-0.0001784642 -0.00042379927 -0.000736262 -1.1442264e-15 -0.010168906 -0.00901957 -0.0015976493 -1.1807604e-24
-1.941026e-05 -0.030137457 -4.6715048e-38 -0.009153343 -0.01016376 0.16424346 -3.0872612e-05 -0.0001115849
0.019458456 -1.5384198e-07 -0.00045394982 -6.0420376e-15 -6.1913708e-12 -2.4624552e-07 -0.024808874 -0.0077703744
-0.0010646345 -0.017237324 -3.313979e-07 -0.005235591 -0.00071121106 -0.01228257 0.020503145 -8.898773e-08
0.22305407 -0.0013657511 -8.8462556e-14 0.00014565438 -0.06603539 -0.0068228813 -0.0006856598 -2.0603095e-05
-0.009575815 -0.001791728 -8.829785e-08 -1.8449319e-09 -4.297457e-06 -0.00029456185 0.30797902 -0.004061002
-5.0424113e-20 0.0007346527 -0.00020391893 -5.1504183e-11 -0.0006280521 -0.0015812067 -4.604262e-05 -0.0031671608
-0.0013150291 -0.007703347 -0.0056606787 0.018655917 0.29769358 -0.019000025 -0.018539282 -0.0035504815
-0.0068104914 -0.00020900319 -0.011154491 -3.329011e-09 -0.0026378066 -0.0052023097 0.006590917 1.6474342e-13
0.0008608284 0.04179475 -3.6767005e-20 0.02958434 0.00934789 -0.103793815 -0.0019389397 -0.0004925842
-0.0065358537 1.0019995e-05 0.0021711295 -8.973947e-09 5.5351922e-08 8.198105e-05 -0.0050315093 0.016988292
-0.001946034 -0.030914348 -1.8421728e-05 -0.026689015 0.0014318954 0.0011545211 0.02833358 -1.6787371e-06
-0.2010439 -0.0044812146 1.819691e-08 -0.00037727438 -0.053432945 0.01768482 -0.0062600723 0.00014480748
-0.011437232 -0.010021659 -5.648695e-05 1.4260622e-06 0.0002569906 -0.00402275 0.016979953 -0.010452563
-2.0195252e-11 -0.02393381 0.0005016191 -5.685376e-07 -0.0005618025 -0.0012440879 -0.00025337833 -0.0028455094
-0.008328177 -0.013482922 0.0064337016 -0.0012837747 -0.106352076 -0.17970684 0.050448578 0.011642901
-0.0043914495 -0.00045026856 -0.013494825 -1.0976024e-15 -0.0051252004 -0.0031994935 -0.0013522651 -1.7601251e-13
-9.47031e-06 -0.018046742 2.4038948e-33 -0.0057563353 -0.006064252 0.05767049 -0.00015260685 -0.00016353159
-0.020532915 -0.00031335358 -0.002879768 -3.8474456e-15 5.760553e-12 -3.1984223e-06 -0.028349737 -0.012862158
-0.000981318 -0.015006274 -4.1479063e-07 -0.011756603 -0.009606661 -0.008895515 0.0004291014 -3.7784234e-13
0.059525885 -0.0017568934 -3.208939e-14 4.8585985e-06 -0.03622406 -0.0068538645 -0.00011734713 -1.43990055e-05
-0.007952039 -0.005265861 -2.824977e-07 2.6960095e-10 -3.037368e-06 -0.00105528 0.17213199 -0.0061853672
-1.6041202e-20 -0.006516361 -3.7551712e-05 -5.2514264e-11 0.00074068946 -0.0017974286 4.4509106e-05 -0.003692034
-0.0016149097 -0.008244502 -0.0039130505 -0.0037116774 0.18541075 -0.010801562 -0.0111239385 -0.004116654

fc.weight f4 [50, 64]
00000000: f345 55bb 1da0 87ba d945 95bc 9eb9 2831
00000010: 5080 a3b9 3649 bbba 87d7 0c3a cbce cb29
00000020: 0014 e039 62f8 e5bc c82c 6f9e 7c0b 85bc
00000030: e1f6 68bb 498e 9a3d b496 f2b9 5d5c 4939
00000040: 262a 11bd 4a20 85b7 a5e2 4e3b e025 5331
00000050: c18d 0235 6397 11b8 01f8 d63c 3498 0dbc
00000060: c338 8abb 6fef b23c defd 9db7 ed2b fe3b
00000070: 10d2 da3b 4804 073c 27b9 c43c 8786 cab5
00000080: 0817 c0bd a822 1e3b 604d 9332 d8be 1939
00000090: b3cb e03c 6027 36bc 97e3 bf3a f931 1db9
000000a0: 9a13 523c d876 b93b bd8b b1b8 19c0 7c34
000000b0: ed7c 2d39 0063 12ba f4b1 963d e578 91bb
000000c0: a3d7 4f2d 91a2 a53a b0c6 7038 269f 0035
000000d0: 56ca 83bb 6816 ec3b f910 23ba a4ec 053c
000000e0: 60ea 9a3b 99a4 5a3c 0f3a d33a 77fb 1ebc
000000f0: 8aed c3bd af02 f73a fe54 9dbc 1152 72bc
00000100: 50ef 4eb9 fe6d 65bb 6914 f63b d651 fa30
00000110: c503 62bc 18c3 733c dbf8 cb3b 65e4 6329
00000120: bc1d 12ba c7ec aa3b 7b00 f09e d7fc dd3c
00000130: f07f 453b 63f2 a33d 1b9c 3e3a 35cd 0c3b
00000140: ed0d 223c 1451 d0b7 8339 ea3b 3572 9cb2
00000150: 4b62 c6b4 ce89 62b7 3cea 4cbd 55fb a93c
00000160: 5832 3cbb fb21 5abc d3b7 9fb8 9717 bf3a
00000170: 64c6 0e3c 9194 96bc 0994 873c a0e6 8d36
00000180: 3a98 07bd 06e8 d63a 1f14 d1b3 bc74 00ba
00000190: 40fa bbbc a794 4a3b ca4e e93b 8826 ae39
000001a0: 61e2 173c 0913 71bc a57d 4138 3a47 fdb6
000001b0: f807 51b9 e29a fa3a 0de0 893d 046c 943b
000001c0: 277a 66ae 1ffb 1e3c 9857 9639 14d6 07b6
000001d0: e49e 86bb 1993 0bbb 5e84 58bb a734 7ebc
000001e0: 6983 38bb 5401 8ebb 414a 803c 36bc 14bb
000001f0: 2f62 b2bd f6ef db3c db35 073d a586 d33b
00000200: 3813 a93c 0721 27bb d58d 073d 8224 e8b1
00000210: a458 99bc 5606 00bc 5c12 a83c b587 0a2b
00000220: 67c5 b5b9 3140 1e3c 5792 859f a0dc 663c
00000230: f3a2 f73b db6d acbd 1394 263a 4d09 373b
00000240: 3a23 5a3d 6809 fbb7 257c 973b 8542 cdb2
00000250: de53 2135 0710 a139 f137 2cbd 4822 b53b
00000260: 79ed 32bc a1fb f5bc f2a5 17b9 bf3a 003d
00000270: eb5f 33bb 016f ab3b 4de4 09bd 0863 0135
00000280: c5b3 f93c b54c 813b 179e 96b3 8463 ab3a
00000290: feaf 36bd 22d9 8d3b a125 6dba fa06 d338
000002a0: e56b 71bc b00d 16bc c86b 8937 cb23 83b3
000002b0: 6145 57b8 35c4 b53a 8ff7 9fbd 67e6 2c3d
000002c0: 210e 1bae 3d7d f03c 84dd a739 f130 84b6
000002d0: 2b2b 30bb 0fa8 a93b d64f 063b d546 07bd
000002e0: 802e 313b 1d41 1fbb 91bc 14bc ecae 8d3c
000002f0: 1c0b cb3d a93e 66bb 880b 2c3d a6f7 1cbc
00000300: dad1 963b 66bb e43a b6b2 9ebc aebd 5aae
00000310: 81f8 b43b 7158 95bc 116c c3bb 5e69 3caa
00000320: d226 303a b0b6 9dbb 3c31 541f 92cf 0dbc
00000330: 4ae9 3cbc ffdc 7d3c 395f 92ba fe39 b0b9
00000340: fdf0 8fbc 247c 8fb7 a5fc eebb e546 3532
00000350: 8fcc 1fb5 2438 f237 9736 c93c 3ad1 41bc
00000360: 97a4 de3b b093 9eb9 e7d8 d438 3c79 f63b
00000370: a4e2 2abc 8a24 d73c 7b62 d4bb c377 c535
00000380: ead2 3f3d e3ab 69bb 1e05 4c33 86c3 e339
00000390: b695 f2bc 9fc4 95bb a7ad 4fbc 2b97 bdb9
000003a0: df4d ba3a 0745 263c ab47 c8b6 5864 78b5
000003b0: 4d3b 7f39 b33f 2ebb 6e12 50bd b415 4b3b
000003c0: 666a 562e 9158 d836 474b 04ba 7b4f 8e35
000003d0: edaa ed3a 9450 65ba 3e2b df3a 0c25 683b
000003e0: 880b eaba a2d7 a73b 9ac9 60bc 9c4d c0bc
000003f0: b328 093d 4ffa 14bd fbf0 14bc 5765 7c3b
-0.0032542914 -0.00103474 -0.018221783 2.4552729e-09 -0.00031185383 -0.0014288786 0.0005372692 9.050884e-14
0.0004273951 -0.02807254 -1.2661815e-20 -0.016240828 -0.0035547542 0.0754667 -0.0004627012 0.00019203262
-0.035440587 -1.5869871e-05 0.0031568196 3.072607e-09 4.8635053e-07 -3.4711684e-05 0.026241304 -0.008642245
-0.0042181923 0.021842686 -1.8834075e-05 0.007756701 0.0066778734 0.008240767 0.024014069 -1.5089325e-06
-0.09379393 0.0024129543 1.7148238e-08 0.00014662312 0.027440881 -0.011117786 0.0014639971 -0.00014991303
0.012822056 0.005659919 -8.466046e-05 2.3539214e-07 0.00016545104 -0.000558421 0.073581606 -0.0044394606
1.1814469e-11 0.001263695 5.74055e-05 4.791531e-07 -0.004021923 0.0072048195 -0.00062204857 0.008174095
0.0047276467 0.013344907 0.0016115325 -0.009703509 -0.09566791 0.0018845404 -0.019205566 -0.014790074
-0.00019734842 -0.0035008187 0.0075097573 1.8213153e-09 -0.013794844 0.014878057 0.0062247342 5.0602226e-14
-0.0005573889 0.0052162143 -2.5411187e-20 0.027098102 0.003013607 0.08005216 0.00072711863 0.0021484618
0.0098910155 -2.4833287e-05 0.007147969 -1.8212726e-08 -3.6951892e-07 -1.3502735e-05 -0.05002807 0.020749727
-0.002871653 -0.013313766 -7.615951e-05 0.0014579174 0.008714292 -0.018381389 0.01655008 4.2289757e-06
-0.03310416 0.0016396053 -9.735981e-08 -0.0004900207 -0.022946477 0.0030911358 0.007119988 0.00033216574
0.0092702815 -0.014714011 4.61318e-05 -7.5482794e-06 -0.00019934762 0.0019119645 0.067321874 0.004529478
-5.240444e-11 0.009703427 0.00028675492 -2.0241177e-06 -0.0041082967 -0.0021297394 -0.0033037881 -0.015515483
-0.0028154498 -0.0043336544 0.015660407 -0.002269519 -0.08710133 0.02684782 0.033010345 0.00645526
0.020639047 -0.0025501864 0.033094246 -6.756239e-09 -0.018719025 -0.007814011 0.020516567 4.921578e-13
-0.00034670086 0.009658859 -5.656979e-20 0.014090687 0.007557267 -0.08419391 0.0006354462 0.0027929128
0.05325625 -2.9925912e-05 0.0046229535 -2.389539e-08 6.0099217e-07 0.00030720254 -0.042045537 0.0055277683
-0.010920876 -0.030027213 -0.00014462302 0.031306025 -0.0027370404 0.0052317386 -0.03366499 4.8200354e-07
0.030481229 0.003945912 -7.013676e-08 0.0013075923 -0.044601433 0.0043288628 -0.00090464397 0.000100625635
-0.014735197 -0.009158537 1.6381862e-05 -6.1066736e-08 -5.132461e-05 0.0013867678 -0.0781089 0.042211916
-3.525547e-11 0.029356593 0.00032017764 -3.939604e-06 -0.00268812 0.005177505 0.0020494363 -0.033026535
0.0027035773 -0.0024300285 -0.009078161 0.017295323 0.09914228 -0.0035132563 0.042003185 -0.009580528
0.004602653 0.0017450869 -0.019372325 -4.973593e-11 0.005522788 -0.018230649 -0.0059638103 -1.6734311e-13
0.0006719652 -0.004813038 4.4933472e-20 -0.008655446 -0.01153023 0.015494584 -0.0011167295 -0.00033612543
-0.017570967 -1.7104736e-05 -0.007293301 1.0551706e-08 -5.952979e-07 2.887479e-05 0.024562163 -0.011829669
0.006794523 -0.00030246144 0.00010149349 0.0075217765 -0.010430012 0.02626254 -0.0064814663 1.4712499e-06
0.046832003 -0.003565543 4.7502105e-08 0.0004344249 -0.029612403 -0.004570558 -0.012675679 -0.00036161518
0.0014213881 0.010148293 -5.9688077e-06 -9.253322e-07 0.00024340786 -0.002658826 -0.050798826 0.0030988278
4.8752467e-11 6.447612e-06 -0.00050466176 1.0602956e-06 0.0018132605 -0.0008747664 0.0017026437 0.0035422472
-0.001785622 0.005122141 -0.013719941 -0.023474507 0.03348608 -0.036371525 -0.009090657 0.0038512552

fc.bias f4 [50]
00000000: ab7a 2ebb f848 2f3d 9a51 e6bc ea91 f03c
00000010: 251c 6ebd 65b1 863c cb79 433c 52b3 2c3c
00000020: f65e 92bc 03cd 5cbd 9a86 06bd 2cd3 08bd
00000030: b825 ca3b 3815 26bc 8a2b 263c 7ce9 293d
00000040: 555d 3e3d ac6f c43c 9cf2 0a3d 4ab0 733d
00000050: fba3 9fbd 3bde 7f3b 8957 3ebd 6b56 b0bc
00000060: fa5d a5bb 6d1e 863c f5d7 b0bb 6c1b 67bd
00000070: 985e d63a 76bb a8ba 0532 ca3c 0672 7e3d
00000080: 8782 e2bc f112 b1bd f894 87bd 8702 093d
00000090: a1ad e1bb 86ae cc3b a5fe 5abc 1ef8 ff3c
000000a0: fa82 efbb b87e 3ebd bc40 09bc 9ccc f4bc
000000b0: a26a b23c 523e 0cbd e340 87bd aa37 6abd
000000c0: 702c 573c 66d7 273d
-0.0026623409 0.042794198 -0.028115083 0.029366452 -0.05813231 0.01644201 0.011930893 0.0105408
-0.017867547 -0.053906452 -0.03284321 -0.033404514 0.006169047 -0.010136895 0.010142216 0.041482434
0.046475727 0.02397903 0.033922777 0.059494294 -0.07794949 0.0039042372 -0.0464702 -0.021525582
-0.0050466033 0.01637193 -0.005396838 -0.056422636 0.0016355095 -0.001287325 0.024682054 0.06212046
-0.02765013 -0.08646191 -0.066202104 0.033449676 -0.0068871533 0.0062463908 -0.013366376 0.031246241
-0.007309315 -0.046507567 -0.00837725 -0.029882722 0.021779362 -0.03423912 -0.06604173 -0.05718199
0.013133153 0.040976904

decoder.0.weight f4 [64, 50]
00000000: 6f8b 0080 2d89 0080 c98a 0000 d188 0080
00000010: 3b89 0080 8d8a 0000 3689 0000 058a 0000
00000020: af8a 0000 9b89 0000 d08a 0000 158a 0080
00000030: 8789 0000 f588 0080 418a 0000 fc8b 0080
00000040: 398a 0080 4a8a 0000 558b 0000 8c8a 0080
00000050: 438c 0000 0c8a 0080 b78b 0000 3a89 0000
00000060: a18a 0000 338a 0000 e189 0000 9189 0080
00000070: b489 0000 0f89 0000 cc89 0000 9289 0000
00000080: 8e8a 0080 3189 0080 b689 0000 d88a 0000
00000090: 5a8a 0000 f389 0080 6c89 0080 4e8a 0080
000000a0: 028b 0000 0389 0080 188b 0080 9a8b 0000
000000b0: 0a8a 0080 3a9f 0000 208a 0080 018a 0000
000000c0: e888 0080 a68a 0000 480b 172a 269f eaa9
000000d0: 4cbb a02a 0610 9da8 cb3f 022b f336 06ab
000000e0: 72d3 bc2b 9a7e 1729 38a3 c4aa fb47 892a
000000f0: e160 b3aa f24f 12ab 5fcd 41ab 6e71 ada8
00000100: e272 5caa 49b1 dc2a 69b0 e7aa 22c8 b12a
00000110: 404b 562a 97ab 48ab c1fe c3aa bbbc 99aa
00000120: ab4b 22ab 6a84 d9aa 5283 fbaa cdb9 4aa9
00000130: 310d 3bab 0fe5 912a 85e6 872a 108f f82a
00000140: 772f b32a 13a7 952a f2a9 efa9 7c64 47ab
00000150: 6eb5 58a8 9b9f 382a c469 a72a 0d19 972a
00000160: e03b 17ab 3f30 17ab 824a bfab 1f79 36a8
00000170: 5102 7baa 4f36 b9aa 31a1 15aa 6e40 14ab
00000180: e54a b128 a7e6 fcaa a067 29aa 386d f42a
00000190: bb10 c6b8 b8be 0eb7 8f7f 4138 63f9 2b38
000001a0: d08a 9137 1b07 9db7 8d67 1eb9 01e3 1337
000001b0: abb9 34b9 32a2 d337 a144 b138 d19a 65b9
000001c0: ed55 7837 3f0e 4d38 0bb0 36b8 19d5 abb8
000001d0: 9d70 80b8 4ce1 c137 5c1a 07b6 8de1 8638
000001e0: 00c3 0d38 7827 0739 d816 a037 1fa1 8831
000001f0: f224 aa38 f056 88b8 cd33 7f38 2ce8 bcb7
00000200: e942 fbb8 2b91 1d38 29b2 98b9 bd40 b238
00000210: 1fef f637 8566 bab8 057a 8638 3931 a6b8
00000220: 24e4 7537 2db5 afb7 73f8 28b8 a869 1fb7
00000230: b32e 71b9 a37e 22b7 c118 3fb8 e363 62b6
00000240: 9f57 5038 e500 4a39 19d2 9536 b6c1 a837
00000250: b443 0439 5fa4 c538 22b9 3e3d 89b2 b2bc
00000260: eacd 2a3d 9a7e 5c3d afa6 4fbc e86b 89bd
00000270: fd4d a43d e33e a3bd 1b0e a63d 6985 093d
00000280: fd04 e43c 80d0 8f3d f097 a73d a420 2a3d
00000290: 2a94 ce3a 2b57 2e3c 9112 7e3d 9d44 38bd
000002a0: dc8b 72bd 70a2 823d 4856 9d3d eab6 25bb
000002b0: 781e b63d 5eca 2e3d 92ee 55bd c5d6 68bd
000002c0: ae98 873d 01b3 c5bc b429 ccbc 40d2 85bb
000002d0: 26bc a1bd 31e7 483d de89 833d 694e 7dbd
000002e0: b3d4 c53d 7ab4 b23d 5b77 883d f043 7e3d
000002f0: 2189 93bd ccb2 82bc a8ab 88bd 53a7 823d
00000300: 4cec 04bc 5e7b 743d 3f07 56bd 5b42 713d
00000310: aafd 6c3d 2882 9c3d 12f5 46bd a772 60bd
00000320: 08ae 8e3d d79b ab3c 316e 6bbc 1b07 1fbd
00000330: f5a9 4fbd 5f5c 8ebd 1d0e 933d ca76 9c3b
00000340: 815d 12bd 5e96 65bc 041e 073b fa58 fa3d
00000350: 2225 da3c ad82 903d 1ad4 233d 8a9f 32bd
00000360: 936b 29bd 2668 2dbd 5cb5 8a3d 012c 2fbd
00000370: 37de 3fbb 0713 03bc f23d 77bc 1c81 683d
00000380: e9f7 59bd 4174 143d cd98 6bbd 1187 b43d
00000390: 3ce2 d73c 9511 8e3c afbc f4bc 9302 0dbd
000003a0: e07c a73b 7fee 7ebd 45a6 0fbd b913 493d
000003b0: d289 87bc ecec d83d 3906 82bd b735 3c3d
000003c0: a5d1 0abd a29a 10bc f7fe 483d b101 b13b
000003d0: 600e 9a3d 6fdc 32bd 5a87 8c3c 881a f4bc
000003e0: c1b7 81bd 8a4c 583c 34ee a4a8 c729 c4a7
000003f0: 3d21 2928 a08f 7426 35b9 82a7 058e 4aa8
-5.002e-41 -4.921e-41 4.9787e-41 -4.908e-41 -4.9229e-41 4.9703e-41 4.9222e-41 4.9512e-41
4.975e-41 4.9364e-41 4.9797e-41 -4.9534e-41 4.9336e-41 -4.9131e-41 4.9596e-41 -5.0217e-41
-4.9585e-41 4.9609e-41 4.9983e-41 -4.9701e-41 5.0316e-41 -4.9522e-41 5.012e-41 4.9228e-41
4.973e-41 4.9577e-41 4.9462e-41 -4.935e-41 4.9399e-41 4.9167e-41 4.9432e-41 4.9351e-41
-4.9704e-41 -4.9215e-41 4.9401e-41 4.9808e-41 4.9631e-41 -4.9487e-41 -4.9298e-41 -4.9614e-41
4.9867e-41 -4.915e-41 -4.9897e-41 5.008e-41 -4.9519e-41 5.712e-41 -4.955e-41 4.9506e-41
-4.9113e-41 4.9738e-41 1.3415408e-13 -1.04192954e-13 2.8551673e-13 -1.743745e-14 4.627381e-13 -4.768262e-13
1.3416891e-12 3.3638545e-14 -3.492985e-13 2.4386035e-13 -3.186401e-13 -5.1980566e-13 -6.8852384e-13 -1.925605e-14
-1.9579783e-13 3.9202867e-13 -4.1156252e-13 3.1580386e-13 1.9033126e-13 -7.12924e-13 -3.481573e-13 -2.7309218e-13
-5.765897e-13 -3.8638824e-13 -4.4677678e-13 -4.5014167e-14 -6.645405e-13 2.5916115e-13 2.4140772e-13 4.415292e-13
3.1829723e-13 2.6583648e-13 -1.0643213e-13 -7.083845e-13 -1.202975e-14 1.6397857e-13 2.973855e-13 2.684037e-13
-5.372907e-13 -5.371293e-13 -1.3592046e-12 -1.01292935e-14 -2.2294082e-13 -3.2900286e-13 -1.3289783e-13 -5.2669577e-13
1.9683428e-14 -4.492424e-13 -1.5046167e-13 4.3418893e-13 -9.444492e-05 -8.508265e-06 4.6133584e-05 4.1001837e-05
1.7349987e-05 -1.8719167e-05 -0.0001510663 8.814736e-06 -0.00017235304 2.5228688e-05 8.452801e-05 -0.00021896815
1.4801958e-05 4.8889076e-05 -4.3556134e-05 -8.193608e-05 -6.1244915e-05 2.3112305e-05 -2.013191e-06 6.43163e-05
3.3798628e-05 0.00012889307 1.9084124e-05 3.9764383e-09 8.113113e-05 -6.501179e-05 6.084498e-05 -2.251946e-05
-0.00011981076 3.7566915e-05 -0.0002912444 8.49976e-05 2.9436835e-05 -8.888267e-05 6.412346e-05 -7.924665e-05
1.4656256e-05 -2.0945992e-05 -4.0285708e-05 -9.5017385e-06 -0.00023000948 -9.685437e-06 -4.5561002e-05 -3.3734766e-06
4.9672668e-05 0.00019264554 4.4650046e-06 2.0117364e-05 0.00012613722 9.4243085e-05 0.046563275 -0.021813648
0.04170028 0.053831674 -0.012674018 -0.067100346 0.080226876 -0.07970979 0.08108159 0.033574495
0.02783441 0.0702219 0.08183277 0.041535035 0.0015760709 0.0106409 0.062029425 -0.04498731
-0.05921541 0.06378639 0.076824725 -0.0025286027 0.0889253 0.04267346 -0.05222947 -0.056845445
0.06620918 -0.024133207 -0.02492223 -0.0040839016 -0.078972146 0.049048606 0.064227805 -0.061842356
0.0965971 0.087258294 0.0666339 0.06207651 -0.0720389 -0.015954398 -0.06673366 0.06379571
-0.008112978 0.059687965 -0.052253004 0.058901172 0.0578591 0.07642013 -0.04857356 -0.05479684
0.069667876 0.020948334 -0.014369533 -0.038825136 -0.050699193 -0.06951212 0.07180426 0.004774903
-0.035733704 -0.014012901 0.0020617256 0.12224002 0.026629034 0.070561744 0.039997198 -0.04360918
-0.041362356 -0.04233565 0.06772873 -0.042766575 -0.0029276737 -0.008000142 -0.0150904525 0.056763753
-0.05321494 0.03624368 -0.05751877 0.088148244 0.026352994 0.017342368 -0.029875128 -0.034426283
0.005111322 -0.062239166 -0.035070676 0.049091075 -0.01654521 0.10592064 -0.06348843 0.045949664
-0.03389134 -0.00882593 0.04907128 0.005401813 0.07522273 -0.043667253 0.017154384 -0.029797807
-0.063338764 0.013201842 -1.8310962e-14 -5.4446223e-15 9.388592e-15 8.4849154e-16 -3.628305e-15 -1.1244048e-14

decoder.0.bias f4 [64]
00000000: 8f08 44a2 55a1 90ac adff 7abc 9986 15be
00000010: 98c8 ab3b f966 1ba8 3365 1fa8 bec1 f697
00000020: 91cf d83c fcbe 12ae df28 e2a2 bd4f c9ba
00000030: 9e40 efaa 293e 3c3d af41 d2af 0c94 a0a2
00000040: 17f9 3b3d a7ab b4b7 4954 30b8 91bd 379a
00000050: 50c5 279e 0cfb 8ba4 0106 31ab 7b3c 97a3
00000060: 7ce5 8bac 3da1 d7a6 18a6 d73c 82d7 e6a3
00000070: 9da9 a7bb 7686 82ba f958 0f3c 5c35 e61f
00000080: a597 903c bb03 da9b b4b3 aebd 6543 18b9
00000090: 5db8 8e3d 1d53 45b9 acb7 39b7 bb5a 1bba
000000a0: bfb2 64b6 40f7 243d ff42 73b3 6444 a88e
000000b0: 8751 74a3 cbee 24a3 80c5 88a7 e57a 0a24
000000c0: 3ead 60aa d86d 56a1 4c58 43a5 9de4 12aa
000000d0: 20e2 4a95 ff99 50a2 3f86 e43c 0772 1aaf
000000e0: 2add 543d efe1 e816 d5b9 25bc ba98 dea2
000000f0: 9ac2 24ad 38c4 763c dace 69b8 9d95 aaad
-2.6567484e-18 -4.1106376e-12 -0.015319747 -0.14602126 0.0052424185 -8.626557e-15 -8.848217e-15 -1.5946285e-24
0.026466163 -3.3366185e-11 -6.1300697e-18 -0.0015358847 -4.2499766e-13 0.045957718 -3.8245448e-10 -4.3524838e-18
0.045891847 -2.1537604e-05 -4.2040167e-05 -3.7996644e-23 -8.88171e-21 -6.070693e-17 -6.2891364e-13 -1.6397067e-17
-3.9760955e-12 -1.4962326e-15 0.026324317 -2.5027921e-17 -0.005116655 -0.0009958285 0.00874924 9.7497065e-20
0.017650435 -3.6067485e-22 -0.085303694 -0.00014520956 0.06968758 -0.00018818346 -1.1069624e-05 -0.00059263007
-3.4078691e-06 0.04027486 -5.663878e-08 -4.1481055e-30 -1.3244531e-17 -8.941024e-18 -3.7961713e-15 3.0028076e-17
-1.9955302e-13 -7.2651397e-19 -1.694347e-16 -1.3046721e-13 -4.0971956e-26 -2.8270781e-18 0.027896045 -1.4046729e-10
0.05196873 3.7624206e-25 -0.010115107 -6.0334926e-18 -9.365531e-12 0.015061431 -5.5744174e-05 -1.9393204e-11

decoder.3.weight f4 [20, 64]
00000000: e388 0080 d8a1 3a2a e37f ac39 121b e2bd
00000010: 40b3 6b3d 114d 4c29 7fb6 8424 be6b 8595
00000020: 0a32 b53d 0d8a 0080 668a 0080 4624 a439
00000030: 51c8 f417 9df8 4cbd f976 632e ec88 0080
00000040: 8b1d e8bc 5169 038c fb31 e9b7 718a 0080
00000050: fc76 5b1f 1989 0000 56b7 b1a8 fb1f 09a0
00000060: 9d7c 052c 1e7a ce1c 4294 49bd f388 0080
00000070: e18e 473c 2648 ba39 131a 293d 6db4 561f
00000080: 5c25 acbc 466f 2899 179d 1f3a 95e8 8aad
00000090: 7059 943c ff56 28b0 218b 1b0e 4b12 cfb4
000000a0: af68 372c 0ca3 04bd f96e 82b1 1d12 af0b
000000b0: 558a 0000 cf88 0080 7efd 4d28 aa72 aa24
000000c0: ca8a 0080 f288 0080 228a 0000 b98a 0080
000000d0: 8cc9 9612 6889 0080 5dfa b2bd ecf4 8cad
000000e0: 220d 153b 1e23 cf17 97ab dcb3 e889 0000
000000f0: 6989 0000 a890 123d b3a8 d02c 9fdc 552c
00000100: fe88 0000 8a4a fd2a 98f8 2338 6f82 1fbe
00000110: 4c1b 183e a9ac f2a8 5ae8 95a6 1723 2d96
00000120: 2a50 713c 2389 0080 5289 0080 aa35 033a
00000130: 6032 9318 8794 1fbd 01cf 6e1a 618a 0000
00000140: 4902 4cbc 4134 0d8e cec6 8fb7 3d8a 0000
00000150: 0a02 5ea1 2f89 0000 c664 1628 e988 0000
00000160: ea40 a728 9dab 119d 4ca8 b0bd 688a 0000
00000170: acd0 81b2 a1fd e838 0f3f 15bd 230f a09f
00000180: 2c6e 2ebd 7466 f51a 5b55 d837 dbb7 e22f
00000190: 16f4 30bc d37b 702f 5104 7011 46bc 7d35
000001a0: 8f49 88ac d794 86bd 5d08 4eb1 3e33 1f8e
000001b0: 5b89 0080 e288 0000 e0ce 0126 249e 4324
000001c0: 578a 0080 cd88 0080 8f89 0000 5f8b 0000
000001d0: 0259 5d12 4d89 0000 2cf4 1fbd bb87 3bac
000001e0: 3c46 54bc fa8e 4f97 91dd 4134 fe89 0080
000001f0: fc89 0000 f871 3a3d bdbf 9d2b 597b d4aa
00000200: 428a 0080 4dc9 d92a fc33 44b8 9518 443e
00000210: 4dda 883c 2058 dca8 8faa 89a6 0270 3897
00000220: 0c2a 693c 3124 0f00 358a 0080 364a f4b7
00000230: 40be 4f99 7500 38bd 06b1 759b 7489 0000
00000240: 3c25 19bd a393 b48b d9ad 1f36 638a 0000
00000250: b308 a120 f588 0080 402c 8e28 138a 0080
00000260: 5220 062a a72d 781b a412 5ebd 3f89 0080
00000270: fd3e 9e35 3ccd 2538 2e16 803d f253 041f
00000280: 68a5 9cbd 0431 389b 10e5 9d39 9610 4a30
00000290: 6f3c b5bd 1140 a4af b6e8 5e94 9d43 5435
000002a0: 3b6b ed2b 0ebd d0bd fc67 ecad 38a9 208e
000002b0: f489 0080 0e8a 0080 8984 b726 fa51 0e25
000002c0: 358a 0080 8689 0000 9e89 0080 ce8b 0000
000002d0: 234a cf92 eb88 0000 22d4 5ebd f744 a92c
000002e0: 7a39 a4bd b207 0696 c63a 1c34 3e89 0080
000002f0: 8d8a 0080 e5c9 7a3c 3b50 182c 1b89 e02b
00000300: 428a 0080 112e 822a 69c5 8738 b1e7 56be
00000310: d46c 0f3d 2309 a927 67ee d025 7f5c 1a17
00000320: 72b7 32b9 8989 0080 5b89 0080 c71b 9d39
00000330: 9b9a 0198 bdb9 2bbd 75f6 4e9b ba88 0080
00000340: d5d3 28bd 6092 5b0a 4e4a a237 ba8a 0080
00000350: f7e7 0420 db89 0080 3f47 47a9 df89 0000
00000360: 543a 2daa b4bb 9c9b f9e1 20bc 368a 0080
00000370: adb2 8637 c2df 1c38 f66f 213c 6053 231e
00000380: 9509 09bc 527f 1d99 be4c d0b9 c33c 9d30
00000390: 4bf4 6dbc 6546 04b0 83c6 1d11 76f4 f834
000003a0: 4af0 a42b 81b1 dcbd 5979 88b1 dce3 370d
000003b0: 4d8a 0080 e388 0080 7aaa 43a7 cc88 e4a3
000003c0: e98a 0080 f289 0000 2089 0000 5089 0080
000003d0: f519 ff12 628a 0080 7c2e 2cbd 1a42 1eaf
000003e0: fc14 a5bd c1ed 6017 1388 dbb4 288a 0080
000003f0: 8f89 0000 a9b4 3b3d b191 c0ac 00e2 b6ab
-4.9106e-41 1.657627e-13 0.0003290168 -0.110403195 0.057543993 4.5363944e-14 5.7555035e-17 -5.388826e-26
0.08847435 -4.9523e-41 -4.9648e-41 0.00031307543 1.5818697e-24 -0.050041784 5.1719493e-11 -4.9118e-41
-0.0283344 -1.0123565e-31 -2.7799038e-05 -4.9663e-41 4.6473475e-20 4.9181e-41 -1.9730457e-14 -1.1614933e-19
1.896961e-12 1.3663503e-21 -0.049213655 -4.9128e-41 0.012180061 0.0003553044 0.041284632 4.5465507e-20
-0.021013908 -8.707868e-24 0.0006088777 -1.579207e-11 0.018109053 -6.1241673e-10 1.9172213e-30 -3.8570064e-07
2.6063975e-12 -0.032382056 -3.796114e-09 6.74348e-32 4.9624e-41 -4.9078e-41 1.1434753e-14 7.3919996e-17
-4.9788e-41 -4.9127e-41 4.9553e-41 -4.9764e-41 9.516016e-28 -4.9292e-41 -0.08739159 -1.6024924e-11
0.0022743423 1.3385926e-24 -1.027576e-07 4.9471e-41 4.9293e-41 0.035782486 5.930445e-12 3.039159e-12
4.9144e-41 4.499355e-13 3.909375e-05 -0.155771 0.14854163 -2.6942277e-14 -1.0401931e-15 -1.3985901e-25
0.014728585 -4.9195e-41 -4.9261e-41 0.000500525 3.8049475e-24 -0.038960006 4.9384463e-23 4.9641e-41
-0.012451717 -1.7404751e-30 -1.7139504e-05 4.959e-41 -7.5219224e-19 4.9212e-41 8.3485244e-15 4.9114e-41
1.8568876e-14 -1.9279312e-21 -0.0862585 4.9651e-41 -1.511247e-08 0.00011109864 -0.03643709 -6.778768e-20
-0.042585537 1.0149515e-22 2.5788953e-05 4.1239798e-10 -0.010800382 2.1871864e-10 1.8933992e-28 9.452382e-07
-3.873519e-12 -0.06571358 -2.99817e-09 -1.9622935e-30 -4.9274e-41 4.9104e-41 4.5036234e-16 4.2417835e-17
-4.9627e-41 -4.9075e-41 4.9347e-41 4.9997e-41 6.9845015e-28 4.9254e-41 -0.03905122 -2.6649644e-12
-0.012956198 -6.706577e-25 1.8055131e-07 -4.9502e-41 4.95e-41 0.045518845 1.1208739e-12 -3.7744355e-13
-4.9598e-41 3.8686624e-13 -4.6778456e-05 0.19150002 0.016705656 -2.4463125e-14 -9.552515e-16 -5.959498e-25
0.014231216 1.390515e-39 -4.958e-41 -2.9121624e-05 -1.074007e-23 -0.04492231 -2.0323124e-22 4.9309e-41
-0.037389025 -6.9555617e-32 2.379404e-06 4.9644e-41 2.7280218e-19 -4.9131e-41 1.5784357e-14 -4.9532e-41
1.1912804e-13 2.052883e-22 -0.054216996 -4.9235e-41 1.1790249e-06 3.9530205e-05 0.062542304 2.8021525e-20
-0.07648736 -1.5235961e-22 0.00030116038 7.351074e-10 -0.088494174 -2.9876948e-10 -1.125403e-26 7.9074545e-07
1.6869625e-12 -0.10192309 -2.6876272e-11 -1.9802998e-30 -4.9488e-41 -4.9525e-41 1.27341e-15 1.2344311e-16
-4.958e-41 4.9334e-41 -4.9368e-41 5.0152e-41 -1.3081813e-27 4.9117e-41 -0.054401524 4.8109255e-12
-0.08018775 -1.0826862e-25 1.4550014e-07 -4.9233e-41 -4.9703e-41 0.0153069245 2.1645036e-12 1.5954212e-12
-4.9598e-41 2.3124604e-13 6.474072e-05 -0.20986821 0.035015896 4.691683e-15 3.6243796e-16 4.987683e-25
-0.00017043742 -4.9338e-41 -4.9274e-41 0.0002996607 -1.6750915e-24 -0.04192518 -1.7119555e-22 -4.9048e-41
-0.041217644 1.05719965e-32 1.9346506e-05 -4.9766e-41 1.1257586e-19 -4.9453e-41 -4.4248673e-14 4.9459e-41
-1.5385723e-13 -2.5929335e-22 -0.009819501 -4.9581e-41 1.6057247e-05 3.740169e-05 0.009853354 8.64639e-21
-0.008364101 -8.142422e-24 -0.0003973003 1.1440523e-09 -0.014523576 -4.8121357e-10 1.2446287e-28 4.6371468e-07
1.1719594e-12 -0.10776044 -3.9719166e-09 5.6665505e-31 -4.9613e-41 -4.9106e-41 -2.7154102e-15 -2.4777745e-17
-4.9832e-41 4.9485e-41 4.9191e-41 -4.9258e-41 1.6099161e-27 -4.9642e-41 -0.04203652 -1.43935e-10
-0.08060643 7.267839e-25 -4.0890936e-07 -4.9561e-41 4.9347e-41 0.045826588 -5.473143e-12 -1.2994605e-12

decoder.3.bias f4 [20]
00000000: a2e7 e13a 6bf4 1bbc d5a5 0b3c 2fc7 7fb9
00000010: 5074 26bc 887c b1bb 12a3 81bc e4b1 9139
00000020: 85bc 8fbb f66c 3d3c edb9 18bc 21fd 6bbb
00000030: d796 09bc 09e6 b63a 4067 78bc 7829 60bc
00000040: f129 163b 7e08 1fbc 9bc5 32bc eebb 6bbc
0.001723517 -0.009518723 0.008523424 -0.00024392897 -0.010159567 -0.0054164566 -0.015824828 0.00027789094
-0.004386487 0.011561623 -0.009321672 -0.003600903 -0.008397779 0.0013954054 -0.0151613355 -0.013681762
0.0022913183 -0.009706615 -0.010911371 -0.014388068
